sparrow/data/networks/prefactor/prefactor_network_v1.pt (torch, 42979 bytes, 17 tensors)

lstm.weight_ih_l0 f4 [60, 20]
00000000: 6f64 14bf 258e 3c3f 94e6 2740 66cb 8340
00000010: 2b02 33c0 364d d23e 6c6f eabd 5f9c 943f
00000020: dc02 97bf 74b5 2340 bf5d 56bf 3642 a6bf
00000030: 3240 3b3f 032c a3be 1610 75be a968 c7bf
00000040: 66dc 1d3e 61cc c7bf 81a5 3340 dae8 83be
00000050: e285 1bbf 961c 093f 1230 0f3f 5574 553f
00000060: 619b c6bd 5161 35bf 39b6 e63e c54d 00c0
00000070: 1f4b bf3f f6d3 dcbe 7bcd 6cbf ba11 79bf
00000080: bb94 103e 0cc3 91bf 88d9 433f 608c a4bf
00000090: c784 62bf 6f75 3cbe 7215 a63f 327a 3b3e
000000a0: b572 57be c6fa ae3f b9fa 3640 0e39 0c40
000000b0: 3e82 eebd 7f89 9dbf ff1d 79bf b667 1340
000000c0: 444c 8dbf c0f1 2cbf a4bc a73f d0c3 18c0
000000d0: 0717 e2bf fc0b 2ec0 9a41 a53e 1338 92bf
000000e0: 9e21 1c3f 733e 0fbd 05de be3f 9b9b 803f
000000f0: b9a2 1cbf b808 db3f 52e4 a13e e67e 8ebe
00000100: 8e64 2740 4304 0ebf 4658 a5bf de28 913f
00000110: a47d a63f 3b9c a43e 71f1 3f40 bbf8 a5bf
00000120: b2c9 89be ea76 1a3e 1f9a 6fbe 8848 b7bf
00000130: f1ea 4fc0 1717 c3bf e053 5740 303a dcbe
00000140: 6eb4 82bf 7175 003f 38e2 623f d5a1 6d3f
00000150: 4ff6 13bf 989a c33e f8f5 f9bf aab3 0f40
00000160: 4c32 51bd c4de 0bbe d8ea ab3f 9f6d adbf
00000170: 9068 1a40 e0e1 043e 7b85 0fc0 46fd cabf
00000180: c92b bfbd a687 08bf 3839 0840 7bb6 1340
00000190: b456 93bf ae37 67bf 94ad 023f d449 383e
000001a0: b648 9a40 ce11 c9bc d364 4abe 3679 1fc0
000001b0: b780 703e fbb0 df3e 4af7 c13f 6398 1d3f
000001c0: b0a9 5040 4a8a 56be c579 90bf ffc4 25c0
000001d0: 1256 99c0 187d 533f 71c7 1d40 065a 9440
000001e0: 1e58 903e efde 0a3f 891a c5be fd61 ebbf
000001f0: da19 05be b61c d73e fc50 b6bd 118d 273e
00000200: 2ccc ed3e 09d8 ac3f 425c 4140 747f 4b3e
00000210: e6d0 813f 2f4c 57be 9e49 8b3f a01f d83d
00000220: f442 f3bf 46a2 75bf b8fc cf3f 970e ac3f
00000230: 067a 36be 06ca 0a3f dcae 0d3f b4e0 4d3e
00000240: a2aa 1d3f 9590 2dbf 52ce c9bf 48eb a7bf
00000250: 39cc 803f 0f65 f43e 78be 3640 6abd 5ebf
00000260: b2a7 303f 9b9d 23bf 7455 3abf 2406 15c0
00000270: 85b8 9ebe f983 92bf def5 f03f b025 e03f
00000280: ab45 cdbf f263 f43f 32fe 7d3f 0540 3b3d
00000290: 82d4 46bf d0e3 64c0 4995 9dbf 67b1 2e3e
000002a0: c1f7 21bf 65db 1f3c c1f4 08bf 0aae 873d
000002b0: 5cd6 9fbf 7bc7 79bd 3538 bc3e 743a d1bf
000002c0: c527 41bf b9b2 003f b8f1 64be 6def ba3f
000002d0: 8f28 62bf 9e28 58c0 c1d5 f93f c122 2440
000002e0: 3e29 a23f fcae e83d 9687 e0bf df4d 943e
000002f0: fb82 ccbf 772c abbf c07d 47bf 2893 e6be
00000300: b5d1 9dbf f537 c7bf 3a90 303f 384d 1abf
00000310: 243b ccbf d2ca ebbf 9f4a b23f d5b4 673d
00000320: 7801 32c0 d109 d8bf f763 30be 141a 96bf
00000330: ddb5 a03f fc96 02c0 963f 08bf 011d b83f
00000340: 4835 7d3f 26a6 b23e c540 5ebf cce3 403f
00000350: 28ed 6f3f a846 8a3f 8609 9a3e b0a5 f2bf
00000360: 2e3e f8bf 8d33 c7be 87a7 473f 6bf7 0e3f
00000370: 2f34 14bf 5816 59bf 10f7 b33f 6bf8 1dbe
00000380: 6343 17be 60d7 15bf 1e45 10c0 0212 cdbf
00000390: 5909 183f 8982 723f 7302 4040 bc45 c3bf
000003a0: f96d b9be 33a0 94bf 97ca c33f 7c59 83bf
000003b0: 5f18 32c0 f278 acbe 20ba 3d3f fd24 5b3f
000003c0: e7bd 27bf 0a60 acbd b0ce d53f 73ea 0d40
000003d0: 41f9 69bf 0cfd 8dbf 595f 29c0 fdf1 bebe
000003e0: 03c0 173e fb62 833f 8e32 753f c78a 373f
000003f0: d68f 9f3e ab2f 5b3f deb8 81bf 2470 93bd
-0.5796575 0.73654395 2.6234484 4.118579 -2.7970073 0.41074532 -0.11447033 1.1610221
-1.1797748 2.55795 -0.83736795 -1.2988956 0.7314483 -0.31869516 -0.23931918 -1.5578815
0.15416107 -1.5609246 2.8069766 -0.2576359 -0.60751164 0.53559244 0.55932724 0.83380634
-0.09697605 -0.7085162 0.450609 -2.0047467 1.49448 -0.43130463 -0.9250104 -0.97292674
0.14119236 -1.1387649 0.765038 -1.2855339 -0.8848385 -0.18404172 1.2975295 0.18308333
-0.21039851 1.367028 2.859053 2.1909823 -0.116459355 -1.2307585 -0.97311395 2.303205
-1.10389 -0.6755638 1.3104444 -2.3869514 -1.7663277 -2.7194815 0.32276613 -1.1423362
0.60988796 -0.034971666 1.4911505 1.0047487 -0.61185795 1.7112036 0.31619507 -0.2783119
2.6155124 -0.5547525 -1.2917564 1.1340597 1.3007092 0.32150444 2.9991114 -1.2966532
-0.26911694 0.15084425 -0.23398636 -1.431901 -3.2487147 -1.5241421 3.3644943 -0.43013144
-1.0211313 0.501792 0.8862643 0.9282506 -0.5779771 0.38203883 -1.9528189 2.2453408
-0.051073357 -0.13659197 1.3431044 -1.3549079 2.412632 0.1297679 -2.242522 -1.5858543
-0.09334523 -0.53331983 2.1284924 2.3080127 -1.1510835 -0.90319335 0.5104611 0.17996913
4.821376 -0.024544623 -0.19765024 -2.4917731 0.23486601 0.43689713 1.5153592 0.6156065
3.260357 -0.2095119 -1.1287161 -2.5901487 -4.7917566 0.8261275 2.465298 4.635989
0.28192228 0.5424642 -0.38496807 -1.8389279 -0.12998143 0.42014092 -0.08902165 0.16362406
0.46444833 1.3503429 3.021256 0.19872838 1.0141876 -0.21025155 1.0881841 0.10552907
-1.9004807 -0.95950735 1.6248999 1.3441952 -0.17819986 0.54214513 0.5534494 0.20105249
0.6158849 -0.6779874 -1.5766089 -1.3118677 1.0062324 0.47733352 2.8553753 -0.8700777
0.6900588 -0.6391236 -0.7278664 -2.3284998 -0.31000152 -1.1446525 1.8825033 1.7511501
-1.6036886 1.9093001 0.99215996 0.04571535 -0.7766801 -3.5764046 -1.2311183 0.17059861
-0.6326867 0.009756898 -0.53498465 0.06624992 -1.2487292 -0.060981255 0.36761633 -1.6345963
-0.7545131 0.5027271 -0.22357833 1.4604317 -0.8834314 -3.377479 1.9518358 2.5646212
1.2668836 0.113615006 -1.7541378 0.2896566 -1.5977472 -1.3372945 -0.77926254 -0.45034146
-1.2329623 -1.5563952 0.6897007 -0.60274076 -1.5955548 -1.8421271 1.3929023 0.05656894
-2.7813396 -1.6877996 -0.17225634 -1.1726708 1.25555 -2.0404654 -0.53222024 1.4383851
0.98909426 0.34892386 -0.8681758 0.7534759 0.93721247 1.0802813 0.3008539 -1.8956814
-1.9393976 -0.38906518 0.7799 0.5584628 -0.57892126 -0.8479972 1.4059772 -0.15426795
-0.147718 -0.5853176 -2.2542186 -1.602112 0.59389263 0.9473043 3.0001495 -1.5255656
-0.36216715 -1.1611389 1.52962 -1.0261683 -2.7827375 -0.33686024 0.7411213 0.85603315
-0.65524143 -0.084167555 1.6703701 2.2174346 -0.91395956 -1.1092849 -2.6464446 -0.37293997
0.1481934 1.0264581 0.95780265 0.7169613 0.31164426 0.8561961 -1.0134542 -0.071991235

lstm.weight_hh_l0 f4 [60, 15]
00000000: 07ff 633f 7fd6 0b40 1706 893f d903 1fbe
00000010: f0f4 023e 5535 62bd 8e2c 2d40 29c9 343f
00000020: 7e7e c03f e18c 21be 7598 84be 2f84 94bf
00000030: 7964 303e fc89 5dbf a894 063f a334 aebe
00000040: 2f8f 453e 550b 03bf 1e19 c63c 09d4 9d3d
00000050: 76b6 7d3f f11c a6ba fe02 c33d c00c dc3e
00000060: 1e09 8bbf a495 63be fd40 b23e 3ac4 42bf
00000070: bdc9 b83f 882d 6c3f 5619 cf3e 5994 2bbf
00000080: 6e3f e7bd eb6f 9c3e 50ee ad3e 722c 63bf
00000090: c21c 883e d8ea a6bf 6b44 4e3e 47a7 9e3e
000000a0: a86c 07bf ebd8 383c 6f06 24be b6df e53e
000000b0: 331e 023f c78c 603f 550f 8abe 6c0f 64bf
000000c0: 46fd 8f3f ab9a 60bf 82e6 1fbf 24fd c33d
000000d0: 4cb4 24bf 9e36 d6be 5a19 49be 932c 503f
000000e0: 2e70 123f 4b35 68bf 6693 c53f 8fb5 14bf
000000f0: 8544 e53e 112e 8cbe 5684 17be e2bb 703f
00000100: e0e3 afbe b81f 913e 73e3 9f3f 632b 30bf
00000110: ff99 0f3e 9ca0 a5be 3620 563f 89c9 363f
00000120: 3f56 cebe a859 a03f 0189 25bf 280f d03e
00000130: 6ea2 053d 2175 03bf 8724 a43f 9905 cebe
00000140: ee36 b83d 79bc a63f 8259 8f3e 25d1 a3be
00000150: 3544 d03e 5318 113f 6b33 5c3f 751a bebe
00000160: 0f19 c3be b306 9fbf af28 483e 30b2 1cbf
00000170: 540d 82be c3bc e53e b78c 7b3f c220 873f
00000180: 539b 233f f48c 803f 60be a2bf 5fe1 a6be
00000190: c622 38bf b1fb 63be fc70 833f 63d7 57be
000001a0: cbe1 083f 87cf 623f 2dd3 143f d150 023f
000001b0: b31f 48bf f162 3c3f 1859 e33e 449e 523f
000001c0: 64e8 2bbf c43c ec3e 4e27 f2be 6ddf a93b
000001d0: ece4 123e 7818 5f3c 84cb 5a3f bd68 f1bd
000001e0: c411 493f f974 f53e dee2 7dbf 829f 0c3c
000001f0: 3234 2dbf fc60 93bc d9db 293d 4fb5 f43d
00000200: d164 a63e 129d af3e 9620 db3e e317 a63e
00000210: 8d2c cf3e 4985 55bd 9483 3cbf d9d4 983c
00000220: 6faf 07bf 16f6 013d 42ca c53d 58e7 48bf
00000230: 80bf 4dbc c031 c33e 0a80 a43e 8650 ffbd
00000240: cba2 36be 25fb 5e3d 9468 6e3e 9ae5 e5be
00000250: 076c 9fbe 3e6d 35be 3668 db3f e901 483f
00000260: 62a3 b93e e8c2 053e 1f0e 163f 08e4 103f
00000270: 41a5 bc3e 3f43 13bd 825f b5be 6393 8bbf
00000280: cfb4 293f 2db9 b2be 8ef1 953f a0f9 26bf
00000290: d4c5 103f 7a82 2dbf 590f 12bf e0c5 9fbe
000002a0: 749e 56bd e073 a1bf b665 e53e baca 8c3f
000002b0: 4c45 c23e 5083 16bd 225b 14bf 8496 4e3f
000002c0: e86e 7abf 6ce7 30bf e06b 8e3f f333 b2bf
000002d0: eaf0 a7bd 602b e1bf da29 293e 0ab0 5bbf
000002e0: b940 463f 925c be3e f3a3 0e40 bff7 bebc
000002f0: ad89 7e3f 5236 4bbf a3d9 413f a662 203f
00000300: 98f9 85bf d10d 953d 125a ccbf af7c a23e
00000310: 6cd9 d33f cbd9 de3e d077 2d3f 4a31 173f
00000320: 0b42 c23e da7f 473f f2c6 813e 3428 233f
00000330: 22d3 a03e 8b41 593f 4478 ca3e 4327 933f
00000340: 8041 bb3e b4f1 00bf f9a0 febd bc26 c43f
00000350: fca7 adbd 85f2 92bf 17b7 bbbd b083 393f
00000360: 2b9b 9a3f 7a50 bb3f 1535 debd d276 1dbd
00000370: 3f6b 2c3f 5444 cdbe c8ec a23d a706 b73f
00000380: ea3b d93c 0737 593d 8cc0 c23f 3020 0e3f
00000390: 0d94 adbb 18ff 37bf 99ba a43f 4fda a53d
000003a0: 1f97 81be a51f 18be ea54 bbbe a842 96be
000003b0: 2033 71bf ee76 08bc 2601 533f 725b c93e
000003c0: c3b8 d3be 55f0 ed3e 6629 9fbe 52a5 a2bf
000003d0: b118 9f3f 458b af3e 7e33 9cbe c1d6 5dbf
000003e0: 91a3 a53f c89d 92bd 0bc9 efbe 28ed 173f
000003f0: b616 4e3f 2ee7 943e c459 64be 31dc 57bf
0.89061016 2.1849668 1.0704983 -0.15528812 0.12788749 -0.055226643 2.7058444 0.70619446
1.5038602 -0.15776397 -0.25897565 -1.1602839 0.17225827 -0.8653867 0.5257058 -0.34024534
0.19292901 -0.51189166 0.024181899 0.07706458 0.9910654 -0.001267342 0.09522055 0.42978477
-1.0862157 -0.22225052 0.34815207 -0.7608067 1.4436566 0.92256975 0.40449017 -0.67023236
-0.11291395 0.30554137 0.3397088 -0.88739693 0.2658444 -1.3040419 0.20143287 0.30986997
-0.5290017 0.011282186 -0.16018079 0.4489724 0.5082733 0.8771481 -0.26964822 -0.8908603
1.1249168 -0.87736005 -0.624611 0.09569767 -0.6433761 -0.41838545 -0.19638577 0.81318015
0.5720242 -0.9070632 1.5435607 -0.58089536 0.4477884 -0.27378896 -0.14796576 0.94036686
-0.34353542 0.28344512 1.2491287 -0.688162 0.14023589 -0.32349098 0.836429 0.7140127
-0.40300176 1.2527361 -0.64662176 0.40636563 0.03262561 -0.513506 1.2823647 -0.40238646
0.08994852 1.3026267 0.27997977 -0.31995502 0.40677038 0.5667774 0.8601596 -0.3712956
-0.38105056 -1.242392 0.1954677 -0.6120939 -0.25400794 0.44870576 0.9826159 1.0556872
0.6390888 1.0043015 -1.2714348 -0.3259382 -0.7192806 -0.22263981 1.0268855 -0.21078257
0.5346953 0.8859791 0.5813473 0.50904566 -0.7817337 0.7358847 0.4440391 0.82272744
-0.67151475 0.4614011 -0.47295612 0.005184105 0.1434514 0.013616674 0.8546679 -0.11787555
0.78542733 0.47940806 -0.99174297 0.0085829515 -0.6765777 -0.017990582 0.04146943 0.11948644
0.32498792 0.34299523 0.427983 0.324401 0.40463677 -0.052129064 -0.7363827 0.018656181
-0.53002065 0.031728826 0.09657718 -0.78478 -0.012557864 0.38123894 0.32128936 -0.124665305
-0.17835538 0.05443873 0.23282081 -0.44901735 -0.31137106 -0.17717454 1.7141178 0.78127915
0.36257464 0.13062632 0.586153 0.5659795 0.3684483 -0.035952803 -0.3542443 -1.0904354
0.66291517 -0.34906903 1.1714342 -0.6522465 0.5655186 -0.67777216 -0.5705467 -0.31205654
-0.052397206 -1.2613487 0.44804162 1.0999367 0.37943494 -0.036746323 -0.5795156 0.8069842
-0.9782548 -0.6910312 1.1126671 -1.3922104 -0.082002476 -1.7591362 0.16519871 -0.8581549
0.7744251 0.3718 2.2287567 -0.023311494 0.99428827 -0.7937976 0.7572271 0.62650526
-1.0466795 0.07278026 -1.5964987 0.3173575 1.6550727 0.43525538 0.67760944 0.59059584
0.37941012 0.7792946 0.25347096 0.6373322 0.31411082 0.84865636 0.3954488 1.1496357
0.3657341 -0.5036881 -0.12433047 1.5324321 -0.08479306 -1.1480261 -0.09165781 0.72466564
1.2078604 1.4633934 -0.10849968 -0.038443394 0.67351145 -0.40091193 0.07955319 1.4298905
0.026517827 0.053030994 1.5215011 0.55517864 -0.00529719 -0.7187362 1.2869445 0.0809828
-0.2531061 -0.14855821 -0.36588222 -0.2934773 -0.94218636 -0.008329136 0.8242363 0.3932758
-0.413519 0.4647242 -0.31086272 -1.2706702 1.242941 0.34285942 -0.30508035 -0.86655813
1.2940542 -0.07159001 -0.4683307 0.59346247 0.80503404 0.29082626 -0.22299868 -0.8432036

lstm.bias_ih_l0 f4 [60]
00000000: f421 d7be 1032 64bf 916b 1dbf d37e 3bbf
00000010: f23b a6bf d8d5 2bbf 7a7a 27bf f4a9 15bf
00000020: 6271 6fbf 465b 75bf 7110 c5bd 6bac 45bf
00000030: f25c 2bbf cb10 02bf 4ed7 debe 41fe 91be
00000040: f51c 3d3f 2737 e13e e1a1 583e 345d 603e
00000050: 2979 103f 3ec5 a03e ca76 713f 540a 823f
00000060: 798c 353f 1d9a d03e 0135 613e 449c d2ba
00000070: 8998 413d 5144 053f 9230 efbd 0f36 ebbd
00000080: 997c 9cbd 6a46 653e 8044 583e 355e ad3c
00000090: 7a0e 2d3e 69c0 98be 9f6a 2ebe cbba fdbd
000000a0: d772 13bd 18b8 073e 71ea df3d 1c0d 07be
000000b0: bd84 2cbe c650 dabe 758d 8fbd 3bfb 6bbd
000000c0: 3068 17be ea85 0bbf 4f0b e9bd fcd2 b33d
000000d0: a4b9 8bbe 80fc f5bd 851a 3cbe 8db9 74be
000000e0: 9bdf 50be ea96 abbe ddfd 00bf 851c 1dbf
-0.42018092 -0.8913889 -0.6149226 -0.73240393 -1.2987044 -0.67123175 -0.6542126 -0.5846245
-0.93532383 -0.958424 -0.096222766 -0.77216214 -0.669387 -0.50806874 -0.4352364 -0.28514293
0.7387231 0.4398739 0.21155502 0.21910554 0.56434876 0.31400484 0.9432188 1.0159402
0.7091747 0.4074258 0.21992876 -0.0016068299 0.04726461 0.5205737 -0.11679186 -0.1148492
-0.076409526 0.22390142 0.2111988 0.021163085 0.16900054 -0.29834297 -0.1703286 -0.123891436
-0.03599819 0.1325382 0.10933388 -0.13188595 -0.1684751 -0.4263975 -0.07009403 -0.05761264
-0.14785838 -0.5450121 -0.1137911 0.087804765 -0.2729007 -0.12011051 -0.18369491 -0.23898907
-0.20397799 -0.33513576 -0.50387365 -0.6137164

lstm.bias_hh_l0 f4 [60]
00000000: cb3e cebe 5986 a3bf a5da 73bf 1081 97be
00000010: 8f73 5bbf 8139 37bf 190c eebe b515 91be
00000020: 18cc 5cbf 5c59 70bf 3e82 acbe 8d02 50bf
00000030: 5508 00bf 2f59 51bf 9cb2 d1be f441 37be
00000040: eb45 2e3f 89e7 fd3e b760 a63e 768c e93e
00000050: dda1 013f fb31 623e 7ef4 823f b6a4 4e3f
00000060: 3313 6a3f 9bcd 853d e5e6 a03e 575a a43e
00000070: 7aa9 8c3e 6d1b 923e 1bc9 2abd ce5b bcbe
00000080: 67ff 8a3e 7099 4f3e e863 b93e 6abc 373d
00000090: e91f 53bc 3fb4 c13d f4fb 8fbe 331a 54be
000000a0: 740b b1bd 9b8d 523e b27a af3e fdd8 98be
000000b0: b042 11be 8537 8ebe 567f b9bd daa0 4fbd
000000c0: bd94 14be 576e 39be 1a76 a7be df44 6bbd
000000d0: 8fd0 acbe bbb1 2dbe b2f9 b3bd ec7e a1bd
000000e0: 8e3f 60be adf2 a0be 8492 95be 8b85 13bf
-0.40282282 -1.2775375 -0.952555 -0.29590654 -0.85723203 -0.7157212 -0.46493605 -0.28336874
-0.8624892 -0.9388635 -0.33693117 -0.8125389 -0.50012714 -0.8177671 -0.4095658 -0.17896253
0.68075436 0.4959071 0.32495663 0.45614976 0.5063761 0.22089379 1.0230863 0.8072008
0.91435546 0.06533357 0.3142616 0.32100174 0.2747305 0.2853655 -0.041695695 -0.3678879
0.27147982 0.20273376 0.36209035 0.04485742 -0.012886026 0.09458207 -0.28121912 -0.20713119
-0.08644763 0.2056183 0.34273297 -0.2985305 -0.14185596 -0.27776733 -0.090574905 -0.05069051
-0.14509864 -0.18108498 -0.32707292 -0.057438727 -0.33752868 -0.1696233 -0.0878786 -0.078855366
-0.21899244 -0.31435147 -0.29213345 -0.57625645

lstm.weight_ih_l0_reverse f4 [60, 20]
00000000: fc4c 8c3e 060f b43f b751 943f b499 0ebf
00000010: 53db 4540 2d1c 8cbe 96ea 17bf 205d 4d3f
00000020: 1d76 333f 25cd 1140 1ee7 5c3f 3eb2 0240
00000030: 36b5 40bf 5f41 363f e57c c13f e02a 93bc
00000040: e69b 583f f8e5 febf 5ae1 833f 5e32 22be
00000050: 459d ecbf 783a e6bf ca3e 11bf 32d4 c4bf
00000060: 35d4 97bf ff0a 913d ba10 293f a75a e93f
00000070: cc01 0ebe a6af f8be 3e86 183f 9fa0 87bf
00000080: bfc7 d4bf 56ed 9a3f d7d5 b8be 5c79 e9bf
00000090: f11e 3d3f 1119 1bbf 991d 85bf 7abc e33e
000000a0: a455 0c3f e923 95be ecf4 363f 0968 96bf
000000b0: 11b0 5740 8258 8e3f c387 fcbf 08f4 e93f
000000c0: 4160 71be bbd1 8abe 38c3 df3f e79d 0bc0
000000d0: d6d6 a53f fa89 e8bf 699b 4e3f 4ef2 a83f
000000e0: da37 3bbf 1e18 65bd b579 2d3e fb1a 183f
000000f0: 0e23 013f eb4f 59bf cf4d 2e3f 3a43 463f
00000100: 0b17 833f 4389 25be 75b2 803d b5ba e13e
00000110: f46b 2a3f 1368 bbbf 2275 e0bf 992e e5be
00000120: 3cd2 91be c4fd 00be 0f15 5ebf ad0f febf
00000130: 5939 73bf 294a 403f e7da c0bd a4cd 843f
00000140: 1d5d 19bf bc2c ba3e 8d86 b23e 67f8 293f
00000150: 6e4c cf3d 04a3 9e3c 6b3c b93e d0d7 b83f
00000160: a4f9 8e3d 7a27 b3c0 e49b 733e e022 21bf
00000170: 6d79 afbf b6af 33c0 0976 a43e badd 5ebf
00000180: b89a c8bf a9ff 093f 856d cabd 6844 e73e
00000190: d305 723e d3ab 6abf fa75 073f 1936 b83e
000001a0: f2ba df3d ad88 d33d 3237 583f eac6 8b3e
000001b0: e193 45be c3a9 5a3f 3dbd 37c0 8d03 dcc0
000001c0: f671 07c0 3582 d8bf 46a1 123f 692c d6be
000001d0: aaf0 94bf 0de9 6abf 8903 873f 2869 783f
000001e0: c5d8 853f c1fa 1e3f 464e a73e 78fd 58bf
000001f0: 2514 99be 2659 8b3f fd95 9a3f 4bf5 843f
00000200: 266f 453e ed89 2cbf 4af0 09c0 5a9d 2140
00000210: 54c6 5d3f 3ab4 883f 5468 e7be 21cf d23f
00000220: aef2 153f 0373 f4bf b115 823f ecf0 b13f
00000230: da2a 0fbe 2acb 29be 011d a0bf 29d3 98bf
00000240: 9f1d cabf 1070 15bf 8764 1bbf 7289 b5bf
00000250: 98b2 62be 0da6 c03d 8346 c63d 5bc0 fdbe
00000260: d8d7 b9be 4738 953d 3074 86be 2ff1 36bb
00000270: 29ad 71bf c17c 27c0 8671 863f 00d7 0b3f
00000280: 8855 253f bca0 4dbf 3054 493f 25c0 efbe
00000290: 495c 5140 9a8b 213f 2bba fbbe a107 3bbe
000002a0: e343 c23f 77e0 1abc d725 04c0 667a bd3e
000002b0: d806 98bf 53fe 1fbf 0fc8 353f dc4a 8cbf
000002c0: 9c6f ce3e 4fe1 323f e511 4d3f 0d4a 363f
000002d0: ffee 2cbd b618 163f 1535 35bf 986c 01bf
000002e0: 69e0 603d 2ffa e4bf efda 59be 078e 31bf
000002f0: 7787 05bf 0588 603f 810b 08c0 2d72 bfbf
00000300: ad47 e9bf 4072 c13f cd56 133f c5cd 71bf
00000310: 0597 e03e 7d96 973e 8731 1bbf a5da c93d
00000320: 3cf6 6b3e bf76 8bbd 884d 073f dedb 97bf
00000330: b1f8 063f c0a9 26bf 6976 29c0 4a54 9d3f
00000340: da1b 163f 5fd2 273f 78b4 93bf 4432 83bf
00000350: 3974 1e40 862a 39be 381e b33e 84f5 c1bf
00000360: 240b 7c3f d072 8c3f a06c ee3f 5d3f 91bf
00000370: f799 2dc0 7168 e03e 7a48 8a3f 93e4 963f
00000380: d3b0 3b3e 618e 7e3e f9e4 003f 514d e9be
00000390: 8fd5 dc3d 6ac8 b63f c8d7 853e 4940 69be
000003a0: 3263 5fbf 3b66 6bbf 3ea6 b9be ca59 f63e
000003b0: 8d4d 6c3d 44cb 9e3f 4b2d f1be fb66 99be
000003c0: a85e 7a3f f8e6 8bbf 5852 42bf 0eab e63e
000003d0: 7db7 36bc dd26 ab3f fcc5 783e 3723 8b3f
000003e0: a8a6 a43e eee5 693e 9142 ca3f 37ef 5f3f
000003f0: 8e6a 8b3f a92d 0a3e c18f b23e be2c f83e
0.27402484 1.4067085 1.1587437 -0.5570328 3.0915115 -0.27365246 -0.59342325 0.8022022
0.701021 2.278146 0.86290157 2.042129 -0.75276506 0.711935 1.511624 -0.01796478
0.8461288 -1.9913931 1.0303147 -0.15839526 -1.8485495 -1.7986593 -0.56736434 -1.5377257
-1.1861635 0.070821755 0.6604115 1.823079 -0.13867873 -0.4857151 0.5957984 -1.0595893
-1.6623458 1.2103679 -0.36100647 -1.8240161 0.7387534 -0.60585123 -1.0399657 0.44479734
0.5481818 -0.2912896 0.7146747 -1.1750499 3.3701212 1.112076 -1.9728931 1.8277597
-0.23571874 -0.27113137 1.7481451 -2.1815126 1.2956188 -1.8167107 0.8070589 1.3198946
-0.731321 -0.055931203 0.16940959 0.5941617 0.50444114 -0.8488757 0.68087476 0.7744633
1.0241407 -0.16165642 0.06284038 0.4408776 0.66570973 -1.4641136 -1.7535746 -0.44762114
-0.2848071 -0.12596804 -0.8675088 -1.9848534 -0.9500938 0.7511316 -0.09416752 1.0375257
-0.59907705 0.36362255 0.3486828 0.66394657 0.10122 0.019364841 0.36178908 1.4440861
0.06981209 -5.598569 0.23789936 -0.6294384 -1.3708931 -2.8075995 0.32121304 -0.8705708
-1.5672216 0.5390573 -0.098841704 0.45169377 0.23635034 -0.9166843 0.5291439 0.35978773
0.10924329 0.10328803 0.8445922 0.27300197 -0.19294693 0.85415286 -2.8709252 -6.8754334
-2.1163306 -1.6914736 0.57277334 -0.41830757 -1.1635945 -0.9176186 1.0547954 0.97035456
1.0456778 0.6210137 0.32676905 -0.8476176 -0.29898182 1.0886581 1.2077023 1.0387357
0.19280681 -0.6739796 -2.155291 2.525229 0.8663075 1.0680001 -0.45196784 1.6469461
0.58573425 -1.9097599 1.016287 1.3901649 -0.1398119 -0.16581407 -1.2508851 -1.1939441
-1.579029 -0.5837412 -0.6070027 -1.418257 -0.2213844 0.09406672 0.09681418 -0.49560818
-0.36297488 0.07286125 -0.2626052 -0.0027914753 -0.94404846 -2.6169894 1.0503395 0.5462494
0.64583635 -0.80323386 0.78644085 -0.46826282 3.2712576 0.6310364 -0.49165472 -0.18264629
1.5176967 -0.009452931 -2.0648096 0.37007445 -1.1877089 -0.6249744 0.7100839 -1.0960345
0.40319526 0.69875044 0.8010543 0.7120674 -0.042220112 0.58631456 -0.7078412 -0.50556326
0.054901514 -1.788885 -0.21274923 -0.6935734 -0.5215983 0.8770755 -2.1257021 -1.4956719
-1.8224999 1.5112991 0.5755432 -0.94454604 0.4386522 0.29607 -0.6062245 0.09856156
0.2304315 -0.068097584 0.5285268 -1.1863973 0.5272322 -0.6510277 -2.6478522 1.2291348
0.5863625 0.65555376 -1.153945 -1.0249715 2.4758437 -0.18082628 0.34983993 -1.515305
0.984545 1.0972538 1.86269 -1.1347462 -2.7125223 0.43829682 1.0803368 1.1788505
0.18329172 0.24859 0.50349385 -0.455668 0.107829206 1.4279912 0.2614119 -0.22778429
-0.87260735 -0.91952866 -0.36259645 0.4811538 0.057691146 1.2405782 -0.47104868 -0.2996138
0.97800684 -1.0929861 -0.75906897 0.4505238 -0.011152145 1.3371235 0.24294275 1.0870122
0.321584 0.22841617 1.5801564 0.8747439 1.0891893 0.1349398 0.348753 0.48471636

lstm.weight_hh_l0_reverse f4 [60, 15]
00000000: 3350 21c0 9c93 1cbe 61d5 053f ddc0 0cbf
00000010: e263 063f d07d 0f3e 2ca0 89bf 3de8 843e
00000020: 6f8e 92bf 1cc1 0f3f ad07 c13e 42a8 ce3f
00000030: 78df 77bf e8a9 7abf 5e3f c1bf ac16 a23f
00000040: 989d 053e d10c 0d3c ff49 093f 175d 0bbf
00000050: ba4b d83f cc58 36bc 8a2d 2cbf 64eb 12bf
00000060: 9656 8abe 11f1 133f 4a19 8fbf 76ec b73e
00000070: 16af 6d3f c71a e9bd 2190 b0bf 2306 c03f
00000080: 37e7 1d3f ee4a 37be 68c5 c3bf d7ba 31bf
00000090: 2d94 32bf 0931 953d 502b a1bf 78f1 da3c
000000a0: 7839 f33f 91f4 b13e f7d5 a3bf 0e51 e3bd
000000b0: af13 64bf 5e9a e83e b47c 7cbf 8307 4e3e
000000c0: 11bd 883d 3b37 0a3e 7205 4a3e 7ab9 8ebe
000000d0: ce06 5a3f dfde 61be ead3 383d 85ba ebbe
000000e0: 4154 c5be 427c 8e3e 414b af3e e4f7 ae3e
000000f0: e0ef 433f 851f 373f 075e a3be c12e e03e
00000100: 77f7 a5be 4a3c e8bd d45a 82bf 09a5 013e
00000110: b9d4 873e bc28 da3e ae79 e6be 5c99 7dbf
00000120: 2335 973e 86c5 11be 6ac5 d23d 0948 1a3f
00000130: 820b 25bf 97f7 cd3f 23f8 323e 34d7 90be
00000140: 1836 183e 3e93 82bf e31e ccbe 3712 893e
00000150: 5b6e 9f3e 2093 dabe b2a9 683f 18ec 633e
00000160: 19f8 c63c b3f2 903e a2e6 e53f 3d13 83bd
00000170: d593 2fbf 5ce1 c53f 9f19 32bf 0685 d43d
00000180: 26fb 003f 9989 f3bd 3469 3c3f 016d 4a3f
00000190: 37ea 66bf 6e2a 85bd 5279 b93e f507 34bf
000001a0: e0f5 e03f bc68 253f d200 103e 84d7 43bf
000001b0: 7fc5 883e d2c5 fabe c10a 3cbe 7d91 f1bd
000001c0: d838 24bf 3f34 e33e 8ced 863f f6f0 eebe
000001d0: a364 443f 6630 7c3f 6092 09bf ad3e f73e
000001e0: 400a 213f 7665 83be bb38 00be 63b2 07bd
000001f0: fff7 4abf b651 85bb 8224 8f3e 6a29 c8bd
00000200: 18ba 82bf dc3a 47be 62bc 53be 5a21 db3e
00000210: a998 3a3f ea0b 92bd 8f7e 013f 4629 163f
00000220: 8d4f 8ebd 059b 7fbd 94bf 09bf 6b95 debe
00000230: d126 ab3b 973e 1b3f 30c8 2cbe 6f43 e63d
00000240: eccd 6bbf ee8d 03bf 0b51 0dbf bb47 ce3b
00000250: 33ea 2b3f 40b2 0ebd f042 32bf 203b bf3d
00000260: 46a6 693f 1ee6 123d 5b80 18bf e2e1 603f
00000270: e336 94bf 7004 b1bf 2fc5 873e e4f7 903e
00000280: 6511 653f d701 ddbe c545 343e 14ec 383e
00000290: b33e 493e 86b4 f33e 56b8 563f 07c8 e3bc
000002a0: a707 073f 315c 6abe de19 b7bf 66fb 66bf
000002b0: 4e9a 98be f3ee 5c3f 240f 843e 0cf7 d5be
000002c0: 4008 14c0 1b72 8abd 97a6 c43f e4ca 933e
000002d0: ddd7 59bf ce01 0cc0 5c29 9abf b6e1 ca3b
000002e0: 715a 6a3e e8b8 cfbf e64b 4d3e 9c78 7b3f
000002f0: 6d62 1bbf c086 bc3e 02b0 aa3f f79e cc3e
00000300: 732c 04be 8aaf e43d 438e 8fbf 8486 d63e
00000310: 1ad8 4f3e 1901 babe 12fe 013d 264b 19be
00000320: 0261 58be dc6d d6bf 84e1 f03e 5b59 95bd
00000330: defd a23e d211 90be 3bc7 e7bf 9c1d 373f
00000340: 1948 6d3f cf76 c43e 46f5 223d 7e72 5dbf
00000350: d875 00bf 7ef0 443f 8f83 1e3f a10a 423f
00000360: 39ef 143f 7e05 0040 c2fc 9a3e 5dba 3f3f
00000370: a9f8 00be 7ffa 53bd 1b10 573d 437f 923f
00000380: 3d9c 66be cef3 dbbe 3f7b b2bf 3dcb 173f
00000390: 7cd7 2bbf a694 383e 3d99 a3be 1cf8 243e
000003a0: d97b b03f 3d7d e83d f4ed a43e d892 c63e
000003b0: 0620 23bf 4626 95bf 6f44 6a3f 6a67 98be
000003c0: 2faf 82bf 24fe 33bf 5dd7 83bc 232a 92bf
000003d0: ed8b 30bd 5387 073d 70d7 f23c 79ce 38be
000003e0: 4ef5 e3be 34bc e0bd f64a fb3e 2106 163e
000003f0: 7659 ddbd e19d 5c3f 317f a6bf f352 3dbf
-2.52052 -0.15290684 0.52278715 -0.54981786 0.5249616 0.14012837 -1.0752006 0.25958434
-1.1449717 0.56154037 0.3770117 1.6145098 -0.9682536 -0.97915506 -1.5097463 1.2663169
0.13048398 0.008609013 0.53628534 -0.5443892 1.689811 -0.011129569 -0.6725699 -0.5739043
-0.27019185 0.57789713 -1.1179593 0.35922593 0.92845285 -0.113820605 -1.3793985 1.5001873
0.6168093 -0.17899677 -1.5294619 -0.6942572 -0.6975735 0.07284743 -1.2591343 0.02672647
1.9001913 0.34756902 -1.2799672 -0.11099444 -0.89092535 0.45430273 -0.9862778 0.20120053
0.066766866 0.13497631 0.1972864 -0.27875882 0.85166633 -0.22057675 0.045123972 -0.4604074
-0.38540843 0.27829176 0.34237102 0.341735 0.76537895 0.7153247 -0.31907675 0.4378567
-0.32415363 -0.11339624 -1.0183969 0.12660612 0.26529482 0.42609203 -0.4501471 -0.9906213
0.29532728 -0.14235505 0.1029156 0.60266167 -0.64470685 1.6091183 0.17477469 -0.28289187
0.14864385 -1.0201185 -0.39867315 0.2677171 0.31138882 -0.42690372 0.90883934 0.22258031
0.024288224 0.28310165 1.7961009 -0.06400154 -0.6858495 1.5459399 -0.69570345 0.10376935
0.5038322 -0.11891479 0.7359803 0.79072577 -0.90201133 -0.065022334 0.36225373 -0.7032464
1.7575035 0.64612937 0.14062813 -0.76500726 0.26713178 -0.4897905 -0.18363477 -0.11795328
-0.64149237 0.44375798 1.0541244 -0.46668214 0.7671606 0.9851135 -0.53738976 0.48290005
0.62906265 -0.25663346 -0.12521641 -0.033129107 -0.7928466 -0.0040685786 0.2795754 -0.09773524
-1.0213041 -0.19456047 -0.20677331 0.42798883 0.7288919 -0.07131179 0.5058374 0.5865673
-0.06948767 -0.062403698 -0.5380795 -0.43473372 0.005223133 0.6064238 -0.1687324 0.11243331
-0.92111087 -0.5138844 -0.55201787 0.006295172 0.67154235 -0.03483796 -0.6963339 0.09337449
0.9126934 0.035863988 -0.59570855 0.8784467 -1.157925 -1.3829479 0.26517627 0.28314126
0.89479667 -0.43165466 0.1760474 0.18058807 0.19652824 0.47598666 0.83875024 -0.027805341
0.5274605 -0.2288673 -1.4304769 -0.90227354 -0.29805225 0.8630211 0.257928 -0.41790044
-2.3130035 -0.06760045 1.5363339 0.2886573 -0.85095006 -2.1876101 -1.2043872 0.0061914576
0.22886063 -1.6228304 0.20048484 0.9823091 -0.6069706 0.36821556 1.3334963 0.3996503
-0.12907581 0.11166294 -1.121529 0.41899502 0.2029728 -0.36328962 0.03173644 -0.14970073
-0.21130756 -1.6752276 0.47047055 -0.07292434 0.3183431 -0.28138596 -1.8107675 0.71529555
0.9268814 0.38371894 0.039784692 -0.86502826 -0.50179815 0.7692946 0.6191949 0.7579747
0.58177525 2.0003352 0.30270964 0.7489374 -0.12594856 -0.051752564 0.052505594 1.1445087
-0.22520538 -0.42959446 -1.3943862 0.5929449 -0.6712568 0.18025455 -0.3195285 0.16110271
1.3787795 0.11352012 0.32212794 0.38783908 -0.6372074 -1.1652305 0.9151067 -0.297664
-1.0209712 -0.7030966 -0.016093904 -1.1419109 -0.043102194 0.03308804 0.029643744 -0.18047513
-0.4452309 -0.10973397 0.49080628 0.14650775 -0.10808079 0.86178404 -1.3007566 -0.73954695

lstm.bias_ih_l0_reverse f4 [60]
00000000: b660 1a3f 47c2 99be 1028 0c3f 69a2 67bf
00000010: b5a7 24bf bb3f 81be cf40 053e 4c39 6fbf
00000020: f716 7dbe 0639 1bbf c847 dabe 655b e0be
00000030: 014d e83e 39d2 1bbf f6c7 873f d3a5 a9bd
00000040: 6d5f ac3e 68e2 5e3f 8a80 853e 9928 6f3e
00000050: a801 f03e 11ca 97be 902b 0a3f 107f 8c3f
00000060: 7599 2c3f acbd 3b3f 1697 383d 3796 c33e
00000070: 34da aa3e 350e 30be 8f2c cb3e 268e e43d
00000080: 8d8a 7dbe 2bba 80bd 20dc f5be 150b c6bd
00000090: 3212 2b3f d144 6bbe f8a6 273e 2f82 c6be
000000a0: a87a 1bbe b188 b03e 2364 ef3e 6cba 6c3d
000000b0: 9701 c83e c9eb 683d b515 11be 3446 27bf
000000c0: 4f93 913d ba3d 3c3c 88c2 02bb d6cd 30be
000000d0: 629e 8e3e 9074 8a3e db5b bd3e ab34 483d
000000e0: f076 5abe a4ff cdbd 7717 03bf 133d 843e
0.6030382 -0.30031034 0.5474863 -0.90482193 -0.643184 -0.25243935 0.13013004 -0.93446803
-0.24715792 -0.60633886 -0.4263289 -0.43819728 0.4537125 -0.6086765 1.0607898 -0.082835816
0.33666554 0.8706422 0.2607463 0.2335533 0.46876264 -0.29646352 0.5397272 1.0976276
0.67421657 0.7333629 0.04506596 0.38200542 0.333696 -0.1719292 0.39682433 0.11159925
-0.24759884 -0.06285509 -0.48019505 -0.096700825 0.6682464 -0.2297547 0.16372287 -0.38771197
-0.15183508 0.34479287 0.46756086 0.057794973 0.39063713 0.056865487 -0.14168437 -0.65341496
0.07108175 0.011489326 -0.0019952375 -0.1726602 0.27855211 0.27042055 0.36984143 0.048878353
-0.21334434 -0.10058525 -0.5120768 0.25827846

lstm.bias_hh_l0_reverse f4 [60]
00000000: e090 163f 6e69 50bc fc04 003f e428 59bf
00000010: 4abd d4be 95e9 e9be 404e 4fbe d1f0 90bf
00000020: b0a0 29be 611b 26be e2e8 03bf 88ac d3be
00000030: 699a be3a 67dd 5cbe c5e6 723f e544 18be
00000040: f5e7 d53b 3162 e23e b98b 093f 6532 fd3e
00000050: e2ab 8e3e 8e66 0a3e a1d1 263f 7f27 923f
00000060: 022b 413f 2304 303f 1fc6 53be dcaf 76bb
00000070: 8704 a83d e7e1 213e 4468 5f3e 391d fa3e
00000080: df2a 2abe d08b 933e 599e a6be fd96 9cbe
00000090: 6241 4c3f b62a 81be 63da 1a3e 3767 d6be
000000a0: 3f6a bcbd 0ae5 893b a169 be3e 8e3e aabc
000000b0: e65c 993e 7435 593d e142 a9bd 8c93 46bf
000000c0: 2f4d f53e 1562 a8be 6aa4 693e 675e dfbd
000000d0: 7f51 173e b06c ee3e dff7 033f 6f77 44be
000000e0: 8fff ccbd debe a9be ce2a ecbe 74f0 943d
0.5881481 -0.012720449 0.50007606 -0.8482802 -0.41550666 -0.4568602 -0.20244694 -1.1323491
-0.16565204 -0.16221382 -0.51527226 -0.41342568 0.0014541867 -0.21568833 0.94883376 -0.14870031
0.0065278956 0.4421554 0.53728825 0.4945251 0.2786551 0.13515684 0.6516362 1.1418303
0.7545625 0.6875631 -0.20681046 -0.0037641441 0.082039885 0.15808831 0.21817118 0.4885042
-0.16617917 0.28817606 -0.32542685 -0.30583945 0.79787266 -0.25227898 0.1512237 -0.41875622
-0.09199952 0.004208212 0.37189963 -0.020781782 0.29953688 0.053029492 -0.08264709 -0.7756889
0.4791045 -0.3288733 0.22816625 -0.10906678 0.14777182 0.46567297 0.51550096 -0.19186185
-0.100096814 -0.33153433 -0.46126407 0.07272425

lstm.weight_ih_l1 f4 [60, 30]
00000000: 6a4a 8e3e de91 2dbe c097 f33c 014e 83be
00000010: f16f 48bf 37d6 16bf 2ac9 68be d9aa f3be
00000020: 4be1 7d3e 5eb7 363e 815b 21bf 289b d0be
00000030: 95d9 833e 408e 61be 6e6d b83f 18c9 8a3e
00000040: 82ff c23e bb34 01bf 17df a2bd 5ec8 483f
00000050: 405f cfbe 2f13 6c3f e9f5 fe3e 5596 4cbe
00000060: 2e9b fdbd 79cd 3dbe 9092 a2be 56ed c03e
00000070: e2d2 92be 25d1 943f 1a7c 3cbe fc60 2e3a
00000080: 019b a5be 0ece a03c b918 7b3d 63ee d5bb
00000090: 5587 d0bd 4bcd 233e 6709 98be 03fc cc3d
000000a0: fc46 27bc 4657 063e b3ad 3cbe 06bf 13be
000000b0: 8688 933d 726a 8a3d 3a0a 03be fbd9 353d
000000c0: 1718 3fbe fbce ae3e 4f98 2b3e 4381 733e
000000d0: 478d 4a3c efd1 0abf f2bd d3be b950 a73e
000000e0: 92b0 5bbd 0b4b e93d 94db dd3e 5004 87bd
000000f0: 2520 82bd f807 1abe 5e00 503e b257 5abe
00000100: 354c 9bbe 9471 ea3b e71b 51bd 197c 1f3e
00000110: d968 9dbd 9155 38be 8836 743d 3202 e13c
00000120: 99cf 43bc 056d febc 821d 523c 4b1e dfbe
00000130: a026 0dbe c825 cb3e 1d12 98be 5e3d 063f
00000140: 5e0a 61bd 4c90 293e 0c25 d73e 642b ecbe
00000150: 5dbe 9bbe d3b9 923e 87f8 513e 2416 463e
00000160: 20e5 3a3e f297 30be 0fb3 77bd 7571 9ebe
00000170: c2d7 19be a3d1 edbd a652 61bd 1ae7 47be
00000180: ba08 f8be 1976 063f c52f 01bf b2c9 85bd
00000190: 1d7e 67be 9461 2bbe f7e0 46be d727 f4bd
000001a0: 2f2e 573e 2469 033e 0011 88be ad1a f43e
000001b0: 144f ffbe eea1 ba3e d22d 8c3d 7319 6d3d
000001c0: cec4 683d ab0c 49be 87cb 76be 64e3 9a3e
000001d0: b92e b83d 7ad7 b03d f826 6f3e 207f 5f3c
000001e0: 7551 233f f09d 08bd d63e 083f adb7 88bd
000001f0: aae5 68bf f7d5 ffbe 94b4 a4be b4a9 33bd
00000200: 2899 373d ed85 f13b 01fc d4be 4810 3bbf
00000210: 51f8 433f a5a5 fcbd 2237 ad3f 9cd5 513f
00000220: e1b5 813e 3d21 a63e d510 18be b08e 3c3f
00000230: 2b1d 14be 04b9 133e 1487 523f 7d29 083d
00000240: 9b36 83bd c1a5 763d 7385 333d c540 a7be
00000250: 7b19 88be c6a4 a93e 71a4 e23e 7ad1 983e
00000260: 6909 953e 159d 1e3d 4fae 60bf 6978 1dbd
00000270: bbc2 f7bd 983c 2fbf 81b8 c53d 3b8e 7bbe
00000280: ca9c 20be 561b 37bf 3145 903e 5e38 c03e
00000290: 93bf 943f cee3 803f 239d 243e ea84 1d3e
000002a0: f6ff 043c 3695 163f d1fc 13be 9f1a e23e
000002b0: 625a 343f a36b 223e 38cd 15be c033 f2be
000002c0: 4874 863d 02f5 b93e e5da a53d 47a1 8d3e
000002d0: d2f6 003f 2886 ec3e 9fd5 393f d5b0 f93e
000002e0: c0c3 d5be b1d0 3c3c 45de 253e 584f 06bf
000002f0: 0ab1 5e3d 0ddc 4dbe e785 c8be 5fcc f33e
00000300: b062 813f 61b8 9a3e 8987 e73e c6b1 903d
00000310: 7b12 9b3e 0715 ce3d b2a5 903e 9ca7 183f
00000320: 3fba 863e 54d3 103e 6f28 783f 0799 9d3e
00000330: 3823 c33d c02d 263e fa80 8fbe 7105 2ebf
00000340: a2b0 d73e a9af 53be 1302 27be 058c 573f
00000350: ea3c 583e 2d9e 9bbe 2cc5 b0be f3d1 d3bc
00000360: 81ac eabd ef94 64be ecac c93e dc36 aebe
00000370: 6577 f03e 7b77 b5be 4bed 3ebe 8b9b 053e
00000380: 04a7 723f 0bfa 203f 456f ca3e 3835 9e3d
00000390: ce1a 65bd 963e 39be 54e9 19be 949b ce3e
000003a0: 2e0b 523f f059 713e fa25 923e b215 41be
000003b0: ed7c 6dbe c7a8 953c 5395 253e 1f35 7fbe
000003c0: 9546 70be df5c 163e 6431 ac3c ac77 ec3d
000003d0: bdb2 d6bd 33f5 f03c 2048 ef3d c1d5 0fbd
000003e0: 20dd a4be 16a4 13be a033 843e 92e4 753a
000003f0: 0a59 0b3c 5e61 86bd d255 9a3e 432b cabe
0.27791148 -0.16950175 0.029735446 -0.2564545 -0.7829581 -0.58920616 -0.22732988 -0.47591284
0.24792974 0.17843387 -0.6303025 -0.40743375 0.2575194 -0.2202692 1.4408395 0.27106547
0.38085562 -0.50471085 -0.07952707 0.78430736 -0.40502357 0.9221677 0.4979699 -0.19979222
-0.12383114 -0.18535413 -0.31752443 0.37681073 -0.28676516 1.1626326 -0.18406716 0.0006652025
-0.3234482 0.019629505 0.061302874 -0.006528662 -0.101820625 0.15996282 -0.29694673 0.10009005
-0.010209795 0.1311923 -0.18425636 -0.14428338 0.07203774 0.06758584 -0.1279687 0.044397335
-0.18661533 0.3414229 0.1675732 0.23779778 0.012362785 -0.54226583 -0.41355854 0.32678774
-0.053635187 0.113912664 0.43331587 -0.065926194 -0.06353787 -0.15042102 0.2031264 -0.21322516
-0.3033158 0.007154653 -0.051052 0.15574683 -0.07686014 -0.18001391 0.059622318 0.027466867
-0.011951351 -0.031057844 0.012824418 -0.435778 -0.13784266 0.39677262 -0.2970132 0.5243739
-0.054941528 0.16558951 0.42020452 -0.46126854 -0.30418673 0.28657398 0.20504962 0.19344383
0.18251467 -0.17245463 -0.060473498 -0.30945936 -0.15023711 -0.11612251 -0.05501046 -0.19521752
-0.48444158 0.5252395 -0.50463516 -0.06532611 -0.22606702 -0.16736442 -0.19421755 -0.11921661
0.21013711 0.12833077 -0.2657547 0.47676602 -0.4986502 0.36451668 0.06844677 0.0578856
0.056828313 -0.19633739 -0.24101077 0.3025161 0.08993287 0.08634849 0.23354709 0.013641149
0.6379617 -0.033353746 0.5322088 -0.066756584 -0.9097544 -0.4996793 -0.3216902 -0.043863013
0.044823796 0.0073707015 -0.41598514 -0.7307172 0.76550776 -0.12336282 1.353245 0.8196657
0.25334075 0.32447234 -0.14850171 0.73655224 -0.14464252 0.14426047 0.8223736 0.03324269
-0.064068995 0.06021667 0.04382844 -0.32666603 -0.2658194 0.33133525 0.44266084 0.29847318
0.29108742 0.038724024 -0.87765974 -0.03844491 -0.12097689 -0.68451834 0.09654332 -0.24565975
-0.1568481 -0.71526086 0.2817779 0.37543005 1.1620964 1.006952 0.16075568 0.15382734
0.0081176665 0.5882143 -0.1445191 0.44160935 0.70450413 0.15861373 -0.14629066 -0.47305107
0.06565148 0.3631974 0.080983914 0.27662107 0.5037662 0.46196103 0.72591585 0.48767725
-0.41750908 0.011524365 0.1619807 -0.5246482 0.054368056 -0.20103474 -0.3916466 0.4761686
1.0108242 0.30218795 0.45220593 0.070651576 0.30287537 0.100626044 0.28251415 0.5963075
0.2631397 0.14143115 0.96936697 0.30780813 0.09528202 0.1622839 -0.2802809 -0.6797705
0.42126948 -0.20672478 -0.16309385 0.8419803 0.21116987 -0.30394116 -0.3452543 -0.025856948
-0.11458684 -0.22322439 0.3938974 -0.3402623 0.4696609 -0.3544272 -0.18645208 0.13047616
0.94786096 0.62881535 0.39538017 0.077249944 -0.055933766 -0.18090281 -0.15030414 0.40353072
0.8204831 0.23569465 0.285446 -0.18855932 -0.23192187 0.018268956 0.16170244 -0.24922608
-0.23464425 0.14683865 0.021019645 0.11546263 -0.1048331 0.029413795 0.116836786 -0.03511596
-0.32199955 -0.14418063 0.25820637 0.0009380068 0.008505115 -0.0656154 0.301436 -0.3948613

lstm.weight_hh_l1 f4 [60, 15]
00000000: e06f e13e 92c5 fabe 6b92 c83e 7f4f 403f
00000010: 8929 e9be fb6b b8be 0c97 9cbc e2a3 203f
00000020: 68c4 45bf 59b5 69be db39 b7be b018 d9be
00000030: b479 e03e 30d6 90be 37d3 ecbe 10a5 933e
00000040: 7a37 a4bd 4e6b b83e acb6 af3d b97b bdbd
00000050: 8985 febe f146 e4be 294e 213e 5c34 c7be
00000060: 3b86 d9be acd2 87be a94a fabd 436d be3b
00000070: 47dc c13d bc05 8dbd 92c8 a43e ff4f fabe
00000080: 6f7e f53d 78a7 9f3e df17 e2bc 5102 1dbf
00000090: 50f8 9abd a8d8 873e 3b44 bfbd c3dd a1be
000000a0: bec6 19be 6191 f0be ecfe 9e3d e6b0 473c
000000b0: 0f9f 55be e65d 733e 6c33 e1bd e0c8 c93e
000000c0: 5d50 0e3f c7bf 5cbe 4801 9abe 55d1 10bf
000000d0: 8e38 cb3e c715 d0be b8cc 7bbe 4c2d f2be
000000e0: a11d 0cbe 2e7d d63e 51e7 75bd 842c 9bbe
000000f0: 6d34 e73e b02e f9be cdc1 303d 2918 0e3f
00000100: 798d 2cbf 990d 7bbe 4107 e0bd c0e1 fc3e
00000110: 3222 febe 2398 59bd adfc e5be bfde d5be
00000120: 5dc4 533e d754 17bf a163 bebe 7dc6 cf3e
00000130: ba47 9ebd 0f90 033f fb3d b83e b9fd 8cbe
00000140: eb92 55be c872 663d cc95 35be faef 27bf
00000150: 04ff e0be 4480 96be 1f15 f5be 7334 cc3e
00000160: 180f f1be aaa0 a7be 9d59 7f3c 4a40 9dbe
00000170: 0eba 743e 389b 83bd b5a8 47be a722 3ebe
00000180: b783 b5be faf5 333e 9226 4d3e a3e9 bcbd
00000190: aab9 c9be bc57 c3be bf99 ae3e a1df e33d
000001a0: 640b 88be 74f0 fa3e f164 9ebe 3d05 173f
000001b0: c73d f63e a90b 1cbe 987c c2be e5a3 c1be
000001c0: a6b2 273e 850d 39bf 527a 32be 8848 c4be
000001d0: 59ac 0bbf 1592 0e3f b756 e4be ea72 a3be
000001e0: 9b96 58bd 16e6 b4be f2a6 533e e011 c53e
000001f0: 9360 9ebe 11b8 e6be 3c87 863d c8b4 043e
00000200: a91c 093d 54d7 dcbe f0f0 4bbe a046 afbe
00000210: 9391 11bd ae0b ebbd 8919 f7bd d883 8f3d
00000220: 59af 16be 01f4 a63e 02cc e1bc 7eb8 7bbe
00000230: 3c0c 4b3d f67b b1bd 828c d7bc 5181 92be
00000240: 990a d7bd 3d34 493d 7bff 6ebd 1b4f 0e3b
00000250: c15e 18be b358 83be 3384 013e 2c44 8fbd
00000260: 661f 233f c6e0 083f 667b 86bd 3e03 34bd
00000270: f52a 15be 49e4 71be c2c6 37bf 0fea 3abf
00000280: 1f1d febe 679b 3abe 72b0 2c3e 0f60 6dbe
00000290: b3ea 41be 181e 393e 88b4 8d3b a715 fe3e
000002a0: 9166 f43e 34d2 3bbe a46b f7bc c441 cdbe
000002b0: 27cf 3c3d f4ca c1be 5b23 aabd 6f51 aebd
000002c0: 55c8 77be ee5d 013d b5bd 21be 4e42 d0be
000002d0: d1b7 833e db9a 0abf ba3e 1f3f 02d5 ec3e
000002e0: 8ae9 b2be df02 91be 364d a1be 05d0 3a3e
000002f0: 66e7 a6be 7678 cabe 10ad dabe d369 4abf
00000300: a208 343f 4a3b 24bf 4c83 d1be 6f41 8f3e
00000310: 09fd 1bbf 9004 753e fdad b03e 0acc aabe
00000320: 74ad 05bf db02 7dbe c205 243f 1f7d 3abe
00000330: 73ee dbbe 203d 98be 1165 aabe 30fc d63e
00000340: d4dd 3abf 0688 01bf aa55 bf3e f76e d4be
00000350: f3fb a03e d19c 9f3e ea21 94be 8cd7 703b
00000360: 682f aabe 9195 16be c130 6ebe 41ac c7be
00000370: f956 dfbc a0f9 bdbe a921 2b3e 535d afbe
00000380: a16e dbbe 6a34 3f3f f85a f7bd 7be7 c53e
00000390: 13a2 233f b2b2 31bf 39eb eebd ba14 dcbe
000003a0: eb4d cd3e d36e 3cbf 5622 d1be 30b1 9fbd
000003b0: 214f 96be be73 a63e 2589 32be 64a4 4abe
000003c0: f49e da3e 28a0 fcbe e8f5 593e 7530 9a3d
000003d0: dd06 eabe 9033 f5bd 4eca 8bbe ecc0 eebd
000003e0: 7e6b eabc 9fed 91be b9a3 85be 1cc5 c9be
000003f0: feb2 6b3e 7c60 75be 21c6 05bf 522a d83e
0.44030666 -0.4897886 0.39174208 0.751213 -0.455395 -0.36019883 -0.019114994 0.62750065
-0.7725282 -0.22823085 -0.35786328 -0.42401648 0.43842852 -0.28288412 -0.46254894 0.2883687
-0.08018394 0.36019367 0.08579764 -0.09252114 -0.49711254 -0.44585374 0.15752472 -0.38907135
-0.42485222 -0.26527917 -0.122212715 0.005811365 0.09465843 -0.06885859 0.32184273 -0.48889157
0.11987006 0.31182456 -0.027599273 -0.6133166 -0.07566893 0.26532483 -0.09339186 -0.31614503
-0.1501722 -0.46985915 0.07763466 0.012188172 -0.20861457 0.23766288 -0.10996136 0.39411068
0.55591375 -0.21557532 -0.30079103 -0.56569415 0.39691585 -0.40641615 -0.24589813 -0.47300184
-0.13683178 0.4189238 -0.060035054 -0.303074 0.45157185 -0.48668432 0.043153573 0.55505615
-0.6740337 -0.24516906 -0.109388836 0.49390984 -0.49635464 -0.053123605 -0.4491934 -0.41771504
0.20680375 -0.5911383 -0.37185386 0.40581122 -0.077285245 0.5139169 0.35984787 -0.27537325
-0.20856826 0.056261808 -0.17732924 -0.6560055 -0.4394456 -0.29394734 -0.47867677 0.39883766
-0.47081828 -0.32739764 0.01558533 -0.3071311 0.23899099 -0.0642609 -0.1949795 -0.18567906
-0.35452053 0.17574301 0.20034245 -0.0922425 -0.39399463 -0.38152874 0.34101674 0.11126638
-0.2657119 0.49011576 -0.30936387 0.5899237 0.48094007 -0.15238823 -0.37985682 -0.37820354
0.16376743 -0.72286254 -0.17429474 -0.38336587 -0.54559857 0.55691653 -0.44597408 -0.3192361
-0.052878004 -0.35331792 0.20669153 0.384902 -0.30933055 -0.45062307 0.06568763 0.12959588
0.033474598 -0.43133032 -0.19916129 -0.3423357 -0.03553922 -0.11476837 -0.12065417 0.07007569
-0.14715327 0.32608035 -0.027563099 -0.24582097 0.049572214 -0.08666222 -0.026312117 -0.28614286
-0.10500068 0.049122084 -0.058349114 0.002171463 -0.14879896 -0.2565361 0.12648086 -0.06995425
0.63719785 0.5346798 -0.06566505 -0.043948404 -0.14567168 -0.2362224 -0.71787655 -0.73013395
-0.49631593 -0.18223344 0.16864184 -0.23181175 -0.18937187 0.18077886 0.0043244995 0.49625894
0.47734502 -0.18341905 -0.030202694 -0.40089238 0.046095993 -0.37850153 -0.08307525 -0.08511626
-0.24197514 0.03158372 -0.15795024 -0.40675586 0.25726178 -0.5414254 0.6220509 0.46256262
-0.349438 -0.28322503 -0.3150422 0.18243416 -0.32598418 -0.3954503 -0.4271016 -0.79067725
0.7032567 -0.6415297 -0.40920484 0.2797961 -0.60932976 0.23927522 0.34507743 -0.33358794
-0.52217793 -0.2470812 0.64071286 -0.18211792 -0.4295536 -0.29734135 -0.33280233 0.4198928
-0.7299473 -0.5059818 0.37370044 -0.4149091 0.31442222 0.3117433 -0.28932124 0.003674957
-0.33239293 -0.14705493 -0.23260786 -0.38998607 -0.027263151 -0.3710451 0.16712059 -0.34250888
-0.4285784 0.7468935 -0.12077898 0.38653168 0.6391918 -0.6941329 -0.11665959 -0.42984563
0.4009851 -0.73606604 -0.4084651 -0.07797468 -0.29357246 0.3251018 -0.17435129 -0.19789273
0.42699397 -0.4934094 0.21285212 0.07528774 -0.4570836 -0.119727254 -0.27302784 -0.11657891
-0.02861571 -0.28501603 -0.26101473 -0.39408195 0.23017499 -0.23962587 -0.52255446 0.42219788

lstm.bias_ih_l1 f4 [60]
00000000: 3187 a13e 7208 da3e 39bc 343e 878d 293e
00000010: 818f 323d e6b4 bcbd 02cb 34bc 25f8 32be
00000020: 4a14 f23e 5f57 4d3e 4f20 f43d 339f fc3e
00000030: 88db b33c b041 e93e 3589 ca3e 23b1 8e3b
00000040: 5b42 d33e 202e d93e 1b45 073f 5362 db3e
00000050: ec76 0d3e 5ba3 ef3e 4d3e 1b3e d0f0 dc3e
00000060: 1d6f 863e e393 9cbd f80a 553e 1a5b a33e
00000070: 38f1 6c3e 9fcb 023f f5cf 1c3e b7e0 a2be
00000080: 3bdd 523e c1d3 e13e 8892 67be f6b8 afbd
00000090: 8784 11be 22e1 453e 48ed d8be aa22 f5be
000000a0: 7d45 9abe 1582 48be 36e5 993e 09f0 03be
000000b0: 974f 9ebe a158 393f b632 0b3f 5bed 403f
000000c0: ed9d bd3e 8043 e93e 37ec 243f 602c 203f
000000d0: ecdc 3c3e d43f c83d 2bb7 463f 0e11 4b3f
000000e0: 4141 b93e 385c 043f 54ce ec3e d2d6 253f
0.31548455 0.42584568 0.17649926 0.16557895 0.043593887 -0.09214191 -0.011034729 -0.17477472
0.47281104 0.2005286 0.11920225 0.4934021 0.021955267 0.45557928 0.39557806 0.0043546124
0.41261563 0.42418003 0.5283982 0.42848453 0.13814896 0.46804318 0.15160485 0.43152475
0.26256648 -0.07645395 0.20804965 0.31905442 0.23138893 0.5109195 0.15313704 -0.3181207
0.20592205 0.44106868 -0.22614491 -0.085802004 -0.14210711 0.19324163 -0.4236853 -0.4787801
-0.3013114 -0.19580872 0.30057687 -0.12884535 -0.30920097 0.7240086 0.54374254 0.75362176
0.3703455 0.4555931 0.64422935 0.6256771 0.1844365 0.09777799 0.7762324 0.793229
0.36182597 0.51703215 0.46251166 0.64780915

lstm.bias_hh_l1 f4 [60]
00000000: e8b8 a23e aae8 b23e 0d9c 1c3f 2221 133f
00000010: eefa 7b3d 661e 913e 4a15 3bbe dcea d03d
00000020: f6f7 393e d2e2 553e dbd7 043f cf81 a03e
00000030: ce9f 943e 6a40 513e 4f80 ed3e b402 88bd
00000040: e758 803e 7312 d43e 1fc6 1d3f 84e8 123e
00000050: ac6c 1e3e dd6e 083f 5cbc 6a3e eabb fc3e
00000060: 1ebb 6a3e eaf0 233e fcb6 e33e a2e6 cbba
00000070: 0184 3d3e c73d fa3e c713 373e 68cd 85be
00000080: 64f2 f53e abe6 943e dc4b a1be c9b8 c9be
00000090: a005 91be a27f 13be 04ff 55be 2c60 bbbe
000000a0: 10f2 e1be c1de b5be 435a a33e 1f48 00be
000000b0: a9c0 afbe c5dc f63e dc3b 0e3f 8805 2e3f
000000c0: 2b96 c53e 5e68 433f ecf5 263f 8f3f 273f
000000d0: 0f75 443e f3b2 aa3d 8b5f ce3e ea62 3e3f
000000e0: 3f51 273f 8eb2 2c3f c34a bd3e f5f3 083f
0.31781697 0.34943134 0.61175615 0.5747243 0.061518602 0.28343505 -0.1826984 0.10201046
0.18160996 0.20887306 0.5189187 0.31349036 0.2902817 0.20434728 0.46386954 -0.066411406
0.25067827 0.41420326 0.61630434 0.1434651 0.15471143 0.53294164 0.22923416 0.49362117
0.22922942 0.1600987 0.44475543 -0.0015556405 0.18507387 0.48875257 0.17878638 -0.26133275
0.48036492 0.29082236 -0.3150319 -0.39398792 -0.28324604 -0.14404157 -0.20898062 -0.3659681
-0.44129992 -0.3552151 0.31904802 -0.12527512 -0.34326676 0.4821531 0.5556009 0.6797719
0.38591132 0.76331127 0.65218997 0.6533136 0.1918528 0.08334913 0.40307269 0.7436968
0.65358347 0.6745995 0.369711 0.5349725
