sparrow/data/networks/prefactor/prefactor_network_v2.pt (torch, 208547 bytes, 9 tensors)

lstm.weight_ih_l0 f4 [280, 20]
000000 7b 54 b9 be a2 61 cd 3e cf 50 83 3f e3 3a 0b 3e
       -0.36197266 0.4011355 1.0259036 0.13596682
000010 d0 14 9d bd eb 01 69 be a3 22 4b 3e 32 ad 46 be
       -0.07669985 -0.22754638 0.19837432 -0.19402006
000020 a6 ee ab 3e 1b 72 a6 be 10 8d 84 3d 50 1d 10 bf
       0.33580512 -0.3250893 0.06472218 -0.5629473
000030 2e 93 27 be aa 88 5e be d3 c5 d6 3e 2e 1b 02 3f
       -0.16364738 -0.2173182 0.41947803 0.5082272
000040 40 29 b9 3c f2 db ff bd 81 4c 56 3e f1 67 ce bd
       0.022602677 -0.12493123 0.20927621 -0.10078419
000050 62 86 b8 3e 86 74 ee 3e 4b a0 c1 3e 80 9f 46 3f
       0.36040026 0.46573275 0.37817606 0.7758713
000060 10 8f 8a bf a5 09 49 3e 83 89 b8 3e 72 14 58 3f
       -1.0824909 0.19632585 0.36042413 0.844062
000070 46 8d 33 3f 5a f1 58 3f b3 b5 1f be d7 35 08 be
       0.7013744 0.84743273 -0.15596657 -0.13301788
000080 8a 11 a2 3e 24 f6 f7 3d 04 cb d4 3e d5 2d 75 3e
       0.31654006 0.121074945 0.4156114 0.23943265
000090 e3 52 ab bd 69 ff 49 3f 8d c8 fe 3e ea 2a 07 3f
       -0.08365419 0.7890535 0.49762383 0.52799857
0000a0 0a 26 7d 3f 8f e3 e0 bd d5 da c7 be 55 52 41 be
       0.9888617 -0.10980903 -0.39034143 -0.18879063
0000b0 3a 35 db bd 93 b6 15 3d 40 0d 5b 3f 21 d2 c4 3d
       -0.107035115 0.03655107 0.8556709 0.096103914
0000c0 96 30 47 3c d2 5f cb be 09 fd 82 3e 42 ee 53 bc
       0.01215758 -0.39721543 0.25583676 -0.012935223
0000d0 3b 5d da be c2 95 9e be e0 23 c6 be 12 b1 f8 3e
       -0.42649254 -0.3097363 -0.38699245 0.48572594
0000e0 bd 99 c8 3c 80 77 d3 be 6f 51 58 be 0d fd 08 3d
       0.02448737 -0.4130211 -0.21124814 0.033444453
0000f0 65 d5 2b be 16 47 99 3d 72 c2 4a 3e 7e 46 77 be
       -0.16780622 0.07484262 0.19800738 -0.24147984
000100 32 b5 8a 3e 14 fc ce 3e 78 cd ac be 5a 3b 0b bf
       0.27091366 0.40426695 -0.3375051 -0.5438744
000110 3b 1d c3 3c 50 08 1e 3e 5e 01 d7 3e 8b 8c 60 3e
       0.02381765 0.15432858 0.4199323 0.21928613
000120 09 d2 0f 3e 3f f4 3b bc c2 b9 d6 3e 56 44 fe 3c
       0.14044966 -0.011471807 0.41938597 0.031038444
000130 f9 59 23 bd a8 9b ce 3e c9 1a a5 3e a4 4a c0 3d
       -0.039880726 0.4035313 0.32246998 0.093892366
000140 98 73 f6 bf 9f 33 af bc fe 4d ba 3f 2b 2a 47 40
       -1.9254026 -0.02138692 1.4555051 3.1119487
000150 57 f6 c8 3f 9d 1f fe be a9 f4 df bd fc 51 63 be
       1.5700177 -0.49633494 -0.10935337 -0.22199243
000160 fa 64 fc bf 12 fd ce bf 38 b0 ad bf dd 1b 16 bf
       -1.9718316 -1.6170981 -1.3569403 -0.58636266
000170 af 92 43 3f a3 b0 95 bf 22 ac 0d c0 bb 46 02 40
       0.76395696 -1.169453 -2.2136312 2.035567
000180 25 be 86 bf 52 6c b8 bf d8 82 b8 3f 6f 07 6c 3e
       -1.0526778 -1.4408057 1.441493 0.2304971
000190 55 f8 ad 3f 91 a2 3a 3d a1 41 47 3f 05 bd ed 3e
       1.359141 0.04556519 0.77834517 0.46433273
0001a0 fc 3e a0 3f 21 a7 b7 3d 6d 79 b6 3e 2e 7d c8 3e
       1.2519221 0.08967424 0.35639516 0.39158005
0001b0 ab 6c a9 3e 27 02 16 3f 13 1c 48 3f ef cd b3 3f
       0.3309072 0.58597034 0.7816784 1.4047221
0001c0 66 fb 4c 3f 05 a3 a9 3f c8 32 0a be 58 67 09 be
       0.80071104 1.3252875 -0.13495934 -0.13418329
0001d0 ba 98 ec 3e f7 08 74 be ce 81 e2 be 18 1b 6c 3e
       0.4621027 -0.23831545 -0.44239658 0.2305721
0001e0 e0 55 6c be 6e ff 66 3e 3b d5 cc 3e 22 f7 aa 3b
       -0.23079634 0.22558376 0.40006432 0.005217449
0001f0 5d ad b2 be d6 05 21 3e e6 9e fb 3d 76 7e 0e be
       -0.3489789 0.15724882 0.12286167 -0.13915429
000200 70 99 05 3f 62 bb d6 3e 6d 8b 08 3f da a9 2c 3e
       0.5218725 0.41939837 0.53337747 0.16861668
000210 a1 6d fd be cd 32 20 3f 34 64 2d bf fe fb da bd
       -0.49497703 0.62577516 -0.6773102 -0.10692595
000220 9a 79 82 be 87 2f 48 be 02 77 0b be aa 5d 04 be
       -0.254834 -0.1954938 -0.13619617 -0.12926355
000230 6d 1e e4 3d ac 46 dd bd b1 9b 37 3f 23 b0 2f 3e
       0.11138616 -0.10804495 0.7172194 0.17157035
000240 f4 f9 c4 3e 2a 16 2e be 6e 7e b0 3e cc c0 08 be
       0.3847195 -0.17000642 0.34471458 -0.13354796
000250 de e2 ef bc dd 4f ef 3e be 60 19 bf 1d 65 58 3e
       -0.029282983 0.46740618 -0.5991324 0.21132322
000260 88 a9 4c 3e 29 e7 b3 be 71 14 f2 be ce aa f4 be
       0.19986546 -0.351373 -0.4728122 -0.47786564
000270 ee e9 22 3e 4b 21 be 3e 8a 91 3f 3e ce 77 25 3c
       0.1590955 0.37134776 0.18707862 0.010099364
000280 a3 e3 39 bf 4d 22 9f 3f 54 5b 99 bf ec 31 87 be
       -0.7261297 1.2432343 -1.1980996 -0.26405275
000290 b5 69 01 40 cf 20 a1 bf 77 92 ec bf 8e de cf 3f
       2.0220768 -1.2588137 -1.8482198 1.6239793
0002a0 de 61 f1 bf 52 e0 aa 3f d1 d1 01 40 93 ff bd 3f
       -1.8857992 1.3349707 2.0284312 1.484362
0002b0 6f f1 4b 40 d4 0a e7 3f 57 b8 11 40 ee 24 86 bf
       3.186611 1.805018 2.2768762 -1.048002
0002c0 63 88 09 3f 4c 16 6e 40 81 24 d6 3f 1b 96 2b 40
       0.53723735 3.720111 1.672989 2.6810367
0002d0 e5 ee 82 3f 90 ef 5e 3f 91 fa de bf c6 ad b0 bf
       1.0229155 0.87084293 -1.7420217 -1.3803031
0002e0 4a e6 90 bf ec 4d c4 3f ce 35 14 40 04 97 49 3f
       -1.1320279 1.533628 2.315784 0.78746057
0002f0 e3 84 be 3f 96 4a 12 c0 3d d6 10 c0 d2 a6 d6 be
       1.4884304 -2.2858024 -2.263076 -0.4192415
000300 46 41 72 3f 70 bb a4 3e f1 75 86 bf ae 5c a4 be
       0.9463085 0.32174253 -1.0504743 -0.3210196
000310 87 c8 e9 3e 65 e5 18 3f 77 0d ae be f7 5c 84 be
       0.45660803 0.5972503 -0.33994648 -0.25852177
000320 bd e4 8b bf 59 65 22 bd 28 83 9a 3f 5c 7e c6 be
       -1.092918 -0.039647434 1.2071276 -0.3876828
000330 be 38 3a 40 a3 98 78 bf 83 5a 8a bf d7 d3 c5 be
       2.9097133 -0.97107905 -1.0808872 -0.38638183
000340 f9 f9 c3 bf 3c 53 a2 3d 8f 56 9e be be e1 64 be
       -1.5310661 0.07926032 -0.30925414 -0.22351739
000350 34 3a 2d bf a3 09 77 3d 3d bf 5f be 9b 1c fd be
       -0.67666936 0.060311925 -0.21850295 -0.49435887
000360 9e 69 76 be 76 31 20 c0 90 4f 48 40 14 63 1f 40
       -0.24063727 -2.5030189 3.129856 2.4904222
000370 41 25 cb bd db 68 ff 3e c2 01 2d 3d 19 f5 0c be
       -0.09919215 0.49884686 0.042238005 -0.13765372
000380 4e 3b 5c bf c5 aa 10 3f 22 2d 23 3f 86 8d 1e bf
       -0.8602799 0.56510574 0.6374074 -0.619347
000390 1d 71 03 3f 1d 9b e2 3e 05 bd 13 bf 40 7c 41 bc
       0.5134447 0.44258967 -0.57710296 -0.011809409
0003a0 55 84 57 bf bf eb ea be 12 5c 60 bf b8 fa 76 3f
       -0.841863 -0.45882985 -0.8764049 0.96476316
0003b0 9d c0 ca 3e 41 e8 50 3e 18 81 47 bf 64 c2 85 bd
       0.39600077 0.20401098 -0.77931356 -0.06531218
0003c0 a8 ba 87 bf 68 3d 89 3f 53 e0 7e 3f e3 43 27 be
       -1.0603838 1.0721865 0.9956104 -0.1633449
0003d0 78 f2 d5 3f 8b 06 2d 3f 87 fd 78 3f e2 e0 31 be
       1.671462 0.6758811 0.9726185 -0.17370942
0003e0 81 4c 9b 3f 40 c6 03 c0 f7 19 da 3f 29 a9 c0 3f
       1.2132722 -2.0589752 1.7039174 1.5051624
0003f0 27 9f cb be 32 8a 48 3f 2a 1d b1 3e b1 1f b6 3f
       -0.3976986 0.7833587 0.34592563 1.4228421

lstm.weight_hh_l0 f4 [280, 70]
000000 03 99 87 be 17 20 9f 3e cd ba 8f bd d4 4c 92 3e
       -0.26483926 0.3107917 -0.07018051 0.2857424
000010 4d ae 98 3e 69 59 b8 bd 56 9e 04 be b8 9d 2e bd
       0.2982048 -0.09001429 -0.12951025 -0.04263088
000020 87 a2 f9 3d 32 35 2d be cc fd ba bd ee ba cf bd
       0.12189203 -0.16914824 -0.09130439 -0.10143076
000030 25 0d 3d be e5 09 95 be d2 0a 85 3e 7e fe b9 3e
       -0.18462045 -0.2910911 0.25984818 0.36326975
000040 0e 17 b2 3e 60 79 83 bd 67 e8 a9 be 76 92 11 be
       0.34783214 -0.06419635 -0.3318512 -0.14216027
000050 e0 43 79 be 97 2c 65 be 24 cb fa 3e a6 74 96 be
       -0.24342299 -0.22380291 0.4898311 -0.2938587
000060 49 9f 5c 3d 4e 8a ec 3d 2d 27 84 3d ce 6c da be
       0.053862844 0.11549817 0.06452785 -0.42661136
000070 4c 6a a6 3e d1 9f d6 be 6f 37 0c 3e 8d da a1 be
       0.32502973 -0.41918805 0.13693021 -0.31612054
000080 f0 34 8e 3e dc b6 8d 3d df a7 03 bf 68 9a 29 be
       0.27774763 0.06919643 -0.51428026 -0.16562808
000090 3f dc fa bd c7 10 42 3e 90 72 28 3e 6c cb ff 3e
       -0.1224904 0.18951713 0.16449952 0.49959886
0000a0 13 83 c6 3d b0 d5 86 3d 0b 0c 80 3d 20 3d 37 3d
       0.09692969 0.065837264 0.06252297 0.044736028
0000b0 cb 9b bc 3e e6 28 fa be c7 89 d6 3d 49 57 ec be
       0.3683761 -0.48859328 0.10475498 -0.46160343
0000c0 4e 25 4f be 76 af f0 3e d4 9f a4 be 8d f6 a4 3e
       -0.20229074 0.47008866 -0.3215319 0.32219353
0000d0 09 f1 14 bf ce b2 bd 3b 55 b4 94 be ec 73 24 be
       -0.5818029 0.0057891374 -0.29043832 -0.16059846
0000e0 78 f0 6d bc 31 0b 61 be 97 e7 ff bb a6 a5 a1 be
       -0.014522664 -0.21976925 -0.00780959 -0.31571692
0000f0 c1 d3 1e 3d 84 37 86 bc 85 aa 0b be 14 3d 33 be
       0.038776163 -0.016383894 -0.13639267 -0.17503768
000100 4a 5f 3a be 40 a0 68 be a6 2e 5b 3e aa 0f 70 be
       -0.18200412 -0.2271738 0.21404514 -0.23443475
000110 ac 41 3a 3e 85 6a 3c 3e e9 a9 a9 3d 09 9f 70 3e
       0.18189114 0.18400009 0.08284361 0.23498167
000120 f5 44 92 3e c9 b0 00 bf d7 67 41 bf 40 16 d6 3e
       0.28568235 -0.5026975 -0.7554907 0.4181385
000130 f2 12 7b be d8 72 99 3e de 05 89 3e 93 0d 43 3f
       -0.24518946 0.2997043 0.2676229 0.7619259
000140 86 13 95 3f 8f bc 6e 3e 6f 65 ab 3e 9e 69 81 be
       1.1646583 0.23314117 0.33475825 -0.25275892
000150 b6 5d 60 3d ec 99 07 3e a7 ad 97 be 58 ff 49 be
       0.05477687 0.1324231 -0.29624674 -0.19726312
000160 7b 0a ee 3d d5 d2 10 3f 2c f2 02 3f 95 12 92 be
       0.11623093 0.56571704 0.51150775 -0.28529802
000170 0d b5 ab be 04 94 8d 3d f2 d4 5d 3e c6 5e 9d be
       -0.33536568 0.06912997 0.21663263 -0.3073637
000180 f5 74 20 be 2e 03 88 3e f4 ef cd 3e 74 12 13 3f
       -0.15669616 0.26564926 0.40222132 0.5745003
000190 a2 64 b8 3e 50 19 e6 3a b6 1a e9 bc 7e 19 79 3d
       0.36014277 0.0017555151 -0.02845512 0.060815327
0001a0 33 9c c6 be 2a 64 ce bd 40 30 c3 3e ea 6e 50 3f
       -0.38791046 -0.100776985 0.3812275 0.8141924
0001b0 02 3f 83 3c 12 cc 47 3f dd 51 06 bf 0a ca f5 be
       0.016021255 0.7804576 -0.52468663 -0.48005706
0001c0 18 f8 92 3e ab fa 7e bf 70 e8 09 be 39 12 6c 3d
       0.28704906 -0.9960124 -0.13467574 0.057634566
0001d0 cd 0f 3f 3e 1e 51 df 3d 51 9b 5e 3e be 81 08 be
       0.18658371 0.10904144 0.21738936 -0.13330743
0001e0 cd 88 d4 3e f1 47 09 bf 0f bb 8d 3e fc 45 53 3e
       0.4151062 -0.536254 0.27681777 0.20632166
0001f0 bd 8f b3 be 5e 7f 02 bf a9 85 06 bf 24 3e 0b bf
       -0.350706 -0.50975597 -0.525477 -0.54391694
000200 25 fc c6 be d5 e3 99 3e 27 65 a3 3e b8 81 2a 3e
       -0.38864246 0.30056635 0.3191311 0.16651046
000210 bd cc 40 3e 0a 44 b0 bd cd c5 cb bd 5c d9 a7 bf
       0.18828101 -0.086067274 -0.09949837 -1.3113208
000220 f6 9e 9d be 93 3a ce bd 23 4f 0d bf 69 63 34 3d
       -0.3078534 -0.10069766 -0.5519888 0.044040117
000230 a1 66 ee 3d 38 34 b5 bd f7 1b 42 3e ad 7e 05 3e
       0.11640669 -0.088478506 0.1895598 0.13036604
000240 4e e6 ad bc 8a 50 8f bd 2b f7 05 bf f4 76 f4 be
       -0.021227982 -0.069977835 -0.52330273 -0.47747004
000250 98 35 da bb 2e 77 5b 3f c4 2e ac 3e 85 d1 e6 3e
       -0.006659221 0.8572873 0.3362943 0.45081726
000260 e7 ec 5d be d5 2a 34 be 20 b0 19 3e 98 ce bd 3e
       -0.21672402 -0.17594464 0.15008593 0.3707168
000270 51 7b 0f bf c7 19 18 3e 7b 95 72 3e 26 71 b7 3e
       -0.5604754 0.14853583 0.23689835 0.35828513
000280 09 8b e8 3d b0 0f 6e 3e 6c d7 f2 be 19 4d ec bd
       0.11354644 0.23248172 -0.4742998 -0.11538143
000290 76 b7 eb 3e 79 56 d0 bd c3 75 be 3e 1d dd 9b bc
       0.46038407 -0.10172743 0.3719922 -0.019026333
0002a0 19 0b 19 3f ad 93 63 3e f1 f3 9d 3d 8b 32 67 3d
       0.5978256 0.22224303 0.07712544 0.056444686
0002b0 35 61 28 3e 41 ea 41 be 22 5f b7 3e f0 2d c1 be
       0.16443332 -0.18937017 0.35814768 -0.3773036
0002c0 92 37 3d 3d 40 10 9c be 21 30 ad 3e 6f 21 2b 3f
       0.046195574 -0.30481148 0.33825782 0.6684789
0002d0 3a 8a 7b bc f2 33 02 bf ca 7d ab be c0 96 15 3f
       -0.01535278 -0.5086051 -0.33494407 0.5843315
0002e0 9e a7 7d 3e 49 50 6a be 0e 6a fb 3d e7 e8 e7 3e
       0.24770972 -0.22882189 0.12276088 0.45294878
0002f0 9f ee 43 be 4d 4e ed 3e de 46 28 3f 2d e3 ac 3d
       -0.19133995 0.463488 0.65733135 0.08441768
000300 ca 81 a5 3e 9d 23 3f be 26 3f 49 3e b6 5f 1b 3e
       0.32325584 -0.18665929 0.19652995 0.1517323
000310 ef 1d 97 be 3e fc 6f be 8f e7 92 3d 11 7e 72 3e
       -0.29515025 -0.23436067 0.071730725 0.23680903
000320 8a db 35 3e 40 62 09 3f d1 fc 99 3e cc 84 cd 3e
       0.17759529 0.5366554 0.30075696 0.40140378
000330 6b bd 2a be 69 ec 7f 3e 58 7c 05 bf 4e a2 df be
       -0.1667382 0.24992527 -0.5214286 -0.43678516
000340 be bf a9 be b2 4a ad be 30 03 d9 3d 85 76 b1 3d
       -0.331541 -0.3384605 0.10596311 0.08665184
000350 4a 86 78 3d 21 51 bd bd 4f 4d 3f 3e 06 55 ca bd
       0.060674943 -0.0924399 0.18681835 -0.09879498
000360 ec 11 05 3e 83 88 0d be 60 8d 65 bd e4 19 be bd
       0.12995118 -0.13821606 -0.05604303 -0.09282282
000370 88 9f 67 3d 58 39 09 be 85 da 6a be 72 38 f3 bc
       0.056548625 -0.13400781 -0.22934921 -0.029690001
000380 4b 6d 4e 3e 69 b3 5e be d1 b9 26 3e 07 1b 0c 3e
       0.2015888 -0.21748127 0.16281821 0.13682185
000390 83 aa d6 bd 94 34 df 3d 2d 0f 6b be b3 02 02 be
       -0.10481741 0.108987 -0.22955008 -0.12696342
0003a0 f3 d3 3a bb 39 8f 04 3e d6 57 50 3e fb 66 75 bd
       -0.002850768 0.1294526 0.20346007 -0.059912663
0003b0 29 36 d5 3d b8 a5 49 bc 80 fb 32 be a5 4d 17 be
       0.10410721 -0.012307577 -0.17478752 -0.14775713
0003c0 82 31 54 bd 12 45 49 be f9 6b 05 be 99 bf 96 3d
       -0.051805027 -0.19655254 -0.1302947 0.07360763
0003d0 f0 eb 97 bd 22 6f 16 bc 79 a9 de be 99 d9 7c bd
       -0.074180484 -0.00918177 -0.43488672 -0.061730955
0003e0 1c b5 1d be a8 40 6e 3d 58 2d 9b 3e 0b bf 42 3d
       -0.15401119 0.05816713 0.30308032 0.047545474
0003f0 9c ee c4 bc d7 54 7f 3c 0b fa 88 be 36 9d 41 3c
       -0.024039559 0.015584192 -0.26753268 0.011817267

lstm.bias_ih_l0 f4 [280]
000000 25 fa 25 3e 8d d4 74 be 82 92 aa be 80 7a e2 3e
       0.16208704 -0.23909207 -0.33314902 0.44234085
000010 28 11 55 be c8 07 d1 bb 7c 68 38 bf 1b 55 d0 3e
       -0.20807326 -0.0063791014 -0.7203443 0.4068993
000020 97 6c b8 be f9 a8 c6 3d 45 37 2c be 26 07 70 be
       -0.36020347 0.09700198 -0.16817959 -0.23440227
000030 8b 38 eb bd 39 4e 00 bf f3 ec fb be e7 f4 d1 be
       -0.11485394 -0.5011936 -0.49204215 -0.41007158
000040 d9 64 c5 3e 34 e3 32 bf ed 32 59 3f 72 5b dc be
       0.38553503 -0.69877934 0.8484333 -0.43038517
000050 7d c5 36 be 83 14 90 be 35 5b 69 3f f7 f7 04 bf
       -0.17848773 -0.2814065 0.91154796 -0.51940864
000060 e9 ba 93 3e c6 50 15 bf d7 22 df be 65 f1 ae 3e
       0.2885354 -0.58326375 -0.43581268 0.34168544
000070 c1 bc 3a bd 34 ca 34 3e 2b 1a 80 bc e1 18 0e 3f
       -0.045590166 0.1765526 -0.015637478 0.5550671
000080 47 61 42 bc ed c4 3e 3f de 9a e9 3e c0 55 4c 3d
       -0.011864013 0.74519235 0.45625967 0.049886465
000090 0d 3f a9 bd c0 39 2a bd 5b fd 49 be 24 ff 93 3c
       -0.08263979 -0.04155898 -0.19725554 0.018065996
0000a0 d3 ac 9b be 70 d6 27 bd 08 77 2a bd e3 77 1b bd
       -0.30405292 -0.040975988 -0.041617423 -0.03795613
0000b0 8b d2 09 bf 43 07 c4 3e cb 32 1b bf 4b 76 fb 3e
       -0.5383689 0.3828679 -0.6062438 0.49113688
0000c0 bf 40 b8 bd 64 e9 99 be 6d 4b 26 3f 72 00 46 3d
       -0.08996724 -0.30060875 0.6495884 0.04834027
0000d0 16 a7 88 3e 3a 34 97 be 9f fe 6b be ee 7d 24 ba
       0.26689976 -0.29532033 -0.23046349 -0.00062748685
0000e0 f3 2c 33 be f9 d3 dc 3d 39 ff c4 bd 61 1b ad bd
       -0.17497616 0.10782618 -0.09618992 -0.08452488
0000f0 53 c6 f5 bd 6f dd e4 3e 9d 62 b0 3d b9 eb 00 bf
       -0.12000718 0.4470019 0.08612559 -0.50359684
000100 12 de 64 bd e8 b9 0c 3f 6a da 74 3d d3 20 70 bd
       -0.055875845 0.5497117 0.05977861 -0.058625054
000110 10 de 2f be 3b 36 8e be 4f 0c b1 3e 19 87 1b 3e
       -0.17174554 -0.2777575 0.34579703 0.15188254
000120 73 0d ff bd de 57 77 3e b1 7c aa 3e a2 3e b6 bd
       -0.12453737 0.24154612 0.33298257 -0.08898665
000130 d6 53 92 be 72 27 1d 3e 16 4b 71 3e cf 0b 8d 3d
       -0.28579587 0.15347078 0.235638 0.06887018
000140 8d 97 f7 3d 96 61 cf be 2e f9 46 bd 5d 1c 1f 3d
       0.12089453 -0.4050414 -0.04857748 0.03884541
000150 30 91 5d bf 5f dd be bd 8a cb dc 3e 9a c6 0b bf
       -0.86549664 -0.09319567 0.43124038 -0.54599917
000160 2c 80 03 3f ab 2e b0 be 25 77 4f bf b0 9e 00 be
       0.5136745 -0.34410605 -0.81041175 -0.12560534
000170 8c b7 1e 3f 1d 28 54 bd b6 4d 70 3e e5 a8 29 3d
       0.6199882 -0.051796068 0.23467144 0.041420836
000180 36 cb 8d bc ba 68 58 bd 7b 47 3c bf 84 07 a4 3e
       -0.017308813 -0.05283425 -0.7354657 0.32036984
000190 b6 d7 bd bd a2 0b 81 bd 4a 49 47 be b2 81 eb 3e
       -0.09269659 -0.06301047 -0.19461551 0.45997387
0001a0 e3 8f 3f bf b0 81 8f 3d bd 79 7e bc 52 3b 8d 3e
       -0.7482893 0.07007158 -0.015531954 0.2758432
0001b0 bd 90 a9 bd 70 ab 49 bf f0 1b 8f bd a5 ee 47 3e
       -0.0827956 -0.7877722 -0.069877505 0.1952463
0001c0 c6 4c 78 be 34 b4 6a 3e 81 a9 59 be e6 a0 a5 3e
       -0.24248037 0.22920305 -0.21256067 0.32349318
0001d0 f6 d1 e1 be fe f2 65 3e 8c 23 bf 3e 55 83 1a be
       -0.441055 0.22455975 0.37331808 -0.15089162
0001e0 95 84 7a bf d0 e3 65 bf b1 5b c3 3e 98 80 ce be
       -0.97858554 -0.8980074 0.38155892 -0.40332484
0001f0 ed c2 f7 bb 3d fd 06 bf 22 b3 6e be ff 98 c8 3c
       -0.0075610788 -0.5273016 -0.23310521 0.024487017
000200 ac 2c b0 be bd 32 83 bf b0 2b 1d 3e 6f c0 38 be
       -0.34409082 -1.0249859 0.15348697 -0.18042158
000210 6f d4 2a 3c a4 28 fa be 50 21 14 3c 87 48 e3 3e
       0.010426625 -0.4885913 0.009041145 0.4439127
000220 ae bc 15 bf 9a fa 4f 3e c5 89 b2 3e 47 3c bc be
       -0.5849103 0.2031044 0.34870735 -0.36764738
000230 ac 8a 4f be 71 d1 9e 3e 63 98 6d bd 9d 26 e1 3e
       -0.20267743 0.31019166 -0.058006655 0.43974772
000240 b5 15 31 3d ab f4 23 bf 67 89 6e bc 76 25 8c 3e
       0.043233592 -0.6404521 -0.014559126 0.2737233
000250 de ab ae 3d b5 8b 3b be 20 31 fc be 69 d3 e4 3d
       0.08528875 -0.18315013 -0.4925623 0.11173136
000260 59 07 c5 bd 49 5c 19 bd 5c d5 85 3e 1e 53 fa 3d
       -0.09620542 -0.037441526 0.26139343 0.122228846
000270 1e b0 d2 3e c4 28 64 3c 83 ef 19 bf 89 37 3b be
       0.41149992 0.013925735 -0.6013109 -0.18282904
000280 75 cd 0f bd 8a 3c dd bd 52 8f 1d 3f 55 6f 48 be
       -0.03510805 -0.108025625 0.61546814 -0.1957372
000290 e5 78 62 be cd 0c 9a 3e d7 69 b6 3e 1f 43 15 bf
       -0.2211643 0.3008789 0.35627624 -0.58305544
0002a0 22 4d 83 be cf e4 78 3d ab 44 b3 3e 56 de 25 bf
       -0.25644785 0.060765084 0.35013327 -0.6479238
0002b0 68 55 a8 3e 37 52 50 3f 02 60 3e bc ef f5 e3 be
       0.3287766 0.8137545 -0.01161957 -0.4452357
0002c0 3e 08 cd 3a 03 bd 0c 3d 84 a0 1b 3f ec e8 33 bd
       0.0015642715 0.034359943 0.607918 -0.043923303
0002d0 7d a0 ce 39 6d 6d 3b bc 13 3a 0f be f3 3d d3 bd
       0.00039410955 -0.011439663 -0.13986997 -0.1031455
0002e0 a7 49 82 3e 34 5c b3 be 36 03 9c 3e b6 dc a2 be
       0.25446817 -0.35031283 0.304712 -0.31809014
0002f0 e6 e9 ef be a8 82 0a 3c 00 92 b7 be a3 7e 84 3e
       -0.46858138 0.008454002 -0.35853577 0.25877866
000300 3e f4 d0 be fc df ef 3d cb a8 3e be b8 23 03 be
       -0.40811342 0.117126435 -0.18619077 -0.12806594
000310 77 c9 4c bd a1 ad 46 be 5c 3d 61 be 64 c3 25 bd
       -0.04999682 -0.19402172 -0.21996063 -0.040469542
000320 a3 ed 89 be 69 ca b4 be 62 f7 2c 3e d4 3d ff bc
       -0.26939115 -0.35310677 0.16891244 -0.031157412
000330 e0 99 1e bd 73 32 9c be 06 75 34 be 90 a8 37 bf
       -0.038720965 -0.3050724 -0.17622766 -0.7174158
000340 a0 40 5c be 58 ff 03 3f 44 96 0d bf 68 4a d1 3e
       -0.21509027 0.515615 -0.5530741 0.4087708
000350 fc 88 cc be b5 9e 17 bf 66 51 bc 3d 7b e4 0e bf
       -0.3994826 -0.5922654 0.09195213 -0.55817384
000360 e5 b6 1e bf ab 1b 91 be c6 c5 72 be d9 e1 0d 3e
       -0.61997825 -0.2834142 -0.23708257 0.13855685
000370 e7 4b f2 bc b8 17 40 be 41 25 31 3e 18 1f c9 be
       -0.029577209 -0.18759048 0.17299367 -0.39281535
000380 f6 7c ee be 2c 58 0f be c0 77 20 3f a4 82 4e 3e
       -0.46579713 -0.13998479 0.62682724 0.20167023
000390 5a 0a 3b 3f 64 ab ec be 00 da 33 bd 98 4c b3 3e
       0.7306267 -0.4622451 -0.043909073 0.35019374
0003a0 99 ad 29 3f 9a 8d bb be bf 57 a3 bd 68 5b 69 bf
       0.66280514 -0.3663147 -0.079757206 -0.911551
0003b0 59 1e 03 3e ca a7 1b be ae 5b e7 bc 7f 41 25 3f
       0.12804545 -0.15200725 -0.028241958 0.64553064
0003c0 d0 75 6c be 0b 1d e5 be 55 d2 43 be 66 e7 80 bf
       -0.23091817 -0.4474872 -0.19123204 -1.0070617
0003d0 77 68 7e 3e e8 9e fc bc b8 5f c4 3d e2 94 09 bf
       0.24844538 -0.030837491 0.095885694 -0.537428
0003e0 82 bf 32 be 22 63 35 3c 4c b2 95 be ca ea 89 3d
       -0.17455867 0.011070998 -0.29237592 0.067342356
0003f0 77 ed fd 3d c4 52 47 3e 25 28 cd be e4 6f d1 be
       0.123988084 0.19465166 -0.4006969 -0.40905678

lstm.bias_hh_l0 f4 [280]
000000 85 2a 70 3e f2 47 9b be d7 d1 e3 be 5e 8d 03 3f
       0.2345372 -0.30328327 -0.44496033 0.51387584
000010 05 a3 89 bd c0 f3 f5 3c 57 0d 13 bf b8 5e aa 3e
       -0.06720547 0.030023456 -0.5744223 0.3327539
000020 21 8a e8 be b5 d2 73 3e 0f b8 55 be 77 5b 40 be
       -0.45417884 0.23810847 -0.20870994 -0.18784891
000030 87 10 20 be 17 95 c5 be 3e 64 1f bf 1b ae 55 be
       -0.15631305 -0.3859031 -0.6226233 -0.20867197
000040 d8 86 b1 3e ff b1 1b bf f9 7a 3d 3f b7 1e f4 be
       0.3467319 -0.60818475 0.74015766 -0.47679684
000050 c5 ce 9e bd 2c 0e c0 be 06 c9 49 3f 44 29 9b be
       -0.07754282 -0.37510812 0.7882236 -0.3030492
000060 cd 28 59 3e 99 60 09 bf e0 1f dd be f6 b6 9f 3e
       0.2120697 -0.5366302 -0.4318838 0.31194276
000070 86 47 48 be 34 31 5a 3e 09 c9 1e bd bc 87 18 3f
       -0.19558534 0.21307832 -0.03876594 0.59582114
000080 13 6c 4b be 2f aa 1b 3f 61 c0 90 3e ff d2 84 bd
       -0.19865446 0.60806555 0.28271773 -0.06485557
000090 18 1c 84 be 78 34 d9 3d 84 b0 94 be 55 3b d1 3d
       -0.25802684 0.10605711 -0.2904092 0.10216395
0000a0 88 53 15 be 4d 25 d0 bc 31 3d fc bd eb 20 26 bd
       -0.14582646 -0.025408411 -0.12316359 -0.040558737
0000b0 39 20 b6 be 2c 97 83 3e 5c 6f 22 bf fc eb dc 3e
       -0.3557146 0.25701272 -0.6345117 0.43148792
0000c0 04 56 e0 3c 96 5e 89 be 24 1e 03 3f 59 be d6 bd
       0.027384765 -0.26829976 0.51217866 -0.10485525
0000d0 7e 11 34 3e 19 1a f9 be b0 83 86 be 23 72 88 bc
       0.17584798 -0.48652723 -0.26272345 -0.016655987
0000e0 83 7e 4c be 3d 8c 93 3e 46 02 4a be 49 b8 3e be
       -0.19970135 0.2881793 -0.1972743 -0.18624987
0000f0 97 cb 1f bd 6e 9b f5 3e 88 2d dc 3d ef 34 1d bf
       -0.039012518 0.47970146 0.10750872 -0.61408895
000100 63 3d 29 be c4 39 dd 3e 33 41 8d bd eb 02 d7 bc
       -0.16527323 0.43208134 -0.068972014 -0.026246509
000110 04 7a 54 be 79 be 86 be d1 6d a6 3e 8a b0 92 3e
       -0.2074967 -0.26317194 0.32505658 0.28650314
000120 af 6f 90 bd 26 27 c4 3e 82 f6 ec 3d e0 54 34 be
       -0.07052552 0.38311118 0.11570455 -0.17610502
000130 3a a4 81 be d0 ad 57 3c 7e a0 83 3e d3 76 e6 3d
       -0.25320607 0.013163999 0.25708383 0.11253133
000140 0d c7 83 3e ff b7 e4 be 9d 77 44 3b fe 72 36 bd
       0.257378 -0.44671628 0.0029978522 -0.04454326
000150 b9 c6 72 bf 1f c2 12 bd 15 5e c3 3e b1 2a 20 bf
       -0.94834477 -0.03582966 0.38157716 -0.6256514
000160 49 aa f2 3e 6f d0 8c be 45 6c 39 bf a6 55 88 3d
       0.47395542 -0.27502772 -0.7243083 0.06656961
000170 c1 c8 e0 3e 88 b0 8e bc af bb e6 3d 3e 8d 4e 3d
       0.43903163 -0.017418161 0.112662666 0.050427668
000180 92 47 17 3e 42 d9 28 bc c0 ef 6c bf b6 9a dc 3d
       0.14773396 -0.010305705 -0.9255333 0.10771696
000190 71 03 47 bd f2 b3 2e 3d 37 22 bc be 81 35 db 3e
       -0.048587266 0.042652078 -0.36744854 0.42814258
0001a0 37 55 49 bf be 76 88 3d 8e 2c 02 be 2b b5 a3 3d
       -0.7864565 0.06663273 -0.12712309 0.079935394
0001b0 6b 3a e1 3c 2a d1 40 bf 8a fe 10 be 9a 2d 09 3e
       0.027493676 -0.7531916 -0.14159599 0.13396302
0001c0 3e f1 4e be a8 b5 bd 3e 28 a7 22 bd 51 08 a8 3e
       -0.20209214 0.37052655 -0.039710194 0.32818845
0001d0 b9 98 fe be 68 a5 30 3e 88 8b d0 3e bf 48 b5 bc
       -0.49725893 0.17250597 0.40731454 -0.022129415
0001e0 58 ec 70 bf be 2c 61 bf 30 aa df 3e cc e9 a8 be
       -0.9411063 -0.87958896 0.4368453 -0.32990873
0001f0 c7 48 ca 3d e0 55 04 bf c9 db 80 be c5 a5 90 bd
       0.098771624 -0.51693535 -0.25167683 -0.07062868
000200 6e 27 ea be 36 e7 88 bf bf d8 4b 3e 4e bc 6a bc
       -0.45733207 -1.069556 0.19906901 -0.014327122
000210 12 cf fe 3d bc f5 ed be 2d ec 3e 3e d7 99 b2 3e
       0.12441839 -0.46476543 0.18644781 0.34882995
000220 b1 b9 1a bf 88 50 fb 3c a6 89 c5 3e 09 f3 bb be
       -0.6043959 0.030678049 0.3858158 -0.3670886
000230 f7 32 7a be b6 4e bb 3e b0 a9 fc 3c ee 51 fa 3e
       -0.24433504 0.3658349 0.030842632 0.48890632
000240 29 63 44 3e b4 dc 12 bf b0 2b fe bc f6 d9 22 3e
       0.19178452 -0.57368016 -0.031026691 0.15903458
000250 05 3a 71 3e c9 31 8e be 39 a8 1d bf 04 f9 a9 3d
       0.23557289 -0.27772358 -0.6158481 0.08299449
000260 c6 d2 80 3d 93 db 44 3c 21 be b6 3e 3a e2 92 3d
       0.06290202 0.012015241 0.35691932 0.071720555
000270 c2 54 66 3e ff c0 c7 bd 7a 23 37 bf fa bd 80 be
       0.2249327 -0.09753608 -0.7153851 -0.2514494
000280 09 7d 00 3a 6a 12 39 bd 04 c3 4c 3f 26 e9 89 be
       0.0004901444 -0.045183577 0.7998507 -0.2693569
000290 c9 f6 cb be 99 bb 36 3e f4 2f d6 3e 77 14 1f bf
       -0.3983672 0.17845 0.4183346 -0.621406
0002a0 d0 02 2e bd dd fd 2c 3d 7f 01 14 3f 45 7f 28 bf
       -0.04248315 0.04223429 0.5781478 -0.658192
0002b0 de e5 04 3f 33 72 35 3f 97 30 2a be ca 83 03 bf
       0.5191325 0.7087738 -0.16620098 -0.5137297
0002c0 24 d6 e5 bd 50 de 84 3e 6b 83 3f 3f 0d 10 10 bb
       -0.11222485 0.2595086 0.748099 -0.0021982223
0002d0 26 bc 1a 3b 1d a6 cf 3d 0e 42 d6 bd 9b 53 47 be
       0.002361068 0.101391055 -0.10461818 -0.19465487
0002e0 24 cf 85 3e f7 a2 b0 be a4 95 6f 3e e3 a3 c9 be
       0.26134598 -0.34499332 0.23396927 -0.39382848
0002f0 84 70 12 bf a5 48 fc 3d a9 17 6a be 33 06 b8 3e
       -0.57202935 0.12318543 -0.22860588 0.3594223
000300 c2 9b fc be 49 c4 bd bd e4 90 1d be 2d 90 56 bd
       -0.49337584 -0.09265954 -0.15387303 -0.05238359
000310 c1 e5 44 be 83 77 47 be 00 d7 81 be 55 3a 88 bc
       -0.19228269 -0.19479184 -0.25359344 -0.016629377
000320 a3 69 95 be 5f 39 ca be d5 80 ba 3e 7a 3f 8e 3c
       -0.29182157 -0.39496896 0.36426416 0.017364252
000330 58 96 7b 3c 3a 69 a3 be 07 e4 9c bc 7c 24 1b bf
       0.015355669 -0.3191622 -0.0191517 -0.60602546
000340 4a 32 3a be 6c 5c 09 3f 8f a5 10 bf 8c 59 cb 3e
       -0.18183246 0.5365665 -0.5650262 0.39716756
000350 23 ad 91 be 05 a9 14 bf 90 3e 1c 3b 07 16 22 bf
       -0.28452405 -0.58070403 0.0023841 -0.6331486
000360 e9 90 3a bf c9 72 15 be d9 0e 4a be 01 ff f6 3d
       -0.72877365 -0.14594568 -0.19732226 0.12060357
000370 69 1b 43 3d 62 f2 fa bd ba 57 ae 3e c8 b7 fd be
       0.047633562 -0.12253262 0.34051305 -0.49554276
000380 48 3e 0e bf de c8 2c be 30 9d 1c 3f 66 03 c1 3e
       -0.55563784 -0.168735 0.6117735 0.37697905
000390 c8 6b 4b 3f 36 5e b3 be 8a 96 0e bd 0a 7d a7 3e
       0.79461336 -0.35032815 -0.034811534 0.32712585
0003a0 09 08 36 3f 40 0b a2 be 0c 20 73 bd c8 08 6d bf
       0.7110601 -0.31649208 -0.059356734 -0.92591524
0003b0 4b 3d 5c 3e dc 84 1c be 4d c6 44 be 75 cd 56 3f
       0.21507756 -0.15285057 -0.1921627 0.8390725
0003c0 33 c6 8b be f5 ea f9 be 66 b5 68 be 65 b1 7c bf
       -0.27299652 -0.4881207 -0.22725448 -0.9870818
0003d0 53 c6 af 3e 43 62 19 be 1c ce 6a 3c 53 0e 21 bf
       0.34330997 -0.1497889 0.014331367 -0.6291248
0003e0 3f cd 5a be f0 72 19 bd c5 2b 1d be 26 cd f2 3d
       -0.21367358 -0.03746313 -0.15348728 0.11855535
0003f0 90 19 e9 3c 5f aa 2b 3e ea 9e e2 be c8 57 b5 be
       0.028454572 0.1676421 -0.44261867 -0.35418534

lstm.weight_ih_l0_reverse f4 [280, 20]
000000 b0 8c 8e 3f 9a 7b 34 3e 45 ce c4 3f fa 75 60 3f
       1.1136684 0.17625275 1.5375448 0.8768002
000010 37 e2 7e bf 20 62 2d 3e 88 d9 21 bd d5 cd 57 40
       -0.99563926 0.16931963 -0.039514095 3.371938
000020 01 cc 2b bf 2c 54 3f 3f 35 7a 4d 3f 85 97 d0 bf
       -0.6710816 0.7473781 0.802646 -1.629624
000030 4b 1f bb 3e aa 50 93 bf 0e 90 92 bf 13 e9 d8 bf
       0.36547312 -1.1508992 -1.1450212 -1.6946129
000040 fb ab c8 3e a3 80 d4 bf 67 d2 ca bf 4e 66 22 c0
       0.3919371 -1.6601757 -1.584546 -2.5374942
000050 ef 58 92 3e 19 f9 42 be 72 66 41 3f 40 b1 20 3f
       0.28583476 -0.19040336 0.75546944 0.6277046
000060 29 49 40 bf 71 a5 55 3f 1f e8 2a 3c 4d 2e 8f bf
       -0.75111634 0.8345557 0.010431319 -1.1186005
000070 f5 a7 59 3f 51 85 08 be 5d fb a6 bf 51 b1 74 bf
       0.8502191 -0.13332106 -1.304546 -0.95583063
000080 ec ef f2 bf d2 ca 65 bf 6d 84 19 3e 4d b2 8b be
       -1.8979468 -0.89762604 0.14991923 -0.2728447
000090 9d 8c 2f bd 74 ee 4d bc 61 c2 4e 3e fa 1f 4f 3f
       -0.04285871 -0.012569059 0.20191337 0.8090817
0000a0 05 b7 14 bf 3c a8 14 be 4b 26 8a bf c6 36 56 bf
       -0.58091766 -0.14517301 -1.0792936 -0.8367733
0000b0 49 60 92 bf c7 ed 26 bf 00 7c 87 bd e8 46 f8 be
       -1.1435634 -0.6520657 -0.06615448 -0.48491597
0000c0 12 a7 d2 bd 38 65 c5 be 0f 4a 32 be 54 72 4c bf
       -0.102857724 -0.38553786 -0.17411064 -0.7986195
0000d0 31 5b a2 bf d8 3c 9d bf 20 c2 12 3f b1 2f f2 be
       -1.268408 -1.2284193 0.5732746 -0.4730201
0000e0 e8 40 69 bf b0 3c 8c bd 71 c2 cb bf 78 6a c6 bd
       -0.91114664 -0.06847513 -1.5918714 -0.09688276
0000f0 dd b8 5e bf a6 ac 17 bf 8f ef e0 3e e5 9f d0 3e
       -0.8700083 -0.59247816 0.4393277 0.4074699
000100 ca 8b 2e bf 6f 86 82 bf 1c 2c c9 3e d0 ce 9f be
       -0.6818205 -1.0197276 0.39291465 -0.31212473
000110 05 73 3c 3f e0 f4 64 bf 36 fe 23 bf 41 12 0f bf
       0.73613006 -0.8943615 -0.6405977 -0.5588723
000120 d9 b1 e2 3d 11 30 41 bf 11 01 69 3f e1 54 1f bf
       0.11069078 -0.7546397 0.9101725 -0.6223889
000130 8d ed 3d bf 1a fe 3b bf f9 12 03 3e 0d 61 b4 bf
       -0.741906 -0.73434603 0.12800206 -1.4092118
000140 93 b5 25 3f 06 83 24 40 82 42 d4 3f da 97 d2 3e
       0.64730185 2.570497 1.6582797 0.4113148
000150 03 c1 61 3e 09 85 a7 3f 05 08 b5 bf 68 ef 9a bf
       0.22046284 1.3087474 -1.4143072 -1.2104311
000160 f2 73 5b bf 52 97 cf bf cc 36 bf 3d 9a 3b 1b bf
       -0.85723794 -1.6218054 0.093366235 -0.6063782
000170 cd de ec be a3 61 30 40 60 04 a6 bf 62 91 2d 40
       -0.46263734 2.7559593 -1.2970085 2.7119985
000180 2c 58 62 3f 60 b6 23 3f 70 98 05 c0 09 0c 95 3f
       0.8841579 0.6395016 -2.087429 1.1644298
000190 0a 0a 49 bf 6c 3f b9 3e 7c fc c5 bf e1 46 43 bf
       -0.78530943 0.361812 -1.5467677 -0.7628003
0001a0 31 4c fb 3d d3 3b 19 bf da 27 e3 be 7c 44 a7 bf
       0.12270392 -0.5985691 -0.44366342 -1.3067775
0001b0 a0 02 33 bf 54 5a df be c2 03 12 bf d7 49 ff be
       -0.6992588 -0.43623602 -0.57036984 -0.49861023
0001c0 73 f3 40 3f 2b 6a 07 c0 7b ab 36 bf 90 02 a9 bf
       0.75371474 -2.115855 -0.7135541 -1.3203907
0001d0 0c 50 99 bf c8 2b 63 bf b6 19 4a 3f d4 5a 65 3f
       -1.1977553 -0.8873868 0.7894548 0.8959172
0001e0 ec bd 7b bf 3a 5d a4 3a ef e7 ff 3e 62 4d 8e 3e
       -0.9833667 0.0012539991 0.4998164 0.27793413
0001f0 c3 7c 5f 3e c3 7d de be 0f 43 3e 3e 4c 05 93 3f
       0.21824937 -0.43455324 0.18580268 1.1485991
000200 02 c5 d0 be 39 f0 0d 40 68 98 3e 3f 70 f2 59 bf
       -0.40775305 2.217787 0.74451303 -0.85135555
000210 4f 47 e3 3f fc 15 0d bf bd a6 a2 be a9 38 93 3f
       1.7756137 -0.5511167 -0.31767836 1.1501666
000220 82 ee 8f bf 9c 6d 31 40 9e 07 40 bf a3 10 85 3f
       -1.1244662 2.772315 -0.7501162 1.0395702
000230 53 eb 72 bf 50 d8 4a 3f ca fd cc 3f 5b 97 f9 3f
       -0.94890326 0.79236317 1.601495 1.9499315
000240 3e e0 34 bf c9 e0 61 3e b5 ac 75 bf 5f 37 27 3f
       -0.70654666 0.22058405 -0.95966655 0.65318865
000250 ab 52 87 bf 82 91 a1 3e 81 06 25 3f e6 a1 e6 be
       -1.0572103 0.31556326 0.6446305 -0.45045394
000260 88 f5 61 3f 6f d2 de bf 41 df fb bf 2a 0a 5e bf
       0.88265276 -1.7407969 -1.9677507 -0.8673426
000270 77 e1 11 3f 26 e1 86 3f cd 9d 5f 3d 91 a4 68 3e
       0.5698466 1.053746 0.05459385 0.22719027
000280 a7 df c0 3f 63 a4 89 40 8f c7 b7 40 e3 a0 c0 3e
       1.5068253 4.3013167 5.74311 0.37622747
000290 36 67 3a bf b7 5c 1b be 53 fc 87 3e 48 3b ec bf
       -0.7281374 -0.15172087 0.26559696 -1.8455591
0002a0 00 8a 84 3d b3 38 1c 40 0e 9c 5f bf 5c 7d 2a bf
       0.06471634 2.4409606 -0.87347496 -0.66597533
0002b0 92 31 b1 3f 0f 42 e9 be 70 3f 75 bf c6 38 04 40
       1.3843253 -0.4555821 -0.9579992 2.0659652
0002c0 19 99 05 40 b0 8f 4c 3d a6 1d f6 3f 3d 44 d5 3f
       2.0874693 0.04994172 1.9227798 1.666145
0002d0 d0 a5 b4 be a9 28 c4 3d de 7c 84 3d 69 94 b1 bf
       -0.35282755 0.09578068 0.06469129 -1.3873416
0002e0 23 85 64 bf ea 19 36 bf b5 ca 16 3f 1f 8e bd bf
       -0.8926565 -0.7113329 0.58903056 -1.4808997
0002f0 5c 48 06 3e a8 81 e9 bf a2 f6 3e c0 8c 92 20 3e
       0.1311354 -1.8242693 -2.9838033 0.15680903
000300 1e c6 05 c0 11 9f 77 3e 2e d0 e1 3c b7 da 1f bf
       -2.090217 0.24181773 0.027565088 -0.6244311
000310 79 e9 24 bf e0 cc 99 c0 73 90 0b 3f bb 5b 8f bf
       -0.6441875 -4.806259 0.54517287 -1.1199869
000320 94 f2 60 3e 55 bd 8d 3f dd 12 19 bf 18 f9 1e bf
       0.21967536 1.1073405 -0.5979441 -0.62098837
000330 2d e6 6b bf 1d 9d d8 bf c7 f0 0c 3f 30 5d 83 bf
       -0.92148095 -1.6922947 0.550549 -1.0262814
000340 17 13 f0 bf 90 54 1e 3f ce 81 b1 bf cd 9b 97 3f
       -1.8755826 0.6184778 -1.3867738 1.1844422
000350 79 63 34 bf aa 1b fc bd 75 0f e4 bd 6e 45 c2 bf
       -0.70464283 -0.12309964 -0.11135761 -1.5177438
000360 5d 4d 18 3f cb 27 b9 be f2 c5 37 3f 60 8d 38 bf
       0.59493047 -0.36163172 0.71786416 -0.7209072
000370 1a b7 f7 3c dd 8e 07 3f 02 e6 16 be 33 37 06 bf
       0.030238677 0.5295237 -0.14736179 -0.5242798
000380 cf e2 09 bf 12 28 1d 3e ae e9 f0 bf 22 fb 3a 3e
       -0.5386171 0.15347317 -1.8821313 0.18259862
000390 ad 1e 07 bf 6c 50 b3 be 71 f6 ce 3e 91 2f 1f c0
       -0.5278118 -0.35022295 0.40422395 -2.4872782
0003a0 a8 14 8e 3f d1 a5 61 bf 62 37 b4 bf 90 5e 21 bf
       1.1100054 -0.8814364 -1.4079401 -0.63034916
0003b0 40 d3 c8 be 74 4e 0d bf 78 3e 6e bd 50 a8 b9 3e
       -0.3922367 -0.55197835 -0.058165044 0.36261225
0003c0 80 7b a2 3d 37 11 9a 3e d0 ea 4d bf 17 81 51 3f
       0.07933712 0.3009126 -0.8043642 0.818376
0003d0 0c c9 65 be 1d a7 66 3e 71 cd 43 bf 1c da 3d bf
       -0.22439975 0.22524686 -0.76485354 -0.74160933
0003e0 b8 94 e1 3e 0e 0a 5c 3f b9 ec 3a 3e 41 99 82 bf
       0.44058776 0.8595284 0.18254365 -1.0203019
0003f0 bd 58 87 bf d5 f5 f8 be 48 3b 45 bf 85 17 5a be
       -1.0573956 -0.48625055 -0.7704358 -0.21298034

lstm.weight_hh_l0_reverse f4 [280, 70]
000000 42 e7 08 3f d6 b6 5b be 9c 8b cb bd 93 9b ca 3c
       0.5347787 -0.21456465 -0.09938738 0.024732387
000010 97 19 fd bd 40 fa 32 3f 84 d8 22 be 74 52 58 bf
       -0.123583965 0.699131 -0.15902907 -0.84500813
000020 5d bb 16 bf 08 2f 8b bf 4b 0e 30 bf 7b ad 96 3e
       -0.58879644 -1.0873728 -0.6877181 0.2942923
000030 48 d6 8f 3f bd 26 cf be a2 ba b3 3e 2a 40 ab 3e
       1.1237268 -0.40459242 0.35103327 0.3344739
000040 22 61 90 3f 75 1a e5 be ad c1 0b bf e5 47 d6 be
       1.1279643 -0.44746748 -0.545924 -0.41851726
000050 4d 12 b2 3d cd 85 b9 be 0f 97 70 be 02 88 b2 3e
       0.08694897 -0.36234894 -0.23495124 0.3486939
000060 8c 0c e8 be 15 60 29 3f 3d ba 0e bd 99 2f c4 bd
       -0.45322073 0.66162235 -0.03484558 -0.09579391
000070 d7 2a c6 3e 75 27 6b be b9 c2 2e bf 3c d7 26 be
       0.3870456 -0.2296427 -0.68265873 -0.16293043
000080 aa 9a d1 be 1c 54 a5 3e be 6a 56 be 97 5f 29 3f
       -0.40938312 0.32290733 -0.20939156 0.66161484
000090 87 82 09 3f 84 f1 8d 3e 20 85 e1 3e 08 20 91 bd
       0.53714794 0.27723324 0.4404688 -0.070861876
0000a0 49 a8 0c 3e b7 e9 55 3e 45 0c b2 bd 6d b6 63 bf
       0.1373607 0.20889936 -0.086937465 -0.88950235
0000b0 8e a9 a0 be b7 d4 5a 3f d8 6b a9 bf bc 64 c6 be
       -0.3137936 0.8548083 -1.3236036 -0.3874873
0000c0 b4 d6 ef 3e a3 8a c6 be 80 14 b9 3e e2 7e 91 3f
       0.46843493 -0.38777646 0.36148453 1.1366847
0000d0 bb 6b 8c 3e 60 17 b1 3e c5 8f bb 3f c7 b5 3e 3d
       0.27425942 0.34588146 1.465325 0.046560075
0000e0 ee d7 44 3e 43 ac 1a bf 51 ad a6 bc 46 73 17 3f
       0.19222996 -0.604191 -0.020346316 0.5916027
0000f0 b0 f1 1e 3f b5 2f b8 3e bc 03 1c 3f 97 5a 29 be
       0.62087536 0.35973898 0.609432 -0.16538464
000100 1c 86 47 3e 33 d5 a6 3e 6b a3 14 bf be 11 39 bf
       0.19484752 0.32584533 -0.58061856 -0.722927
000110 57 83 83 bf 38 87 93 3f 3e 3b 70 3e c4 f9 ce bd
       -1.0274457 1.152564 0.23460099 -0.10106233
000120 ff 16 04 bf e7 d5 5b be 19 98 c2 be 61 ec a6 be
       -0.5159759 -0.21468316 -0.38006666 -0.32602218
000130 17 8c 16 bf 74 68 61 be 61 d5 fd 3e 93 b0 5b 3e
       -0.5880751 -0.22012502 0.49576858 0.21454076
000140 c5 8a 67 bf 28 ce 14 bf c7 48 ce 3e be e8 a1 be
       -0.9044612 -0.5812707 0.402899 -0.3162288
000150 fe 60 86 3e 3a 86 a0 3f 98 8e b2 bb bf 67 18 3f
       0.26245874 1.2540963 -0.0054491274 0.59533304
000160 26 2b 61 bf 8c 3e a1 3e c8 cf d2 be 8e bb 1e c0
       -0.87956464 0.31493032 -0.4117415 -2.4801974
000170 92 35 32 be 56 00 f2 bc bd 28 90 3e 2e 7d 29 bf
       -0.17403248 -0.029541176 0.2815608 -0.66206634
000180 4e 5a cb 3e ca e7 66 3f ac 57 31 3f af 82 5a 3e
       0.39717335 0.9019743 0.692744 0.21338914
000190 af 57 6d bf ee be 43 be 5a bb 1a bf 18 25 e1 be
       -0.9271192 -0.19115803 -0.60442126 -0.43973613
0001a0 bb 16 bb 3e 64 fe 41 bf 0a c7 32 3f e6 d8 0d 3f
       0.3654078 -0.75778794 0.6983496 0.55409086
0001b0 db 02 bd be 38 b4 09 40 5c 8e 85 bf 00 58 e6 be
       -0.3691624 2.1516247 -1.043407 -0.44989014
0001c0 e0 ce f2 3e 8a 61 71 3e ea 86 4f 3e 6a 29 9b 3d
       0.47423458 0.23572364 0.2026631 0.075762585
0001d0 21 8d 82 3e 82 71 f4 bd 26 c3 bd be d7 a0 99 bf
       0.25498298 -0.119357124 -0.3706295 -1.200221
0001e0 ea 78 cd be 83 cf 7e 3f 98 2c f7 3f db 62 54 3e
       -0.40131313 0.9953539 1.9310484 0.20740835
0001f0 06 f4 fc be 90 14 48 bf 83 b6 3b bf ef 2e 1d 3f
       -0.49404925 -0.78156376 -0.73325366 0.6139974
000200 10 d0 8b 3f 18 74 66 3e 68 8c b1 3e d0 b4 95 be
       1.0922871 0.22505224 0.34677434 -0.2923951
000210 49 61 9d be 75 1d 4f 3f 3d a0 65 3f 2b ad 8b ba
       -0.30738285 0.8090432 0.8969763 -0.0010656466
000220 72 24 5d 3f 30 1b d7 3e ff 17 d7 3e 6a da 80 3e
       0.86383736 0.4201293 0.42010495 0.25166637
000230 d6 f4 13 3f e1 a4 82 be 70 82 70 be 28 3b 96 be
       0.57795465 -0.25516418 -0.23487258 -0.29342008
000240 b6 5f e4 be 29 84 fc be 0e c1 12 3f 8a 1b 26 3e
       -0.44604272 -0.4931958 0.5732583 0.16221443
000250 d4 25 a0 3e 0a 3e 93 bd 9f 19 ca 3c 19 81 a8 3d
       0.3127886 -0.071895674 0.02467042 0.082277484
000260 a2 3e 0e 3c 03 71 b5 3d bc 3d bf 3e a9 87 08 be
       0.008681925 0.08859446 0.37351787 -0.13333
000270 50 7f d2 bc a9 7e c8 3d 52 51 a9 3b 67 28 c4 bf
       -0.025695473 0.097897835 0.005167165 -1.532483
000280 3d fb 2a be 09 35 99 bd cb 08 77 bf 73 27 d9 3e
       -0.16697402 -0.07480819 -0.9649779 0.4241291
000290 34 fc 80 be 04 35 07 be f8 f3 98 3f 98 a3 1e bf
       -0.25192416 -0.13203818 1.1949453 -0.61968374
0002a0 3f 26 5f 3e 8a 0e 83 be ae a9 2c bf ae 47 ae 3d
       0.21791933 -0.2559703 -0.6744641 0.085097656
0002b0 e0 8d ac 3e c4 ea 40 3f fa 0a 90 be 43 d2 8b 3f
       0.33701992 0.75358224 -0.28133374 1.0923542
0002c0 64 1d ad 3f f2 9f bb 3d c7 01 5e bf d6 a9 28 be
       1.3524594 0.091613665 -0.8672146 -0.16471037
0002d0 93 ce 2d 3f 70 be 84 bf af 86 86 3f 61 1a 1c 3f
       0.6789333 -1.0370617 1.0509852 0.6097775
0002e0 cb b6 25 bf ae 4e 81 3c 07 7e 2b 3f 9d 4e 29 bf
       -0.64732045 0.015784588 0.6698918 -0.6613558
0002f0 17 77 5c 3f e0 5c ea 3e e0 4d 2f bf 82 52 35 3f
       0.86119217 0.45773983 -0.684782 0.7082902
000300 76 9c 44 3f 66 92 ce 3e fd bf b1 3f ba 8d 85 be
       0.7680124 0.40346068 1.3886715 -0.2608469
000310 19 79 85 3e dd e4 5e bf 0a 34 43 3f 5b 26 2f bf
       0.26068953 -0.8706797 0.7625128 -0.684179
000320 43 5f 09 bf fc cf 3b bf 1e af 81 be 32 59 3c bd
       -0.5366098 -0.73364234 -0.25328916 -0.0459835
000330 1a 08 2f 3f bd 43 5f bf 90 ce ee be 85 e4 f4 3d
       0.68371737 -0.87212735 -0.4664197 0.11957649
000340 a8 31 b1 be 8b 1b a1 3e 38 e8 1a 3e 07 28 29 3f
       -0.34608197 0.31466326 0.15127647 0.660767
000350 d4 07 09 be 46 89 84 3f 71 57 1c bf 95 ea ed 3e
       -0.13381892 1.0354393 -0.61070925 0.46468034
000360 97 1e 47 3e ad 1e 04 bf 66 5a b1 bf d4 4c fb bd
       0.19445263 -0.5160931 -1.3855712 -0.12270513
000370 8b 2e bc bd ba fc f4 be e8 75 98 be 69 9d a6 be
       -0.09188565 -0.47849065 -0.29777455 -0.3254197
000380 1f 86 1f 3f 6b 28 8c 3e bb 43 95 3d 13 8a 85 3f
       0.6231403 0.27374586 0.07288309 1.0432762
000390 1e 09 5a 3e 76 de 20 be cb 0b 47 bf 71 59 eb 3e
       0.2129254 -0.15709862 -0.7775237 0.45966676
0003a0 59 9c 38 be 7f ad 0f 3f 3e 83 aa 3e 9f b4 06 3d
       -0.18028392 0.5612411 0.33303255 0.032887097
0003b0 42 98 6e 3e d0 87 d2 be 83 6b 3e be f4 36 1a 3d
       0.23300269 -0.41119242 -0.185957 0.037650064
0003c0 a1 94 49 be 70 58 03 3e 0c e0 ad 3e 66 93 18 3e
       -0.19685604 0.12826705 0.33959997 0.14899978
0003d0 57 43 a5 3e 8a 11 4a 3f a4 15 e7 bd 82 d9 f3 be
       0.3227794 0.7893301 -0.112834245 -0.47626883
0003e0 ff 51 a4 3e 5c 93 b0 3e c9 e3 20 be 04 ef c4 be
       0.32093808 0.34487426 -0.15711893 -0.38463604
0003f0 6a 71 f3 3e 72 56 44 bd 82 79 3d 3f 8e 0f 9d be
       0.47547466 -0.047934003 0.7401353 -0.3067593

lstm.bias_ih_l0_reverse f4 [280]
000000 fe 2e 20 bf 82 9b 0a be d6 1f 1a bf b0 36 39 bf
       -0.62571704 -0.13535884 -0.6020483 -0.7234907
000010 5f 43 92 3e cd dd 61 3b 83 89 53 be 90 25 07 bf
       0.28567025 0.003446448 -0.20657925 -0.5279169
000020 7b e1 6f 3e 5c ee 13 be 26 d9 6a bf da f3 9d bf
       0.23425858 -0.14446396 -0.9173759 -1.2340043
000030 0a a4 1a bf 14 5c 1b bf 57 a6 1c bf f0 68 9d 3f
       -0.60406554 -0.60687375 -0.61191314 1.2297649
000040 90 67 ac be 01 b9 80 be 8c 43 3f bf 31 37 21 bf
       -0.33672762 -0.25141147 -0.74712443 -0.6297484
000050 a6 28 7b 3e 29 08 0d bf e9 ae 18 be 38 66 e2 3e
       0.24527225 -0.55090576 -0.14910473 0.44218612
000060 72 03 47 bf 21 b0 c9 be 3a 19 f0 be af 58 66 bf
       -0.7773963 -0.39392188 -0.46894246 -0.8997907
000070 55 7c 17 bf d3 7e 7c be 30 3a 71 be 16 cf 14 be
       -0.5917409 -0.24657755 -0.23557353 -0.14532122
000080 c5 d7 d2 be 80 b7 4c bf d4 8b fd be 82 54 ef be
       -0.41180244 -0.799675 -0.49520743 -0.46744162
000090 ea 5d da 3f 2d c6 e3 be 2e c9 87 be 02 12 87 be
       1.705991 -0.44487134 -0.26520675 -0.26380926
0000a0 cc a1 ae bf d7 34 5a be 03 8a d6 3f 16 b1 19 bf
       -1.3643126 -0.2130922 1.6760868 -0.60035837
0000b0 9e 0e d3 be 48 c9 29 bf 94 00 de be cc bf 3f 3f
       -0.4122209 -0.66322756 -0.43359816 0.74902034
0000c0 15 ec 81 be 46 5d 17 bf b0 e0 5d bf a0 5b 12 bf
       -0.2537543 -0.591267 -0.8667097 -0.5717106
0000d0 86 bb 3d bd b5 62 c4 be ce 39 b3 be 37 c6 71 be
       -0.046321414 -0.38356557 -0.3500504 -0.23610769
0000e0 72 64 14 be 74 41 2b bf e3 5b 3e bf cc 27 31 bf
       -0.14491442 -0.6689675 -0.7435896 -0.6920135
0000f0 28 f6 a8 be 8d 06 05 bf 8b 13 57 be 5b fc a4 be
       -0.33000302 -0.5196312 -0.21003549 -0.32223782
000100 95 b7 8a be 24 5b 36 bf b1 21 03 3d f4 c0 fb be
       -0.27093187 -0.7123282 0.032014553 -0.4917065
000110 65 82 33 bf e0 61 e3 be 4e 56 36 3f 01 aa be 3e
       -0.7012084 -0.4441061 0.7122544 0.37239078
000120 0a b1 0a 3f 88 46 39 3f f0 83 de 3e 70 df aa 3e
       0.5417639 0.7237325 0.43460035 0.33373594
000130 51 5c 9d 3e e7 9c 58 3e 02 af 06 3f e7 aa 3f 3e
       0.30734494 0.21153603 0.5261079 0.18717538
000140 a8 e4 46 be b0 2d 3c 3f d7 ba 14 be d1 1a 0b 3f
       -0.19423163 0.73507214 -0.14524399 0.54337794
000150 a1 2c 88 3e e3 43 25 3f c2 76 80 3e f0 42 ef 3e
       0.2659655 0.6455671 0.25090605 0.46730757
000160 86 53 e5 bd 30 d6 03 bf b8 c6 e5 bd 17 af 86 3e
       -0.111975715 -0.514987 -0.11219543 0.26305458
000170 52 bd c4 3e 2d a8 16 3f 16 ff 64 3f f1 43 e2 bc
       0.3842569 0.58850366 0.8945173 -0.027620288
000180 6c 16 f1 3d 24 f0 a9 3e 04 e9 f9 3e 36 6b d7 3e
       0.11771855 0.33191025 0.4881059 0.42073983
000190 62 4e cb 3e 62 38 57 be 2b b0 b6 3e 26 9f 3b 3f
       0.3970824 -0.21017602 0.3568128 0.73289716
0001a0 dd 35 04 bd 3a 74 af be c2 c8 57 3f b3 0c 5a be
       -0.03227793 -0.3426836 0.8429071 -0.21293907
0001b0 d9 65 20 3e 25 bb 41 b9 19 a5 32 3f 59 84 79 3f
       0.15663852 -0.00018475631 0.6978317 0.9746757
0001c0 8c 71 81 3f 45 74 a9 3d 03 ca ab 3d 3c 2a ee 3c
       1.0112777 0.0827413 0.0838814 0.029072873
0001d0 00 85 30 3f 29 df 86 3f 08 a6 22 3e bf a4 87 3e
       0.6895294 1.0536853 0.15883648 0.2649288
0001e0 4e 6a 67 3e af 30 0f 3e 5d 4b a1 3d 5a 60 f3 3d
       0.22599146 0.13983415 0.078757025 0.11883612
0001f0 9d e9 e1 3e 65 90 98 3e c4 7e 90 3e d3 44 2a 3f
       0.44123545 0.29797664 0.28221714 0.6651127
000200 1e f0 13 3f 69 c5 19 be 4c 08 23 3e 69 6f b5 be
       0.57788265 -0.15016712 0.15921134 -0.35436562
000210 5f b1 11 3f a9 46 cf 3d 4a b3 91 be 28 ab 02 3e
       0.5691127 0.10120899 -0.284571 0.12760603
000220 34 85 df bb d3 33 91 3e 84 dc ea 3e 47 be 99 3e
       -0.006821299 0.2835985 0.45871365 0.30027983
000230 9b 29 07 be 40 36 7e 3e 1e 7a 97 3e 0b ac a6 bd
       -0.13199465 0.24825382 0.29585356 -0.08138283
000240 20 ee 85 bd 6f 48 a8 be f8 55 aa bd 24 2a d7 3c
       -0.06539559 -0.32867762 -0.083171785 0.026265211
000250 d0 4d 86 3e 93 37 9d 3e 00 fc 34 3e 0c cc 8a be
       0.2623124 0.30706462 0.17674255 -0.271088
000260 52 0a b8 bd 7b 58 5e 3e 44 77 ab be e9 62 fd 3e
       -0.089863434 0.2171344 -0.3348943 0.49489525
000270 ac 79 8d 3d c0 d1 8c be c2 bc 5c 3e cb a3 a8 3e
       0.06907973 -0.27503777 0.2155638 0.32937464
000280 48 8e 59 bf fb f2 5e 3e f9 b3 79 3e 03 68 43 3e
       -0.8498273 0.21772377 0.2438506 0.19082646
000290 68 03 b9 3d 04 2e 04 bf c3 fd 14 bf 81 b1 f2 3d
       0.09033853 -0.51632714 -0.5819971 0.118502624
0002a0 38 6d 52 bd 12 f7 ef 3c ec ba 6f 3e 1d eb 4f 3f
       -0.05137369 0.029292617 0.23411149 0.8121813
0002b0 ee db cb be cb 2c 96 3d 04 2a b0 be 15 d6 c2 be
       -0.3981623 0.07332762 -0.34407055 -0.38053957
0002c0 7a 1a 8c 3e aa 9f 6d bf d0 c7 b0 3e f1 90 37 3b
       0.2736395 -0.92821753 0.34527445 0.0028009976
0002d0 31 2c 80 be 23 38 62 bd 31 06 c3 3e 00 2d 9a 3d
       -0.25033715 -0.055229317 0.3809066 0.07528114
0002e0 c8 53 d2 3d 23 e1 30 3c e7 d5 4f be b7 15 55 bd
       0.10269886 0.010795864 -0.20296441 -0.052022662
0002f0 cd 1a 47 be 40 07 69 bd 04 1e f9 bc a1 4b 21 bd
       -0.19443817 -0.05689168 -0.03040982 -0.039378766
000300 1a 91 e3 be b6 13 9c be 09 a5 34 3e d6 01 88 bd
       -0.4444664 -0.30483788 0.17641081 -0.06640975
000310 97 12 88 3e ac 35 2c 3b db 4c 0c be f3 53 37 3e
       0.26576683 0.0026277108 -0.13701193 0.17903118
000320 0a 15 58 be 45 63 d1 3d d8 90 05 3e e4 ae 52 bc
       -0.21101776 0.10224012 0.13043535 -0.01285908
000330 58 31 24 3e 4a 0a 30 3e bd 62 7e bd 4c 8d a1 3c
       0.16034448 0.17191425 -0.062105883 0.019720696
000340 64 2d a4 bc 45 19 94 bd f0 f2 b6 be 8f 3a 4f 3c
       -0.020041175 -0.07231382 -0.35732222 0.012648239
000350 a3 8c 38 3d 86 12 19 3e 23 ac 51 3e c0 e4 1a 3d
       0.045055997 0.14948472 0.20475821 0.03781581
000360 b6 90 05 3d 6e 47 90 bd 19 3b e4 be 41 ab 2b be
       0.03260871 -0.07044874 -0.44576338 -0.16764547
000370 c2 14 40 be 71 5b 1c 3e 6f 35 ce be e6 3c a4 bc
       -0.18757918 0.15269257 -0.40275142 -0.02004857
000380 62 33 b7 be b4 4f 72 be 45 9b 83 be 83 b8 30 3d
       -0.3578139 -0.23663217 -0.257044 0.043144714
000390 1e 78 9e be 3d 6b e0 be 59 45 02 3e 20 08 30 3c
       -0.30951017 -0.43831816 0.12721767 0.010744125
0003a0 c4 b2 56 3e 16 af aa be 7a 59 08 3f f3 55 b2 be
       0.20966631 -0.33336705 0.5326153 -0.348312
0003b0 44 16 b4 be 5f 7b 0d be 2b 2c f5 3d 4d db 86 be
       -0.35173237 -0.13816594 0.11971315 -0.26339188
0003c0 c3 99 4c be 34 3a 97 3c be d7 3e be 98 85 c4 3e
       -0.1998053 0.01846037 -0.18636987 0.38383174
0003d0 15 dd 82 be f5 5e 1f bf 9a 46 61 be f1 6e 09 3e
       -0.25559297 -0.6225427 -0.21999589 0.13421227
0003e0 d1 ff c4 3d ce 20 16 bf c8 8e cf 3e 53 7e b2 be
       0.096191056 -0.58643806 0.4053862 -0.34862003
0003f0 27 8d e9 be de 96 d1 bd 0d 83 6f be 56 44 11 be
       -0.45615503 -0.10233854 -0.23389836 -0.14186224
