sparrow/data/networks/dssp/dssp_predictor_network_v2.pt (torch, 69603 bytes, 18 tensors)

lstm.weight_ih_l0 f4 [80, 20]
000000 4b 7b b8 bf c9 25 18 bf 10 9a e8 3e 31 70 c8 bf
       -1.4412626 -0.59432656 0.4543004 -1.5659238
000010 32 6a 7d bf 5a 11 e1 be d5 25 f7 3d fd 69 30 3f
       -0.98990166 -0.4395855 0.12067763 0.68911725
000020 fb bc 8c 3d 2d 91 47 be 1b 06 7d bd 05 ad 06 3f
       0.06871983 -0.19488974 -0.0617734 0.52607757
000030 ad 91 89 3e 93 34 8e bf e7 02 e8 bf bc 32 d7 3e
       0.26868954 -1.1109794 -1.8125886 0.42030895
000040 f1 47 49 3e aa 76 a7 3f b8 e9 a2 3f 0c ae 1c bf
       0.1965635 1.3083088 1.2727575 -0.61203074
000050 fe 89 3d bf e4 71 0c bf 38 fd 22 3d c1 3e b0 bd
       -0.74038684 -0.54861283 0.03979227 -0.08605719
000060 62 e7 1e 3f 32 ee 92 bf 61 85 d0 be 14 fb bd 3d
       0.6207181 -1.1478941 -0.4072676 0.09276405
000070 7f b7 81 be 31 5a bb bd 76 66 42 be c4 7b 26 bd
       -0.2533531 -0.09148062 -0.18984398 -0.040645376
000080 87 b1 bd be 54 c4 97 be 41 30 21 bf 0b 4b 9e bd
       -0.37049505 -0.29641974 -0.62964255 -0.07729157
000090 9d e5 87 be 6b 37 25 bf 12 56 37 3f 72 c9 2c 3f
       -0.2654237 -0.64537686 0.7161571 0.6749488
0000a0 56 c8 5d bf 8d 73 94 bd 01 58 60 bf 34 42 0b c0
       -0.86633813 -0.07248602 -0.87634283 -2.1759157
0000b0 1e 99 21 bf e7 32 1e bf 67 f1 4f bf cb 0e ad be
       -0.63124263 -0.6179642 -0.81227726 -0.3380035
0000c0 f1 9a b9 bf ec 6f 39 be 77 98 2e 3d 21 ae aa bf
       -1.4500409 -0.18109101 0.04262587 -1.333439
0000d0 d3 7e 80 bf e8 7c 5d bf db ea 8a bf 7a 65 49 bf
       -1.0038704 -0.86518717 -1.0852922 -0.78670466
0000e0 76 27 4d bf f4 74 2c bf 2b 78 02 be 10 4e c2 be
       -0.8013834 -0.67365956 -0.12741153 -0.37950182
0000f0 a6 87 49 3e a6 23 c1 3d 96 6e 35 be 98 d5 93 be
       0.19680652 0.094306275 -0.17717966 -0.28873897
000100 ed 26 29 bf 45 f3 cd be 83 46 11 bf e7 07 03 bf
       -0.6607502 -0.40224662 -0.5674822 -0.51183933
000110 a0 fe fd be 8e e3 02 bf 70 68 ec bf 16 d2 99 be
       -0.49608326 -0.5112847 -1.8469372 -0.30043095
000120 89 c4 45 3f 48 9e 12 bf 7e ad 14 bf 3d fa 77 be
       0.77253014 -0.5727277 -0.5807723 -0.24216552
000130 33 00 a5 bd 09 7f 1d be 66 f1 82 3e df 74 76 c0
       -0.080566786 -0.15380491 0.25574797 -3.8508832
000140 62 f5 05 bf 59 01 52 bf c5 02 37 3f 60 e4 73 3f
       -0.5232755 -0.82033306 0.714886 0.9527035
000150 b0 ec a7 bf 50 03 c6 bd 58 a0 a3 be c5 31 43 bf
       -1.3119106 -0.096686006 -0.3195827 -0.7624782
000160 f5 cc 60 be 4a 7d a4 bf de b9 15 bf 54 ae 5d c0
       -0.21953185 -1.2850735 -0.58486736 -3.4637651
000170 de 67 8b 3f 25 3d aa be 9d 1b 7c bd 7a 0d 44 bf
       1.0891073 -0.33249775 -0.06154977 -0.76583064
000180 18 b6 f8 bf d9 21 7b bf dc f3 d0 be 1f 1f 91 3d
       -1.9430571 -0.9809852 -0.4081105 0.07086014
000190 70 11 61 be aa 56 82 be e8 36 5b bf da c0 e4 be
       -0.21979308 -0.25456744 -0.85630655 -0.44678384
0001a0 ca b3 64 be fa 81 a9 be 0c 26 00 bf a0 e8 3e be
       -0.22334209 -0.33106977 -0.50058055 -0.18643427
0001b0 03 2a ca be 77 4c 1f be b3 49 75 3b 27 95 49 bf
       -0.39485177 -0.15556513 0.0037427961 -0.78743213
0001c0 06 bf 83 3f 0d 1a db be 06 59 07 bf 86 51 06 bf
       1.0292671 -0.42793313 -0.52870214 -0.52468145
0001d0 e1 83 34 bf 41 73 d2 be e7 d8 c0 bd f3 26 b2 3e
       -0.7051373 -0.41103557 -0.09416371 0.3479534
0001e0 f3 33 f6 bf b3 ff 5f bf e4 d9 59 3f 86 0b 49 3f
       -1.9234604 -0.8749954 0.850981 0.7853321
0001f0 5d 7f b9 bc 1a 4f 80 bf 72 20 11 3c fd 81 ad bd
       -0.02264374 -1.002414 0.008857833 -0.08472059
000200 60 5c 8b 3e a0 1c 7e bd f6 c5 3f bf be 66 40 3e
       0.27218914 -0.062039018 -0.7491144 0.18789193
000210 c9 19 6c bd 42 14 80 3e 3e 31 d9 3e ec 91 55 bf
       -0.05764178 0.25015455 0.4242038 -0.83425784
000220 4e e8 c5 bf 66 c0 39 bf 3a dd 8a be 04 b5 1a c0
       -1.5461519 -0.725592 -0.27121907 -2.4172983
000230 45 d8 a7 be 3d 2a fa be 0c bb 56 bf a7 95 83 bf
       -0.32782188 -0.4886035 -0.8387916 -1.0280045
000240 e2 ae 93 bf fd f8 d0 ba e0 68 4c 3e 4b d4 b2 be
       -1.1537745 -0.0015943345 0.19961882 -0.34927592
000250 cc c2 dc be 30 37 58 be 34 61 93 be 34 35 9c bd
       -0.43117368 -0.21114802 -0.28785098 -0.07627335
000260 69 25 f0 be 7f 67 9e be 21 54 58 be bc cc 3b bd
       -0.46903542 -0.30938336 -0.21125843 -0.045849547
000270 9c 3f 8b be dc fd fb be 27 78 1e be a5 d3 92 3c
       -0.27196968 -0.49217117 -0.15475522 0.017923186
000280 25 b3 aa bd 40 d2 12 3e e4 2a 51 be 53 3e 49 be
       -0.0833495 0.14338017 -0.20426518 -0.19652681
000290 0a f4 15 be ed 0a 33 3e d9 a1 f7 be a2 72 8c 3e
       -0.14643875 0.17484637 -0.48365667 0.27431208
0002a0 0b 16 b0 be dc 0f d0 3e 80 96 b9 3e ff f7 ee 3d
       -0.34391817 0.406371 0.36247635 0.11668395
0002b0 5c 8a 72 3f 18 6c e4 be e9 d2 d5 be af ba 4f be
       0.9474237 -0.4461372 -0.41762474 -0.20286058
0002c0 e0 a5 82 be 01 01 4e 3e 57 1c ce bf bb 03 a1 bf
       -0.25517178 0.2011757 -1.6102399 -1.2579263
0002d0 82 16 6f 3b e9 d9 fb be 1c d8 06 c0 58 65 45 bf
       0.0036481922 -0.4918969 -2.1069403 -0.77107763
0002e0 e8 81 6a bd 56 43 c6 3d a3 9e b7 bf 59 d5 75 be
       -0.057252795 0.09680812 -1.4345287 -0.24007167
0002f0 c3 06 36 bf f0 9a a8 3d 09 92 2b be 12 81 85 bf
       -0.7110407 0.08232677 -0.16754927 -1.0430014
000300 c9 8f 81 40 53 3f 24 bf 88 d2 2f bf 79 7e 5c bf
       4.048802 -0.64159125 -0.6868062 -0.8613048
000310 f7 ab 1d bf 5e ae 27 be a2 df 0c 3e fb 9e d4 bf
       -0.6159052 -0.1637511 0.13757184 -1.6611017
000320 5a 22 b6 be ab d4 ec be fd 79 18 3f 31 af 20 3f
       -0.35573083 -0.46256003 0.5956114 0.6276732
000330 50 18 2b be f0 08 cc 3f b6 04 53 be 78 2f 3a 3e
       -0.16708493 1.5940228 -0.20607266 0.1818217
000340 63 fc c6 3d 43 5a 93 3e 74 6e 97 3d d7 04 d1 bd
       0.09716108 0.28779802 0.07394114 -0.10206001
000350 52 48 84 40 f0 eb 49 3e 98 6d a6 be 93 bd 37 3c
       4.133828 0.1971891 -0.32505488 0.011214632
000360 21 fb 2e be f8 b2 98 bd 0f 8a 99 bf 35 24 08 bf
       -0.17087986 -0.074560106 -1.1995257 -0.5318025
000370 f3 e1 9e bf 1f f6 b4 be fb 22 cd 3e ab f8 87 bf
       -1.2412704 -0.35344025 0.4006575 -1.0622762
000380 34 47 06 bf 5c 3b 98 bf 39 fd 98 40 6f 53 d4 bf
       -0.524524 -1.1893115 4.780911 -1.6587962
000390 e0 c9 21 3f 6a 1c e0 bf f5 b3 09 c0 40 93 41 3f
       0.6319866 -1.7508671 -2.1516087 0.7561531
0003a0 1b c5 89 40 3f ab bd be ad d5 e7 be e0 bd 3f bf
       4.3053107 -0.37044713 -0.4528021 -0.748991
0003b0 59 74 7b 3c a5 d0 b8 bf e2 49 bf bf 7f 65 a5 3e
       0.015347564 -1.4438673 -1.4944422 0.32303998
0003c0 fb f2 11 bf 24 f3 1a 3f a5 4d 1d be ac 6a 20 3f
       -0.57011384 0.60527253 -0.1536165 0.6266277
0003d0 05 ce ed bd 26 74 17 c0 c3 60 f5 be 5c c8 08 3f
       -0.11611561 -2.3664641 -0.47925386 0.53430724
0003e0 8a 73 00 be b4 cc 6a be 16 21 a2 be 2c c7 55 bf
       -0.12544075 -0.2292965 -0.31665868 -0.8350704
0003f0 73 e5 51 be d3 bb d3 be 47 da 63 bf c8 36 91 bf
       -0.20497684 -0.41354236 -0.8900494 -1.1344843

lstm.weight_hh_l0 f4 [80, 20]
000000 f3 e4 fd be 2e 16 9b 3e 6b 89 49 bf 01 a7 22 bf
       -0.49588737 0.3029036 -0.7872531 -0.6353608
000010 29 c4 4c be 32 b3 62 bd eb a4 64 3f 34 c3 02 3d
       -0.19996704 -0.055346675 0.89314145 0.03192444
000020 69 2d 47 3e 68 30 92 3f 6d fa 53 3f 38 56 c4 bf
       0.19450916 1.1421022 0.82803994 -1.5338812
000030 27 45 b3 be fb dc d0 3e 5b 4f 3f bf 11 25 de be
       -0.35013697 0.40793595 -0.7473046 -0.43387654
000040 cd dc 3b bd 46 1e 02 3f fb 94 64 3e c6 48 d9 be
       -0.04586487 0.50827444 0.22322457 -0.42438334
000050 f9 39 11 bf e6 77 aa 3e 0b 7b 9b bf 8e 0d 02 bf
       -0.56729084 0.332946 -1.2146925 -0.5080193
000060 4e d6 2a bf dc db 10 bf 04 ec d7 be 9e f1 cf 3d
       -0.66733253 -0.5658548 -0.42172253 0.10153507
000070 a8 80 b2 bd 6c 6f 7e 3f 1b 8e 4b 3e 35 2f 87 3e
       -0.087159455 0.99388766 0.19878428 0.26403204
000080 b3 77 85 bb 76 fb 10 bf 67 d1 22 3e 39 fd 2f be
       -0.004073107 -0.566337 0.15900193 -0.1718644
000090 52 a3 c7 3e e2 f6 da be ae 7a 32 3e 69 dd 14 3f
       0.3899179 -0.42766482 0.17429611 0.58150345
0000a0 5e 7a 54 be c0 0c 24 c0 1f 57 d6 3e 30 fc 05 3f
       -0.20749804 -2.5632782 0.41863343 0.5233793
0000b0 d0 36 99 3f 56 79 17 bf ab 45 69 be 48 e0 dd 3e
       1.1969852 -0.5916952 -0.22780482 0.43335176
0000c0 c9 14 24 3f bd 6d 4d bf 48 e1 6d be ff 13 d2 3f
       0.64094216 -0.8024557 -0.23230469 1.6412352
0000d0 ee 5c 7a 3f 34 b8 80 3f f8 47 c5 3f 43 f1 13 be
       0.9779805 1.0056214 1.5412588 -0.14447503
0000e0 47 e8 1d 3f 3f f1 84 3f 60 0b 57 3e 9d fd 4f be
       0.6168255 1.0386122 0.21000433 -0.2031159
0000f0 3c b1 24 3f aa bb 88 bf 85 a8 f6 3e 73 6b 94 3d
       0.6433294 -1.068227 0.48175445 0.07247057
000100 b5 5d 01 3f 5a f5 37 bf 35 6b 56 3d 52 4f dd bf
       0.5053361 -0.7185875 0.052348334 -1.7289832
000110 b6 d9 34 3d f2 af 04 40 49 53 02 3e 7c 14 b4 be
       0.044152938 2.0732388 0.12727083 -0.35171878
000120 61 1d 35 3f 2f ab a1 3e 85 d8 53 3d 3d 08 64 bf
       0.70747954 0.31575915 0.05172016 -0.8907507
000130 5f 3b 5a bd ef 84 e8 3e 78 78 91 3e 6c c3 9d 3f
       -0.053279277 0.4541392 0.28412223 1.2325263
000140 7a 97 47 bf 4f 09 fd be c4 c3 ed bd 7b 31 88 3e
       -0.7796551 -0.49421164 -0.11609605 0.2660025
000150 85 14 d5 bf 57 ff 82 bf ed 30 89 3f ab de 23 bf
       -1.6646887 -1.0234174 1.0718056 -0.6401164
000160 d5 84 58 be cd 1a 81 3e ae ce 16 3f 9b 64 2d bf
       -0.21144421 0.2521576 0.5890912 -0.67731637
000170 11 8e c4 3f 0b 2d 79 3e b4 32 bc be d1 89 bc be
       1.5355855 0.24333589 -0.36757433 -0.36823896
000180 21 b8 43 3f 6d c9 30 3d 63 3a 34 3f c3 30 29 be
       0.76452833 0.043160845 0.7040159 -0.16522507
000190 03 c0 ab bf 00 07 0b 3f d6 f6 5d 3f 37 87 b4 3e
       -1.3417972 0.54307556 0.86704767 0.3525941
0001a0 72 4d 0e 3e b6 dc 51 3e db 1e b6 3f f2 00 42 be
       0.1389673 0.20494351 1.4228166 -0.18945673
0001b0 ed 61 03 bd b7 c5 eb 3b e0 47 1c bf 11 80 4c bf
       -0.03207581 0.0071952003 -0.6104717 -0.79882914
0001c0 f6 f5 ce 3f 9a b8 04 3f c7 86 10 3f 16 c9 e0 3e
       1.6168811 0.5184418 0.56455654 0.43903416
0001d0 92 0d ab 3f d5 aa 1e bf 32 74 90 3f ac d7 37 bf
       1.3363516 -0.6197942 1.128546 -0.71813464
0001e0 c7 8e 4c 3f 20 8e 98 bf 18 fb 12 40 27 ed 47 3f
       0.7990536 -1.1918373 2.2965755 0.7809624
0001f0 40 1a 36 3d 88 b0 08 3e 76 cb bd bc 73 fd 8c 3f
       0.044458628 0.13348591 -0.023168307 1.1014847
000200 b6 6f 14 40 4e e7 fa bf 07 8f 15 3f 5f 7c 21 be
       2.3193183 -1.9601839 0.5842137 -0.157701
000210 cc 43 3e ba 6b 5a 93 3f 17 91 45 3f 2a e9 58 be
       -0.00072580273 1.1511968 0.77174515 -0.21182695
000220 a6 c7 13 bf d2 32 88 3d 15 e4 9f 3f 53 e7 05 3f
       -0.57726514 0.06650318 1.249148 0.523061
000230 b1 68 e8 be 74 f4 6d be c2 49 49 3f 05 64 35 bf
       -0.45392373 -0.23237783 0.7862817 -0.7085574
000240 66 5f 73 be 10 33 8f bf 68 19 35 3e 2a 0c 64 3e
       -0.2376686 -1.1187458 0.17685473 0.22270265
000250 7a 5a fa 3e f3 61 b9 3e 8e a5 1c 3f ad 42 26 3e
       0.48897153 0.36207542 0.61190116 0.16236372
000260 dd 50 a0 3e cf 68 7c 3f 60 70 b9 3d 5a ba 80 be
       0.31311694 0.98597425 0.09054637 -0.25142175
000270 58 f4 3e bf be f4 da be f8 d8 94 3f 7c 72 1a 3f
       -0.7459159 -0.42764848 1.1628714 0.6033094
000280 46 91 19 3f 95 3c 57 bf b8 2f 0c 3f 67 66 89 bf
       0.59987295 -0.84076816 0.54760313 -1.0734376
000290 d0 7a b3 be 11 04 b9 bf 79 c6 be 3e b6 05 9d 3e
       -0.35054636 -1.4454366 0.37260798 0.3066842
0002a0 29 71 11 3f b1 a0 99 bf bb be 94 3f 1c ae 94 bf
       0.56813294 -1.2002164 1.1620706 -1.1615634
0002b0 50 1e 85 3f d7 12 55 bf 4a 40 66 bc 9f 31 7a bf
       1.0399876 -0.8323187 -0.014053414 -0.97731966
0002c0 f9 07 37 bd d1 39 11 bf 92 37 a1 3e c7 e7 7d 3e
       -0.044685338 -0.56728846 0.3148771 0.24795447
0002d0 18 02 55 3f b7 1f cf 3f cf 02 d5 3e 08 cb 20 bf
       0.8320632 1.6181554 0.41603705 -0.628098
0002e0 59 fc d1 3e fd f0 7c bf fd ff 84 be e2 5e 6c be
       0.41012838 -0.9880522 -0.25976554 -0.2308307
0002f0 28 26 cd 3f d5 e4 dd 3f 03 52 cc 3e 17 7a 82 3f
       1.6027269 1.7335459 0.3990632 1.0193509
000300 6a af 60 3d 4e c2 cf be d6 ec c8 bd 63 24 f8 3f
       0.054854788 -0.4057793 -0.09810798 1.9386104
000310 82 64 02 bf 8a 87 87 3f 35 64 ca 3f 15 70 fd 3f
       -0.5093461 1.0588238 1.5811831 1.979983
000320 aa dd 27 3e 31 8b 73 3e c2 b6 06 3f a4 07 5c bf
       0.16393152 0.23783566 0.52622616 -0.8594916
000330 88 d1 70 3f f2 77 88 3f f1 96 35 bf 6b 05 43 bf
       0.9406972 1.0661604 -0.70933443 -0.7618014
000340 42 3b 60 3d 50 f5 bb be 0a d9 6d 3e 19 bf 11 bf
       0.054744013 -0.36710596 0.23227325 -0.56932217
000350 dc 35 25 3f 36 09 f6 be 7d b7 f5 3e d8 a3 57 be
       0.6453531 -0.48053902 0.47991553 -0.21058595
000360 64 a8 be 3e b7 fd be be 67 79 cb be 46 47 01 bf
       0.37237847 -0.37302944 -0.3974106 -0.5049938
000370 ee ef 2f 3f 24 b1 e7 bc 43 9f 35 bf 7e e9 71 3f
       0.6872548 -0.02828271 -0.7094614 0.94496906
000380 1e 09 0c bf 3c a5 33 3f ee 29 48 be 13 b2 b7 3e
       -0.5470141 0.70174 -0.19547245 0.35878047
000390 85 96 b5 3b b4 8b c6 be 39 72 f2 be 3f e1 ca 3f
       0.005541625 -0.3877846 -0.4735277 1.584999
0003a0 26 04 b8 3f 59 a5 86 bf 74 61 17 bf 8a 57 8d 3e
       1.4376266 -1.051921 -0.59133077 0.2760585
0003b0 25 e1 54 be da 52 ae 3e 3b 9a 54 be fe 29 d1 be
       -0.20789011 0.34047586 -0.20761959 -0.4085235
0003c0 64 89 5a 3e d7 be a5 bf a2 4d 8f bf 8d cf c0 be
       0.21341473 -1.2948865 -1.1195567 -0.3765835
0003d0 c8 d9 86 bf 4c b4 4c bf e8 5e 78 3f 80 74 6c 3f
       -1.0535212 -0.7996261 0.97019815 0.92365265
0003e0 a5 87 f3 3d 6a c3 84 bd 55 8c ae be d8 34 1b bf
       0.118911065 -0.06482585 -0.3409144 -0.6062751
0003f0 51 96 bf 3f 36 bf 0d be 5e 91 66 bf ba ec 96 bf
       1.4967748 -0.13842472 -0.9006556 -1.1790993

lstm.bias_ih_l0 f4 [80]
000000 5f cb da be b7 e2 49 bf 1a 25 8f bf ef a7 1f bf
       -0.42733285 -0.78861564 -1.1183197 -0.6236562
000010 a6 57 36 bf b4 3a 09 3f b2 f3 a1 bf 36 69 84 bf
       -0.7122749 0.536052 -1.2652495 -1.0344608
000020 ad 29 cd be 4a 44 34 bf 6c 52 e0 bd b2 eb db 3e
       -0.4007086 -0.704167 -0.10953221 0.4295326
000030 ee d6 08 bf 48 0c 2c be 87 6a 90 be 92 18 99 bd
       -0.53452957 -0.1680156 -0.28206274 -0.074753895
000040 cb 52 10 bf 00 a8 90 3e 0b 92 1a be b7 bb 36 bf
       -0.5637633 0.28253174 -0.15094773 -0.7138018
000050 1f 47 2a 3e be cc 26 3d 39 ef a2 3f e9 9f 53 3f
       0.16628693 0.0407226 1.2729255 0.8266588
000060 e0 e6 a2 3e d2 b4 72 be d0 47 be 3f 25 aa 14 3f
       0.3181677 -0.2370179 1.4865665 0.5807212
000070 d7 a4 9b 3e a9 9b 5b 3d 15 38 90 bf b0 34 8c be
       0.303992 0.053615246 -1.1267115 -0.27383947
000080 7f cb 6f 3d 6d a8 21 bf 6a 5e 3f bd 4f f2 2e bd
       0.05854368 -0.6314762 -0.0467209 -0.042711552
000090 c5 00 a7 be cb 7d 07 be 5f 96 08 3f c5 e6 d0 3e
       -0.32617775 -0.1323158 0.5335445 0.40801063
0000a0 52 53 6b 3e a6 77 c7 bd 36 3d 8b 3e 8a 94 bc 3d
       0.22981003 -0.09739618 0.27195138 0.09208019
0000b0 c9 c8 85 3e 7b b6 6a be 67 da 26 3d 42 98 bf 3d
       0.2612975 -0.22921173 0.04073563 0.09355213
0000c0 67 22 05 bf e6 04 d7 3e 30 0e 4d bc 09 ee e1 be
       -0.5200562 0.41995925 -0.01251559 -0.4412692
0000d0 4f b7 5e 3e 5a 89 1b bd 27 62 4d bb 0f 77 b6 be
       0.21749614 -0.037972786 -0.003133902 -0.3563771
0000e0 d7 21 58 be 5a 4a 0b bf 02 73 a2 be 86 46 9b be
       -0.21106659 -0.54410326 -0.3172837 -0.30327243
0000f0 b8 c0 0f bf 75 4e e8 3d c5 56 fc bd 0b 27 51 be
       -0.5615344 0.113430895 -0.123212375 -0.2042505
000100 96 bc f7 bd 4a 60 af 3e 20 bd 88 3d 5e cf 1a 3c
       -0.12096517 0.3425315 0.06676698 0.009448854
000110 08 da 0b 3f e4 4b e0 3e 3a 69 45 3f 92 e3 0f 3f
       0.54629564 0.438079 0.7711369 0.5620662
000120 1d 7f ef 3d 21 02 d2 be 8d 3f 37 be 76 bb 04 3f
       0.11694167 -0.4101725 -0.17895336 0.5184854
000130 5a 8e 37 be c3 9b 50 3e 89 93 70 be 34 10 8f bd
       -0.17925397 0.20371918 -0.2349378 -0.069855124

lstm.bias_hh_l0 f4 [80]
000000 b1 c1 af be f7 65 35 bf 57 27 c4 bf db a2 41 bf
       -0.34327462 -0.7085871 -1.5324506 -0.7563912
000010 d4 a0 13 bf 23 51 9d 3e da a5 87 bf 77 0b 2a bf
       -0.5766728 0.30725965 -1.0597489 -0.66423744
000020 47 4b 06 bf 0c 8f dd be ea 30 2f be d8 17 10 3f
       -0.52458614 -0.432732 -0.17108503 0.5628638
000030 36 25 37 bf cb 0a de be d9 70 0c bf 4b 0f 45 3e
       -0.71541154 -0.4336761 -0.5485969 0.19244115
000040 db e6 22 bf c0 e6 02 3f 17 48 88 ba 49 1e 3c bf
       -0.6363351 0.51133347 -0.0010397461 -0.7348371
000050 6b 0a 77 3d 85 25 b1 3d 25 ec c2 3f 65 f1 7b 3f
       0.06031267 0.086497344 1.5228316 0.98415214
000060 50 95 09 3f f1 87 99 be cc d0 bc 3f ff a2 73 3f
       0.5374346 -0.29986528 1.475122 0.9517059
000070 55 c1 f0 3e bf 51 e7 bd 53 33 8f bf 9f e1 a6 bd
       0.470225 -0.11294889 -1.1187538 -0.081485026
000080 3a 3f a0 3d 5c 0f 14 bf 66 1d d0 bd 45 1a 61 be
       0.078245595 -0.57835937 -0.10161857 -0.21982677
000090 42 b8 0d 3d de c9 93 be 7b eb 4d 3f 0b 45 2f 3f
       0.03459955 -0.2886495 0.8043744 0.68464726
0000a0 2f ed 0f 3d 56 5f f5 bc 4e 83 15 3d 34 00 a6 3e
       0.035138305 -0.029952686 0.036502175 0.3242203
0000b0 d8 2b 0c bd 9c 10 84 be 80 bd 66 be e3 90 c6 bd
       -0.0342215 -0.25793922 -0.22533226 -0.09695604
0000c0 c1 7f d6 be fb 53 87 3e 05 82 91 3c a3 04 e3 be
       -0.41894343 0.2643126 0.017762193 -0.44339475
0000d0 1f 01 7f 3e c5 6e 87 be 5d 99 e7 bd 1c 14 af be
       0.24902771 -0.26451698 -0.113085486 -0.3419503
0000e0 09 37 dc bd 82 09 d1 be 0e 27 dd be 4e 97 10 be
       -0.107526846 -0.40827566 -0.4319386 -0.14120218
0000f0 fa 1c bf be bc 71 68 3c 22 6a 4e be b8 73 5d bd
       -0.37326795 0.014187273 -0.20157674 -0.054065436
000100 c3 5d 6c be 39 c8 e0 3e b2 0e ba 3d aa 8c 39 be
       -0.23082642 0.43902758 0.09084834 -0.18120065
000110 42 0c 63 3f 89 60 bc 3e 3a 75 27 3f 33 2f ec 3e
       0.8869058 0.367924 0.6541325 0.4612976
000120 d4 e1 43 be 7b 8d bb be 85 fd 91 be 44 29 71 3f
       -0.19129115 -0.3663138 -0.28513733 0.9420359
000130 45 d9 8a be ad 5b ab 3e f0 95 14 bf 95 f6 ef be
       -0.27118888 0.3346838 -0.58041286 -0.46867815

lstm.weight_ih_l0_reverse f4 [80, 20]
000000 be c1 aa 3d 6f a6 a0 3e fb 05 df be 4a c1 3c bf
       0.08337735 0.3137698 -0.4355925 -0.73732436
000010 41 f8 35 3f fa b2 fb 3e b8 77 01 3f 1c b7 b1 3e
       0.7108193 0.49159986 0.505733 0.34710014
000020 88 b6 c1 be be 7b ad 3e 36 19 ca 3e 77 4f e7 3d
       -0.37834573 0.3388347 0.3947236 0.112944536
000030 6f 55 92 3e ef e8 00 bf 67 d2 c6 bd 1f bc 2d be
       0.28580806 -0.5035543 -0.097081 -0.16966294
000040 e7 94 b9 3e e4 4a e4 3e 59 6b 38 3e 05 14 23 3f
       0.36246416 0.44588387 0.180097 0.6370242
000050 a7 79 49 bf 80 b8 c7 be e5 f1 96 3f 3e 76 f5 be
       -0.7870125 -0.3900795 1.179257 -0.47941774
000060 b3 23 60 bd 2c 5d be 3e 97 dd 1b bf 77 2a 74 bf
       -0.054721545 0.3718046 -0.60884994 -0.95377296
000070 50 aa 5f be e1 9b 3f bf 56 72 68 bf 80 80 56 bf
       -0.21842313 -0.7484723 -0.9079946 -0.83789825
000080 54 47 00 40 a4 e7 1e bf 28 f1 57 bf 2b 7f 8d be
       2.0043535 -0.62072206 -0.8435235 -0.27636084
000090 3a 6a 82 bf 50 6e 7b bf d0 4b 09 bf 82 f5 80 be
       -1.0188668 -0.982152 -0.53631306 -0.25187308
0000a0 d2 4e 7c be 6a 31 0f bf a3 33 33 bf fa 5d e9 be
       -0.24639443 -0.55934775 -0.70000666 -0.4557951
0000b0 01 be 91 be 9f 7c 44 be 77 a0 24 bf fd 4b b1 be
       -0.28465274 -0.19188164 -0.6430735 -0.34628287
0000c0 57 24 e0 3c 52 ec 53 be 23 1b 4a bc d1 eb 94 be
       0.027361078 -0.20695618 -0.012335571 -0.29086164
0000d0 bb db 3d bf 8e 88 9b be 3e 17 98 be c9 3d 1e bf
       -0.7416341 -0.3037762 -0.29705232 -0.61813027
0000e0 2f b8 10 bf 9c 3e c8 be df d2 40 be c6 c2 97 be
       -0.5653104 -0.39110267 -0.18830441 -0.29640788
0000f0 37 28 f3 bd 3d 6c 85 be f9 cc fe 3c 2d 92 84 be
       -0.11872905 -0.26059142 0.031103598 -0.25892773
000100 3c 5d 43 bd dd d7 ee 3e 41 8f 19 3e d7 e6 b5 3d
       -0.047696337 0.46649066 0.14996053 0.0888192
000110 a1 a1 9e be 20 37 29 bc 4c c4 c9 bd e8 20 1c 3e
       -0.30982688 -0.010328084 -0.09851894 0.15246928
000120 58 8b c2 3d f7 ce 8c be 36 ab 96 be ac 59 24 3e
       0.09499234 -0.27501652 -0.294275 0.16049832
000130 ce 23 54 3e a0 57 b2 bd fe 54 0c 3e 71 29 44 be
       0.20716783 -0.087081194 0.13704297 -0.19156434
000140 84 3c 73 bf 6c f7 52 be 3f cc f2 3e be 2a 8c 3c
       -0.95014215 -0.20602196 0.47421452 0.017110225
000150 10 da 51 be df e1 b0 bf f9 d5 17 bf 24 17 a4 bd
       -0.2049334 -1.381893 -0.5931087 -0.08012226
000160 64 dd 23 bf 7b a9 c5 3e bd f4 0e bb 47 38 f0 be
       -0.6400969 0.38605866 -0.0021813356 -0.46917936
000170 98 4a ec 3f 31 1e 09 bf ea 49 0c bf 5d 4b d8 bf
       1.8460264 -0.53561693 -0.54800284 -1.6897999
000180 c6 fb 7b bf fd 84 0d bf a3 f8 2a bf b3 1b 1b bf
       -0.9843105 -0.5528105 -0.6678564 -0.6058914
000190 44 32 0c 3d 65 a5 2f 3e 16 62 b8 be b0 2b 90 bf
       0.034227625 0.17152937 -0.36012334 -1.1263332
0001a0 66 06 25 3f cc 4a 65 bf de 58 e2 be c9 b2 7c 3f
       0.6446289 -0.89567256 -0.44208425 0.98710304
0001b0 bc 9a 1b bf 78 2f 29 3f 1f 2b ad 3e bd a8 89 bf
       -0.6078298 0.66088057 0.3382196 -1.075462
0001c0 a1 ae 33 bf 65 bd a5 bf 14 60 49 bf 72 23 5e bf
       -0.7018834 -1.2948424 -0.7866223 -0.86772835
0001d0 93 6a a8 bd e2 67 80 3f 7b 04 4c 3e bf 56 77 bf
       -0.082234524 1.0031703 0.19923584 -0.9661674
0001e0 3a 67 30 be 73 f4 81 be 30 60 68 3e 84 7c a2 bc
       -0.17226878 -0.25381812 0.22692943 -0.019834764
0001f0 33 8e 64 bf 2f 03 fa be 66 11 6f 3d f8 6a 09 bf
       -0.8927948 -0.48830554 0.0583662 -0.53678846
000200 f5 31 88 be 42 47 63 bf 0a fd 38 bf b5 cb 7b 3e
       -0.26600614 -0.88780606 -0.72261107 0.24589427
000210 c7 48 03 40 7f a4 e1 be 9c 00 1e 3e ae 62 07 be
       2.051317 -0.44070813 0.1542992 -0.13221237
000220 2f 4b a5 be ec 34 45 be 47 4f ca bf cc 6f 29 bf
       -0.32283923 -0.1925847 -1.5805444 -0.66186213
000230 c3 6f df be df 35 88 3f 07 73 9a bf 1c 49 5a bf
       -0.43639955 1.064144 -1.2066354 -0.85267806
000240 c2 86 18 bf 8b 25 34 bf 93 e4 2e 3e 11 50 bd be
       -0.59580624 -0.70369786 0.17079382 -0.36975148
000250 9f d1 45 bf 6a 11 44 bc 87 1d fe bc 67 be 1c bf
       -0.7727298 -0.011967042 -0.03101994 -0.6122803
000260 ab fa 1e bf 31 3e 15 bf 9e 5b 0b bf fe 26 5a bf
       -0.6210124 -0.5829802 -0.5443667 -0.8521575
000270 28 45 38 bf 01 6e 18 bf 9b e9 6a bf 64 95 74 bf
       -0.71980524 -0.5954285 -0.91762704 -0.9554045
000280 43 ce 1a bf 58 9a 9f 3e 2e 57 49 3e 6c 64 6c be
       -0.6047098 0.31172442 0.19662163 -0.23085183
000290 f9 b9 60 be 80 87 70 3e d6 17 90 3e 21 f2 03 bf
       -0.21945943 0.23489189 0.28143185 -0.51541334
0002a0 12 ff 5f bb e8 83 1a bf ef 41 04 bf 0b 12 fb 3e
       -0.0034179133 -0.6035752 -0.51663107 0.49037203
0002b0 93 ec 40 bd 25 14 c2 3d 8b f8 cd bd c9 67 2c 3e
       -0.047100615 0.094764985 -0.100571714 0.16836466
0002c0 3c b8 cf bd 61 eb d1 be 93 91 c5 3d 68 2a f9 bd
       -0.10142562 -0.40999892 0.09646907 -0.121662915
0002d0 cc cd 3c bf 8e 4f c8 be f0 25 99 bf 77 fa 69 bf
       -0.7375152 -0.39123195 -1.1964703 -0.91397804
0002e0 a9 5e 5d bf ae 2e d8 be 5c 94 b2 be 61 eb 17 bf
       -0.86472565 -0.42223114 -0.34878814 -0.59343535
0002f0 f1 dd 96 bd 3e b2 53 bf f1 59 2e bf e7 01 6a bf
       -0.07366551 -0.8269385 -0.6810599 -0.9140915
000300 66 1e 7a bf 0e 03 e8 be e8 30 96 be 43 29 fe be
       -0.97702634 -0.4531483 -0.29334188 -0.49640855
000310 38 c6 f5 be e6 fa 2e bf df dc 94 bf cf 73 9d bf
       -0.4800279 -0.6835159 -1.1629905 -1.2300967
000320 2e c4 2f bf c3 27 33 be 85 b3 8c bf 9b bb a8 bf
       -0.6865872 -0.17495637 -1.0992285 -1.3182253
000330 26 e5 ec be 7c 44 1e bf 3b 6d f6 be 89 66 41 3d
       -0.46268576 -0.6182325 -0.4813021 0.047216926
000340 11 08 73 bf 53 16 8e be f0 6c 06 be 99 c0 83 bf
       -0.94934183 -0.27751407 -0.13127494 -1.0293151
000350 4d 99 f9 be 81 56 2e bf 8e 3a 41 bf db c1 7d bf
       -0.48749772 -0.68100744 -0.7547997 -0.99123925
000360 84 59 79 be 67 eb 74 bc ae ea 38 be ef 42 bc bd
       -0.24350554 -0.014948702 -0.18058273 -0.09192454
000370 96 b2 3b 3e 53 10 6d 3f 01 d5 5b be 9f e2 01 3a
       0.18329844 0.92603034 -0.21467973 0.00049547286
000380 4e 07 cb be 57 0e 83 3e 46 10 84 bf 76 9b ff be
       -0.3965401 0.25596878 -1.0317466 -0.49923295
000390 e5 65 e1 3e 92 92 15 3e 75 a8 d2 3e 1f d7 05 3e
       0.44023052 0.14606693 0.41144148 0.13070343
0003a0 64 9b b6 be f1 1a 31 3f 7c 4e 38 3e dd 71 27 3e
       -0.3566543 0.69181734 0.1799869 0.16352029
0003b0 e3 61 f3 be 95 f0 05 bf af 36 e4 be 6b 3f 58 bf
       -0.4753562 -0.52320224 -0.4457297 -0.8447177
0003c0 95 a8 84 be d9 c7 c2 bd 7f bd d6 3e f0 25 8d 3e
       -0.25909868 -0.09510774 0.4194145 0.27568007
0003d0 dc 82 81 be dd 8a 51 be 2c 84 10 be 4f 28 5e be
       -0.2529515 -0.20463128 -0.1411292 -0.21695064
0003e0 a9 a8 6e 3f 5b 72 53 be ff 1f 42 bc b9 1d 14 3f
       0.93226105 -0.20649092 -0.011848449 0.57857853
0003f0 b9 2c a5 3e 61 4a 05 3f f4 61 09 3f 74 e6 3b bd
       0.32260683 0.5206662 0.5366509 -0.045874074

lstm.weight_hh_l0_reverse f4 [80, 20]
000000 cf a9 84 3e 43 29 e0 3f 86 dc b1 3f 5e af 06 be
       0.25910804 1.7512592 1.3895423 -0.13152835
000010 48 79 a5 3e 5d c8 b0 3f fc 19 ff 3d a7 61 9b bf
       0.32319093 1.3811146 0.12456128 -1.2139176
000020 b0 f4 e7 3f e5 04 c2 3e 30 c0 21 bf 44 42 43 3f
       1.8121548 0.3789436 -0.6318388 0.7627299
000030 48 fc 9a 3e 0c 87 bb 3f 0e 97 64 bf da aa 44 bf
       0.302706 1.4650588 -0.8929299 -0.768232
000040 6b 33 e0 b6 ab 4d 64 bf bd f3 38 bf b6 fd 48 3f
       -6.681706e-06 -0.8918101 -0.72246915 0.7851213
000050 3f 83 44 c0 8c d6 72 3f 5b 52 04 40 18 c5 6f 3e
       -3.0705106 0.9485862 2.0675266 0.23415029
000060 fb 9e e2 3e 79 0b 00 40 3e dc 70 3f e2 e4 48 40
       0.44261917 2.0007002 0.9408606 3.13897
000070 79 4e 78 bf 56 c0 67 3f b1 25 01 bf 85 97 71 3f
       -0.9699474 0.90527856 -0.5044814 0.94371825
000080 9d 6a 3c bf 36 4d eb 3f 8a c9 e2 be c2 e3 24 be
       -0.7360018 1.8382938 -0.44294387 -0.16102508
000090 f9 dc 7b 3f c9 9b 04 40 f7 ac 9b bf c6 4d ee 3e
       0.9838405 2.0720084 -1.216216 0.4654371
0000a0 f9 0e 53 bf f0 66 d0 be 79 b2 a1 bf 5a f9 b6 bf
       -0.8244472 -0.40703535 -1.263259 -1.4294846
0000b0 55 36 d8 bf 4b 05 16 bf 22 e0 53 bf 45 67 9d 3f
       -1.6891581 -0.58601826 -0.82763875 1.229714
0000c0 df 6b ee 3e a8 d4 01 be 74 cd 65 3f 18 88 6e bf
       0.46566674 -0.12678778 0.8976662 -0.9317641
0000d0 7e 36 35 3f ae 01 28 bf ab d6 aa bf a1 b8 8b 3f
       0.70786273 -0.65627563 -1.3346761 1.0915719
0000e0 b1 76 36 bf 3f 06 8c bf 60 0d ba 3f 73 10 cb ba
       -0.7127486 -1.0939406 1.4535332 -0.0015492573
0000f0 94 11 3c bf 1d dc 17 40 74 5b 48 3e 91 9d df bf
       -0.7346432 2.3728096 0.19566137 -1.746996
000100 69 7a d5 3e 7f 35 dd 3f 10 eb 5c 3f 95 67 02 c0
       0.41694954 1.7281951 0.86296177 -2.0375721
000110 a3 7e 42 3f 82 e5 c4 3e 8f 00 d6 bd b4 0d a0 be
       0.7597448 0.3845635 -0.10449325 -0.31260455
000120 d6 04 08 40 e2 9f 2a bd 99 1c 95 3f b2 04 aa bf
       2.1252952 -0.041656382 1.1649352 -1.3282683
000130 16 d1 43 bf 4b df c9 bf 32 af 2a bf 24 a6 ae 3f
       -0.76490915 -1.5771269 -0.66673577 1.3644452
000140 0f 16 a9 3d 50 ad b6 be 5c 50 17 40 98 e6 28 3e
       0.082561605 -0.35679102 2.3642797 0.16494215
000150 81 d8 8c 3f dd 3e 0a 3f 08 c7 4e 3f ee d5 43 bf
       1.1003572 0.5400217 0.8077245 -0.76498306
000160 e0 c9 50 3f 3a 10 a4 3e f3 8b 1a be 5a 54 a3 bf
       0.81558037 0.3204363 -0.15092449 -1.2760117
000170 b7 a8 38 3f 04 c9 38 bf c5 98 a1 3e 33 4e 23 3f
       0.7213244 -0.72181726 0.31561866 0.637912
000180 34 38 9b be b1 33 1b bf 15 a9 83 3e 3f 53 cb be
       -0.30316317 -0.6062575 0.25714937 -0.3971195
000190 ec f2 38 3f 7d 12 a3 be 29 14 a0 3b 61 09 a0 be
       0.7224567 -0.31850043 0.004885216 -0.31257156
0001a0 5f 3e 83 bf 4c ee 14 bf 6f a5 49 3f c7 ac 11 c0
       -1.0253409 -0.5817611 0.78768057 -2.2761705
0001b0 49 eb 6b 3f 45 dc ec 3f aa 49 8b bf 55 cd df be
       0.9215589 1.8504721 -1.0881855 -0.43711343
0001c0 fa 83 21 40 a4 ed 11 c0 b2 d3 4b 3f 5e c6 dd 3c
       2.5236802 -2.2801294 0.79619896 0.027072128
0001d0 c0 d7 ef bf f5 30 1d bf 1c 97 a4 bf c0 00 28 3f
       -1.8737717 -0.6140283 -1.2858615 0.65626144
0001e0 7c f3 b3 be 19 81 2e c0 22 62 e0 bd c9 fc ed 3e
       -0.351467 -2.7266295 -0.10956217 0.46481922
0001f0 3f 36 43 3f d6 83 78 3f f3 6a 62 3f 56 c5 b5 bf
       0.7625465 0.97076166 0.8844444 -1.4200847
000200 23 87 fd 3e a3 a2 a6 be 30 06 b5 bf d6 ad 11 3e
       0.49517164 -0.32545957 -1.4142513 0.1422647
000210 53 b6 6e 3f a0 43 c9 3e a9 c5 f0 bf e7 1c 9c 3f
       0.93246955 0.39309406 -1.8810321 1.219632
000220 d1 13 14 bf c1 8c 5d be ca 26 ac be 8e 59 83 bf
       -0.5784274 -0.21635725 -0.33623344 -1.0261705
000230 33 d8 67 3f 65 ff 9b bf 54 c4 82 3e 05 22 b1 bf
       0.9056427 -1.2187315 0.2554041 -1.3838507
000240 c8 f7 d0 3e 12 8d 86 be bd 7c 91 bf 8e 3c 36 c0
       0.40814042 -0.26279503 -1.1366192 -2.847446
000250 71 35 0e 3f 7f 77 ff 3e b4 8d 23 bf 79 d2 1b c0
       0.55550295 0.49895856 -0.63888097 -2.4347212
000260 58 1d 00 40 a0 d9 3f be f4 c7 3b bf d5 01 0d c0
       2.001791 -0.18735361 -0.7335198 -2.2032368
000270 38 66 e2 3f 6c e1 ec be 51 9e 4f bf 8e b6 22 bf
       1.7687445 -0.46265733 -0.81100947 -0.63559806
000280 f0 67 39 c0 a6 1c 69 3f c6 e4 0b 3f ee 17 53 3e
       -2.8969688 0.9105934 0.54645956 0.20614597
000290 bf 68 9f bf 71 2f 06 3f 36 33 93 bf 1d 50 81 be
       -1.2453841 0.5241614 -1.1500003 -0.25256434
0002a0 33 d6 51 bf 71 61 22 c0 af 66 c6 bf 17 37 e4 be
       -0.8196747 -2.5371974 -1.5500087 -0.4457328
0002b0 3c 0f 35 3f a7 8f 08 bf c3 db 56 3f a7 c5 8a 3e
       0.7072637 -0.53344196 0.8392908 0.27103922
0002c0 a9 f4 45 bf 44 69 6e 3d 40 f5 6a 3e f1 a9 a9 3e
       -0.77326447 0.058205858 0.22945118 0.33137468
0002d0 08 29 70 bd b0 9a 61 be 55 87 04 3f 58 55 37 3e
       -0.05863288 -0.22031665 0.51769 0.1790365
0002e0 f4 5b 34 3f 5e af 81 3f 39 bb 05 3f a8 05 45 40
       0.7045281 1.0131643 0.52238804 3.0784702
0002f0 b4 82 e6 bd f6 ef de be 02 1e 49 40 c7 c4 d6 3e
       -0.112553984 -0.4354245 3.1424565 0.41947004
000300 15 d0 27 bf f2 45 0b 3e da cd 5c be b1 ec 75 c0
       -0.65551883 0.13600901 -0.21562901 -3.8425715
000310 11 c5 0d be 5e 3d 74 bf b9 27 f5 bf ba 36 cb 40
       -0.13844706 -0.9540614 -1.9152747 6.3504305
000320 12 37 81 be 58 2e 9e bf c1 41 3c bf ab f1 3b bf
       -0.25237328 -1.2357893 -0.7353783 -0.7341563
000330 9c 40 96 3f d1 2b be bf a1 66 67 be 8b 73 05 be
       1.1738467 -1.4857122 -0.22597744 -0.13032357
000340 aa e7 16 3f cb c0 b1 3f ab 66 4d bf 52 fa 21 40
       0.5894724 1.3886961 -0.80234784 2.5309033
000350 f9 de 42 bf 9b a8 07 c0 b2 d9 02 c0 6e 1c 4e bf
       -0.7612148 -2.1196659 -2.044537 -0.8051213
000360 17 35 65 3f 46 29 d7 bd 6a cc 64 3f 21 62 81 bf
       0.89534134 -0.10505919 0.8937441 -1.0108072
000370 7d 54 77 bf d9 64 ac be cb c8 0d bf 0f 4a 1f 3f
       -0.96613294 -0.3367069 -0.5538451 0.6222238
000380 fa d5 93 3d bb eb 78 bf de ed 85 3f da 1e a5 3f
       0.07218547 -0.97234696 1.0463216 1.290004
000390 c9 ec 5a be 13 96 d8 bd c4 93 c2 3e de dc be 3f
       -0.21379389 -0.105754994 0.3800336 1.4911153
0003a0 a9 b4 43 bf f7 7f bb 3e 47 91 07 bf d9 d7 8c be
       -0.7644754 0.36621067 -0.5295605 -0.2750843
0003b0 fb 95 b0 3f c9 99 3f bf 95 9e 05 3f df a2 29 c0
       1.379577 -0.7484403 0.521951 -2.6505659
0003c0 fe de cd 3e 58 9a fb 3f bb 40 a5 be 1f d2 ba bf
       0.40209192 1.9656477 -0.32275948 -1.4595374
0003d0 f6 be c1 bf 4f ca 05 40 ce 83 6c bf 82 af b3 be
       -1.5136402 2.090473 -0.9238862 -0.3509484
0003e0 94 1d 4c 40 82 7b ba 3f e5 cc 9f 3f ae 40 54 bf
       3.1893053 1.4568942 1.2484404 -0.82911193
0003f0 d8 38 32 bf 75 cc a4 bf c4 8a 1d c0 ab e9 c0 3f
       -0.69617987 -1.2874895 -2.4615946 1.507131

lstm.bias_ih_l0_reverse f4 [80]
000000 2f fd 32 be 94 cf dc bd 51 00 6a 3e ea ae 80 3d
       -0.17479394 -0.1078178 0.22851683 0.06283362
000010 f2 0d c4 be b8 98 82 bf 44 ec a1 bc 9f c6 a9 be
       -0.3829189 -1.0202856 -0.01976598 -0.33159348
000020 4f 0c a6 bf 41 97 b3 bf 34 33 b5 bf 5c d5 ba be
       -1.2972506 -1.4030534 -1.4156251 -0.36490905
000030 df 3c 03 bf 71 e7 d9 be 76 29 c7 be cc 35 9c be
       -0.51264757 -0.42559388 -0.3889882 -0.30509794
000040 7d de 47 bf 76 c1 e0 be 94 df b7 be e2 ac 95 bf
       -0.78073865 -0.438976 -0.35912764 -1.1693385
000050 2d 2d d7 be 5e 90 63 3e c2 f3 69 bf 56 40 83 bf
       -0.42026654 0.2222304 -0.9138757 -1.0254009
000060 e1 40 de 3e 88 9d 2a 3f d6 3f 0c 3e 77 f4 38 bf
       0.43408874 0.66646624 0.13696226 -0.72248024
000070 71 4b 39 3f 81 14 94 3f fe 08 ac 3f cc 77 0b 3f
       0.7238074 1.1568757 1.3440244 0.5447967
000080 41 30 1a 3e 7a 6c b9 3e 3a b2 03 3f ae ac a3 3c
       0.1505747 0.36215574 0.5144383 0.019979801
000090 46 07 d9 3e 64 bb 86 be 65 30 04 bf d8 e0 9e 3f
       0.42388362 -0.26314843 -0.51636344 1.2412367
0000a0 e0 46 fd bc db 6a 24 be 43 66 18 bc 9a b6 de 3a
       -0.030917585 -0.16056387 -0.009301725 0.0016991675
0000b0 69 fa de 3c 11 2e d6 3d 3f e6 75 bd 5e ac db bd
       0.027219014 0.10458005 -0.060034033 -0.10726236
0000c0 2b a3 ba 3d a3 b7 84 be 8c 5f 42 3e 1a 4e b2 3d
       0.09113153 -0.25921354 0.1898176 0.08706303
0000d0 08 ae a1 3c 64 a3 29 3d dd 36 01 be e9 23 34 3e
       0.019736305 0.041415587 -0.12618585 0.17591824
0000e0 4e 40 62 be a3 ea 63 3e f1 00 02 be e9 9f d1 bd
       -0.22094843 0.22257476 -0.12695672 -0.102355786
0000f0 d1 0e 22 be 17 d6 14 be bf 28 6b 3f ba 38 1c 3f
       -0.15825965 -0.14534794 0.9185905 0.6102406
000100 3f 1d 22 3e ac 49 b0 be 9b 3f 88 bc 9e a4 db 3e
       0.15831469 -0.34431207 -0.016631892 0.4289903
000110 27 ab 76 be 28 1a f3 3c 02 d3 db 3e 96 28 63 be
       -0.24088727 0.029675558 0.42934424 -0.22183451
000120 c3 46 10 be 33 3b 1e 3f da fd 9d be b8 e1 13 3f
       -0.14089493 0.6180908 -0.30857736 0.57766294
000130 77 0b 12 3e c6 65 5d bd 43 67 5b 3e fb d1 3b bf
       0.14262186 -0.054052137 0.2142611 -0.7336728

lstm.bias_hh_l0_reverse f4 [80]
000000 74 6c 1d be dd e1 25 be 21 02 0a 3f 02 a6 72 3e
       -0.15373403 -0.16199441 0.539095 0.2369614
000010 0c a3 1d be f8 2a 80 bf ab 48 cf bd ed de a2 be
       -0.15394229 -1.0013113 -0.10121282 -0.31810704
000020 90 dc 76 bf 52 30 c6 bf 66 ed c3 bf 5e da 05 bf
       -0.964303 -1.5483496 -1.5306823 -0.52286327
000030 67 e6 5d bf 79 eb 87 be 08 83 40 be c5 03 10 bf
       -0.8667969 -0.2654684 -0.18799984 -0.5625575
000040 89 f7 2d bf bb ee 0a be ff c4 bb be a9 b1 b2 bf
       -0.67955834 -0.13567631 -0.36673734 -1.3960468
000050 30 10 01 bf 36 6e df 3e 8a 88 51 bf 54 ee a9 bf
       -0.50415325 0.43638772 -0.8184897 -1.3275857
000060 29 75 c7 3e 5d 5f db 3e 43 37 96 3b 8b 64 1b bf
       0.38956574 0.42846194 0.0045842244 -0.6070029
000070 1f 4c 91 3f 0c 39 9a 3f 89 56 8d 3f 3f e1 58 3f
       1.1351355 1.2048659 1.1042033 0.847187
000080 ad a1 0b 3f 6b b4 a7 3e 8f fb ff 3e 77 72 2f 3c
       0.5454357 0.32754835 0.4999661 0.010708443
000090 5d 2d 1c 3f 51 4e 2b 3d 05 68 c2 be 6e 40 a6 3f
       0.6100672 0.041822735 -0.37969986 1.2988412
0000a0 a7 c6 96 3d 84 c0 77 3c 44 85 b0 3e 9d 02 78 be
       0.07362109 0.015121583 0.34476674 -0.24219747
0000b0 fe d5 39 3e 8f 23 02 bc ea 8f c5 bd 3f 9e 18 3e
       0.18148038 -0.007943048 -0.0964659 0.14904116
0000c0 ee b4 63 3d c5 dc a3 bd 73 9b 5d 3e 89 4a 81 bd
       0.05559247 -0.08001093 0.2164133 -0.063130446
0000d0 2b bf 48 3d b5 4f 8b 3d 3a c0 4a bd 17 1b 70 3e
       0.049010437 0.06802312 -0.049499728 0.23447834
0000e0 f9 42 b1 bc 55 10 00 3e 52 d9 3f 3e 89 6f d2 3d
       -0.02163838 0.1250623 0.18735245 0.1027518
0000f0 af 3e 2c bc 00 8f a4 bd 55 d4 3f 3f 8c 72 e0 3e
       -0.010512992 -0.080350876 0.7493337 0.43837392
000100 14 1c 15 bb 83 71 bc be 7f e9 81 3e 2a 09 6e 3e
       -0.0022752332 -0.36805353 0.25373456 0.23245683
000110 36 25 13 3e 9b 87 f1 bd f0 c1 a5 3e 33 d5 39 be
       0.14369664 -0.11793443 0.32374525 -0.18147735
000120 8e 92 8f bd fb f0 09 3f bb 7e 20 bf b0 2d bd 3e
       -0.07010375 0.5388333 -0.62693375 0.3694892
000130 e3 2b 8f bd bd 61 07 3d 89 15 e8 3e 82 d0 2d bf
       -0.069907926 0.033052195 0.4532893 -0.6789628

lstm.weight_ih_l1 f4 [80, 40]
000000 f4 f9 58 3d 59 a8 b0 bf 07 f2 49 3f 41 7e 89 3f
       0.05297275 -1.3801376 0.7888493 1.0741655
000010 bb 8d 9e bd 65 49 11 bf cf 70 5d be 51 69 bf be
       -0.07741877 -0.56752616 -0.21625064 -0.37385038
000020 90 e7 21 3e 17 cc 69 be 2c f3 82 3d 66 f9 94 3f
       0.1581099 -0.2283176 0.063940376 1.163861
000030 e7 78 af 3e bf 46 89 3f ce 28 b4 bf a2 09 c7 bf
       0.3427193 1.0724715 -1.4074953 -1.5549815
000040 5b 4d 82 bf 18 00 48 bf 65 53 a0 bf 00 24 0e 40
       -1.0179857 -0.78125143 -1.252545 2.2209473
000050 dc 35 c5 bf b5 83 50 3e 42 63 37 3f fb a1 6b bf
       -1.5407062 0.20362742 0.7163583 -0.9204404
000060 ed 21 e6 3d ca 34 b2 3e 30 4f 8a 3f 53 bb 30 3f
       0.112369396 0.348059 1.0805416 0.69035834
000070 1b 6b 5c bf 0e 78 01 40 59 ad 79 be 05 79 60 3f
       -0.8610093 2.0229526 -0.24382533 0.8768466
000080 77 f6 12 3f d6 da 80 3f 1a 0f 11 bb d5 47 50 3e
       0.57407326 1.0066783 -0.0022134245 0.20339902
000090 30 02 ea be d2 b1 0d be ec 07 58 bf 6a 13 4f 3f
       -0.45704794 -0.13837364 -0.8438709 0.80889
0000a0 b8 ab fa 3f b6 46 ab bd 34 77 c0 3e 2e f1 07 be
       1.9583654 -0.083630964 0.37590945 -0.13275596
0000b0 74 06 12 bf 34 1f 25 3f 0b 78 92 3e 49 ef 58 bd
       -0.57041097 0.6450074 0.2860721 -0.052962575
0000c0 db d5 f4 be 70 f0 12 3c a6 2c f1 3f 0a cb 20 c0
       -0.4781941 0.008968458 1.8841751 -2.5123925
0000d0 de 08 1e bf db 4d f8 be a9 25 a3 3e 1e 16 09 c0
       -0.6173228 -0.484969 0.3186467 -2.141975
0000e0 5d 32 1d 3e d4 bc 5a bf 4b 58 88 bf 88 f4 a8 3e
       0.15351243 -0.8544438 -1.0651945 0.32999063
0000f0 f4 0f 71 3d 17 c8 7f 3f d1 c4 b9 bf fc 57 af 3f
       0.058853105 0.9991469 -1.4513189 1.3698726
000100 f8 c3 d5 3f 64 a2 c8 be 4b df 89 bf e2 90 17 40
       1.670043 -0.39186394 -1.0771269 2.368218
000110 8a 35 53 be 98 5e aa be 11 64 c7 3f 9b d9 38 3e
       -0.20625892 -0.33275294 1.5577413 0.1805176
000120 63 cc a5 bf b1 97 46 bf fa 79 46 be 50 d3 63 3e
       -1.2952999 -0.7757521 -0.19382468 0.22248578
000130 15 fc 2a 3f 8e ba c9 3f 18 ab 9f 3e 5f a3 63 bf
       0.66790897 1.5760057 0.31185222 -0.8892116
000140 37 1d 6d be d4 85 ae 3f 49 7f b6 3f 02 70 a0 bf
       -0.23155676 1.3634591 1.4257594 -1.2534182
000150 78 ad ec bf db 9e b9 bf 84 2e 61 be aa 02 7b 3f
       -1.8490438 -1.4501604 -0.219904 0.9805094
000160 1b 0d 50 be fd a9 a2 3e 7c 3b b4 3f aa e0 bb bd
       -0.203175 0.31770316 1.4080653 -0.09173711
000170 fe 5b 1c 40 96 88 89 be c7 bd dd 3e db f9 ad 3e
       2.4431148 -0.2686202 0.4330885 0.33979687
000180 e4 48 62 3f 81 ed 5b bf cb 40 35 3f 80 a0 e1 3d
       0.8839247 -0.8590928 0.7080199 0.11016941
000190 a5 2d e5 be 0c 57 7f bb 8b 19 77 3e 6c 03 5d bf
       -0.44761387 -0.0038961796 0.24130838 -0.86333346
0001a0 6a 77 97 be f9 e3 16 c0 b3 8b 15 3f 4f 99 f7 3f
       -0.29583293 -2.3576643 0.5841629 1.9343661
0001b0 19 1b 78 3f b5 4d 2e bd 1b d2 b0 3b 15 41 97 3e
       0.9691635 -0.042554576 0.0053961403 0.2954184
0001c0 26 1e 9f 3f 99 3b 4d 3f 05 78 c4 3f 3a 12 91 3e
       1.2431076 0.80169064 1.5349127 0.28334218
0001d0 d7 a3 07 c0 6e b0 92 be 93 08 ba bf 42 10 d2 3f
       -2.119375 -0.2865023 -1.4533867 1.6411211
0001e0 a5 e7 62 bf 89 2b 5f bf 1d f0 09 bf 8f b7 b0 bf
       -0.8863471 -0.87175804 -0.5388201 -1.3806018
0001f0 88 a1 c5 bf 63 be b7 3d c7 87 68 bf 1d 90 b3 3e
       -1.543992 0.0897186 -0.9083218 0.35070887
000200 78 a3 ef 3e f6 0d 0f 40 fb f5 c6 3e d1 0e a2 bf
       0.46804404 2.235227 0.38859543 -1.2660772
000210 c7 ed d4 3e fe 1d 18 3e 73 64 5d 3f 5a a8 c6 bf
       0.4158766 0.14855191 0.864814 -1.5520127
000220 48 18 70 bc c6 17 a7 3e cd 51 63 be 7e 40 be 3f
       -0.014654227 0.32635325 -0.22199173 1.4863431
000230 1c 36 35 bf 79 e1 e5 3e f3 e9 07 3f ed 2d c5 bf
       -0.7078569 0.44898584 0.53091353 -1.540464
000240 87 67 a8 3d 9f 87 21 c0 bf cc 53 bf 2f fd 23 40
       0.08222871 -2.5239027 -0.8273429 2.562328
000250 9a 3a 79 bf 7e d5 04 bf 45 1f c7 be 97 56 56 3f
       -0.97355044 -0.51888263 -0.38891044 0.83725876
000260 4f bb 54 bf c3 47 96 3f a5 b9 cb 3e 12 20 52 3f
       -0.8309831 1.174065 0.39790073 0.82080185
000270 ae f2 df 3f 8e a6 83 bd 82 b2 a6 3f 14 3d 21 c0
       1.7495935 -0.06428252 1.3023226 -2.519353
000280 08 5b 6d bf 7e fc 8b be 08 c7 5c 3d bc 24 3d 3f
       -0.9271703 -0.27341074 0.05390075 0.7388418
000290 5f d2 ce bf 46 fb 4b 3f 9b 9d 6c 3e 62 22 3c 3d
       -1.615795 0.7968029 0.23106997 0.045931228
0002a0 0a 5b 61 3f f5 66 08 bf 3a b6 48 bf 93 50 86 bf
       0.8802954 -0.532821 -0.78403056 -1.0493339
0002b0 a6 af c4 bc c1 05 ac bf 59 97 f3 3c a5 87 93 bf
       -0.024009537 -1.3439256 0.029735254 -1.152577
0002c0 03 4a de be a5 ce a5 bf 4e a9 d9 be 0e 4a c8 3d
       -0.4341584 -1.2953688 -0.42511982 0.0977975
0002d0 b8 d6 c7 be 9d 30 d1 be f3 39 28 bf 33 18 9f bf
       -0.39031005 -0.40857401 -0.65713423 -1.242926
0002e0 fc e7 4d bf e8 68 82 bf 3b 5f 6b 3f 47 ef 49 3f
       -0.80432105 -1.0188265 0.91942185 0.78880733
0002f0 64 ae 04 3e 60 e7 a7 3e f5 7f 02 bf af 15 bc 3d
       0.1295715 0.32793713 -0.50976497 0.09183823
000300 0a 31 49 3f a1 ad f8 3e 99 b2 ad be b8 07 b3 3f
       0.7859045 0.48569968 -0.33925322 1.398673
000310 71 3e ee 3f 0b 8c 6f 3e 6f d3 a1 3f dd a9 44 3f
       1.8612806 0.23393266 1.264265 0.7682169
000320 28 3d 23 3f 72 51 80 bf 5c fc 36 3e 89 af 6b 3f
       0.6376519 -1.0024855 0.17869705 0.9206472
000330 e4 72 bf bf e3 a9 5a bd a9 12 30 3e 96 fb 4f 3e
       -1.4956937 -0.053384673 0.17194618 0.20310816
000340 9f e6 b5 3d f0 d2 af 3e a4 e5 31 bf 82 6f 14 bf
       0.08881878 0.3434062 -0.6949103 -0.5798265
000350 79 63 a8 bf 54 d6 ce bf af b0 90 be 46 56 c6 be
       -1.3155357 -1.6159158 -0.282598 -0.38737696
000360 42 0f 15 bd fd 4f 05 be 5e a7 66 bf a7 fc b5 3f
       -0.036391504 -0.13018794 -0.9009913 1.4217728
000370 07 63 74 3f 04 69 c1 bf 7e 8e 5c 3f 54 9a cb bf
       0.95463604 -1.5110173 0.86154926 -1.5906472
000380 95 69 b6 3f 33 59 a9 bf 74 97 0c bf 9e b7 b6 3f
       1.4250971 -1.3230346 -0.549186 1.4274786
000390 f8 22 c1 3e 91 e0 d7 3e af 03 21 3f 98 bb a9 bf
       0.37721992 0.42163518 0.62896246 -1.3260374
0003a0 18 48 96 3e dc c6 bf 3e 3d 10 7c 3e 14 e9 6a 3f
       0.29351878 0.37456405 0.2461557 0.917619
0003b0 07 77 cb be c7 84 bb 3f 37 e6 f1 3e 3f 39 c6 bf
       -0.39739248 1.4649895 0.47245952 -1.548622
0003c0 53 42 92 bd c7 e8 9e 3f 69 cd d2 3d 25 2b 7e bf
       -0.071415566 1.2414788 0.10293085 -0.99284583
0003d0 c8 3c e1 3d a3 dc a1 3f 16 3f 3a bf 29 91 1b bf
       0.10997921 1.2645458 -0.7275251 -0.6076837
0003e0 4b e6 ef be 60 0f 89 bf 3f c3 92 3d 50 db 54 3f
       -0.46855387 -1.0707817 0.071661465 0.83147144
0003f0 a2 c4 29 3f 70 8b 20 3d 37 5b 82 bd 28 ee 99 bf
       0.6631566 0.039195478 -0.06365054 -1.2025805

lstm.weight_hh_l1 f4 [80, 20]
000000 e2 79 01 3e 12 58 70 3f 60 c9 c4 3e 98 df 15 bf
       0.12644151 0.93884385 0.38434887 -0.585443
000010 a7 1f f1 3d 04 2d a7 3f 82 57 00 bf e6 99 9d be
       0.11773615 1.3060613 -0.50133526 -0.30781478
000020 38 a9 93 3d 90 4d 28 3e 39 e5 eb bf 38 76 ff bf
       0.0721001 0.16435838 -1.8429328 -1.9957952
000030 ff df ad be 9e 37 00 40 c0 90 38 3d c6 df 09 c0
       -0.33959958 2.0033946 0.04505992 -2.154283
000040 c8 57 e5 3f 3c c6 b9 be 51 31 9a c0 a4 01 a2 bf
       1.7917414 -0.36284053 -4.81852 -1.2656751
000050 20 14 6a bf 88 9e 09 bf bc 84 34 3f f5 06 b4 3e
       -0.9143696 -0.53757524 0.70515037 0.35161558
000060 55 bf 00 c0 06 89 c2 be 03 b6 c5 be 7d cc a0 bd
       -2.011678 -0.37995166 -0.38615426 -0.07851503
000070 99 19 94 3f 55 e3 3c bf 48 3c ed bf 8d 10 02 be
       1.1570312 -0.7378438 -1.8534021 -0.12701626
000080 ff e8 cf 3e eb fd 2e bf 5a 38 70 3f 0c 8e fc 3f
       0.4060745 -0.683562 0.93835986 1.9730849
000090 21 13 99 3f c9 85 5a 3d 84 f2 e2 3f 12 01 22 be
       1.1958963 0.053350244 1.773026 -0.15820721
0000a0 0d 4d b0 3f 41 9a db bf b2 18 fe 3f d5 25 84 40
       1.3773514 -1.715645 1.9851286 4.129618
0000b0 5b 10 0c c0 67 3c 92 3f fb 28 8b 3f 9a 3b 67 3f
       -2.1884983 1.1424683 1.0871881 0.9032532
0000c0 09 12 10 3f d4 e9 ba 3f c0 1b 62 3e cd 49 2a 3f
       0.5627752 1.4602609 0.22080898 0.6651886
0000d0 54 19 a1 3e ce 76 5c c0 24 d2 12 3f 78 87 db 3f
       0.31464636 -3.4447513 0.573519 1.7150717
0000e0 2e b9 e5 3f 32 b0 61 bf b6 7b 07 40 ae bc c4 3f
       1.7947137 -0.8815948 2.1169257 1.537008
0000f0 7e c3 97 bd 9d 3a e7 bf 78 2b ab bf 50 ef 37 be
       -0.07410334 -1.8064762 -1.3372641 -0.17962384
000100 ad 39 85 40 d1 66 e9 be e4 35 88 bb 45 19 ed 3f
       4.1632905 -0.45586255 -0.004156815 1.8523337
000110 92 ec 22 c0 35 95 b8 3f d7 b9 f3 3e 06 bc 1b 3f
       -2.545689 1.4420534 0.47602722 0.60833776
000120 39 66 e6 bf b2 49 d6 3e 89 de 96 3e ec 15 0c 40
       -1.7999946 0.418531 0.29466656 2.188838
000130 f3 d8 1d 3f 53 99 ac bc ea ee 69 bf e8 6b c3 bf
       0.61659163 -0.021069204 -0.9138018 -1.5267305
000140 f4 91 a7 bf c0 bf 62 bf a5 69 1f 3a 43 3a 8e 3d
       -1.3091416 -0.8857384 0.0006081111 0.06944706
000150 fb 0e 6f 3f 69 d3 2b 3f 76 ea d9 be b4 47 23 3f
       0.93382233 0.6711946 -0.42561692 0.63781285
000160 bf 2f 0c 40 b0 fe 51 bf 76 84 67 3f c6 e5 41 3e
       2.1904142 -0.8202925 0.90436494 0.18935308
000170 c8 34 ef bf 0a 39 09 c0 e8 70 2e bf 92 df 8f bf
       -1.8687983 -2.1441064 -0.6814103 -1.1240103
000180 a7 45 10 3f cd 24 88 be 20 ab 82 40 2b df 44 3f
       0.5635628 -0.26590577 4.0833893 0.7690303
000190 11 3d 67 3f 5b 3b f5 be 64 49 73 be 70 88 6d bf
       0.90327555 -0.47896847 -0.23758465 -0.9278631
0001a0 fe 51 6b 3f 18 66 00 3f a2 ef b3 3f 71 79 2a bf
       0.91921985 0.5015578 1.4057505 -0.66591555
0001b0 83 5c b1 bf 78 00 f6 3f 90 83 57 bf 68 fe 34 40
       -1.3856357 1.9218893 -0.84185123 2.8280277
0001c0 e4 12 21 3f d3 35 ee be 0c 0c c4 3f 0e b0 c6 3f
       0.6291945 -0.4652544 1.5316176 1.5522478
0001d0 6f 82 ff bf df cc 8c be 61 65 aa 3f 64 5c 26 c0
       -1.996168 -0.27500054 1.3312188 -2.599389
0001e0 ab ff e6 3e d9 ef 1c bf b1 d3 ab 3f 98 0b 29 bf
       0.45116934 -0.6130348 1.3423978 -0.66033316
0001f0 63 9f 21 c0 9c 4e 87 bd 46 1b 0b 3c 26 cf 07 bf
       -2.5253532 -0.066067904 0.008490389 -0.5305046
000200 e3 25 42 bf be 5d fa bd aa cd ff be 36 d4 8f bb
       -0.7583906 -0.12224911 -0.49961597 -0.004389311
000210 eb 88 da be cf ea e9 3e 76 11 9a 3e 48 3e 16 3d
       -0.42682585 0.45686957 0.30091447 0.03668049
000220 46 8f 68 bf e7 32 cc 3f 42 f9 6a 3f d5 96 9f bf
       -0.9084362 1.5953034 0.9178659 -1.2467905
000230 c8 4a 06 40 09 b8 a6 3e fe cb 5a 40 66 78 86 3f
       2.0983143 0.32562283 3.4187007 1.0505493
000240 97 5e 94 3f 01 eb c3 3f 18 7a 6a 3f de 7b 17 40
       1.1591367 1.5306093 0.9159255 2.3669353
000250 e8 f1 07 3c a2 2c 06 c0 ae 52 19 c0 0d de cc bf
       0.008297421 -2.0964742 -2.3956714 -1.6005265
000260 43 18 1c c0 18 c2 03 c0 cc cb 54 3d b2 ec 06 c0
       -2.4389808 -2.0587215 0.05195217 -2.1081967
000270 bc 9a 78 bf 4a 2a 8c bd e6 70 d3 c0 b0 9c 33 3e
       -0.97111106 -0.068440035 -6.6075315 0.1754024
000280 ef 71 4c 3f e2 10 27 bf eb 91 e7 be e5 db 5f 3e
       0.7986135 -0.65260136 -0.45228514 0.21861227
000290 a3 9e 09 40 c1 5c ec bf f8 ca 10 be 44 ca 51 bf
       2.1503074 -1.8465806 -0.14139926 -0.8194926
0002a0 6d 7a 41 3e 47 4a d5 3e 4d 05 84 bf 47 9d d7 3f
       0.18894358 0.41658232 -1.0314118 1.6844872
0002b0 62 6e 15 40 90 ac 81 bf 0d 8d 9b 3f 68 1b 1a be
       2.3348622 -1.0130787 1.215242 -0.15049517
0002c0 38 05 81 3f df 06 95 bf 87 8b c7 be a0 95 29 bf
       1.0079718 -1.1642722 -0.38973638 -0.66243935
0002d0 16 b2 d3 3e 58 79 32 bf 2d f2 2e 40 51 5d 13 be
       0.41346806 -0.69716406 2.7335312 -0.14391066
0002e0 b4 58 2b bf 25 69 50 be bb c4 87 40 8a c3 d4 be
       -0.66932225 -0.2035261 4.242765 -0.41555434
0002f0 89 73 04 40 ae 75 ae be 5d 79 71 bf 1c 33 d4 3f
       2.0695517 -0.34074157 -0.9432581 1.6578097
000300 0b c6 a7 be 73 f9 9b bf fb a5 59 3f 88 be 07 40
       -0.32768282 -1.2185501 0.8501889 2.121004
000310 2b ee 35 bf ac 7e a9 3f 0b 3f b9 3e 3f f3 01 c0
       -0.7106654 1.3241782 0.3618091 -2.0304716
000320 22 ca 2f 40 6f 35 84 3f 8c 37 ea 3b 4b a3 47 3f
       2.7467122 1.0328807 0.007147735 0.7798354
000330 f5 87 01 3b 65 ab 3f c0 02 ef bb bf f3 73 5b bf
       0.0019764875 -2.994836 -1.4682314 -0.857238
000340 3d e0 fa 3f b7 ba 88 bf ab 93 14 bd d8 c7 06 bf
       1.9599682 -1.0681981 -0.03627364 -0.5264869
000350 83 2f 2f 3f e2 dd 1a 40 60 98 9d bd d3 af 48 bf
       0.6843187 2.4197927 -0.07695079 -0.78393286
000360 a3 a6 8c 3f 3e 9f ae bf 84 ca fd bf 31 16 03 40
       1.0988353 -1.3642347 -1.9827428 2.0482295
000370 aa 32 07 3f fa 30 10 3f 0b 48 13 40 8d d8 ad be
       0.5281168 0.5632473 2.3012722 -0.33954278
000380 0d 92 60 bf f9 88 1a 3f d9 a2 ce 3d ba 7d 2b bf
       -0.87722856 0.60365254 0.100896545 -0.6698872
000390 22 af 2b bf 50 ea 12 c0 e7 90 8b 3f d2 92 c4 3e
       -0.67064106 -2.2955513 1.0903596 0.38393265
0003a0 64 23 53 3e cc 61 96 3e 54 98 6a 3f 3e 12 d7 3f
       0.20618969 0.29371488 0.91638684 1.6802442
0003b0 cf 37 30 3f 45 e7 4e 3e ab 01 a6 3f ec 63 a1 bd
       0.6883516 0.2020541 1.2969259 -0.07880387
0003c0 c4 83 3f bf 1a bd 10 c0 5d bb 1b 3f 99 85 ce 3d
       -0.74810433 -2.2615418 0.6083277 0.100840755
0003d0 88 98 45 40 16 11 2d 3f b0 78 00 be cd e6 08 3f
       3.0874348 0.67604196 -0.12546039 0.53477174
0003e0 42 05 b6 3e bf 14 46 3e 1e 4b 66 3f ac aa a6 3f
       0.35550886 0.19343852 0.8995837 1.3020835
0003f0 53 c4 8a bf cd ff c0 3f c7 ef bd be ac 00 3a 3f
       -1.0841163 1.5078064 -0.37096998 0.72657275
