sparrow/data/networks/dssp/dssp_predictor_network_v1.pt (torch, 72047 bytes, 18 tensors)

module.lstm.weight_ih_l0 f4 [80, 20]
000000 09 e6 71 be 43 52 a0 3f 44 1d e2 be f8 1a 1f bf
       -0.23622908 1.2525104 -0.44162953 -0.62150526
000010 e8 df 6c 3e ea 3b ef be d6 30 8d bf 5d 0a 0c 3e
       0.23132288 -0.46725398 -1.1030529 0.13675828
000020 d2 b4 0e bf c8 a7 81 3e eb 62 14 bf 64 7d 27 3e
       -0.5574466 0.2532332 -0.57963437 0.16356426
000030 86 d7 0a bf 61 8a 84 be d9 45 99 bd 65 99 11 bf
       -0.5423511 -0.25886825 -0.074840255 -0.56874686
000040 d1 ef 36 bf 8e 85 0e bf c0 37 17 3f 47 49 20 bf
       -0.7145968 -0.5567254 0.5906944 -0.6261181
000050 b1 fd 17 bf 1e 28 7c bd cb 12 93 be 80 54 27 3d
       -0.5937148 -0.061561696 -0.28725275 0.04085207
000060 74 a5 fa be aa a1 5b 3f b3 42 06 bf 7a c6 53 bf
       -0.48954356 0.85793555 -0.52445525 -0.82724726
000070 3e a8 94 be 5b db 1f bf 0d 86 f2 be 74 89 f4 bf
       -0.2903461 -0.62444085 -0.47367898 -1.9104447
000080 ef 99 a5 3f 2c 01 d8 be 85 f4 44 be bb 1b aa be
       1.2937602 -0.42188394 -0.19233902 -0.33224282
000090 03 d8 c5 be c5 5d 16 bf 2a 11 20 3f ae 88 24 bf
       -0.38641366 -0.5873683 0.6252619 -0.64271057
0000a0 78 6c 0b bf e4 32 13 bf 0b 98 9e 3f 6d ae b9 be
       -0.54462385 -0.5749953 1.239015 -0.3626589
0000b0 4b b2 b9 be 72 0a d6 be 90 85 ad 3d 7a 6a db be
       -0.3626884 -0.41804844 0.08472741 -0.42854673
0000c0 ec 6b 82 be 51 cf b7 be 57 49 cf be 4e 31 bb 3e
       -0.25472963 -0.35900357 -0.4048564 0.36561054
0000d0 e6 dc ad bf 3c 3c 20 be c6 0e a6 3d 7c 87 0f bf
       -1.3583038 -0.15647978 0.081082866 -0.5606611
0000e0 79 79 92 bf cf 67 bc be 46 20 83 3e 89 00 97 be
       -1.144332 -0.3679795 0.2561056 -0.29492596
0000f0 a8 0b b2 bd be f9 27 40 0a 29 a3 be 3b 0d 56 be
       -0.086936295 2.624618 -0.31867248 -0.20903485
000100 6d 20 aa 3e b6 d1 c0 bd 19 15 3b 3f 7f 88 85 be
       0.33227864 -0.09414999 0.7307907 -0.260807
000110 63 55 11 bf 01 12 97 be 0a ae 0a bf ff 87 0c bf
       -0.56770915 -0.29505923 -0.5417181 -0.54895014
000120 89 45 b7 bf 4f 33 0e bf 01 84 83 bf 0a 5b 9a 3e
       -1.4318095 -0.5554704 -1.0274659 0.30147582
000130 44 50 99 3e b2 20 40 3e d6 78 99 3f 74 1c 8a bc
       0.2994405 0.18762472 1.1990001 -0.01685927
000140 5a 44 ce 3d 33 8b d2 bc 25 12 72 be b4 c1 38 3e
       0.10071631 -0.025701141 -0.23639734 0.18042642
000150 63 af e3 3d e1 33 39 3e 75 54 95 bf 97 bb 82 3e
       0.11117437 0.18086196 -1.1666399 0.25533745
000160 e0 9b 9e bf f1 42 06 3f a9 fc 35 be e6 77 02 bf
       -1.2391319 0.52445894 -0.17772163 -0.509642
000170 56 c4 36 3d c8 4b bc be 56 ae 9f bf 38 e8 23 3e
       0.044620834 -0.36776567 -1.2475078 0.16006553
000180 62 4f 2a 3e 10 f1 81 3e e1 75 d2 bb f0 fe c4 bd
       0.16631845 0.2537923 -0.0064227437 -0.09618938
000190 32 53 6d be e3 12 25 3f 1b c9 ee 3e 99 2f 9e be
       -0.23176268 0.64481944 0.46637806 -0.3089569
0001a0 91 a6 a3 3d 30 30 81 be dd db 9f bf 90 5a e7 be
       0.079907544 -0.25232077 -1.2488972 -0.4518628
0001b0 18 3a 99 be 5f ba f7 be 73 c9 00 3e b7 2f 92 be
       -0.29927135 -0.48384377 0.12576847 -0.2855203
0001c0 d2 2a ab 3e 08 d2 1b bf c5 46 6b be 61 99 16 3d
       0.33431107 -0.6086736 -0.22976215 0.036767367
0001d0 f6 51 17 be b4 66 85 bf 48 f4 9d 3f 5c 59 13 3f
       -0.1477736 -1.0421968 1.2340174 0.57558227
0001e0 ab e6 4a bf 8a e2 83 bd fc 1d 49 3c 0b 5c 28 3f
       -0.7925822 -0.06439693 0.012275215 0.65765446
0001f0 b1 e2 1f bd e6 5d e8 be 5a ec 9a be f3 bc b6 bd
       -0.03903455 -0.4538414 -0.30258447 -0.08922758
000200 58 c7 65 bf b1 05 c0 be 59 75 cc 3f dd 96 6d be
       -0.897573 -0.37504342 1.5973312 -0.23202081
000210 a4 f5 2a be 3d fb 4e be c7 5a 64 bf 50 ee 46 bf
       -0.16695267 -0.20213027 -0.89201015 -0.77707386
000220 98 d5 8c bd a0 e9 08 bf 61 36 f2 be aa 50 53 bf
       -0.06876677 -0.53481483 -0.47307113 -0.8254496
000230 48 b5 19 bf 54 47 60 3d 85 98 85 bf 31 70 12 3e
       -0.6004224 0.054755524 -1.043717 0.1430061
000240 51 3b 8a 3e 6d b1 4f bf d2 8d 99 3e 01 7f 15 3f
       0.2699838 -0.81130105 0.29991013 0.5839692
000250 5f fc 23 3e aa d3 99 3e 11 d1 d0 bd a5 98 7d bf
       0.1601424 0.300443 -0.10196126 -0.9906104
000260 73 ef 4f be 51 f4 72 3f 9b 53 cd bd 47 6d f0 be
       -0.20306186 0.9490405 -0.10025712 -0.46958372
000270 e3 29 2a be f2 84 b0 bc c5 b3 7a 3e b4 64 1d bf
       -0.16617541 -0.021547768 0.24482639 -0.61481786
000280 0b 08 4e be a0 03 4d 3d 09 8c 51 bf d1 ef bd be
       -0.20120256 0.050052285 -0.818543 -0.37097028
000290 14 3b 3f bf e4 57 a1 bc 67 f0 30 3f 4b ed 88 be
       -0.7469952 -0.01969523 0.69116825 -0.2674354
0002a0 b3 40 c3 3e 10 01 c3 3e 47 0b ab 3e 49 63 93 bf
       0.381353 0.38086748 0.3340704 -1.1514674
0002b0 4e d9 e8 bf f1 4a d9 bb 9c c3 87 3e 19 af 3a bf
       -1.8191316 -0.006631248 0.26516426 -0.7292343
0002c0 7f e8 42 be 10 e5 50 be f0 fc 97 bf da 05 de 3e
       -0.19034003 -0.2039988 -1.1874065 0.4336384
0002d0 60 5d 14 3e d5 04 83 bd 27 2f d1 bf 95 20 fe be
       0.14488745 -0.06397406 -1.6342515 -0.49634233
0002e0 08 ee d8 be f8 74 7f 3f e2 ce 86 bf 10 0b 39 bf
       -0.42369103 0.99787855 -1.0531886 -0.72282505
0002f0 64 67 18 3e 12 3c db be a7 65 08 bf 88 c6 d8 3e
       0.1488319 -0.42819268 -0.5328011 0.42338967
000300 eb d2 26 40 a5 76 b4 bf 9a a1 af 3e 40 ba 92 be
       2.6066234 -1.4098707 0.3430298 -0.28657722
000310 48 b4 4c bf 1a 1f f4 be c4 5e ec 3e 26 88 1a bf
       -0.7996259 -0.4767998 0.4616605 -0.60363996
000320 1d 69 89 bf 11 2b 36 bf 23 81 dd 3f ef 02 14 bf
       -1.0735203 -0.71159464 1.7305034 -0.57816976
000330 ed 26 e8 be f4 95 a5 3e 32 35 8c be 15 a0 f3 3d
       -0.45342198 0.32340968 -0.27384335 0.118957676
000340 8e 43 84 bf 20 cb 11 bf ce 9c 0d 3b 05 fa d3 3f
       -1.0333116 -0.5695057 0.0021608355 1.6560675
000350 16 2d 78 bf 2f e0 d7 be 87 a1 1f 3e f9 d2 83 3f
       -0.96943796 -0.42163226 0.15588962 1.0298759
000360 41 cd be 3e 25 2f 8c 3e 3f 5c e2 3f 0a 56 64 3e
       0.3726597 0.27379718 1.7684401 0.22298446
000370 32 ad f8 bc 2c 30 89 3e 4a 60 c6 be 93 33 d0 be
       -0.030356023 0.26794565 -0.38745338 -0.40664348
000380 ef 50 78 3d 3f 26 69 3f 7f cf a3 3e 33 55 7b bf
       0.06062406 0.91073984 0.31994244 -0.9817688
000390 b4 16 fb bd d0 8b 02 be 6f af 68 3e 86 86 8d be
       -0.1226019 -0.12748647 0.22723173 -0.27641696
0003a0 db 1f c0 3b 60 01 3f be 5d 56 f7 3e 7e 51 59 bf
       0.0058631725 -0.18652868 0.48308077 -0.8488997
0003b0 5d 06 4b bf 4d b1 78 bf f8 e3 f7 bf 4a ea 68 3f
       -0.79306585 -0.9714554 -1.9366446 0.90982497
0003c0 47 e3 42 be 47 93 ac be 15 85 8d bf 95 3f 24 bf
       -0.19032012 -0.33706114 -1.1056238 -0.6415952
0003d0 c9 55 64 3e 1c 9a 28 be 20 7f 39 be 96 c5 2e 3e
       0.2229835 -0.16465038 -0.181149 0.1706756
0003e0 03 4d a8 3d 0c 64 a5 be 57 97 20 bf b6 0f 3f bf
       0.08217814 -0.32302892 -0.62730926 -0.7463335
0003f0 f5 d1 16 3f be 21 47 be 9f e3 ae 3e 62 39 48 be
       0.5891412 -0.19446465 0.34158036 -0.1955314

module.lstm.weight_hh_l0 f4 [80, 20]
000000 63 f7 f1 3d 49 3d 36 be cc e8 a0 3e 67 c4 a5 be
       0.118147634 -0.17796816 0.3142761 -0.32376406
000010 3e 6a 0e 3e 14 96 2c 3f f5 c8 9e bd 06 dd be 3e
       0.13907716 0.674165 -0.07753173 0.37278003
000020 aa 8b fa be 89 bd 04 be 66 14 9e 3e 1f 89 70 be
       -0.4893468 -0.12962927 0.30874938 -0.23489808
000030 83 8b 58 3f cf bc 59 bf 85 15 9d bd 25 0c 71 be
       0.8458788 -0.85053724 -0.0767012 -0.23539789
000040 94 56 82 be c2 b0 47 3f 97 c1 dc 3e 94 7b 95 3e
       -0.2545668 0.78004086 0.43116447 0.29195845
000050 73 7b ca be 54 a9 83 3e 9c 54 be 3e e9 56 7c bf
       -0.3954731 0.25715125 0.37173927 -0.98570114
000060 4b 09 09 3f 0e 76 38 3f 90 d2 92 bc 1d 09 88 3f
       0.53529805 0.7205514 -0.01792267 1.0627781
000070 bf bf c5 3c af ba 27 3f dc e2 ab be 70 40 6e bf
       0.024139283 0.6551923 -0.33571517 -0.93067074
000080 c6 39 20 3f 0e c3 0c 3f 94 5e 97 be f6 58 d8 3e
       0.62588155 0.5498513 -0.29564345 0.42255372
000090 0e c9 c8 be 90 c0 cc 3e 9f 8a 83 3f f2 1b 00 be
       -0.39215893 0.39990664 1.0276679 -0.1251066
0000a0 74 f6 44 be 4f bb ab bf 9c bb 8a 3f c0 66 b3 bf
       -0.1923464 -1.3416537 1.0838504 -1.4015732
0000b0 03 36 38 3f e8 df 4a 3e 53 c8 79 3e f3 78 84 3e
       0.71957415 0.19811976 0.24392824 0.25873527
0000c0 72 ea 3e be 21 12 23 bf 18 f6 89 be a7 82 0d 3f
       -0.18644121 -0.6369954 -0.26945567 0.55277485
0000d0 bc 0e a4 bd 16 d1 1c bf 30 17 7b 3f c5 5b 50 3e
       -0.08010623 -0.6125654 0.98082256 0.20347507
0000e0 9d 1e 12 bf 85 3a 47 3e de 9f 1c 3d f9 f3 09 be
       -0.5707796 0.19455917 0.0382384 -0.13471974
0000f0 d4 89 33 bc da bb be bf 92 31 d6 3f 03 e6 2e 3e
       -0.010958154 -1.4901078 1.6733878 0.1707993
000100 6c 06 27 3f c6 05 6e 3f 8b 6e 25 bb 97 fb 5c bf
       0.65244174 0.9297756 -0.002524289 -0.86321396
000110 0c 5f fa be 48 01 78 be 04 7d 31 3f de aa 57 bf
       -0.4890064 -0.24219239 0.69331384 -0.842451
000120 3b ec fc be 33 04 30 bf 9b b3 f8 be a4 58 62 bf
       -0.4939898 -0.6875641 -0.48574528 -0.88416505
000130 18 b1 2f 3f 2d 24 49 3e db e1 1f 3e 5e b3 ea be
       0.686296 0.19642706 0.15613501 -0.4583997
000140 74 25 a1 3e e4 e8 88 3e a1 d6 e9 3e 08 92 b2 bc
       0.31473887 0.2674018 0.4567156 -0.021798149
000150 17 e9 9d bd 64 31 c1 3e 7f ca 20 be ae d1 d6 3d
       -0.07710474 0.37732995 -0.15702246 0.10489212
000160 cc 6e 1e 3e 92 87 75 3e 41 60 40 be 2d f7 0d be
       0.15471953 0.23977497 -0.18786718 -0.13863821
000170 24 ff 2e be de af 36 be 6a 25 8c 3d 61 76 3a 3e
       -0.17089516 -0.17840526 0.06843074 0.1820922
000180 50 49 f0 be 61 56 b7 3e 91 1c 77 be 53 31 ee be
       -0.46930933 0.3580809 -0.24131991 -0.46522006
000190 93 9f 1d bf 86 9d 00 bf de e4 7e bc 67 7f ae 3e
       -0.61571616 -0.5024036 -0.015557496 0.34081575
0001a0 a3 f4 21 3e 2a be f9 3d 98 42 0b 3f d8 74 1d bd
       0.15815978 0.12194474 0.5439849 -0.03844151
0001b0 4a 74 13 be 3e 1f 8f be 25 c1 f1 bd 9c af 9c bf
       -0.1439983 -0.27953523 -0.118044175 -1.2241092
0001c0 b4 00 6a bd 36 a7 2d 3f 1b 21 37 be 72 f6 36 3f
       -0.057129577 0.6783327 -0.17883722 0.71469796
0001d0 66 32 a0 be 5e 8f 0a 3f d2 34 4f bf a1 15 82 3e
       -0.3128845 0.5412501 -0.8093997 0.25407127
0001e0 9f db 28 3e b8 85 65 3e 59 dc 3c be db 06 4c be
       0.16490029 0.22414291 -0.18443431 -0.1992449
0001f0 07 49 70 be 81 b2 bb bd 42 b4 87 3e fd c1 82 3e
       -0.23465358 -0.09164906 0.26504713 0.25538626
000200 d6 2d d5 3e 34 eb a8 bd ed e3 33 bd 4e 3a 2d be
       0.41636533 -0.082479864 -0.04391854 -0.16916773
000210 1f 18 2e 3f 5a fd 06 bf f2 7b 10 3e 27 21 9d be
       0.68005556 -0.52730334 0.14109781 -0.30689356
000220 4b 6c 68 bb d0 44 84 3e fb 7a 2c 3f 16 ee e7 3e
       -0.0035464938 0.2583375 0.67375153 0.45298833
000230 18 c2 be bd 15 e7 90 bf bd d3 59 3d ae 12 55 3f
       -0.09314364 -1.1320521 0.053180445 0.8323163
000240 5c 90 4c bf 65 2a 68 3f 68 7a 90 bd 7a 0c f5 3e
       -0.79907775 0.9068969 -0.07054597 0.4786108
000250 b8 84 c2 be 44 e1 2b bf 14 91 ff 3e 48 b9 9d 3f
       -0.3799188 -0.67140603 0.49915373 1.2322168
000260 0c 35 3e 3f ec bf 08 be 95 51 b1 3e 46 0c 2d bc
       0.74299693 -0.13354462 0.34632555 -0.010562008
000270 d7 3e ec 3d bb 03 09 3e ea 95 2e bf 86 28 d9 bd
       0.11535423 0.1338033 -0.681975 -0.10603432
000280 ae 41 5a bf 30 6e a0 bd 86 7a 57 bf 90 5c 94 3e
       -0.8525647 -0.078335166 -0.8417133 0.2897687
000290 1e 71 75 be 59 6d f1 3e fe 1d 30 bf 98 1f c8 be
       -0.23968932 0.47153738 -0.68795764 -0.39086604
0002a0 8c 92 99 3e 1e ec 12 bf cc 42 61 bf b0 58 8c bd
       0.2999462 -0.57391536 -0.8799255 -0.06852853
0002b0 1d 59 a0 be 38 5a 32 3f 24 dd 76 be 8e ae cb be
       -0.31317988 0.6966891 -0.24107796 -0.39781612
0002c0 4c 56 ee 3e 9b 6c 97 3e b2 8a e6 bd a7 b6 ab 3e
       0.46550214 0.29575047 -0.11256923 0.3353779
0002d0 5e eb 3c bf b1 76 80 bd e6 de 64 3f b1 50 65 bf
       -0.7379664 -0.062726386 0.89402616 -0.8957625
0002e0 fc 93 82 3e 36 0f e6 3d 40 a1 45 3d b5 35 24 3f
       0.25503528 0.1123337 0.048249483 0.6414445
0002f0 e7 59 26 3d 41 2a 0d bf 99 80 f9 be df 72 0f bf
       0.04061308 -0.551426 -0.48730925 -0.56034654
000300 40 62 68 bf 80 02 c9 bd a1 c4 31 bd 4a 62 6b bd
       -0.9077492 -0.0981493 -0.04340041 -0.057466783
000310 19 2e 22 be 21 23 9b 3f 92 3d 4d be 9d 7a 7b be
       -0.15837897 1.2120095 -0.20043018 -0.24558492
000320 f0 d2 1f be ef e0 89 3e da 56 fd bd 8a 5f 23 3f
       -0.1560781 0.26929423 -0.12370081 0.63817656
000330 47 4a dc 3d 49 de b0 bf 3e e3 bc be 6c e9 38 bd
       0.10756355 -1.3817836 -0.36892122 -0.045144483
000340 b8 1b f7 bf 5e 9b 80 be 9b ff 54 3e eb c2 a6 3f
       -1.9305334 -0.25118536 0.20800631 1.3028234
000350 0c 28 9e be 1c 0b fa be 39 14 85 3f 92 90 28 3e
       -0.30889928 -0.488366 1.0396796 0.16461399
000360 b2 e6 0e 3e e0 81 0b bf 33 7a 3e 3d fa 89 bf bc
       0.13955191 -0.5449505 0.046503257 -0.023381222
000370 05 25 5b bf 1f 19 0c be 45 e4 bf bf 30 c2 9e 3e
       -0.8560336 -0.13681458 -1.4991537 0.31007528
000380 25 ab 01 bf 3c 96 42 bf 58 04 9b 3e d6 71 c3 be
       -0.5065177 -0.7601049 0.30276752 -0.38172787
000390 42 9e 12 3c 0d 55 76 3c 33 03 cd bf 61 1a 20 c0
       0.008948864 0.015034926 -1.6016601 -2.50161
0003a0 4d 27 9d 3e b0 d3 05 bf 5a 29 30 bf 7a 0e 9e bf
       0.30694047 -0.52276134 -0.688131 -1.2348168
0003b0 d0 f8 b9 bf d8 a5 2e bf 08 d9 27 bf 4e 2c 8a bf
       -1.4529057 -0.6822181 -0.6556554 -1.0794771
0003c0 2d 18 0d 3e 57 c4 50 bf fb f5 fc 3d 1d c0 6f 3e
       0.13778754 -0.8154959 0.123516046 0.23413129
0003d0 b8 45 0f 3f 38 fc 71 3e ad a9 fc 3e ac b8 5f 3d
       0.5596576 0.2363137 0.49348202 0.054619476
0003e0 da 53 48 3f f7 f8 b0 bf 19 6b 78 be 50 b8 92 3f
       0.7825295 -1.3825978 -0.24259605 1.1462498
0003f0 83 e9 1b 3f ba eb 53 3f 42 fb 0a 3f c6 23 9f 3d
       0.60903186 0.82781565 0.5428964 0.07770495

module.lstm.bias_ih_l0 f4 [80]
000000 2d 7a 3a 3e 84 76 26 3d 8f 57 b4 3d cc 36 05 3e
       0.18210669 0.04064037 0.08805763 0.13009185
000010 80 42 d7 bd d9 11 82 be 86 94 96 bc b3 ca cc 3e
       -0.10510731 -0.25404242 -0.018381368 0.39998397
000020 61 da bb bd 3b 97 a1 bd 7e aa 9b 3e e8 97 1f bf
       -0.09172512 -0.07890173 0.30403513 -0.62341166
000030 b7 ea 8b 3e be 96 1c 3f 0b 1d 20 bf 0e 88 fc bd
       0.2732751 0.61167514 -0.62544316 -0.12330638
000040 3b 4e 35 3e ff 36 24 3d 10 b2 a8 3e e7 25 84 3e
       0.17705624 0.04009151 0.3294835 0.25810167
000050 4d 62 80 3e c2 4d 57 3e f5 46 59 3e db 00 27 3e
       0.25074998 0.21025756 0.21218474 0.1630892
000060 43 2b 9d 3d e7 57 5c 3e 65 99 4f 3f 9e 0b 71 3e
       0.07674267 0.21517907 0.81093436 0.23539588
000070 11 49 93 bd 55 18 b6 3e ad 47 31 bd d4 2d 40 be
       -0.07191671 0.3556544 -0.043281246 -0.18767482
000080 83 a6 dc 3e 43 54 28 be 8d 0e 30 3f 79 4f ed 3e
       0.43095788 -0.16438393 0.687722 0.46349695
000090 32 d9 3e be 1a de 6b 3e 76 79 ff bd 72 84 29 be
       -0.18637541 0.23033944 -0.12474339 -0.1655443
0000a0 3c 3e 3f be 3a fa d4 bd 24 6a ba 3d 59 7f b2 3d
       -0.18676084 -0.103992894 0.09102276 0.08715696
0000b0 0f 4f 34 3e 9f 4a 9f bd 6a 08 69 3d 6f 49 16 bd
       0.17608283 -0.07777905 0.05689279 -0.036691125
0000c0 08 6d 0e bb 40 43 40 be ea b1 c1 3d 8f b6 d6 bd
       -0.0021732468 -0.18775654 0.094577625 -0.10484039
0000d0 b2 ac dc 3c 9b 89 a6 be ff d1 cb bd 30 21 ce bd
       0.026937816 -0.3252686 -0.09952163 -0.10064924
0000e0 d6 87 4e be d1 96 95 3e 30 1c 23 3d 0a 42 51 3e
       -0.20169005 0.29216626 0.039821804 0.20435348
0000f0 e2 87 ad 3e 9f 19 38 3e 85 e5 bf 3e 5e 26 57 3e
       0.33892733 0.17978524 0.37479797 0.2101073
000100 c8 c4 88 3e e0 c3 86 3e 6e bd 06 3e 26 a3 87 3e
       0.26712632 0.26321316 0.13158199 0.2649166
000110 ec 59 19 be 21 34 15 3e b2 d0 31 3e 8e 8d 54 bc
       -0.14975709 0.14570667 0.17364767 -0.012973202
000120 24 59 77 3e 3f 87 57 3f 80 5e 21 3e bd b0 88 3e
       0.24155098 0.84190744 0.15758705 0.2669734
000130 a8 58 fa 3d 34 4e 21 3e 8b 95 e9 3e af 5c 0b 3f
       0.12223941 0.15752488 0.45621905 0.544383

module.lstm.bias_hh_l0 f4 [80]
000000 78 3b 4e be a2 f2 a7 bd c1 26 05 3d f6 cd 2a be
       -0.20139873 -0.082005754 0.03250766 -0.1668013
000010 1d 64 d7 3d dc c6 82 bc cf ff c8 be 1d 52 8f 3e
       0.10517142 -0.015963964 -0.39257666 0.27992335
000020 fc ed 4e bd c1 97 12 3e 0d 10 14 3e 7d de a4 be
       -0.05051993 0.14315702 0.14459248 -0.32200995
000030 1f 09 02 3e b9 ae ef 3e 37 7e b5 be 01 5e 81 bd
       0.12698792 0.4681299 -0.35447857 -0.06316758
000040 2c d2 25 3e 53 3d f0 3d c5 2a 9d 3d 8e bd b3 3e
       0.16193455 0.11730447 0.07674173 0.35105556
000050 67 c8 f9 3e 05 8a f5 3e 57 c9 f7 3e eb 15 e3 3e
       0.48785707 0.47956863 0.48395798 0.4435266
000060 e7 e5 26 3e e6 bb 47 3e cd d1 30 3f c5 b9 60 3d
       0.16298638 0.19505271 0.6907013 0.054864664
000070 4d 97 35 be 2e a9 a0 3e 99 21 72 bd 81 cd 3c 3e
       -0.17733498 0.31379074 -0.059114072 0.18437769
000080 ee 86 c6 3e 0b c3 a9 be 32 08 45 3f 0b f4 ea 3d
       0.38774818 -0.33156618 0.7696563 0.11472329
000090 c9 8c bc bd e0 8d 25 be 13 b5 f2 3d ad 83 e6 be
       -0.0920654 -0.16167402 0.118509434 -0.45022336
0000a0 b5 61 7b be 62 d6 47 be 1f 37 23 3e 49 80 30 3d
       -0.24548991 -0.19515374 0.15938996 0.043091092
0000b0 88 ac 41 be db 77 20 be 00 9d 28 be b2 56 64 bc
       -0.18913472 -0.15670721 -0.16466141 -0.013936685
0000c0 22 e5 13 3e db 12 45 be af 06 23 bd 5b 0f 00 be
       0.14442876 -0.19245474 -0.039801296 -0.12505858
0000d0 5b a5 2c be f3 4f 87 be 9e b2 c7 ba 29 bd 84 3d
       -0.16859953 -0.26428184 -0.0015235727 0.06481392
0000e0 3d d2 52 3d 20 13 82 3e 28 32 91 be e7 57 d8 3d
       0.05147003 0.25405216 -0.2835858 0.10563641
0000f0 dc 46 0c 3e 32 88 71 3d ed 49 a6 3e 60 4c 23 3e
       0.13698906 0.058967777 0.32478276 0.15947104
000100 bc e0 85 3d 03 80 20 be d4 d5 83 bd 34 f3 91 3e
       0.06537005 -0.15673833 -0.06437269 0.28505862
000110 90 13 9d 3d 82 8b e5 bd 77 a2 76 3e 5a 69 6e be
       0.07669747 -0.1120825 0.24085413 -0.23282376
000120 2e de ba 3e 06 67 80 3f 30 70 3b 3d 59 12 8c 3d
       0.36497635 1.003144 0.045761287 0.06839437
000130 ad 48 25 3e f4 e8 ff 3d 80 e7 1b 3f ac ef 0a 3f
       0.16141005 0.12495604 0.60900116 0.5427196

module.lstm.weight_ih_l0_reverse f4 [80, 20]
000000 fb d7 4b be 72 53 0a 3f c8 d4 69 3f b1 7c 99 3e
       -0.19906609 0.5403358 0.91340303 0.29977944
000010 16 69 72 bf 94 a1 08 3e 07 7e 0a 3f d3 99 64 bf
       -0.946916 0.13342887 0.5409855 -0.8929722
000020 0d 49 14 3e 8a cf 55 bf 94 94 5a be e2 9d 57 3f
       0.14480992 -0.83519804 -0.2134574 0.84225285
000030 8d b3 a6 3f 3e f6 38 3f 53 99 0c 3f d8 fc 2c bd
       1.3023545 0.72250736 0.54921454 -0.042233318
000040 30 68 81 3d 1c 91 2e bf b0 07 b5 be 34 f4 25 3d
       0.063187 -0.6819017 -0.35357428 0.040516093
000050 09 fd a1 3d 8c f6 40 bf 90 f4 99 bd b6 06 c3 ba
       0.07909591 -0.753762 -0.0751735 -0.0014879319
000060 1f f7 7c 3f ba 64 44 bf 08 90 e0 3e 7c b9 1d 3e
       0.98814577 -0.76716197 0.43859887 0.15402788
000070 3f a4 ae be b0 9a 03 bf 56 9e 6d bd 15 c1 e1 be
       -0.34109685 -0.5140791 -0.05801233 -0.44092622
000080 e0 30 30 3f 03 82 76 be a9 b1 9f 3d c2 0c 8f bf
       0.6882458 -0.24073033 0.07797558 -1.1175768
000090 6f 76 04 be ea 25 56 3e 9e 26 58 3f b2 78 a1 3e
       -0.12935804 0.209129 0.84433925 0.31537396
0000a0 01 be 7d bf b0 33 ed 3e 6c 98 b0 3f e0 3b 60 3f
       -0.9911805 0.46328497 1.3796515 0.8759136
0000b0 5c d9 0b bf b6 bd 0d bf 51 22 ee 3e 62 05 ff bd
       -0.5462854 -0.553676 0.46510556 -0.124521986
0000c0 0b ea c9 3d 39 73 44 3e cf 99 87 3f 18 e7 e4 3f
       0.09859093 0.19184579 1.0593814 1.7883024
0000d0 a2 a3 51 be 1a a2 b0 be 22 b4 cc be 1f c2 01 3f
       -0.20472577 -0.34498674 -0.3998118 0.5068683
0000e0 74 01 c7 3e 58 dd 8d be 44 10 97 bd ad b6 3e bf
       0.38868296 -0.27707934 -0.07376149 -0.7449749
0000f0 a9 e9 0a 3e d0 d6 9b be f1 98 4e 3d ef 1e f5 3e
       0.13565697 -0.30437326 0.050438825 0.47875163
000100 1f 45 3f bf 7c 7c 2d 3f e9 88 e7 be a3 f5 32 bf
       -0.74714845 0.67768073 -0.45221642 -0.6990606
000110 95 3a 82 3f 70 62 85 bf 41 0b 19 bf cf 9e 54 bf
       1.0174128 -1.0420666 -0.597828 -0.8305482
000120 bb c8 86 bf 07 c6 35 3f 23 20 4d 3f 62 6d e9 3e
       -1.0530008 0.7100529 0.8012716 0.45591265
000130 4f 40 54 3f e4 b6 35 bf 8a 7a 68 3c 0f 29 5e 3e
       0.8291063 -0.70982194 0.014189372 0.2169535
000140 5c c8 4c 3f 96 1e 25 bf 37 05 04 3f 41 89 22 be
       0.79993224 -0.64499795 0.5157046 -0.1587267
000150 ec 6d ac 3e 47 b4 95 bd 1c 2f b4 be ab 9f 58 be
       0.33677614 -0.07309776 -0.35192192 -0.21154658
000160 6b 30 35 3e bf d3 8d bf 16 61 58 be e8 4b 3b bf
       0.17694251 -1.1080245 -0.21130785 -0.731627
000170 ae 9e 90 3f 4a 3b 03 bf b9 76 3c 3d 74 2f 76 be
       1.1298425 -0.5126234 0.04601166 -0.2404154
000180 74 80 f5 bc 40 e4 5c be 54 0e 81 40 ed 43 30 3f
       -0.029968478 -0.21571445 4.032999 0.68853647
000190 22 2d 36 3f 01 92 5b 3f 17 e8 8b bf 7d 93 7a be
       0.7116262 0.8576966 -1.0930203 -0.24470325
0001a0 9a 5e fa 3e 6a a4 f3 3d 43 ce ff bc 87 a2 8c bf
       0.489003 0.11896594 -0.031226283 -1.09871
0001b0 33 43 98 3f ff b2 5d bf c6 e7 29 bf 43 20 1c bf
       1.1895508 -0.8660125 -0.66369283 -0.6098673
0001c0 21 59 e9 3d 89 f9 66 3f 70 b6 09 3c 5a ea 09 3e
       0.11393953 0.9022451 0.008405313 0.13468304
0001d0 b8 95 e4 be f5 ee 09 bf 37 2e 22 3f 3c 93 01 be
       -0.44645476 -0.53880244 0.6335177 -0.12653822
0001e0 2a 0b 76 3d 4b d5 1b bf fc 57 6c bf 0a 1c c7 3e
       0.06006924 -0.60872334 -0.92321754 0.3888858
0001f0 84 df 24 3f e7 a9 95 be c2 a5 78 3f cc 39 38 bf
       0.6440356 -0.29231188 0.97127926 -0.7196319
000200 70 c7 eb be 59 c3 71 bd af 1d 9e be b7 d6 e9 3e
       -0.46050596 -0.05902419 -0.30882022 0.45671627
000210 84 f8 9d bf 09 85 84 3f 73 fb 2c 3f 6d 5d 1b 3f
       -1.2341466 1.0353099 0.6757118 0.6068943
000220 b1 62 fa 3f 80 31 ae be a8 67 de bf 2c 1b 4e 3f
       1.9561368 -0.3402214 -1.7375383 0.8051021
000230 cf 34 25 be c0 9f 73 3f 3c d5 ac be a5 62 4d bf
       -0.16133426 0.95165634 -0.33756435 -0.80228645
000240 f9 92 e3 bc a0 79 ab 3e 6b 79 38 bf 73 b5 6f bd
       -0.027780043 0.3349123 -0.7206027 -0.058522653
000250 65 e8 77 3e 3d a8 f0 3e 0e a2 02 3f 10 ee dc be
       0.24209745 0.47003356 0.51028526 -0.43150377
000260 0f fa 81 3f 15 7c 86 3e 21 7a 9e bd a2 c3 c0 bd
       1.0154437 0.26266542 -0.07738138 -0.09412314
000270 e9 5a b0 3e d1 3c af be 67 96 18 3f de e8 dd be
       0.3444436 -0.34226087 0.59604496 -0.43341726
000280 15 2c dc 3f 3d 52 da 3f 1e a1 6b bf 1d e1 bf bf
       1.7200953 1.7056347 -0.9204272 -1.4990574
000290 0c 5a 2b 40 ec 17 b2 3f f6 af d6 be b9 be ae 3f
       2.677371 1.391355 -0.41931123 1.3651954
0002a0 0c 40 8d bf 82 39 91 3f b3 a0 5c 3f eb c3 a7 bf
       -1.103517 1.1345675 0.8618271 -1.3106664
0002b0 bc f5 97 bf 37 9e 7a bf fb 30 a5 bf 96 88 5d bf
       -1.1871867 -0.97897667 -1.2905573 -0.8653654
0002c0 79 4e fe be 8f 02 9f 3f 9c d4 61 3f a8 42 a9 3f
       -0.49669245 1.2422656 0.8821504 1.3223467
0002d0 eb 85 72 3f a6 e2 a0 bd 5a d2 f8 3d 54 eb f7 3d
       0.9473559 -0.0785573 0.121494964 0.12105432
0002e0 3a b7 97 3f ae 51 27 3e 59 ad 5e bf b6 65 05 40
       1.1852791 0.16339752 -0.8698326 2.084333
0002f0 c8 89 87 be 2d 25 6d 3f 6a 3c 0a bf 0f b7 b6 be
       -0.26472306 0.9263485 -0.53998435 -0.35686538
000300 0c a0 0c 40 9d 82 3b 3f c0 fb b7 bd 2d 4c 0f be
       2.1972685 0.73246175 -0.089835644 -0.13993903
000310 6f 2a 92 be a9 e2 c3 3f 5c 76 70 be 2f bb 13 bf
       -0.28548 1.5303546 -0.2348265 -0.57707494
000320 71 c6 39 be 76 30 9c bf 45 8b 8f 3f 8d 89 15 3f
       -0.18142106 -1.2202289 1.1214377 0.5841301
000330 d1 69 1f be ba 2a 16 40 86 85 99 bd d6 ff 91 3e
       -0.1556771 2.3463578 -0.07496171 0.285155
000340 4f e0 e1 bd e3 55 d4 bc 3d b1 e0 be ad c6 4f be
       -0.110291116 -0.02591986 -0.43885222 -0.20290633
000350 3e d7 83 3f d6 2c 8c 3e b3 b2 8d 3e cd 2a a4 be
       1.0300062 0.27377957 0.276754 -0.32063904
000360 52 f9 47 bd 25 9b e5 3e f8 bb 8a 3f ff 26 9b 3e
       -0.048821755 0.44844928 1.0838614 0.3030319
000370 24 20 94 3e d1 56 5c bf 56 2d 90 3e ec c6 e4 be
       0.2893077 -0.8606997 0.2815959 -0.44683015
000380 9e c9 1a bf f2 40 65 be d5 1f ba be 5e e8 54 bf
       -0.60463893 -0.22388056 -0.3635241 -0.83167064
000390 b6 86 aa be c3 81 17 bf d8 ea 67 be 47 8b 95 3d
       -0.333059 -0.59182376 -0.2264818 0.07301956
0003a0 51 50 4e 40 b5 1f 9f bd e5 79 04 bf 6b 6a f6 3b
       3.2236521 -0.077697195 -0.51748496 0.00752001
0003b0 59 b3 12 3e f3 10 7c be a5 83 16 c0 fc 36 33 bf
       0.14326228 -0.2461584 -2.351785 -0.70005774
0003c0 32 a6 b1 be a1 2b 8c bf a8 67 48 3e c3 56 05 bf
       -0.3469711 -1.0950814 0.19570792 -0.5208551
0003d0 b4 af 3f 3e 8a a4 bc be ea 8a 3e 3e 17 b1 ae be
       0.18719369 -0.36844283 0.18607679 -0.34119484
0003e0 ca 32 c9 be f1 dc 83 bf 14 05 5a bf dc f0 c4 3e
       -0.3929656 -1.0301801 -0.85164 0.3846501
0003f0 cc de 37 3e a8 66 55 3f 64 46 a6 3e da bc b7 be
       0.17956084 0.83359766 0.3247558 -0.3588627

module.lstm.weight_hh_l0_reverse f4 [80, 20]
000000 0b eb 98 3e e4 73 fd bc a8 da fe be 5a 45 f7 3d
       0.29866824 -0.03093905 -0.49776196 0.12073775
000010 45 5e d4 be d5 a9 f5 be 75 ba c5 3c b4 2f 82 be
       -0.41478172 -0.47981134 0.024136761 -0.2542702
000020 b9 ca 10 bf d1 55 bc be ca 7a c9 3e 7e 64 55 3f
       -0.5655933 -0.36784223 0.39351493 0.83356464
000030 0c 19 4f 3f cc 3c ac bb f2 10 19 bf 24 1f 6a bf
       0.80897593 -0.005256271 -0.5979148 -0.91453767
000040 98 22 5e 3f cf 70 20 bd bd c1 3a 3f f1 68 85 3e
       0.86771536 -0.039170083 0.7295187 0.26056626
000050 63 3a 02 bf 36 a5 08 3d 65 a9 81 3e 47 ba 92 3f
       -0.5087034 0.033360682 0.2532455 1.1463097
000060 c3 df 79 bf b4 85 07 3f 30 26 d7 3e 8e 35 34 bf
       -0.9760706 0.5293839 0.42021322 -0.7039422
000070 19 91 06 bf 0d 7b 8a 3e 23 69 2b bf 9c f1 85 bf
       -0.5256515 0.27047005 -0.669573 -1.0464358
000080 b2 78 ee 3c f9 c4 9c 3d c4 6b 06 3f 0f 53 96 3f
       0.029110286 0.07654757 0.5250819 1.1744097
000090 55 7d 5f be 9f 18 4d be 1f 7e 0d 3f ef 1a 88 be
       -0.21825154 -0.20028923 0.5527057 -0.2658305
0000a0 db f1 97 be 36 ce 22 bf 27 0a 5a be bd 80 a2 3e
       -0.2967671 -0.635959 -0.21292935 0.31738845
0000b0 be 27 9d bd 99 cc 7f 3f 1f e3 1f bf 69 ee 21 3f
       -0.07673596 0.99921566 -0.62455934 0.6325441
0000c0 e5 a8 79 bf 55 ae 9c 3e 08 10 c1 3e e6 f7 55 3f
       -0.9752334 0.30601755 0.37707543 0.8358139
0000d0 a9 7c 1f be ed 50 f1 be 62 21 10 bd 0a 54 18 3f
       -0.15574898 -0.47132054 -0.035188086 0.59503233
0000e0 75 50 97 be d7 03 9d 3d 06 a7 21 bf 57 30 9f 3e
       -0.2955357 0.07666748 -0.6314548 0.31091568
0000f0 a2 8d f5 bd 16 5d 82 3f c6 6f cc be 53 ed c0 be
       -0.11989905 1.0184658 -0.39929026 -0.37681064
000100 d9 92 97 be fa c0 59 bf c7 2d 9b 3f 4d 4c 25 bf
       -0.29604223 -0.85060084 1.2123345 -0.6456955
000110 51 c0 29 3d ab d7 85 bf 16 ee 20 bf 48 a4 eb bd
       0.041443173 -1.0456442 -0.6286329 -0.115059435
000120 4c 5b 65 be 66 4d 86 3e b7 f6 82 3f fb 7e c1 be
       -0.22398108 0.26230925 1.0231541 -0.3779219
000130 f8 3f 5c 3d 7f dc 89 bf f7 d3 0c 3f e1 20 91 3e
       0.053771943 -1.0770415 0.5501093 0.28345397
000140 76 18 44 3d a7 6e ad 3e 02 9c 0f be 3b a6 44 3f
       0.04787489 0.33873484 -0.14024356 0.7681615
000150 cc ae 1c 3d f6 46 5d bf 9e 31 5b 3d c6 99 0b 3f
       0.038252637 -0.864364 0.053514116 0.54531515
000160 f2 b0 2e 3f 4c 59 f1 be 1e 95 9a 3d 88 66 3a bf
       0.6823875 -0.4713844 0.07547973 -0.728127
000170 a6 51 df 3e 88 a5 e2 3c 38 29 82 3d e0 1a f0 bd
       0.4361698 0.027666822 0.06355518 -0.11723876
000180 73 a5 0a 3e c4 b9 d2 be 66 e8 8f 3f 44 36 d4 3d
       0.13539676 -0.41157353 1.1242797 0.10361913
000190 b2 5e bd bc 3f 43 ea be 6a c0 06 3e 58 2d 99 3f
       -0.023116443 -0.4575443 0.13159338 1.1966963
0001a0 6d 31 fa be fe 5b 5c 3d a3 a4 8f 3e 67 be 40 3f
       -0.48865834 0.053798668 0.28055295 0.7529053
0001b0 63 65 9f bf a3 6e 18 3f 95 e3 97 be f6 d6 91 be
       -1.2452816 0.5954382 -0.2966582 -0.28484315
0001c0 e7 c1 f3 bd a5 6b aa be d2 b1 2b bd 8e b1 0f 3e
       -0.11902218 -0.3328525 -0.04191763 0.14032575
0001d0 84 64 41 be 6e e8 5c be 8a 6e 56 bf e5 59 6f bd
       -0.18886 -0.2157304 -0.8376242 -0.05843534
0001e0 69 57 66 3f e9 77 8e be 8e a8 35 bf d6 88 03 bf
       0.8997713 -0.2782586 -0.7096032 -0.5138067
0001f0 5a 4f 13 3f ed d2 38 3f 3b c2 0b 3e 47 3f 16 3e
       0.57542956 0.7219685 0.13648312 0.14672576
000200 a5 c1 15 3e 62 90 8c be e8 e6 b2 3f d9 cc 03 be
       0.14624651 -0.27453905 1.3976717 -0.12871112
000210 f2 35 85 3f a0 6e 3a be ad f6 00 3f e1 1d bc be
       1.0407088 -0.18206263 0.503764 -0.36741546
000220 b8 78 27 3f 06 e8 c5 bd 6a 1b f3 3e 67 13 ed 3d
       0.6541858 -0.096633956 0.47481853 0.11575966
000230 ae d1 5b be b9 51 9d 3e dc 06 a8 be 67 65 cd 3d
       -0.21466705 0.30726412 -0.32817733 0.100291066
000240 6f 8b 47 3e 30 3d 5c be a4 18 05 bf 98 be 51 be
       0.19486783 -0.21507716 -0.51990724 -0.20482862
000250 47 45 30 3d ea 6d 01 3d 67 f6 f2 be f3 57 80 bf
       0.043034818 0.031598963 -0.47453615 -1.002684
000260 3f 48 cc 3e 19 97 0d 3f ed 73 cb be a5 a3 0d bf
       0.3989887 0.5530868 -0.39736882 -0.55327827
000270 32 86 2d bf 77 08 82 3e 97 22 b1 be 2a 77 b4 3e
       -0.6778289 0.25397083 -0.34596702 0.35247165
000280 c8 e4 56 bd af e4 9b 3e 65 f7 22 be 1a b9 5f 3e
       -0.052464277 0.3044791 -0.15914686 0.21847954
000290 9f aa 9e be a3 f8 66 3e e2 99 b5 3e 34 b8 fc 3e
       -0.3098955 0.22555785 0.35468966 0.49359286
0002a0 03 6a fd be 58 fa 7b be ee c1 f7 3e c0 06 27 3d
       -0.49494943 -0.24607217 0.48390144 0.04077792
0002b0 7b 94 e1 3d bb 9a 18 bf 20 84 a3 bf 28 18 67 be
       0.110146485 -0.596111 -1.2774696 -0.22567809
0002c0 78 3f 3b 3d df d2 48 bf 2f 2a a8 be 35 ba 46 3c
       0.045714825 -0.78446764 -0.32844684 0.012129356
0002d0 a0 c4 85 bf 60 5b 1b bf e9 07 87 be ab 12 10 3f
       -1.045063 -0.606863 -0.26373222 0.56278485
0002e0 d3 c6 44 bf a7 3c b3 3e b4 6e 23 3e 2e 97 b0 be
       -0.7686588 0.35007212 0.15960199 -0.3449034
0002f0 47 41 52 3f 7d de be 3e 6d 36 40 3f 68 8c 2c be
       0.82130855 0.3727912 0.7508305 -0.16850436
000300 ad 5a 40 3e 26 e3 a3 be f5 46 e1 3d 57 55 14 be
       0.1878459 -0.32009238 0.10999862 -0.1448568
000310 2f 8d 3b 3e 4d f4 22 3e f5 58 3a 3e ca b1 0a 3f
       0.18315576 0.15913506 0.18197997 0.54177535
000320 9f b8 a9 3f 1b cc ac 3d fa ce 68 be db de fb 3e
       1.3259467 0.084373675 -0.22735205 0.49193463
000330 d8 aa a7 ba e9 d8 25 3f 3e 60 9e 3e d1 de c8 3e
       -0.0012792004 0.64784104 0.30932802 0.39232495
000340 60 0e e9 3e da af fd 3c 19 7b df be 32 93 91 bd
       0.4551878 0.030967642 -0.43648604 -0.071081534
000350 6a 3c af 3e e4 b8 f0 bd 60 c5 13 c0 89 0c db be
       0.3422578 -0.11754015 -2.3089218 -0.42783
000360 7d d1 08 3f 38 28 f7 be d0 37 bf bf 09 09 bd 3d
       0.53444654 -0.48272872 -1.4938908 0.09230239
000370 36 d8 a2 3d 5c 90 ee be 75 1c 0b bf 66 de 3f be
       0.07951395 -0.46594512 -0.54340297 -0.18737182
000380 2b cc 0b 3e eb 92 c9 3e 3e 12 32 be 40 5d 0b bf
       0.13652103 0.39369902 -0.17389771 -0.54439163
000390 9d 7a 2f bf ff 15 eb 3e 1d c4 00 3f d6 91 17 bf
       -0.6854647 0.4591522 0.50299245 -0.59206903
0003a0 0f 39 03 bf 3e 43 b6 3e fc 05 8d 3b 99 1b 04 3f
       -0.5125894 0.35598177 0.004303692 0.5160461
0003b0 42 a3 4b bf e0 66 81 be 18 7c 15 3f df 07 97 be
       -0.79545987 -0.252738 0.5839248 -0.29498193
0003c0 2e 93 55 be ea 64 aa be de 69 70 be 1f 6c 29 bf
       -0.20856926 -0.33280116 -0.23477885 -0.66180605
0003d0 96 56 39 be 08 6c 9b 3f 00 05 a7 be 80 d2 35 3f
       -0.18099436 1.2142344 -0.32621002 0.7102432
0003e0 34 e8 00 bf 60 b8 f3 be 51 19 e0 bd 6f 69 3f bf
       -0.50354314 -0.47601604 -0.10942329 -0.74770254
0003f0 bf 72 fc 3d 9b 1d f7 3d aa 62 96 3e b3 1c c7 3e
       0.123265736 0.12066194 0.2937215 0.38889083

module.lstm.bias_ih_l0_reverse f4 [80]
000000 b0 16 55 3e 49 95 bb 3e 3f 03 07 3b 5d 46 49 3e
       0.20809436 0.36637333 0.00206013 0.19655748
000010 6a 41 c4 bd c4 39 97 3e 9a d1 0a bd 9c c5 c4 3c
       -0.09582789 0.2953626 -0.033891298 0.024020009
000020 da 5c 91 bd 0a dd 14 3f 3c da 06 3f 12 dd 6f bd
       -0.07097788 0.5814978 0.5267675 -0.05856044
000030 6d f4 45 bc bd 2c f7 3e 2b 10 1e 3f fa 41 97 3d
       -0.012082201 0.4827632 0.6174342 0.07385631
000040 0b e8 39 be 39 09 d6 3d cc 36 a3 3e 75 5f d6 be
       -0.18154924 0.10450978 0.31877744 -0.41869703
000050 77 7c c2 3b 3d df 59 3e 80 dc 73 3e 41 f7 ce 3e
       0.0059352475 0.21276565 0.23814583 0.40423015
000060 f8 f4 5c 3d 5d 1c 08 3e 33 19 a3 3e 8b ca b4 3e
       0.053944558 0.1329207 0.31855163 0.35310778
000070 bb eb 0e be bb 32 01 bf a6 fc da be af dd 7a 3d
       -0.13957112 -0.50468034 -0.4277088 0.06124657
000080 83 70 33 3e c1 a0 ae be 7d 68 5e be e0 ef 16 be
       0.17523389 -0.3410702 -0.21719547 -0.14739943
000090 01 e3 e6 3e 79 73 d1 3e 9e 32 0e 3e d5 e3 2b 3f
       0.45095065 0.4090841 0.13886496 0.6714452
0000a0 8a d1 c7 3d d3 0e 4a 3e 0f 6d 82 be 6f 7f 78 3d
       0.09756763 0.19732217 -0.2547383 0.060668405
0000b0 64 8f af 3d 5e 96 19 3e 8e 3b cb bd e0 66 16 3e
       0.085722715 0.14998767 -0.099234685 0.14687681
0000c0 f2 0c 97 3d b9 74 c0 bd ed d1 96 3c c7 4e db bd
       0.07375516 -0.09397263 0.018410647 -0.10708385
0000d0 4e 0e 48 3e 9c 7f b8 3d a6 4f d7 3d 6c dc 78 be
       0.19536707 0.090087146 0.105132386 -0.24302834
0000e0 bc f0 81 bd 7f 8d 7c be 63 6f fe bd 33 02 dd bd
       -0.063447446 -0.24663351 -0.12423589 -0.10791435
0000f0 d5 06 44 3f 24 47 34 3e 7f 14 7f 3e 0b a7 41 3d
       0.76572925 0.17605263 0.24910162 0.047278445
000100 53 8e 0d 3e 2b 55 74 bc 9a 5a 84 3d f1 ee 86 bd
       0.13823824 -0.014912884 0.064625934 -0.06588543
000110 48 6e db 3e 2a 71 43 3f 87 7c 7d 3f 15 e6 a4 bd
       0.42857575 0.7634455 0.9901814 -0.08051697
000120 a8 8f 3b be 5c c4 06 3f 89 63 0e 3f c8 5f a0 3e
       -0.1831652 0.5264337 0.5562063 0.31323075
000130 54 3d d1 3c dd a0 96 3d 14 f3 f0 3e d5 55 07 3c
       0.025541939 0.07354901 0.47060454 0.00826021

module.lstm.bias_hh_l0_reverse f4 [80]
000000 34 53 c1 3e eb 70 25 3e a5 28 80 bd d0 ff 2f 3e
       0.3775879 0.16156356 -0.06257752 0.17187428
000010 7b 3d 83 be 4f fc 67 3e 76 45 e5 3d f9 af 47 be
       -0.25632843 0.22654842 0.11194889 -0.19500722
000020 40 9a af be 9c a4 4c 3f e4 af 5b 3f 7b 94 1c be
       -0.3429737 0.79938674 0.8581526 -0.15291016
000030 90 2c c1 bd 25 5c 12 3f 10 5f 38 3f 25 8d cb 3c
       -0.09432328 0.5717185 0.72020054 0.024847576
000040 25 23 0b be c5 45 0d be 71 f2 f0 3e 12 da fc be
       -0.13587625 -0.13796146 0.47059968 -0.49385124
000050 6b b2 2d bd 9d 2c bd 3d 4f fa ee 3e 73 82 21 3e
       -0.04240648 0.09237025 0.46675345 0.15772419
000060 89 07 0a 3d 93 c7 83 3e 68 a6 a2 3e be 61 3b 3e
       0.033698592 0.257382 0.31767583 0.18299004
000070 f8 0a 04 3e 24 7f 1b bf 29 14 0d bf 40 3c c3 3e
       0.12894809 -0.60740876 -0.55108887 0.38131905
000080 aa 9c 7e 3e 48 77 93 be f2 3c 9b 3c f0 4e 2a 3e
       0.2486445 -0.28801942 0.01894996 0.16631675
000090 17 8f 2d 3f 2c 82 b0 3e f9 28 a4 3e f8 fc 06 3f
       0.6779646 0.34474313 0.3206251 0.5272975
0000a0 c8 c7 66 be 20 5d e6 bd 92 42 3e 3d 3c af 0d 3e
       -0.22537148 -0.11248231 0.046450205 0.13836378
0000b0 f5 fd 22 be a2 d9 36 be 4b 27 22 be 7d 11 e4 bc
       -0.1591719 -0.17856458 -0.15835302 -0.02784037
0000c0 ad b2 80 be 76 cf 8d 3c 07 45 85 be 9c b8 63 be
       -0.2513632 0.01731084 -0.26029226 -0.22238392
0000d0 62 11 2b be c9 c6 42 3c a4 26 cd 3d a0 75 5c 3d
       -0.1670585 0.011888214 0.10017136 0.053823113
0000e0 2a 4b a3 bc 9a 14 a6 3d d7 fc be bd 9b 63 60 3e
       -0.019933302 0.08109398 -0.09325569 0.21912996
0000f0 01 8c 34 3f 04 ff a3 3e df 37 63 3e 7c ae 83 3e
       0.7052613 0.320305 0.22189282 0.2571906
000100 8c 82 e3 bd 65 7e e1 bc 0a 06 27 3d d4 2e 34 3e
       -0.11108884 -0.02752609 0.040777244 0.17595989
000110 c3 c1 1b 3e 07 62 5e 3f 3f 75 87 3f 53 dc 9b 3e
       0.15210633 0.8686833 1.0582656 0.30441532
000120 d4 8b d9 3d 1d 34 ed 3e 40 6a 2b 3f 3b 2c e0 3e
       0.10622373 0.46328822 0.66959 0.43783745
000130 a7 de a0 3e 06 f1 09 bb 74 01 d7 3e fa 8f 62 be
       0.3141987 -0.0021048202 0.41993296 -0.22125235

module.lstm.weight_ih_l1 f4 [80, 40]
000000 8b c9 76 3e 03 4e 21 3d c3 e1 47 3e 89 e6 62 3d
       0.2410032 0.03938104 0.19519715 0.055395637
000010 b5 a1 5f 3f 65 9e 9c 3e f0 5d d5 3e 6c 78 17 bf
       0.8735612 0.30589595 0.4167323 -0.59168124
000020 69 15 bc be 78 af 0d 3f 8d e0 7a 3d 71 50 82 be
       -0.36735085 0.5534587 0.061249305 -0.25451997
000030 df 21 1c 3f c6 c8 7c 3f 5a e4 06 3e 85 14 db be
       0.60989183 0.98743856 0.13173047 -0.42789093
000040 82 3a 2c bf c6 06 1d 3c 5c 7e 35 be ca b9 5e be
       -0.67276776 0.009584134 -0.17723984 -0.2175056
000050 40 6f 07 bf b4 ae 7e bf d7 a1 6b 3e ff 74 87 3d
       -0.5290413 -0.99485326 0.23010956 0.06614112
000060 86 ca 1e 3f 58 42 2b 3f 9e bb 2b bf 1b fc d2 3e
       0.62027776 0.6689811 -0.67083156 0.41207966
000070 20 52 76 bd 28 39 7c be 5f c7 39 3f 94 39 8e be
       -0.060136914 -0.24631178 0.7256984 -0.27778304
000080 9f c3 ea 3e 33 44 8b 3f b8 ce 36 be f6 6d 9d 3d
       0.45852372 1.0880188 -0.17852294 0.07686989
000090 96 d5 71 be d3 7b a3 3d 35 d3 3c 3e f1 28 42 be
       -0.23616633 0.07982602 0.18439944 -0.1896093
0000a0 95 0f f8 bd 32 79 25 3f 4e 58 47 3e aa f3 cd be
       -0.12112347 0.64638054 0.1946728 -0.40224963
0000b0 8f 8c 3d be de de cb be 16 17 8f 3e f9 f7 45 bf
       -0.1851065 -0.39818472 0.279473 -0.773315
0000c0 41 7d f1 3d 4d 77 6e bd d1 65 31 3f 34 72 92 bf
       0.117914684 -0.058219243 0.69295985 -1.1441102
0000d0 26 85 7b bd 72 2f 49 bf 01 6a 9e 3e 08 19 2b 3f
       -0.061406277 -0.7858802 0.3094025 0.6683507
0000e0 ea 7f 4e 3f 0a e1 fc 3e 80 6a e4 3e 4e 33 b6 3f
       0.8066393 0.4939044 0.44612503 1.4234407
0000f0 a8 c3 06 be 84 a4 55 3e 71 64 7c be b1 7d 15 3c
       -0.13160574 0.20863539 -0.2464769 0.009124205
000100 49 df f8 3b bf ba 0a be 01 68 74 3f 9c a2 fe 3e
       0.007594977 -0.135478 0.954712 0.49733436
000110 b7 1b 3b 3f 57 b7 af be de bd 1c bf 6c 8c 13 3b
       0.73089164 -0.34319565 -0.61227214 0.0022514118
000120 d8 5f bf 3e 59 dc 82 bd fa d9 a6 3e a9 a8 85 3e
       0.3737781 -0.06389684 0.32588178 0.2610524
000130 19 a0 4f 3d b7 75 cd bd ed 1a 0f bf ea 06 d6 bd
       0.05068979 -0.10032218 -0.5590046 -0.104505375
000140 a4 ca 14 bf 4b e4 1a bf 1b fa 16 3f fd 5c 97 3e
       -0.58121705 -0.605046 0.5897538 0.29563132
000150 d7 c0 12 be 6d 87 e9 3e 9e 15 96 be 33 2d d2 3e
       -0.14331375 0.45611134 -0.29313368 0.4105011
000160 9a 19 90 3f e2 12 b2 be 44 d3 9d 3e 73 a9 a3 3f
       1.1257813 -0.3478003 0.30825245 1.2786087
000170 2a 6f b2 3f 36 db 60 3f 75 e4 cc be 03 2b 5f 3d
       1.3940175 0.8783449 -0.4001805 0.05448438
000180 c8 6f 9b 3e 6e 72 4f 3f be 88 1f 3e 90 12 1e 3f
       0.3035872 0.8103398 0.15579507 0.61747074
000190 8a 81 15 3c f4 2b 06 40 3e 8a da 3e 04 48 0d be
       0.009125123 2.0964327 0.42683595 -0.13797003
0001a0 8a c1 c4 be 2c e8 78 3f bb 56 02 be b3 89 47 3e
       -0.3842891 0.97229266 -0.12728398 0.19486122
0001b0 39 3d bf bf de e5 bf be 9b 95 21 bd 78 d2 ac bc
       -1.4940559 -0.37480062 -0.039449316 -0.021096453
0001c0 84 e0 ac 3d 31 5a d9 3e 98 17 41 3f 0f 99 5d bf
       0.084412605 0.42451623 0.75426626 -0.86561674
0001d0 1a 3e 8e be de 62 0b 3f 4f 2f 85 bf 6e 48 72 bd
       -0.27781755 0.54447734 -1.0405062 -0.059151106
0001e0 6f ae 32 3e 84 4b 2a bf b8 ad 18 be 40 2d e7 be
       0.17449354 -0.6652148 -0.14910018 -0.4515171
0001f0 87 64 15 3e d8 7d 31 3f 1c ac b5 3d b4 7a 7c 3e
       0.1458913 0.6933265 0.08870718 0.24656183
000200 d5 2a ce be 69 21 aa bd 08 c3 62 3c 03 54 39 bf
       -0.40267053 -0.08307154 0.013840444 -0.72393817
000210 44 b3 0c 3d 04 55 d4 bf 14 72 17 3f 4f b5 ca bd
       0.03435065 -1.6588445 0.59158444 -0.09897863
000220 05 1a 5d 3f 27 c1 41 3e 93 90 23 bf 44 d0 53 3d
       0.8636783 0.18921338 -0.6389248 0.05171229
000230 bb 66 9a bd 38 0f 44 bf b2 7c 09 bf e4 d9 20 3f
       -0.075391255 -0.7658572 -0.53705895 0.62832475
000240 f3 09 cd bc 27 0d b1 3f 2c 3a 3f 3f c9 18 56 bf
       -0.025029158 1.3832139 0.7469814 -0.8363157
000250 bd ca 18 3e e1 9d 86 3f 5c 4e de bf 12 d0 d2 bd
       0.14921089 1.0516931 -1.7367663 -0.102935925
000260 ea 82 e7 3e 7f 81 dc 3e 0e a3 b0 3e e4 dd 25 be
       0.45217067 0.43067548 0.344994 -0.16197926
000270 b4 8d 7c bd d4 bd 8b be 8b 17 c3 3e c8 a6 1e bc
       -0.061658576 -0.27293265 0.381039 -0.009683318
000280 ae 94 09 3f 72 11 d4 be c4 6e 93 3f 09 8d 86 3e
       0.5374249 -0.4141956 1.1518178 0.26279476
000290 74 bd 27 3f 42 d3 a8 3f 44 cf 87 3e 0f bc a9 be
       0.6552346 1.3189471 0.2652532 -0.3315129
0002a0 81 4d e6 be 63 19 55 3e f2 37 2c 3e 77 32 fe be
       -0.44981006 0.20810466 0.16818216 -0.49647877
0002b0 d9 27 f3 3e 3e 94 82 3e 25 3b 59 3f cb 53 ec be
       0.4749134 0.25503725 0.8485587 -0.4615768
0002c0 5d 92 bb be 41 2e 60 bf 7a 8a 81 3d af d0 75 bf
       -0.36635104 -0.8757058 0.063252404 -0.9602155
0002d0 f8 54 88 3e e4 05 aa bf 2b f9 5e be c1 e4 80 3e
       0.26627326 -1.3283048 -0.21774738 0.25174525
0002e0 b1 11 15 3f eb 44 9d 3f b4 9a a0 be cc e9 27 bf
       0.5823012 1.2286657 -0.3136803 -0.6559112
0002f0 7a b6 e4 3d ca e5 45 3f 09 f3 89 be ca e5 1d 3f
       0.11167617 0.77303755 -0.26943234 0.61678755
000300 ff b5 1f 3f 0b 1f ec 3d 4a 7f 8e 3e ed b7 1e be
       0.6238708 0.115293585 0.2783149 -0.1549985
000310 59 32 a6 3a 50 de e6 be 2b a7 37 bf 32 22 2f bf
       0.00126798 -0.45091486 -0.71739453 -0.6841155
000320 c5 0a 04 bf d4 6e 35 bf 73 ed 7d 3f e3 fe be bd
       -0.51578933 -0.70872235 0.99190444 -0.093259595
000330 cc 63 d8 bd 45 cf 43 3f fe b1 59 bc dc 9b ae 3e
       -0.1056591 0.76488143 -0.013287066 0.34103286
000340 3a 9c b0 be 6d b8 78 bf aa 01 6d bf 4d 5c e3 3e
       -0.3449419 -0.9715641 -0.92580664 0.44406357
000350 7a 7c 8f be b2 94 80 3f 03 a5 ac be 1e c1 14 bf
       -0.28024656 1.0045378 -0.33719644 -0.58107173
000360 99 67 37 3e 31 af 4d be ef d2 d5 3e dd 58 1a 3f
       0.17910613 -0.20086361 0.41762492 0.60291845
000370 bd 1c d4 be 14 7f 6f bf fc ff 22 bf 55 85 ba be
       -0.41428176 -0.9355328 -0.6367185 -0.3642985
000380 dd 4b 84 bf 81 b4 01 40 c9 c2 4b 3e b0 d3 d8 be
       -1.0335652 2.026642 0.19898523 -0.42349005
000390 d3 0f 85 3c e8 99 27 bf e9 83 a2 bf c7 73 8f 3e
       0.016242897 -0.6546922 -1.2696506 0.2801802
0003a0 6a f3 f6 be 8b ea 80 be f6 e9 63 3f c0 e7 4d 3e
       -0.48232585 -0.25178942 0.8902887 0.20107937
0003b0 66 f9 b4 3e b6 1a 1f 3d 58 79 c9 3e af c7 c2 3e
       0.35346526 0.038843833 0.3935039 0.38042971
0003c0 59 05 15 3f a1 4d b8 3e d3 97 43 3f 3c 5c eb be
       0.58211285 0.35996726 0.7640354 -0.45968807
0003d0 2e fe fc be cd 1f 95 3e db d9 39 3f 89 6f 00 3f
       -0.49412674 0.29125825 0.72598046 0.5017019
0003e0 e0 05 4b 3f 87 fe 86 be ca 2d ef 3e d2 78 2e 3e
       0.7930584 -0.26366064 0.46714622 0.17038277
0003f0 95 71 d7 3d 0e e6 46 be a0 c5 60 3e 66 15 6b bc
       0.10519711 -0.19423696 0.21950388 -0.0143483635

module.lstm.weight_hh_l1 f4 [80, 20]
000000 aa 25 72 be f9 9e 47 be b1 db 49 3c a4 f3 63 be
       -0.2364718 -0.19494237 0.012320445 -0.2226091
000010 07 99 fd bc 32 bd 8a bd 9a 14 b3 be 72 4f 27 3f
       -0.030956758 -0.067743674 -0.34976655 0.653556
000020 6b 3a 16 bf ae f2 a6 3e 59 7c 7d bf 0b 7c 0b 3f
       -0.5868289 0.32607025 -0.99017864 0.5448615
000030 fa 3c 05 bf a3 2b e9 be c8 fc 80 bf d9 b0 1c bf
       -0.5204617 -0.45541105 -1.0077143 -0.6120735
000040 6d 00 bd bf ff 1f 82 3f 1f 75 19 3f b0 7c 65 be
       -1.4765755 1.0166014 0.5994434 -0.22410846
000050 3b 8b 01 bf 5c 1e 1c be ef 7b b9 3d c4 84 ac bf
       -0.50603074 -0.15245956 0.090568416 -1.3478017
000060 08 b0 68 3f 61 f5 c0 bf f2 f3 d3 bd 65 08 b7 3f
       0.908936 -1.5074884 -0.10349263 1.4299437
000070 44 97 c3 3e 32 4d b0 ba 0a f7 d8 bd 60 3d 2e bf
       0.38201344 -0.001345074 -0.10593994 -0.680624
000080 83 5e 31 bf 99 de a7 3f 3e 2f 44 3e d2 7a ae bf
       -0.6928484 1.3114806 0.19158646 -1.3631232
000090 67 0c d7 3d 2b 50 85 3f 87 3a bd bb 82 d1 e5 3e
       0.105004124 1.041509 -0.0057747993 0.44886404
0000a0 1e d7 68 be af 0d 73 3d cc 4a 83 3e f6 3e 41 bf
       -0.2273831 0.05933922 0.25643003 -0.75486696
0000b0 0b c1 c1 3e 3a 12 7b 3d c6 36 11 bf f9 dc a6 3f
       0.37842593 0.06129668 -0.567242 1.3036186
0000c0 bb 74 7c bf b1 0a 01 3d 3b ca 87 bf a6 00 8f bf
       -0.98615617 0.031504337 -1.0608591 -1.1172073
0000d0 47 a1 e6 be 03 04 2e 3f 33 70 a8 3e 4d 7d 64 bf
       -0.4504492 0.6797487 0.328981 -0.89253694
0000e0 d8 08 11 bf 83 ec 06 be 7b f0 4b bf 28 da 77 be
       -0.5665412 -0.1317616 -0.7966382 -0.24204314
0000f0 6b fe b2 be 29 4a 8b 3f 69 71 1c 3f 3b 00 98 be
       -0.3495973 1.0882007 0.6111055 -0.29687676
000100 b1 25 3d bf 56 4e b0 be be 0e b5 be 31 f5 38 3f
       -0.7388564 -0.34434766 -0.3536281 0.7224913
000110 81 cf a5 be a0 51 dd 3e 74 0f db 3e a4 b7 be 3c
       -0.32384875 0.43226337 0.42785227 0.023280926
000120 2e 17 8d 3e 23 d3 07 3c c6 08 8c bd e1 3b 7b bf
       0.27556747 0.008290085 -0.06837611 -0.9813824
000130 f4 3b b5 be f6 99 76 3d 9a 10 ac 3e a0 8c 33 be
       -0.35397303 0.060205422 0.33606416 -0.17534113
000140 cb a7 17 3f ee ed 48 bf 31 c6 69 3f 58 f5 00 3f
       0.59240407 -0.7848805 0.9131804 0.50374365
000150 0d b3 87 be 73 9a 8d 3f 64 ad 0c 3e 9d 36 89 3e
       -0.26503792 1.1062759 0.13738018 0.2679948
000160 90 4d 06 3e 7a cc e3 be 6f 57 87 3e 4b 49 c3 3f
       0.13115525 -0.4449194 0.26433894 1.5256742
000170 f9 bc ca bd a3 a2 d0 3d 34 de 6e bf 90 81 11 bf
       -0.09899325 0.101872705 -0.93307805 -0.5683832
000180 b5 46 05 bf 5a 88 5f 3f 16 6a ad 3e 09 8a 89 3e
       -0.52061015 0.8731743 0.3387 0.26863125
000190 0a 8c 5a 3e 49 2d ac bf df e3 cd 3f 94 41 7f bf
       0.21342483 -1.345132 1.6085166 -0.9970944
0001a0 92 64 e9 3e 6f e7 5e be c6 30 b6 be d2 12 6f 3f
       0.45584542 -0.21767972 -0.35584086 0.9338809
0001b0 0a f0 37 3e 05 f5 94 3e 9e ca 81 3e bf 35 1f bf
       0.17962661 0.29093185 0.25349897 -0.62191385
0001c0 65 96 23 bf e8 36 65 3f a4 b1 bc 3e 50 b4 3b bf
       -0.6390136 0.89536905 0.3685428 -0.7332201
0001d0 05 0a 99 3e 71 a9 89 3d 29 7a 5e 3e a6 3b 8d 3e
       0.29890457 0.067217715 0.21726288 0.2758457
0001e0 0c d5 09 3f f3 c7 70 3e c6 c7 8b 3e 26 2a fe be
       0.5384071 0.23513775 0.27300853 -0.49641532
0001f0 d2 48 dc be 3c 71 ac bf 19 1c 9d be f9 b6 be 3e
       -0.43024307 -1.3472056 -0.306855 0.37248972
000200 f1 28 05 bf 02 db 2d 3f 29 02 9c 3e 62 91 ae be
       -0.52015597 0.67912304 0.30470398 -0.34095293
000210 b4 f6 3f 3e a8 26 08 bf 73 33 24 bf bf c4 9d 3f
       0.18746454 -0.53183985 -0.64141005 1.2325667
000220 e0 6e 83 bf 63 fb 9a 3e a3 4e 62 3f d2 01 c6 bd
       -1.0268211 0.30269918 0.8840124 -0.09668316
000230 90 6b be be 39 24 06 bf 5e 58 6b 3f 5c f2 c4 be
       -0.3719144 -0.5239902 0.9193171 -0.38466156
000240 10 07 2a 3e d7 80 27 bf bc 55 c3 be 75 c4 33 3f
       0.16604257 -0.6543097 -0.38151348 0.70221645
000250 de 67 09 3e 51 62 20 3e a6 72 62 3f 6d e9 83 be
       0.13418528 0.15662505 0.8845619 -0.25764027
000260 e9 e9 03 3f 0d 8c 1f bf 4d b2 4a bd d4 57 47 bf
       0.51528794 -0.62323076 -0.049486447 -0.7786839
000270 ef aa c2 bd 0b 18 b1 3e 75 d5 95 3e f9 cd 49 3e
       -0.09505259 0.34588656 0.29264417 0.19707479
000280 fe 16 ab bd f0 3a 00 3f 31 2e b9 be cc 4e 29 bf
       -0.08353995 0.5008993 -0.36168054 -0.6613586
000290 52 e5 97 3e e0 ba 2c bf 61 63 8c be 1a 58 b2 3f
       0.29667145 -0.6747265 -0.2741957 1.3933136
0002a0 2a 46 63 be e4 3c 1d bd 82 36 04 3f 33 54 e4 3a
       -0.22194734 -0.038388148 0.5164567 0.0017420113
0002b0 c2 3e 42 3f c4 5f 2b 3f 39 a6 0b 3f ee 85 c8 be
       0.7587701 0.66943 0.5455051 -0.3916468
0002c0 f7 28 31 3f ec 67 4e 3f 37 e1 4d 3e 3b ff 9c 3e
       0.6920313 0.8062732 0.20105444 0.30663475
0002d0 62 4e 97 be 76 71 83 be 18 52 59 3f 0c 19 e1 3e
       -0.2955199 -0.256725 0.8489089 0.43964422
0002e0 77 34 58 be 4f a6 e7 3e f4 42 0d bf ec 79 31 bd
       -0.21113764 0.4524407 -0.5518029 -0.043329164
0002f0 7c 11 aa be e5 f8 38 be 5c ab 25 3d 21 29 a1 3e
       -0.33216465 -0.18063696 0.040446624 0.3147669
000300 9f dd e6 be 30 65 9d be 2f 55 e4 bd 3d 64 1d be
       -0.45090958 -0.30741262 -0.1114906 -0.15370269
000310 59 17 13 3f 1c 2f 24 3f f6 7c 8a 3e 5e 00 77 be
       0.574575 0.64134383 0.27048463 -0.24121234
000320 4a 87 12 bf 74 b7 a9 3e f8 e0 1b bf 0d 83 e1 be
       -0.57237685 0.33147776 -0.6089015 -0.44045296
000330 0e 1d f1 be de ea e9 bf b3 24 89 3e 73 08 94 bd
       -0.4709248 -1.8274801 0.26785812 -0.07228174
000340 fd 11 14 bf 1c e7 6b 3e 20 b5 45 be 6b cd 49 3f
       -0.5783995 0.2303738 -0.19307375 0.7882907
000350 56 0f 24 3f 66 4b c5 3e e4 d8 2d be 70 30 b5 3e
       0.640859 0.38534087 -0.16977268 0.35388517
000360 2b b9 b1 3e 14 f5 13 bf 3e 14 96 bb 29 96 00 3f
       0.34711584 -0.57795835 -0.00458005 0.50229126
000370 92 ef d3 3c af 51 2d bf ef e4 d8 be 22 32 d1 be
       0.025871072 -0.67702764 -0.42362162 -0.4085856
000380 6a f6 e1 3e b9 33 62 bf 01 ad 92 3d 2b f6 a4 3f
       0.44133312 -0.8836017 0.07161904 1.2887625
000390 d3 11 2d 3f 2b 33 9e 3e 70 27 bf be 91 f6 85 be
       0.6760532 0.30898413 -0.37334776 -0.26164678
0003a0 09 3e 8a 3e 97 be c0 be 8d 55 f4 be eb c4 9e bf
       0.27000454 -0.3764541 -0.4772152 -1.2403845
0003b0 2d 5f 6b bf 9d 39 10 3f 5f cc 83 3f f2 2d 1e 3e
       -0.919421 0.5633791 1.0296744 0.15447214
0003c0 64 99 51 bf fe 35 42 bd 98 7f 95 3f 1a 77 fa be
       -0.8187468 -0.047414772 1.1679564 -0.48918992
0003d0 1d 38 95 bf fa f7 be be 72 2a 86 3e 3c 33 09 3f
       -1.165775 -0.37298566 0.26204258 0.535938
0003e0 21 c7 12 bf 67 22 57 3f 1f 31 34 3f 97 cc 99 be
       -0.57335097 0.8403687 0.7038745 -0.30038902
0003f0 b3 bc 97 bd 00 6f f3 be 83 aa 95 be d7 ac f6 3e
       -0.074090384 -0.47545624 -0.29231653 0.4817874
