sparrow/data/networks/rg/rg_network_v1.pt (torch, 137891 bytes, 9 tensors)

lstm.weight_ih_l0 f4 [220, 20]
000000 d0 69 4e 3e 4f 1d 00 3e c5 a8 60 3e c8 01 94 3c
       0.20157552 0.1251118 0.2193938 0.018067256
000010 d7 9c ec 3d 90 89 58 3e 94 cc cd 3d e6 27 45 3e
       0.11553352 0.21146226 0.10048786 0.19253501
000020 23 2e 01 3e bb 06 4b 3c b6 83 71 bd 92 6f 53 3e
       0.12615256 0.012391741 -0.0589635 0.2064803
000030 1d 9b a4 bd 10 b3 1f 3e d5 8e fd 3c d4 bb a0 3d
       -0.08037398 0.1559565 0.030951897 0.07848325
000040 14 b8 83 bc 69 ef 5b bc f9 1e 30 3d 29 f8 d7 bd
       -0.016078986 -0.013423779 0.042998288 -0.1054538
000050 19 c3 71 bd cf 99 33 bd a4 1b 28 3e b2 2a 86 3d
       -0.05902395 -0.043847855 0.16416794 0.06551112
000060 08 b4 0e be 9b e1 a9 bd 08 18 92 3d ad 6f 06 3e
       -0.13935864 -0.08294984 0.0713349 0.13128538
000070 a4 fe ba 3d 32 3f 93 bd 58 ec 07 3d 68 77 24 3e
       0.091306 -0.07189788 0.03318438 0.16061175
000080 d0 54 55 3d 51 98 06 bd 3f ff 8f 3b 2f a5 ca bb
       0.052082837 -0.032860104 0.0043944414 -0.006184242
000090 71 56 0b 3e e2 b8 aa bd 2a a8 06 be 04 76 f8 bc
       0.13607194 -0.08336045 -0.13150087 -0.030329712
0000a0 bb 57 80 39 5b fd bf bb 30 61 bb bd 76 45 ab 3d
       0.00024479427 -0.0058590597 -0.091493964 0.08362858
0000b0 3f 0e 35 3d 46 f2 c8 bb 17 0a 0b 3e ca bc b1 bd
       0.04420304 -0.006132397 0.13578068 -0.08678587
0000c0 6d e9 47 3d 2a f5 b8 3c 0e 6f 4e bd d1 cb 19 be
       0.048806597 0.02257784 -0.05039888 -0.15019156
0000d0 34 ff e6 3d 5e 1b ba 3d b6 e6 48 3d 8b 1c 7d 3d
       0.11279145 0.09087251 0.049048148 0.0617948
0000e0 94 49 c1 3d 74 4d 99 3d 20 14 9b bd 59 43 fd 3d
       0.09437862 0.07485476 -0.07572198 0.12366361
0000f0 b2 03 01 3e 48 d8 12 3e a5 8a 1e bc c7 8b a2 bc
       0.12599066 0.14340317 -0.00967661 -0.019842042
000100 83 e5 71 3d 6e 3e 8b 3c f8 ad e1 3d 9e b0 c9 3d
       0.05905677 0.016997542 0.1101951 0.0984814
000110 2a 7f ab bc 9d 1d b7 3c e2 3b af 3d 16 68 26 3e
       -0.02093466 0.022352988 0.085563436 0.16250643
000120 7e c0 8e bd 01 9b a8 bb 40 a8 2d 3d f9 e1 dc 3d
       -0.06970309 -0.005145431 0.042396784 0.10785288
000130 aa 72 57 3e 44 3c 93 3d 20 60 00 bc 88 a2 42 3e
       0.21039835 0.07189229 -0.007835418 0.19007313
000140 12 f9 09 3e 47 29 bf 3d d3 30 e5 3c 58 8c 43 3e
       0.13473919 0.09334045 0.027977383 0.19096506
000150 01 e2 1f 3e 55 92 34 3e 88 23 1f 3d a0 bb ef 3d
       0.15613557 0.17633946 0.038852245 0.117057085
000160 1c a2 4e 3e 06 91 13 3e 4b c3 ac bd f6 c4 51 3e
       0.20179027 0.14410791 -0.08435687 0.20485291
000170 af 35 ba 3c bf 10 27 3d 11 d9 a5 bc 64 45 62 3d
       0.022730676 0.040787455 -0.020245107 0.055241957
000180 80 97 4b 3e 59 45 1c 3e 02 22 fa bc 60 79 bb 3d
       0.19882011 0.15260829 -0.030533794 0.0915401
000190 0a 96 0d 3e c4 b2 c3 3d a2 0c 67 3e 94 5c 46 3e
       0.13826767 0.09555581 0.22563413 0.19371253
0001a0 b9 0b 9e bd fc 64 55 3e 17 a6 e1 3d 7e 01 14 3e
       -0.0771708 0.20839304 0.11018007 0.14453694
0001b0 52 66 04 3e 52 77 d9 3d 98 88 c8 3d b6 6e 36 3e
       0.12929657 0.10618462 0.09791678 0.1781567
0001c0 f7 75 09 3e 0a ed 51 bd f8 61 54 3d 28 9e e0 3d
       0.13423906 -0.05125145 0.051851243 0.10967666
0001d0 ac d5 a7 bd 85 8f f6 bd af 7a c0 3d d0 cb b6 3c
       -0.081950516 -0.12039093 0.093984 0.022313982
0001e0 61 65 08 bd fe 8f e3 3b f2 b4 99 3d 7e 9c cd 3d
       -0.033299807 0.0069446554 0.07505216 0.10039614
0001f0 c8 b1 30 3d 61 5a f2 3d d2 d6 b5 3d 01 dc 44 3d
       0.043138295 0.11833645 0.08878864 0.048061375
000200 b6 2c 43 3e 9e 09 90 bd dc 14 8e bd c8 ae 00 3e
       0.19060025 -0.07033084 -0.06937572 0.12566674
000210 fa 3d 45 be 73 43 2b be 7f 66 b9 3c b6 01 ff 3c
       -0.19261923 -0.16724949 0.022631882 0.031128746
000220 ae 39 37 be 9e 0d 37 be a4 b7 11 3c 44 20 94 3d
       -0.17893097 -0.17876288 0.008893881 0.07232717
000230 94 49 d9 3c 63 98 8e 3a 20 83 c1 3d 1a 7d 0d be
       0.026524343 0.0010879155 0.09448838 -0.13817254
000240 ad 33 d9 3d 61 a4 02 3c bf 14 b7 3b 4d 9e b4 bb
       0.106055595 0.007973761 0.00558719 -0.005512035
000250 54 85 a7 3d ec 94 46 3d 69 a8 ba 3b 27 96 a4 3b
       0.08179727 0.048481867 0.0056963456 0.0050227824
000260 f3 a3 e3 3d a4 be 03 bb fc 83 15 3d 41 7e 5f 3c
       0.11115255 -0.0020102644 0.036502823 0.013640941
000270 ea 95 82 3e 7e bc ff bd 41 17 ea 3d a8 33 71 bd
       0.25505 -0.12487124 0.114302166 -0.058887154
000280 03 1b 27 3e fd a9 12 3e 36 48 c0 bb e1 46 8f 3d
       0.16318898 0.14322658 -0.005867983 0.06995941
000290 82 1b 03 3e 08 99 1f 3e 05 ca e0 3d 4f 1b b1 3d
       0.12803462 0.1558572 0.10976032 0.08647787
0002a0 30 19 86 3d a7 6c 14 be 7e 2c 5b bc d1 6e d1 3d
       0.06547773 -0.14494573 -0.013377307 0.10226215
0002b0 0b 85 30 3d 4d c9 16 bc ba 85 00 3e a4 42 0c 3e
       0.04309563 -0.009203267 0.12551013 0.13697296
0002c0 85 47 0a bd a5 0b 9b 3c 88 d0 0d 3e 65 ff 00 3e
       -0.033759613 0.018926451 0.1384908 0.12597425
0002d0 f9 b8 0d 3d 9f c4 32 3d 49 0c 3f 3c 6d e1 19 be
       0.03460023 0.043644544 0.011660644 -0.150274
0002e0 a0 89 98 bd 30 71 3c 3d 4a c7 69 3d 3f 4a b9 3d
       -0.07448125 0.04600638 0.057074822 0.090473644
0002f0 e0 96 63 bd a6 16 87 bd 4a 02 5b bd d5 53 ca 3b
       -0.055563807 -0.06596117 -0.05346898 0.0061745443
000300 94 a1 64 3e dd 63 1a 3e 47 eb 66 bd 65 f1 78 3b
       0.22327262 0.15077157 -0.05637672 0.003798568
000310 b0 2f 22 3e e9 20 48 3e 42 05 f4 3d 37 a6 91 bd
       0.15838504 0.19543804 0.11915065 -0.07111781
000320 1b b8 a8 3d 0f 86 e1 bd 9c cd 3e 3d d0 77 7a 3d
       0.0823824 -0.11011898 0.046582803 0.06114942
000330 76 6e f2 bc 60 d0 89 3d 0e e6 d0 bd 9a 66 9c bc
       -0.029593688 0.067291975 -0.102001294 -0.019091893
000340 58 83 06 3e 23 8f f7 3d 4c 5b a2 bd e1 eb a0 bc
       0.13136041 0.12087848 -0.0792757 -0.019643726
000350 98 0a 38 be e3 32 cb bd bf ba 82 3d 86 d0 23 be
       -0.17972791 -0.09921815 0.06383275 -0.15997514
000360 71 d6 4a be 21 27 a7 bd 59 84 e0 bd 31 da 1a bd
       -0.19808365 -0.0816176 -0.10962743 -0.03780574
000370 af e6 d2 3d 1b d2 9b bd eb 22 69 bc 17 ce d5 3d
       0.10297906 -0.07608434 -0.0142295165 0.10439699
000380 b8 ca 07 3d 32 c6 14 3e 5e b0 66 3e f2 96 0c 3d
       0.033152312 0.1452873 0.22528216 0.03432364
000390 ad 48 83 bc 1f 78 b3 3c 23 1d 7c bd fd 42 3e 3d
       -0.016025865 0.021907864 -0.061551224 0.046450604
0003a0 df a2 10 3e 69 91 8a 3d 63 63 56 bd 51 3c 67 3e
       0.1412463 0.06766016 -0.052340876 0.22581603
0003b0 34 ad 3e 3e f0 af 11 3e 1b 76 3a 3d 2a 8a 32 3e
       0.18620759 0.14227271 0.04552279 0.17435518
0003c0 8c 9e a6 3d d2 47 1b 3e 22 61 ec bc b5 98 ad 3d
       0.08135709 0.15164116 -0.02885491 0.08476392
0003d0 dc 76 95 bd 21 6d a2 bd 79 46 aa 3d 11 ec 2e bd
       -0.07298061 -0.07930971 0.08314223 -0.0427056
0003e0 82 d8 2d 3e 95 a3 9a bd fd 58 02 bd dc 33 b3 3d
       0.16977122 -0.07550732 -0.031823147 0.08750126
0003f0 e6 21 03 3d 2c 9c 3a 3e 9f 65 88 3c f9 c5 d5 3d
       0.03201475 0.18223637 0.01665002 0.10438151

lstm.weight_hh_l0 f4 [220, 55]
000000 e2 48 1d 3d 3c 2b 04 3d aa b0 51 3e 5b 02 4c 3d
       0.038399585 0.032267794 0.20477548 0.049806934
000010 5d 09 36 3b 5d 34 12 3d fe 52 7a bd 1c 93 1f be
       0.0027776577 0.03569447 -0.061114304 -0.15583462
000020 63 f9 97 3c 0e ad 1d 39 bc ca 13 be 7b db b1 3d
       0.018551534 0.00015037155 -0.14432806 0.08684441
000030 3d cf 8d 3d ed 25 f5 3b 56 cb b6 3d a3 cb 0e bd
       0.06924293 0.0074813277 0.08925502 -0.03486217
000040 a3 cf 1b 3e fc 07 aa bd 7f d4 3b be d9 5d d7 3d
       0.15215926 -0.08302304 -0.1834278 0.10515947
000050 0d 6e 1f be 09 e9 f8 3d b8 90 31 be 1e 2f ef bc
       -0.15569325 0.12153823 -0.17340362 -0.029197272
000060 e8 70 ad 3c af 6e f0 bd d0 80 e1 3c b4 3a 35 be
       0.021172002 -0.11739861 0.027527243 -0.17698175
000070 de 88 10 be c0 94 18 bc 2e 33 6d 3d ad f4 21 be
       -0.1411471 -0.0093128085 0.057910137 -0.15815993
000080 dd 31 ec bd b6 70 08 be 1f 21 01 3e 8c a4 c0 3c
       -0.11532948 -0.13324246 0.12610291 0.023515962
000090 8f 0c 4f 3d 2b ae e8 bc 47 ea 2f 3e c9 e9 26 bc
       0.050549086 -0.028403362 0.17179213 -0.010187575
0000a0 db a9 17 bc d7 14 86 bd a6 a2 39 be ea 62 15 3e
       -0.009256805 -0.06546944 -0.18128452 0.14588514
0000b0 a2 07 5f 3e 96 94 ca bd 5d 8f 21 3e 32 14 83 bc
       0.21780255 -0.09891622 0.15777345 -0.01600084
0000c0 54 04 d1 3c 0a 7b 3d be c8 8f ca 3c 0d b1 1b 3d
       0.02551476 -0.18503967 0.024726763 0.038010646
0000d0 de ac 5c bd 81 87 e0 3b 88 3e 47 3d 37 e4 8f b9
       -0.053875796 0.006852091 0.04864362 -0.0002744512
0000e0 c6 ff 14 3b 32 c4 4d 3e cd f1 fa bd c3 09 3a be
       0.002273546 0.20094374 -0.12253151 -0.18167786
0000f0 dc e3 e1 bd be 5d 36 be 97 a7 45 3d a8 a0 86 3d
       -0.11029789 -0.17809197 0.04825553 0.065736115
000100 6a 8c f8 bd ae 2f 88 bd 1c c1 1c 3e 4a 8b bc bd
       -0.12136157 -0.06649719 0.1530804 -0.09206255
000110 ea cd 1f be 15 15 05 3e 2c 96 0d 3d 71 43 5f 3e
       -0.15605894 0.12996323 0.034567043 0.2180307
000120 99 ce c8 bc e6 2d 55 be d9 23 ea bd f6 53 fa 3b
       -0.024512576 -0.2081829 -0.11432619 0.0076394035
000130 5e fd ab bc aa a6 c7 bd 15 34 83 3d f2 b6 fb 3d
       -0.020994838 -0.097485855 0.06406418 0.122907534
000140 39 55 3e bd 51 ed 63 be ad 9e 55 bd 7f 3b d4 bd
       -0.046467993 -0.22258498 -0.05215328 -0.103629105
000150 45 f6 3b bc 99 a4 0a bd e8 b8 49 be ff 38 f5 bc
       -0.011472289 -0.03384838 -0.19699442 -0.029934404
000160 f6 e0 59 3d b6 90 d8 bd 06 ba db bc 51 86 e5 3b
       0.053193055 -0.105744764 -0.026822101 0.007004537
000170 f9 b7 c5 3d 8a a0 18 3c f0 01 93 3d c7 dd 44 3e
       0.096542306 0.009315619 0.07178104 0.19225226
000180 bf 91 46 bd 0d f2 63 3d 81 ef 27 3e 5b 91 2b 3e
       -0.048478838 0.05565076 0.16399957 0.16754667
000190 d5 78 61 bd d2 1a 36 3e d0 01 27 be 0f f0 cd bd
       -0.055046875 0.17783669 -0.16309285 -0.10055553
0001a0 aa ef 40 be e3 dc cd bd e8 9a 15 be c2 2a 25 3e
       -0.18841425 -0.100518964 -0.14609873 0.16129592
0001b0 ff 97 c2 bd 98 fb 39 bc 68 72 70 3c dc 79 90 3d
       -0.09501647 -0.0113514885 0.014675714 0.07054493
0001c0 5d 76 1a 3d 7a 88 6b bd e2 05 21 3d 1c a0 07 be
       0.037710536 -0.0575032 0.03931225 -0.1324467
0001d0 cc 4d fd bd c1 a2 b2 3d 36 5a d6 3d a4 93 3a 3d
       -0.12368354 0.08722449 0.10466425 0.045550957
0001e0 48 6d 51 bc 0d 93 b8 bd 5e d4 bb 3c 05 9c fc bd
       -0.012782402 -0.09012423 0.022928413 -0.12334446
0001f0 93 1e 1c 3e a8 aa e2 3d 1f 83 b6 3d e4 18 16 be
       0.15246038 0.11067706 0.08911728 -0.14657933
000200 62 33 39 bd af 53 06 3e 35 ae da 3d 81 50 0c 3e
       -0.045215018 0.1311786 0.106777586 0.13702585
000210 2c f5 bc bd 62 7a 58 bc c9 71 1e 3e 2b 77 ed 3c
       -0.0922645 -0.013212772 0.15473093 0.028987488
000220 f8 8c 07 be f9 8d f9 3c 95 38 bb bd bc ab 9a bd
       -0.13237369 0.030463206 -0.091416515 -0.07552287
000230 12 71 9c bd 8b 65 ff 3b 02 87 1e bd a9 36 d3 bc
       -0.07638754 0.0077940873 -0.038702972 -0.0257829
000240 ad a6 36 bd 2c 53 ed 3d 69 ab 99 bd c4 44 39 3d
       -0.04459255 0.115881294 -0.07503397 0.045231596
000250 a8 c1 8d bd bf e1 56 3d a8 dd 30 3d 18 5c 16 be
       -0.069217026 0.052461382 0.043180138 -0.14683568
000260 7c 3c a4 3c 44 d3 b5 3d 46 fe 9a 3d f2 4f e6 bd
       0.020048372 0.08878186 0.0756803 -0.11245717
000270 ed b4 00 3e 85 a3 c7 3c 3b fd 81 bd d3 ad 1e be
       0.12569018 0.024369964 -0.06347128 -0.15495996
000280 73 8d 99 3d 4f 9f 92 bd 70 c9 68 3d 87 de 59 bd
       0.074976824 -0.07159292 0.05683273 -0.053190734
000290 ab 81 e2 3d de c5 8a 3c fc 9f d2 3d fc b1 df 3d
       0.110598885 0.016940054 0.10284421 0.1092262
0002a0 f7 cb 17 3c 29 2a 80 bd 6f af 82 3c 0d d3 c6 3d
       0.009264938 -0.062580414 0.015952794 0.097082235
0002b0 e0 6e d6 3d 50 ba 73 3e 5b 1e 24 be 25 93 c8 bc
       0.104703665 0.23801541 -0.16027205 -0.024484226
0002c0 55 ea 67 3d c3 88 e3 bd 22 96 07 bd d2 c2 65 3d
       0.05661996 -0.111100696 -0.033102162 0.056094
0002d0 c3 64 64 bd 29 09 3a 3d d7 63 1b be 87 ff 26 be
       -0.055760156 0.045418892 -0.15174805 -0.16308413
0002e0 4c 7d a1 bc 62 0e d3 3d 87 b2 20 3e a3 af d2 3a
       -0.019713067 0.10305478 0.15693103 0.0016074072
0002f0 92 30 f9 3d 7c f3 42 3e d0 03 10 be 51 07 33 3d
       0.12167467 0.19038194 -0.14063954 0.04370815
000300 c4 3a 38 be 7a f8 2d 3d ff ca f2 3d 2e 96 12 39
       -0.17991167 0.042473294 0.11855125 0.00013979591
000310 e6 f2 78 38 3c 01 d9 bd 78 5b 16 be 96 1e 8e 3d
       5.9354024e-05 -0.105959386 -0.1468333 0.069394276
000320 43 fe bd bc 3a ec 11 3e b9 f5 79 3d 94 40 85 bd
       -0.02319253 0.1425027 0.061025355 -0.06506458
000330 37 b0 e7 bc da 8f d9 3c 82 13 d5 ba 16 df 4c be
       -0.028282268 0.026557852 -0.0016256424 -0.20006976
000340 eb 5d 65 3e 20 c6 cd 3d 09 00 b8 3c 07 9c b6 3b
       0.22399108 0.10047555 0.022460954 0.005572799
000350 87 46 cf 3d ad f2 13 be 8d 56 8c 3d 61 81 99 3d
       0.10120874 -0.14448042 0.06852446 0.0749538
000360 09 4d 23 3e 38 c1 39 bd bf bb 96 bc 62 78 51 bc
       0.15947355 -0.045350283 -0.018400071 -0.012785049
000370 7f bd 4f 3a 44 1c 0a 3e 75 8e 58 3e 89 7b e2 bc
       0.00079246605 0.13487345 0.21148093 -0.027646797
000380 0c d3 48 be ad 2e 2c be 1f a3 44 be e4 09 c4 3c
       -0.19611758 -0.1681468 -0.19202851 0.023930497
000390 cc 18 f2 bc de ca 95 3d cc 19 7c bd 11 b2 e9 3c
       -0.02955284 0.073140845 -0.06154804 0.028527291
0003a0 68 f3 59 bd 25 84 69 bd 09 7d f8 3d 98 6a 2b be
       -0.053210646 -0.05701079 0.121332236 -0.16739881
0003b0 8b 75 94 bc ec 16 82 bd 26 6d b8 3c 43 b4 83 bd
       -0.018122455 -0.06352028 0.022512984 -0.064308666
0003c0 6e b9 4a 3d e2 ca 7b bd 85 78 84 3c 7c bc 18 3e
       0.049493246 -0.06147278 0.01617075 0.14915651
0003d0 8d 70 36 3e 1c 92 bd bb 4c f2 07 be 08 e7 5a 3d
       0.17816372 -0.00578524 -0.13276023 0.053442985
0003e0 29 c9 1e be 8c fa 47 3e 0d e1 7b 3d e5 95 cc 3c
       -0.15506424 0.1952917 0.061493922 0.024973819
0003f0 9f 7c 6b bd 93 25 06 3e 78 79 b0 bd d4 23 00 3e
       -0.057491895 0.13100271 -0.08616918 0.12513667

lstm.bias_ih_l0 f4 [220]
000000 3a 43 d7 3d d9 84 95 bc 14 f3 1f 3d 1a 08 e3 bd
       0.10510869 -0.018251823 0.039050177 -0.110855296
000010 50 60 d4 bc bf 21 a2 3d ab 60 48 3e 46 81 36 3e
       -0.025924832 0.07916593 0.19568126 0.17822751
000020 ef 4e 0d bd 48 8a 47 3d d0 33 05 3e 06 38 df 3c
       -0.034499105 0.04871586 0.13008046 0.027248394
000030 46 8e 37 bd e1 89 c8 bc 52 08 09 3e 32 a4 89 3c
       -0.044813417 -0.024479808 0.1338208 0.016801927
000040 c0 33 04 3d a9 2d fe 3d 2e c5 4f 3e a3 3d b4 bc
       0.032275915 0.12411053 0.20290062 -0.022002047
000050 0f cd 1a 3e 78 6f 8c 3d 96 e8 9d 3b a2 d0 29 bd
       0.15117286 0.068571985 0.004818986 -0.041458733
000060 bf 33 30 bd 31 c2 ae bc 38 b3 63 3d 43 51 ce 3c
       -0.0430181 -0.021332832 0.05559084 0.025185233
000070 94 aa 08 3e 36 a1 6c bc 09 c7 4d 3e b7 b2 5f 3e
       0.1334632 -0.014442733 0.20095457 0.21845518
000080 75 9d b6 3b 6b fa 50 3d 38 6a 2f 3c de c9 20 3e
       0.0055729696 0.051020067 0.010706477 0.15702006
000090 80 17 60 bc 10 36 4a 3e 94 6d 11 3e 9c bf 78 3e
       -0.013677478 0.19747186 0.14201957 0.24291843
0000a0 c9 cf 80 3d 3a fa 96 3d 81 b7 ef 3c 27 31 2a 3e
       0.06289632 0.07371946 0.029262306 0.16620313
0000b0 5b 55 fd 3d 2c 1f 4b 3e 17 42 74 bc 9e c4 f6 3d
       0.12369796 0.1983611 -0.014908335 0.120492205
0000c0 5d 80 80 3d c9 10 65 3e 5e 93 38 3e b8 31 e3 bc
       0.06274483 0.22369684 0.18024966 -0.027733669
0000d0 a9 2b 44 3c eb c6 09 3e 8b c2 57 3e f9 78 36 3e
       0.0119733 0.13454787 0.21070306 0.17819585
0000e0 ec 21 58 bb bb f9 1d 3d fc 02 33 3e f7 4c 90 bc
       -0.0032979203 0.03856824 0.17481607 -0.017614825
0000f0 41 e9 40 3e d3 ba c8 3d 6d 7b 01 bd b4 52 92 3d
       0.1883898 0.09801259 -0.03161185 0.071446806
000100 38 55 4a 3e 65 4f a9 bc 47 a4 05 bc 08 a6 a8 3d
       0.19759071 -0.020667741 -0.008156843 0.08234793
000110 ed 73 4a 3d 24 3e 9b 3d 9c 4d 1a 3d 7e 7e 1c 3e
       0.04942696 0.07580212 0.03767167 0.15282628
000120 c5 6e e3 3d 65 17 82 3d e4 b2 03 3e 1d 15 e2 3d
       0.11105112 0.063521184 0.1286121 0.11039183
000130 7a f9 2d 3e f0 13 fd bc a8 21 6d 3d 7b 46 37 3e
       0.16989699 -0.030893296 0.057893425 0.1789798
000140 04 28 82 bd a0 80 1e bd df f4 2b 3e eb b8 19 bd
       -0.063552886 -0.038696885 0.1679263 -0.037529867
000150 c8 aa 56 3e 9d 31 22 3d 4b 3f 6b bc ff 56 ee 3b
       0.20963585 0.039598096 -0.014358352 0.0072735543
000160 32 a9 7c 3d c3 4b b5 be f3 26 0a bc 6d f0 cb 3d
       0.061684795 -0.35409364 -0.008432138 0.09957967
000170 1a 1c bb 3d 4d 80 a5 3d 42 c2 d5 3d f5 d4 ba 3d
       0.09136219 0.08081112 0.10437442 0.091226496
000180 40 9e fe 3d 25 07 34 3e 73 76 79 3e d6 77 76 bd
       0.124325275 0.1758085 0.24361591 -0.06017288
000190 bd e3 a6 3d 3d a8 5a 3e 7d a8 c8 3d e8 6d 65 bc
       0.081489064 0.2135324 0.097977616 -0.0140032545
0001a0 80 0f 1f 3c 1f 05 99 3d 98 b5 57 3e f3 49 59 3e
       0.009708285 0.0747168 0.21065366 0.21219616
0001b0 1e 3d 13 3e a0 2b 1c 3e c5 40 ad 3d af 6b 73 3e
       0.14378783 0.15251017 0.084596194 0.23771547
0001c0 4e a0 0e 3d c6 32 eb bd b6 9b 11 be b7 65 41 be
       0.034820847 -0.11484294 -0.14219555 -0.18886457
0001d0 00 13 da bd 53 2d 51 bc e2 66 02 3d 2b d3 37 bd
       -0.10648155 -0.012767154 0.031836398 -0.04487912
0001e0 6f ad f2 bd 3f 8e 0c 3e b8 a4 14 be 7f a1 ef bd
       -0.11849486 0.13726138 -0.1451596 -0.11700725
0001f0 b0 21 28 3e 59 9d 24 be 07 75 35 3e ca a4 f9 bd
       0.16419101 -0.16075648 0.17720424 -0.12189634
000200 11 9d bf bd 2c 42 c5 bd 91 db da bd 84 c7 a6 3d
       -0.0935613 -0.09631762 -0.1068641 0.08143523
000210 54 76 e5 bd f7 44 b2 3d 7d 66 e5 bc 88 87 5a be
       -0.1120421 0.0870456 -0.028002972 -0.21340764
000220 01 3d 47 be 2e e3 de bc 1f 97 18 be 6c 31 36 3e
       -0.19456865 -0.027207937 -0.14901398 0.1779229
000230 ac 60 05 3e fc d6 39 be 8d 30 d3 bd cc fe ca 3d
       0.13025159 -0.18148416 -0.10311995 0.0991188
000240 c1 bd 93 bd 38 91 4b 3e 96 69 1b 3e 09 5a 0b 3e
       -0.07213927 0.19879615 0.15176997 0.13608564
000250 f0 a2 fd 3c 1e 9f ba bd a6 4c 31 3e 24 4b 51 be
       0.030961484 -0.091123804 0.17314395 -0.2043882
000260 b5 95 13 bd 97 66 0e 3e 76 22 6f 3d 50 f5 2f bd
       -0.036031444 0.13906322 0.058382474 -0.042958558
000270 0d c0 40 3e 90 af 6d be 45 4e 29 be 44 56 23 be
       0.18823262 -0.23211503 -0.16533764 -0.15950876
000280 59 ce 55 be 11 bf 52 3d 7a 58 28 3e 19 ce 0a be
       -0.20879497 0.051451746 0.16440001 -0.13555183
000290 28 72 28 3e 77 3b 04 be a7 64 c4 3e 3d d4 17 3d
       0.16449797 -0.12913309 0.38358042 0.03706764
0002a0 28 d4 1a be dd 8a e5 3e cb 5c e1 3e ef 3e b1 3e
       -0.15119994 0.44832507 0.44016108 0.34618327
0002b0 ff fe a4 3e 20 a1 87 be 70 3a cb be 3a 5d b4 3e
       0.32225797 -0.26490116 -0.39693022 0.35227376
0002c0 35 06 a6 3e cd 9f cd 3e e7 08 e4 3e b2 e8 df 3e
       0.3242661 0.4016098 0.44538042 0.4373222
0002d0 55 bb ae 3e 72 16 a0 3e 35 79 93 3e 4e 55 dc 3e
       0.34127298 0.31267124 0.2880341 0.43033832
0002e0 30 e5 f4 3e 24 13 bc 3e a4 ec 88 be 83 46 b8 3e
       0.47831106 0.36733353 -0.26743042 0.35991296
0002f0 b8 35 54 be 36 6c cb be f1 22 e5 3e 25 59 97 3e
       -0.20723617 -0.39730996 0.4475322 0.295602
000300 f8 f5 d4 be c8 e6 e4 3e af 10 d4 3e 73 b2 9c 3e
       -0.4159391 0.44707322 0.4141898 0.30604896
000310 1d fa 86 3e 31 9f 08 bf 91 bf 99 3e 5c 64 f0 bd
       0.26362696 -0.53367907 0.30028966 -0.11737892
000320 9d f5 8e 3e e5 c3 c3 3e 4d 0a e3 3e c4 73 e5 3e
       0.27921763 0.38235393 0.44343796 0.44814885
000330 9a 0f cd 3e c2 34 d6 3e b4 7a 17 bf 9f 27 8c 3e
       0.40050966 0.41837126 -0.59171605 0.27373978
000340 6f b9 95 bd a0 05 8d bc 16 67 b7 3e d6 8d f0 3e
       -0.07310759 -0.017214596 0.35820836 0.46983212
000350 2b 15 9f 3e a5 c3 bc be a2 72 e3 3e 9c 87 cf 3e
       0.31070837 -0.36868015 0.44423395 0.4053315
000360 8e 1c 79 3e 87 a5 af 3e ea c1 f3 3e 1a 55 80 3e
       0.24327299 0.34305975 0.47608882 0.25064927

lstm.bias_hh_l0 f4 [220]
000000 e5 45 3e 3e ac 84 4e 3e 3a 18 8b bd 28 ea 16 bd
       0.1858135 0.20167798 -0.0679173 -0.036844403
000010 0b 4c 92 bc 36 ad d9 3d f3 ce 1d bc 43 c9 61 3c
       -0.017858526 0.106287405 -0.00963186 0.013780895
000020 43 e0 8f bd 1e 3d 37 3e 66 81 f1 3d d8 a9 4a 3e
       -0.070251964 0.17894408 0.11792259 0.19791353
000030 35 95 97 bc c3 60 2f 3d f5 5a 00 bc 50 ab 41 3e
       -0.018503765 0.04281689 -0.007834186 0.18913007
000040 29 9c 17 3e 93 20 30 3d 8d 31 00 3c 00 3b b9 bd
       0.14805664 0.042999815 0.007824314 -0.090444565
000050 9a 42 14 3e de 43 e3 3d 16 fe 43 3e 76 0f 20 bb
       0.14478531 0.11096929 0.19139895 -0.0024423278
000060 72 87 5d bd a5 17 f8 3d 9d b7 1d 3e dd e1 c8 bc
       -0.05408425 0.12113885 0.15402074 -0.024521763
000070 90 76 2b 3d 1e 63 81 bd 90 bb 45 3d 71 a4 09 3d
       0.041861117 -0.06317733 0.048274577 0.03360409
000080 9d 78 05 3e c8 c0 75 bd a8 e3 30 bc 27 ce b3 3d
       0.13034292 -0.059998304 -0.010796465 0.08779555
000090 e4 5f ec bc 64 c9 63 3e ed eb c3 3d e2 e0 5f 3e
       -0.028854318 0.22244793 0.09566484 0.2186313
0000a0 7f 3d 5c 3e f0 73 6d 3e 74 fd 6a 3d 98 51 1b 3e
       0.21507834 0.23188758 0.057370618 0.15167844
0000b0 e6 dc e1 bc 68 be 17 bd 6e 33 cd 3d ba 33 2c bc
       -0.027571153 -0.03704682 0.10019575 -0.010510379
0000c0 c1 81 9d 3d a1 60 3c 3d 52 17 9e bc 67 10 51 3d
       0.07690764 0.04599059 -0.01929823 0.051041033
0000d0 00 e6 0c 3e 4c 61 e9 3a f3 4f 0e 3e 80 84 f2 3d
       0.13759613 0.0017805486 0.13897686 0.118416786
0000e0 5d 21 2f 3c c2 cc d2 3d 91 28 97 3d b8 de 1a 3e
       0.010689107 0.10292961 0.07380784 0.15124023
0000f0 e4 56 15 3e b7 ab 37 3d c8 39 17 ba 23 db 10 3e
       0.14583927 0.044841494 -0.0005768803 0.14146094
000100 13 db af 3d 37 a0 50 3e 12 2e 2d 3e 18 6d 0a 3e
       0.08586707 0.20373617 0.16912106 0.13518178
000110 89 fe e9 3d f4 6c 1a 3e 47 15 1a 3c 9d 83 76 3d
       0.11425502 0.15080625 0.009404487 0.06018411
000120 f7 85 14 3e c3 dd 2a 3e ce 0f d8 3d c2 46 db 3c
       0.14504229 0.16686158 0.105498895 0.026767138
000130 4e 68 c5 b7 37 c4 4f 3e cf df 1d 3e 67 c2 13 3e
       -2.35328e-05 0.20289694 0.15417407 0.14429627
000140 b2 0c 2f bd 72 5b 21 3e 6d 81 f1 3d 50 b0 3e 3e
       -0.042736717 0.1575754 0.11792264 0.18621945
000150 45 e8 19 3e e4 f0 53 3d 7d 3a 29 bd ad 62 13 bc
       0.1503001 0.051743403 -0.041315544 -0.008995694
000160 df c2 11 bd 74 0c c3 be 7f dc e2 bc 26 63 7e 3e
       -0.035586234 -0.38095438 -0.027693031 0.2484251
000170 17 0e de 3d dc d2 ed bc 96 25 27 3e 16 95 6f 3e
       0.10842531 -0.02903121 0.16322932 0.23396716
000180 9f ef 8b 3e bc 25 46 bd f0 b2 ff 3d d2 cd a0 3d
       0.27331254 -0.04837583 0.124853015 0.07851757
000190 41 04 0c 3e 20 9c 6b 3e 79 2f 0c bd 0b 70 d8 3d
       0.13673498 0.23008776 -0.03422496 0.105682455
0001a0 71 5c cf bc a7 55 8b 3d b9 ad e3 3c 45 01 88 3d
       -0.025312634 0.06803446 0.027792798 0.06640867
0001b0 71 0f 50 3d d0 64 1e 3e 10 a3 f0 3c ad 70 14 3d
       0.050795976 0.15468144 0.02937463 0.03624027
0001c0 59 5d f4 3d 49 4a 63 bd bd 3f 79 bc 53 34 29 be
       0.11931867 -0.055490766 -0.01521295 -0.16523866
0001d0 84 b1 5d be 1b 5b 2a be 28 e7 6b 3d fe 29 81 be
       -0.21649748 -0.16636316 0.057593495 -0.2522735
0001e0 9e da c0 bd c1 ad 47 3d 39 22 49 bc a9 92 63 bd
       -0.09416698 0.04874969 -0.012276226 -0.055559788
0001f0 94 cb 57 3e 1b 48 0b be 49 de 54 3e 4a ac 0f be
       0.21073753 -0.13601725 0.2078792 -0.14030567
000200 f4 4a 26 be 88 98 4a bd c9 90 49 be d7 fc 47 3e
       -0.1623953 -0.04946187 -0.19684137 0.19530044
000210 bb 5e 68 be 98 51 28 3e 30 61 b5 3d 78 c2 37 3d
       -0.22692387 0.16437376 0.08856428 0.044863194
000220 85 c8 b5 bd 7c 8d b2 bb 37 38 2e 3d ee 10 f0 3d
       -0.08876137 -0.005448995 0.04253408 0.11721979
000230 07 9d 60 3e c4 1e 24 be 82 21 96 bd a8 20 7b 3e
       0.21934901 -0.16027361 -0.0733061 0.24524176
000240 6c 88 b2 bd 4e 41 e8 3d 01 f3 59 3d b6 98 a9 3d
       -0.08717427 0.11340581 0.053210262 0.082810804
000250 9e 40 3e 3e fc 00 f2 3b e1 67 38 3e 25 b5 01 be
       0.18579337 0.0073853713 0.18008377 -0.12666757
000260 8b d5 14 3d 77 25 23 3e 7c da 0c 3e 3e 7f 37 be
       0.036336463 0.1593226 0.1375522 -0.17919633
000270 2a 7a 3f 3e d6 39 0c be f6 65 03 3d e7 bc a3 bd
       0.18698946 -0.13693938 0.03207966 -0.07995015
000280 36 b5 00 be bb c0 1a 3d 9c 32 1f 3e 8c 7e e6 bc
       -0.12569126 0.03778146 0.1554665 -0.028136514
000290 75 8a 87 3e f8 52 0d 3c e9 da 8c 3e ea 42 8f 3d
       0.26472822 0.008625738 0.27510765 0.06995185
0002a0 c6 1f 31 be 23 99 dd 3e 57 32 cb 3e 96 65 8e 3e
       -0.17297277 0.43280897 0.39686844 0.2781188
0002b0 3e c4 87 3e 9d eb 9a be 48 52 f0 be a1 74 c3 3e
       0.26516908 -0.30257884 -0.46937776 0.38174918
0002c0 29 64 fe 3e 2f 88 b9 3e c9 1b a7 3e d4 26 f0 3e
       0.4968579 0.36236712 0.32638386 0.46904624
0002d0 e1 18 a7 3e b2 cc cf 3e 14 65 d3 3e 2b 48 a4 3e
       0.3263617 0.40585858 0.41288054 0.3208631
0002e0 2a 2b 8b 3e e5 d8 91 3e d7 a8 25 be 0b de fa 3e
       0.2718137 0.2848579 -0.16177689 0.4899753
0002f0 47 29 08 bd 3c a1 fd be 59 80 ac 3e 55 c7 fd 3e
       -0.03324249 -0.49537075 0.33691671 0.4956614
000300 14 1e fe be 81 67 9e 3e c6 fa f8 3e 1c 83 b5 3e
       -0.49632323 0.30938342 0.48628825 0.3545159
000310 2f 3f ee 3e cb 60 0b bf 78 f9 70 3e 4d dc ec bd
       0.4653258 -0.5444457 0.23532665 -0.115654565
000320 7d e4 98 3e dc cc cb 3e c1 f6 9c 3e bb 31 ab 3e
       0.29861823 0.39804733 0.30657008 0.3343638
000330 6d ef f5 3e 50 ab 8a 3e eb 8e 08 bf ed be 7c 3e
       0.4803423 0.27083826 -0.53343076 0.24682207
000340 62 26 f1 bd 69 3b 99 bd 7a 09 af 3e db 54 8c 3e
       -0.11774899 -0.07482035 0.34186918 0.2740849
000350 06 f3 8c 3e d2 02 14 bf 94 7a ea 3e 62 42 ee 3e
       0.27529162 -0.57816803 0.45796645 0.4653502
000360 ca e4 c7 3e 08 22 ed 3e 2e 1b ca 3e c8 ee fe 3e
       0.3904174 0.46315026 0.3947386 0.4979155

lstm.weight_ih_l0_reverse f4 [220, 20]
000000 70 b9 d6 be 5f 48 6f be 71 08 85 bf fa 67 8a bf
       -0.41938353 -0.23367451 -1.0393201 -1.0812981
000010 f2 fe f8 3e 23 08 b6 bb a1 07 c2 3f 16 26 d9 3e
       0.48632008 -0.005555169 1.5158578 0.4241187
000020 d3 17 c5 3f dc 99 8a 3e 4d 29 8c bd 25 61 a0 be
       1.5397896 0.2707051 -0.06843815 -0.31324115
000030 4c 3d 43 3f a1 7d 12 bf 6b 93 a3 3f 22 ae d4 3d
       0.76265407 -0.57222944 1.2779363 0.10384776
000040 12 a3 89 be 69 33 97 3f 15 53 97 bf 07 8e 21 3f
       -0.26882225 1.1812564 -1.182223 0.6310734
000050 68 1c 2a be 59 d9 22 40 8a 97 0d 40 90 92 c2 3f
       -0.16612399 2.5445158 2.2123742 1.5200977
000060 3f 42 aa bd 3e 92 d0 3f e3 69 92 bf 46 4e 90 be
       -0.08313417 1.629463 -1.1438564 -0.28184718
000070 a4 7c 42 3f 98 b4 a3 3f 1a 84 81 be af 57 05 3f
       0.75971437 1.2789488 -0.25296098 0.5208692
000080 3a 2b 83 bf 21 63 89 bf 88 17 16 bf 51 01 ac 3f
       -1.0247567 -1.0733377 -0.58629656 1.3437902
000090 27 7c 62 3f 6a 16 dd 3e 61 2f 5a 3f 99 49 e4 3f
       0.8847069 0.43181163 0.85228544 1.783496
0000a0 dc 5b aa be 13 dd 3f 40 5b 6d 1e 40 a3 a0 9e 3f
       -0.33273208 2.9978683 2.4754245 1.2392772
0000b0 d9 97 df bd cb 57 89 3f 6e 84 9a 3f af 1a 57 3f
       -0.109176345 1.0729917 1.2071664 0.8402509
0000c0 ac 89 a2 3f 05 bb af 3e 93 2a 25 ba bf 39 d9 3e
       1.2698264 0.34322372 -0.00063005945 0.4242687
0000d0 01 83 9d 3e b0 e8 1c 3f 92 c5 c7 3c a6 a9 50 bf
       0.3076401 0.6129255 0.024386201 -0.8150886
0000e0 e7 17 1d be 67 4f 86 bf c2 86 46 3e 6b ca 05 bf
       -0.1534115 -1.0492982 0.19387344 -0.5226199
0000f0 d4 0e ae 3d a4 bb 66 3f f0 41 92 40 61 e4 21 40
       0.08498922 0.90130067 4.570549 2.5295641
000100 f1 a5 99 be b4 06 64 bf 42 02 90 3f 0d 98 6d 3e
       -0.30009416 -0.8907273 1.1250689 0.23202534
000110 d8 a8 94 bf 82 74 cc bf e0 f3 be 3f f6 88 25 c0
       -1.1614027 -1.5973055 1.4918175 -2.5864844
000120 f9 84 c1 3f 85 08 16 c0 80 2e e0 3e 92 51 ca be
       1.5118705 -2.34427 0.43785477 -0.39515358
000130 00 54 4b bd e0 94 08 3f d2 7e 72 40 23 a8 b2 3f
       -0.049640656 0.53352165 3.7889905 1.3957561
000140 1b cb c1 be 1c be 56 bf 66 6a 1d be e9 55 23 bd
       -0.3785027 -0.83883834 -0.15372619 -0.039876852
000150 b6 90 9b 3f ba 5a db be 2a 1b 47 bf 03 5a 80 be
       1.2153537 -0.42842656 -0.77775824 -0.25068673
000160 b3 ce 12 bf 9e c6 d1 be a6 ea de 3e 5d 71 ca be
       -0.5734665 -0.40971845 0.43538398 -0.39539614
000170 6d cb b4 be e2 e4 d9 be 88 76 16 bf 73 c3 a9 bd
       -0.35311452 -0.42557436 -0.58774614 -0.08289232
000180 21 14 a0 be 7e 7f 01 be 8f 98 d9 bf cd da 03 3f
       -0.31265357 -0.1264629 -1.6999682 0.5150574
000190 c5 06 d8 be 76 47 be bf f2 ad 48 be aa 43 f6 be
       -0.42192665 -1.4865558 -0.19597605 -0.480985
0001a0 fd e8 06 3f 02 4d d8 bd c0 ab 58 3f f9 c6 97 be
       0.5269926 -0.10561563 0.8463707 -0.29643992
0001b0 21 27 23 bf 7e 0b a3 be 4b bd 9d bf 9e 91 0e bf
       -0.6373158 -0.31844705 -1.2323393 -0.55690944
0001c0 64 f9 37 bf 77 a2 79 bf d2 14 26 3f 9d 29 a5 be
       -0.71864915 -0.97513527 0.6487552 -0.3225831
0001d0 36 f0 6f bf c5 de 4c bf ef 9d 51 3f 69 90 9b 3e
       -0.9372591 -0.8002742 0.8188161 0.30383614
0001e0 e5 99 c6 3f 77 9f 47 3d 9e 2c bb 3f 30 b1 dc be
       1.5515715 0.048736062 1.4622991 -0.43103933
0001f0 5f c1 35 3f 24 a6 b6 3e 77 f6 22 3f 57 ab 52 3f
       0.70998186 0.3567363 0.63657326 0.82292694
000200 eb 41 89 3f 66 6e 8f 3f 6b 8a 11 bf 04 83 0d 40
       1.0723242 1.1205566 -0.56851834 2.2111216
000210 ca 93 8c bf 36 8a cd bd 97 c6 85 bf 21 79 14 be
       -1.0982602 -0.10036127 -1.045123 -0.14499332
000220 74 c8 c7 be 5f 18 81 3e 41 65 4e 3f 4d f7 c6 be
       -0.3902012 0.25213906 0.8062325 -0.3886055
000230 c5 c3 c8 3c e6 03 71 bf d1 ae 2d bf 31 86 8c bf
       0.024507413 -0.94146574 -0.67844874 -1.0978452
000240 41 6f 5f 40 f2 7b 6d 3f 11 3a 6c 3e e7 3f 21 bf
       3.4911654 0.9276725 0.23069026 -0.6298813
000250 39 9b 72 3d 93 d8 2e bf 0e de d4 bd 13 2e 9f 3e
       0.059230063 -0.68299216 -0.10393916 0.3108984
000260 c3 8c 16 3f ad ed 20 3e cf 0f 22 3d 70 79 b2 3f
       0.58808535 0.15715666 0.039565857 1.394331
000270 86 01 ef 3e d0 88 6e 3f 0f 3d 80 40 bc 0c 28 3f
       0.4668085 0.9317751 4.0074534 0.6564443
000280 58 6e 60 be 02 36 95 3f 1b 69 82 bd 89 e8 8f bf
       -0.21917093 1.1657107 -0.063677035 -1.1242839
000290 bf c8 0d be 7f d3 60 3c 5b c3 37 be f8 6d 05 3d
       -0.1384611 0.0137223 -0.17945616 0.032575577
0002a0 f7 31 b1 3d b4 26 cd 3f ce 5f 92 bd c3 92 60 40
       0.08652108 1.6027436 -0.071471795 3.5089576
0002b0 36 8d 4d 3f c2 17 0f 3f 92 a0 09 bf d9 73 e0 3e
       0.80293596 0.55895627 -0.53760636 0.43838385
0002c0 ea 13 27 3f ff c1 ad be 9b fe 4f 40 a8 b1 c0 3f
       0.6526476 -0.3393707 3.249915 1.5054216
0002d0 77 fb b7 bf d3 f0 8f 3e 21 e9 72 bf 2f de 75 bf
       -1.4373616 0.28113422 -0.94886976 -0.9604215
0002e0 0d bd e0 be af 47 c5 bf 90 2f fd be 57 80 0f c0
       -0.43894234 -1.5412501 -0.4945035 -2.2422082
0002f0 7e ac d1 bf 1a 2c 48 bf dc d8 86 bf 9a a2 89 bf
       -1.6380765 -0.78192294 -1.053493 -1.0752747
000300 c9 c2 f3 bf b2 09 7d bf 33 3f a1 bf 48 f0 fe bf
       -1.9043819 -0.9884292 -1.2597412 -1.9917078
000310 f1 1b b1 bf d9 8d 6f bf f6 82 6f bf 9a 6d a0 bf
       -1.3836652 -0.9357582 -0.93559206 -1.2533448
000320 ee 02 64 be 5f f8 0d be 8b b5 c6 be 4d 81 9b be
       -0.22266743 -0.13864277 -0.3881038 -0.30372086
000330 38 fc 60 bf d7 e7 20 bf 6f 6b 5f bf c1 e0 a4 bd
       -0.87884855 -0.6285376 -0.87273306 -0.08050681
000340 3c 36 d1 bc 75 58 a8 bd 11 cc c4 bd 11 08 8f bf
       -0.025538556 -0.08219997 -0.09609235 -1.1174337
000350 1e 06 a1 3e a7 47 a7 bf 00 88 06 bf 56 e6 93 be
       0.3144998 -1.3068742 -0.5255127 -0.2888667
000360 dd 9c 46 be 5d d9 24 be 0f 4e 53 3e 3f 71 a9 3d
       -0.19395776 -0.16098543 0.20635246 0.08273553
000370 88 26 00 bf bf 62 bb 3e f1 40 5f 3f 48 57 80 3f
       -0.50058794 0.36598775 0.8720847 1.0026636
000380 b5 dc 68 3e b1 1e 41 bf 2d 83 80 bf 92 e7 f3 bd
       0.22740443 -0.75437456 -1.0040032 -0.11909403
000390 65 b9 d9 be f3 a7 fa bf f8 5c 32 c0 16 e3 0a bf
       -0.42524257 -1.9582504 -2.7869244 -0.54252756
0003a0 db 6e dc bf dc e8 41 be 4e ab 7a 3b a1 c8 27 bf
       -1.722133 -0.18936485 0.0038249078 -0.6554051
0003b0 7f af 81 bf 89 ab 1c c0 c3 23 18 3f 87 4c 14 bf
       -1.0131682 -2.4479697 0.5942957 -0.5792927
0003c0 80 74 e6 bd 00 a1 e2 3f 1f fb 04 3f 20 19 07 bd
       -0.11252689 1.7705383 0.5194568 -0.032982945
0003d0 a1 c5 3e 40 03 bc 13 be cd 4d 44 3b a4 d7 8a bf
       2.9808123 -0.1442719 0.00299536 -1.0847058
0003e0 ad f5 1b bf c2 9f a7 3e 2d dd 0f 3e e4 47 61 3f
       -0.60921746 0.32739073 0.14049216 0.8800032
0003f0 12 ac 5f bf 12 44 90 be 88 27 fe be 3d 43 5b 3f
       -0.87371933 -0.28176934 -0.49639535 0.8564947

lstm.weight_hh_l0_reverse f4 [220, 55]
000000 94 06 38 be 7f 16 a4 be 9c 99 30 3e 10 37 16 bb
       -0.1797126 -0.32048413 0.17246097 -0.0022921003
000010 43 ad a3 3e d9 85 3e bf f3 be 2a bf 71 ec 29 3f
       0.31968126 -0.74422985 -0.66697615 0.66376406
000020 db 46 06 3e 01 c8 22 3d 1f b5 ef 3e c7 47 21 3f
       0.13112967 0.03974152 0.46817872 0.6300015
000030 ef 12 29 3f e4 b0 33 bf b0 37 2d 3f ab 75 58 3c
       0.66044515 -0.7019179 0.676631 0.013211648
000040 cd 17 28 3d eb 33 53 be db d5 12 3d 93 5a e4 be
       0.041038323 -0.20625274 0.03584848 -0.44600353
000050 c7 e1 0c 3e 8c d2 14 bd f8 5a 24 3f f8 11 fb be
       0.13758002 -0.036333606 0.6420131 -0.49037147
000060 dd 75 b2 bd d1 bc 38 3f 56 bb 3e 3f 28 5e 9f 3e
       -0.08713887 0.7216311 0.745046 0.31126523
000070 59 d3 f1 be a6 39 4a be 94 0b fb 39 39 55 a9 3e
       -0.47231558 -0.19748554 0.00047883077 0.33072832
000080 12 db 2a bf f6 9d 59 3f 19 b6 06 3f dd 6a db 3e
       -0.66740525 0.85006654 0.5262161 0.42854968
000090 95 3c 4c be ea 25 58 bc fa 40 22 be eb 54 1c 3f
       -0.19944985 -0.013192633 -0.15845099 0.61067075
0000a0 bd 06 3c 3f cb 84 15 bf fb 31 fe 3e c3 96 d1 be
       0.7344778 -0.5840575 0.49647507 -0.40935335
0000b0 28 21 91 3e 9a 3d a0 3d af 03 4c be 43 90 8c 3e
       0.2834561 0.078242496 -0.1992328 0.27453813
0000c0 32 ea 39 bf ba 3d 4e bd 91 33 15 3f 0f 0e 92 3d
       -0.7262298 -0.050351836 0.5828181 0.07131588
0000d0 0d 43 4f bf bf e8 65 be 87 7c ed bd 79 04 16 bf
       -0.80961686 -0.22452067 -0.11596017 -0.58600575
0000e0 27 f0 09 3f ee 28 43 be 49 cc 9a 3d 24 f3 83 bf
       0.5388207 -0.19058582 0.075584956 -1.0308576
0000f0 5d a3 08 be 12 70 60 3e 53 21 8e bf cd 92 b3 be
       -0.13343568 0.21917751 -1.110392 -0.35072938
000100 81 59 38 3f db 34 7a bf ba 4d 37 3f 32 7f ec 3b
       0.7201157 -0.977369 0.71602976 0.0072173113
000110 32 bc 25 bf ac f8 ba 3e 6a 0c 2b be 6e 37 f7 3c
       -0.6474029 0.36517847 -0.16703954 0.030177798
000120 c3 9a bb 3b 47 9a a0 bd a2 69 61 be 33 20 7b be
       0.005725236 -0.07841926 -0.22012952 -0.24524002
000130 59 27 ac be 8b bd ed be 3c 3d a6 be 60 3c b5 be
       -0.3362377 -0.46433672 -0.32468593 -0.35397625
000140 ca ac 33 bc 4e 26 04 3e 82 8a 49 bd fd cb 27 bf
       -0.010966489 0.12905237 -0.049204357 -0.65545636
000150 da 44 86 3e 65 14 84 3f 6e f7 a9 be 0c b8 82 3f
       0.26224405 1.0318724 -0.33196586 1.0212417
000160 90 dc 88 3e 6e b1 d0 3e cd 7e c2 be 5a 4a 88 bd
       0.26730776 0.40760368 -0.37987366 -0.066548064
000170 4a be db bd ba 01 d4 be 56 77 a1 3e e2 d7 04 3e
       -0.10729654 -0.41407567 0.3153636 0.12972978
000180 cd f2 09 be 45 19 4c bf cf 82 0b bd e2 d6 d6 bd
       -0.13471527 -0.7972606 -0.034060296 -0.104902044
000190 84 53 48 bf ac 0e 88 be 47 0c 8d 3e 5b 25 18 bd
       -0.78252435 -0.26573694 0.2754843 -0.037145
0001a0 64 3f 00 be ae bf 56 bf 91 ac 04 bf 2c ef bf be
       -0.12524182 -0.8388623 -0.51825815 -0.3748716
0001b0 b3 4b 7c bd 24 d1 81 be 7b 4d 4b be 21 f1 17 3f
       -0.06159563 -0.25354874 -0.19853775 0.5935231
0001c0 fa 60 69 bf 1e 0d 47 3f ad d1 a8 bd 66 e8 52 bf
       -0.911636 0.7775439 -0.082431175 -0.8238586
0001d0 40 6b 0b 3f d6 5a 46 bf 8d 54 43 be 6c 6f 0c 3e
       0.54460526 -0.77482355 -0.19075222 0.13714379
0001e0 0e 30 e4 be 2a 6c 25 3c 39 38 5f 3f 85 5b 14 bc
       -0.44567913 0.010096589 0.87195164 -0.009055023
0001f0 0d 86 69 3d 45 78 38 bf 97 7f 96 3e 9a e1 c7 be
       0.057012606 -0.72058517 0.29394218 -0.39039308
000200 6a 60 78 be b7 4a 1c 3e 87 59 f0 bd 12 d2 5d 3d
       -0.24255529 0.15262876 -0.11735826 0.054155417
000210 2f 1b 51 bf fb 6f 35 bf 31 3e 2a 3f 6f c0 20 be
       -0.81682104 -0.70873994 0.66501147 -0.15698408
000220 18 e9 82 3d 99 97 4b be 28 a3 b9 bc 5d b6 6e 3f
       0.06392115 -0.19882049 -0.022660807 0.93247014
000230 80 f1 2d 3f 66 76 31 3e 2a b7 58 be 7e 59 d0 3e
       0.67946625 0.17330322 -0.21163622 0.40693277
000240 55 4f 09 bf 7a 18 07 bf 78 65 3f 3e 07 f7 01 bf
       -0.53636676 -0.52771723 0.18691051 -0.5076756
000250 e4 92 dd bf 96 ab 0c bf f4 00 23 3f 50 08 10 bf
       -1.7310452 -0.5494932 0.6367333 -0.56262684
000260 93 78 18 bf 94 22 c1 bc 50 04 58 bf 38 1d 07 bf
       -0.5955898 -0.023576058 -0.8438158 -0.5277896
000270 76 4c c5 3e be 52 3e 3f 90 83 4c be 3b 24 9b 3f
       0.38534898 0.74345005 -0.19972062 1.2120432
000280 cf 44 94 3d ca f1 c7 bf d1 7c 1b be b8 60 b2 3e
       0.07239687 -1.5620663 -0.15184332 0.34839416
000290 b7 60 da 3e 88 ec 76 3e 5f 10 1f 3f 42 39 8b 3d
       0.42651913 0.24113667 0.62134355 0.067980304
0002a0 11 7d 80 3d b1 de fd 3e fb a5 1c 3e 13 e0 23 bf
       0.062738545 0.49583963 0.15297692 -0.64013785
0002b0 e0 30 58 3e 18 56 31 bf 78 c7 3d 3f d5 98 14 3f
       0.21112394 -0.69271994 0.7413249 0.58045703
0002c0 0b 42 32 bf 7f 3e 70 3f 5a ac 63 3f 7a 61 05 bf
       -0.69632024 0.9384536 0.8893486 -0.5210186
0002d0 47 64 a7 3e e0 90 93 3e 8e c7 8f be a1 b3 7f 3d
       0.32693693 0.28821468 -0.28081936 0.062427167
0002e0 6f ac c8 be 41 07 96 be 55 39 95 3d 98 fe 5a be
       -0.39194056 -0.2930241 0.07286326 -0.21386182
0002f0 0c 43 e7 bd f9 ea 56 be 2b 64 0c 3e 8f 4b 4e bf
       -0.11292085 -0.20988072 0.13710086 -0.80584043
000300 83 ad 58 3e 3c 4f 82 be dd da 22 3f 28 94 f4 3e
       0.2115994 -0.25451076 0.6361521 0.47769284
000310 3b ee ac be da 0e 0e 3f 0d 3f b3 3d e2 26 39 be
       -0.33775505 0.5549141 0.0875226 -0.18081239
000320 4e 2d d2 bf d2 ff 5f bf fe 96 f9 3d d8 18 b1 bd
       -1.6420076 -0.87499726 0.121870026 -0.08647317
000330 e1 24 7e 3e 28 dd 32 3f 7a 99 6c 3e e7 a4 19 bf
       0.24818756 0.6986871 0.23105422 -0.60017246
000340 51 7a 08 3e e6 be 15 be da 58 cc bd 6a 19 2f bf
       0.1332791 -0.14623603 -0.099778846 -0.68398154
000350 80 b5 74 3f e0 14 36 bf 5e a3 bc 3d e6 18 16 bf
       0.9558945 -0.711256 0.09210847 -0.5863174
000360 8b d0 6f be e5 f1 71 3f f4 83 3d 3d 1d 86 26 bf
       -0.23419397 0.94509727 0.04626842 -0.6504839
000370 22 40 6c 3d f1 b6 bc 3d b0 b3 fe 3e 2d c6 09 bf
       0.05767835 0.09214581 0.49746466 -0.5381802
000380 6f ea 10 3f 41 72 96 be 65 48 45 bc 14 7b 3a 3d
       0.5660772 -0.29384044 -0.012041186 0.045527533
000390 35 89 4f bd a5 d5 9a 3c bd 89 d8 be b6 da 01 3e
       -0.05066796 0.018900702 -0.42292586 0.12681088
0003a0 3d cd 13 bf 9e a1 26 bd fc 60 23 bf 9d c3 25 3f
       -0.57735044 -0.040681474 -0.6381986 0.6475161
0003b0 be f1 04 bf e5 f2 bb bd 9d a3 04 3e 31 fd 0d bf
       -0.5193137 -0.09177188 0.12953039 -0.55464464
0003c0 81 8d aa be 79 24 89 3d e0 e0 cf be 83 37 a8 3e
       -0.33311084 0.0669641 -0.40601254 0.32854852
0003d0 7e da dd 3d e6 33 90 be 79 da 1c 3d fe 82 76 3e
       0.1083269 -0.28164595 0.03829429 0.24073407
0003e0 9c e5 0e be d4 ac 47 be c6 c0 51 be 31 aa 69 3e
       -0.13954777 -0.19499522 -0.20483693 0.22818829
0003f0 21 c5 cb be 5f ff 03 3e 44 20 4a bd 73 c1 bb be
       -0.39798835 0.12890385 -0.049347177 -0.36671028

lstm.bias_ih_l0_reverse f4 [220]
000000 77 15 6f 3e e6 b3 27 3e 4c 45 6f 3f c2 b6 a0 bd
       0.23348032 0.1637722 0.93465114 -0.07847358
000010 2b 1a 3c bf 20 c4 c4 bd 3d 85 99 3f dd 84 49 3e
       -0.7347743 -0.096077204 1.1993786 0.1967959
000020 b4 10 2f 3f 11 eb 46 3d 84 11 0d bf 4b dd 4f bf
       0.6838486 0.04856402 -0.5510485 -0.8119704
000030 76 7e 87 3d 5a 17 25 bf fc b1 3a bf f5 9f 17 3f
       0.066159174 -0.64488757 -0.7292783 0.5922845
000040 77 c6 ca 3e 19 4a 2d 3e fe fb a4 3e 24 98 b7 be
       0.39604542 0.16922797 0.32223505 -0.35858262
000050 2f 77 de be 45 c6 d3 bd aa 62 91 3e 3f 0c 99 3f
       -0.43450305 -0.10340551 0.28395587 1.1956862
000060 f2 b3 c9 be a6 7f 0f 3f a0 3c 24 bf 9f 7d 0f bf
       -0.393951 0.5605415 -0.64155006 -0.5605106
000070 cf 8c fd ba bc d7 f8 3e 3a ef 42 be 39 d0 0e bf
       -0.0019344332 0.48602092 -0.1903657 -0.5578647
000080 d5 8d 0f bf fc fa f4 be 89 50 74 be 00 bf 3d bf
       -0.56075794 -0.47847736 -0.23858847 -0.7411957
000090 07 a9 14 bf 80 b5 0d 3f 7a 39 01 3e b1 1b b2 3d
       -0.58070415 0.5535507 0.12619582 0.08696688
0000a0 b4 de 8f be 7a 61 b3 be a0 8b a7 3d 86 48 2b 3e
       -0.28099597 -0.35035306 0.08180928 0.16726884
0000b0 42 7c e0 bd 80 f4 cf be 18 3e 41 be e2 e3 70 bd
       -0.109612 -0.40616226 -0.18871343 -0.058811076
0000c0 aa 1f 3c bf 38 14 a5 3e 2d 47 13 bf 72 9f f0 3e
       -0.73485816 0.32241988 -0.5753048 0.46996647
0000d0 43 b0 30 bf 8d 0a 17 be ae b8 42 bd 28 68 17 3e
       -0.69018954 -0.14750119 -0.047539406 0.14785826
0000e0 7e d1 5d 3e ce 96 23 3f 9b a5 03 3f 2d 86 49 3f
       0.21661946 0.63901985 0.5142457 0.7872036
0000f0 c5 1c 2f 3f 0b cf 0d 3f af 9d 81 3e e8 34 c1 3d
       0.68403274 0.5539405 0.25315616 0.09433919
000100 25 86 bc 3e f0 b3 81 3e 63 75 9a 3e e9 3f da 3e
       0.36821094 0.25332594 0.30167684 0.42626885
000110 3a 50 d8 3e d5 e0 18 3f 55 9a 31 3f c8 2d 1f 3e
       0.42248708 0.59718066 0.69376117 0.15544808
000120 0e 84 d1 3e 28 da 03 3f 01 f5 94 3e 14 67 5a 3f
       0.40921062 0.51504755 0.29093173 0.85313535
000130 84 85 1f 3e d6 4a 17 3f e5 02 70 3e 03 06 29 3f
       0.15578276 0.59098566 0.23438604 0.660248
000140 0d a4 15 3f 1b 30 32 3f 85 25 33 3f d2 5c 92 3e
       0.58453447 0.69604653 0.69979125 0.2858644
000150 8e 15 11 3f 99 bb c6 3e 54 7c 3b 3f 47 1f 4e be
       0.56673515 0.38815 0.73236585 -0.20129119
000160 14 6c 22 3f 7b 35 0b 3e 44 e6 2c 3e 0d 11 51 3e
       0.63446164 0.1359462 0.16884714 0.2041666
000170 ee 4c 61 3f 8a 1d 15 3f 51 bc a9 3e 9a 6a db 3e
       0.8800801 0.582482 0.33151487 0.42854768
000180 03 8f fc 3e d7 86 25 3e 58 25 f0 3e 74 cb 12 3f
       0.4932786 0.16164719 0.4690349 0.57341695
000190 6a 12 5f 3e 85 09 85 3e 8e 7b 91 3e f8 15 97 3e
       0.21784368 0.25983825 0.28414577 0.29508948
0001a0 f7 b1 db 3e fe 49 fb 3e 1a f3 fb 3e f9 27 0c 3f
       0.42909214 0.4907989 0.4920891 0.54748493
0001b0 ba 6e e4 3e 68 3f 52 3e b8 ce 5b bd 59 36 2e 3f
       0.44615728 0.20532 -0.05366394 0.6805168
0001c0 58 1a 7e bd 77 ff 09 3e 6f 38 0b 3c 40 01 da bd
       -0.062036842 0.13476358 0.008497342 -0.1064477
0001d0 8c 0e b1 3e c0 3e 30 bc 26 5a 18 3f 93 0f f9 3d
       0.3458141 -0.010757148 0.59512556 0.12161174
0001e0 48 aa 69 be 6c 1d ed 3d 60 32 ed 3e 86 a8 c5 bd
       -0.22818863 0.115778774 0.46327496 -0.09651284
0001f0 f7 59 9d 3d 3e 0a ea be 89 d3 ac 3e 78 a1 37 bf
       0.07683175 -0.4571094 0.3375514 -0.71730757
000200 c4 30 7f be f3 e8 d3 3e e1 e3 4a 3e ce 87 ea 3d
       -0.24920946 0.41388664 0.19813491 0.11451684
000210 a1 50 03 bf 2a ba 7d bf 41 e6 01 be 03 b6 55 bf
       -0.51294905 -0.9911219 -0.12685491 -0.8348085
000220 a3 8f 9c 3e 4f b4 a6 bd 5d 28 c4 3b 43 b5 e2 3e
       0.30578336 -0.0813986 0.005986257 0.44278917
000230 71 a9 3c be df 68 7b 3e 57 c1 17 3e 07 fd 93 bd
       -0.18424012 0.24551724 0.14819847 -0.072259955
000240 dd 7d 5d 3e bd 79 e3 bd 79 b7 ac 3e d9 e3 70 be
       0.21630044 -0.11107204 0.3373373 -0.23524417
000250 e2 fb af be 82 a8 b8 be bf 24 92 3e 2d d6 84 be
       -0.3437186 -0.3606606 0.2854366 -0.25944653
000260 8e f9 99 3c 94 f7 04 3f b3 c2 aa be 0c c9 d3 bd
       0.018795755 0.51940274 -0.3335167 -0.10341081
000270 98 ac 83 3e 4d dd 1e 3f 77 42 b6 3d c4 e9 99 be
       0.25717616 0.6205643 0.08899396 -0.30061162
000280 f5 96 0b 3f c1 72 21 be 00 6b 19 3d 27 45 33 bd
       0.5452722 -0.15766431 0.03745556 -0.04376712
000290 fb b4 9c be 96 37 f3 3e c1 8d 99 be 3d 43 3d 3d
       -0.30606827 0.47503346 -0.29990962 0.0462067
0002a0 89 67 c5 3d 50 bb 2b 3e d2 1a 96 3e 4f 5e 13 bd
       0.096388884 0.16770673 0.29317337 -0.03597861
0002b0 5f c3 d4 3d 37 1c 51 be 1f 4e f0 3e 47 5f 97 3e
       0.103888266 -0.2042092 0.46934602 0.29564878
0002c0 2a 7a b8 bd 0f 0d 0c 3d 46 d4 2b 3e fe de 64 3d
       -0.09007676 0.03419214 0.16780195 0.055876724
0002d0 35 58 14 bd 62 54 c7 bd 6a d5 be 3d 57 54 2d 3e
       -0.036216933 -0.097328916 0.09318049 0.16926704
0002e0 f2 18 88 3e 3d 5e ab 3e a8 f8 18 3e bc 19 ce 3d
       0.26581532 0.33470336 0.14938605 0.10063502
0002f0 20 40 da 3d f7 d7 5a 3e e8 8f a1 3f 8f dc 12 3f
       0.10656762 0.21371447 1.2622042 0.57367796
000300 64 60 2a 3e c5 d3 01 bd 54 8a 5d bd fd 7d 9b 3e
       0.16638333 -0.0316961 -0.054086998 0.3036956
000310 7c 8f 29 be 3b 17 88 3d 64 ef ca bd e5 bf 06 3e
       -0.16558641 0.06645056 -0.099089414 0.1315914
000320 35 e0 5f be 28 85 c0 bc 17 62 80 be 0a fd 84 3d
       -0.21862872 -0.023500994 -0.25074837 0.06493576
000330 01 07 ed 3b 0e b3 89 3e d9 a2 34 3e 2a 36 d2 3e
       0.007233501 0.2689442 0.17640246 0.4105695
000340 96 ef 3b 3f 81 36 88 3e 60 86 21 3e 91 79 47 be
       0.73412454 0.26604083 0.15773916 -0.19479968
000350 34 6e 87 be 0e 0f 19 3f c7 7e ac 3d 70 9e 91 3d
       -0.26451266 0.59788597 0.08422618 0.07110298
000360 b2 2e 61 3f 25 e0 96 3e d1 28 89 3e 43 29 27 bd
       0.87961876 0.29467884 0.26788953 -0.040810835
