sparrow/data/networks/rg/rg_network_v2.pt (torch, 99174 bytes, 9 tensors)

lstm.weight_ih_l0 f4 [180, 20]
0	0xbdf50438	-0.11963695
1	0xbe1b687c	-0.15176576
2	0x3f826ae6	1.0188873
3	0x3f35caaf	0.71012396
4	0xbecb11d9	-0.39662054
5	0x3f070bd3	0.5275242
6	0xbefa4b13	-0.48885402
7	0x3e84ad09	0.25913265
8	0xbeedd056	-0.4644801
9	0x3ea0e82c	0.31427133
10	0x3ff23b8f	1.8924426
11	0x3e298dd8	0.16558015
12	0x3fd86397	1.6905392
13	0x3f2a0382	0.664116
14	0x3df865aa	0.12128766
15	0xbb80f14e	-0.0039350158
16	0x3f90491a	1.1272309
17	0xbeeb78e1	-0.4599066
18	0xbf3da631	-0.7408171
19	0x3fbd4f90	1.4789906
20	0xbe0632b2	-0.13105276
21	0xbf84036f	-1.0313548
22	0x3df19e23	0.1179774
23	0x3e082727	0.13296185
24	0x3f0cd021	0.5500508
25	0x3d7f2106	0.062287353
26	0x3f826370	1.0186596
27	0x3e2a2ccd	0.16618653
28	0x3efc120a	0.49232513
29	0x3f91cd1a	1.1390717
30	0x3f8fe1b5	1.1240755
31	0xbf832a60	-1.0247307
32	0x3ec12416	0.37722844
33	0xbf5124ee	-0.81696975
34	0xbe95ea88	-0.29280496
35	0xbdfe9049	-0.12429864
36	0xbedd0353	-0.431666
37	0xbe9c8dcf	-0.3057694
38	0x3e9d62e6	0.30739516
39	0x3f129a85	0.5726703
40	0xc0103aa0	-2.2535782
41	0x40295d9d	2.6463387
42	0xc086cea8	-4.2127266
43	0x3f3e618a	0.7436758
44	0xc019770b	-2.3978908
45	0xbf8678d3	-1.0505623
46	0xc03af863	-2.9214103
47	0xbffa23b3	-1.9542145
48	0xbe6cf1de	-0.2313914
49	0x401bcc4f	2.434345
50	0x40a4f9b2	5.1554804
51	0xc0434d18	-3.0515804
52	0x3f5a6b07	0.8531956
53	0x3f6c812c	0.923846
54	0xc0111c4f	-2.2673528
55	0xbfa35385	-1.2759863
56	0xbe84f87c	-0.2597083
57	0x3fa73d0e	1.3065507
58	0xbfde55bb	-1.7369913
59	0xc0128d89	-2.2898886
60	0x3e4d99e1	0.20078231
61	0xbded24ee	-0.115793094
62	0x3f8d90b0	1.105978
63	0x3ede6540	0.43436623
64	0x3f254f58	0.64574194
65	0x3f933aa0	1.1502266
66	0x3e7f2cc7	0.24919425
67	0x3dca8857	0.09889286
68	0x3eb18c1a	0.34677202
69	0x3eef4fe1	0.4674063
70	0x3ff93e44	1.9472127
71	0xbf02a77f	-0.5103683
72	0x3f9d687e	1.2297513
73	0x3f410691	0.75400645
74	0x3f3399e3	0.7015669
75	0x3f2dbd94	0.678674
76	0x3ea2f2d0	0.31825876
77	0x3f0ec315	0.5576642
78	0xbe595ad5	-0.21226056
79	0x3fd0b62d	1.6305596
80	0xc00765f9	-2.115599
81	0x3e8e375f	0.2777662
82	0xbf0b2b2d	-0.54362756
83	0x3f927609	1.1442271
84	0xbe770582	-0.24123195
85	0x3e8f27fc	0.27960193
86	0xbf3f0e6f	-0.746314
87	0xbf9888fb	-1.1916803
88	0xbf98019e	-1.1875494
89	0x3f18398a	0.594628
90	0x3f572332	0.8403808
91	0xbe8bd015	-0.27307191
92	0x3fc7e928	1.5618029
93	0x3f4404ad	0.76569635
94	0xc0209ae7	-2.5094545
95	0xbdb2b76c	-0.08726391
96	0xbe4b9d3e	-0.19884202
97	0xbefdbeca	-0.49559623
98	0x40865012	4.197274
99	0xbf174eac	-0.5910442
100	0x3ee7d9f0	0.4528346
101	0x3f89295f	1.071575
102	0xbf962897	-1.1731137
103	0xbd854af9	-0.065084405
104	0x3ed350fe	0.4127273
105	0x3e86954d	0.26285782
106	0x3ecd7be3	0.4013358
107	0xbebe350e	-0.37149853
108	0x3eaf0ed9	0.34191015
109	0x3e71ba71	0.23606278
110	0xbf92edf2	-1.1478865
111	0x3ee2be96	0.4428603
112	0xbd0947dd	-0.0335158
113	0x3f459c9c	0.7719209
114	0x3e8bb5c2	0.27287108
115	0x3fd3f104	1.6557927
116	0x3e92f227	0.28700373
117	0xbec20d84	-0.37900937
118	0xbe2c2a19	-0.16812934
119	0x3f358f02	0.7092134
120	0x3d92a0b5	0.07159559
121	0x3fafc335	1.3731447
122	0xbeef1d37	-0.46701977
123	0xbf1c7fac	-0.6113231
124	0x3db8f932	0.09031905
125	0x3e720ca9	0.23637642
126	0x403a8863	2.9145744
127	0x400634de	2.0969768
128	0x3f0bb50b	0.54573125
129	0xbf3c86d8	-0.73643255
130	0x3fb3b9f8	1.4041128
131	0xbe8532d5	-0.26015344
132	0x3ecbd305	0.39809433
133	0x3fde1a15	1.735171
134	0xbf84f072	-1.0385878
135	0xbf90c1f8	-1.1309195
136	0xbfbde37d	-1.4835049
137	0x3fc62b4d	1.5481964
138	0xbeebe943	-0.46076402
139	0xbfa633b7	-1.2984532
140	0x40120527	2.2815645
141	0x3f470382	0.7773973
142	0x3f4ad63b	0.7923314
143	0x3f03c2b6	0.5146898
144	0xbfc082dc	-1.5039935
145	0x401d33e5	2.4562924
146	0x3f863cca	1.0487301
147	0xbf99c080	-1.2011871
148	0x40321c45	2.7829754
149	0x3fa5aee2	1.2943995
150	0x3fecd7e0	1.850338
151	0x3dc402ae	0.095708236
152	0x3f2b50e1	0.66920286
153	0xbf61eb91	-0.8825007
154	0x3fc9893e	1.5745008
155	0x3f9511e5	1.1646086
156	0x3f745513	0.9544231
157	0x4025d3b9	2.5910475
158	0x3e29b0cf	0.16571353
159	0x3d3cc086	0.046082042
160	0x3fdba2ef	1.7159098
161	0x3f4b1eaa	0.79343665
162	0x3f4ee20f	0.8081369
163	0x3cbbeb39	0.022939311
164	0x3e1b4b33	0.15165405
165	0xbf085441	-0.5325356
166	0xbf007670	-0.5018072
167	0x3fb233a6	1.3922012
168	0x3e276474	0.16346914
169	0xbf4fd62c	-0.81186175
170	0xbfbdd7c4	-1.4831471
171	0x3f50d868	0.8158021
172	0xbe351849	-0.17685045
173	0xbf16620b	-0.5874335
174	0x3f67a589	0.9048696
175	0xbe81857e	-0.2529716
176	0x3e84ad30	0.25913382
177	0x3f8c007e	1.093765
178	0x3fbc5f48	1.4716578
179	0xbe9b36b3	-0.3031517
180	0xbf2a9bda	-0.6664406
181	0xbf669070	-0.90064144
182	0x3f3b26c1	0.7310601
183	0x3f14085b	0.5782525
184	0xbf5530ca	-0.8327757
185	0xbd57e0f4	-0.052704766
186	0x3fc183d1	1.5118352
187	0x3fa1b5d7	1.2633618
188	0x3f0aa7fc	0.54162574
189	0x3f371a5c	0.71524596
190	0xbf0b701b	-0.54467934
191	0xbeaae9b7	-0.33381435
192	0x3f7b45a3	0.9815313
193	0x3d88f010	0.06686413
194	0x3f9dd26a	1.2329838
195	0xbf6c8d29	-0.92402893
196	0x3f376a99	0.7164703
197	0xbeff3df0	-0.49851942
198	0x3f7c8b66	0.98650205
199	0xbe7b309e	-0.24530265
200	0xbf1041f7	-0.56350654
201	0xbd646ebd	-0.05576967
202	0xbefbe81c	-0.49200523
203	0xbf13aba4	-0.5768378
204	0x40a4276f	5.1298137
205	0xbf95ccc5	-1.1703116
206	0x3f582dfc	0.84445167
207	0x3f3939a1	0.7235356
208	0xbf76e06b	-0.96436185
209	0x409f90bb	4.9864173
210	0xbfbf5b0f	-1.4949664
211	0xbe783e04	-0.24242407
212	0x3e5dba7a	0.21653166
213	0x401b1aab	2.4235027
214	0x3fdf600e	1.7451189
215	0xbfe9ba9d	-1.8260075
216	0x3f9f8972	1.246382
217	0xbfadefc3	-1.3588794
218	0x3f147d32	0.5800353
219	0x40173447	2.3625658
220	0xc016927c	-2.3526907
221	0xbe484b1c	-0.19559902
222	0xbfe95233	-1.822821
223	0xbb9a2b3a	-0.00470486
224	0xc014b586	-2.3235793
225	0xc02bb46f	-2.6828878
226	0xc04a0e29	-3.1571143
227	0x402d9747	2.7123582
228	0x3f90c866	1.1311157
229	0x406297df	3.5405195
230	0x400061b9	2.0059645
231	0xbcc216ae	-0.023692455
232	0xc027ef11	-2.6239665
233	0xc00be738	-2.1859875
234	0x3e9cff55	0.30663553
235	0xbd3be09e	-0.04586851
236	0x3f04a28c	0.51810527
237	0xbffa0ce3	-1.9535183
238	0xbf0f7ce9	-0.5604997
239	0xbe57352d	-0.21016379
240	0xbf1a50ae	-0.6027936
241	0xbf2791ac	-0.6545665
242	0xbfdd8ee1	-1.7309228
243	0x3f5b3e38	0.85641813
244	0xbfcba96d	-1.591108
245	0xbe52d529	-0.20589127
246	0x3fcda4e3	1.6065944
247	0xbe8b8fd8	-0.27258182
248	0x3fa50c71	1.2894422
249	0x3d3adb6c	0.045619413
250	0x3fe0e500	1.7569885
251	0x3e8d16d9	0.27556494
252	0x3ea25ef2	0.31713063
253	0x3e0e4f33	0.138974
254	0x3fd7e1d2	1.686579
255	0x3de4d38c	0.11173162

lstm.weight_hh_l0 f4 [180, 45]
0	0xbf348e15	-0.705293
1	0xbf0570d0	-0.52125263
2	0x3da01328	0.07816154
3	0x3e986e08	0.29771447
4	0x3eb9fca9	0.36325577
5	0xbf759e38	-0.9594455
6	0xbe20e26c	-0.15711373
7	0xbee60de0	-0.4493246
8	0xbf06c3d0	-0.52642536
9	0xbc9b73e0	-0.018976152
10	0x3fa78101	1.3086244
11	0x3ed9f600	0.42570496
12	0xbee1abf0	-0.4407649
13	0x3df0ee12	0.11764158
14	0xbe5ca7e1	-0.21548416
15	0xbe5f19fb	-0.21787255
16	0x3d655970	0.055993497
17	0x3fd5fa2f	1.6716975
18	0xbdeb84d6	-0.11499946
19	0x3d986bed	0.0744246
20	0x3f15d418	0.58526754
21	0xbe8d8c8a	-0.27646285
22	0x3f80767d	1.003616
23	0x3db22f0e	0.08700381
24	0x3e8e48bd	0.2778987
25	0xbe9e207b	-0.30884156
26	0xbeda0e95	-0.4258925
27	0x3e8605dc	0.26176345
28	0xbe5d5132	-0.21613005
29	0x3f2b2a76	0.66861665
30	0x3fa5bd22	1.2948344
31	0x3f2aed15	0.6676801
32	0xba321afb	-0.00067941815
33	0xbe1f527d	-0.1555881
34	0xbf0f7ef4	-0.5605309
35	0x3ec2e07c	0.38061893
36	0x3f5b4c06	0.8566288
37	0x3dab0216	0.08350007
38	0xbecc2d9a	-0.3987854
39	0xbec53aa3	-0.385213
40	0x3ea6e0ae	0.32593292
41	0x3f853792	1.0407584
42	0xbedcb419	-0.43106154
43	0xbee1bcf5	-0.44089475
44	0xbf92135e	-1.141216
45	0xbec04c96	-0.3755843
46	0xbe8d1b9c	-0.27560127
47	0xbec12358	-0.37722278
48	0x3e1704e4	0.1474796
49	0xbf14ace4	-0.5807631
50	0xbe71014a	-0.23535648
51	0x3e0264ac	0.12733716
52	0xbd80d3ce	-0.062903985
53	0xbf3a476c	-0.7276523
54	0x3c09812c	0.008392613
55	0x3f266bde	0.6500834
56	0x3e1404d9	0.14454974
57	0xbe4d26c1	-0.20034315
58	0x3dccd093	0.1000072
59	0xbe0f9671	-0.14022233
60	0xbf664380	-0.89946747
61	0xbea7a0f8	-0.32739997
62	0xbd2c0583	-0.041997444
63	0xbc4f9e46	-0.012672013
64	0x3ddd04cc	0.107919306
65	0x3eead1e8	0.4586327
66	0xbea14b63	-0.31502828
67	0xbd10d2d2	-0.035357304
68	0xbe4f46bd	-0.20241828
69	0x3e55011a	0.20801201
70	0xbe49778b	-0.19674508
71	0xbe6f485b	-0.23367445
72	0x3f174371	0.5908728
73	0x3d324be3	0.043529402
74	0x3eedcb7f	0.46444318
75	0xbee3d7b2	-0.445005
76	0x3ef8bf63	0.48583516
77	0x3fa36a52	1.2766821
78	0x3dd6312d	0.10458598
79	0xbe211e1f	-0.15734147
80	0xbdb0f817	-0.086410694
81	0x3e420f79	0.18951215
82	0xbd3660e3	-0.044525992
83	0xbf0bade2	-0.545622
84	0xbcdae717	-0.02672152
85	0xbe381aca	-0.17978969
86	0x3ed9d4f3	0.4254528
87	0xbe1a973d	-0.15096755
88	0x3df4b65b	0.11948844
89	0x3ddb5b32	0.107107535
90	0x3e504ea7	0.20342503
91	0x3eaeb81b	0.34124836
92	0xbf2b60ed	-0.6694477
93	0xbe57dd96	-0.21080622
94	0x3f94975a	1.1608689
95	0x3ef15f07	0.47142813
96	0xbd7198b5	-0.058983523
97	0x3df1c8af	0.118058555
98	0xbf9ec1bc	-1.2402873
99	0xbea1401a	-0.31494218
100	0x3f9c5f8e	1.2216661
101	0x3f6411ad	0.8908947
102	0x3e0a8234	0.13526231
103	0xbe551e08	-0.20812237
104	0x3d5bceee	0.05366414
105	0x3df5165e	0.11967157
106	0x3e934066	0.2876007
107	0x3f5cbfa0	0.86229897
108	0xbfb77464	-1.4332395
109	0x3f7fc35a	0.9990746
110	0x3f3fdfee	0.74951065
111	0x3e30c9c6	0.1726447
112	0x3fedcd1a	1.8578217
113	0xbe289417	-0.16462742
114	0xbe7baf1b	-0.24578516
115	0x3ec2a745	0.38018242
116	0xbf5d1e59	-0.8637443
117	0xbd8ad738	-0.06779331
118	0xbf73a16b	-0.9516818
119	0xbf9bea3d	-1.2180859
120	0x3e7453c2	0.23860076
121	0xbf90639b	-1.1280397
122	0xbebf81e2	-0.3740378
123	0xbeb0707c	-0.3446082
124	0x3cd69ea9	0.026198702
125	0x3f39de57	0.7260489
126	0x3f9f188e	1.2429368
127	0x3e0c69d5	0.13712247
128	0xbc82e6ff	-0.015979288
129	0x3e4f7f19	0.20263328
130	0x3f2f0ea3	0.6838171
131	0x3e8bd8c1	0.27313808
132	0x3e04a0ca	0.12951961
133	0xbfa35f22	-1.2763407
134	0xbdedb439	-0.1160664
135	0xbec2bdd3	-0.3803545
136	0xbf5c401b	-0.8603532
137	0xbf9834f2	-1.1891158
138	0x3fb6c83a	1.4279854
139	0x3faea5d2	1.3644354
140	0xbf1cd5ef	-0.61263937
141	0xbf2c42f1	-0.67289644
142	0x3d22dc2f	0.039760765
143	0xbf0847f7	-0.5323481
144	0x3f93ad2f	1.1537226
145	0x3ec44965	0.38337246
146	0x3e1220e8	0.14270365
147	0x3ef49a6e	0.4777407
148	0x3f7687c0	0.9630089
149	0xbf63a0d7	-0.889173
150	0xbe56700f	-0.20941184
151	0xbf421fee	-0.7582997
152	0x3f11e14c	0.569844
153	0xbe9b65ac	-0.30351007
154	0xbf1bb0c9	-0.6081663
155	0x3dcae9c0	0.099078655
156	0xbf9c1dcc	-1.2196593
157	0x3e87281f	0.26397797
158	0x3e5be21b	0.21472971
159	0x3f9b37cb	1.2126402
160	0xbec05e40	-0.37571907
161	0x3d386bdb	0.045024734
162	0x3f2d6631	0.67734057
163	0xbe4d09df	-0.20023297
164	0xbee561f9	-0.4480131
165	0xbe99e6c0	-0.3005886
166	0xbe5477f6	-0.20748886
167	0x3d85ebf7	0.06539147
168	0x3f54e756	0.8316549
169	0xbf2cd03c	-0.6750524
170	0xbe4c52ec	-0.19953507
171	0xbe987093	-0.29773387
172	0xbf1bda76	-0.6088022
173	0x3f2cca24	0.6749594
174	0x3e34e06f	0.1766374
175	0xbf6f348f	-0.93439573
176	0x3ed6ac44	0.41928303
177	0xbe9cc168	-0.30616307
178	0x3dc0b188	0.094088614
179	0xbf2dbb66	-0.6786407
180	0x3e63f7c6	0.22262487
181	0xbd071dac	-0.03298728
182	0x3ef6647a	0.48123533
183	0xbe399f5f	-0.18127201
184	0xbf548697	-0.8301787
185	0x3dd2a7a5	0.10285882
186	0x3f7d7b28	0.99016047
187	0x3f86ccaf	1.0531214
188	0x3f904f04	1.1274114
189	0x3b8a5241	0.004221231
190	0xbff3d6b5	-1.9049898
191	0x3ea668c5	0.32501808
192	0xbfe7b7cd	-1.8102967
193	0xbca2ac3e	-0.019857522
194	0x3d7e0d78	0.062024564
195	0xbdb0bfd1	-0.08630336
196	0x3df928fb	0.121660195
197	0x3dc0063b	0.09376188
198	0x3eaa486b	0.33258376
199	0x3da66555	0.08124796
200	0xbfb95c19	-1.4481231
201	0x3e004837	0.12527548
202	0xbf107549	-0.5642896
203	0xbf88746f	-1.0660533
204	0xbd96cde4	-0.07363489
205	0x3e8f114d	0.27942887
206	0x3e13d258	0.14435709
207	0xbc5eabb1	-0.013590739
208	0x3ed2dcdb	0.41184124
209	0x3fde002e	1.7343805
210	0x3f79ef43	0.9763071
211	0x3f4e3084	0.8054278
212	0xbf35833f	-0.7090339
213	0xbc2086de	-0.00979778
214	0x3ee90095	0.45508257
215	0xc05585c2	-3.336289
216	0xbf265362	-0.6497098
217	0x3ddde3ba	0.10834451
218	0xbf9b01bb	-1.2109903
219	0x3e012979	0.12613477
220	0x3ef8173d	0.4845523
221	0x3e65136d	0.22370692
222	0xbe500842	-0.2031565
223	0xbe45dac1	-0.19321729
224	0xbe3f449a	-0.18678513
225	0x3efebd8e	0.49753994
226	0x3f7c8162	0.9863492
227	0x3f0f3464	0.55939317
228	0xbfa30198	-1.2734861
229	0xbe7ecd4d	-0.24883004
230	0xbec602e5	-0.38674083
231	0x3f269e7c	0.6508558
232	0xbf06fddd	-0.52731115
233	0xbe5048e2	-0.20340303
234	0xbf89e57e	-1.077316
235	0x3e3cf7b6	0.18453869
236	0x3da80f77	0.08206075
237	0x3d9983f4	0.07495871
238	0xbe7ddcb7	-0.24791227
239	0x3f8127cf	1.0090274
240	0x3eeb451b	0.4595116
241	0x3fa506be	1.2892683
242	0x3ec73eaf	0.3891501
243	0x3e3f95f5	0.18709548
244	0x3d85e7c8	0.065383494
245	0xbf0c3d51	-0.5478106
246	0x3f9337d1	1.1501409
247	0x3e2630e5	0.1622959
248	0xbea184e5	-0.31546703
249	0xbf55b506	-0.83479345
250	0x3edef1cc	0.4354385
251	0xbe6fef0c	-0.23431033
252	0xbf3465e8	-0.70467997
253	0xbf0f21ee	-0.5591115
254	0x3ed3652b	0.41288123
255	0x3f58af42	0.8464242

lstm.bias_ih_l0 f4 [180]
0	0xbe89ae82	-0.2689095
1	0x3ec505b3	0.3848091
2	0xbe96a983	-0.29426202
3	0x3ebcad26	0.36850852
4	0xbe9e8308	-0.30959344
5	0xbd826565	-0.06366996
6	0xbe92b9b3	-0.28657302
7	0xbdf33ea0	-0.11877179
8	0xbec2607b	-0.37964234
9	0x3e245efa	0.16051856
10	0x3de0591a	0.10954495
11	0xbe7093fe	-0.23493955
12	0x3f2d3928	0.6766534
13	0x3f07bea8	0.53025293
14	0x3f88460e	1.0646379
15	0x3eae8196	0.3408324
16	0x3ebacd4b	0.3648475
17	0xbd23e65f	-0.04001462
18	0x3e35d759	0.1775793
19	0xbc8b2aff	-0.016988276
20	0x3e511855	0.20419438
21	0x3eda7ae9	0.42671898
22	0x3e0f6521	0.14003421
23	0xbe3c3f97	-0.18383633
24	0x3f4eef91	0.808343
25	0x3de78f1b	0.11306592
26	0xbe7ea4c4	-0.2486754
27	0xbe096f96	-0.13421473
28	0x3ddaa151	0.106753
29	0x3d540f61	0.05177248
30	0x3e5c69c4	0.21524721
31	0xbd7be033	-0.06149311
32	0xbe91bc76	-0.28464097
33	0x3e3a4b4c	0.18192786
34	0xbf05e325	-0.5229972
35	0x3e6f0dee	0.23345158
36	0x3e62bdd7	0.2214273
37	0x3f28182c	0.65661883
38	0x3e4ee3d2	0.20204094
39	0x3e62176b	0.22079246
40	0xbda950ad	-0.08267341
41	0xbf152ed8	-0.582746
42	0xbe1883c2	-0.14894012
43	0x3d44778f	0.047965582
44	0xbe80f5b6	-0.25187463
45	0x3ebba0b1	0.36646035
46	0x3ee64931	0.44977716
47	0xbe17762a	-0.1479117
48	0x3effedaf	0.49986026
49	0x3d08bae0	0.033381343
50	0xbd6751f6	-0.05647465
51	0x3e1162df	0.14197873
52	0x3eeceb07	0.46273062
53	0xbf1b4a81	-0.6066056
54	0x3e937522	0.28800303
55	0x3d0231ef	0.0317859
56	0x3da8dd8c	0.08245382
57	0xbea544bf	-0.32279012
58	0x3f237cd4	0.6386235
59	0x3f97bf2e	1.1855218
60	0x3f394593	0.72371787
61	0x3e490950	0.19632459
62	0xbe844682	-0.25835043
63	0x3e1848b0	0.14871478
64	0xbe5f46a1	-0.21804287
65	0x3d9bc17d	0.07605264
66	0x3f14c3f8	0.58111525
67	0xbe283959	-0.16428126
68	0x3da51a2c	0.080616325
69	0x3f5bd4ee	0.8587178
70	0xbdfb373e	-0.12266396
71	0x3cab78d4	0.020931639
72	0x3da91a00	0.08256912
73	0x3f7fdf1b	0.99949807
74	0xbf0ace9a	-0.542215
75	0x3f85349a	1.0406678
76	0xbee1f5e4	-0.44132912
77	0xbf03ca9e	-0.51481044
78	0xbdd0aa92	-0.10188784
79	0xbdd33f4c	-0.10314807
80	0xbecc145b	-0.3985928
81	0xbdcd7000	-0.10031128
82	0x3ea9e127	0.3317959
83	0xbe033404	-0.12812811
84	0xbe15f782	-0.14645198
85	0x3ed16bb9	0.40902498
86	0xbe8302b8	-0.25588012
87	0xbee3d0bc	-0.4449519
88	0xbf24b7d8	-0.64343023
89	0xbd9acbd1	-0.07558406
90	0xbdffc59a	-0.124888614
91	0xbeacdd97	-0.3376281
92	0xbeade995	-0.3396727
93	0x3ebdeb1c	0.37093437
94	0x3d022dac	0.031781837
95	0x3e259939	0.16171731
96	0xbd820a44	-0.06349614
97	0x3e44b193	0.19208364
98	0x3d978efa	0.074003175
99	0x3ee63c44	0.44967854
100	0xbc0c1854	-0.008550722
101	0xbe733cf3	-0.23753719
102	0x3e75cceb	0.24003951
103	0x3e0fae01	0.14031221
104	0xbe42ff02	-0.1904259
105	0xbe93e4e1	-0.28885558
106	0xbe6ca825	-0.23111017
107	0xbecbd83d	-0.39813414
108	0xbe394f8f	-0.18096755
109	0xbea3237b	-0.31863007
110	0x3dd4bb88	0.10387331
111	0x3d951b18	0.07280558
112	0xbed72d62	-0.42026812
113	0xbe7c5d94	-0.24645072
114	0x3d94ffa4	0.07275322
115	0xbdfa5867	-0.12223893
116	0x3d37d2a9	0.044878636
117	0x3e38efb8	0.18060195
118	0xbeb02554	-0.3440348
119	0xbeeb0842	-0.45904738
120	0x3e9cfdd2	0.306624
121	0xbea7de7d	-0.32786933
122	0xbf119b87	-0.5687794
123	0x3e8b0b38	0.27156997
124	0xbd2e1e03	-0.04250909
125	0xbdba4114	-0.09094444
126	0xbd4f3b2b	-0.050593536
127	0xbecc3a78	-0.39888358
128	0x3f2a9538	0.6663394
129	0x3cfa3b91	0.030545982
130	0x3e1d8c88	0.1538564
131	0x3dbff2ad	0.093724586
132	0xbe0cc473	-0.13746814
133	0xbe1d8cb0	-0.153857
134	0x3e151d9a	0.14562073
135	0xbea0a6c8	-0.31377244
136	0x3f7680d0	0.962903
137	0xbea329c1	-0.31867793
138	0x3f8c2f44	1.0951924
139	0xbeb0093c	-0.34382045
140	0xbdd17c18	-0.10228747
141	0xbe872983	-0.26398858
142	0xbc8624d8	-0.01637499
143	0xbf111251	-0.56668574
144	0x3f842bd0	1.032587
145	0xbdd00991	-0.10158075
146	0xbd98a4cc	-0.074533075
147	0xbf163390	-0.5867243
148	0x3f91c8a0	1.1389351
149	0x3ea554e5	0.32291332
150	0x3f44b56a	0.76839316
151	0x3f303584	0.6883166
152	0xbeaee2fe	-0.34157556
153	0x3f8e1126	1.1098983
154	0xbe142e24	-0.14470726
155	0xbe0f439a	-0.13990632
156	0x3f6e6d11	0.9313517
157	0xbed55cef	-0.41672465
158	0xbec0285a	-0.37530786
159	0x3f478c6b	0.77948636
160	0x3e514157	0.20435081
161	0xbf1d9350	-0.61552906
162	0x3e8aa4f5	0.27078977
163	0x3b624d8b	0.0034531082
164	0xbe951dba	-0.29124242
165	0x3e9498e3	0.29022893
166	0xbee7b0f5	-0.45252195
167	0xbe5f1d1c	-0.21788448
168	0x3f03f3ae	0.515437
169	0xbf1d250e	-0.61384666
170	0xbe8214f6	-0.25406617
171	0xbc825ea0	-0.015914261
172	0x3f87802c	1.058599
173	0x3ed5254a	0.41630012
174	0xbe0e0d9c	-0.13872379
175	0xbf02d255	-0.5110219
176	0xbf5870a0	-0.8454685
177	0xbeb60aa1	-0.35554984
178	0xbe9d2a81	-0.3069649
179	0xbdc6d478	-0.09708494

lstm.bias_hh_l0 f4 [180]
0	0xbeabc13c	-0.33545864
1	0x3f10b520	0.56526375
2	0xbecffea2	-0.40623957
3	0x3f0897be	0.5335654
4	0xbee0c5ae	-0.43900818
5	0x3e16dde9	0.1473309
6	0xbe44a65c	-0.19204086
7	0xbdef872c	-0.11695704
8	0xbf049c4c	-0.5180099
9	0xbd7c7524	-0.06163515
10	0x3e5a5ac4	0.21323687
11	0x3d361b03	0.044459354
12	0x3f34a364	0.70561814
13	0x3ed21af6	0.41036195
14	0x3f8b3c46	1.0877769
15	0x3f035184	0.5129626
16	0x3ee6ba08	0.45063806
17	0xbcef8cfa	-0.029242028
18	0x3dd14f7f	0.10220241
19	0x3db2aced	0.08724389
20	0xbcf291ea	-0.029610593
21	0x3e4e45f2	0.2014387
22	0x3e099dab	0.13439052
23	0xbea72435	-0.3264481
24	0x3f5f9a9e	0.873453
25	0x3dcc4c48	0.09975487
26	0xbdb710a2	-0.08938719
27	0x3dd048b9	0.10170121
28	0x3d0e2f40	0.03471303
29	0xbe20ec9d	-0.15715261
30	0x3e6bc26c	0.23023385
31	0xbea06f35	-0.31334844
32	0xbeed003f	-0.4628925
33	0x3e4d865c	0.20070785
34	0xbf100280	-0.56253815
35	0x3de044ae	0.109505996
36	0x3d8f9ebf	0.070127
37	0x3ee5676e	0.44805473
38	0x3debafdd	0.11508153
39	0x3e1a1cb5	0.15050013
40	0x3ddaccd5	0.106836
41	0xbee293e0	-0.44253445
42	0xbd40f69a	-0.047110178
43	0x3ddbd42c	0.10733828
44	0xbe59a68d	-0.2125494
45	0x3ee1f8ea	0.4413522
46	0x3edaef48	0.42760682
47	0xbe29a475	-0.16566642
48	0x3ee0b9b0	0.43891668
49	0xbe33b6f0	-0.17550254
50	0xbe829f77	-0.25512287
51	0x3ec54e81	0.38536456
52	0x3f135d5c	0.5756433
53	0xbef296f3	-0.4738079
54	0x3e85a3c6	0.26101512
55	0x3e893321	0.2679682
56	0xbd873446	-0.06601767
57	0xbe45b882	-0.19308665
58	0x3f08f98c	0.5350578
59	0x3f9b9129	1.2153674
60	0x3f3cf641	0.73813254
61	0x3e9de08f	0.30835387
62	0xbe4c4cd1	-0.19951178
63	0x3e6874f9	0.22700872
64	0xbe5c8124	-0.21533638
65	0x3e809d22	0.25119883
66	0x3efd6bb8	0.49496245
67	0xbe7c93a2	-0.24665692
68	0x3d943473	0.072365664
69	0x3f3c7567	0.7361664
70	0xbe5803d6	-0.21095213
71	0x3e1057f5	0.14096053
72	0x3d9e8cbd	0.077416874
73	0x3f957481	1.1676179
74	0xbeb71793	-0.35760173
75	0x3f843dbf	1.0331343
76	0xbee510fe	-0.44739527
77	0xbf0870cf	-0.5329713
78	0xbdc0e87e	-0.09419344
79	0xbd904c75	-0.07045833
80	0xbe79ef49	-0.24407686
81	0x3d0b3694	0.033987597
82	0x3f1041f1	0.5635062
83	0xbdff86f4	-0.12476912
84	0x3d807f77	0.06274312
85	0x3ef578fd	0.4794387
86	0xbea3471c	-0.3189019
87	0xbeb5836f	-0.35451838
88	0xbf34c5f0	-0.7061453
89	0xbddec991	-0.108782895
90	0xbe89856e	-0.2685961
91	0xbe84e784	-0.25957882
92	0xbee32385	-0.44363037
93	0x3e3b5d8c	0.18297404
94	0x3dff38e2	0.124620214
95	0x3ea244b1	0.31693032
96	0x3d942501	0.072336204
97	0x3d039c40	0.032131433
98	0x3e554897	0.20828472
99	0x3ee3d1e4	0.4449607
100	0xbe1d25f2	-0.15346506
101	0xbe979e68	-0.29613042
102	0x3e0417c1	0.12899686
103	0x3e352bef	0.1769254
104	0xbe345270	-0.17609572
105	0xbe1853a4	-0.14875656
106	0xbe03683c	-0.12832731
107	0xbe64f00c	-0.22357196
108	0xbccc0c2c	-0.024908148
109	0xbece7b72	-0.40328556
110	0x3dc70562	0.097178236
111	0x3e0140d3	0.12622385
112	0xbe6de12a	-0.23230425
113	0xbea89163	-0.3292342
114	0xbd94489f	-0.07240414
115	0xbd82ce21	-0.06386972
116	0x3d1a32e7	0.0376462
117	0x3e6a12ee	0.22858784
118	0xbe7f2e0f	-0.24919914
119	0xbe8f4a67	-0.27986452
120	0x3e59ea1f	0.21280716
121	0xbeb599da	-0.35468942
122	0xbf15f2c9	-0.58573586
123	0x3e4847f6	0.19558701
124	0xbc6355e5	-0.013875459
125	0xbdcd6d79	-0.10030646
126	0xbdede1c3	-0.11615326
127	0xbef6f636	-0.4823472
128	0x3f57b966	0.8426727
129	0xbd267938	-0.040642947
130	0x3e567cb1	0.20946003
131	0xbd376d1d	-0.044781793
132	0xbdf3b698	-0.11900061
133	0xbe452017	-0.19250523
134	0x3ece8cf0	0.40341902
135	0xbe6b05e6	-0.22951469
136	0x3f596384	0.84917474
137	0xbe824a3f	-0.2544727
138	0x3f934e98	1.150836
139	0xbeafdfa9	-0.34350327
140	0x3db13225	0.086521424
141	0xbee71464	-0.45132744
142	0x3e0d36c7	0.13790427
143	0xbed37d1b	-0.41306385
144	0x3f96cb9c	1.1780887
145	0xbe328296	-0.17432627
146	0xbe9c2832	-0.30499417
147	0xbf01e435	-0.5073884
148	0x3fa07fe0	1.2539024
149	0x3ecf2138	0.4045503
150	0x3f47ad11	0.77998453
151	0x3f128321	0.57231337
152	0xbeb531af	-0.35389468
153	0x3f805b21	1.002781
154	0xbdd70d2b	-0.105005585
155	0xbe407ce8	-0.18797648
156	0x3f87c96c	1.0608344
157	0xbed7ffe9	-0.4218743
158	0xbf073414	-0.5281384
159	0x3f5730e4	0.84058976
160	0x3de95959	0.11393995
161	0xbf1d7976	-0.6151346
162	0x3e2af42a	0.16694704
163	0xbc2420af	-0.010017558
164	0xbe705a4c	-0.23471946
165	0x3dd98517	0.10621088
166	0xbeda2abf	-0.42610738
167	0xbed1095a	-0.40827447
168	0x3ea39c75	0.31955305
169	0xbf3e9106	-0.7444004
170	0xbe6d6435	-0.23182757
171	0xbe6e2b22	-0.23258641
172	0x3f812e66	1.0092285
173	0x3ed1aaae	0.4095053
174	0xbd6d9120	-0.05799973
175	0xbf0aa0a6	-0.5415138
176	0xbf357a60	-0.70889854
177	0xbe7af407	-0.24507152
178	0xbecd08bd	-0.4004573
179	0xbe825d94	-0.2546202

lstm.weight_ih_l0_reverse f4 [180, 20]
0	0xbe4752e7	-0.19465218
1	0x40143411	2.315678
2	0x40050142	2.0782018
3	0x418487b8	16.566269
4	0x40ff34a3	7.9751754
5	0xbf800d18	-1.0003996
6	0x402c37eb	2.690913
7	0xbf48269a	-0.781839
8	0xbf59fded	-0.85153085
9	0x3fdd6cf7	1.7298878
10	0x40172ff2	2.3623013
11	0x3e3ebd25	0.1862684
12	0x413bd6ab	11.739909
13	0x3e7fa2dd	0.24964471
14	0x3e1c615c	0.15271515
15	0xbf697b51	-0.9120379
16	0x403e4c83	2.97342
17	0x4046c16f	3.1055562
18	0xbe1833b4	-0.14863473
19	0x3f14db6a	0.581473
20	0xbf981ab6	-1.1883152
21	0xc00be3e8	-2.1857853
22	0x3e6d31c7	0.2316352
23	0x3ea9b51c	0.33145988
24	0x3f06ca66	0.52652586
25	0xbf084094	-0.5322354
26	0x3e0e79d9	0.13913669
27	0x3e928f06	0.28624743
28	0x3e9516be	0.29118913
29	0xbe3f9347	-0.18708526
30	0xbe85414d	-0.26026383
31	0xbf399f95	-0.7250913
32	0x3fd11f0c	1.63376
33	0xbf6e187d	-0.93006116
34	0xbeb81a83	-0.35957727
35	0xbfccb9d7	-1.5994214
36	0xbfaa3ee9	-1.3300449
37	0x3e8bb322	0.27285105
38	0xbfbeda12	-1.49103
39	0x3e8112cf	0.25209662
40	0xbf2f3da0	-0.6845341
41	0xbec4584d	-0.38348618
42	0xbecf4133	-0.4047943
43	0xbf1e099f	-0.6173343
44	0xbe89b4c4	-0.26895726
45	0xbf2baa44	-0.6705668
46	0xbf32a7d0	-0.6978731
47	0xbf93e5dd	-1.1554524
48	0xbd792670	-0.060827672
49	0xbf1de9c0	-0.616848
50	0xbedeb946	-0.43500727
51	0xbf8bdf25	-1.0927473
52	0x3f0d32c4	0.5515559
53	0xbf5524e4	-0.83259416
54	0xbcde82c6	-0.027161967
55	0xbf91017a	-1.1328576
56	0xbf1256dc	-0.57163787
57	0xbf20c646	-0.6280254
58	0xbf1ca613	-0.6119091
59	0xbf9503ad	-1.1641747
60	0xc08790da	-4.236432
61	0x3e35c735	0.17751773
62	0xbfca6a78	-1.5813742
63	0xbfbfae24	-1.4975019
64	0x3f99bde6	1.2011077
65	0xc083e16f	-4.1212687
66	0xbef3ddbe	-0.47630113
67	0x3f2d167e	0.67612445
68	0xbfa98228	-1.3242846
69	0x3d229eb9	0.03970215
70	0xbf2a76ad	-0.66587335
71	0x3db7bfd3	0.089721344
72	0x3e3e8a6c	0.18607491
73	0x3f628321	0.88481337
74	0xbe25caf0	-0.16190696
75	0xbf3730fa	-0.7155911
76	0xbfaf80b7	-1.3711156
77	0xbe59f6e1	-0.21285583
78	0x3ede381c	0.43402183
79	0x3fa99f9f	1.3251837
80	0xbf870399	-1.0547973
81	0xbf7cf3d6	-0.98809564
82	0x3fdafe56	1.7108867
83	0xbf7030e8	-0.93824625
84	0x3f98616f	1.1904734
85	0x40aa18d8	5.3155327
86	0x3d83ca2b	0.06435045
87	0xc0034715	-2.0512135
88	0x3f7aac1a	0.97918856
89	0xbf21d2ef	-0.63212484
90	0xbf996fdc	-1.1987262
91	0xbe87383b	-0.26410088
92	0xbe562650	-0.20913053
93	0xbf2a487b	-0.66516846
94	0xbf20a1b6	-0.6274675
95	0x3f851f15	1.040011
96	0xbefbbd2c	-0.49167764
97	0xbf9d1c6b	-1.2274297
98	0xbf8f2126	-1.1181991
99	0x3fa535ff	1.2907103
100	0xbd6f7fb9	-0.058471415
101	0x3f898a51	1.0745336
102	0xbe3d1d95	-0.18468316
103	0x3f33d1b7	0.70241874
104	0xbf3cf355	-0.73808795
105	0x3cb6713c	0.022270791
106	0x3d82de8c	0.06390104
107	0xbedce42f	-0.4314284
108	0xbe3bf6fe	-0.18355939
109	0xbf53419a	-0.82521975
110	0xbe502aba	-0.20328799
111	0xbe6b332c	-0.2296874
112	0xc0032159	-2.0489104
113	0xbea8dd22	-0.3298121
114	0xbf02cfe9	-0.51098496
115	0x3f2aa93a	0.6666447
116	0xbf0afd85	-0.5429309
117	0xbdbde9d9	-0.092731185
118	0xbf1bf000	-0.60913086
119	0xba5a7cc8	-0.0008334634
120	0xbf6d15b0	-0.9261122
121	0xbef2113a	-0.47278768
122	0xbed7b0da	-0.42127115
123	0xbec42335	-0.3830811
124	0xbdc1a6d7	-0.0945565
125	0xbfbd16f7	-1.4772633
126	0xbf0b1950	-0.543355
127	0xbece44d7	-0.40286896
128	0x3e84f824	0.25970566
129	0xbf1f4011	-0.6220713
130	0x3e30e2a6	0.1727396
131	0xbda17524	-0.07883671
132	0xbf170d8e	-0.5900506
133	0xbdb6d50c	-0.08927354
134	0xbc121149	-0.008915254
135	0xbf83ed0f	-1.030672
136	0xbf811be8	-1.0086641
137	0xbf22a57c	-0.6353376
138	0x3def5b6d	0.1168736
139	0xbe19115b	-0.14948027
140	0xbf3bdf70	-0.73387814
141	0xbf3e6c48	-0.74383974
142	0xbdc4301b	-0.09579488
143	0x3d5d28b9	0.053993914
144	0x3ef2fb0b	0.47457156
145	0xbfc6c6e9	-1.5529453
146	0x3e4c8e77	0.19976221
147	0xbf000e69	-0.5002199
148	0x3d9a6844	0.07539418
149	0xbf996b26	-1.1985824
150	0xbf3486a5	-0.7051795
151	0xbff72e5e	-1.9311025
152	0xbdf960e1	-0.12176681
153	0xc01d1c8b	-2.4548671
154	0xbe7b8d2b	-0.2456557
155	0xbf79496d	-0.97377664
156	0xbf51a4ce	-0.81892097
157	0xbf8bf683	-1.0934604
158	0x3fa95148	1.322793
159	0x3eead40f	0.45864913
160	0x3e2c8588	0.16847813
161	0x3e5fad37	0.2184342
162	0xbf178814	-0.59192014
163	0xbfcc706f	-1.5971812
164	0x3f949581	1.1608125
165	0xbf151a2e	-0.5824307
166	0x3f16020e	0.58596885
167	0xc0050ac5	-2.0787823
168	0x3fa0ae80	1.2553253
169	0xbe1732a8	-0.14765418
170	0xbe1f0783	-0.15530209
171	0xbfcb34ac	-1.5875449
172	0x3f870351	1.0547887
173	0xbecfb4e6	-0.40567702
174	0x3fda0b6a	1.7034733
175	0xbe16c93f	-0.14725207
176	0xbfd15955	-1.6355387
177	0xbf437aac	-0.7635906
178	0xbf3abdef	-0.72946066
179	0xbf5e5b1a	-0.8685776
180	0xbe136ebe	-0.14397714
181	0xbf80c9cf	-1.0061587
182	0xbf6070b5	-0.8767198
183	0xc0072507	-2.111635
184	0x3f4407ae	0.7657422
185	0xbfddf699	-1.7340881
186	0xbffea83b	-1.989509
187	0x3f8c5703	1.0964054
188	0xbe812358	-0.25222278
189	0x3f84fa47	1.0388879
190	0x3e667c72	0.2250841
191	0xbfff4a54	-1.9944558
192	0x3eeb5b35	0.45968023
193	0xbfc86054	-1.5654397
194	0x3ff7fc2a	1.9373829
195	0xbf28f557	-0.6599936
196	0x3e1c9c18	0.1529392
197	0x3fa103b4	1.2579255
198	0x3ec91486	0.3927347
199	0x3f28defb	0.6596524
200	0xbfd83d4f	-1.689371
201	0xc0076e0b	-2.1160915
202	0x3f226060	0.63428307
203	0x3f243a25	0.6415122
204	0xbe407a5d	-0.18796678
205	0xbfacfdd3	-1.3514961
206	0xbf1e6203	-0.61868304
207	0xc003883d	-2.0551903
208	0x3e71211c	0.23547786
209	0xc059621f	-3.3966138
210	0xbfa1a776	-1.262923
211	0xbfb5eb3f	-1.4212416
212	0xbf24be9f	-0.64353365
213	0xbfc4c392	-1.5372183
214	0x3ca89126	0.020577025
215	0xbfbe3888	-1.4861002
216	0xbfeb0ceb	-1.8363317
217	0xbf996fb6	-1.1987216
218	0x3e86637e	0.26247782
219	0xbecca299	-0.39967802
220	0x3e5cfffd	0.21582027
221	0x3f2ec765	0.68273
222	0xbfa36bb8	-1.2767248
223	0x3fe5fd56	1.7967937
224	0xbdb7d795	-0.08976666
225	0x3fd9d31a	1.7017548
226	0x407f991c	3.99372
227	0x3ea8998f	0.32929656
228	0x3fc6c792	1.5529654
229	0x3fcc805e	1.5976675
230	0xbfe31759	-1.77415
231	0x3fa7a21f	1.309635
232	0xc006fcf4	-2.109189
233	0x3ef78f2b	0.48351416
234	0x3f1a24ae	0.6021222
235	0x3f830204	1.023499
236	0xbff393fa	-1.9029534
237	0xbe2cbb08	-0.16868222
238	0x3ed23b3f	0.41060826
239	0xbf39eea7	-0.7262978
240	0xbf579ef0	-0.84226894
241	0xbf5428b3	-0.828746
242	0xbf2d0a2e	-0.6759366
243	0xbebcaaf1	-0.36849168
244	0xbf9ca970	-1.2239208
245	0xbf84f1a8	-1.0386248
246	0xbf1f8c11	-0.623231
247	0xbf7a9210	-0.97879124
248	0x3da50150	0.08056891
249	0xc02c6316	-2.6935477
250	0xbfdfbc34	-1.747931
251	0xbe88d6d9	-0.26726416
252	0xc01494eb	-2.3215892
253	0xbf022185	-0.50832397
254	0xbe8e990c	-0.2785114
255	0xbf2b63ab	-0.66948956

lstm.weight_hh_l0_reverse f4 [180, 45]
0	0xbf610d15	-0.87910587
1	0xbf30ee6f	-0.6911382
2	0x3e7cfbc8	0.24705422
3	0xc0838c9e	-4.110915
4	0xbe87180d	-0.26385537
5	0x4059fc8e	3.4060397
6	0xbfa1c74a	-1.2638943
7	0xbe87aa75	-0.26497236
8	0xbfe9d5f2	-1.8268416
9	0x3f8d6e29	1.1049243
10	0xbece0524	-0.40238297
11	0x3ea4564a	0.32097083
12	0x3e5c6c74	0.21525747
13	0x401e743e	2.4758449
14	0xbdbfe68d	-0.09370146
15	0xbf792be3	-0.9733259
16	0xbe7fc486	-0.24977311
17	0xbfd6e0fe	-1.6787412
18	0xbe969615	-0.29411379
19	0xc015f4f3	-2.3430755
20	0x3f497ec7	0.7870907
21	0xbf83ef16	-1.0307338
22	0x3f93174d	1.1491486
23	0xbea9d123	-0.3316737
24	0xc0054454	-2.0822954
25	0xbfe1619d	-1.7607914
26	0xbebd91d4	-0.3702532
27	0xbf933d87	-1.1503152
28	0xbf9ad3d0	-1.209589
29	0x3e7de72e	0.2479522
30	0xbf328df4	-0.69747853
31	0xc01ee39a	-2.4826417
32	0xbebdf4cb	-0.37100825
33	0xbe21a652	-0.15786102
34	0x401066f9	2.256285
35	0xbde9269c	-0.11384317
36	0x3fff41d3	1.9941963
37	0x3e3efd60	0.18651342
38	0xbf2bb7f7	-0.67077583
39	0x3fdd7760	1.7302055
40	0x3fbb6ca4	1.464253
41	0xbeaf727a	-0.34267026
42	0xbf03451c	-0.5127733
43	0x3f11c502	0.56941235
44	0x3efdfdb1	0.49607614
45	0x3ecea71f	0.40361878
46	0xbfb6dd6b	-1.4286321
47	0x3ede5774	0.43426096
48	0xbf2e2d97	-0.68038315
49	0x3fa1acff	1.2630919
50	0x3f5f6daf	0.8727674
51	0xbf0a4da7	-0.5402474
52	0xbf9699eb	-1.1765722
53	0xbf130d34	-0.5744202
54	0x3ef622d5	0.4807345
55	0x3e2b207b	0.16711609
56	0x3f7267d7	0.946897
57	0xbeb105d9	-0.34574774
58	0x40168097	2.3515985
59	0xbf913574	-1.1344438
60	0xbf031d69	-0.5121675
61	0xbcf49c97	-0.029859824
62	0x3f532f54	0.8249409
63	0xbd7c797e	-0.0616393
64	0xbf04c2e1	-0.5185986
65	0x3f8ce0bd	1.1006085
66	0x3f346edd	0.70481664
67	0x3f8f1e11	1.118105
68	0xbf9ccde3	-1.2250332
69	0xbe087601	-0.13326265
70	0x3f41c366	0.7568878
71	0x3f3f82a9	0.74808747
72	0x3e484997	0.19559322
73	0xbe616eb0	-0.2201488
74	0xbeba61f3	-0.36402854
75	0xbf808e69	-1.004346
76	0xbda52482	-0.08063604
77	0x3f7f11ec	0.9963672
78	0xbebc4ed1	-0.36778882
79	0x3f1b4017	0.6064467
80	0xbe944b57	-0.2896373
81	0xbf5911be	-0.847927
82	0xbf17e8bb	-0.59339494
83	0xbf2eeecc	-0.68333125
84	0x3eaa2a78	0.33235526
85	0xbea0e713	-0.31426296
86	0x3f0f2392	0.5591365
87	0x3f76dfce	0.9643525
88	0xbd707a70	-0.058710515
89	0xbf87eddb	-1.0619463
90	0x3e9d8f86	0.30773562
91	0xbf37a0ce	-0.71729743
92	0x3e90ba76	0.28267258
93	0x3ea77b40	0.3271122
94	0x3d673512	0.056447096
95	0x3e26a258	0.16272867
96	0xbebf1a13	-0.3732458
97	0x3e853cbf	0.26022908
98	0xbda67277	-0.08127301
99	0x3eca8273	0.3955265
100	0x3eb20a1a	0.34773332
101	0x3f1c78a8	0.61121607
102	0xbeb46fc8	-0.35241532
103	0xbf03ac06	-0.5143436
104	0x3fb84f16	1.4399135
105	0xbf2f3b04	-0.68449426
106	0x3ec24138	0.37940383
107	0x3f01a29f	0.50638765
108	0x3e178b3f	0.14799212
109	0x3d8117e5	0.06303386
110	0x3f5b63a7	0.8569893
111	0x3ec54999	0.38532713
112	0x3e91899b	0.28425297
113	0xbe09e3a4	-0.13465744
114	0xbf06fd68	-0.5273042
115	0xbe3bfe6b	-0.18358772
116	0x3f210872	0.6290351
117	0x3e842ebf	0.25816914
118	0x3e012c6d	0.12614603
119	0xbe6bfbbe	-0.23045251
120	0xbfb14db8	-1.3851843
121	0x3e8dd64a	0.27702552
122	0x3e9017e3	0.28143224
123	0xbf0b45ae	-0.544032
124	0xbe9c6912	-0.30548912
125	0xbea507bd	-0.32232466
126	0xbfe103cc	-1.7579284
127	0x3e9f0abc	0.31062877
128	0xbf048857	-0.5177054
129	0x3f340f70	0.70336056
130	0xbea7dd41	-0.3278599
131	0x3eadb308	0.33925653
132	0xbf42c3f2	-0.7608024
133	0x3df60e3d	0.120144345
134	0xbe9eee46	-0.31041163
135	0x3da5ff3c	0.08105323
136	0x3fb4260c	1.4074111
137	0xbf3d992e	-0.7406186
138	0xbea98838	-0.3311174
139	0xbb417187	-0.002951713
140	0x3ea96b8c	0.33089864
141	0x3a29b9fb	0.00064745516
142	0xbe334ba9	-0.17509331
143	0xbedec54b	-0.43509898
144	0x3f07e551	0.53084284
145	0x3f1cfd79	0.6132427
146	0x3f4fd3bc	0.81182456
147	0x3f007d05	0.50190765
148	0x3f7d26d0	0.9888735
149	0x3e9a651f	0.30155274
150	0xbebc6dc9	-0.3680251
151	0x3f019f99	0.5063415
152	0x4009ae4a	2.1512628
153	0x3edd6edf	0.4324865
154	0xbf156345	-0.583546
155	0x3f8117ce	1.008539
156	0x3e99b398	0.30019832
157	0x3e9dedac	0.30845392
158	0x3dc4ec11	0.096153386
159	0xbf098a59	-0.53726727
160	0xbd37eb75	-0.044902284
161	0x3f64ec7e	0.8942336
162	0x3ef86c85	0.48520294
163	0x3ec24a7c	0.37947452
164	0xbf77c3fa	-0.9678341
165	0xbebd9c97	-0.3703353
166	0x3e8c1b7b	0.27364716
167	0x3f044426	0.51666486
168	0xbf0a57b1	-0.54040056
169	0xbe4bf188	-0.19916356
170	0xbe83ab05	-0.25716415
171	0x3f0f8507	0.5606236
172	0xbf18fc26	-0.5975975
173	0x3e28989f	0.1646447
174	0x3e465f07	0.19372188
175	0xbdb76043	-0.08953907
176	0x3f834210	1.0254536
177	0xbec16a4d	-0.37776414
178	0x3fa1a28a	1.2627728
179	0xbe96cafe	-0.29451746
180	0x3f4a1143	0.7893259
181	0x3f6c4029	0.922854
182	0x3fc769fa	1.5579216
183	0x3ea30bdb	0.31844983
184	0xbf419159	-0.7561241
185	0x400553bd	2.083236
186	0xbfde2922	-1.7356303
187	0x3fb0ea76	1.3821552
188	0x3f319baa	0.6937815
189	0x3f4f35a6	0.80941236
190	0xbf186d08	-0.5954137
191	0x3e9a1d83	0.3010064
192	0xbfc34128	-1.5254259
193	0xbf2bf853	-0.6717579
194	0x3f1cfe92	0.61325943
195	0xbf84780f	-1.0349139
196	0x3cff5e2c	0.031172834
197	0x3fea8baa	1.8323872
198	0x3f8b896d	1.0901314
199	0x3f2b5fdc	0.66943145
200	0x3fc9b804	1.5759282
201	0xbf17181e	-0.59021175
202	0x3de81aa1	0.11333204
203	0xbde1ee4d	-0.110317804
204	0xbeb8b0d4	-0.3607241
205	0x3ec418ae	0.3830008
206	0x3e9e2598	0.30888057
207	0x3f9e7ec1	1.2382432
208	0xbf5460ee	-0.829604
209	0xbf51de1d	-0.8197954
210	0xbe25851c	-0.16164058
211	0x3faf776f	1.3708323
212	0x3fce5d2a	1.6122181
213	0x3f01199a	0.5042969
214	0xba4ea672	-0.00078830787
215	0xbf3d0f91	-0.7385188
216	0x3fa9fe2b	1.3280691
217	0x3e9629c4	0.2932874
218	0xbf7a9442	-0.97882473
219	0x3f6af19d	0.9177492
220	0xbfb6a4db	-1.426906
221	0xbea5cea8	-0.3238423
222	0xbf38467c	-0.7198255
223	0x3f011b3f	0.504322
224	0xbfc9eeb3	-1.577597
225	0xbea8a702	-0.32939917
226	0x3f6d3f40	0.92674637
227	0xbf72db1c	-0.94865584
228	0xbf49a785	-0.7877124
229	0x3ed4a2d1	0.4153047
230	0x3ee3185c	0.44354522
231	0xbfe6745a	-1.8004258
232	0xbe183d97	-0.14867245
233	0xbf1c76fb	-0.6111905
234	0x3fab7a6d	1.3396736
235	0x3f13e069	0.577643
236	0x3ebd433e	0.36965364
237	0x3f99b44e	1.200815
238	0x3fd8466a	1.6896489
239	0x3f45e962	0.7730924
240	0x3e8a3a72	0.26997715
241	0xbf12ce04	-0.57345605
242	0x3f8188a6	1.0119827
243	0x3ecd68e4	0.40119088
244	0xbcc2b1c5	-0.023766408
245	0x3e026dca	0.12737194
246	0x3f33879d	0.70128804
247	0xbf81f496	-1.0152767
248	0xbec4ba24	-0.38423264
249	0x40227eb3	2.538983
250	0x3e229909	0.15878691
251	0x3f09462d	0.53622705
252	0xbf84a06c	-1.0361457
253	0x3ef5d6b3	0.48015365
254	0xc07a668c	-3.912509
255	0x3d757f26	0.05993571

lstm.bias_ih_l0_reverse f4 [180]
0	0x3fce61a0	1.6123543
1	0xbeb197dd	-0.34686175
2	0xbf7b0e37	-0.98068565
3	0xbf6f2665	-0.9341796
4	0x3eeb560c	0.45964086
5	0xbe919443	-0.28433427
6	0xbf893ced	-1.0721718
7	0xbf643f76	-0.89159334
8	0xbe9ae225	-0.3025066
9	0xbf11b3e2	-0.56915104
10	0xbfa52274	-1.2901139
11	0xbf3f3e99	-0.7470489
12	0xbf8689bb	-1.0510782
13	0x3fc76e71	1.5580579
14	0xbf535361	-0.825491
15	0xbf49b061	-0.7878476
16	0xbf4f65ab	-0.8101451
17	0xbf7d33d5	-0.98907214
18	0xbf413ba3	-0.75481623
19	0xbf484bfd	-0.7824095
20	0x3f29f923	0.6639578
21	0x3efc804e	0.4931664
22	0xbf84130d	-1.0318314
23	0xbf2e98e6	-0.68202055
24	0xbec341a2	-0.3813601
25	0xbf479d14	-0.7797406
26	0x3cca5162	0.02469701
27	0x3ee5e47e	0.44900888
28	0xbf42bc34	-0.76068425
29	0xbf7c97b2	-0.9866897
30	0x3e4d217a	0.20032302
31	0xbf72d215	-0.9485181
32	0xbe9884fd	-0.29788962
33	0xbf9222fc	-1.1416926
34	0xbedbf448	-0.4295981
35	0x3e36140f	0.17781089
36	0xbf355650	-0.7083483
37	0xbe9d9755	-0.3077952
38	0xbe72ca1c	-0.23709911
39	0xbf8a632a	-1.0811512
40	0xbeaacae5	-0.3335792
41	0xbf60969e	-0.87729824
42	0xbf35da2e	-0.7103604
43	0xbf4686fa	-0.7754971
44	0xbebe75c1	-0.37199214
45	0x3f5527ef	0.8326406
46	0x3ec26894	0.37970412
47	0x3f66af7b	0.9011151
48	0x3ebceb7d	0.36898413
49	0x3f045801	0.51696783
50	0xbebf7d9a	-0.37400514
51	0x3f1da26a	0.6157595
52	0x3f567b4a	0.83781874
53	0x3f616786	0.8804859
54	0x3f29899f	0.6622562
55	0x3f1d7498	0.6150603
56	0x3f389d46	0.7211498
57	0x3f11d740	0.5696907
58	0x3f41b278	0.75662947
59	0x3fc26074	1.5185685
60	0x3f74534a	0.9543959
61	0x3f018c9b	0.5060517
62	0x3eb48e38	0.35264754
63	0x3de71efe	0.11285208
64	0x3f40cf39	0.75316197
65	0x3e985f26	0.29760092
66	0x3f6d9dd4	0.9281895
67	0x3f2450e6	0.6418594
68	0x3e8d36eb	0.27580962
69	0x3eee2d82	0.46519095
70	0x3f247ab4	0.6424973
71	0x3f2c45c9	0.67293984
72	0x3f07a6d9	0.52988964
73	0x3f0cd754	0.55016065
74	0x3f0e8840	0.5567665
75	0x3f2073c6	0.62676656
76	0x3ea3e62d	0.32011548
77	0x3f076c0d	0.5289925
78	0x3f2f7bbb	0.6854817
79	0x3cf84223	0.030304974
80	0x3f88b00d	1.0678726
81	0xbda425eb	-0.08015045
82	0x3f361e4f	0.7114
83	0x3f605e33	0.87643737
84	0x3f30a8a7	0.69007343
85	0x3e771526	0.24129161
86	0x3f8851a2	1.0649912
87	0x3e9964b9	0.29959658
88	0x3f320305	0.6953586
89	0x3f00a8af	0.5025739
90	0xbfb0c401	-1.3809816
91	0xbf1e210f	-0.61769193
92	0x3e7e582b	0.24838321
93	0xbf1e5ab7	-0.6185717
94	0x3ec4267d	0.38310614
95	0x3d065380	0.032794476
96	0x3efe1327	0.49623987
97	0xbea26683	-0.31718835
98	0x3d5fd04c	0.054642007
99	0xbeef7c21	-0.4677439
100	0xbde3f155	-0.11130015
101	0xbf39e21c	-0.7261064
102	0x3cc9d553	0.024637854
103	0x3f543e90	0.8290796
104	0xbf7ded94	-0.9919064
105	0x3e83d4e4	0.2574836
106	0xbd0cac1f	-0.034343835
107	0xbdc12f77	-0.09432881
108	0xbe9f8019	-0.31152418
109	0xbe2d44bb	-0.1692075
110	0xbe5044fc	-0.20338815
111	0x3f1b444e	0.606511
112	0xbe88375f	-0.26604745
113	0xbe19e84c	-0.1503002
114	0xbed4e851	-0.41583493
115	0xbc12e596	-0.00896587
116	0xbee3c800	-0.44488525
117	0xbe1b9763	-0.15194468
118	0x3d619b6f	0.055079874
119	0x3d191a88	0.037378818
120	0xbe994077	-0.29931995
121	0xbe53872e	-0.20657036
122	0x3f04b78a	0.5184256
123	0x3dafd4cc	0.0858551
124	0xbc9df438	-0.019281492
125	0x3f01039a	0.5039612
126	0x3ec3ab69	0.38216713
127	0x3e3f1a61	0.18662407
128	0x3f1039a0	0.5633793
129	0xbe6406f8	-0.22268283
130	0x3e205916	0.15658984
131	0x3eb48c31	0.35263208
132	0xbf18c528	-0.59675837
133	0xbde1a63c	-0.11018035
134	0xbf2d9528	-0.6780572
135	0xbbcc3768	-0.006232191
136	0x3dc71b3d	0.09721992
137	0xbde734f8	-0.112894
138	0x3e3e76aa	0.18599954
139	0xbe326dbc	-0.17424673
140	0xbebc5348	-0.3678229
141	0xbe3e111a	-0.18561211
142	0x3ee0e7cc	0.43926847
143	0xbec7abdf	-0.38998315
144	0xbeb5c518	-0.35501933
145	0xbe70d9cd	-0.23520584
146	0x3dc7b9e1	0.097522505
147	0x3d841647	0.064495616
148	0x3d197a79	0.037470315
149	0xbef8603f	-0.4851093
150	0x3e2bb4aa	0.16768137
151	0x3d46db78	0.048549145
152	0xbea1236f	-0.31472346
153	0xbe95ef85	-0.292843
154	0xbf01800b	-0.50586003
155	0x3ef2578d	0.4733242
156	0xbe9023ee	-0.28152412
157	0xbd28ca69	-0.04120866
158	0x3e747866	0.23874053
159	0x3e04873d	0.12942214
160	0x3f08e0f3	0.53468245
161	0x3e984c10	0.2974553
162	0xbdc83902	-0.097764984
163	0xbe47693d	-0.19473739
164	0xbf011b8d	-0.50432664
165	0xbe0245f8	-0.12722003
166	0xbe1a2d1d	-0.15056272
167	0x3d8e8234	0.06958428
168	0xbe2e1ae5	-0.17002447
169	0x3e0948fc	0.13406748
170	0x3d3d497f	0.04621267
171	0xbeac87de	-0.33697408
172	0xbef8f65f	-0.48625466
173	0x3e577577	0.21040903
174	0xbe1ca194	-0.15296012
175	0xbead60df	-0.3386297
176	0x3f0754b8	0.52863646
177	0x3f06a474	0.52594686
178	0xbe242a3c	-0.16031736
179	0xbddac29a	-0.106816486

lstm.bias_hh_l0_reverse f4 [180]
0	0x3fd30907	1.648713
1	0xbe6e99d3	-0.23300867
2	0xbf6f9d2f	-0.9359922
3	0xbf420271	-0.75784975
4	0x3f081171	0.53151613
5	0xbdee0ac5	-0.11623148
6	0xbf6a0704	-0.91416955
7	0xbf4b01a3	-0.7929937
8	0xbe8fd7ed	-0.28094426
9	0xbeea688e	-0.45782894
10	0xbf84eea7	-1.0385331
11	0xbf6d7773	-0.9276039
12	0xbf756aff	-0.9586639
13	0x3fb8b9e5	1.443173
14	0xbf16c85d	-0.5889948
15	0xbf4dc6cb	-0.8038146
16	0xbf5defad	-0.8669384
17	0xbf7e05d9	-0.9922767
18	0xbf25a99c	-0.6471193
19	0xbf610f24	-0.8791373
20	0x3f221f40	0.63328934
21	0x3f15caa5	0.58512336
22	0xbf59e69b	-0.851175
23	0xbf46c197	-0.77639145
24	0xbf0604df	-0.5235118
25	0xbf36f872	-0.7147285
26	0x3d8e3704	0.06944087
27	0x3ea8a63b	0.32939324
28	0xbf23ac11	-0.6393443
29	0xbf820f93	-1.0161003
30	0x3e8541ab	0.26026663
31	0xbf75ebcc	-0.9606292
32	0xbdcbfa8a	-0.09959896
33	0xbf96a54e	-1.1769197
34	0xbecbff69	-0.398433
35	0x3e3593ac	0.17732114
36	0xbf0f06c2	-0.55869687
37	0xbefd2250	-0.4944024
38	0xbe1ba3f9	-0.1519927
39	0xbf87fe86	-1.0624549
40	0xbeb4f8bd	-0.35346022
41	0xbf5cf246	-0.8630718
42	0xbf364613	-0.71200675
43	0xbf4a7e10	-0.79098606
44	0xbed2fed3	-0.4121004
45	0x3f49ebc2	0.7887536
46	0x3f00d897	0.5033049
47	0x3f65d680	0.89780426
48	0x3ee58ed0	0.4483552
49	0x3f1c1795	0.60973483
50	0xbf170c7b	-0.5900342
51	0x3f513b8d	0.8173149
52	0x3f1aec0b	0.60516423
53	0x3f210dd3	0.6291172
54	0x3f5bb938	0.85829496
55	0x3f21bd1b	0.6317918
56	0x3f09bf31	0.5380736
57	0x3ef96501	0.48709872
58	0x3f2a0f44	0.66429543
59	0x3fd8b4a9	1.6930133
60	0x3f81333f	1.0093764
61	0x3eb615df	0.3556356
62	0x3e991fa6	0.29906958
63	0x3e672e31	0.22576214
64	0x3f4b326a	0.793738
65	0x3ee9b176	0.45643204
66	0x3f4b4150	0.79396534
67	0x3f67c5da	0.9053627
68	0x3dfaabe8	0.1223982
69	0x3eee1b45	0.4650518
70	0x3f4580a9	0.77149445
71	0x3f469482	0.77570355
72	0x3f21375f	0.62975115
73	0x3f05be56	0.52243555
74	0x3f15a5b8	0.5845599
75	0x3f392e04	0.7233584
76	0x3eb02098	0.34399867
77	0x3f2405e1	0.6407147
78	0x3ecfc0d0	0.40576792
79	0xbd98fbda	-0.07469912
80	0x3f8c9a69	1.0984622
81	0xbd6ea6e8	-0.058264643
82	0x3f296f97	0.661859
83	0x3f3cf60a	0.73812926
84	0x3f2e415f	0.680685
85	0x3e047f3d	0.12939163
86	0x3f8bff93	1.093737
87	0x3e8c5eec	0.2741617
88	0x3f2f23dc	0.6841409
89	0x3f31584e	0.6927537
90	0xbfaf784a	-1.3708584
91	0xbf08f2bc	-0.53495383
92	0x3ea795f9	0.32731608
93	0xbf04607e	-0.51709735
94	0x3f1e2f2a	0.61790717
95	0x3b604d84	0.003422589
96	0x3ef76262	0.48317248
97	0xbe734137	-0.23755346
98	0xbd1672aa	-0.036730446
99	0xbe6fc61f	-0.23415421
100	0xbd8c78d5	-0.068589844
101	0xbf424eac	-0.75901294
102	0xbd6685b5	-0.056279857
103	0x3f335a4b	0.7005965
104	0xbf8487a1	-1.0353891
105	0x3defe758	0.11714047
106	0xbcca7398	-0.024713323
107	0xbe712c6c	-0.23552102
108	0xbd928a77	-0.07155316
109	0x3d551b61	0.052028064
110	0xbd364654	-0.044500664
111	0x3f11b4c8	0.56916475
112	0xbee501f6	-0.4472806
113	0xbe6c6bea	-0.23088041
114	0xbf03bc7e	-0.5145949
115	0xbe92f254	-0.28700507
116	0xbf2191db	-0.6311318
117	0xbe2d0950	-0.16898084
118	0x3e51a691	0.20473696
119	0x3e75aa31	0.23990704
120	0xbeabcfae	-0.33556885
121	0xbde29c1a	-0.1106493
122	0x3eb571bf	0.35438344
123	0x3e193dc9	0.14964975
124	0x3e441d9e	0.19151923
125	0x3f0d9b4a	0.5531508
126	0x3f0b56f6	0.54429567
127	0x3d07cbe3	0.033153426
128	0x3ed5a325	0.41726032
129	0xbea4587c	-0.32098758
130	0x3e58f155	0.21185811
131	0x3ec11d57	0.37717697
132	0xbf3808f5	-0.7188867
133	0x3dcda069	0.100403614
134	0xbf110aa3	-0.56656855
135	0x3d67bb89	0.05657533
136	0x3e4924e8	0.19642985
137	0xbdaaf773	-0.083479784
138	0x3e52b965	0.20578535
139	0xbe45c9c4	-0.19315249
140	0xbe8b79c7	-0.27241346
141	0xbe0cee36	-0.13762745
142	0x3e457164	0.19281536
143	0xbeb0ff9c	-0.34570014
144	0xbe7f2d29	-0.24919571
145	0xbe25c1b9	-0.1618718
146	0x3e320c14	0.1738742
147	0x3d9d9e8c	0.07696256
148	0xbd80b7a4	-0.06285027
149	0xbf218572	-0.63094246
150	0x3e7118d8	0.23544633
151	0xbe02b84e	-0.12765619
152	0xbeb29b4c	-0.34884107
153	0xbed72343	-0.4201909
154	0xbef911fb	-0.4864653
155	0x3f1f053c	0.6211736
156	0xbe443df1	-0.19164254
157	0xbdf744fb	-0.12073704
158	0x3e28feed	0.16503496
159	0x3dfe6187	0.124209456
160	0x3ea24854	0.31695807
161	0x3e931f65	0.2873489
162	0x3e05668b	0.13027398
163	0xbe50fc07	-0.20408641
164	0xbf31b8b3	-0.69422454
165	0xbe0aeecd	-0.13567658
166	0xbe2a0193	-0.16602163
167	0x3db62b86	0.0889502
168	0xbeae82d8	-0.340842
169	0x3a82fbab	0.0009993216
170	0xbe30c523	-0.17262702
171	0xbe67ade6	-0.2262493
172	0xbece9503	-0.40348062
173	0x3e4092df	0.18806027
174	0x3ca0b477	0.019617302
175	0xbeb9af50	-0.36266565
176	0x3f3266d4	0.69688153
177	0x3ee9dbeb	0.45675597
178	0xbe74c447	-0.23902999
179	0x3d02754e	0.03185015

fc.weight f4 [1, 90]
0	0xbf4f7226	-0.8103355
1	0xbfdb73a4	-1.7144666
2	0xbfffa117	-1.9971036
3	0x3fa26c09	1.268922
4	0xbeeba9fc	-0.46028125
5	0x3eb956fa	0.3619917
6	0x3f81a00f	1.0126971
7	0x3ec813a8	0.39077497
8	0x3faee203	1.3662723
9	0x3fedf29e	1.8589666
10	0xbced5e98	-0.02897577
11	0xc04716a2	-3.1107564
12	0xbe8fcda4	-0.2808658
13	0x3fc35d97	1.5262936
14	0xbf2cebce	-0.6754731
15	0xbffb9701	-1.9655458
16	0xbf3416c9	-0.7034727
17	0x3eb504e7	0.35355303
18	0xbd5a5e3b	-0.05331252
19	0xbf429bb5	-0.7601884
20	0xbea0785f	-0.31341836
21	0xbf8213d9	-1.0162307
22	0x3e4fca84	0.20292097
23	0xbe07ece7	-0.13273965
24	0x3f7acc32	0.9796783
25	0xbf924d3c	-1.142982
26	0x3f79733d	0.97441465
27	0x3f23a9b9	0.6393085
28	0xbe47e971	-0.19522645
29	0xbc582d5e	-0.01319441
30	0x3f1c694b	0.61098164
31	0xbe9b22ae	-0.30299896
32	0x3d42177b	0.047385674
33	0x3fad3a8a	1.353349
34	0x3dde286d	0.10847554
35	0xbe0c3a58	-0.13694131
36	0x3d315ef8	0.04330346
37	0xbf57fb59	-0.843679
38	0x3d2d81e4	0.0423602
39	0xbf927a88	-1.1443644
40	0xbf0d8955	-0.5528768
41	0xbe8c8295	-0.27443376
42	0xbf5d8740	-0.865345
43	0x3ea697c1	0.32537654
44	0x3f3dc7ac	0.741328
45	0xc088b7b5	-4.272425
46	0xc0f1938a	-7.54926
47	0xc0e111cc	-7.0334225
48	0xc1067bc7	-8.405219
49	0xbfef71ac	-1.8706565
50	0xc0a407ad	-5.125937
51	0xc08d2342	-4.410554
52	0x40cdefc8	6.43552
53	0x409fae5f	4.9900355
54	0xc00b1cea	-2.1736398
55	0x4026f0dd	2.6084511
56	0xc07f5da6	-3.9900908
57	0x41101a36	9.006399
58	0xbfede2a3	-1.8584789
59	0xc0b21b6e	-5.5658484
60	0xc0937788	-4.608341
61	0xc0c4b71c	-6.147352
62	0x3f454fe3	0.7707502
63	0xc0340129	-2.8125708
64	0xc0b13498	-5.53767
65	0xc0176bc3	-2.3659523
66	0xbf4e7607	-0.80648845
67	0x408bbb29	4.3665967
68	0xc12d5af8	-10.834709
69	0x4009c623	2.1527183
70	0xc0b24599	-5.570996
71	0xc032e895	-2.7954457
72	0xc08698b0	-4.2061386
73	0x403de255	2.9669392
74	0xc0b6afd5	-5.708964
75	0xbf55c753	-0.8350727
76	0xbf967bdc	-1.1756549
77	0xc00c8c1f	-2.1960523
78	0xc063c01c	-3.5586004
79	0xbef3a191	-0.47584203
80	0x404cdccc	3.2009764
81	0xc113cf68	-9.238136
82	0xbff3e18c	-1.9053206
83	0xbeca71f9	-0.3954008
84	0xc032ea9f	-2.7955701
85	0x3ec91bee	0.3927912
86	0xc0818d68	-4.0485115
87	0x40fae0ed	7.8399568
88	0x40bd33ec	5.912588
89	0x4039ed4e	2.905109
