sparrow/data/networks/asphericity/asphericity_network_v1.pt (torch, 296739 bytes, 17 tensors)

lstm.weight_ih_l0 f4 [180, 20]
00000000: 30fc 8abf 58e5 3cbf 91e4 f6be 04d1 23be
00000010: 1568 e63e 0772 7abe 4520 193e c175 603f
00000020: 9ead 8cbf 328e dc3f 01cd 99bd 917d 12bf
00000030: e41a b7bf 9c41 04bf 4065 8d3e 2b3a 12be
00000040: 46d5 11bf 9edb d63e 2335 6ebe 88bf 8dbf
00000050: 3e3f 25bf 889e 16bd d5e1 0cbf 0f82 bfbf
00000060: b51c 583d d7d0 afbf f5db b73e 4d37 683f
00000070: 548c c6bf 5c81 483f 709e 26bf bbe5 ac3f
00000080: 058c 39bf 732c cf3e ffc1 c4be 479b 5dbf
00000090: 5d44 bbbe e267 78bf c2c5 7ebe 7dfb a2bf
000000a0: 5ada 13be 9b0d b2bf fa42 d4be dcad f8be
000000b0: 3bc1 bf3e 3302 40bf 7441 6abe 4485 da3e
000000c0: 291d 0cbf 1c1d a03e 87cb 4e3f c2ee 34bf
000000d0: bba8 483f 48b1 1abf f95f 10bf f8db 6a3c
000000e0: bbbb 0d3f 5655 2bbf e042 7d3f a5fb b2be
000000f0: f9bd 18c0 a3eb 9b3f 414c babf f98f a7bf
00000100: 56d2 823e bc28 2ac0 42cb 90be faf6 2e3f
00000110: b5be 923c b6a8 253f 1673 fe3f d76a 123f
00000120: 2f5e 22be 2dac e83e 195f 08bd 6b67 9ebf
00000130: 0ddd 51bf 70cb 153f c01f 683e 2f18 613f
00000140: 2a61 21c0 7e75 673f 3902 58bd 881c 8cbd
00000150: 169d 8fbe 508d 5d3d 0de2 d13e 2a21 a5bd
00000160: 5c63 26be 9acd 81bf 2924 943d ee44 8dbf
00000170: a1de ccbf 2e1f 99be 5708 403d f9f5 ffbe
00000180: 2230 c6bf 48db 7fbd 9ce1 e3be 1e01 e9bf
00000190: 377c 27bf 6a72 103f 75f7 6abe c1a4 0cbc
000001a0: 9d85 6ebf 40bd 7dbf 0034 4bbf 2ba2 793f
000001b0: da65 3bbf 1053 b7be 77f7 7a3f 756f 423e
000001c0: 1930 6d3f 0a3f e1bf effe 173f d7c4 91be
000001d0: 7b3b 0bbe 7b24 96bf b5f4 39be 8a8e 20bf
000001e0: bfeb 433d 4d55 6c3f d979 b03d e499 00bf
000001f0: 414b 67be 2b65 88bd c1fe 02bf 9079 cb3f
00000200: 3622 6ebe fa96 5c3f bfea 713d a690 dfbc
00000210: 20fd bd3e f798 c13e 50fe 13bf dc1c 85be
00000220: 8a08 d03d 9dab c33e 30ad 5bbf b513 103f
00000230: ed8a abbf f926 0d3f b898 bebe a1d8 a03e
00000240: fbdb 003f 12c5 f4bf 5c2c b8bf 5fe6 943f
00000250: dfc8 493f 51d5 da3f fc85 9a3c 6ee0 b4bf
00000260: d062 5bbe cd41 c7bd 814a 07c0 7ef6 a1bf
00000270: 8cdb bebf b29b 1cbf cb7b 7bbc c5d7 c03f
00000280: 3780 9fbd 50b6 47be b02a 38bf b49d 8a3f
00000290: 35b8 303f f5eb 953e 3b73 7abe 8215 42be
000002a0: 29d9 11bc 4c22 0a3f f9f1 2fbf 0349 50bf
000002b0: a591 0b3f 3763 c7bf 6240 cbbf 45b5 91bf
000002c0: 3808 82bf c364 90bf 7675 29be 4f16 803e
000002d0: 45fe c73e fb3d debe 2e0f bebf 6631 ff3e
000002e0: 729c 943f 77a0 10bf 6375 36be 9d5f d8be
000002f0: 6cde 41bf 9f55 433f f156 aa3f b500 ca3e
00000300: d7f2 603f d651 1bbf 66ee dcbd 30f5 0f3c
00000310: 0d51 023f 9797 79bf ccf0 003f 4f9c e9bd
00000320: 9f06 1ebf 8df6 69bf f249 11bd 9061 54bf
00000330: af05 053f 76bb ab3e ceca 0c3f babd 953f
00000340: c737 eb3e 49d9 a0bf 3174 ef3e 6477 0ebf
00000350: 4fa1 1dbf f6d9 2abf ea88 8fbd 51a8 83bf
00000360: cbb7 823d fb2e 5e3f 3ef4 5cbc 6eec 96bf
00000370: 04d3 c1bf e650 50be 091c 993e ad7d 123e
00000380: a569 cbb9 1867 52bf 08a8 a3bf 390f 07be
00000390: 175f b83f 9439 913f 0798 753f d4e4 60bf
000003a0: 56d9 89be 77da b6bf b632 0e3f 76c9 87bf
000003b0: edad 28bf 5e09 ba3d 5b8d 713f 1a78 4dbe
000003c0: da97 41bf c6e7 65bf 2153 70bf b219 30bf
000003d0: a39e 1ebb 436a bdbf 3ed7 393f 622d 55bf
000003e0: 946c 06bf 86a7 9fbf 300e 8fbe 33f0 1cc0
000003f0: de0e bebe 0c36 8bbf 5d47 74bf 6fce 4ebe
-1.0858212 -0.7378745 -0.48221257 -0.15997702 0.45001283 -0.2445756 0.14953716 0.8767968
-1.0990484 1.7230895 -0.075098045 -0.5722285 -1.4305081 -0.5166261 0.2761631 -0.14280002
-0.56966054 0.4196443 -0.23262458 -1.1074076 -0.64549625 -0.03677228 -0.5503209 -1.4961566
0.052761752 -1.3735608 0.3591 0.9070938 -1.5511575 0.78322387 -0.65085506 1.3507608
-0.7247928 0.404636 -0.38429257 -0.8656506 -0.36575595 -0.9703351 -0.24880126 -1.2732998
-0.14438763 -1.3910402 -0.4145735 -0.48570144 0.3745211 -0.75003356 -0.22876531 0.426798
-0.54731995 0.3127221 0.8077931 -0.70676816 0.7838246 -0.6042676 -0.5639644 0.014334671
0.5536458 -0.6692709 0.9893017 -0.34957615 -2.386595 1.2181286 -1.4554521 -1.3090812
0.255511 -2.6587362 -0.28280073 0.68345606 0.017913202 0.6471056 1.9878871 0.57194275
-0.1585624 0.4544386 -0.033293817 -1.2375311 -0.8197792 0.58513546 0.22668362 0.87927526
-2.5215554 0.90413654 -0.052736495 -0.068413794 -0.28049535 0.054089844 0.40992776 -0.08062966
-0.1624884 -1.014087 0.072334595 -1.1036661 -1.6005441 -0.299066 0.046882953 -0.4999235
-1.5483439 -0.062464982 -0.44508064 -1.8203466 -0.6542391 0.5642458 -0.2294596 -0.008584202
-0.9317263 -0.991169 -0.7937622 0.97513074 -0.7320229 -0.3580556 0.9803385 0.1898783
0.92651516 -1.7597363 0.5937337 -0.2847049 -0.13596909 -1.1729883 -0.18159755 -0.627175
0.047832247 0.9231766 0.086169906 -0.5023482 -0.22587301 -0.06659921 -0.51169974 1.5896473
-0.23255238 0.8616787 0.059061762 -0.027290653 0.37107182 0.37812015 -0.57809925 -0.2599858
0.10157879 0.38216868 -0.8581114 0.5628007 -1.3401772 0.5513759 -0.3722589 0.31415275
0.50335664 -1.9122641 -1.4388537 1.1632804 0.7882213 1.7096349 0.018862717 -1.413099
-0.21424413 -0.097293474 -2.1139224 -1.2653348 -1.491075 -0.6117507 -0.015349339 1.5065848
-0.07788127 -0.1950314 -0.71940136 1.0829377 0.6903108 0.29281583 -0.2445802 -0.18953517
-0.008901873 0.5395858 -0.68728596 -0.8136141 0.5451911 -1.5577153 -1.5879023 -1.1383444
-1.0158758 -1.128075 -0.16548714 0.2501702 0.3906118 -0.43406662 -1.4848382 0.49842376
1.1610243 -0.5649485 -0.17818217 -0.42260447 -0.75730014 0.7630252 1.3307782 0.39453664
0.87870544 -0.60671747 -0.107876584 0.008786485 0.50904924 -0.9749693 0.50367427 -0.114067666
-0.61728853 -0.9139183 -0.03547091 -0.8296137 0.519618 0.3354146 0.54996955 1.1698525
0.45940992 -1.256631 0.46768335 -0.55650926 -0.6157426 -0.6673883 -0.07008536 -1.0285741
0.06382712 0.86790437 -0.013485966 -1.1790903 -1.5142522 -0.2034336 0.29904202 0.14305754
-0.0003879789 -0.8218856 -1.2785654 -0.131894 1.4404019 1.1345696 0.959351 -0.87849164
-0.26923627 -1.428542 0.5554613 -1.0608356 -0.6589039 0.09083818 0.94356316 -0.20065346
-0.7562233 -0.89806783 -0.93876845 -0.6878921 -0.0024203442 -1.4798054 0.7259406 -0.83272374
-0.5250943 -1.2472999 -0.27940512 -2.4521606 -0.37120718 -1.0875869 -0.9542139 -0.20195936

lstm.weight_hh_l0 f4 [180, 45]
00000000: 66fc c2bd 2083 7dbf 1372 ec3e cdcf 38bf
00000010: d33f 80bd 660a e3be b047 9f3d cdb1 493e
00000020: 9493 923e ce1d 1e3f 0499 93bf b763 043f
00000030: 5b8b 11bf 3346 8ebf cae5 98bd 2bec 81bf
00000040: f029 943e 4fa3 6bbf 51fc 443d 284b 3d3f
00000050: 8d66 333d 27fb 0cbf 7f2a f7be 7f5e 10bf
00000060: 5312 6a3e 4a5e b9bd a554 843e 8daa 3abf
00000070: f82b 9e3d 883a b5be 80bb 423f c836 aa3e
00000080: ba8a 8fbe 490a 2dbf fbd9 c6bd 52e2 0fbf
00000090: 4d19 cabe f2df 7d3f 390c 13bf 6887 693e
000000a0: 71e1 3ebf 471f d4bd 198a 833e 4518 1ebf
000000b0: 3ea1 ff3e 0218 243f 2f39 c73f a760 843f
000000c0: fc77 a03f 9bb9 fabe e3bf 553f 40f1 bb3f
000000d0: 7254 493e 0ccc efbe f067 9cbe 4ef6 153d
000000e0: 3e70 8d3d a61a 323f ebd1 5e3f 4de4 53bf
000000f0: 59ee 62bf 4fcb 33be a98e 533d 2066 92bd
00000100: 7871 43bf 476d 943d 7ba9 a4bf fd36 3fbe
00000110: d0ae c43d cb26 203d a045 e63d 7c22 6abf
00000120: 4e10 b73e 085b 513d 7046 913e 9a38 a0be
00000130: 2b84 b2bd 1b2d a7bb ed15 33bf c6a6 a13f
00000140: 7a80 85bd 8bab 113f c26c 903e 8a5c 9cbf
00000150: fef6 59be 277f 8dbf 8af5 3b3f e939 dc3e
00000160: 84fe 73be a16e 1dbf 895d d93e 672e 7c3e
00000170: 947b 353e 0419 6d3e 4ab8 0ebf 5de2 9bba
00000180: 257a 213f 0a80 613f 808f 97bf 885e 483e
00000190: 3c65 73bf e03c 1c3f 128b 593f ce8d 3bbf
000001a0: fe3e 433e e33b d2bf 7dea bd3e 596e 5a3e
000001b0: 488d 613f 748e a43e 2434 203d ae3a 24bf
000001c0: d134 59bf 39b3 cb3d ee24 003f a55e 823d
000001d0: 8008 1b3d 397b e13e 2e49 d7bd deb4 023f
000001e0: 0976 55bd c5cd dfbe f5e3 1f3e e63c 1bbe
000001f0: 183f 203e 222d d83e 142b 4e3e ad10 7f3f
00000200: 479c f7be 8811 143f 29cd cebf 9bb1 b43d
00000210: 1134 473f 3650 f7be a9b4 b9be 68b0 d4be
00000220: a113 a93d fcdf e33e 7ddb 933f 2e9e 9c3e
00000230: 5156 733f ea95 a43f 3c78 803d 02e7 bbbe
00000240: 595d abbe 7446 79bf 431f 443f 0991 2abf
00000250: 0f47 823f 9c2a 4fbf a929 94bf 31f8 b3be
00000260: 4d1f 3a3e 104a 18bf 1a23 3fbf 36e8 4f3e
00000270: b4fa 4abf 03d4 1f3f 1398 c0be 4fa7 8c3e
00000280: 3d22 603f 2021 c7ba ecaa 0f3f 21e4 513f
00000290: a002 983c caf9 803c 32f0 a9bd b5c9 9bbf
000002a0: b7ec 043f d652 e33e d1ae 4b3e c55a 37be
000002b0: 688e 87be 7190 6dbf e386 b6be e7e2 37bf
000002c0: 374d 073f 128f c73e cd88 3dbf 3a23 9bbf
000002d0: 2103 243f 280d 053f 5ea1 2cbe 4094 953e
000002e0: 94b7 2b3f 0f9a 5fbf bdb2 b53f 7774 b4be
000002f0: 36aa dd3e 06c1 8bbf 1146 8c3f 8800 35bf
00000300: 53f1 e2bf 701e 68be 2d98 683f 9c4b 87bd
00000310: 2c36 f53d eacb 4d3e e0be 46be 33b5 9fbf
00000320: ec18 a73d 322f 133f 17ab ee3e c6ee 703f
00000330: c0c3 1b3f 069b 9d3e 899a a0bf cd68 f73e
00000340: 5707 f7bc 5e72 8cbf a33a 553e d9e7 a5bd
00000350: 27e6 a8bd 1120 423f 95fc bbbf 7d30 83be
00000360: 4710 523e 6cd8 4abb 19d6 89bf a9a1 b6be
00000370: 5d8e c23e cf94 d0be 8965 b2be 9478 613f
00000380: 004e ecbe f084 b03e 487c 1b3c e546 8e3e
00000390: 413a cb3d e74f 133f a4b5 e7bd 97f8 06bf
000003a0: 3161 32bf 781f c53d 47b3 f9bf 6320 313f
000003b0: 002c 58be e3d8 22bf d1a1 45be 4a08 d33e
000003c0: 965e 453f b9da ab3e ea4b efbe 8564 40be
000003d0: 5e9f 1e3b fb4f 99bf 1f39 533e 23b8 113f
000003e0: 456d 893f 2e6f b6be af85 d33d 12fc 473e
000003f0: 71ed 733f b8fb 66bf 68ad d7be 8ed2 d43e
-0.095207974 -0.99028206 0.46180782 -0.7219208 -0.062621735 -0.4434387 0.07777345 0.19696732
0.28628218 0.6176423 -1.1531072 0.5171465 -0.56853265 -1.1115173 -0.07465704 -1.0150198
0.28938246 -0.92046064 0.04809219 0.73942804 0.043798972 -0.5507073 -0.4827461 -0.5639419
0.22858553 -0.09051187 0.2584583 -0.7291649 0.0772323 -0.35396218 0.7606735 0.3324492
-0.28035527 -0.6759382 -0.09709545 -0.5620471 -0.39472428 0.9916984 -0.57440525 0.2280556
-0.74562746 -0.10357528 0.25691298 -0.6175578 0.49927706 0.64099133 1.5564326 1.0341996
1.2536616 -0.4896973 0.8349592 1.4682999 0.1966112 -0.46835363 -0.30548048 0.036611848
0.06906174 0.6957191 0.8703906 -0.82770234 -0.8864494 -0.17558025 0.051649723 -0.07148385
-0.76345015 0.072474055 -1.2864221 -0.1867332 0.09603655 0.039099496 0.11243749 -0.9145887
0.35754627 0.051112205 0.28374052 -0.31293184 -0.08716615 -0.0051018125 -0.6995533 1.262902
-0.065186456 0.5690238 0.28207976 -1.2215741 -0.21285626 -1.1054429 0.7342154 0.43012932
-0.23827559 -0.6149693 0.42454174 0.24627076 0.17722923 0.23154074 -0.5574995 -0.0011893023
0.63077 0.88086 -1.1840668 0.19567311 -0.95076346 0.6103039 0.8497783 -0.7326325
0.19066998 -1.6424526 0.37092963 0.21331157 0.88106203 0.32139933 0.039112225 -0.6415204
-0.84846216 0.099462934 0.5005635 0.06365708 0.037849903 0.44039324 -0.10512005 0.5105723
-0.05211452 -0.43711677 0.15614302 -0.1515995 0.15649068 0.42221934 0.2013362 0.9963482
-0.48361418 0.5783925 -1.615636 0.08822938 0.7781382 -0.48303384 -0.36270645 -0.41540837
0.08255697 0.44506824 1.1551358 0.30589432 0.95053583 1.285825 0.06272933 -0.36699682
-0.33469656 -0.9737313 0.766102 -0.66627556 1.0177935 -0.8092439 -1.1575214 -0.35150293
0.18176003 -0.5948801 -0.74662936 0.20303425 -0.7928879 0.6243288 -0.37616023 0.27471396
0.87552243 -0.0015192367 0.5612018 0.8198872 0.01855594 0.015744109 -0.08297767 -1.2170931
0.519237 0.44399136 0.19890906 -0.1790572 -0.26475835 -0.92798525 -0.35649785 -0.718306
0.52852196 0.3897634 -0.74036866 -1.2120125 0.64067274 0.519732 -0.16858432 0.29214668
0.67076993 -0.8734445 1.4195172 -0.35245106 0.43293923 -1.0918281 1.0958883 -0.70703936
-1.7729896 -0.22667861 0.908572 -0.06606218 0.11973223 0.20097318 -0.1940875 -1.2477173
0.0815905 0.5749389 0.46614906 0.9411434 0.60845566 0.30782336 -1.254716 0.48322144
-0.030154867 -1.0972402 0.2082315 -0.08100862 -0.08247023 0.7583018 -1.4686457 -0.2562293
0.20514022 -0.0030951751 -1.0768462 -0.35670212 0.3799924 -0.40738532 -0.3484309 0.8807461
-0.4615326 0.34476423 0.00949008 0.27788463 0.099232204 0.57543796 -0.11313942 -0.5272307
-0.6967955 0.09625143 -1.9507836 0.69190043 -0.21110535 -0.6361219 -0.1930001 0.41217262
0.7709745 0.3356531 -0.46737605 -0.18788345 0.0024203877 -1.1977533 0.20627259 0.56921595
1.0736471 -0.35631698 0.103282325 0.19529751 0.9528418 -0.9022784 -0.42124486 0.4156689

lstm.bias_ih_l0 f4 [180]
00000000: 5067 4dbf c608 2ebf ce03 0fbf f5ae 10bf
00000010: 189a 41bf b538 26bf b4a6 21bf 7c85 32bf
00000020: 13a0 50bf 3797 3bbf 6852 0cbf 4037 2bbf
00000030: 2bb0 efbe 5ab9 16bf 7a6a 07bf b34e 1bbf
00000040: a242 23bf 7b26 3ebf 057f 60bf 8a61 46bf
00000050: 7b46 2bbf c0a4 12bf e68b bfbe bb60 01bf
00000060: 850a a8be 3ad1 ffbe d9e6 39bf 7b4b bebe
00000070: cc03 01bf 3c9a 30bf 9a1d 9fbe f157 1cbf
00000080: 3456 cbbe 06d2 11bf 465d 90be 9967 ddbe
00000090: ff7b 53bf 43df 1abf ef75 fdbe 42e9 98be
000000a0: 5760 34bf ec56 12bf edba 40bf dc56 28bf
000000b0: cb5b 2dbf da16 dc3a 1df8 223e 90a8 7dbe
000000c0: d875 223c 0e45 933e 0edf cb3c 00ab 8bbf
000000d0: ae7c eb3c f93a 8dbd 6069 a0be b251 193e
000000e0: 588e 0f3f 6306 84be c45b a83e 09e1 bcbe
000000f0: 4d25 d3be 6bd5 163e 5bd2 cebe 121c bbbd
00000100: e293 1e3e eb1e 45be 4490 e63d 4775 273e
00000110: fc6e 70be e548 84be 8ea6 293e 0d7f 37bd
00000120: b184 8abd 5958 ac3e 5cd9 d63e e36f a73e
00000130: ae35 88be 1a9f c1bd 719d 87bd 6de1 953e
00000140: 24b1 023e ae2f 213f ad48 c13e b9b8 e7be
00000150: d60f a9bd 39be bbbe 988e 873d 6ca5 1abf
00000160: bd50 f93e cf86 233e bdfe b03b ea12 553c
00000170: d0fe 1dbe 4403 e1bd 4880 183a b8e3 103e
00000180: 17dc 043e 8051 943d 0062 f8bd 3c12 903d
00000190: d85d 47bd 944c d23d 9879 a23d d1cf 53bd
000001a0: 6f99 043d b17e 97be 4f89 4cbc efc3 2d3e
000001b0: 96ad 3cbe 2955 4ebd 8d9a 65bc edfb 1bbe
000001c0: a83b 683b 674d 3abe 0513 193d 337a 07be
000001d0: 88ea 75be d97b bfbc d1b7 74bd 1f90 583e
000001e0: b051 3bbe ace9 bf3c 1a34 7abe e92d 1f3e
000001f0: 5473 7b3e fc15 4c3e b269 bbbd d6b9 d3bc
00000200: 57d3 453e fdd0 e63d cb46 323e e7d3 023e
00000210: 1e21 92bd 4619 e4bd da87 eb3d aae3 e2be
00000220: 2aaf 6dbe 8fc8 efbe 7864 efbe 66f4 edbe
00000230: a5d1 e5be 4da2 12bf c518 29bf 6177 fabe
00000240: 239c e4be f12e 00bf 64a6 123e 22da c5be
00000250: 4834 b6be 1a15 b7be 0997 9abe 11b7 a8be
00000260: 0ff6 fdbe 9c68 16bf aeb6 09bf 1f3d 03bf
00000270: 0145 a8be 7a61 e8be 44bc 13bf dba3 76be
00000280: d953 c8be dd25 1dbf 1f99 babe 2b79 67be
00000290: f441 50be 3e34 cabe f070 5ebf a5bd a4be
000002a0: 2d56 a5be bcd6 19be e686 05bf 9084 71be
000002b0: 5350 60be 96ca efbe 24cb 5dbe f56d 15bf
000002c0: d762 babe e06c 00bf 4312 febd 5d76 e9be
-0.8023577 -0.6798214 -0.5586518 -0.56516963 -0.75625753 -0.6493028 -0.63144994 -0.6973493
-0.81494254 -0.7327761 -0.5481324 -0.6688118 -0.46814093 -0.58876574 -0.52896845 -0.6066696
-0.6377355 -0.74277467 -0.87693816 -0.7749258 -0.6690442 -0.5728264 -0.37411422 -0.50538224
-0.32820526 -0.49964315 -0.7261787 -0.37166962 -0.5039642 -0.6898534 -0.31077272 -0.6107169
-0.39714205 -0.56961095 -0.28196162 -0.432431 -0.8261108 -0.6049692 -0.4950404 -0.29865462
-0.704595 -0.5716388 -0.75285226 -0.65757537 -0.6771819 0.0016791478 0.1591496 -0.24771333
0.009915791 0.28763622 0.024886634 -1.091156 0.028745975 -0.06896014 -0.31330395 0.1497257
0.56076574 -0.25786123 0.32882512 -0.36890438 -0.41239396 0.1472985 -0.40394863 -0.09136213
0.154861 -0.19250076 0.11257985 0.16353332 -0.23479837 -0.25836864 0.16567442 -0.0447989
-0.0676359 0.33661154 0.41962707 0.3270255 -0.26603454 -0.09454174 -0.066218264 0.2927355
0.12762886 0.6296338 0.3775076 -0.4525812 -0.082549736 -0.36668566 0.066189945 -0.60408664
0.4869441 0.15969394 0.005401461 0.013004998 -0.15429235 -0.10986951 0.0005817455 0.14149368
0.12974583 0.072421074 -0.12128067 0.07034728 -0.04867348 0.10268512 0.079333484 -0.05171186
0.03237289 -0.29588845 -0.012483909 0.16969274 -0.18425593 -0.050374184 -0.014013899 -0.15232821
0.0035435949 -0.18193589 0.037371654 -0.13230209 -0.24015248 -0.023374485 -0.059745613 0.21148728
-0.1829288 0.023426853 -0.24433938 0.15544857 0.24555713 0.19930261 -0.09151019 -0.02584545
0.19318901 0.1127033 0.17409818 0.12776147 -0.07135223 -0.11137633 0.11500521 -0.4431432
-0.23211351 -0.46832702 -0.4675634 -0.46475524 -0.4488651 -0.572789 -0.6605342 -0.48919204
-0.44650373 -0.50071627 0.14321285 -0.38642985 -0.35586762 -0.35758287 -0.30193356 -0.3295217
-0.4960179 -0.5875337 -0.5379437 -0.5126514 -0.32865146 -0.4538687 -0.57709146 -0.24085943
-0.3912647 -0.613859 -0.36444947 -0.22604816 -0.20337659 -0.39492983 -0.8689108 -0.32175937
-0.3229231 -0.15023321 -0.52158964 -0.23585725 -0.21905641 -0.46834248 -0.21659523 -0.58370906
-0.36403534 -0.5016613 -0.12405827 -0.45598117

lstm.bias_hh_l0 f4 [180]
00000000: 9c7b 39bf a74e 46bf 180f 24bf d6d9 29bf
00000010: 9f5c 29bf 288a 09bf 1463 00bf 20c4 2ebf
00000020: 2429 38bf 6c73 4bbf 1ed6 edbe 1492 2ebf
00000030: acc6 c2be 0041 40bf de24 babe e08a 20bf
00000040: a894 5abf 9e34 5cbf 4dc6 5fbf d5bf 53bf
00000050: 2bb3 3cbf 5e97 00bf 8794 f3be c603 fabe
00000060: 7eb8 3abe 2c6e 12bf da66 26bf 3cf0 a7be
00000070: e79b f4be 9aad 4cbf 0999 10bf 7e61 5dbf
00000080: 1be7 dbbe 4a6c 08bf d70e aabe 45f5 cabe
00000090: 90e1 35bf 902a 4dbf 2302 00bf 6c20 99be
000000a0: 5aa0 09bf 74fa 00bf 4038 48bf cca8 28bf
000000b0: aec8 29bf c258 c33c 8190 533d 677f dcbe
000000c0: f3d1 8f3e 75d5 b13e ea85 a9bd 427b 69bf
000000d0: 1ae3 403e 7570 55be 0a5d bfbd be49 a03d
000000e0: 0df4 163f f1a1 7ebe a4be 443e cbfe 1bbf
000000f0: 7dd9 7bbe 3fbc 173e 2f2f babe 0129 2e3d
00000100: 8594 683d 9c28 29be 8577 7b3c d4bd f13d
00000110: 6378 14be 0dfc 2dbc 006c 443e f440 0c3e
00000120: 6624 073e 8fcc df3e daf7 1a3f 0be2 033e
00000130: e80a 82be 98fe 36be 7990 173d c495 793e
00000140: 8e18 003e 3184 123f 4edc f53e 6a6b 02bf
00000150: add4 2cbe 44db a0be 963a b83d 6a5d 2bbf
00000160: 8be6 8b3e 6bca 793d 1e06 1b3d c592 ec3c
00000170: 4100 91be e91a b3bd 69b2 3bbe ae0d 3f3e
00000180: 10e1 a43d c6b0 93bd 0662 223e 2772 a7bd
00000190: 491f a4be 9009 013e f665 a63d 2e8b 4dbe
000001a0: aab4 09bb 9db8 6fbd 31ec 7fbe 4782 ea3c
000001b0: 5ade cfbd 36c6 9d3d 5fd4 2a3b 1fdd 82bd
000001c0: 532f 943b 5555 b53c 2e24 43be 0535 b43c
000001d0: 3522 9fbd 4a27 3b3e 7af3 bb3d 1736 413e
000001e0: 245f 38be 0523 84be 5bad d3bd 5e23 30bd
000001f0: 270b 913e 3d23 d63d cc0f 15bc f9ab 693e
00000200: 42db 773e 5e35 bb3c 4354 3d3e 46c6 193e
00000210: f4ef 7b3b 168e d5bd 4f17 333d f64b ddbe
00000220: 0c3f 8ebe dee0 0bbf ef2f b6be e265 c1be
00000230: c3a8 eabe 1ae0 22bf 496f d2be 3228 e0be
00000240: f474 e0be 4d58 0dbf 72d0 e03d 1874 dbbe
00000250: dfc1 c7be 9875 abbe 9e5f c6be 7bfa c5be
00000260: 149a 26bf 22e4 efbe 6563 e4be 3cac a6be
00000270: efed bbbe 94dc 02bf 5485 03bf b015 9bbe
00000280: e9cb d9be 858b 1bbf 0b65 c1be bfaa bcbe
00000290: d3b8 37be 28df 0dbf 51d3 58bf e7e1 e1be
000002a0: e936 9dbe 6293 afbd e979 15bf a306 ddbd
000002b0: a065 30be 9e4d debe f880 7ebe 1e42 a8be
000002c0: 37c3 59be 229e 18bf 9d6b 83be a499 27bf
-0.7245424 -0.77463764 -0.6408553 -0.66348016 -0.66156954 -0.53726435 -0.5015118 -0.68268013
-0.71937776 -0.79472995 -0.4645242 -0.6819165 -0.380422 -0.7509918 -0.36356252 -0.62711906
-0.8538308 -0.8601779 -0.8741196 -0.8271459 -0.7371089 -0.5023097 -0.47574255 -0.48831004
-0.1823444 -0.5719936 -0.6500069 -0.32800472 -0.47775194 -0.79952395 -0.56483513 -0.86476886
-0.42949757 -0.53290236 -0.33214447 -0.3964025 -0.71047306 -0.8014307 -0.5000326 -0.29907548
-0.537603 -0.5038216 -0.7821083 -0.65882564 -0.6632184 0.023846034 0.05165148 -0.4306595
0.28089866 0.34733167 -0.08277495 -0.912037 0.18836632 -0.2084368 -0.09343918 0.07826565
0.5896614 -0.24866463 0.19213349 -0.6093566 -0.24594684 0.14817904 -0.36364123 0.042519573
0.056782264 -0.16519397 0.01534832 0.11803785 -0.14499049 -0.010619176 0.19181824 0.13696653
0.13197479 0.43710753 0.6053444 0.12879197 -0.25398946 -0.17870557 0.037003014 0.24373537
0.12509367 0.5723296 0.48019642 -0.5094515 -0.16878004 -0.31417286 0.089955494 -0.66939414
0.27324328 0.060984056 0.03784763 0.028878579 -0.28320506 -0.08745367 -0.18329777 0.18657562
0.0805074 -0.07211451 0.15857705 -0.0817607 -0.3205512 0.12601304 0.08124916 -0.20072624
-0.0021012225 -0.05852567 -0.24992444 0.028626574 -0.10149832 0.07703821 0.0026066524 -0.06389832
0.004522243 0.022135416 -0.1905677 0.021997938 -0.07770196 0.18276706 0.09177299 0.1886829
-0.18005043 -0.25807968 -0.10335799 -0.04300248 0.2832882 0.1045594 -0.009098005 0.22819509
0.24204734 0.022852596 0.18489175 0.15017042 0.0038442584 -0.10427491 0.0437234 -0.43222016
-0.27782476 -0.54639995 -0.35583445 -0.37773043 -0.4583188 -0.636232 -0.4110053 -0.43780667
-0.43839228 -0.5521286 0.10977258 -0.4286201 -0.390151 -0.33488154 -0.38744825 -0.38667664
-0.65078855 -0.4685374 -0.44607082 -0.3255328 -0.36704966 -0.51117826 -0.5137532 -0.30289984
-0.42538384 -0.60759765 -0.37772402 -0.3684902 -0.17941599 -0.55418634 -0.84697443 -0.44117662
-0.30705956 -0.08573033 -0.58389145 -0.107922815 -0.17226267 -0.43418592 -0.24853885 -0.32862943
-0.21265875 -0.5961629 -0.2566804 -0.6546881

lstm.weight_ih_l0_reverse f4 [180, 20]
00000000: c937 29bf e12e 573e ba41 e2be e81c 033e
00000010: 7eea 893f f11b 20bf ffdd 7bbe 22ab d9be
00000020: 4044 55bf 7b39 2ebd 6641 a53e a022 6ebf
00000030: 2792 dabf cf0b 76bf a547 713e 6555 f8bf
00000040: cf05 89bf a119 c93d 80db b93f 7f47 8a3f
00000050: 6048 03bd 0398 c53e d30f 0c3f 0599 50c0
00000060: 5b0e 353f fe1a 6abf dabc 12c0 e277 9fbf
00000070: 7f44 4e3f 77ce 55bf bbfa 3b3e 6ae0 dcbf
00000080: 9ece b9be 90ba 1ac0 9a0a 04c0 c6a1 44be
00000090: d5a1 16be 8260 833c 6e7a 743f b8ec 50bf
000000a0: 591f e0bf 9d93 99bf c05b b1bc 931d 403e
000000b0: 571f babf 1ae3 3bc0 fb8c a7bc 174d 423f
000000c0: 9e35 343d ff0b 3abe 4716 28bf 43b7 0fc0
000000d0: 1359 0ebf 016b 8abf 49f8 3e3f 0999 d3bf
000000e0: 1f54 81bf 6e4c 15bf a047 b83b 57b7 b5bd
000000f0: 9a04 99be 559e 26be 97c6 cdbd 1d6a cd3f
00000100: 92c1 13bf 144a eebf 7003 6fbf 7c5b b13f
00000110: a46b 42be 3d7b 60bf 7ebc fa3f 611f d4be
00000120: 6dbd 3b3f f5c1 51bf 2f2e 963e d3d1 a6bf
00000130: 53d2 513d 25d6 97bc 79bd 70be f736 3f3e
00000140: 6078 1dc0 57e2 0cbe b409 133f f2de 843f
00000150: 1a25 1fbc ee0d 083e b230 da3d 98c8 8ebf
00000160: bc0f 3c3e 9e28 8cbe bd36 0c3f 01d1 adbf
00000170: dbc5 74bf f890 883e 5c95 9d3d 0405 b2bf
00000180: 5182 a9bf 31d5 4b3f 015e 553f bb7f 45bc
00000190: 71a0 94be 8cb4 0d3d 0c56 04bf b05a c83e
000001a0: 89ee 4c3f 9b2e c9bf fea1 febf 7e80 763e
000001b0: 811e 06bf 2a03 683f 92eb a7be 7350 20c0
000001c0: c0fe 98bd 991e a1bf fd93 c2bf 1b39 d1bf
000001d0: 84d8 e13d 8404 99bf 0266 7e3e 792a ac3f
000001e0: e350 813f f740 3bbc 8a65 883e 4e95 e33b
000001f0: 5aad b7bf c172 7ebe 575a 81be 3f07 dd3e
00000200: 4bcb 9f3f 78d2 b4bf 10ff 7cbe f436 7dbf
00000210: 39ad 0d3d b3a5 68bf 3f71 8c3c cbd7 80bf
00000220: 8950 053f b38c 943e 8b24 84bf 9e15 cabf
00000230: 00ec ddbf c964 f03e f1a5 bebf bbcf 47bf
00000240: 441e 04bf d567 c0be c57c 45bf e7e6 c13d
00000250: 1d67 36be 7b0d 2bbf 4150 25bf f2d0 f4bf
00000260: 74d1 8cbe 300f 0bc0 85ef ee3d 8384 9cbf
00000270: ff55 a0bf 3845 23bf c6fa 1bbf 489f d1bf
00000280: 58b4 d4bf 403e 26bf 2c80 5bbf 96d2 3cbd
00000290: 47fb c33c f984 f7bf 0fa9 99be e885 47bf
000002a0: ad9a 533e 2f66 9fbf c563 cbbd 5e14 68bf
000002b0: bcd7 81bf 21e8 2ebf ee5a b7bf cc99 82bf
000002c0: 0633 02c0 a57d 56bd 7e9d 963f 81f3 d6bd
000002d0: d643 363e 5ec7 6cbf 56d4 233f 4099 013f
000002e0: c1bc 86bf 2a31 55bf 93ac 95be 8774 4e3f
000002f0: 447f 25bf 8b9b 6cbf 8e45 6c3f 0cb3 68bf
00000300: 7fa2 a53e 4b1a e9bf e08c 77bf 0a02 96bf
00000310: fc80 e7be 9f0f 41be 7014 f5bf 6ac7 51c0
00000320: ac88 09bf 160c e3bd e87d 9a3e ac04 b33f
00000330: 2521 b4be d66b 9bbe 8912 4dbf 2a7f d5be
00000340: d63c 41bf 83b0 91be fe15 bdbd acc5 a23e
00000350: 0081 bcbf 9d03 5e3f 64ec e13e 2da7 c8be
00000360: 3aa3 863d a203 f1be 7db8 e4bf fa3d ed3e
00000370: 34c7 cc3e 1827 bc3e a3e4 fbbe b8a7 77bf
00000380: f691 50bf 65bb 923d d857 17c0 9e50 21be
00000390: f51d 31bf e909 b03f 331c 833f 0b6b 2dbf
000003a0: ec64 fe3c 004b 1ebf a649 fdbf a545 6d3e
000003b0: 458e b23d 0521 4d3b 1952 79bf f402 03c0
000003c0: 8361 913e f437 113f a8d2 4a3f 40bb 1b3f
000003d0: d438 85be c242 8abf b11d 09c0 c496 87be
000003e0: d5b3 123c fd77 a93e 3868 b53e d851 9ebe
000003f0: d2bc bf3f 1de5 9cbe bfd1 143f ac06 3ebf
-0.66100746 0.21013977 -0.4419077 0.12803996 1.0774686 -0.62542635 -0.24596404 -0.42513376
-0.83307266 -0.042535286 0.32276458 -0.93021584 -1.7075852 -0.9611177 0.23562486 -1.940106
-1.0704898 0.098193415 1.4520111 1.0803069 -0.032051444 0.38592538 0.54711646 -3.2593396
0.7072503 -0.91447437 -2.2927766 -1.245846 0.80573267 -0.83518165 0.18357365 -1.7255986
-0.3629045 -2.4176369 -2.063147 -0.19202337 -0.14710172 0.01603723 0.9549931 -0.81611204
-1.7509567 -1.1998173 -0.021650195 0.18761282 -1.4540814 -2.9357362 -0.020452967 0.7589888
0.043996446 -0.18168639 -0.6565899 -2.2455604 -0.55604666 -1.0813905 0.74597603 -1.6531078
-1.0103797 -0.5831975 0.0056237727 -0.0887286 -0.29886323 -0.16271336 -0.10047644 1.6048008
-0.5771724 -1.8616357 -0.9336462 1.3856044 -0.18986374 -0.87688047 1.9588773 -0.4143019
0.73335916 -0.8193658 0.2933211 -1.3032783 0.05122597 -0.01853473 -0.23509778 0.18673311
-2.460472 -0.13758217 0.5743668 1.0380538 -0.009713436 0.13286564 0.10653819 -1.1154966
0.18365377 -0.27374738 0.54771024 -1.3579408 -0.95614403 0.26673102 0.07694504 -1.3907781
-1.3242894 0.7962218 0.83346564 -0.012054379 -0.29028657 0.03459601 -0.516938 0.3913169
0.80051476 -1.5717348 -1.9893186 0.24072453 -0.52390295 0.9062983 -0.32796913 -2.5049102
-0.07470465 -1.2587463 -1.5201412 -1.6345552 0.11027625 -1.1954503 0.248436 1.3450462
1.010281 -0.011429063 0.26639968 0.0069452887 -1.4349778 -0.24848463 -0.25264236 0.4316959
1.2483915 -1.412673 -0.24706674 -0.98911977 0.034589026 -0.90877837 0.017143844 -1.0065855
0.5207601 0.29013595 -1.0323652 -1.5787847 -1.7337646 0.46951893 -1.4894391 -0.78051347
-0.5160868 -0.37579218 -0.7714351 0.09467869 -0.17812772 -0.66817445 -0.6457558 -1.9126265
-0.2750355 -2.172802 0.116667785 -1.2227939 -1.2526244 -0.63777494 -0.60929525 -1.6376734
-1.6617537 -0.64938736 -0.8574245 -0.046099268 0.02392353 -1.9337455 -0.30011794 -0.779387
0.20664473 -1.2453059 -0.09931139 -0.9065608 -1.0143962 -0.6832295 -1.4324625 -1.0203185
-2.0343642 -0.052365918 1.1766813 -0.104956634 0.17799315 -0.9249171 0.63995874 0.50624466
-1.0526353 -0.83278143 -0.29233226 0.80646557 -0.64647317 -0.9242484 0.9229363 -0.90898204
0.32350537 -1.8211149 -0.96699333 -1.1719372 -0.45215595 -0.18853615 -1.9146862 -3.2777963
-0.5372417 -0.110862896 0.30174184 1.3985801 -0.35181537 -0.3035571 -0.8010641 -0.4169858
-0.75483453 -0.2845498 -0.0923271 0.31791437 -1.4726868 0.86724263 0.44125664 -0.39190045
0.06574102 -0.47073084 -1.7868801 0.46336347 0.3999573 0.36748576 -0.49197873 -0.96740294
-0.8147272 0.07164649 -2.3647366 -0.1575341 -0.69186336 1.3753024 1.0242981 -0.6774146
0.031053983 -0.6183319 -1.9788101 0.23171099 0.08718542 0.0031300199 -0.97390896 -2.0470552
0.28394708 0.56726 0.79227686 0.60832596 -0.2601992 -1.0801623 -2.1424372 -0.26482213
0.008954008 0.33099356 0.35431075 -0.30921817 1.4979498 -0.3064355 0.5813255 -0.7422893

lstm.weight_hh_l0_reverse f4 [180, 45]
00000000: 13b5 a23e 87a5 a2be cf19 b83e 58dc b2be
00000010: 9d00 523f ec0d 563f dca8 9bbf 49e0 94bd
00000020: b409 cc3e 395b b3bf 8382 373e 27fc 5e3f
00000030: 1859 37bf 8c25 a2be bf97 01bf dedf bebb
00000040: 36e8 e9bd 382f 16bf cdc3 10bf 3343 213d
00000050: e1cb dc3e 34cd e43d 4b29 06bf 0bdd 70be
00000060: 1816 453f 5a7e 6ebe 6580 423f e37d 9dbe
00000070: ec64 17bf 6c77 54bf 1971 893f 73ac 01bf
00000080: c167 1ebf 02fd 4bbf 2a33 4b3f aa95 523f
00000090: ed91 a23e 3320 fd3e fbeb f4be 9889 2b3f
000000a0: b407 05bf d71e 8ebf e078 0ebf 870f ab3e
000000b0: 3af8 4d3f 440e de3e 38d2 24be dec1 39be
000000c0: 2fe5 95be 4601 f93e 40d7 193f 546a e43b
000000d0: 34ef 593e 8598 a43f 3741 98be 0d75 b93e
000000e0: c60f e43d 3cf6 ab3e 23d9 8ebf f815 9ebe
000000f0: 6650 7abe 5c05 01bf d1ec fcbe c43d 813e
00000100: 889e b43d 92bb 77bf 0cd4 d6bf 2f7d 473e
00000110: 78fb 483f f4b0 f9be 6e52 253e 4ec1 5e3f
00000120: beff e0be 17e7 c4bb 7d70 25bd ad0f 1ebe
00000130: e2b5 b83e 3370 313e 2a87 b3be 060d b43e
00000140: 4a1e 263f 864f 40be 6634 0b3a f993 2bbe
00000150: 0548 cc3e 7dca 77be 7b1e 1dbe 9cce 8bbe
00000160: f18b f73e 6139 ce3e e40f 543f fd46 443d
00000170: 5be4 6f3e 518a 84bf ff0d 42be e08d 02bf
00000180: 1e93 bc3e 6e58 2b3e c847 173f da21 adbe
00000190: cb16 263d 8b16 dabe db96 aabd d0a0 84bf
000001a0: a3f2 71bf b0c1 babe 650a 553b fa24 ebbc
000001b0: c479 943e a450 9c3f 0e25 c3be e694 9ebf
000001c0: 1358 81bf 8c49 30bd ecf9 a4bd dc58 99be
000001d0: 9416 a13e 6f0a babe a221 4a3f 3beb 5d3e
000001e0: 9441 cdbe c5b6 f3be 7b14 623d 7830 1e3e
000001f0: 9425 be3d 4616 003f cd0c 413b 9ad4 25ba
00000200: 370f 713f 9288 8f3c b214 0ebe 0651 673e
00000210: 5eb4 e23e 16da 6d3d 67c8 debd 0f08 10bf
00000220: 2fa6 d83b 4f01 08bf a127 803f 040f 203f
00000230: 7a5a f13e 5b72 f6be 5778 db3f 84c5 75bf
00000240: 3648 3c3d 771b ffbe a0b2 313e 9494 5fbf
00000250: 5926 743f bc97 8dbc 4e7f 503c 3885 b8be
00000260: f2a2 a53d dbf1 ddbd 094b 90be 2c7c 0abf
00000270: c8cd 5fbf aee4 cabe a574 1f3f f567 3dbf
00000280: bcfc 0c3f 4d22 50bf 2583 f1bd 07c0 44bf
00000290: ed1e 07be f22f 2f3f 9cd1 69bf 6bca f1be
000002a0: d149 66be 043f 8bbf a290 963f 40ba d53e
000002b0: 8316 323f 2266 03bf 43b5 713d a93a adbe
000002c0: 509a a2bf ce36 813e 6d8e a63e 2dbe debd
000002d0: 1fa5 c23e 9ebf 6abe 8a6c 4a3f d068 4fbe
000002e0: bdff ddbc f465 cc3f 85d2 55bb 416b 38bf
000002f0: 7883 4c3f 3c9e f2be d15c 543f db0f 693f
00000300: 0539 f43e d182 10bf 6122 66bf 464f 0bbf
00000310: 5410 97be 7b35 bbbf c56c 193f 4714 89be
00000320: f718 9abf 9e25 9cbf a2b1 cbbf 4028 1d3c
00000330: 9157 b23d f752 cdbf 198d 00bd 035c 01bf
00000340: ab8a 52bd 2505 cd3d 44bd aa3e 0c59 283f
00000350: 56fc f43e dc04 66be 1393 833e ed39 ddbd
00000360: 793f 363f ef9d c03e 6cbb 6abc 3d84 803f
00000370: 3065 91be d4e7 68be c3db 833e 9b4a 763e
00000380: bea9 0c3f 9fc6 8fbd e8e0 95bf aa73 113f
00000390: ac68 70bd e4e9 52be 3703 7a3e 3539 33bf
000003a0: f9cd 97bd d8fe 013f 88ff 96be f3e3 433d
000003b0: f7a5 d93e 3d80 393f c8f8 2fbe 05df 0ebf
000003c0: 96e3 963e 334c 5b3e 69a3 883e 06da b53c
000003d0: d429 54be 8946 f5be adfd 04bf a27a 0a3d
000003e0: 7ad1 2f3e cde5 253f d3bf 88be 189f dbbe
000003f0: 71a9 5abe a087 6d3e 13e2 473e 6afc 1d3e
0.31778774 -0.31766912 0.3595719 -0.34933734 0.82032186 0.83614993 -1.2160907 -0.072693415
0.39851153 -1.4012214 0.1792088 0.87103504 -0.7162032 -0.3166927 -0.5062217 -0.005825027
-0.11421244 -0.586658 -0.5654877 0.039370727 0.43124297 0.11171952 -0.5240676 -0.23521821
0.7698684 -0.23290387 0.75977165 -0.30760106 -0.5913837 -0.82994723 1.073764 -0.5065376
-0.61877066 -0.79682934 0.79374945 0.8225962 0.31751958 0.4943863 -0.4783629 0.67006826
-0.5196488 -1.1103162 -0.5565319 0.33410284 0.8045689 0.4337026 -0.16095817 -0.1814036
-0.29276416 0.48633784 0.6009407 0.006970683 0.21282655 1.2859045 -0.29737255 0.36222115
0.11135821 0.335863 -1.1160015 -0.30876136 -0.24444732 -0.503988 -0.49399427 0.25242436
0.088193 -0.96770585 -1.6783462 0.19481348 0.7850871 -0.48767817 0.16144726 0.8701371
-0.43945116 -0.0060089934 -0.04039048 -0.15435667 0.36076266 0.17327957 -0.3506406 0.35166186
0.6488997 -0.18780336 0.0005310237 -0.16755666 0.39898697 -0.24198337 -0.15343659 -0.27306068
0.48348954 0.40278152 0.8283675 0.047919262 0.23426954 -1.0354711 -0.18950652 -0.50997734
0.36830992 0.16732952 0.59093904 -0.3381489 0.04054908 -0.42595324 -0.08329555 -1.0361576
-0.9451086 -0.36475897 0.0032507416 -0.028704155 0.2899915 1.221211 -0.38114208 -1.238919
-1.0105003 -0.04303889 -0.08055481 -0.29950607 0.31462538 -0.36336085 0.7895757 0.21671765
-0.40089095 -0.4760038 0.055195313 0.15448177 0.09284511 0.50033987 0.0029457093 -0.00063259306
0.9416384 0.017521176 -0.13875082 0.22589502 0.44278234 0.05806931 -0.108780675 -0.56262296
0.0066116075 -0.53126997 1.0012094 0.6252291 0.4713934 -0.4813412 1.71461 -0.9600451
0.045967303 -0.49825642 0.17353296 -0.8733609 0.95371014 -0.017284267 0.012725664 -0.36039138
0.0808772 -0.10837146 -0.28182247 -0.5409572 -0.8742337 -0.39627594 0.6228736 -0.7398675
0.5507314 -0.8130234 -0.11792592 -0.7685551 -0.13195391 0.68432534 -0.91335464 -0.47224745
-0.22489096 -1.0878606 1.1762888 0.4174366 0.695656 -0.5132772 0.059010755 -0.33833817
-1.2703342 0.25237125 0.32530537 -0.10876117 0.38016602 -0.22924659 0.7907187 -0.20254827
-0.027099485 1.5968614 -0.00326267 -0.72038656 0.79888105 -0.47386348 0.82954127 0.9103982
0.47699752 -0.5644961 -0.8989621 -0.54417837 -0.29504645 -1.4625696 0.59931594 -0.26773283
-1.2038869 -1.219898 -1.5913584 0.009592116 0.08708108 -1.6040944 -0.03138456 -0.50531024
-0.051401775 0.10010747 0.33347523 0.65760875 0.47848767 -0.22462791 0.25698146 -0.10802064
0.711906 0.37620494 -0.014326911 1.0040356 -0.28397512 -0.22744685 0.25753602 0.24051897
0.54946506 -0.07020306 -1.1709261 0.56817114 -0.058693573 -0.20597035 0.24415289 -0.70009166
-0.07412333 0.50779486 -0.2949183 0.04782481 0.42509434 0.724613 -0.17184746 -0.5580905
0.2947051 0.21415786 0.26687172 0.022198688 -0.20719081 -0.47905377 -0.5194958 0.033808358
0.17169753 0.64803773 -0.2670885 -0.42894816 -0.213537 0.23196268 0.19519834 0.1542832

lstm.bias_ih_l0_reverse f4 [180]
00000000: 048c 55bf 32d5 93be 0aaa f2be 0785 51be
00000010: 7cfe 653d 6bfc cfbe 1c42 6cbd 703b 48bd
00000020: c2ce 26be 66a0 1cbe 1b80 133d 954c 02bf
00000030: 3533 5cbc 9b98 4bbf d783 bebe 2121 3abf
00000040: 7163 95be 696b e2be 000c 44bf f208 3dbe
00000050: 89cd c1be 0838 13bf 6768 e1be f004 18bf
00000060: 2082 aebe 43d2 acbe f205 2dbe ce9a b2be
00000070: 2c0b 1ebf 7e4c 49bf 1661 fabe 08d9 3dbf
00000080: cce8 08bf b443 58bf 254c 53be a41d 243d
00000090: 55e3 90be b1c0 c2be 60a7 98be 9304 19bf
000000a0: f2bf cbbe 45bd 63be 8526 693d c64f 96be
000000b0: dafb 09bf 0b93 3e3f 5298 213e 7744 503e
000000c0: 676f 103e dea8 5c3e abb8 943d a402 8b3c
000000d0: f09e 633e 7f31 c8bb dfde de3d 818a fd3e
000000e0: 8a1d 823e 3d3c da3e 3610 d23e 19c4 68bd
000000f0: 8427 533f 93cb 363e 86ef 4d3e 3647 223f
00000100: f6ff 033e 1403 eabc 521b 123f 9368 f63e
00000110: f10d 2c3f 5653 b53e ade8 a33e 9790 e53c
00000120: e61c 173f 1d6b 16be 72dc 103f e5cf 723e
00000130: ffaa e33e 7560 923d 29ca b43e 9501 533d
00000140: 1d38 e53c 78bb 5bbd 846c aa3e 6ddb 203f
00000150: 895e 1b3f 2b07 cc3e 0715 e83e 880a a8bd
00000160: 2b34 e93e 338c e53d 23d0 64bd 18f6 a93d
00000170: baa8 35be 8d5e c03e 3d81 c5be 34f3 a0bd
00000180: 8a93 093e c496 bc3d 6b96 bcbe 5a67 0f3f
00000190: 8565 36be 166a bcbc a07a 4a3e 0792 c63d
000001a0: 1002 ea3d 45cf 8e3d 3de1 8a3e eddb 0a3e
000001b0: ce35 1abe 55d6 54bc 0b9e 34be ad5b 4d3e
000001c0: cab7 af3e 67b8 21be bd5e 5dbe 950b a5b7
000001d0: bceb a23e 5f5a 5cbe 8be7 303e b15e 503d
000001e0: 3b19 6abd 2dbf 99bd 1f0b b53b f0b5 913d
000001f0: 06ca af3d 7f7d 9cbe b303 d63d 7b3a 003d
00000200: cbf0 743e 91cf bebd 992b 8c3e d5f3 a33d
00000210: 2d41 b63e 8ddd 2b3d 46e7 4cbe 40ec 9f3e
00000220: c863 a7bc 733f db3d 3526 cabe 1049 81bd
00000230: 854c 2cbd c1eb 1dbe 6abd d93d b159 983d
00000240: 7531 ed3b 5e7a fcbd a1c7 3dbd 16f2 d6bd
00000250: 3ff8 80be 8ca5 babe d681 1d3f 9bb2 a6be
00000260: 2917 f1bd 579d 933e 075d 86be 6971 94be
00000270: 9f6a 343d 645b d3bd 3d6b 383e 666f 12be
00000280: 2d4d 05be 79c8 37bd 3394 8cbe 9603 5dbd
00000290: f2f9 6cbe 22b0 57bc 7228 c43e bab0 3dbe
000002a0: 286b 28bd 6b1b cabb 27df 1d3e 8a2e 23be
000002b0: 8d71 2cbe ccd9 9cbe ce07 ca3e 5824 e43d
000002c0: bc9a 54be 002b 5d3d f53f 63be 1e15 5fbe
-0.8341677 -0.28873593 -0.47395355 -0.20460902 0.0561509 -0.40622267 -0.057680234 -0.04888481
-0.1628981 -0.15295562 0.036010843 -0.50898105 -0.013439943 -0.7952973 -0.3720996 -0.727068
-0.2917743 -0.44222572 -0.7658081 -0.18460444 -0.37852123 -0.5750737 -0.44024965 -0.59382534
-0.34083652 -0.33754167 -0.16896799 -0.34883732 -0.61735797 -0.7863234 -0.48902196 -0.7415929
-0.5348022 -0.84478307 -0.20634516 0.04006733 -0.2829844 -0.38037637 -0.29815197 -0.59772605
-0.3979488 -0.2224017 0.0569215 -0.29357737 -0.5389992 0.7444312 0.15780762 0.20338617
0.14104997 0.21548793 0.07261785 0.016969033 0.22228599 -0.006109416 0.10882353 0.49519733
0.25413162 0.42624083 0.41027993 -0.05682764 0.8248217 0.17851095 0.20110902 0.6338991
0.1289061 -0.02856592 0.5707294 0.4812666 0.6720877 0.35415143 0.32013455 0.028023047
0.5902847 -0.14689298 0.5658637 0.23712118 0.44466397 0.07147304 0.35310486 0.05151518
0.027980858 -0.05364558 0.33285916 0.6283482 0.60691124 0.3984922 0.45328543 -0.08205134
0.45547614 0.112083815 -0.055862557 0.08298892 -0.17740145 0.37572137 -0.38575163 -0.07858887
0.13435188 0.09208444 -0.3683351 0.56017077 -0.17812164 -0.022999804 0.1977334 0.09695821
0.11426175 0.06973127 0.27124968 0.13560458 -0.15059587 -0.012990554 -0.17638414 0.20054503
0.34319907 -0.15793 -0.21618171 -1.9674926e-05 0.31820476 -0.21518849 0.17275827 0.050871555
-0.057152968 -0.07507167 0.0055250074 0.0711478 0.08583455 -0.30564496 0.10449924 0.03130577
0.2391998 -0.09316934 0.27377012 0.08005492 0.355966 0.041959334 -0.20010099 0.31234932
-0.020433322 0.10705461 -0.39482275 -0.06312764 -0.042065162 -0.15421964 0.10631831 0.07438982
0.0072385618 -0.12328027 -0.04633296 -0.10495393 -0.25189397 -0.36454427 0.6152624 -0.3255814
-0.117719956 0.28830978 -0.2624285 -0.28992775 0.044046994 -0.10320166 0.18009658 -0.14300308
-0.13017721 -0.04486892 -0.27456817 -0.053958498 -0.23142222 -0.013164552 0.38312107 -0.18524447
-0.041117817 -0.0061678193 0.15417157 -0.15935722 -0.16840191 -0.30634916 0.3945908 0.111397445
-0.20762151 0.053996086 -0.22192366 -0.217854

lstm.bias_hh_l0_reverse f4 [180]
00000000: 4a1a 50bf b17d 07bf 4911 00bf a72c 263d
00000010: c654 e43d b6d0 ccbe 3f71 1cbe 5eb0 f1bc
00000020: f52f 83be bf0d 1d3d ca4a 0c3e c398 d7be
00000030: d507 e53a 7047 40bf 8b35 4dbe a529 2cbf
00000040: 9bcc 61be 24da 00bf 7460 34bf be1d 45be
00000050: 6804 96be 0394 09bf c760 f3be da4c bebe
00000060: b000 8ebe 0393 86be 7fa9 b1be 62f5 01bf
00000070: 968e c6be 0b07 2cbf 08a6 b6be 958a 5abf
00000080: 69f3 1bbf f9c2 32bf c741 a3be 343a 0b3e
00000090: 9616 8fbe 256e c0be 5f13 02be b8ea 13bf
000000a0: 4685 a1be aced 81be 0421 363e 685c 60be
000000b0: 9bfc 18bf f7ed 233f f5db 283e edb8 9b3e
000000c0: 938d 4c3e 8700 d73c 8fef 3c3e 864a d33d
000000d0: 923a bb3d 45aa 863b 5eda 4d3d bf68 183f
000000e0: a4f0 ec3d dbe9 693e f2c5 063f fd19 133d
000000f0: b4bb 6c3f f3cb 503e baaa 643e e404 2e3f
00000100: 6146 0f3d cee8 01be 9805 f33e da06 033f
00000110: 4b61 1e3f 3bfe 9e3e e795 a23e 0fc9 80bc
00000120: 0f2b 493f b532 d0bd 38f6 053f 9c4c 383e
00000130: 638c 1a3f d94f e63d 7939 ba3e 20e5 8c3d
00000140: 77c0 24bb 763b f2bd 1ab1 813e fcb9 213f
00000150: 749a 193f 7b70 023f 96da 793e e961 98bd
00000160: f288 2c3f 5882 623e 6d37 613c 11e4 3b3e
00000170: 9fc2 98bd 1825 de3e df8f 57be 1551 c0bd
00000180: 38da fb3d 4460 8a3e bf7a 0abe 6249 fc3e
00000190: 09bd 35be 7013 27be 5818 983e adbb b1bd
000001a0: b3c7 18bd d964 f9bd 0ea7 ac3d 018b 553e
000001b0: 38f3 5f3d 298c 04be 3d54 03be 2cb8 073e
000001c0: 10d1 743e 3ca5 a8be 22fc 5abe d291 f1bd
000001d0: 32ec 363e 52df 80bb 0019 c53e 6413 34be
000001e0: 3404 e4bc 3b25 1b3e 3b1c 65bd 66d1 653d
000001f0: 6579 873d 4d46 cebe 188a 7f3e f1c8 403e
00000200: 2d14 553e a3c5 893b 5b63 3b3e 1c08 c83c
00000210: 5243 a23e 07ba 1cbe b736 02be ad83 c43e
00000220: 492e 34bc 682c b6bd 43df 0fbf 4379 7d3d
00000230: 4a25 0dbd cf83 3dbe 3030 d3bd 4295 4e3d
00000240: f013 fdbd c103 aa3d c4e5 a93c 06bf f7bd
00000250: 892d a8be b3b8 24be 7dd4 d93e 27c9 36be
00000260: cce4 44bd d6e4 a43d b527 35be 1f6e d1be
00000270: f906 cdbd 3c97 db3d 1c4c 8cbd 1728 97be
00000280: 435a 443d 3fbb a3bd 1e35 aebe 202f 25be
00000290: 6b31 c9be 0d90 40bd 98d2 f73d 3bfe 083c
000002a0: b26d 2dbd 1eab acbd 4cbc b73d 8213 3ebe
000002b0: 44e3 41be 7c26 85be a8d7 2a3e 04f6 3c3e
000002c0: 1115 83be 8eff 873d ecf7 b5be 441d b0be
-0.81290114 -0.52926165 -0.50026375 0.040569928 0.11148982 -0.40002984 -0.15277575 -0.029503044
-0.25622526 0.038343187 0.13700405 -0.42108735 0.0017473648 -0.75109005 -0.20039956 -0.67251045
-0.22050707 -0.50332856 -0.70459676 -0.19249627 -0.29300237 -0.5374147 -0.47534773 -0.37168008
-0.277349 -0.26284036 -0.34699628 -0.5076505 -0.3878066 -0.67198247 -0.35673547 -0.8536771
-0.6091829 -0.69828755 -0.31886122 0.13596421 -0.2794692 -0.37584034 -0.12702702 -0.5778003
-0.31546992 -0.25376642 0.17786032 -0.2191025 -0.59760445 0.6403498 0.16490157 0.30414525
0.19975881 0.026245369 0.1845076 0.103169486 0.09142031 0.004109653 0.05025708 0.5953483
0.11569336 0.22843115 0.5264579 0.035913456 0.9247391 0.203903 0.22330752 0.6797621
0.034979228 -0.12686464 0.47465205 0.5118233 0.6186721 0.31053337 0.3175499 -0.015720872
0.7858133 -0.101659216 0.52328825 0.17997974 0.60370463 0.112456985 0.36371973 0.068796396
-0.0025139132 -0.118277475 0.2533043 0.63174415 0.600013 0.5095288 0.2439979 -0.0744055
0.6739646 0.22120035 0.013746125 0.18348719 -0.07458996 0.43387675 -0.21050976 -0.09390465
0.12297481 0.2702657 -0.13523386 0.49274737 -0.17747892 -0.16316009 0.29706073 -0.086783744
-0.037299823 -0.12177438 0.08430301 0.20853807 0.05467531 -0.12944092 -0.12825103 0.1325385
0.23907876 -0.32938564 -0.21385244 -0.11795391 0.17863539 -0.003932872 0.38495636 -0.17585522
-0.027834035 0.15150921 -0.055935126 0.0561079 0.06614951 -0.4028801 0.24955022 0.18826653
0.20808478 0.0042044683 0.1829962 0.02441793 0.31691986 -0.15305339 -0.12716185 0.3838171
-0.010997363 -0.088951886 -0.56200045 0.061883222 -0.03445939 -0.18507312 -0.103119254 0.050435312
-0.123573184 0.08301497 0.020739444 -0.12096982 -0.3284724 -0.16086082 0.42544928 -0.17850171
-0.04806976 0.080514595 -0.17690928 -0.40904328 -0.100110956 0.10722205 -0.06850454 -0.29522774
0.047937643 -0.07994699 -0.340249 -0.16131258 -0.39295515 -0.047012378 0.121007144 0.0083613945
-0.04234094 -0.084310755 0.08971462 -0.18562129 -0.18934351 -0.26005924 0.16683829 0.18453223
-0.2560201 0.0664054 -0.35540712 -0.34397328

lstm.weight_ih_l1 f4 [180, 90]
00000000: bb44 563f e39f 44be 02de 1a3e c08f 3a3f
00000010: 98fe 2ebe 552a 6dbe 0840 d43e d01a 8c3c
00000020: 68a9 d3be 04cc 7abf e2d9 df3d 0eb0 0ebe
00000030: 8650 00bf 7783 9b3e 6671 2dbf 7e97 01bf
00000040: 13ea 313e a229 c73e 04dc c1bd 08ee 32bf
00000050: f37c 0d3e 4a2e 423e 9a0e e2be 1e98 3e3f
00000060: ae62 613f 96d5 293e bfe0 49bf 08e5 8dbd
00000070: d15d adbe 5271 edbe 123e 743f 2ccf 9a3e
00000080: a8bc e33e 6909 bfbd c854 e0bf c6aa 3d3f
00000090: 3845 e7bd c6b5 85be 1bae 833e 5391 38be
000000a0: 808e 903e f764 39be 528d a13d 7be8 44bc
000000b0: 24a7 13bf d710 a7bd 2805 09bf 3061 423f
000000c0: 2e88 83bf 52a0 633f 4ae1 653e 2ca0 64bf
000000d0: c969 e2be 9a87 543f 1d6f 56bf dfdc 8a3e
000000e0: a84f 08bf ff29 99bd 040e a8bf 255e 203e
000000f0: 10f8 113f ddb8 c4be 1d7a b7be 6448 2d3d
00000100: 17b6 893d 867b c2be 8a1f babe 87e6 4ebf
00000110: 184c d73c cfab 573f 5476 bcbe d84a 0cbf
00000120: af9c b33f 0ea7 17bf 26e7 5e3f 4475 1c3f
00000130: f1ff b2be e57b b43f 864c 74be 165a 5abe
00000140: ed82 453f 6227 40bf 3d1b 2d3e 9a4e 99bf
00000150: d68e 953e 1dd5 61be 7f67 09bf 108d 17bf
00000160: 9fa9 61be d436 8a3d 07fb 453f 3fb8 253f
00000170: 72dd 983d 9d31 983e 3aec c8be a501 97bd
00000180: 9d8c c83e 66e9 903d 9773 4abe ed02 ecbe
00000190: 713d d1be 632f 28be 4916 aebe 5b0b 84be
000001a0: 2ec9 dabe 6ebe 43be 6fa6 853e b606 553e
000001b0: af52 5b3e 5d0c dcbe a5d9 313e 93bf c1bc
000001c0: f660 c0be e573 1d3e 248f 823e 5686 923e
000001d0: 5adc 313d 3cd1 0cbe dbcf 32be 65b7 dcbe
000001e0: 0487 dc3f 8239 0c3f 553d e83e 3fe4 c03d
000001f0: acb4 24c0 4394 0fbe 3550 56bf 57a4 213e
00000200: 1cd7 b5be 30cd 6d3e 73c2 b8bd c244 90be
00000210: e805 213b e992 90be fe68 28bd 6a72 c83e
00000220: 0004 35bf fbaa 863e 8edf b1bf 3c33 5c3f
00000230: cebe 813e d48f 1ebf 09a8 dbbe bb98 473f
00000240: 543a d6bf 3f9a eb3e 9c9b 3d3f e029 33bf
00000250: 0762 e33d 91db 48bb 9315 21bf 8845 a8bf
00000260: 9623 28bf 2e11 8b3c f58a 033f 2c45 4f3e
00000270: bd42 61bf 1977 50bf e50b 443e a068 a03f
00000280: 0b3d 18bf 8eb1 4ebf 8459 52bf 7a4f 90bf
00000290: d2e2 c7be 498a ea3e 8577 163e 2b55 8b3e
000002a0: a7dc bdbd 40f2 69bf 98d4 983f 1799 53bf
000002b0: 47c1 603c f939 9fbf 50d1 a23f a6d9 e3bf
000002c0: 51b8 9fbf 469a 81bf 729d 653f 990d 2b3f
000002d0: 76a5 063f e727 d93e cda0 963e 8e5c 003f
000002e0: dc64 81be 9ec3 99be 4a57 9c3e 40bd 33be
000002f0: 75ab b0be f0ae 9ebe 5f8b 2abf fd82 aebe
00000300: 8784 403f bfff 943e 8890 d4be 7365 c23d
00000310: 3f6f 573e b1dc 0abf 9e86 523e 82b9 17bf
00000320: ce10 d0be 83f0 363e 90e4 043e 0217 ae3e
00000330: 8e71 843e ceb5 c33e 325f fdbd 9126 023f
00000340: 26ad 7f3e 8433 3c3e f20f bd3f 3320 143f
00000350: 797f 813f 8bb1 b93d fa2d cbbf a116 15bf
00000360: 1b6f 68bf 13aa 9e3d 3372 c8be cb82 153f
00000370: 0dca 163e 5067 19bf da3c cabc 2bfb 3fbe
00000380: 0f5b c3be 7702 2e3e c8ad 8ebf 2b31 e73e
00000390: 5323 ecbf 8f4b c23f 5947 813e f976 27bf
000003a0: 0ca1 37bf b043 5c3f d40c 0ec0 b2e7 6c3f
000003b0: 406a 8f3f 957b e2be 0756 d0be f743 c5bd
000003c0: 6a51 ae3c b00c fdbf 8a66 4bbf ee73 cd3e
000003d0: 48a0 213f f850 d0be f925 93bf e029 91bf
000003e0: 9ee2 a33d 2c78 773f f2e3 58bf 1590 77bf
000003f0: 8ae8 e5be 85c2 debf 1122 92be e3af 313f
0.83698624 -0.19201617 0.15123752 0.72875595 -0.17089307 -0.2316068 0.41455102 0.017102629
-0.41340184 -0.97967553 0.1093023 -0.13934347 -0.5012287 0.30373737 -0.6775116 -0.50621784
0.17374448 0.3889895 -0.09465793 -0.69894457 0.13817196 0.1896297 -0.44151765 0.7445086
0.880412 0.16585383 -0.7885856 -0.0692845 -0.3386064 -0.4637552 0.9540721 0.30236185
0.4447987 -0.09327967 -1.7525873 0.74088705 -0.11292499 -0.26115245 0.2571877 -0.18024187
0.2823372 -0.18104921 0.07888283 -0.012018318 -0.5767691 -0.08157509 -0.5352349 0.75929546
-1.0275934 0.88916504 0.22449222 -0.893069 -0.44221333 0.8301941 -0.83763295 0.27121636
-0.53246546 -0.07478713 -1.3129277 0.15660913 0.5701914 -0.3842229 -0.35835353 0.042305365
0.06724184 -0.37984866 -0.36352187 -0.80820507 0.026281402 0.84246534 -0.36809027 -0.548017
1.4032191 -0.5923928 0.87071455 0.61116433 -0.34960893 1.410031 -0.23857316 -0.21323428
0.771529 -0.75060093 0.16904922 -1.1977112 0.29210538 -0.22053953 -0.5367355 -0.5919962
-0.22037362 0.06748739 0.7733616 0.6473426 0.07464112 0.29725352 -0.39242727 -0.073733605
0.3916978 0.07075767 -0.19770657 -0.46095982 -0.4086719 -0.16424327 -0.34001377 -0.25789914
-0.42731613 -0.19115612 0.2610354 0.20803341 0.2141826 -0.42978182 0.17368181 -0.02365092
-0.37573975 0.15376242 0.25499833 0.28618115 0.043423034 -0.13751692 -0.17462103 -0.4310867
1.7228703 0.5477525 0.45359293 0.094185345 -2.5735273 -0.14021401 -0.83716136 0.15785347
-0.35515678 0.23222804 -0.09021463 -0.28177458 0.002457017 -0.28237084 -0.041115753 0.3914979
-0.7070923 0.26302323 -1.3896348 0.8601568 0.25340885 -0.61938214 -0.42901638 0.77967423
-1.673655 0.46016118 0.74065566 -0.6998577 0.111026816 -0.003064845 -0.62923545 -1.3146219
-0.656793 0.016975965 0.51383907 0.2024123 -0.8799246 -0.8143173 0.19145162 1.2531929
-0.59468144 -0.80739677 -0.8216784 -1.1274254 -0.39040238 0.45808628 0.1469403 0.27213416
-0.09270602 -0.9138527 1.1939878 -0.8265547 0.013717956 -1.2439567 1.2720127 -1.7800796
-1.2478124 -1.0125206 0.8969337 0.66817623 0.52596223 0.42413256 0.29419556 0.5014123
-0.25272262 -0.30032057 0.30535346 -0.17552662 -0.3450581 -0.30992842 -0.66618913 -0.3408431
0.7520222 0.2910137 -0.4151652 0.09492006 0.21038531 -0.54243 0.20559165 -0.5926744
-0.4063782 0.17865185 0.12977815 0.3400193 0.25867885 0.38224643 -0.12371673 0.508401
0.24968395 0.18379027 1.4770491 0.5786163 1.0117027 0.09067067 -1.5873406 -0.58237654
-0.90794533 0.07747283 -0.39149627 0.584027 0.14725514 -0.5992327 -0.02468722 -0.18748157
-0.3815541 0.16993128 -1.1146784 0.451547 -1.844828 1.5179309 0.25249746 -0.6541591
-0.71730113 0.8604078 -2.219533 0.9254104 1.12043 -0.4423491 -0.40690634 -0.09632104
0.021279056 -1.9769497 -0.7945334 0.4012751 0.63135195 -0.40686774 -1.1495963 -1.1340904
0.08002208 0.9666774 -0.84722817 -0.96704227 -0.44903976 -1.7403113 -0.28541616 0.69409007
