sparrow/data/networks/pscore/pscore_predictor_network_v2.pt (torch, 23331 bytes, 17 tensors)

module.lstm.weight_ih_l0 f4 [40, 20]
00000000: af80 e7be 4796 6bbf 160c 3fbf f3b1 13be
00000010: 3c39 a8be aac5 423f 624e 7a3d 247d 9cbf
00000020: b5f1 153f 210a 7fbe 3515 febe 1305 3ebf
00000030: 7850 e7be 70b4 713b 7bb0 67c0 39f5 20bb
00000040: d940 adbf 22ad 9cbf 100e a53e 9a42 dcbc
00000050: 1cd6 1bbe c5d4 47be 9e76 febe d437 d0bd
00000060: 4ff8 303f 294b 0abf f1f9 1b3d 546a e7be
00000070: 795d e0bb 74b8 2bbf 1fb2 debe 3c1a 0bbe
00000080: 0bb6 a73e d045 36bf b533 653d d482 6a3d
00000090: ce81 66be b9ed 0bbf e0eb 603f 47ed 2f3f
000000a0: ca49 5bbf c4b7 5cbe 4e3e a9bd 90dc 9a3f
000000b0: a42e fd3f 842a 37bf 398f c43f 0a1a 8ebe
000000c0: b370 4cbd 4121 3cbf cec5 3dbf 1406 033f
000000d0: e65e 4f3f 67d8 ba3e 23d1 7940 53e1 8c3d
000000e0: 7b28 2d3e edc5 563d 897b 5b41 e204 fc3f
000000f0: ed9b cebc 1d5e cebe e5dc d63e ef0c 12be
00000100: 983d 423f b928 103f c1d3 433f 2573 56bf
00000110: 042f b7bf d82d e4be acde 81be 8af0 863f
00000120: 2d35 163f 8030 c73e f72c c9bd 5da9 e0be
00000130: ae20 43bf 70be c8bd de48 3b3f 30ec 1e3f
00000140: 3919 543f f002 953e ff39 73bf 9d5e dbbe
00000150: df79 473f 6653 583f 7dd4 59bf 0a68 b4be
00000160: 7821 483f 415d 913e 7674 15be b3d8 dfbf
00000170: 6ed4 12bd 221f a9bf 373f 0ebf 4d82 eebe
00000180: a78b c7bd e7c2 8f3e d248 4c40 2954 3e40
00000190: 251e 3d3d 1d9b bebe 2e33 0cbf 72dc f2bd
000001a0: 28ba ccbf 5d06 f9be 5b51 14c0 daee d9be
000001b0: d6ca c83c 9e57 5abe eaeb 61be bfff 74bf
000001c0: f492 40be fbd4 d3be db44 1dbe febb b1be
000001d0: cc39 c7bd c75f 5cbe 1eb4 39bf 5fd6 fcbf
000001e0: cc90 c2be f8d6 b5bd b575 6abe 769a a23e
000001f0: 6158 1bbe ce11 9cbe 4941 703f ee3f 1d3f
00000200: 2403 5dbe a69e bf3e 4b78 d43e c164 893f
00000210: 4db0 7cbf eb84 653f 2e03 0b3e 29fe d8bd
00000220: fa93 4d3e 720f da3e 7a8d f13d d1c1 67bf
00000230: 286c 99be 80b0 433d de06 a53f 151e c4be
00000240: e07a 9f3f ce0e b93e 2fcc 113d 4b6a 2c3f
00000250: 18b1 cabd 7c44 663f c539 873d 9ea0 d63e
00000260: da86 eb3d b50a 25bf 1188 c4be 9582 4f3d
00000270: 926a 933e 5504 443f 09a2 ac3f 1dcf f53f
00000280: 8edb 16be 75cb 02bd 731f 2bbd 45e6 e83f
00000290: 6672 03bf 8222 9e3f cc09 a0bf 3012 973d
000002a0: 4a6e b93e 4655 f8be 6fba 09bd ff76 8c3e
000002b0: c472 b73e cfee cd3e f1ce ba40 cbfb e4be
000002c0: 5e16 d43e 06cd 2fbf c554 b1bd a9c6 3bbf
000002d0: daba 0b3f 164b 17c0 85de f73e cece 323f
000002e0: 030f 09bf 96ff b63e 1423 8f3f 3513 ccbf
000002f0: cc1c cc3e 977d 03bf acf8 9fbe 9121 703f
00000300: 2434 b13e 9848 e53f 0b99 2c40 126c 7dbf
00000310: 225f 06c0 58e4 bbc0 5e94 3dbc 7591 1dbe
00000320: 37d2 f4be fb83 983e 5c23 c13f 7d2d c6bd
00000330: 1c08 d73f 0c90 f4bc bcfd 9140 150d 133f
00000340: 319a 003e 9b62 47be 9028 97be c201 6e3f
00000350: e49d 143f 09db 0a3f 8f30 593e 8208 443e
00000360: deb5 273f 7356 ae3f 7494 1c3e f88b ee40
00000370: 1a38 0abe bd02 36be 3b1c 8f3f 5626 603f
00000380: 36f3 c6be 7c52 d6bc 5dc7 04be 7e8f c7be
00000390: 4e6e 1b3e 37a5 fdbd 8b00 42be 9f6f 3a3f
000003a0: 8476 9abe 87a7 7c3e 4097 873f 8bff 02bf
000003b0: a577 93be b041 47be c21a ce3e b61b 213f
000003c0: e513 1fbd e11f 4c3e 797e 053f f1dc 573f
000003d0: d4f7 2bbf 11fa 3fbe b636 f13d 9a30 5bbd
000003e0: ad2c 463e 347b 34be 606e 9e3e 8c60 123f
000003f0: 8e6b 97be 8f79 2e3f 7b71 08bd 5f68 9c3e
-0.45215365 -0.9202618 -0.74627817 -0.14423351 -0.32856166 0.7608286 0.061109908 -1.222569
0.5857194 -0.24906208 -0.49625555 -0.7422649 -0.4517858 0.003688123 -3.6201465 -0.0024560227
-1.3535415 -1.2240336 0.3223729 -0.026887227 -0.15218395 -0.19514759 -0.49699873 -0.10166898
0.6912889 -0.54020935 0.03808016 -0.4519831 -0.0068470803 -0.6707833 -0.4349527 -0.13584226
0.32756075 -0.71200275 0.055957515 0.057253674 -0.22510454 -0.5465961 0.87859917 0.6872143
-0.8565947 -0.21554476 -0.08263837 1.209856 1.9779859 -0.7154925 1.5356208 -0.2775424
-0.049912166 -0.7348824 -0.7412995 0.5118115 0.8100418 0.36493227 3.9033897 0.06878915
0.16909973 0.05243485 13.71766 1.968899 -0.025220836 -0.40306178 0.41965404 -0.14262746
0.75875235 0.5631214 0.76494986 -0.83769447 -1.4311223 -0.44566226 -0.25365198 1.0542157
0.5867489 0.3890419 -0.098230295 -0.43879214 -0.7622174 -0.09801948 0.7315806 0.62079144
0.82850987 0.29103804 -0.9501037 -0.42845622 0.77920336 0.84502256 -0.85089856 -0.35235626
0.7817607 0.2839146 -0.14595208 -1.7488006 -0.03584712 -1.3212626 -0.5556521 -0.46583787
-0.097434334 0.28078386 3.1919446 2.9738867 0.046171326 -0.37227717 -0.54765594 -0.11858453
-1.599431 -0.48637667 -2.3174655 -0.42565042 0.024510782 -0.21322486 -0.2206265 -0.9570274
-0.18806058 -0.4137343 -0.15358298 -0.3471374 -0.09727821 -0.21520911 -0.7254046 -1.9752921
-0.38001096 -0.08878893 -0.22896464 0.3175847 -0.15170433 -0.30482334 0.9384962 0.61425674
-0.2158323 0.37425727 0.41498026 1.0733873 -0.98706514 0.8965594 0.13575432 -0.10595352
0.2007598 0.4258991 0.11794563 -0.90530115 -0.2996533 0.047775745 1.2892721 -0.383042
1.2459373 0.36144108 0.035595115 0.6734969 -0.09897059 0.8994825 0.066028155 0.41919416
0.1150033 -0.6446946 -0.3838506 0.050661642 0.28792244 0.7656911 1.3486949 1.9203831
-0.14732191 -0.031932313 -0.04177804 1.8195273 -0.51346433 1.2354281 -1.250299 0.07376516
0.36216956 -0.48502558 -0.033625063 0.27434537 0.35829747 0.4022126 5.8377614 -0.44723353
0.41423315 -0.68672216 -0.08658747 -0.73350006 0.5458199 -2.363958 0.48411956 0.6984681
-0.5353853 0.35741872 1.118258 -1.5943362 0.3986572 -0.5136351 -0.3124441 0.9380122
0.34610093 1.7912779 2.696841 -0.9899303 -2.0995564 -5.871624 -0.011571018 -0.15387519
-0.4781663 0.29788193 1.5088916 -0.09676645 1.679935 -0.029853843 4.5622234 0.57441837
0.1255882 -0.19471209 -0.29523134 0.9297143 0.5805342 0.5424047 0.2120993 0.1914387
0.6551188 1.3620132 0.15291005 7.454586 -0.13497964 -0.17774482 1.118049 0.87558496
-0.3885743 -0.026162378 -0.12966676 -0.38976663 0.15178797 -0.12385028 -0.1894552 0.7282657
-0.30168545 0.24673282 1.0593033 -0.5117118 -0.2880222 -0.19458652 0.4025479 0.6293291
-0.038837332 0.19934036 0.52146107 0.84321505 -0.6717503 -0.18747737 0.117780134 -0.053513147
0.1935298 -0.17625123 0.30943584 0.5717857 -0.29574245 0.68154234 -0.03331135 0.3054838

module.lstm.weight_hh_l0 f4 [40, 10]
00000000: ee22 983e 8785 bdbf fa76 7bbd 4405 c7be
00000010: a296 4ebf 7aff f93e 9411 9c3f 27d4 c13f
00000020: 8f2e 89be de9c 89bf ecd4 28bf 7529 703e
00000030: c5da 0abf dd18 1a3f 1ea1 d03f 0adf 3c3e
00000040: eaeb 81be a6ab 0640 574c 103f 4621 fd3e
00000050: ba78 603f e519 b83c 48e4 d83e eae3 0a40
00000060: 2635 503d 0805 863e 8636 823f 6196 e6bf
00000070: d4b8 f63e 940b 97be 09f6 d83e b638 4fbe
00000080: 58bd 333e 10cf cf3f b293 21bf 167c 0e3f
00000090: 3d96 9dbe a355 3ebf 555e 85be 4137 013e
000000a0: c235 9fbe 46e1 a73e bf7a ccbf 157b a53f
000000b0: 35eb 2f3d 98f4 6bbe a9e5 2dbe ce74 c73e
000000c0: 6ad3 e43e 1089 b63d 304e d5bf 88ce b53f
000000d0: 0c4d 403f 019f cfbd 3acd 3dbe b034 6fbf
000000e0: b2fc 3bbf 8973 763e 97ef f7be 2aff 27bf
000000f0: 9090 02bf 0837 73be 32a8 4b3d 2195 d13e
00000100: b7bd a2bf 41b6 0cbf 2556 52bf b9c5 d5bf
00000110: d191 233f 9e3d 183f af4b c43f 903d 633f
00000120: 47b1 5f3f 2144 673f faae e9bd 146a a93f
00000130: 2df7 abbf 45e1 6640 19c0 bdbe 93e8 ea3f
00000140: d1a0 963f ae3d 613f e85c 803f b4b3 4bbf
00000150: 73bf 4fbf 6ad5 0ebf bd08 273f 7e2a bb3e
00000160: b888 21bf 90c4 f3bd b410 083f 3c69 2ebf
00000170: 65b9 ed3d 2f94 603f 6e68 b7bd a5be 1f3f
00000180: e3a0 133f 2878 b53f 32d8 7c3f 9151 9ebf
00000190: 9f74 613e 1614 59be 0304 8bbf 4416 073f
000001a0: 88c3 ce3f 8d2b 323e 4d7e fcbe b35a 69bf
000001b0: 15c1 fb3e 66f1 ce3e 2e07 05be 5362 d63e
000001c0: 58d2 c53d f23b 2a3f 7123 e83d f328 6f3f
000001d0: f506 0f3f 7892 b4bf a27d 4a3f 3910 bfb9
000001e0: 48c9 e8be f035 a7bd 56b9 8cbf 37f6 8f3f
000001f0: 4b0f a33e 1d56 9b3d ae6b b43f 633f bebf
00000200: 9adb 87bd 93a0 32be e0f6 603f 1389 7d3d
00000210: e0a7 11bf 5290 31be a841 99be e24b ae3f
00000220: 0c0a 913c bf07 9bbf a3e2 d9be 1fb1 08bf
00000230: 93cb 43bf 8fd3 b8be b8b5 433e 1986 b33f
00000240: 300f 133f ade3 643d 2b2c 3cbc 2c28 c1be
00000250: e35d f43e ae40 3b3f c7b9 3e3e b19b 3e3f
00000260: ce17 3a3f 2a43 23be 32c0 7d3d 1b0f 6fbf
00000270: e910 063f 7bc1 9dbe c11c 943b 2d81 34be
00000280: aa25 a3bf 85b1 4f3e f0a4 fbbd a65d 9abf
00000290: 3baa 473e 6753 54be ed6b c3be f942 37be
000002a0: 22cd 73be f60d 893f fdff 063e d281 a63e
000002b0: 7ed7 d63f 7136 a5bd 0765 ee3e b4a0 aabf
000002c0: 3220 103f 0955 4040 71cd 5c3f dd63 a5be
000002d0: 72f9 a63e dbe1 a9bf 7c54 983e 42d7 5b3f
000002e0: 1445 d2bf 15a9 4c3d 6a33 eabf d992 31bf
000002f0: 2e5e ea3d 332f fbbe c7e8 86bf f987 bbbe
00000300: 4939 9fbe 04e5 3b3f f1b8 473f 2e8e e93d
00000310: 014f cf3e fede acbf 2d26 d73f 7443 703d
00000320: 549d 0abf 00c3 b63e ffa5 91bc 31a4 093f
00000330: 29d8 3dbf ccb4 84bf 949d 393f d53d a23e
00000340: cfb7 033f 3f1d 06be 744a 11bf 8980 91be
00000350: e41f 29be 23b9 bc3e 1bfd 36be 0689 97bf
00000360: f0b6 21be 3d4a 53bf 164f 36be 7009 c63e
00000370: e7a8 aabd d2da f2be 5f7e bdbd 899e 93bf
00000380: 7bd3 ce3d 8813 4abe 8084 093e a806 92bf
00000390: d828 9bbd 7fff 6abe 9926 be3f d161 94be
000003a0: 4f49 b43e 63a4 253f ef49 353f 88cf 233d
000003b0: 3eda ecbe c389 473f 15c2 e8bd ccd3 b93e
000003c0: 1966 233f 08e1 36bd 9fd4 1fbc efd9 d8bd
000003d0: bdaa 023f 2c10 dc3f a8d0 b0be 0318 ffbe
000003e0: 9099 38be c2bd 8c3e c852 4a3d d455 cabf
000003f0: 6fc3 c9be 7c09 54bf e0de 3f3e 6461 153f
0.2971415 -1.4806374 -0.06139276 -0.38871205 -0.806986 0.48827726 1.2192864 1.5142869
-0.26793334 -1.0750997 -0.65949893 0.23453315 -0.54240066 0.6019419 1.6299169 0.18444458
-0.253753 2.1042266 0.56366485 0.49439448 0.87684214 0.022473285 0.42361665 2.1701608
0.050831936 0.26175714 1.0172889 -1.8014642 0.48187888 -0.2950102 0.4237521 -0.20236477
0.17552698 1.6235065 -0.6311599 0.5565809 -0.30778685 -0.7434942 -0.26048532 0.12618734
-0.310957 0.32789057 -1.5974959 1.2928187 0.04294892 -0.23042524 -0.1698214 0.38956302
0.44692546 0.08912861 -1.6664486 1.4203653 0.75117564 -0.101377495 -0.18535319 -0.9343977
-0.7343246 0.2406751 -0.4842498 -0.65623724 -0.51001835 -0.23751462 0.04972095 0.4093409
-1.2714146 -0.549656 -0.82162696 -1.6700965 0.63894373 0.5946902 1.5335597 0.8876581
0.8737988 0.9033833 -0.11410327 1.3235497 -1.3434807 3.6074994 -0.3706062 1.8352226
1.1767827 0.8798474 1.0028353 -0.7957108 -0.81151503 -0.55794394 0.6524771 0.36555856
-0.6309924 -0.11902726 0.53150487 -0.68129325 0.11607627 0.8772611 -0.08955465 0.62400275
0.5766737 1.4177294 0.9876739 -1.2368642 0.22017144 -0.21199068 -1.0860599 0.5276835
1.6153421 0.17399426 -0.4931511 -0.9115402 0.49170747 0.40418547 -0.1299102 0.4187189
0.096592605 0.6649772 0.11334885 0.9342186 0.5586999 -1.4107199 0.7909795 -0.00036442446
-0.45466065 -0.08164585 -1.099406 1.1247014 0.31847605 0.07584784 1.4095361 -1.4863094
-0.066336825 -0.17444067 0.878767 0.061898302 -0.5689678 -0.1734021 -0.29932904 1.3616908
0.017704986 -1.2111739 -0.42555723 -0.53395265 -0.76482505 -0.36098906 0.19112289 1.4025298
0.5744505 0.05588119 -0.01148514 -0.3772596 0.4772788 0.7314557 0.18625556 0.74456316
0.72692573 -0.1594359 0.06195087 -0.93382424 0.5236955 -0.30811676 0.0045200293 -0.17627402
-1.2745869 0.20282562 -0.12287319 -1.2059829 0.19498532 -0.2073494 -0.38168278 -0.17896642
-0.2380872 1.0707386 0.1318359 0.3252092 1.6784513 -0.080670245 0.46561453 -1.3330293
0.56299126 3.0051901 0.8625098 -0.32302752 0.32612187 -1.3272051 0.29751956 0.8587533
-1.6427331 0.049965937 -1.829694 -0.69364697 0.114437446 -0.49059448 -1.0539788 -0.36627176
-0.31098393 0.73396325 0.78016573 0.11404072 0.40489963 -1.3505552 1.6808525 0.05865808
-0.54146314 0.35695648 -0.017779348 0.5376616 -0.7415796 -1.0367675 0.7250607 0.316878
0.51452345 -0.13097094 -0.5675423 -0.28418377 -0.16516072 0.36859998 -0.1786999 -1.1838691
-0.15792441 -0.82535154 -0.17803606 0.38679075 -0.08332997 -0.47432572 -0.09252619 -1.1532756
0.100989304 -0.19734013 0.13429451 -1.1408281 -0.0757615 -0.22949027 1.4855529 -0.28980878
0.3521218 0.6470396 0.7081594 0.03999284 -0.46260256 0.7794458 -0.11365143 0.362944
0.63827664 -0.0446482 -0.009755283 -0.105884425 0.51041776 1.7192435 -0.34534192 -0.49823007
-0.1802733 0.27488524 0.049395353 -1.5807443 -0.39406916 -0.8282697 0.18737364 0.5835173

module.lstm.bias_ih_l0 f4 [40]
00000000: 872b 72bf d577 21bf be27 a13e 9e25 74bf
00000010: 9610 35be 16a4 97bf 1f40 d6be d677 5e3e
00000020: cf53 3d3f 4482 d5be c300 1d3f 335b cd3e
00000030: 5e50 cebe d549 2a3e 5e5e 8d3e fbd6 b53f
00000040: b143 563e 1ffb 4a3f bc8f 91be b1c5 e0be
00000050: df5e cfbd c673 eabe 30eb 57be abb4 64be
00000060: 2751 4ebc d09c 9fbc ae2f cd3e ab5b 14bf
00000070: 1fe1 473e 55f2 4dbe 3e7f b3be 3960 24be
00000080: 66c4 3cbe 92d2 7d3e ffe5 84be ca00 eb3c
00000090: e7f5 b1be ee70 a6be 9865 563f 8cbc aebe
-0.9459767 -0.63073474 0.31475633 -0.953699 -0.17682108 -1.184695 -0.41845796 0.21725401
0.73956007 -0.41700947 0.6132929 0.40108642 -0.4029569 0.16629727 0.2761106 1.4206232
0.2092426 0.7928943 -0.28429973 -0.43900827 -0.10125517 -0.45791453 -0.2108581 -0.22334544
-0.01259259 -0.019483954 0.4007544 -0.57952374 0.1951947 -0.20111974 -0.35058016 -0.16052331
-0.18434295 0.24787357 -0.25956723 0.0286869 -0.3475792 -0.32508034 0.8374877 -0.34128225

module.lstm.bias_hh_l0 f4 [40]
00000000: e09c e9be 57d7 33bf 995e cb3e 7f13 40bf
00000010: 3a81 5abe dd31 9bbf 49cb b5bd e4f4 88be
00000020: 4dbd 4c3f b2b4 fcbe f454 703e e248 14be
00000030: 65d7 22bf eb8a 963e caa2 8d3e 8f20 873f
00000040: 2c3c 763e f947 a23e 0ee8 e9be a79d b4be
00000050: 98c6 513d 0380 16be 762f 12be b9db d1be
00000060: 9fcf 0d3e a9c4 d7be 41bb c93e 1f1e d0be
00000070: 7133 b33e 1c17 9d3e f97d d23d 1cdb 8bbe
00000080: 0d25 debe d0c8 4dbe 8d64 f4be 62cc 1e3d
00000090: 993e 483d 47bb 91be ef4c 1f3f c5e5 94bd
-0.456275 -0.7025046 0.3972061 -0.7502975 -0.21338359 -1.2124592 -0.08876664 -0.26749337
0.7997635 -0.4935661 0.23469907 -0.14480928 -0.63609916 0.2940286 0.2766326 1.0556811
0.24046391 0.31695536 -0.45684856 -0.3527653 0.051214784 -0.1469727 -0.14275917 -0.40987948
0.13848732 -0.42142227 0.39400676 -0.4064798 0.35000184 0.30681694 0.102779336 -0.27315605
-0.43387643 -0.20096135 -0.47732964 0.038769133 0.048887823 -0.28463194 0.62226766 -0.072703876

module.lstm.weight_ih_l0_reverse f4 [40, 20]
00000000: 3bc3 b1be 307c 08bf 3f6b f4bf 7403 a7bd
00000010: ca81 9bbf 7fb2 5fbe 7660 31bf dece 663e
00000020: 9c28 8b3e 1f01 333f f758 7bbd f0e4 33bf
00000030: 9039 afbf a4c9 15bc ce7c 80be b706 fcbe
00000040: 11ad 1d3e 862c d83d c3d9 86be b6e3 39bf
00000050: c788 b1be 96d8 a6be d4be a2be f5d5 f0bd
00000060: 7cae 69be 915a 20bf 2cf7 3abe acfc d8be
00000070: 005f cebe ec95 b5be 67b9 cbbe 7931 babe
00000080: afd6 c2be 7aed 09be 3c84 aebe ed15 c4be
00000090: 9362 06bf e0ab cebe ac5b c6be 2d5b c6be
000000a0: 73f6 2ebe 8600 64bf abfd 803f abb5 d13e
000000b0: 0722 3a3f 86ab 4ebf 069a be3e 9198 a4bf
000000c0: 0925 5c3e 3213 953f 6317 eb3e 3d0b 6f3f
000000d0: a010 9c3e 612d 083f 791a 69be c8af 20be
000000e0: 85c4 61bf 03ff 64bf 6e12 933e e3c0 5a3f
000000f0: 8785 53be c273 ca3c 084c 0b3f 9c38 793e
00000100: 34c7 a33e 62d7 99bf 65b2 9f3e 1686 263e
00000110: 4c07 12bf a464 0ebd 7ad2 57bc e479 b73e
00000120: 926d a7be bb50 afbe 7abb 71be 11a3 8e3c
00000130: fe31 81be 03eb 373e da69 133f 40ca 2f3e
00000140: b2d7 5dbe 107a 4bbe 66a9 95bf d211 89bf
00000150: b8e3 863e b303 bf3c c080 8bbe 53da 043e
00000160: 989a acbe 70f1 1fbe 7aa2 84bd 369d c5be
00000170: c37e 4cbb 194f 89bf e76c 17bf d0c6 81bc
00000180: 8aa9 d53d 7b73 0c3e 5acf 723e 229e 443d
00000190: cbb8 7f3d c046 0dbb 6fe4 a1bf 43fd 473e
000001a0: dcc7 1abf 84c1 ebbe 8e68 aabe 7fdd 40bf
000001b0: c459 103e 13cf 48bf 38fe 65be ea24 13bf
000001c0: 7ab3 9c3e b8c1 eabc 2abc 003f d546 2b3e
000001d0: cd5a 59bd 3253 00bf c793 ee3d 6243 0abf
000001e0: f370 643e 4e40 45bf 9fed 0a3f ff2e 633f
000001f0: 640b 0f40 2cdb b0bf 4a18 093f 066d 8bbe
00000200: c045 6f3d b63d 6dbf 2447 08bf b490 ebbe
00000210: aa6e 143f dec1 05bf ddae 75be 133a 913e
00000220: 7563 49bb 97d5 ffbc 5c83 1e40 839f c23f
00000230: 5bb6 b8be f4b9 6e3e c040 76be ffc5 403f
00000240: bef3 e1bc d04e 5a3d 46a8 213e b223 103e
00000250: 42f1 653f dca3 193f 49cb b4be a8ee a9bf
00000260: c654 a2be 3745 4cbd fcbb 4a3f 0c38 aabf
00000270: 38d5 a23e 9ab0 dcbc 3345 c6bf 1ffb d03d
00000280: 7fcd 943e 0140 4b3d d53c f83e f01d c73d
00000290: ddbc a5bf 1137 273d ee58 febe 0a60 3fbe
000002a0: c155 d83d 65c0 e6be 30d9 bbbc 38a9 d33e
000002b0: 4065 973e 8b82 f7bd 467f 0b3e c883 b53d
000002c0: 4bed ed3d 35d6 b93d 0e0b 40bf 22b5 43bf
000002d0: a9d4 82be 3f9f 5c3e 9c49 7ebf 9d39 abbf
000002e0: 2d7b 5b40 a26d 233e f574 babd ecd2 923e
000002f0: fac9 b9bf a6e1 323f 3bb3 a73e 387e 53bd
00000300: 71e3 6cbf 5ccc 03bf e225 f0be d276 4ebe
00000310: 1ae0 4bbf 4d7e 91be 8618 f83e f64a 2740
00000320: f55d b63e 3977 d33e 274f 48be 85af 84be
00000330: 4576 c73d 071a de3e 8b92 163f 56b6 17bd
00000340: e19c 0b3f 0c5d 943f 56f7 ab3f b800 32bf
00000350: 1a6c f23f eea4 15bf 88f2 0bbf f311 0d3e
00000360: 9c5d 9abd 98eb adbd a15a 5c3d 8adf 25bf
00000370: 613d 9a3f b4cb 8d3f 1cd8 bc3f 4f94 b83f
00000380: 3c93 953f e9de ad3f 1b7d a13f c529 953f
00000390: b1b4 b53f 90b6 9a3f ef03 c13f 3ec5 a83f
000003a0: c1d0 d43f cab6 8c3f eb48 0240 2bc6 a83f
000003b0: 356f 9d3f 9d60 883f 0f21 993f 9c17 923f
000003c0: e551 41bd 96d4 643d 94e0 103f 8bc1 8a3f
000003d0: b5df 873f cd8e bf3d 797e 453f dec2 af3e
000003e0: 398b eabe b863 cabe f32e bd3d 71e8 653f
000003f0: 8856 aebd 44a3 a53e aa07 053f a7ff 16bd
-0.34719262 -0.53314495 -1.9095229 -0.081549555 -1.2148983 -0.21845435 -0.6928781 0.22539851
0.2717942 0.69923586 -0.06136414 -0.70271206 -1.3689442 -0.009142313 -0.25095218 -0.49223873
0.15398051 0.10555367 -0.26338014 -0.72613084 -0.34674665 -0.32587117 -0.31786215 -0.11759559
-0.22820467 -0.62638193 -0.18258351 -0.42380273 -0.40306854 -0.35465944 -0.39789888 -0.3636587
-0.38054416 -0.13469496 -0.34085262 -0.38297978 -0.5249416 -0.40365505 -0.38741815 -0.38741437
-0.170862 -0.890633 1.0077413 0.40958914 0.7270817 -0.80730474 0.37226886 -1.285906
0.21498503 1.1646483 0.4591628 0.93376523 0.30481434 0.5319424 -0.22764005 -0.15692055
-0.8819049 -0.89451617 0.28724998 0.8545057 -0.20656405 0.0247134 0.5441289 0.24338001
0.31987917 -1.2018855 0.31190792 0.16262087 -0.57042384 -0.034763947 -0.01317274 0.35835183
-0.32700783 -0.3424128 -0.23606673 0.01741174 -0.25233454 0.17960744 0.5758339 0.17166996
-0.21664312 -0.19870782 -1.1692321 -1.0708563 0.2634561 0.023317194 -0.27246666 0.12973909
-0.33711696 -0.15619445 -0.064763024 -0.38596505 -0.0031203486 -1.0727264 -0.59150547 -0.015841872
0.10432728 0.13715927 0.23711911 0.04800237 0.06243209 -0.0021557063 -1.2647837 0.19530205
-0.6046121 -0.46046078 -0.33282894 -0.75337976 0.14096743 -0.7844097 -0.22460258 -0.574782
0.3060568 -0.028656825 0.50287116 0.16726239 -0.05306511 -0.50126946 0.1164928 -0.5400907
0.22308712 -0.77051246 0.5426883 0.88743585 2.2350702 -1.3816886 0.5355269 -0.27231616
0.05841613 -0.9267229 -0.5323355 -0.46008837 0.5798136 -0.5224894 -0.23992486 0.2836462
-0.0030729447 -0.031229777 2.4767675 1.5204929 -0.36076626 0.23313123 -0.24048138 0.7530212
-0.027582046 0.053297818 0.15786847 0.14076117 0.89821255 0.60015655 -0.35311344 -1.3275957
-0.31705302 -0.049870696 0.7919309 -1.3298354 0.31803298 -0.026939679 -1.5489868 0.102041475
0.2906303 0.049621586 0.4848391 0.09722507 -1.2948261 0.040824 -0.49677223 -0.1868898
0.10563231 -0.4506866 -0.022930712 0.4134004 0.29569435 -0.12085446 0.1362277 0.08863026
0.11617526 0.0907406 -0.7501687 -0.7644826 -0.25552872 0.21545123 -0.9933107 -1.3376957
3.429393 0.1595979 -0.09104339 0.28676546 -1.4514763 0.6987556 0.3275393 -0.051634043
-0.9253455 -0.514837 -0.46903902 -0.20162514 -0.79638827 -0.28416672 0.4845621 2.6139503
0.3561856 0.41301897 -0.19561444 -0.2591516 0.09739355 0.43379232 0.58817357 -0.037039123
0.54536253 1.1590896 1.3434856 -0.69532347 1.893924 -0.5845479 -0.5466695 0.13776378
-0.07537386 -0.084922016 0.053797368 -0.6479422 1.2049981 1.107779 1.4753451 1.442026
1.1685557 1.3583652 1.2616304 1.1653372 1.4195768 1.2086964 1.5079325 1.3185194
1.6626207 1.0993283 2.0357006 1.3185476 1.2299563 1.0654484 1.1963214 1.1413455
-0.04719724 0.0558668 0.5659268 1.0840315 1.0615145 0.09353409 0.77146107 0.3432836
-0.45809343 -0.39529204 0.092374705 0.898078 -0.08512598 0.32351124 0.5196482 -0.036864903

module.lstm.weight_hh_l0_reverse f4 [40, 10]
00000000: 47e7 513e c211 07bc 2e56 e23e c8c4 ca3e
00000010: 8f52 c7bd 7ebd 8d3f d2d8 e73c a04e 1a3e
00000020: 8bf2 11bf 0fee 903e d134 e5be 878b c83e
00000030: ed46 02bf e09a a13f bd8e 4b3f 1c5d ed3e
00000040: eed3 7c3e a5c2 6fbd 423f 1c3f 7dfe a1be
00000050: 1bfc 603f d407 1b3f 7ff6 f4be 9b83 093f
00000060: 13b7 973f 3157 a03e 25a9 c53d e8cb a2bf
00000070: d78f df3f da7f 83be c9af a3bf 65dc 593d
00000080: 83ef b2bf b10b ab3c e7a4 a8bd ad3f d4bd
00000090: 8ebc 203f 18ad e93d 63ed 7fbf a22c 4bbf
000000a0: 6954 43bf 189e 813d 975a d3be 2300 c3be
000000b0: 298d 81be 3f53 16bd 6f69 ca3e 182b ccbf
000000c0: a047 08be 4e50 023f b4cb 0a3f 1aeb 6d3e
000000d0: f1a8 513e 9888 8e3f 1191 583e a4c3 09bf
000000e0: b5a6 21be 72c1 c23e f4ac d4be f73d 04bd
000000f0: 0782 453f 97e3 1c3f ebf0 14be 4780 133e
00000100: 3252 173f 872a f8be 6477 af3e 14d4 f4be
00000110: 398e cd3f 1f30 69be 6a05 183f 67e2 863f
00000120: bcde 77bf ada7 f63e 84a8 b93e d0d5 a1bd
00000130: 36d0 f43e 9bf8 a1bf 6e56 a03f 80e0 9abe
00000140: c4d4 a53d 1fbd af3e 8023 93bf 4806 73bf
00000150: e0c8 a73f 840e afbf 23c3 6a3f c85d d13e
00000160: f604 e03f 7181 37be eaa2 123f 47e4 5bbf
00000170: 40d3 ea3e 2799 f43f ef6d 7c3d 5f60 203f
00000180: 136e 0cbf 4c10 8d3f 6f33 2abf 3f10 cc3f
00000190: 692f 62bf e038 cdbe 3900 f03e 6a0e ddbf
000001a0: 0487 22bf 631d 84bf a8ab 83bf 64cf 313f
000001b0: d29b b7be 2017 b93e 32d8 413f 15c5 103f
000001c0: 6fda e53e 5e1b 80bf c609 f13f fd9f 9e3e
000001d0: d240 edbf 7b71 b93f d10c 2ec0 e7b4 793f
000001e0: 1222 61bf 0421 d33e 92ca a0be 3b35 2abf
000001f0: c03d 4abf 85d5 afbf c536 cb3f bae8 55bf
00000200: 7353 06bf 2f19 463f 15fb 0a3f ca82 46be
00000210: 9509 94be 7cdc 2ebe 59a3 83bf 1c5c ccbf
00000220: 929f 18bf 396a a53f 4499 d8bd a32f 9ebe
00000230: aa28 c63f b8a4 72bb 2c57 a33f 6c73 313f
00000240: ee71 9cbc 2cce a33f 329f 81bf 06ef ec3e
00000250: fc21 2dbf 0f61 863f fec2 1f3d a20c 69be
00000260: 9eda 4b3f 07eb 6c3f a3b4 67bf b7ca 35bf
00000270: 9a4d 00be 642b be3e 78ac 41bd 78f0 e83d
00000280: d87f 683e 5161 a4be 9c65 db3d 0582 70bf
00000290: c582 b13f 6e02 eabd 3ede cf3d 7220 c23c
000002a0: 6c01 873e 6632 cf3e 8ffa 0ebe 0966 8fbd
000002b0: 8b0f babe 8e40 703d f28d b0be 6e95 313d
000002c0: 2ef5 f4be c88f 5bbf de0e 63bf f120 2b3f
000002d0: 20d8 383e 81c0 2f3f 0484 cf3f 1e7b 263b
000002e0: 0227 ab3f 722f ea3e 17ea 033f f20a 153d
000002f0: 9f20 a73f e395 fc3d 3004 d6bd f261 cdbe
00000300: 91e7 4d3f e7e9 523f 79fd fb3c cd44 71bf
00000310: 9fea 93bf 5cc5 633f cf9c eebf 812a ccbf
00000320: 2211 72be 8eb1 9abe fc4e 21bf d980 ebbe
00000330: 1109 dd3e f7cb d5bd f483 45bf d18d be3f
00000340: 57db 7f3d 0244 07bf d8c9 c5be a8f2 953f
00000350: 56bf 73bf cb8c fd3e df93 9a3f 08a7 543f
00000360: 403c 993f 251d bcbe 10a8 cc3f f430 f2bf
00000370: 3b62 023f 967c 68be 8c2c ddbc 9713 cfbe
00000380: 44ac dcbe 6791 753e 1a91 cd3b 4625 ba3e
00000390: 8616 633b 111f 4dbd 0505 8b3e 65da 0c3f
000003a0: cc08 243f 4aa9 c6bf 3d72 2cbf b525 2abe
000003b0: 0b9b cbbe 43dd 343d f27d ca3f f853 633f
000003c0: 43ed 693f 4d9f 32be 9d0a f5bd 607f b4bd
000003d0: 08b4 863f 35ad b63f 1bc0 99be ce64 903f
000003e0: 14e4 433f f8c8 97be 2da9 9d3d 02d2 02be
000003f0: 1f6a f6bd d654 9abe 32ba adbc 7f09 e93e
0.20498382 -0.00824398 0.44206375 0.39603257 -0.09732544 1.1073453 0.02830163 0.15069056
-0.57010716 0.28306624 -0.44766858 0.3916895 -0.50889474 1.2625389 0.79514676 0.463601
0.2469022 -0.058535237 0.61034024 -0.31639472 0.8788468 0.6055882 -0.47844312 0.5371644
1.1852745 0.31316522 0.096514024 -1.2718477 1.7465771 -0.2568348 -1.278802 0.0531887
-1.3979343 0.020879598 -0.082345776 -0.10363708 0.6278771 0.11409968 -0.999716 -0.7936498
-0.76300675 0.06328982 -0.41280052 -0.38086042 -0.2530301 -0.036700483 0.39533564 -1.5950651
-0.13308573 0.50903785 0.54217076 0.23234215 0.20474602 1.1135435 0.21149088 -0.5381415
-0.1578625 0.38038212 -0.41538203 -0.032285657 0.7715153 0.61284775 -0.14545028 0.14404403
0.59109795 -0.48469946 0.34270775 -0.47818053 1.6059028 -0.22772263 0.5938326 1.0537843
-0.9682424 0.481748 0.3626138 -0.079021096 0.47815102 -1.2653993 1.2526376 -0.30249405
0.080972224 0.34323975 -1.1495209 -0.9493146 1.3108177 -1.3676305 0.91704005 0.40891862
1.7501514 -0.17920472 0.5727984 -0.858952 0.45864296 1.9109238 0.06162828 0.6264705
-0.5485546 1.1020598 -0.6648473 1.5942458 -0.8835359 -0.40082455 0.4687517 -1.7270024
-0.6348727 -1.0321468 -1.028676 0.6945708 -0.3586107 0.36150455 0.7572051 0.56550723
0.44893214 -1.0008352 1.8831108 0.30981436 -1.8535407 1.4487756 -2.7195323 0.9754166
-0.8794261 0.41236126 -0.3140455 -0.66487473 -0.79000473 -1.3737036 1.5876089 -0.8355824
-0.52471083 0.7738218 0.5428937 -0.1938583 -0.2891356 -0.17076296 -1.0284225 -1.596561
-0.59618485 1.2923042 -0.10576108 -0.3089572 1.548116 -0.003702445 1.2760978 0.69316745
-0.019097295 1.2797294 -1.0126708 0.4627611 -0.6762998 1.049837 0.03900432 -0.22758725
0.7963046 0.92546123 -0.90510005 -0.71012443 -0.12529603 0.3714248 -0.04728362 0.11373991
0.22705019 -0.32105497 0.1071274 -0.93948394 1.3868033 -0.11426245 0.10149811 0.023697112
0.26368272 0.40468138 -0.13962768 -0.070018835 -0.36339983 0.058655314 -0.34483296 0.043355398
-0.47843307 -0.8576627 -0.8869456 0.6684714 0.18051195 0.6865311 1.6212163 0.0025402973
1.3371279 0.45739323 0.5152907 0.03638739 1.305683 0.12333276 -0.104500175 -0.4011379
0.8043147 0.82388157 0.030760514 -0.94245607 -1.1555976 0.8897302 -1.8641604 -1.5950471
-0.23639348 -0.30213588 -0.63011146 -0.4599674 0.4317098 -0.10439294 -0.7715447 1.4887029
0.06246504 -0.52838147 -0.38630557 1.1714678 -0.9521383 0.4952148 1.2076377 0.8306737
1.1971512 -0.36740986 1.5988789 -1.8921189 0.5093114 -0.22703776 -0.02699878 -0.40444633
-0.43100178 0.23981248 0.006273401 0.36356562 0.0034650876 -0.050078455 0.27152267 0.55020744
0.6407592 -1.5520413 -0.67361814 -0.16615947 -0.39766726 0.044156324 1.5819685 0.888
0.9137766 -0.17443581 -0.11964915 -0.08813357 1.0523691 1.4271609 -0.30029377 1.1280763
0.76519895 -0.29645514 0.07698283 -0.12775424 -0.1203196 -0.3014285 -0.021206949 0.45515057

module.lstm.bias_ih_l0_reverse f4 [40]
00000000: b025 34bf a15a b0bf 0e03 a3be 0e63 ccbe
00000010: 1b34 f6be 1f69 5ebf b86e e3be a9ca 4dbf
00000020: 9145 88bf 5ca0 f7be 79aa 873e cdfd 103f
00000030: eb9c bf3e c81a b3be bffc 703e f923 d43e
00000040: a0e3 473e 0689 7a3f c8b5 723f 977c 25bf
00000050: 43c8 c5bd 0d4b a53e c4b3 f23d 5fa8 21bf
00000060: 943f cebe ab4d 86be 8f2b 6cbe 421e 0f3e
00000070: 0369 70be f332 dbbc 8970 fabd fe42 d3be
00000080: b295 213f 4ef8 01be d591 03bf 0a10 0a3e
00000090: 70ad 8abe e9ff f73e e253 77bf 1845 35be
-0.70370007 -1.3777658 -0.31838268 -0.39919323 -0.48086628 -0.8687915 -0.4442041 -0.8038736
-1.064623 -0.48364532 0.26497248 0.5663727 0.37424406 -0.3498137 0.23533915 0.41433695
0.19520426 0.9786533 0.94808626 -0.64643234 -0.096573375 0.32283822 0.11850694 -0.6314754
-0.4028288 -0.2623113 -0.23063491 0.13976386 -0.23477559 -0.026757693 -0.12228496 -0.41262048
0.6311904 -0.12692377 -0.513944 0.13482681 -0.27085447 0.4843743 -0.9661237 -0.17702138

module.lstm.bias_hh_l0_reverse f4 [40]
00000000: 1b41 8fbe ad90 9dbf 55af 7c3e 38ef 26be
00000010: 7daf 44bf a1ed 30bf 8043 1abf 2246 d8be
00000020: d73a a4bf 3b32 b3be 76fd 213f 41af 2e3f
00000030: e1c8 9d3e a3b1 113d 6f41 55be f52d ed3e
00000040: 12a1 be3e a91e 4f3f bc22 803f 023f 3bbf
00000050: 6e6c 433d d219 8c3e 3c6c bdbe c3e9 f5be
00000060: 515d 94be b303 fbbe 2ac1 17be 8bd6 b13e
00000070: c9d4 b5be 8e04 c4be 18fa 6abe 9f50 c3be
00000080: dffb 033e 03e4 acbe 4f42 12bf 2189 683e
00000090: 8ef9 c7bd df89 6d3c 7309 86bf a7de 3fbe
-0.2797936 -1.2309777 0.24676259 -0.16302192 -0.76830274 -0.6911259 -0.60259247 -0.42241007
-1.2830456 -0.3499926 0.63277376 0.68236166 0.3081732 0.0355698 -0.20825742 0.46324125
0.37232262 0.8090616 1.00106 -0.7314302 0.04771083 0.2736345 -0.3699664 -0.4802991
-0.28977445 -0.4902626 -0.1481978 0.34733996 -0.35513905 -0.38284725 -0.22946966 -0.38147447
0.1288905 -0.3376771 -0.5713243 0.2270856 -0.09764396 0.014498203 -1.0471634 -0.18737279

module.lstm.weight_ih_l1 f4 [40, 20]
00000000: 2cd7 3d3d 06d3 693e 76f9 99bd 48e4 5b3e
00000010: ac3a d43e 95d0 153f 4384 fdbd 09b7 1ebf
00000020: 5dfa 763d 5523 ce3d 1538 d0bb 4150 07be
00000030: a962 ffbe cf21 10be ebf7 cfbe de40 953e
00000040: 70ea 863e 748e 9dbe 4da7 a93d 3527 42bf
00000050: f631 19be 41db e23d 8070 3ebc 3d9f 07bf
00000060: ad7c 073f 9083 c43e d26f 99bf 9162 b13d
00000070: e7c2 20be ca57 373e 4812 17bf 2a55 58be
00000080: c9a5 64bf 9026 123e 4884 a2be 479f 42bf
00000090: 48c7 3a3f df29 eebd 28ca 543f e859 9abd
000000a0: 4fc4 74bd 0853 c0be 8c8a bebe 255c 42bf
000000b0: 5ac7 b53e 952a 7c3e 4cf8 07be 0379 95be
000000c0: ac78 febd e329 853e d1c5 07be 0106 f83f
000000d0: 1708 54bc fe48 7d3d cbfa be3e 5749 2b3f
000000e0: 28fc 40bf 403e df3d 4191 03bf 2ac1 10be
000000f0: 5525 fe3e 6d31 153f 8f15 453e 7979 f9be
00000100: e56b 353d 4fec 99bf d2aa 81bf 01fb babe
00000110: d2cf ee3e 8e13 653e 9a8c 19bf 94c5 8abe
00000120: 8c0b 613e e956 dc3e f864 ccbe 438d b43c
00000130: a6d5 3b3f 26d9 53bf 4bfe 4f3f 5cb8 02bf
00000140: 2503 f0be 6f60 17bb 5fdf a13f 1b5c 64be
00000150: 002e 81bf 7610 753e 101b f93e 96c3 653f
00000160: 6d48 50bf e858 88bd 652a fb3e df9c 0dbf
00000170: f914 2cbf cba8 a83d 5703 14bf d1f7 9a3e
00000180: 25c2 793f fd88 dbbf 365e a73e adc2 71bf
00000190: 5f5d 2fbf be5f a73e 87df 3f3e b937 1e3f
000001a0: e7dc 55bd b238 e23d 1e03 eebd a970 123e
000001b0: 444e c83e a078 04bd 0cbb dcbd 689e b73e
000001c0: 3b41 b2be f654 333d a909 243e 5490 d8be
000001d0: a3e3 303f 147a 1dbf 6c5a 8f3e b14f 1dbd
000001e0: 3619 05bf 628c 813e 32e3 84be a54d 7ebc
000001f0: a823 b83e 34da 8dbe 9bcc 65be e636 173f
00000200: 6ccb 113f d6b7 0b3e 22df 14bd 4505 ee3e
00000210: c136 45bf 7a31 223e 6baa b33e 59e3 2f3f
00000220: 4762 2fbd bf31 05bf 5241 25be e984 133e
00000230: 327b 4c3f a31d 843e 8af1 873f 1fa8 9c3f
00000240: cadb 09bf 6160 e5be 97a3 883d e98b 24be
00000250: d331 babd 5072 acbe 5d5e 54bf d6b1 613f
00000260: fb94 ffbe 53fc d7bd 764d b53f c358 b33e
00000270: 29aa 2b3f df9f 50be a200 ae3d 82af b3be
00000280: 37f8 fa3b 25ea af3c 78ea 04be 0d64 ffbc
00000290: bf3d db3d 3498 853c e560 7b3e bdb7 e5bd
000002a0: 41d9 3e3e e900 b23d 7eb5 bebb 7680 c73e
000002b0: 8115 d1bd 8f1e e6bc dc8a 93bd 919c fabd
000002c0: 151e 423d 37ae 8bbd 7fa9 2a3b c1f9 823e
000002d0: 6ff5 3b3e 314c fb3e 40ac 473e 3b37 6f3e
000002e0: 70a7 df3e 0d5e 07bf 85f0 d9be 8e3a b1be
000002f0: d1b8 f23d 15dc 643e a767 7e3e 8678 823d
00000300: 62a3 cbbe 114d 3fbf 04a8 a9bd 3767 3d3b
00000310: e284 dabe f2b7 5d3e 76cf 80be 1514 60bf
00000320: c689 72bf fd2c 9abe c55b 21be 7c30 d0be
00000330: a3d5 4ebf dd39 f63f ea1f 8e3f 0c68 3f3f
00000340: aeed bc3f 6daa 27bf 5de4 b13f e013 063f
00000350: 1e71 c13f e21b a6bf 5031 0e40 d76d e9bf
00000360: d050 d23e dca6 533d d6c1 7abf ae1f a33c
00000370: 46d0 16bf d6ea 80bf 4378 55c0 4356 e7bf
00000380: 18a7 f73f 33b2 253f abd0 d33e 764b c9bf
00000390: 73be 5abc 0d5d 1940 3306 ae3f 8d48 3ebf
000003a0: b142 143e 8004 39be a204 54bf 5802 3c3e
000003b0: d462 3ec0 4d26 d83e d4ae e8be 843e d43e
000003c0: ae9d ac3e 974e a03e 77d7 683f fd62 f5be
000003d0: ce94 6b3f 723c b33f 6392 0f3f 7010 5a3f
000003e0: 467d a93e 9274 a33e ef64 a43f ee3e f93f
000003f0: 1751 963d 77f3 943f d9ed 833d 1633 3bbf
0.046347782 0.22834405 -0.07518284 0.21473801 0.41451013 0.58521396 -0.123787425 -0.6199804
0.06029736 0.10065333 -0.0063543417 -0.13214208 -0.4987996 -0.14075397 -0.40618834 0.29151052
0.26350737 -0.30772746 0.08283863 -0.75841075 -0.14960465 0.110769756 -0.011623502 -0.52977353
0.52924615 0.38381624 -1.198725 0.08661378 -0.1569935 0.17904583 -0.5901227 -0.21126238
-0.8931547 0.14272523 -0.31741548 -0.7602429 0.7296033 -0.1162908 0.83120966 -0.075366795
-0.059757527 -0.37563348 -0.37215078 -0.7592185 0.35503656 0.24625619 -0.13278311 -0.29193887
-0.1242536 0.2600852 -0.13259055 1.9376832 -0.012941382 0.06183719 0.37300715 0.6690878
-0.7538476 0.10900545 -0.51393515 -0.14136186 0.49637857 0.5827854 0.19246505 -0.4872549
0.04429235 -1.2025241 -1.0130255 -0.36519626 0.4664293 0.22370741 -0.59980166 -0.27103865
0.21977061 0.43035057 -0.39920783 0.022040015 0.73372877 -0.8275322 0.81247395 -0.5106256
-0.468774 -0.002309825 1.2646292 -0.2230076 -1.0092163 0.2393206 0.4865346 0.89751565
-0.8136051 -0.066575825 0.49055782 -0.5531749 -0.672195 0.0823532 -0.57817596 0.30267194
0.97561866 -1.715118 0.32689065 -0.94437677 -0.6850185 0.32690233 0.18737613 0.61803776
-0.052212622 0.1104597 -0.11621688 0.14300789 0.39122212 -0.0323416 -0.10777864 0.35863042
-0.34815392 0.043782197 0.1601931 -0.42297614 0.69097346 -0.615144 0.27998674 -0.038406078
-0.51991594 0.25302416 -0.25954586 -0.015521442 0.35964704 -0.27705538 -0.22441332 0.59068143
0.5695102 0.13644347 -0.03634561 0.46488395 -0.7703667 0.15839186 0.35090956 0.6870628
-0.042818334 -0.5202903 -0.16138199 0.1440617 0.7987548 0.2580386 1.0620587 1.2238806
-0.53850996 -0.44800094 0.06671827 -0.16068996 -0.090915345 -0.33680964 -0.82956487 0.8816198
-0.4991835 -0.10546174 1.4164264 0.35028657 0.6705652 -0.20373486 0.084962144 -0.3509484
0.007658984 0.021473954 -0.12980068 -0.031175638 0.107051365 0.016307928 0.24548681 -0.11216686
0.18637563 0.0869158 -0.0058199754 0.38965195 -0.1020918 -0.028090743 -0.0720422 -0.12236894
0.04739197 -0.06820338 0.002604097 0.25581172 0.18355344 0.49081567 0.19499302 0.23360913
0.43682432 -0.52877885 -0.42566314 -0.34614986 0.11851657 0.2234958 0.24844228 0.06370644
-0.3977309 -0.7472697 -0.082839996 0.0028900632 -0.42679507 0.21652201 -0.2515828 -0.8753064
-0.94741476 -0.30112448 -0.15757664 -0.4066199 -0.80794734 1.9236408 1.1103489 0.7476814
1.4760034 -0.65494424 1.3897816 0.52374077 1.5112646 -1.2977259 2.2217598 -1.8236645
0.4107728 0.0516728 -0.9795202 0.019912567 -0.5891155 -1.0071666 -3.3354652 -1.80732
1.9347868 0.64725035 0.4137014 -1.5726154 -0.013351071 2.3963044 1.3595642 -0.74329454
0.14478566 -0.18068123 -0.8281957 0.18360269 -2.974782 0.4221672 -0.45445883 0.41453946
0.3371405 0.3130996 0.90953773 -0.47927085 0.9202393 1.4002821 0.56082743 0.8518133
0.3310339 0.31924874 1.2843302 1.947233 0.073396854 1.16368 0.0644185 -0.73124826

module.lstm.weight_hh_l1 f4 [40, 10]
00000000: e584 2f3d dee5 8fbe d7a1 d8be a64f 173f
00000010: df65 ea3f ae0d e63e 4ea1 acbd 5b68 da3e
00000020: a810 15be 5e03 90be 9eab 873e 867a 89bf
00000030: 6030 133f 5457 a13f e8f6 263f f18c 0c3d
00000040: 4aaa a5bf 2258 cdbe 1e84 083e b4aa 7ebf
00000050: 1e5f 143f 8bf8 593f 1bc4 a73e fb77 f53e
00000060: 93d4 f93f 92a3 953f 9b07 513e 4a09 8ebe
00000070: ab05 15be 4d45 413e a8b8 613f 0dd0 873d
00000080: 71d5 cbbe e92c df3f e77c 303e 3da6 273f
00000090: aa51 cfbf 5793 9a3d 7ce8 0bc0 242e eb3c
000000a0: bfb9 f0bc fc11 47c0 8578 91bf aa23 d53f
000000b0: 9932 8ebf 0b17 26be 7581 583e ec83 793d
000000c0: ed18 dfbe 75a5 29bf 9e73 3fbe 9823 273f
000000d0: 3220 e9be 5f7b a13e 00aa 58bf 7d1d 38bf
000000e0: d263 fdbe 2b41 d6bf c7e6 5e3e 8411 42bf
000000f0: 438b 863d 4eeb ecbd 2626 19bf 6459 db3e
00000100: d0eb af3f 77a2 04be 3eca a0bf 99b9 2e3e
00000110: 65a0 493f 504b 113f 0186 0fbf 30c9 40bf
00000120: ded0 643f 8b91 193e 4417 803e 3179 7c3e
00000130: 9b44 c93d 5b77 3e3e 7cb8 29be 96fe 1cbf
00000140: 7107 ffbc 9398 8abe d342 b33e 2d9e 4fbe
00000150: c8c6 cdbe 5be4 31be 7067 dcbd 49f5 02bf
00000160: d453 3bbe 3bab 833c 310a 513d 5ca7 1ec0
00000170: 6f95 78bf c291 2f3f 22f3 3e3f a186 153e
00000180: 8a35 b6bd 48d0 853f efd0 7f39 91e5 893f
00000190: 7f3a b33f 2a30 4b40 17b5 fabe b129 d93f
000001a0: 9ff9 84be 6359 aa3f 1fb8 63bf 8517 a63f
000001b0: 550a fa3e 5321 7fbf 2585 be3f 380c 14c0
000001c0: bc1d 20c0 3a62 9e3e b716 06c0 1f83 11bf
000001d0: d8b7 febe 6a0a 50bd dc70 8b3f 2f34 373e
000001e0: 4464 6d3f 1613 113f bfc5 9cbe ab2b acbf
000001f0: 0ab9 c6bf fd52 313f a640 7a3f a8dc 9b3f
00000200: c3b2 d33e 94c4 c7be 5c23 3540 3c62 46c0
00000210: 5fdf c8bf 4702 41bf 27a4 aabf 6f06 2f3f
00000220: 7205 fabe ac8b fdbe 55f3 f4bf 0fe1 07bf
00000230: 978d 6a3f 5842 e1bf c624 e4be ab23 823f
00000240: ddef 53be 8326 363f 17b5 5dbf 94a4 993f
00000250: fb9b 833e 998f 4abf a2bd d0bf ed59 f43e
00000260: e98b 27c0 2f14 c03e e274 ab3f 9309 8f3f
00000270: 06e8 97bf e502 07c1 4780 813d d4a8 c7bf
00000280: 3138 bebf 32cf 473f d05e 66bf 93ea 4ebe
00000290: 228b 7b3f 2bbb 39be 9892 f3be 9bb0 123c
000002a0: 598a 2040 d238 4dbf f463 a2bd 4723 0e40
000002b0: dc86 da3e e0e9 92bf 050f e4bf cb04 4f3c
000002c0: 1871 563f f02b f83e 754f 1e3f aaec a0bf
000002d0: 3da9 5dbf 0b60 37be 56ab 4d3f 8ce8 2bbe
000002e0: 7d4f 22bf b0c6 193f 7694 62be 627b 90bf
000002f0: e0c4 e9bd 8553 f3bf ed68 c6bf 4477 dcbe
00000300: bd56 7ebe 65fd 11bf b6d5 81be 39e4 cbbf
00000310: a720 2d40 1cba 77c0 d034 8dbf a409 1d40
00000320: dcdb 0c3e 3481 9bbf 6a3e 20bf 1b26 aabd
00000330: 53ec e0bf b5e7 98bf 6146 803f d28a a0be
00000340: 8b0c 2b3f f895 603e 7984 973f 2a46 1d3f
00000350: 9ddc 493f bef5 debd 8f8a be3e b018 303f
00000360: 6bc9 f3be a4f9 b03f b419 ad3f b124 8f3d
00000370: 259c 44bc c0d1 1cbf 63bc cebe 05e2 63bf
00000380: 700c db3f a3da f43e 6a30 c93e 7cb0 9e3e
00000390: a23e 143f 49fc 0cc0 c9f3 81bf 6ebc c8bc
000003a0: efaa 8fbe d326 7b3f 49b5 de3f 2eca 7cbf
000003b0: cb50 cd3f b82e 9b3d 771c 0440 c3ff 133f
000003c0: 204a 30be 7d67 ddbd 05fe f1bf b448 ba3c
000003d0: 87f8 913e d37e b6be 5c87 813f 2226 6bbe
000003e0: 7ffd 3f3f 9b9c 573e 9619 0540 8975 473e
000003f0: 670a 3a3f cc24 c7be c32d 17bf efa7 88bf
0.042851347 -0.28105062 -0.42310974 0.5910591 1.8312339 0.44932312 -0.08429204 0.42657742
-0.14557135 -0.2812757 0.2649812 -1.0740516 0.5749569 1.2604775 0.652205 0.0343141
-1.2942593 -0.40106302 0.13331649 -0.9947922 0.5795764 0.8514487 0.32766804 0.479431
1.9517998 1.1690543 0.20413058 -0.27741462 -0.14552943 0.18874092 0.8817239 0.066314794
-0.3981128 1.743558 0.17235146 0.65488034 -1.6196797 0.07547634 -2.1860647 0.028708525
-0.029385446 -3.1104727 -1.1364905 1.6651509 -1.1109191 -0.16219728 0.21143134 0.060916826
-0.43573704 -0.6626809 -0.18696448 0.65288687 -0.45532376 0.31539437 -0.846344 -0.71919996
-0.4949022 -1.6738638 0.21767722 -0.75807977 0.06569531 -0.11568318 -0.59823835 0.42841637
1.3743839 -0.129526 -1.256172 0.17062987 0.7876037 0.5675554 -0.5606385 -0.7530699
0.89381206 0.14996926 0.2501775 0.24655606 0.098275386 0.18600218 -0.16574281 -0.6132597
-0.031131478 -0.2706953 0.3501192 -0.20275183 -0.4019072 -0.17372267 -0.10761917 -0.51155525
-0.18293697 0.01607286 0.05103511 -2.4789648 -0.9710302 0.68581784 0.7458974 0.14602138
-0.088969305 1.0454187 0.00024396529 1.0773183 1.4002227 3.1748147 -0.48966286 1.6965848
-0.25971696 1.3308529 -0.8895282 1.2975928 0.48836008 -0.99660224 1.4884382 -2.3132458
-2.5018148 0.30934316 -2.0951364 -0.568407 -0.49749637 -0.05079118 1.0893817 0.17891
0.9273112 0.5666975 -0.30619618 -1.3450826 -1.552522 0.69267255 0.97754896 1.2176714
0.41347322 -0.39017165 2.8302832 -3.0997458 -1.5693167 -0.753941 -1.3331345 0.6836919
-0.4883228 -0.49520624 -1.9136759 -0.5307779 0.916223 -1.7598372 -0.44559306 1.0167135
-0.2069697 0.71152514 -0.86604446 1.200335 0.2570494 -0.7912536 -1.6307871 0.47724858
-2.6179144 0.375154 1.3395045 1.1174797 -1.1867683 -8.438207 0.06323295 -1.5598397
-1.4860898 0.7805053 -0.8998842 -0.2020667 0.98259175 -0.18137805 -0.4757278 0.008953239
2.508444 -0.80164826 -0.07929221 2.2209032 0.42681015 -1.1477623 -1.7817084 0.01263542
0.8376632 0.48471022 0.6183999 -1.2572224 -0.8658636 -0.17907731 0.8033956 -0.16787928
-0.6340254 0.600688 -0.22126946 -1.1287653 -0.11414504 -1.9009863 -1.5500771 -0.43059742
-0.24837776 -0.57027274 -0.2535836 -1.5929023 2.705118 -3.8707342 -1.1031742 2.4537134
0.13755745 -1.2148805 -0.62595236 -0.08308049 -1.757212 -1.1945711 1.0021478 -0.31355911
0.66816014 0.21932209 1.1837302 0.61435187 0.78852254 -0.10886715 0.37215087 0.6878767
-0.47614607 1.3826184 1.3523469 0.0698942 -0.012000118 -0.61257553 -0.40378103 -0.89016753
1.7113171 0.47823057 0.3929475 0.30994022 0.5790807 -2.2028983 -1.0152522 -0.024503913
-0.280601 0.98106116 1.7399074 -0.98746 1.6040281 0.0757727 2.0642374 0.57812136
-0.17215776 -0.108107544 -1.8905646 0.022739746 0.28509924 -0.35643634 1.0119433 -0.22963765
0.7499618 0.21055834 2.0796866 0.1947843 0.7267212 -0.3889526 -0.590542 -1.0676249

module.lstm.bias_ih_l1 f4 [40]
00000000: aa3f 97bf f9e0 cbbf df31 7cbe 5ad5 8fbf
00000010: 2fcf ddbe b773 50bf f9bb 29bf 6a16 f7be
00000020: 2865 adbf 9465 16bf f290 b43f 291f 2c3f
00000030: 1b06 043f 1dfb 503f 7528 353f 1584 3f3f
00000040: cb74 2e3f 73c0 983e 4fab 953f 76ba b23e
00000050: 5bcb 90be 5d28 df3d 167a 95be 20eb e9bd
00000060: 4bcf 1d3e f11d 0f3f f6c0 563e ad0d 233e
00000070: 3589 25be 62f9 eabd 2365 8dbf a2f3 3ebd
00000080: 98e1 3cbf fbd5 c33e f2df a93e 1add 8ec0
00000090: 92e6 5ebf 4d10 623e 319d 6cc0 ef98 c7be
-1.1816304 -1.5928031 -0.246284 -1.1236985 -0.4332213 -0.81426567 -0.6630245 -0.48259288
-1.3546495 -0.58748746 1.4106734 0.67235047 0.51571816 0.8163317 0.7076486 0.74810916
0.6814696 0.29834327 1.1692904 0.34907883 -0.28280148 0.108963706 -0.29194707 -0.114218
0.15411107 0.5590506 0.20972046 0.15923186 -0.16165622 -0.11473347 -1.104649 -0.046619065
-0.7378173 0.38249192 0.3317867 -4.46449 -0.8707057 0.22076531 -3.6970942 -0.38983867

module.lstm.bias_hh_l1 f4 [40]
00000000: c852 96bf d1ec d8bf a35c c23d 5909 4dbf
00000010: 6fcc fdbe be06 f1be c1ca 70bf 645c 89be
00000020: 916f 93bf 1327 d9be 9210 a73f 9a70 833f
00000030: 1aa0 e33e b61d a13f 3c0a 723f 0db7 8c3f
00000040: 57a2 173e 51f3 343f da68 6d3f e7bc 7e3e
00000050: 9973 bebe 747d 03be 2b47 7bbe b004 c93d
00000060: 71b2 00bd d6d3 893e ef40 15be 0000 c9bd
00000070: ecb1 323e 0e8c 44be b05c 3dbf 586a 98be
00000080: b756 73bf a0df 093f fa02 e9bd 5991 81c0
00000090: 8e0e 5cbf e386 d33d 14bb 75c0 1129 34bf
-1.1744013 -1.6947271 0.09490325 -0.8009239 -0.49570033 -0.47075456 -0.9405938 -0.268283
-1.1518422 -0.42412624 1.3051932 1.0268738 0.44458085 1.2587192 0.94546866 1.0993363
0.14808021 0.7068377 0.92738116 0.24876748 -0.3719757 -0.12840825 -0.24538867 0.09815347
-0.031420175 0.2691943 -0.14575551 -0.09814453 0.17450684 -0.19194052 -0.73969555 -0.29768634
-0.9505419 0.5385685 -0.11377521 -4.0489926 -0.8595971 0.10328462 -3.8395433 -0.7037516

module.lstm.weight_ih_l1_reverse f4 [40, 20]
00000000: 22ed df3d 33d2 363e 51aa 1abe 6a55 b63d
00000010: 7bf7 3f3e 4865 8d3e a603 edbd cd5e 68be
00000020: 9ae5 d1bd 80a8 b33d fc29 0ebe 59f2 e53e
00000030: 8c63 5e3e 41fa dc3d 3dcc 7dbe 28d6 ab3d
00000040: 2fc2 8a3d 9733 303d 3774 4bbd 1958 14be
00000050: 0840 41bf 72eb cf3f f888 1dbf e934 a53f
00000060: acb7 77bd 4aea 55bf fdd8 febe 2c21 6ebf
00000070: 6575 9d3f acb3 b23e 103f 17bf b047 733d
00000080: 04d3 983e ec3f 9b3e 74a6 adbf 17d5 6ebf
00000090: 8744 0e3f 5a7b a03e 914c 3a3f 6a46 34be
000000a0: 09e3 903e c389 d33e 924f 183f e1db 1abf
000000b0: e3b2 b93e 4c04 11bd 8715 743d 9f16 c13e
000000c0: 181c 353d 20d1 963e 5c51 5abe a46c 4b3e
000000d0: f961 73be edb3 bf3e 21ca 9e3e 243e 203f
000000e0: a4fc 69bd 4258 41bf 72aa 5ebe 12fc 44be
000000f0: f640 a93c 1b1f d33e 4430 1538 a6bf 2d3f
00000100: 0fb4 ca3e af95 56bd 09af bd3e d416 0fbe
00000110: b93b 893d 9980 8bbe 6611 8ebe 675f 863c
00000120: dcd0 d1be 6c95 f0be f521 32be b346 13be
00000130: 0efe 463e e5db 1abe fff3 e3bd 1d8c 53bf
00000140: 291c 95bd ba01 5c3e c870 113d b3d3 e23d
00000150: 814c ed3d 46e3 5abe 8e8c a1bd 2268 a73e
00000160: 976f 163e c903 5e3d c832 4bbb 7a6e e6bd
00000170: 5e25 85bb b32f 593c 21c5 3d3a 69c5 893e
00000180: 5699 3c3d 1dc1 27bc 4469 39bc 681a 77bd
00000190: a93d 983e 575a 97be 0a81 163f 1e8b a33e
000001a0: e480 a5be 6621 82be a010 843d 3524 2fbf
000001b0: e257 37bf b832 f63c 9028 0b3d f132 8e3f
000001c0: 13b2 bf3e ea95 f3be 0dc0 803d 00c7 54be
000001d0: 5b61 823f 11ea 6a3f 2e45 2a40 4002 d0be
000001e0: b392 c9bf 1937 ccbe 3e21 2dbf de5c 573e
000001f0: e511 c8bd 22fe 1240 1409 323f 210f 023e
00000200: 1e12 f83e 3c3d b93d 1adc 06be db16 bb3b
00000210: ba2f 8cbe c552 79bd a583 6bbe 8763 3d3e
00000220: c0a7 33bf 414d 44bf edd7 69be 35df f6be
00000230: 8b10 493e 9bcd cf3e 8afc c6be f895 7cbe
00000240: 6b62 923e bf47 28c0 9ebd dabe 5549 593e
00000250: f41f 65bd ede7 143e 8e7a 17bd c151 dabe
00000260: efd5 003f d5ee 8f3d 740a 853d 9613 573d
00000270: 453c c6bd db34 093f 25e7 f8bd 86b6 96be
00000280: b466 52be c72f 353b 134a 85be 3bab 153e
00000290: 0b21 28be 256d 3c3e 777b 0abf 823c c13e
000002a0: d15d 32be a8b1 e53d 8a7c 26be 0465 6fbe
000002b0: 63fd 94be 789b ddbd 84d3 0e3e fd9c ae3d
000002c0: a7fe 9bbc 9795 19bd 6f3b 2a3c fb45 b2be
000002d0: 6401 24bf 892a de3e d37a dcbe ba30 23be
000002e0: 4505 5c3f af04 0f3f 31b7 6bbf 12f2 be3d
000002f0: 6d1a 94bd 9fc4 d33e 580b 253e 44b1 833f
00000300: c683 53bf acc7 c5be ff2d 08bd 01c8 54bf
00000310: f968 443f d670 823e 5381 113f 90b9 cbbd
00000320: 5656 ce3e 49b5 1a3e 9934 fbbe eb37 d93e
00000330: d658 3a3f 80bc da3f e78b 8b3f b19b 56be
00000340: 153f 2ebf 1140 8fbf aebd 2c3d c4bd 73bf
00000350: 8035 bbbd a126 46bf dc50 05bf 19e8 63be
00000360: 7040 b1bf 068a a73f b6bf a9bf 86dd a03f
00000370: 5d48 c1bd 371d 7d3f 1882 93bf d3d4 523f
00000380: a362 cabe e3eb adbe 89c2 a1be d8be 8abf
00000390: 1cd8 543f 1289 03bd 3cae 38bf 54ce 0d3c
000003a0: 7402 6d3f 6164 2d3f d44e 5dbf 9e81 a0bf
000003b0: febe 57bd 33ef 5f3f 7b5d 9abd 226b 493f
000003c0: 55d9 053f 8f7d 6cbd 725a 333f 1ac5 90be
000003d0: 3bf9 3cbd ca5e c53e 1709 04bf 6507 3ebf
000003e0: b0d8 6fbf 3f24 adbe 2d80 223f 4b01 0ac0
000003f0: 77b9 cd3f 4058 b7bf 72fd c73f c232 81bf
0.10933901 0.17853622 -0.15104033 0.0890301 0.1874675 0.27616334 -0.115729615 -0.22692414
-0.10248871 0.08772373 -0.13883203 0.4491146 0.21717662 0.1078992 -0.24784942 0.083904564
0.06775319 0.04301795 -0.049671378 -0.14486732 -0.7548833 1.6243727 -0.6153712 1.2906772
-0.060477898 -0.8356062 -0.49774924 -0.93019366 1.2301451 0.34902704 -0.590806 0.05939454
0.29848492 0.30322206 -1.3566422 -0.932939 0.55573314 0.3134411 0.7277308 -0.17604986
0.28298214 0.4131604 0.59496415 -0.6049176 0.36269292 -0.03540449 0.059590843 0.3771257
0.044216245 0.29456425 -0.21320099 0.19865662 -0.23767842 0.3744196 0.31013587 0.6259482
-0.057125703 -0.75525296 -0.21744707 -0.19236782 0.020660859 0.4123467 3.556932e-05 0.6787056
0.395905 -0.052388843 0.37047604 -0.13973552 0.06700844 -0.2724655 -0.2774765 0.016402913
-0.4097966 -0.46989 -0.17395766 -0.14382438 0.19432852 -0.15122946 -0.11130523 -0.8263567
-0.07280762 0.21485034 0.035507947 0.11075535 0.115868576 -0.2137576 -0.07888137 0.32696635
0.14691006 0.05420283 -0.003100561 -0.112515405 -0.0040632924 0.013256001 0.00072391523 0.26908424
0.04604467 -0.010238913 -0.011316601 -0.060327917 0.29734543 -0.2956111 0.5879065 0.31942075
-0.32324898 -0.25416106 0.064484835 -0.6841462 -0.71618474 0.030053481 0.03397423 1.1109296
0.37440547 -0.47575313 0.06286631 -0.20779037 1.018596 0.91763407 2.6604724 -0.40626717
-1.5747894 -0.39885786 -0.6762885 0.2103152 -0.09769038 2.296761 0.695451 0.12701084
0.48451322 0.09044883 -0.131699 0.0057095117 -0.27380162 -0.06086995 -0.22999437 0.18494998
-0.7017784 -0.7668038 -0.22836275 -0.48217168 0.19635217 0.40586552 -0.38864547 -0.24666584
0.28590712 -2.629379 -0.4272279 0.2121938 -0.055938676 0.14541598 -0.03698211 -0.42640498
0.50326437 0.070279755 0.064961344 0.052508913 -0.09679464 0.53596276 -0.12153462 -0.2943613
-0.2054699 0.0027646886 -0.26033077 0.146161 -0.16418855 0.1840101 -0.5409464 0.37741476
-0.174186 0.11215526 -0.16258445 -0.23378378 -0.2909957 -0.10820669 0.13947874 0.08526037
-0.019042326 -0.037496176 0.010390147 -0.34819016 -0.6406462 0.43391827 -0.43062457 -0.15936556
0.8594554 0.5586652 -0.920764 0.09323515 -0.07231603 0.41360947 0.16117609 1.0288472
-0.82622945 -0.386289 -0.03324699 -0.8311768 0.76722676 0.25476712 0.5683796 -0.099475026
0.40300244 0.15108217 -0.49063566 0.42425475 0.727918 1.7088776 1.090207 -0.20957829
-0.68065006 -1.1191427 0.04217308 -0.95211434 -0.09141064 -0.77402693 -0.52076507 -0.22256507
-1.384779 1.3088996 -1.326163 1.2567604 -0.0943763 0.98872703 -1.1524076 0.82355994
-0.3952838 -0.3396903 -0.3159373 -1.0839491 0.83142257 -0.032113142 -0.7214086 0.0086551495
0.9258187 0.6773129 -0.8644841 -1.2539556 -0.05267238 0.87474364 -0.07537361 0.78679097
0.5228475 -0.05773693 0.70059884 -0.28275377 -0.046136122 0.3854888 -0.5157637 -0.74230033
-0.93690014 -0.33816716 0.6347683 -2.156329 1.6072224 -1.4323807 1.562422 -1.0093615
