sparrow/data/networks/pscore/pscore_predictor_network_v3.pt (torch, 23331 bytes, 17 tensors)

module.lstm.weight_ih_l0 f4 [40, 20]
000000 c6 fd 55 3e 73 9d aa c0 04 59 32 bf 74 30 9d 3e
       0.20897588 -5.33172 -0.6966708 0.3070103
000010 a9 1b ad be 73 fd ef be 27 20 b4 bf ee 91 c9 3e
       -0.33810166 -0.46873054 -1.4072312 0.39369148
000020 57 25 7d be f9 f9 e1 3e 83 9b cb bd ce 13 9a bf
       -0.24721275 0.44136027 -0.09941771 -1.2037294
000030 6d 02 06 bf 76 07 1f be ef eb 9d bd b7 8e f5 bd
       -0.5234745 -0.1553019 -0.077110164 -0.11990111
000040 ce 22 45 be 4e ca 53 3e 4c 48 64 bf 94 04 eb be
       -0.19251558 0.20682642 -0.89172816 -0.4590193
000050 02 75 1c bf 18 dd db 3d b4 d1 a8 3c fb ed fa 3e
       -0.6111604 0.1073553 0.020607807 0.4900969
000060 98 56 35 3f 7c 5c 00 be 3d 93 e7 be 85 b9 22 3f
       0.70835257 -0.1253528 -0.4522952 0.6356433
000070 92 6c d3 bd eb df 2b bf 44 13 f1 bc 3e 71 5d 3f
       -0.103234425 -0.67138547 -0.029428132 0.8650092
000080 f6 34 55 c1 d7 e6 52 bf e1 42 d1 3e 37 8c da be
       -13.32543 -0.82383484 0.40871337 -0.426851
000090 e8 a7 d8 3e 87 61 55 3f ef 08 69 bf 91 09 44 3e
       0.42315602 0.8335194 -0.91029257 0.19144274
0000a0 5f dc d3 3e 42 ac c1 3f 3d 28 a6 bf e1 a2 22 bf
       0.41379067 1.5130694 -1.298103 -0.63529783
0000b0 da 51 da 3e 23 95 00 3f 2d 74 25 bf 03 c3 55 bf
       0.42640573 0.50227565 -0.64630395 -0.8350069
0000c0 97 62 34 3f 22 21 ba be ee 58 7b 3f 0e 3a 23 3f
       0.70462936 -0.36353403 0.9818257 0.6376046
0000d0 26 12 9f 3e 98 cf 8f bd 18 33 39 40 22 d5 9f 3e
       0.31068534 -0.07022017 2.8937435 0.31217295
0000e0 1b ef 9a 3f c2 40 e3 bd 60 02 b7 bf 53 f1 6b 3f
       1.2104219 -0.11096336 -1.42976 0.92165107
0000f0 8c fa 25 40 e3 f4 36 bf 18 09 47 bf 46 d6 30 3f
       2.5934172 -0.7146742 -0.7774825 0.69076955
000100 aa db 25 3f 32 1f 99 3f aa 59 e1 bf 2f 2e 88 3f
       0.64788306 1.1962645 -1.7605488 1.0639094
000110 b9 27 3b 40 e0 21 29 3f b3 9c 84 3f eb 26 5a 3f
       2.9242995 0.66067314 1.0360321 0.85215634
000120 8b c2 83 be e3 62 b3 3f 63 31 84 3f f7 fe 7c be
       -0.25734362 1.4014553 1.0327572 -0.24706636
000130 62 92 17 40 3b ff 71 40 8c ad 17 c0 67 58 18 3f
       2.3683095 3.781203 -2.3699675 0.5950989
000140 b3 1d 91 bf f6 2d 9b bf 7c a4 9c bf 3f 65 83 3e
       -1.1337188 -1.2123401 -1.2237697 0.25663182
000150 85 b9 38 3d d9 ea 79 3d f0 62 ab 3f 02 6a d0 be
       0.0450988 0.061014984 1.3389568 -0.40705878
000160 97 c8 cb be c1 54 58 bf 77 1d be bf ec 42 c0 bf
       -0.39801475 -0.84504324 -1.4852742 -1.5020423
000170 9a 53 4a c0 d6 cf 81 3f 08 7b 83 3d dc 1d 5e 3e
       -3.1613526 1.0141551 0.06419951 0.21691078
000180 af a7 54 3e 19 88 bf bd 3b 39 a9 bf 3e 6e b0 bd
       0.20767091 -0.093521304 -1.322059 -0.08614777
000190 93 d3 63 3e cb e8 8a bf ae 75 93 bf 15 4f 06 3f
       0.22248678 -1.0852293 -1.1520288 0.5246442
0001a0 eb 5f 75 bf fa 91 ed bd 48 ce 21 c0 ef 11 91 bd
       -0.95849484 -0.116001084 -2.5282154 -0.07083499
0001b0 4c 7a 2a bf cd 44 23 3e 6d 37 3f be b6 4c bb be
       -0.6659286 0.15944214 -0.18673487 -0.36581963
0001c0 03 5c ea be a8 11 84 be cd aa 38 bd 3a b7 93 bf
       -0.45773324 -0.2579472 -0.045084763 -1.1540291
0001d0 17 e2 19 c0 4d 6c 10 bf 27 19 e4 be f3 97 38 3e
       -2.4044244 -0.56415254 -0.4455044 0.18026714
0001e0 c3 d7 87 be 59 2a 0c 3f ed 2c 13 bf ca e5 d8 be
       -0.265318 0.5475212 -0.57490426 -0.42362815
0001f0 d2 df c8 3e 1c 76 dc ba 1f 95 99 bf 51 f0 a3 3c
       0.3923326 -0.0016819867 -1.1998633 0.020012053
000200 21 be b4 be 4e 35 2c be 42 8d a5 3d 03 27 b7 be
       -0.35301307 -0.16817209 0.080835834 -0.3577195
000210 4d 8c 68 be 2b 81 95 bf 65 96 fa be 25 a5 e1 bf
       -0.2270977 -1.1680044 -0.48942867 -1.7628523
000220 05 df d4 bf 72 ba 3a bf 95 3d f3 bf 30 6f 37 bf
       -1.663056 -0.7294074 -1.9003168 -0.71654034
000230 4b 17 4a bf 2f aa 3e 3e fe 1a cd be 40 b9 e2 3e
       -0.7894179 0.18619607 -0.40059656 0.4428196
000240 9c ea 6b c0 88 67 30 be 64 53 7e 3c ac 53 82 3f
       -3.6861944 -0.17226994 0.015522812 1.0181785
000250 66 7a fb bc 93 f5 c0 3f e9 4f f4 3e 93 03 12 bf
       -0.030698013 1.5074943 0.47717217 -0.57036704
000260 df 82 90 be f7 6a 8b 3f fa 4c 93 bf 17 c3 08 c0
       -0.28224847 1.0892018 -1.1507866 -2.1369073
000270 b7 30 26 bf 07 9a 07 be 28 bd bd 3e bc 13 17 c0
       -0.6491808 -0.1324235 0.37058377 -2.3605795
000280 8b 8e f3 3e b3 50 42 bf a8 9c 1a bf 86 fc 8e 3e
       0.4756969 -0.7590439 -0.6039529 0.27927035
000290 66 6a 95 bf 90 57 df be 65 ea 6a be 0d ff ef 3e
       -1.1673095 -0.43621492 -0.22940977 0.46874276
0002a0 52 d8 0e bf 78 11 45 3f a6 de bd bd ce 04 90 bf
       -0.5579883 0.7697978 -0.092709824 -1.1251466
0002b0 d6 dd 91 bf da 09 c9 bf 5a 33 2f 3f 38 a3 c9 be
       -1.1395824 -1.5706131 0.6843773 -0.3938234
0002c0 17 77 e6 3e 78 b4 5f 3f e3 88 a8 3f d3 73 50 3f
       0.45012733 0.8738475 1.3166775 0.81426734
0002d0 b6 0f 83 bf 41 21 ef bf c5 93 95 be 87 53 d7 3e
       -1.023917 -1.8682023 -0.29214302 0.42055914
0002e0 4e 28 3e c0 58 57 d1 bc 66 24 2e bf 9b 55 45 be
       -2.97121 -0.025554344 -0.6802429 -0.19270937
0002f0 01 85 89 3f 74 10 1c 3f f0 0e 6e bf 2b e1 26 bf
       1.0743715 0.60962605 -0.9299154 -0.6518733
000300 5b ef b7 3e 99 3b 0c bf 34 0d 04 3f c0 55 4c c0
       0.359248 -0.5477844 0.51582646 -3.1927338
000310 30 a1 43 bf 4b 65 15 3f 26 c6 ec bd 94 73 c6 bf
       -0.7641783 0.58357686 -0.11561231 -1.5504022
000320 12 be 16 3f a1 70 7e 3f 86 72 b7 3e 2a 04 9f 3f
       0.58883774 0.9939061 0.35829562 1.2423146
000330 d5 bd a4 3f 18 97 74 40 80 3a 8c 3e 10 15 4b 3f
       1.2870432 3.821722 0.27388382 0.79329014
000340 ec 37 75 3f 6f 3c 1f 40 30 47 35 40 f2 49 9d 3e
       0.95788455 2.4880636 2.83247 0.30720478
000350 8f 1b 68 3f 9b 23 1f 40 85 f6 84 3f a4 e3 b9 3f
       0.9066705 2.4865482 1.0387732 1.4522595
000360 db b3 20 40 65 91 c6 3f 3b ea 17 3f 9b 5b 98 3e
       2.5109775 1.5513121 0.5934178 0.2975739
000370 78 53 78 be 11 74 58 3f 87 bc 50 3f 90 71 fe 3e
       -0.24250591 0.84552103 0.8153767 0.49696016
000380 87 d9 ac 3f 42 11 68 40 6d dc ae 3e 37 a4 60 bf
       1.3503884 3.6260533 0.34152547 -0.8775057
000390 c1 81 92 be 98 15 cf bf 17 f2 07 bf d6 21 84 3f
       -0.2861462 -1.6178465 -0.53103775 1.0322826
0003a0 56 18 04 be 81 27 32 3f d3 33 a4 3e 52 b3 c0 3e
       -0.12899908 0.6959153 0.3207079 0.3763681
0003b0 1a 70 7e 40 3a 33 ce be 04 48 b4 40 34 80 86 bf
       3.9755921 -0.40273458 5.633791 -1.0507874
0003c0 bc a8 7c bf fb e1 d7 be c1 87 a1 3e 05 7c 3e 3f
       -0.9869497 -0.42164597 0.31548885 0.7440799
0003d0 b9 2b e0 3f 25 28 2d bf e2 f2 55 3f 6a e9 1a bf
       1.7513343 -0.6763938 0.83573735 -0.6051241
0003e0 b2 4d 01 3f 41 e4 91 bf c3 6f 09 be a3 8e 07 40
       0.5050918 -1.1397783 -0.1342154 2.1180809
0003f0 ab 47 c2 bd 2c 52 ac be c5 98 67 be 51 a8 45 3f
       -0.09486326 -0.33656442 -0.2261687 0.77209955

module.lstm.weight_hh_l0 f4 [40, 10]
000000 18 83 c0 3f e5 98 0e 3f 5c 11 93 3f 8f dc ad bd
       1.5040007 0.5570205 1.1489673 -0.08489334
000010 22 b9 af be f9 d1 d6 bf ab 5b 13 3f 75 a6 7a 3f
       -0.34320933 -1.6782829 0.5756175 0.97910243
000020 dc c5 5a 3f c5 94 70 3f 9f 49 96 bf f2 22 85 bd
       0.8545816 0.93977004 -1.1741217 -0.06500806
000030 4c 64 e2 be 79 2b 9a 3f 66 9b c9 3f 7c ea 5f bf
       -0.44217145 1.2044517 1.5750549 -0.8746717
000040 62 85 c9 bd 14 a7 b2 3f 7b 84 3a 3e e4 be 6b bf
       -0.09839894 1.3957238 0.182146 -0.9208815
000050 e4 69 97 3d 18 b9 55 3f 66 68 c3 bf 57 32 db 3f
       0.07393244 0.83485556 -1.5266235 1.7124738
000060 89 eb 9b 3f 6e 41 8f bf d1 d4 40 3e 9e 2f 1a 40
       1.2181255 -1.1191843 0.18831183 2.4091563
000070 78 40 4a 3f 4c f2 be 3f af 50 fb 3e 59 81 86 bf
       0.7900462 1.4917693 0.49084994 -1.0508224
000080 99 df 4d 3f 31 1c 62 3f de 04 64 3f b4 11 36 40
       0.8041931 0.88324267 0.89069927 2.8448305
000090 7c 52 31 3f 21 a4 ea 3b e8 13 55 40 16 f8 f9 bf
       0.69266486 0.007160679 3.32934 -1.9528835
0000a0 57 c4 a8 bf 2e 01 1c bf 69 4e d9 be c1 4e 9f be
       -1.3184918 -0.609393 -0.42442635 -0.31114772
0000b0 1c 82 7a be bd d9 39 c0 25 d5 21 3f ae 5b 22 3f
       -0.24463695 -2.9039147 0.6321586 0.6342114
0000c0 8e 8a ca 3c 03 bb a1 3e 41 ab e5 bd e9 df 89 3f
       0.024724271 0.3158799 -0.11214305 1.0771457
0000d0 d2 f5 c3 bc fa 24 fe 3e 97 3d 90 3e 29 b1 b7 bd
       -0.023920927 0.49637586 0.2817199 -0.089693375
0000e0 48 fd 50 bd 43 c0 3f 3f 57 87 a0 3e 81 f4 ac be
       -0.051022798 0.74902743 0.31353256 -0.33780292
0000f0 ef 4c 29 bf bb 6f 81 3e 75 fc 42 3e 4d 22 0a 3e
       -0.66133016 0.25280556 0.19041617 0.13489647
000100 2b c9 99 bf f5 ef 72 bf b5 89 ba bd 9e b6 72 bf
       -1.2014517 -0.94897395 -0.09108297 -0.948099
000110 df cf 71 3d ce 54 8c be 96 fe 4f bf ba 2e 20 3f
       0.059036132 -0.2740845 -0.8124784 0.625713
000120 4e 60 ae bf 59 7d 02 c0 54 84 8f bf 36 1b 09 3f
       -1.362314 -2.0389006 -1.1212258 0.53557146
000130 6b b9 5b bf bd 33 5d bf 0c 55 89 3e 48 bb 02 bf
       -0.858298 -0.8640707 0.26822698 -0.5106702
000140 8b d5 d0 bf e2 c4 f7 be ed d6 cb bd c6 04 2c 3d
       -1.6315168 -0.48392397 -0.09953103 0.04199674
000150 c2 38 2c 3d 3e 0b e9 bf a6 39 04 be 2e 3d 70 3f
       0.042046316 -1.8206556 -0.12912616 0.9384335
000160 b9 b9 42 3f e2 d4 4c bc c4 cd 27 3d 19 71 9c 3f
       0.7606464 -0.012501927 0.040967718 1.2222015
000170 47 ad 7e bf ee 89 9a be 2b 88 a3 3f 73 0d ad 3d
       -0.9948315 -0.30183357 1.277593 0.08449831
000180 3a a4 32 3f 83 2a ce 3d 5e d7 b1 bf 3e bd 65 bf
       0.6978184 0.10066702 -1.389385 -0.89741886
000190 1e 83 93 bf 5a 2c 4a bf b1 9d 71 3f 73 ec 16 3f
       -1.1524389 -0.78973925 0.94381243 0.5895454
0001a0 7b 7d 81 bf 01 06 d6 3f b4 9b 9c 3f b5 ff db bd
       -1.0116419 1.6720582 1.2235017 -0.107421316
0001b0 eb bc cc be 3d fd b8 3e 7b 36 97 3f f4 57 e7 3f
       -0.39987883 0.36130705 1.1813501 1.8073716
0001c0 bf 19 87 bf 14 fe 67 3e b8 6a ad 3e a2 fd 93 be
       -1.0554732 0.22655517 0.33870482 -0.28904444
0001d0 37 74 2d bf c8 7c 80 3e 37 2e d0 3e 28 a2 db 3f
       -0.67755455 0.250952 0.4066026 1.7158861
0001e0 e8 6d e1 3e ab 3a 1d 3f 09 89 e6 be 90 c7 a9 be
       0.44029164 0.61417645 -0.45026425 -0.33160067
0001f0 4c 8a c5 be 27 52 d7 3f cd eb 92 3e c0 bc 98 bf
       -0.38582075 1.6821946 0.28695527 -1.1932602
000200 58 3c 02 c0 fd 4e 3d be e9 60 a5 3e ab b8 55 3f
       -2.034933 -0.18487163 0.323005 0.83484906
000210 0b cf 26 40 d5 97 e3 3f b4 37 62 bf ac c6 e9 3f
       2.606387 1.778071 -0.88366246 1.8263755
000220 3d 18 00 3f 77 d2 0d bf 7c 2d 47 bf 1c 3d 01 c0
       0.50036985 -0.5539927 -0.7780378 -2.0193548
000230 02 b4 70 3f dd 67 99 3f c7 7c 0f 3f 6e e0 9c bf
       0.9402467 1.1984822 0.5604977 -1.225599
000240 5c f1 b8 3f cf ba 1e 40 14 66 c4 bc 4d 92 15 3f
       1.4448657 2.480152 -0.023974456 0.5842636
000250 57 64 d5 bd 1d 1f 30 bf 1d f6 b6 be 4c 74 a4 bf
       -0.10419529 -0.68797475 -0.35734645 -1.2847991
000260 a1 2e 37 3f 2a a4 ad 3d bd ba ac bf 84 a7 32 be
       0.71555525 0.084785774 -1.3494488 -0.17446715
000270 34 be c3 3c 5a 72 21 bc 71 83 34 3e 16 a5 50 3f
       0.023894407 -0.009853924 0.17628266 0.815019
000280 0f 30 b2 3f 16 80 c1 3e 77 0b f2 be 74 ab 0e 40
       1.3920916 0.37793034 -0.47274372 2.2292147
000290 2a de 78 be c9 c4 3f 3e 04 83 0a bf e8 6c b5 be
       -0.24303499 0.18727411 -0.54106164 -0.3543465
0002a0 b3 c1 94 3f c3 f2 36 bf 61 f6 95 3f 23 b4 b7 bf
       1.1621612 -0.71464175 1.1715814 -1.4351848
0002b0 b5 76 19 40 aa 8e 50 3f 64 74 7d be ce ac 00 3b
       2.3978703 0.8146769 -0.24751431 0.001963425
0002c0 8a 93 91 be d1 40 3e bf 03 91 a0 3e aa d7 66 3e
       -0.28432876 -0.7431765 0.31360635 0.22543207
0002d0 35 e6 90 3f c1 ae a6 bf a9 2c b4 3f da c7 06 be
       1.1320254 -1.3022081 1.4076129 -0.13162175
0002e0 e2 28 cd bf 45 ef e7 bf 68 e9 57 bf 5d 98 f3 3d
       -1.6028101 -1.8119894 -0.84340525 0.11894295
0002f0 ad 59 63 be 12 ae 56 bf 4f cc 12 3e e1 94 08 3f
       -0.22202177 -0.8385936 0.1433575 0.5335217
000300 9d f1 7a 3f d6 35 9f bf 1e a1 96 bf 96 20 77 3f
       0.9802492 -1.2438304 -1.1767919 0.965341
000310 e9 4c 77 3f 2d 14 72 bf 50 3c 62 bd ea 34 a9 3d
       0.9660173 -0.94562036 -0.0552333 0.08262046
000320 17 ad 0b c0 46 b8 09 bf ca af 29 bf 2e 2b 50 bf
       -2.1824396 -0.53796804 -0.6628386 -0.81315887
000330 52 2a 33 3f 23 86 46 bf 17 d9 f4 bf d2 d0 d8 bf
       0.6998645 -0.77548426 -1.912875 -1.6938727
000340 5a ce 2f 40 ad 83 e9 3d 9b d4 ff be 41 4f 24 c0
       2.7469697 0.11402068 -0.49966893 -2.5673373
000350 77 06 3b 3f 14 37 db bf 01 47 0d c0 e6 fb 8b bf
       0.7305674 -1.7126184 -2.2074587 -1.0936248
000360 5a 8e a4 bf 2f 84 e9 bf 32 57 a6 bf 26 89 54 3f
       -1.2855942 -1.8243464 -1.299536 0.8302177
000370 03 b5 1e be a7 8e 16 3f bd ed 96 be 5b 05 e2 be
       -0.15498738 0.5881142 -0.29478255 -0.4414471
000380 dd ae 01 3e 90 33 f2 3f 6a 43 a8 be b6 29 41 3f
       0.12664361 1.8921986 -0.32863933 0.7545427
000390 cc ea 00 3b 50 f5 89 3f b3 68 05 bf 32 70 63 40
       0.00196712 1.0777988 -0.52112883 3.5537229
0003a0 16 c4 87 3f df f4 ad 3d 74 00 c3 bf cc b4 a1 be
       1.0606716 0.08493971 -1.5234513 -0.3158325
0003b0 b4 30 15 3d ca d6 7f 3f 70 cc 1f 40 0d db ed bf
       0.0364234 0.9993712 2.4968529 -1.8582474
0003c0 d8 27 b2 be a4 a6 56 bf e5 ca 3d 3f ac 41 04 bf
       -0.34796023 -0.83848023 0.7413772 -0.5166271
0003d0 bd 8b 92 bf 95 6a bf 3f 89 0d b3 bf bc 52 fc 3e
       -1.1448895 1.4954401 -1.3988506 0.4928187
0003e0 53 c2 01 40 e9 50 bb be 90 b9 84 bf f3 ff 96 bf
       2.0274856 -0.36585167 -1.0369129 -1.179686
0003f0 a3 e5 e7 3f 4c f7 fe be b9 de f2 3e ea 0a 59 3f
       1.8116955 -0.49798048 0.4743555 0.8478228

module.lstm.bias_ih_l0 f4 [40]
000000 21 78 02 c0 d8 f3 88 bf 5f fd c0 be 67 2e a2 bd
       -2.038582 -1.0699415 -0.37693307 -0.07919007
000010 05 1e 7a be 7b 49 84 bf 7a ee ab bf 57 5f 81 bf
       -0.24425514 -1.0334924 -1.3432152 -1.010722
000020 dc ba ca be da d0 15 bf db eb c3 3f 94 5a 4f 3f
       -0.39595687 -0.5852181 1.5306352 0.80997586
000030 7e 86 07 3e 18 8e 18 be f7 b4 7a be 0c 52 6b 3f
       0.13234898 -0.14897954 -0.24483095 0.9192207
000040 af 4c 65 3f ef 61 ec 3e d1 b8 ae 3e cd f6 f4 3e
       0.89570135 0.46168467 0.3412538 0.47844544
000050 f5 54 f6 3e 86 56 48 be 4e 03 89 3e 11 46 9c be
       0.48111692 -0.19564256 0.26760334 -0.30522206
000060 73 0b 67 be f5 02 4a bd 41 9b cc bc ab 5a 4c be
       -0.22562961 -0.049319226 -0.024976375 -0.19956462
000070 ba be 7e bd 6e 42 1d 3f d0 78 91 3e ba 35 14 be
       -0.06219361 0.6142949 0.28412485 -0.1447362
000080 da 6e ce be 6e e5 b0 be 6f e6 8c bf f1 f3 3f 3f
       -0.40318948 -0.3455004 -1.1007823 0.749816
000090 6f 78 c2 bd 63 6b db be aa 6d 51 be 7a f1 95 be
       -0.09495627 -0.42855367 -0.2045199 -0.29285794

module.lstm.bias_hh_l0 f4 [40]
000000 bf 10 d9 bf 8f bd 7a bf ba 25 80 be 26 bb d1 be
       -1.6958236 -0.97945493 -0.25028783 -0.40963095
000010 95 fd 12 bf 27 1f af bf d7 59 93 bf df 4c 1f bf
       -0.57418185 -1.3681382 -1.1511792 -0.6222667
000020 b1 7b 24 bf dd 77 47 bf 25 d7 c2 3f 69 07 6f 3f
       -0.6425124 -0.7791727 1.5221907 0.9337068
000030 df 51 ec 3d 5e 2f 5d bd d4 58 06 3e 3d 28 2d 3f
       0.11539053 -0.05400025 0.13119823 0.67639524
000040 29 c5 92 3f 76 99 f3 3e 79 81 50 bd 60 ef e8 3e
       1.1466419 0.4757802 -0.050904725 0.4549513
000050 e0 8e 62 3f a8 9d c4 bd f3 66 86 3e f0 02 34 bf
       0.8849926 -0.09600383 0.2625042 -0.7031698
000060 3d c2 a8 be a4 6b 7b be 6f fd 70 bd 67 ad 30 3e
       -0.32960692 -0.2455278 -0.058835443 0.17253648
000070 98 9c 72 be f1 e5 79 3e 46 db d7 3d 82 b4 33 bf
       -0.23692548 0.24404122 0.1053987 -0.7019731
000080 d2 c3 88 be 05 48 0f bf 46 da 96 bf 16 d4 25 3f
       -0.267119 -0.5596927 -1.1785362 0.6477674
000090 69 5d 23 be b4 71 9a be 7d 85 23 3e 01 17 9e be
       -0.15953602 -0.30164874 0.1596889 -0.30876926

module.lstm.weight_ih_l0_reverse f4 [40, 20]
000000 f8 88 02 bf 2d 20 84 bd 9d c5 3e bf ed 44 08 bf
       -0.5099025 -0.064514495 -0.74520284 -0.5323017
000010 0c bb b2 3e 79 70 b3 3e 42 8b b1 be b6 91 9d 3d
       0.3490833 0.35046747 -0.34676558 0.07693808
000020 3f dd 5f 3e e2 16 80 3e 55 e0 f9 bf 9a 3a 93 be
       0.21861742 0.25017458 -1.9521586 -0.28755647
000030 0d c0 34 3f c3 e0 2f c0 89 82 c4 be 98 c6 12 bf
       0.70605546 -2.7480934 -0.3838084 -0.5733428
000040 15 c2 9d be 6b 49 59 3f b3 35 63 bf 07 d9 6a 3f
       -0.30812135 0.8487765 -0.88753814 0.9173741
000050 5a 33 b1 3e a7 ce 01 3f 18 0d 28 bf 50 2d 40 bf
       0.3460949 0.5070595 -0.6564498 -0.7506914
000060 43 33 47 3f 2b 2c 4e 3f 2c dd 24 3f 04 8f ee 3e
       0.77812594 0.80536145 0.6439998 0.46593487
000070 00 70 3b bf ef 23 15 3f a2 84 f3 3e a4 ee 02 bf
       -0.73217773 0.58257955 0.47562128 -0.51145387
000080 19 8c cd 3e be 9c 02 bf 4c d0 14 be 07 aa fc 3e
       0.4014595 -0.5102042 -0.14532584 0.4934847
000090 3e fc 34 3f 1c cf cc 3e 06 5b 7d 3e cd 33 19 3e
       0.7069739 0.40001762 0.24741754 0.14961167
0000a0 9d 1e 83 c0 05 df 88 bf 41 5f a1 bf 29 f4 ca bd
       -4.097487 -1.069306 -1.2607194 -0.09909851
0000b0 4e 03 4d 3e aa 7f 69 be 90 77 12 bf a5 37 10 3f
       0.20020792 -0.22802606 -0.5721369 0.56334907
0000c0 30 a1 16 bf 82 a9 33 3f 37 eb 93 be 3d 05 b9 3c
       -0.588397 0.70180523 -0.28890392 0.022585506
0000d0 dd c6 71 c0 d9 24 93 be 9d ad b2 bf ab 31 08 bf
       -3.7777627 -0.2873905 -1.3959233 -0.5320079
0000e0 1f 52 81 bf 2b 1d 8f 3e 5f 72 e3 3d 6b 23 6a 3e
       -1.0103186 0.2795194 0.11105799 0.22865073
0000f0 f1 6b 77 3f 2a 6f e9 3e 56 ec c9 3e d7 de 87 3f
       0.9664908 0.45592624 0.39438123 1.061488
000100 0c fd a4 bf 98 35 83 3e f8 3d b3 c0 bf 57 be 3f
       -1.2889724 0.25626826 -5.6013145 1.4870528
000110 f9 37 0b 3f 83 fa 94 3f f4 33 8d 3f d0 b5 85 3f
       0.5438228 1.163895 1.103148 1.044611
000120 89 fe 18 bf e6 95 64 3f 88 b4 3a 3f 9f b0 66 3f
       -0.5976339 0.89291227 0.7293172 0.9011325
000130 2a 1e 1d 3f d7 c3 a2 3f 72 4a 75 bf 0b a9 69 3e
       0.6137415 1.2716016 -0.9581672 0.22818391
000140 27 d5 23 3e 01 df ee bf 0a ed d6 3e ff c1 95 bf
       0.1599928 -1.8661805 0.4197772 -1.1699828
000150 40 ba 6d 3f 08 4c fb 3e 89 e9 23 bd f0 96 8e 3e
       0.9286232 0.49081445 -0.04001764 0.2784953
000160 e1 b9 e7 3e 87 23 d9 3e 50 35 f3 bd 4a 9e d1 3e
       0.45259002 0.42409918 -0.11875403 0.40941077
000170 1e 47 0a 3f 99 74 c3 be 12 69 90 3e 25 34 3e bd
       0.54014766 -0.38174894 0.28205162 -0.046436448
000180 58 53 19 be b1 bb 5b 3e 67 0d 38 3f 42 47 b5 3e
       -0.149732 0.21458317 0.7189545 0.35405928
000190 3b 5a 15 3e d7 01 0b be 5e 41 a9 bd df 49 df bd
       0.14585201 -0.1357492 -0.08264421 -0.10902762
0001a0 64 a5 62 3e 23 d6 a2 be 2c 7b 99 be 90 5f 76 3f
       0.22133404 -0.31803998 -0.29976785 0.96239567
0001b0 b3 32 aa 3e 1a ed 6a 3f 01 48 4a 3f 07 c0 d8 be
       0.33241805 0.9176804 0.7901612 -0.42334005
0001c0 98 d9 0d bf f5 b6 06 3f cb 1a a5 3b 03 16 dd 3c
       -0.55410147 0.5262292 0.0050385944 0.026988035
0001d0 ae 94 9d 3e ba 15 18 3f 05 86 d0 be 2c 62 0c bf
       0.30777496 0.5940815 -0.4072725 -0.548373
0001e0 73 f0 f3 be e9 79 ba bf 0c 18 a5 bf 8a e2 09 bf
       -0.47644386 -1.4568454 -1.2897964 -0.53861296
0001f0 35 49 90 bf da 16 56 bf 4d 68 2f c0 b4 92 19 be
       -1.1272341 -0.8362862 -2.740741 -0.14997369
000200 d4 b2 9d be 26 3d 5a 3d 0e 04 e7 be 4a 48 8c bf
       -0.30800498 0.053280972 -0.4512028 -1.0959561
000210 d7 31 5a bf 9b e5 88 bf aa 49 4f bf b4 df 2e bf
       -0.852323 -1.069507 -0.8097178 -0.68310094
000220 f8 eb 55 bf 07 0e 9c be b2 90 1c bf e6 2c 8f bf
       -0.83563185 -0.30479452 -0.6115829 -1.1185577
000230 a5 e2 27 3d 6a ac 35 c0 19 27 24 bd ca 60 0b be
       0.04098763 -2.8386483 -0.04007635 -0.13611141
000240 e0 f8 5c be 77 6b b1 3e 43 fb 10 bc 85 67 0d bf
       -0.21579313 0.34652302 -0.008848968 -0.55236083
000250 0f 22 d7 bd b3 7d 2e bf d0 02 f0 be a6 5b 87 bf
       -0.10504543 -0.6816055 -0.46877146 -1.0574844
000260 2a 77 71 bf 53 de 62 bf 69 00 d3 be 4d 62 a0 3d
       -0.94322455 -0.8862049 -0.4121125 0.078312494
000270 26 4e 27 be 21 1c b2 be 26 68 12 40 6d 39 f6 3e
       -0.16338405 -0.34787086 2.2876067 0.48090687
000280 29 4f b3 bd c7 70 a5 bf d0 6f 86 bf 2e 42 c8 bd
       -0.08755333 -1.2925042 -1.0502872 -0.09778248
000290 b7 b1 83 3f 2c 35 58 bd ee f5 a6 3e 6b a3 2f 3f
       1.0288609 -0.052785084 0.32609504 0.6860873
0002a0 66 65 d1 3e 4c 86 54 3f a5 5a b9 bd b1 dc f6 be
       0.40897673 0.8301742 -0.09050492 -0.4821525
0002b0 4f e9 a3 be 2f 87 83 3e f3 e5 2a 3f d2 7c 11 bf
       -0.32013938 0.25689074 0.66757125 -0.56831086
0002c0 67 45 b4 bf c3 cb b0 3e 45 ff 39 3f 63 10 3f 3f
       -1.408368 0.34530458 0.72655135 0.7463438
0002d0 71 d7 6e bf ac c4 ef bf a3 5c 45 3f 62 63 52 3f
       -0.9329749 -1.8731894 0.7709448 0.82182896
0002e0 1d 67 89 3f 95 71 fc c0 71 69 1b 3f d4 06 c6 bf
       1.0734593 -7.888865 0.60707766 -1.5470834
0002f0 92 20 c0 3e d9 ce a8 bf 09 33 f7 be d4 33 20 3f
       0.3752485 -1.3188125 -0.48281124 0.62579083
000300 cc 39 9b be 84 b2 84 3f 9d cb ae 3f dc c9 92 bf
       -0.30317533 1.0366979 1.3655888 -1.1467853
000310 53 f4 68 bf 19 81 fb be 51 1a aa 3f 4c 94 a3 3f
       -0.9099781 -0.4912193 1.3289281 1.2779632
000320 15 c1 62 3e 72 dc 19 bd 28 0c cf 3f b7 14 85 3f
       0.22143967 -0.03756375 1.6175585 1.0396947
000330 fd 2b ae 3f ef 12 b1 3f 42 06 03 be d7 6b da 3d
       1.3607174 1.3833903 -0.12795356 0.106651
000340 b9 34 27 3f e8 0c 4a 3e 4b fa 7a bd 26 7e 69 3f
       0.65314823 0.19731486 -0.061273854 0.9120811
000350 70 ab 4b 3e a9 94 10 bf 7e 37 55 be 1e 98 18 40
       0.19889617 -0.5647684 -0.2082195 2.3842845
000360 41 35 6c 3f 51 29 e8 bc 1c 7f f3 be 11 9c 38 40
       0.9226876 -0.028340014 -0.47557914 2.8845255
000370 b1 65 7b 3f 35 62 da 3f cf 0e 0b 3f 1c 4d c3 3e
       0.98202044 1.706122 0.5431947 0.38144767
000380 b1 99 82 3d be 85 d0 3f d9 85 41 3f 66 0a c5 3e
       0.063769706 1.6290815 0.7559486 0.38484496
000390 c4 0a bc 3e fc 25 3f 3f 88 9b 9a 3f 90 23 32 3f
       0.36726964 0.74667335 1.2078714 0.69585514
0003a0 bb 9c 8d 3f fd 4c 97 3e 30 84 73 3e 4f 87 8b 3f
       1.1063455 0.29550925 0.23780894 1.0900668
0003b0 af 92 63 3f 22 f0 ee 3e 4d 42 93 3f 42 ef c0 3e
       0.88895696 0.46667582 1.1504608 0.3768254
0003c0 74 86 39 3f 47 31 a6 3f 07 d3 e8 3e fe dd a6 3f
       0.72470784 1.2983788 0.454735 1.3036497
0003d0 9a 9c 13 3f f5 23 8e 3e 7d f9 b6 3f 10 d2 b8 3e
       0.5766083 0.27761808 1.4294888 0.36097765
0003e0 4e bc e8 3e 3b 93 26 3f 35 79 a1 3f 96 ca 2b 3f
       0.45456165 0.65068406 1.2615114 0.67105997
0003f0 0f 2c d4 3e 39 10 f2 3e c0 62 88 3f 5c 07 00 3f
       0.41439864 0.47278002 1.0655136 0.5001123

module.lstm.weight_hh_l0_reverse f4 [40, 10]
000000 db 44 28 3f a3 36 84 bf 53 f2 40 bf 60 b8 93 3f
       0.65730065 -1.0329174 -0.7536976 1.1540642
000010 a6 3b 35 be cf fc 2d 3f 01 a4 ad 3e c6 4a 58 bd
       -0.17698535 0.6796388 0.33914188 -0.052805685
000020 22 19 20 bf f9 c2 21 3f f6 99 19 bf 99 5f 9f 3f
       -0.6253835 0.6318813 -0.6000055 1.2451049
000030 04 9f e1 be ff 5e 1a 3d 12 bd b9 be 7a 9c 97 be
       -0.44066632 0.03768825 -0.36277062 -0.2961157
000040 56 c4 19 3e fe e5 4d bf 72 c2 20 bf 7b a7 09 be
       0.15016302 -0.80429065 -0.627967 -0.13442795
000050 b5 9c cc 3e 1a 5f 6f 3f 5a 32 7d bf 3d 5b 2d bd
       0.39963308 0.9350449 -0.98904955 -0.04232334
000060 96 ee 25 bf 30 01 21 3f 4b 77 f0 be ab 4c 34 3f
       -0.6481718 0.62892437 -0.46966013 0.70429486
000070 75 47 86 3f 6e eb 83 3f 80 fe 10 be 09 b4 a2 3f
       1.0490557 1.0306222 -0.14159584 1.2711192
000080 da 9d 1e bf 0a 2c 41 bf b0 27 a1 bf f2 12 8b 3f
       -0.6195961 -0.75457823 -1.2590237 1.0865157
000090 2f 88 cc be 28 2a 7d bf 5f 17 1f c0 30 a5 e9 3d
       -0.3994765 -0.9889245 -2.4858015 0.1140846
0000a0 8e 54 37 3f f5 3a 2f bf 20 ac d4 bf 97 f2 a3 3f
       0.71613395 -0.68449336 -1.6615028 1.2808408
0000b0 58 3c 25 c0 1b 04 97 bf bb 86 4a be b3 04 9c be
       -2.581808 -1.1798128 -0.19777958 -0.30472335
0000c0 f2 7d 47 3d e8 e8 8a bb 9f 81 ed bf 20 31 7b 3e
       0.048704095 -0.0042391904 -1.8555182 0.24530458
0000d0 ef 2d 60 3e e6 d2 1a c0 1e 8a 37 bf 29 2a 9c 40
       0.21892522 -2.4191222 -0.71695125 4.8801465
0000e0 fc 2b 49 bf a4 cf b4 3e ea e4 0f 40 be 66 de bd
       -0.7858274 0.35314667 2.2483468 -0.1085944
0000f0 5e d4 86 3d c7 ae eb 3e 78 2a 7b bf 44 83 c6 3f
       0.065834746 0.46031782 -0.9811168 1.5508809
000100 aa 60 5e c0 ec 78 24 be 2a 01 b2 be 3a 43 c4 3e
       -3.47465 -0.16061753 -0.34766513 0.3833254
000110 98 ff 55 3f b3 a6 78 3e 95 aa 42 be 99 05 14 3e
       0.8359313 0.2428234 -0.19010384 0.1445526
000120 53 3e 1c 3f 72 ec 20 bf d9 8a 0b 3e ef ce c7 bd
       0.610326 -0.62860787 0.13627185 -0.09756266
000130 fe c9 b4 bf 62 86 26 3d 70 1b 88 3f 9a 56 5f bf
       -1.4124143 0.0406555 1.0633373 -0.8724152
000140 76 7a 56 be a1 b0 fb 3c fd 8a a4 bd 67 8a 3b 3f
       -0.20945153 0.030723872 -0.080343224 0.7325806
000150 5d 2e 3d c0 e6 df 09 bf aa f0 09 bf 99 3f f1 bd
       -2.9559548 -0.53857267 -0.5388285 -0.117797084
000160 2a 1d bb 3f 7b f2 84 be 7d c9 b8 bc 21 b7 95 3e
       1.4618275 -0.25966248 -0.022557015 0.2924128
000170 03 93 8e be f4 52 cb be c0 2b 10 c0 3d 19 0e 3e
       -0.27846536 -0.39711726 -2.2526703 0.13876815
000180 f6 34 b8 be 00 79 c3 3e ba 66 cc 3e ed b7 f5 be
       -0.35977906 0.38178253 0.39922124 -0.47991887
000190 2d 85 09 bf 7f 95 96 3f be 38 b8 bf ab 92 79 3f
       -0.53718835 1.1764373 -1.4392316 0.9748942
0001a0 ec d5 a7 bf f3 2e 8a bf 9b 43 00 be 6f 10 d8 3d
       -1.3112159 -1.0795578 -0.1252579 0.105500095
0001b0 9f 02 89 be a9 4a 87 3f 17 97 9e be cf 95 55 bf
       -0.26759812 1.056966 -0.30974647 -0.83431715
0001c0 b6 ce 2d be 00 6e 27 bf 81 8a e9 be ef 34 99 be
       -0.16973385 -0.6540222 -0.45613483 -0.29923198
0001d0 01 24 15 3e d6 c3 19 bd 55 fb f2 bf f8 e3 8a 3f
       0.14564516 -0.03754028 -1.898295 1.085082
0001e0 83 1c 89 bf d5 b2 f8 3d 90 be 9a 3d 78 d2 de be
       -1.0711826 0.121434845 0.07555878 -0.4351995
0001f0 1b 30 68 3d 64 b1 9a 3f 27 d4 8e 3b 94 41 8c 3f
       0.056686502 1.2085385 0.0043587866 1.0957513
000200 ec e3 79 bf c1 f0 8c 3f 31 8f 34 bf 42 64 6c 3f
       -0.97613406 1.1010972 -0.7053099 0.9234048
000210 c7 0b 7d 3f d3 0a 28 40 95 0d 0d bf eb ec a7 3e
       0.98846096 2.6256607 -0.5509885 0.32797942
000220 82 c0 87 3e 2d 7a 27 3f cc 0a 9d 3e 6a fc 91 be
       0.2651406 0.654208 0.306723 -0.2851289
000230 2c 18 a7 bf f0 c5 a0 3f 77 0b 06 40 78 b8 52 bf
       -1.3054252 1.2560406 2.0944498 -0.82312727
000240 fe 2d d6 bf fd 1b 7e 3f 3e 2a e4 3e da 43 cc 3f
       -1.6732786 0.99261457 0.44563478 1.5958207
000250 a4 e1 84 3f 7c b7 41 bd 36 ba 85 bf d8 39 bb 3c
       1.038136 -0.047294125 -1.0447452 0.02285473
000260 ff f5 e9 bf f5 e4 fc 3e 00 3d 0f be 10 8f 57 40
       -1.8278197 0.4939343 -0.13988113 3.3681068
000270 57 d3 53 bf 0f d7 c7 be 76 60 4b c0 ae 89 d2 3f
       -0.82744354 -0.39031264 -3.1777625 1.6448267
000280 f8 35 04 bf 5a 9d 12 40 9c 03 35 bf f4 84 90 bf
       -0.5164485 2.290854 -0.7070863 -1.1290574
000290 dc 9a 0e bf e6 e0 0c bf 7e 8a 90 be ca d9 9f 3e
       -0.55705047 -0.5503067 -0.2823066 0.31220847
0002a0 d9 3b 1b bf 72 ee 92 bf 88 75 2a 3e d4 1e 27 bf
       -0.60638195 -1.1479018 0.16646397 -0.65281415
0002b0 f8 bc 00 c0 45 ff 5b be 7f e4 1b 40 d4 12 08 bf
       -2.0115337 -0.21484096 2.4358213 -0.5315373
0002c0 3e f9 b0 3f bf cb 24 bd d3 8d 75 bf 12 b4 55 be
       1.3826063 -0.04023337 -0.9591953 -0.20869473
0002d0 65 8e e4 bd 80 e8 69 3f b5 99 16 3f 70 1b cb bf
       -0.11159972 0.9137039 0.5882829 -1.5867748
0002e0 c9 b9 46 bf 65 ee 91 3d d2 1e da 3e 96 cd 14 3f
       -0.77627236 0.07125548 0.4260164 0.581262
0002f0 a9 b4 7e 3f cf a1 92 bf 79 71 62 bf 9b 85 63 3f
       0.99494416 -1.145563 -0.88454396 0.8887574
000300 64 5f 89 3f 9e 74 08 40 81 66 85 bf 46 80 16 3f
       1.0732236 2.1321177 -1.0421907 0.5878948
000310 56 ee 42 3d e9 51 0f 3f 7b c3 e2 bd a1 bd c5 3d
       0.047590576 0.5598436 -0.11072441 0.096553095
000320 51 06 d4 be 0e cc 50 40 50 a8 0c c0 52 02 b1 3f
       -0.4141107 3.2624545 -2.197773 1.3828833
000330 a2 73 a5 bc cd c5 03 3e d3 1e 1f be 9a ac 3c 3f
       -0.02019674 0.12868424 -0.15539102 0.7370087
000340 19 d1 ed 3d 7f ec ac 3f 22 34 bb 3e 28 ff 34 bf
       0.11612148 1.3509673 0.36563212 -0.7070184
000350 04 77 85 3e 0a 5c 91 bf 58 81 91 3f 93 65 db 3f
       0.26067364 -1.1356213 1.1367598 1.7140373
000360 91 39 bf be f6 f4 80 3d 91 ae 5d 3f bb 47 d0 be
       -0.37348607 0.062967226 0.8659449 -0.40679726
000370 6c b1 33 be ba aa 88 bf bc 3a 92 bd dc b4 0b 3f
       -0.1754815 -1.0677102 -0.07140109 0.54572845
000380 68 0a dc 3e 20 11 56 bf de d3 b7 3b 00 73 32 bf
       0.4297669 -0.8361988 0.0056099733 -0.69706726
000390 eb 72 15 c0 d1 bc 0d bf 83 f6 84 bd 7c 09 5a 3f
       -2.335139 -0.55366236 -0.06492331 0.8517072
0003a0 6d 79 7d 3e 18 4c dc 3f c9 cd 2d 3f 54 28 17 bf
       0.24753352 1.7210722 0.6789213 -0.5904591
0003b0 17 c6 97 3d c7 be a4 be d3 f1 2d bd 28 44 94 3e
       0.074108295 -0.32176802 -0.04246695 0.2895825
0003c0 82 62 c3 be 09 91 e6 be 07 b9 ad 3c 0c 39 63 bf
       -0.38161093 -0.45032528 0.021206392 -0.8875892
0003d0 b0 72 53 c0 ce bb e7 3c 9d d9 5b 3e 34 81 fe 3e
       -3.303875 0.028287794 0.21469732 0.4970795
0003e0 6a b2 5b 3e 81 ab c4 3e a7 13 0f bf c0 06 d7 3f
       0.21454778 0.38412097 -0.5588936 1.6798935
0003f0 0c 2b 9e bf 59 f3 09 3f 12 20 b7 3f 95 d9 e8 bf
       -1.2356887 0.53886944 1.4306662 -1.8191401

module.lstm.bias_ih_l0_reverse f4 [40]
000000 b1 f5 ea be 1d 9e 7b bf 40 9a ae bf f2 fe 90 bf
       -0.45890573 -0.98288137 -1.3640823 -1.1327803
000010 5d e0 81 bf a1 bb 6a bf 9f 83 b4 bf 6d 90 57 bf
       -1.0146595 -0.9169255 -1.4102668 -0.8420475
000020 ff d2 66 bf ed 0f 78 bf 0c 27 5d 3f 90 f7 10 3e
       -0.90165704 -0.968993 0.86387706 0.14156938
000030 87 da ae 3e 36 d0 7f 3e 25 75 de 3e 02 ac 59 3f
       0.34151098 0.2498177 0.4344875 0.8502809
000040 94 49 c2 3f dc 42 3b 3f c7 ee 59 3f 3f 90 d7 3e
       1.5178704 0.73148894 0.8512997 0.4210224
000050 0a 22 2f bf 59 29 c0 3e 4f a1 94 3e 1a b8 6d bb
       -0.68411314 0.37531546 0.2902932 -0.0036273063
000060 21 8d b5 3e 0a 32 94 3e d2 1d fe 3d 32 20 1e be
       0.35459235 0.28944427 0.124080315 -0.15441969
000070 91 44 76 bf 22 b7 5e bd 32 f6 45 be b9 e2 82 3e
       -0.96198374 -0.054373868 -0.19332197 0.255636
000080 20 11 24 3e 6a a1 a8 be 4e 15 a2 bf b4 35 57 3f
       0.16022158 -0.3293565 -1.2662752 0.8406632
000090 ee 58 18 3e 36 cf 83 be fd 84 8a be b0 f2 7d be
       0.14877674 -0.25744027 -0.27054587 -0.24799609

module.lstm.bias_hh_l0_reverse f4 [40]
000000 f9 13 06 bf 74 7d 77 bf 10 68 b0 bf 01 08 a5 bf
       -0.52374226 -0.966758 -1.3781757 -1.2893068
000010 dd 0a 26 bf be f5 7a bf 26 d3 af bf c7 cf 25 bf
       -0.64860326 -0.9803122 -1.3736312 -0.6477017
000020 c5 73 52 bf f5 7c f3 be 99 02 0b 3f b8 1f b9 bd
       -0.822079 -0.47556272 0.5430084 -0.09039253
000030 d6 3c 12 3f 48 a9 17 3f 5a f4 3b 3f 0f 4a a4 3f
       0.5712408 0.5924268 0.73419726 1.2835101
000040 2a fe 95 3f a4 a5 5d 3f a1 b7 07 3f c6 88 01 3f
       1.171819 0.8658087 0.5301457 0.50599325
000050 e2 66 2f bf 32 05 3b 3c fa 70 c7 bd 7c de 10 be
       -0.6851636 0.011414813 -0.097383454 -0.14147371
000060 84 e3 ef 3d bc f6 c5 3d 0f 16 b0 bd 3e 01 a1 be
       0.11713317 0.096662015 -0.08597957 -0.3144626
000070 bf 27 7c bf 3e 87 c6 bc 1d 04 89 bd 1a ca 01 be
       -0.9849815 -0.02423441 -0.06690238 -0.12674752
000080 8d 02 7b 3e c0 81 2f bd 8e d0 b6 bf 86 8a 7d 3f
       0.24512692 -0.04284835 -1.4282396 0.99039495
000090 ec 47 f1 3e 23 fc 90 be 69 19 29 be d0 a8 73 be
       0.47125185 -0.28317365 -0.165136 -0.23794866

module.lstm.weight_ih_l1 f4 [40, 20]
000000 25 9d 7d 3f b2 15 d1 bd 76 c1 38 3f e7 a1 5d bd
       0.9906791 -0.10209216 0.721702 -0.05410948
000010 c1 46 5b 3c 0a b8 81 3f 8f e4 52 bf cb c2 3d 3e
       0.013383568 1.0134289 -0.8238 0.18531339
000020 f6 84 73 bf 7d de 52 3f d5 7c 5a 3f 05 9a 99 bf
       -0.9512476 0.8237074 0.8534673 -1.2000128
000030 e7 d5 f6 bf e6 63 bb 3f 2b 2f 84 bf 06 3c 7f 3f
       -1.9284028 1.4639862 -1.0326895 0.99700963
000040 9b 99 2b 40 89 db 82 bf 6d 4a 98 3f 26 60 f7 bf
       2.6812503 -1.0223247 1.1897713 -1.9326217
000050 75 ae 53 bd 9a b6 9a bd 80 cf 25 be 38 a8 31 be
       -0.051680047 -0.0755436 -0.16192436 -0.17349327
000060 48 b8 c7 3e 34 b6 0a 3e c1 ac 38 be 5e 1c 0b 3e
       0.39007783 0.13546067 -0.1803465 0.1358504
000070 47 eb ba 3d d0 80 d0 be f6 dc 08 3f 51 10 28 be
       0.09126907 -0.40723276 0.5346216 -0.16412474
000080 6a 5f 1d 3f fe 6d 1a 40 f8 09 9c be 96 c5 ff 3e
       0.61473715 2.4129634 -0.30476356 0.49955434
000090 8e 49 32 3e e5 f5 02 bf e6 5c d1 3f f5 12 c7 be
       0.17410871 -0.51156455 1.6356475 -0.3888165
0000a0 0c 6f be 3e 25 4a 1e 3f 8e 43 07 40 26 da 80 3f
       0.37194097 0.61831886 2.1134982 1.0066574
0000b0 65 2d a3 3d 21 fb ef 3f d9 59 19 40 1a 65 c1 3f
       0.07967643 1.8748513 2.3961089 1.5108979
0000c0 47 88 c5 3f 98 76 08 c0 7e 1a 1e 3e 9b 48 76 3f
       1.5432214 -2.1322384 0.15439793 0.9620454
0000d0 f7 45 bf bf 40 14 aa bf b1 f4 00 bf 30 e8 f4 be
       -1.4943227 -1.328743 -0.5037337 -0.47833395
0000e0 47 4b 7a 40 c5 68 0a c0 22 8e 9e 3f b3 e4 02 bf
       3.9108446 -2.1626446 1.2387125 -0.5113022
0000f0 52 da 51 3e c4 dd 7d be 2a 20 91 be 45 ed 97 bd
       0.20493439 -0.24791628 -0.28344852 -0.074183024
000100 14 91 14 3e 98 93 0f 3d 36 b2 28 3d f5 ec a7 bd
       0.14508468 0.035052866 0.04118558 -0.08199493
000110 ca 3e 28 3d 91 15 39 be 4d 36 0b 3e 56 8f e3 3d
       0.041075505 -0.18074633 0.13594933 0.111113235
000120 3c 61 53 be c9 dd fe bd 69 e1 a1 be 53 db 5b 3e
       -0.2064256 -0.12444646 -0.31617287 0.21470384
000130 e2 f4 13 be 25 00 11 be c3 3e 66 be df 9c 5f bd
       -0.14448884 -0.14160211 -0.22484879 -0.054592963
000140 56 75 5c be a6 a6 b6 bf 6d 07 88 bc 49 e2 d2 be
       -0.21529135 -1.4269607 -0.016605103 -0.41188267
000150 5e dd ec 3e c5 00 ab 3e 43 15 06 3f 06 83 e1 bd
       0.4626264 0.33399025 0.5237619 -0.11011319
000160 7c 27 c9 3d 80 a8 4f bf 72 95 b4 bd 6c bf ab 3e
       0.09821984 -0.81116486 -0.08817567 0.3354448
000170 3b fd 2a bf 8f 1b df 3f d8 4b fc bd 33 4f 58 be
       -0.6679265 1.7430285 -0.123191535 -0.21123962
000180 d5 41 97 bf 61 12 2c bf 74 5c 66 3f a4 9f ea 3d
       -1.1816965 -0.67215544 0.8998482 0.1145623
000190 2c 3e a2 be 5d 3d 0d 3d 4c 47 87 3c 99 81 28 bd
       -0.31688058 0.03448235 0.01651349 -0.04113922
0001a0 e7 f4 d0 3d 0a 79 9a 3d eb 5b 5c 3d 25 15 45 3e
       0.102029614 0.075426176 0.053798597 0.19246347
0001b0 d2 6a 39 3d 55 68 8a be 0e 66 ec 3d bb 03 07 3e
       0.045267887 -0.27032724 0.11542903 0.13185017
0001c0 97 d8 69 be b5 16 87 3e 94 c9 6b be 03 45 a7 be
       -0.22836529 0.26384512 -0.23026115 -0.3266984
0001d0 d7 58 bd be 00 3c 04 3e 6f c1 1a 3e e7 46 03 be
       -0.36981842 0.12913513 0.15112852 -0.12820016
0001e0 a1 f6 3f 3d 2f 8c 93 be 5b 28 f6 be 89 9a 6e bc
       0.046866063 -0.2881789 -0.48077664 -0.014563211
0001f0 89 fb 54 3e c3 75 5b 3e dd 88 91 3e b3 f5 4a 3d
       0.20799078 0.21431641 0.2842473 0.049550723
000200 8a ce a8 bd 45 0b ca 3d bf 32 95 3d b4 14 1e bd
       -0.08242519 0.09865431 0.0728507 -0.038593963
000210 52 a0 4a 3d ae cb 18 3f 04 02 3f be a5 01 c2 3e
       0.0494693 0.5968579 -0.18653113 0.3789188
000220 22 c0 1e 40 6e f8 c0 bd 78 9b 22 3f 1b c7 3b be
       2.4804769 -0.09422384 0.63518476 -0.18337671
000230 3f fb ad be ab 73 e8 bc e0 58 31 be fd aa a4 be
       -0.33980748 -0.028375467 -0.1731906 -0.32161704
000240 8f e9 53 3e 65 f5 12 3e 1c f1 9a be 27 41 b0 3d
       0.20694564 0.14351423 -0.30262077 0.08606177
000250 71 61 92 3e 3b 42 1c bf 1a 60 41 3f 44 3f b4 3e
       0.28589967 -0.6103856 0.75537264 0.35204518
000260 94 38 46 c0 79 43 4f 3f b8 5f 89 bf 6a e4 96 3f
       -3.0972033 0.8096233 -1.0732336 1.1788456
000270 fb 69 65 bf c0 03 b3 bf 1c c6 19 bf 5c 8f 02 bf
       -0.8961484 -1.398552 -0.60067916 -0.51
000280 6b 70 0a bf a6 15 0a bf 5b f8 1d 3c b6 c1 7c 3e
       -0.54077786 -0.5393928 0.009641732 0.2468327
000290 3d c5 32 3d 5e e1 57 3f 23 74 b7 be 83 d1 9b 3e
       0.043645132 0.8432826 -0.35830793 0.30433282
0002a0 44 a9 de 3e 4e 12 55 bf 7e 97 ce 3e fc 15 c5 be
       0.43488514 -0.83231056 0.40349954 -0.38493335
0002b0 3c 91 59 be 14 83 ca 3f 3f fe 47 be 52 2b 8a 3f
       -0.21246809 1.5821252 -0.19530581 1.079447
0002c0 96 8b 02 3f be b6 9b be 32 f7 55 3f b1 40 e2 bd
       0.5099424 -0.3041286 0.83580315 -0.11047495
0002d0 37 b9 31 bd 5e 98 84 be 04 7f 63 be 6c 86 d3 be
       -0.043389525 -0.25897497 -0.22216421 -0.41313493
0002e0 94 d3 01 3e d9 c8 9f bc bd 98 ec be a4 ea d8 be
       0.12678367 -0.019504951 -0.4621028 -0.42366517
0002f0 ba af 32 bc a3 e7 52 be 87 16 ae be 54 6a 63 3f
       -0.010906154 -0.20596175 -0.34001562 0.8883412
000300 b5 ce d4 bc e0 ad 5c 3f af b0 2e c0 fe a3 3e bf
       -0.025977472 0.8620281 -2.729534 -0.7446898
000310 6c 1c 16 40 0d d0 47 bd 66 fb f1 3e 3d 77 87 3e
       2.3454847 -0.048782397 0.47262114 0.2645816
000320 02 53 0a be d5 c1 26 3e 83 78 a4 be 6f 4e 6b bf
       -0.13508227 0.16284879 -0.32123193 -0.91916555
000330 32 70 f2 be 3d bb f0 bf 12 1d 92 be 31 ee a6 bd
       -0.47351223 -1.880714 -0.28537804 -0.081509
000340 bd 31 73 3f d5 95 28 3e 73 98 50 3d af 93 f6 3f
       0.9499777 0.16463406 0.050926637 1.926382
000350 d1 dd 05 40 46 2a e4 3e 28 73 42 bc d1 98 51 bf
       2.0916636 0.44563502 -0.011868276 -0.81873804
000360 e8 81 df 3f 9b bc 5b 3f 4e 02 47 3f d8 fb db 3f
       1.7461519 0.85834664 0.7773789 1.7186232
000370 bd ac 04 bf 65 29 14 bf ec 9d c3 3b 39 00 00 bf
       -0.5182608 -0.57875663 0.0059697535 -0.5000034
000380 a4 97 ec 3e f7 9e 4f 3f 95 a7 8a bf 20 ae 7c 3c
       0.46209443 0.81101936 -1.0832392 0.015422374
000390 85 23 1c be d1 f6 c1 bc 62 34 08 3f 5e 1b 01 bf
       -0.15247925 -0.023677262 0.5320493 -0.50432384
0003a0 78 1b b3 3f 61 7d 62 40 0f 49 91 3e c3 e5 0d be
       1.3992758 3.5389025 0.28376052 -0.13857178
0003b0 56 a9 90 bf 22 91 98 3e e3 5e 95 3f 05 6f 88 3e
       -1.1301677 0.29798228 1.1669582 0.266472
0003c0 2a 4f 17 3f 8f c2 ee bf 39 aa 0d bf b3 c2 da 3e
       0.5910517 -1.8653125 -0.55337864 0.4272667
0003d0 c5 4b 3e bb 55 52 36 bf 6b 89 b2 bf 1a e6 98 be
       -0.0029036861 -0.7121938 -1.3948187 -0.29863054
0003e0 20 31 9c bf 02 31 81 3f 39 e2 b9 be de 6f 21 bf
       -1.2202492 1.0093081 -0.36305407 -0.6306132
0003f0 8f a5 a1 bf 6d 97 07 c0 97 d4 eb 3e 00 36 8b 3d
       -1.262865 -2.1186173 0.4606063 0.06797409

module.lstm.weight_hh_l1 f4 [40, 10]
000000 ed 77 a0 bf 36 5d 38 3e 50 b2 aa be 0a 10 2e be
       -1.2536598 0.18004307 -0.33339167 -0.16998306
000010 93 70 18 c0 6a 46 bd be 9b f1 91 bf f5 54 7f bf
       -2.381871 -0.36967784 -1.1401857 -0.9973901
000020 df e1 38 40 51 f0 8b 3f 79 41 34 be 06 cc 73 bf
       2.888786 1.0932714 -0.17603101 -0.9523319
000030 cb 91 d9 3e bb 39 96 bf 36 58 e5 be 78 04 b6 bf
       0.42494044 -1.1736368 -0.44793862 -1.4220114
000040 b7 bc 67 3f 72 d6 8c be 40 6c 9a 3f e8 57 16 40
       0.9052233 -0.2750736 1.2064285 2.3491154
000050 29 9f 43 c0 e5 d5 f0 3e db 0d b6 3f 5b 7e 00 40
       -3.0565894 0.4703819 1.4222978 2.0077121
000060 ea c4 67 3e 61 18 80 40 4f 53 b5 3f 2f b8 d7 be
       0.2263371 4.002976 1.4166049 -0.42132708
000070 c9 37 5a 3f c8 b7 10 3f a5 a0 32 bf a0 4c 6e 3f
       0.8524137 0.5653043 -0.69776374 0.9308567
000080 fa 6d f0 3d f0 79 82 3e 14 39 16 3f 3b fc 00 3f
       0.11739726 0.25483656 0.58680844 0.50384873
000090 d0 66 e8 3e 78 61 1e bf de f8 15 be 8f 7f 67 3f
       0.4539094 -0.61867476 -0.14645717 0.90429014
0000a0 9f 8e 2f be 74 c9 7e bf 6c ee aa 3f 3d f9 61 3f
       -0.1714425 -0.99526143 1.335401 0.8827093
0000b0 db 41 95 3e d9 e7 80 bf ca b6 b2 3f 96 ad 83 bf
       0.29151806 -1.0070754 1.3962033 -1.0287349
0000c0 66 a6 19 be 53 7c d1 3f f0 3b 5d be af b3 0f bd
       -0.15004882 1.6366066 -0.21604896 -0.03508347
0000d0 78 2a 87 3e 21 10 c6 3c e7 e3 7f be c3 fa 36 3f
       0.2639959 0.024177613 -0.24989282 0.7147638
0000e0 2b 48 fa be 64 02 91 3d 91 cd c0 bd a0 eb d2 3d
       -0.48883185 0.07080534 -0.09414209 0.10298848
0000f0 68 6d d7 bf 5e 8f 5a be e4 98 e0 3d b3 26 83 be
       -1.6830263 -0.21343753 0.109666616 -0.25615463
000100 9e d4 34 3f 5f 95 45 bf 0a 99 6e 3e 96 bf 30 3e
       0.7063693 -0.7718105 0.23300567 0.17260584
000110 b1 82 74 3e df 1a c9 be e3 2c 8d bf f8 86 06 3f
       0.2387798 -0.39278314 -1.1029323 0.52549696
000120 45 c8 3d 3f 5f f5 bc bd 4b f2 a5 3f e6 7d e0 3e
       0.7413371 -0.09226488 1.2964567 0.43846053
000130 74 e7 02 be c9 d5 84 c0 04 16 ef bf ec 02 87 3f
       -0.12783605 -4.151097 -1.8678594 1.0547767
000140 b1 1e 85 bf 62 fc 78 bd 2f 2f 35 3e fb 9b 3b bd
       -1.0399991 -0.060787566 0.1769378 -0.04580305
000150 a2 34 6b 3f 07 52 e8 be aa 42 65 3f 25 96 0f be
       0.91877186 -0.45375082 0.89554846 -0.1402212
000160 9d a6 9d bf 59 ba aa be dc a7 25 bf 37 74 00 40
       -1.2316471 -0.33345297 -0.6470926 2.0070932
000170 60 f9 a2 3f 8a 75 89 3f 4e 8b 53 bf 3c c8 0c 40
       1.2732353 1.0738995 -0.8263444 2.1997213
000180 ac 78 58 c0 35 30 bb bf 57 96 5a bf 87 b0 5a 40
       -3.3823652 -1.4624087 -0.8538565 3.4170244
000190 9f ae e0 3d 1d 76 8f bf 28 17 7e 3f 4d f1 d8 bf
       0.10970806 -1.120792 0.99254084 -1.6948639
0001a0 a6 a9 2c bf 0b 29 c1 be 04 49 96 bf da 03 c2 be
       -0.6744636 -0.37726626 -1.1741033 -0.37893564
0001b0 6d 64 79 be c9 59 40 bf 9d 18 1d bf 31 f0 61 be
       -0.24354716 -0.75137 -0.6136568 -0.22064282
0001c0 79 06 9a bf b2 7c 25 c0 44 b0 df be 67 a4 04 c0
       -1.2033225 -2.5857358 -0.43689167 -2.0725343
0001d0 5c 25 92 3f 0e 58 34 c0 df 0a 96 be 05 1f 47 40
       1.1417651 -2.8178744 -0.2930517 3.1112683
0001e0 53 27 81 3e 4b 8a b6 3f 2b 2e 8b 3e a5 e8 5e 3f
       0.25225314 1.4260954 0.2718366 0.8707374
0001f0 51 60 62 3f f2 da e8 3f 36 14 b8 3d 1a 73 19 be
       0.8842822 1.8191817 0.0898823 -0.14985314
000200 f6 f3 26 40 ce ef 1a 3f c1 51 c2 3e 35 f1 29 c0
       2.6086402 0.6052216 0.37952998 -2.655347
000210 69 d6 65 3e 48 f8 0f 40 e2 bc fe bf 05 2c a4 3f
       0.22445072 2.249529 -1.9901392 1.2825934
000220 30 b9 85 bf f5 26 d5 be cc c2 fb bf 96 2b b1 3e
       -1.044714 -0.41631284 -1.9668822 0.34603566
000230 77 c5 b8 3f 2e dd bd be 38 e7 5f bf 15 25 ee 3f
       1.4435261 -0.3708281 -0.87462187 1.8605067
000240 5d 9a 27 3f b3 30 f3 bf f1 3a 4b 3f 84 22 61 3f
       0.65469915 -1.8999237 0.7938681 0.8794329
000250 ea 4d 5e bf 3e dc fa be 84 a8 ba 3f d7 73 f5 3f
       -0.8683764 -0.48996156 1.4582677 1.9175977
000260 67 2b 54 3f cf 80 2e c0 39 85 20 bf 09 19 09 3e
       0.82878727 -2.7266119 -0.6270328 0.13388456
000270 0f 3f b8 be 5d 8f d1 bf fb 6d ea bd b0 52 3b 3e
       -0.3598561 -1.6371876 -0.11446758 0.18293262
000280 84 8a 52 3f d9 38 01 3e 2e f9 56 3f 5d 49 84 bf
       0.8224261 0.12619342 0.8397397 -1.0334889
000290 d5 9f 2d c0 fa ff 6e c0 63 87 0c c0 88 44 13 be
       -2.7128804 -3.7343736 -2.1957633 -0.14381611
0002a0 74 bd f7 3e 7c 99 fa 3e 99 a3 2d 3f ac 56 20 be
       0.4838673 0.48945224 0.67827755 -0.15658063
0002b0 de 0f b0 bd a1 4c 9b be 5a 52 24 bf e1 20 02 3e
       -0.085967764 -0.303319 -0.6418816 0.12707855
0002c0 f9 49 e0 bf 0b 26 37 be f6 50 38 bf d9 4e f1 be
       -1.7522575 -0.17885606 -0.71998537 -0.47130468
0002d0 66 57 12 40 2a 8d ef 3e e0 c7 4b bf fd c9 15 be
       2.2865844 0.46787387 -0.7960186 -0.14627834
0002e0 18 ca 90 bf 4f e2 a0 3f 09 ca f8 3f c0 73 67 3f
       -1.1311674 1.2569064 1.9436656 0.90410995
0002f0 84 30 e0 be 2b 03 07 3c 51 17 f6 3f 5b 2f 72 40
       -0.43787014 0.008240501 1.9225866 3.7841403
000300 5c f4 0e bf 9f b4 d0 3e 39 a7 dd be 26 67 7a 3f
       -0.5584161 0.40762803 -0.43291643 0.9781364
000310 2f 2e df bf 26 13 b5 bf b1 9c ac 3f 5f 18 ea 3f
       -1.7435969 -1.4146469 1.3485318 1.8288687
000320 a5 9d 08 3f ed f0 de be e0 32 b7 bf 36 6f 38 c0
       0.53365546 -0.43543187 -1.4312401 -2.8817878
000330 c6 22 94 c0 dc 2e ce bf 08 72 c8 3f 52 5e 57 3f
       -4.629245 -1.610805 1.56598 0.84128296
000340 4d 71 3e c0 5e d7 77 c0 88 bd ea 3e 16 62 74 bf
       -2.9756653 -3.87252 0.45847726 -0.9546217
000350 36 bd a6 bf 65 dc b5 bf 7c ca eb 3f 20 75 6d bf
       -1.3026493 -1.4207884 1.8421168 -0.92756844
000360 6e e4 00 40 98 84 cd 3e 6e 93 c7 be 7c df 08 40
       2.0139422 0.40140224 -0.38979667 2.1386404
000370 ea 34 ee bf d9 be a0 bf 5f 32 b4 bf 6e e2 4b 3f
       -1.8609898 -1.2558242 -1.4077872 0.7964238
000380 ac 8f 9a 3f b0 d5 92 40 ad a8 3d 3f 13 5c 56 c0
       1.2075095 4.588585 0.74085504 -3.3493698
000390 79 b7 f4 bf 2e a9 dd 3f 65 7e 39 3e 08 d4 f0 3f
       -1.9118491 1.7317255 0.18114622 1.8814707
0003a0 6f 18 8f 3e 54 8c 69 bf 87 67 54 3f de f2 13 c0
       0.2794833 -0.9122975 0.8297047 -2.3116984
0003b0 56 fb d0 3f 10 d5 b7 be 2f b6 d9 3e e2 76 c3 be
       1.6326702 -0.3590474 0.42521808 -0.38176638
0003c0 8f 39 f3 bf 3d 06 6e bf 75 1f d4 3e d1 46 dd bf
       -1.900194 -0.9297827 0.4143025 -1.7287236
0003d0 49 33 e0 3c bb 5e a4 bf 2a 3c ed bf e2 a8 b6 bf
       0.027368205 -1.284141 -1.8533986 -1.4270289
0003e0 7a 95 ad 3f 69 ee 99 bd 86 05 46 bf d3 67 5e be
       1.3561242 -0.07516176 -0.7735218 -0.21719293
0003f0 35 44 94 3e 09 25 c2 3f f6 3a 81 bc 0f 83 3b 3e
       0.28958288 1.5167552 -0.015775185 0.18311714

module.lstm.bias_ih_l1 f4 [40]
000000 e3 3d 88 be fd 43 39 be 14 d7 d2 3e c2 03 5e bf
       -0.26609716 -0.18092342 0.41179717 -0.86724484
000010 ed d6 d1 be 79 89 b6 bf 39 75 ba bf 78 9c 5e be
       -0.40984288 -1.4260703 -1.4567024 -0.21739376
000020 33 b6 b6 bf e6 72 10 bf 36 17 84 3f 78 9e 16 40
       -1.4274353 -0.5642532 1.0319583 2.3534222
000030 33 a7 b4 3e 59 b2 03 40 41 44 83 3f e5 cc f9 3f
       0.35283813 2.0577605 1.0255204 1.9515654
000040 0b 73 fc 3e 5b d0 b2 3d bb 02 39 3f 07 37 5a 3e
       0.4930652 0.08731147 0.7226979 0.21310054
000050 2a ef 3a be 55 e4 2b 3e e3 24 d7 3d 13 5f d8 bd
       -0.18255296 0.1678632 0.105050825 -0.10565009
000060 5b 52 46 3e 8e 3f c7 3e 20 69 f5 be 72 c3 b1 3e
       0.19367354 0.38915676 -0.47931767 0.34719425
000070 1e 0e be 3d 3b 4f b4 bf f8 5b 88 3f 26 0e 97 3e
       0.092800364 -1.4086679 1.0653067 0.29502982
000080 3c 20 09 3f 07 d0 49 c0 73 75 28 3f f6 10 ff c0
       0.5356481 -3.153322 0.65804213 -7.9708204
000090 00 74 b0 3e 6e a8 c0 bd 0a 7f 55 bf 5a 5d 4b be
       0.344635 -0.094071254 -0.8339697 -0.1985983

module.lstm.bias_hh_l1 f4 [40]
000000 1e ee 30 be 97 ab ef be 90 1a 5e 3e b4 f7 3d bf
       -0.17278334 -0.468106 0.2168982 -0.7420609
000010 0b 6e 12 bf 42 3e 9f bf 72 d1 96 bf 06 fa fe bd
       -0.5719916 -1.2440875 -1.1782668 -0.12450032
000020 27 f0 ad bf d4 f6 bf be 30 a5 47 3f 7a ba 1c 40
       -1.3588914 -0.37493002 0.7798643 2.4488816
000030 03 b9 b6 3e 5f 44 17 40 b4 02 37 3f e3 c6 e1 3f
       0.35688028 2.363548 0.714885 1.763882
000040 70 14 09 3f c7 da 07 be 4f 3d 10 3f 14 3d 89 bd
       0.5354681 -0.1326705 0.5634355 -0.06701103
000050 88 40 3f bd b5 57 85 be 5f a0 e3 3e 3b d8 26 3e
       -0.0466924 -0.26043478 0.4445829 0.16293423
000060 e8 57 8d bd 10 f8 ca 3e e8 7e b3 be c8 82 3e 3f
       -0.069015324 0.39642382 -0.3505776 0.74418306
000070 27 44 e4 be 04 de ba bf bf bb 12 3f 71 cf d8 3d
       -0.44583246 -1.4599004 0.5731773 0.10586441
000080 7c ad 87 3e aa a4 40 c0 16 5d 8f 3f b7 41 f7 c0
       0.26499546 -3.0100503 1.1200283 -7.726772
000090 1f 06 11 3e 66 ab 4a bd df 8c 55 bf 0c 95 a9 be
       0.14162491 -0.049479865 -0.8341808 -0.33121526
