sparrow/data/networks/pscore/pscore_predictor_network_v4.pt (torch, 23331 bytes, 17 tensors)

module.lstm.weight_ih_l0 f4 [40, 20]
-1.1022441 -0.57328343 -1.2895044 -0.45104 0.8465903 -1.6945567 0.46034187 0.39022934
0.38179132 -0.17085685 0.13838094 -0.5173602 -1.6842834 -0.75482357 0.54566675 -0.8347344
-0.012110805 0.3772313 -0.65604275 1.1019303 0.20224883 -0.012378229 -0.433667 -3.6574652
-0.26991624 0.6846332 0.03342365 -0.84237504 -0.6327026 -2.3103154 -0.5297354 -0.5660906
0.4294802 -1.5274179 0.16902082 -0.16879418 0.054243192 -0.061054826 0.2736188 -0.103019975
0.41169077 0.61696047 0.4664828 0.48007378 -0.053075615 0.25200486 0.36222607 0.36574253
0.669614 0.55299175 0.4660201 0.40079743 0.77028257 0.37671608 0.5491936 0.5122917
0.6443705 0.47320366 0.34079623 0.6670175 0.68015397 1.184855 1.3897231 1.2523979
-2.2143314 -9.66578 -0.09087386 1.2306428 1.4807401 0.16266277 -1.6436253 -0.40157026
1.439512 0.6703219 1.4462792 -0.23207676 -0.6218607 -0.2921096 -0.8475025 -0.81070423
0.16919869 -0.21587357 0.8440677 1.1392161 -0.07444965 -0.20409884 -3.517811 0.06463121
1.1586354 0.17100622 -0.3261303 0.27922574 -0.040207073 0.19027632 -0.30663183 0.42188326
0.08044266 0.20405331 0.07463847 -0.7054725 -0.42409027 0.15645629 -1.8973647 -0.3976679
0.7643173 0.08924895 -0.5570494 0.08525535 -0.51186794 -0.033715285 0.8112476 -1.2108479
0.20437162 -0.1924263 -1.1778388 -0.817739 0.46334448 0.4233885 -0.77043575 0.7558624
-0.15664148 -1.9775405 -1.4355115 0.5463921 -0.7587636 0.70825136 0.19494067 0.5998946
1.0839329 1.2557912 0.26483455 0.16302755 0.4960127 0.19797516 0.35874894 0.06055955
-0.82382554 0.3670029 -2.1695416 -0.31786767 0.801618 0.43546623 0.13687159 -0.3634592
-0.47725022 0.77563107 0.6276919 -0.44107708 -0.24997585 -9.109803 -0.23587547 -2.2627976
-0.34948653 -0.14591356 -0.21793453 0.054372817 -0.3869608 0.08235198 -2.3686442 -1.0554134
-0.47395614 -2.7947671 0.2676327 -0.20993684 0.11014333 0.027249651 -0.6127787 0.15321207
-0.23339671 -1.021116 -0.38873118 0.2256908 -0.024741469 -1.50909 -0.5463585 -0.6027751
-0.18132202 0.15592593 -0.6198289 -1.0322096 -0.6345026 -1.2866393 -4.796308 0.7388918
1.1118963 0.0010184236 0.47259858 0.25623205 0.3965369 -0.5419108 -0.33553675 0.88211775
-0.09046061 1.1910481 0.014083526 -1.148373 -0.64197654 0.21440648 1.0391634 0.7252305
-0.6243431 7.5796013 -0.07302364 -0.5893506 2.5858185 0.57873386 -0.48176858 0.078576684
0.21274707 -0.03352515 0.689544 0.9211069 -0.21833278 -0.58752394 -0.5592211 0.013916142
0.3537403 -0.19515935 -1.2868114 1.4573282 0.057235364 1.291561 0.38623852 -0.24136187
0.3131161 1.2148237 4.6598 -0.46541095 -0.2375028 -0.67717427 0.05107172 0.7038489
2.969864 0.26070732 1.4803941 1.9431411 0.26221672 0.16973189 1.5853933 1.4437944
0.7718818 0.9628389 0.7845805 0.47401223 0.71250725 1.0744841 0.8691221 0.3789832
0.50700015 0.41259414 0.47962227 0.8875574 0.84440297 0.8665001 1.0304433 0.76170653
00000000: 5616 8dbf b4c2 12bf 7b0e a5bf b7ee e6be
00000010: 24ba 583f 3ce7 d8bf eeb1 eb3e 24cc c73e
00000020: 277a c33e 19f5 2ebe bcb3 0d3e b871 04bf
00000030: 9996 d7bf 1e3c 41bf d1b0 0b3f 27b1 55bf
00000040: 666c 46bc 7624 c13e 6bf2 27bf 0d0c 8d3f
00000050: 511a 4f3e 0ece 4abc 9a09 debe e913 6ac0
00000060: 7632 8abe 1f44 2f3f 3de7 083d e4a5 57bf
00000070: ccf8 21bf 35dc 13c0 bd9c 07bf 50eb 10bf
00000080: d4e4 db3e 6e82 c3bf cb13 2d3e 62d8 2cbe
00000090: 1c2e 5e3d a014 7abd c317 8c3e 23fc d2bd
000000a0: 22c9 d23e 1ff1 1d3f d5d6 ee3e 3bcc f53e
000000b0: d165 59bd c806 813e b275 b93e 9b42 bb3e
000000c0: d36b 2b3f de90 0d3f 309a ee3e 5235 cd3e
000000d0: 3d31 453f eee0 c03e f497 0c3f 8d25 033f
000000e0: 77f5 243f c047 f23e d87c ae3e a9c1 2a3f
000000f0: 921e 2e3f 54a9 973f 72e2 b13f 934e a03f
00000100: 9bb7 0dc0 09a7 1ac1 131c babd b485 9d3f
00000110: e488 bd3f 1291 263e 5062 d2bf 9e9a cdbe
00000120: ee41 b83f 379a 2b3f ad1f b93f 88a5 6dbe
00000130: 4332 1fbf 648f 95be edf5 58bf 508a 4fbf
00000140: 6c42 2d3e f60d 5dbe d214 583f d5d1 913f
00000150: 0f79 98bd 49ff 50be d123 61c0 5e5d 843d
00000160: 2a4e 943f 411c 2f3e 8dfa a6be adf6 8e3e
00000170: 2cb0 24bd ccd7 423e d9fe 9cbe 1501 d83e
00000180: 1fbf a43d 5af3 503e 0edc 983d d999 34bf
00000190: 5c22 d9be 1436 203e d9dc f2bf 219b cbbe
000001a0: 4caa 433f 27c8 b63d ca9a 0ebf 5b9a ae3d
000001b0: c709 03bf 0a19 0abd ecad 4f3f 10fd 9abf
000001c0: cb46 513e 660b 45be 6cc3 96bf 5857 51bf
000001d0: 7d3b ed3e 61c6 d83e 473b 45bf 3380 413f
000001e0: a066 20be 0c20 fdbf d7be b7bf 5ae0 0b3f
000001f0: 553e 42bf f64f 353f 879e 473e b192 193f
00000200: 50be 8a3f c4bd a03f 6598 873e b2f0 263e
00000210: 60f5 fd3e 00ba 4a3e f1ad b73e 4a0d 783d
00000220: 3be6 52bf cee7 bb3e c5d9 0ac0 8dbf a2be
00000230: d636 4d3f 6ef5 de3e 1128 0c3e 5317 babe
00000240: 245a f4be c28f 463f 6bb0 203f dbd4 e1be
00000250: abf9 7fbe c1c1 11c1 5789 71be add1 10c0
00000260: e6ef b2be 5d6a 15be 3b2a 5fbe 08b6 5e3d
00000270: ba1f c6be 28a8 a83d de97 17c0 c917 87bf
00000280: 61aa f2be 77dd 32c0 2707 893e aff9 56be
00000290: d492 e13d a93a df3c 11df 1cbf a0e3 1c3e
000002a0: 8cff 6ebe eeb3 82bf c607 c7be 7d1b 673e
000002b0: 9fae cabc dc29 c1bf 27de 0bbf 784f 1abf
000002c0: 7bac 39be 0cab 1f3e 1bad 1ebf 721f 84bf
000002d0: c36e 22bf 99b0 a4bf 5b7b 99c0 0328 3d3f
000002e0: 9e52 8e3f a07c 853a 71f8 f13e d930 833e
000002f0: e206 cb3e abba 0abf 79cb abbe 78d2 613f
00000300: 6a43 b9bd 4474 983f 97be 663c e3fd 92bf
00000310: 9358 24bf 5f8d 5b3e 4e03 853f b5a8 393f
00000320: f3d4 1fbf 188c f240 6b8d 95bd aedf 16bf
00000330: 0d7e 2540 e727 143f 5faa f6be d0ec a03d
00000340: 5eda 593e ab51 09bd f585 303f a9cd 6b3f
00000350: a192 5fbe f867 16bf 1d29 0fbf 8800 643c
00000360: 731d b53e dad7 47be 3cb6 a4bf bb89 ba3f
00000370: a16f 6a3d df51 a53f 0ec1 c53e 9127 77be
00000380: c150 a03e 587f 9b3f 151d 9540 584a eebe
00000390: ef33 73be 4b5b 2dbf 9430 513d 712f 343f
000003a0: 4012 3e40 6e7b 853e 8e7d bd3f d9b8 f83f
000003b0: 4541 863e 32ce 2d3e 2bee ca3f 41ce b83f
000003c0: 0c9a 453f 9c7c 763f 45da 483f bbb1 f23e
000003d0: e066 363f b288 893f c97e 5e3f 160a c23e
000003e0: c3ca 013f 8a3f d33e 0d91 f53e f636 633f
000003f0: cb2a 583f f3d2 5d3f 91e5 833f 33ff 423f

module.lstm.weight_hh_l0 f4 [40, 10]
-1.087369 -1.578798 0.11912008 0.4432991 -1.5238668 1.693953 -2.8001924 -0.8598826
0.64310956 2.6404235 -1.4521592 -1.6898587 0.11861358 -0.034192186 0.377205 0.073399164
-0.036600515 0.11967563 0.879696 0.24928498 -3.1853254 -18.079556 4.0012307 0.33331874
-8.618319 1.3220767 8.714916 -2.4351065 8.493496 0.37278783 -3.072035 3.1901789
-1.7364868 -1.7572992 -2.4983792 -2.7173412 5.274128 2.2791305 1.8001813 2.7042353
-1.4960698 -0.94428843 -0.44516096 -0.63979924 -1.3928673 -0.09201721 0.094447926 0.16037075
0.5373506 1.5192096 -1.397069 0.676023 0.6905836 -2.010177 4.139802 2.1786232
1.1107296 0.52507687 -1.0649831 0.74961036 -0.97803617 1.3979056 -0.60908854 -0.7076165
0.41665033 -0.6505501 -0.12892523 -1.4837917 2.3859203 1.4473346 1.0377179 0.9262993
-0.08169874 -0.47592065 -1.5293653 -3.1724248 3.7998717 -0.31806993 -1.4784126 -2.956383
0.15139964 0.12217415 0.025282558 0.41353175 -0.25634995 -0.035470907 0.8129956 0.31551203
-0.265336 0.14089529 -0.74285644 -0.2684546 -0.14418577 0.12961483 -1.0643609 -0.059269596
0.4599101 0.20962034 0.46832693 1.2212199 2.087913 0.4767656 0.08129681 0.35221595
1.1402065 0.5988374 -1.0583569 -0.6363643 1.3528521 -1.2907169 0.4750621 -1.2026889
0.7884779 -2.0793042 0.038718637 0.7291213 -0.97703904 -0.07410632 -0.683018 0.7633964
0.24363686 -0.531277 0.23263288 -0.61529523 0.5748106 0.23084523 -0.32833758 -0.0796401
0.07481506 1.1837399 4.592171 -1.2229941 1.0199066 -0.34268564 -1.7924178 4.5669694
0.55812556 -3.3160603 -0.23236442 0.75047946 0.660456 0.11953684 0.68390834 0.91175747
0.023010587 -0.8242005 0.80855024 -0.07137894 0.6327109 -0.27067515 0.41910404 -0.9840641
-0.34238148 2.5738945 -0.57733333 -0.34207848 2.2224145 -0.28081432 -1.1443654 0.23374224
1.7661278 -1.2958429 0.10214086 -3.690461 1.850754 -0.72156113 -0.8518059 0.025018899
0.26734406 -1.9729055 -0.48031905 -0.20110537 -0.2761196 1.1369761 0.086314924 3.6303647
-1.7172716 1.058827 1.1849617 -0.36839473 -1.3275166 -0.7564985 0.30652452 -0.22732572
-1.3287001 -0.5571998 0.47176686 0.10864655 0.44806993 1.572254 0.8748348 0.107455805
0.40274554 0.45561218 2.058078 0.16695565 -0.67265344 -0.7730252 -0.30406108 0.66626245
1.3055638 1.6996727 -0.124323286 2.1851053 1.9916217 2.1765778 -0.29674378 -2.7105317
6.886929 -1.4170085 -0.70448226 -3.9141347 0.6790791 0.08278365 -1.0465618 1.5474479
-0.36457962 0.3640269 -0.3590391 1.7447379 0.42247713 4.779153 -0.7843354 0.08107419
4.1471024 -0.67399186 -2.476879 -1.032183 -1.5836153 -0.35622355 -0.8574495 -1.885475
0.33719215 -4.184422 -1.9727653 -2.0492628 -4.85773 -4.1245837 -4.1939564 0.7355345
0.657022 -1.591572 0.456064 1.0989827 -1.1864144 0.6037934 -0.32109383 0.66273326
1.3912466 -2.386062 -3.29257 0.46543148 -0.08149085 1.8058523 -2.8510253 -4.3273406
00000000: e82e 8bbf 0e16 cabf 3af5 f33d 1af8 e23e
00000010: 110e c3bf 74d3 d83f 5a36 33c0 4421 5cbf
00000020: d4a2 243f b3fc 2840 5ae0 b9bf 4a4d d8bf
00000030: adeb f23d 1b0d 0cbd 0421 c13e 4d52 963d
00000040: 6cea 15bd 7f18 f53d c233 613f 9044 7f3e
00000050: 5fdc 4bc0 eea2 90c1 150a 8040 c1a8 aa3e
00000060: a2e4 09c1 cf39 a93f 4c70 0b41 c9d8 1bc0
00000070: 5ce5 0741 0cde be3e 399c 44c0 e42b 4c40
00000080: 3345 debf 2eef e0bf 72e5 1fc0 ebe8 2dc0
00000090: a8c5 a840 46dd 1140 576c e63f 3112 2d40
000000a0: 377f bfbf e3bc 71bf 23ec e3be e2c9 23bf
000000b0: 7a49 b2bf 8573 bcbd ea6d c13d 3b38 243e
000000c0: cf8f 093f 7675 c23f 28d3 b2bf d80f 2d3f
000000d0: 16ca 303f bda6 00c0 4279 8440 906e 0b40
000000e0: 632c 8e3f 706b 063f 5e51 88bf 77e6 3f3f
000000f0: 9460 7abf 92ee b23f 3aed 1bbf 5b26 35bf
00000100: 3153 d53e 748a 26bf fa04 04be e3ec bdbf
00000110: ebb2 1840 4342 b93f f1d3 843f f321 6d3f
00000120: ab51 a7bd dfab f3be 3ec2 c3bf 0209 4bc0
00000130: 1931 7340 10da a2be a03c bdbf 6135 3dc0
00000140: 8208 1b3e 7136 fa3d 5e1d cf3c 6fba d33e
00000150: 4d40 83be f149 11bd 7b20 503f cb8a a13e
00000160: 1fda 87be db46 103e d72b 3ebf e272 89be
00000170: 6fa5 13be c0b9 043e fa3c 88bf adc4 72bd
00000180: 5679 eb3e b7a6 563e 8cc8 ef3e ef50 9c3f
00000190: 5ea0 0540 9f1a f43e f17e a63d a655 b43e
000001a0: 49f2 913f 684d 193f 3d78 87bf c5e8 22bf
000001b0: 422a ad3f 3636 a5bf 573b f33e b6f1 99bf
000001c0: b0d9 493f 5213 05c0 6f97 1e3d b2a7 3a3f
000001d0: 3b1f 7abf 0ec5 97bd 45da 2ebf f26d 433f
000001e0: f17b 793e c501 08bf 5037 6e3e fd83 1dbf
000001f0: ca26 133f b162 6c3e dd1b a8be 591a a3bd
00000200: a338 993d ca84 973f 11f3 9240 128b 9cbf
00000210: 4d8c 823f 7e74 afbe f26d e5bf 9d24 9240
00000220: 51e1 0e3f 553a 54c0 f0f0 6dbe 6c1f 403f
00000230: a513 293f bbcf f43d 9e14 2f3f f068 693f
00000240: b380 bc3c cefe 52bf 26fd 4e3f 1f2f 92bd
00000250: 57f9 213f ef95 8abe ce94 d63e a0eb 7bbf
00000260: a04c afbe b0ba 2440 1ecc 13bf e924 afbe
00000270: 0a3c 0e40 e5c6 8fbe 917a 92bf 205a 6f3e
00000280: 7a10 e23f 2ede a5bf 3a2f d13d 8330 6cc0
00000290: 82e5 ec3f 3bb8 38bf f40f 5abf 6ff4 cc3c
000002a0: 52e1 883e 2b88 fcbf 61ec f5be 91ee 4dbe
000002b0: 8c5f 8dbe 6f88 913f e1c5 b03d e557 6840
000002c0: 8ecf dbbf a587 873f d3ac 973f 3c9e bcbe
000002d0: 10ec a9bf e3a9 41bf c8f0 9c3e 13c8 68be
000002e0: d812 aabf a5a4 0ebf 6d8b f13e 1582 de3d
000002f0: 6c69 e53e 9e3f c93f 2cf5 5f3f ca11 dc3d
00000300: aa34 ce3e 0046 e93e 8db7 0340 6cf6 2a3e
00000310: 0433 2cbf fbe4 45bf e5ad 9bbe 2d90 2a3f
00000320: b71c a73f e08e d93f 359d febd c4d8 0b40
00000330: 76ed fe3f 0d4d 0b40 cdee 97be 5a79 2dc0
00000340: b961 dc40 8960 b5bf f358 34bf 2f81 7ac0
00000350: 21d8 2d3f 798a a93d bdf5 85bf c612 c63f
00000360: 2eaa babe bc61 ba3e f9d3 b7be 9253 df3f
00000370: ec4e d83e d2ee 9840 34ca 48bf 3a0a a63d
00000380: 10b5 8440 bb8a 2cbf 2f85 1ec0 931e 84bf
00000390: e8b3 cabf ef62 b6be cf81 5bbf 3f57 f1bf
000003a0: 73a4 ac3e c9e6 85c0 9383 fcbf 1f27 03c0
000003b0: 8672 9bc0 97fc 83c0 e434 86c0 fd4b 3c3f
000003c0: 9832 283f a2b8 cbbf 3881 e93e 77ab 8c3f
000003d0: 6ddc 97bf 3492 1a3f 6966 a4be e3a8 293f
000003e0: 5e14 b23f 3db5 18c0 78b9 52c0 094d ee3e
000003f0: ade4 a6bd 2b26 e73f 3377 36c0 9379 8ac0

module.lstm.bias_ih_l0 f4 [40]
-1.626267 -1.5045935 -0.03530571 -0.6160474 -1.0630323 -0.8798525 -1.2762014 -1.2144681
-1.2610699 -1.3159661 1.0293695 1.5574921 1.323609 0.61560607 0.8191064 0.86987257
1.0817878 0.6112941 0.7319626 0.0611759 -0.08684745 1.034718 -0.56704175 0.2486458
0.37328815 0.16691928 -0.33651155 0.06027532 -0.60306114 0.7646311 -0.031419653 0.4743228
1.205772 -1.0231661 -0.35509667 -0.47713146 0.024432959 -0.32479835 -0.2552302 -0.09081799
00000000: 8429 d0bf 8596 c0bf b89c 10bd 48b5 1dbf
00000010: 7111 88bf 033e 61bf 915a a3bf b173 9bbf
00000020: bd6a a1bf 9471 a8bf 61c2 833f e75b c73f
00000030: 056c a93f 5c98 1d3f f5b0 513f f8af 5e3f
00000040: 0678 8a3f c57d 1c3f e761 3b3f 9593 7a3d
00000050: 13dd b1bd a471 843f a629 11bf 019d 7e3e
00000060: a01f bf3e e3ec 2a3e 3e4b acbe 41e3 763d
00000070: 3762 1abf ddbe 433f e5b1 00bd 70da f23e
00000080: bd56 9a3f 1bf7 82bf 3bcf b5be 934a f4be
00000090: a127 c83c f84b a6be 88ad 82be c8fe b9bd

module.lstm.bias_hh_l0 f4 [40]
-1.3926482 -1.6620932 0.07566223 -0.8735028 -0.7849808 -1.2261475 -1.2787415 -0.92927635
-1.059624 -1.6859332 0.84264004 1.5889976 0.87864876 0.46178907 0.56338924 1.1198713
0.8929516 0.6279905 0.7949846 -0.077810004 -0.18028334 0.82671463 -0.5276632 0.14033237
0.5152786 -0.23032553 -0.06717105 0.26324812 -0.26910463 0.53215384 -0.17072667 0.19632392
0.761433 -0.521943 -0.13288069 -0.28978553 -0.39824018 -0.73166734 -0.4513281 -0.2520153
00000000: 4c42 b2bf 78bf d4bf cdf4 9a3d e19d 5fbf
00000010: 80f4 48bf 67f2 9cbf cdad a3bf 0ee5 6dbf
00000020: c2a1 87bf a9cc d7bf 42b7 573f 4664 cb3f
00000030: 20ef 603f 9e6f ec3e 473a 103f f157 8f3f
00000040: 7a98 643f fcc3 203f 1c84 4b3f da5a 9fbd
00000050: 329c 38be 92a3 533f ef14 07bf 4ab3 0f3e
00000060: 4ce9 033f 75da 6bbe fa90 89bd 75c8 863e
00000070: 15c8 89be 3c3b 083f f9d2 2ebe 2309 493e
00000080: 46ed 423f 0e9e 05bf e011 08be c55e 94be
00000090: 23e6 cbbe 8d4e 3bbf 7a14 e7be 2608 81be

module.lstm.weight_ih_l0_reverse f4 [40, 20]
-0.36632678 -2.2687068 0.8332754 0.68269473 -0.66654706 -0.5363015 0.10597972 -1.3474344
-1.4545639 -2.63009 -0.52846086 0.18026367 -0.7171216 0.45130804 -0.10097407 -0.2967656
-0.30439565 -0.58959115 0.14311546 -1.1163589 -0.32239962 -0.111599535 -0.28570065 0.21695869
-0.37422726 -0.12974647 -0.020999722 0.0046320176 -0.16587362 -0.18526709 -0.29432806 -0.28038225
-0.42385668 0.122205704 0.21104413 -0.2763967 -0.23909947 -0.24016218 -0.51190597 -0.025997814
-1.7602836 -1.6206853 -0.61831033 -1.5561508 3.8528793 -1.189046 -1.6962589 -1.6965134
-0.512626 -2.068056 -1.5951298 -0.7367506 -1.9268191 -1.7338665 -0.049296748 -0.80070025
-1.1104226 -0.9163771 13.019625 1.9478449 1.6137809 0.28616947 -0.10713183 2.0975728
-1.0847726 0.98528206 -3.7043877 2.3426497 2.10129 1.3391688 2.8209004 -1.0341879
0.24612401 0.5691309 0.5604213 3.2815983 3.5110278 2.5420046 -2.367359 -10.049331
-0.0077208593 -0.3728976 -0.7318123 -0.61295074 0.13280578 -0.022686288 -0.08692793 0.35194597
-0.4583782 0.109704174 0.061814107 -0.873172 -0.48924664 -0.63896513 -0.82149065 -0.1087012
0.11730916 0.35339752 -0.38065016 0.43195337 0.67048585 -0.4326438 -1.5826511 -0.17883077
-0.49241167 0.014921764 -1.5167059 0.6749762 0.93966496 0.8206041 0.55996394 -0.14842604
-1.329719 0.1714486 0.12776072 -0.6120705 -0.31908065 0.35502028 -7.202937 -0.61700404
1.0931584 -0.06490561 -0.53516215 0.1964184 -1.6127317 0.63063294 -0.6402528 0.8345482
0.4598103 1.9628532 -0.52026737 -0.71321476 0.3761119 0.6597096 0.5609998 0.45762536
0.5948692 0.5023363 -0.4282102 0.032192007 -0.072147496 -1.6434207 0.20975915 1.110881
-0.6144227 -0.2281892 -0.44726148 0.318852 0.6426482 0.6275678 -1.8256241 -0.10386267
-0.35751578 0.6256798 0.5755763 -1.9403433 -1.136079 0.36317608 0.006535137 0.18021508
-0.5964316 -2.9299629 -0.93550533 -0.90044874 -1.6916205 -1.8822926 -1.086242 0.026473936
-0.1996129 -0.5425257 -0.49747983 0.25147805 0.49633512 0.3669215 1.3635468 -0.90328765
-0.28955555 0.59677595 0.8983796 -3.5371504 -0.6433226 -2.1095977 -2.7544498 -1.3001355
0.5737722 -2.8937986 -1.0957066 -0.5960611 -0.03672448 -0.7692191 -1.0571318 -0.40746367
-0.019701913 -1.2643384 0.33687842 -1.8502424 -2.0246432 -2.6471298 2.0187309 1.4655149
0.334626 1.60071 0.09000891 -0.14953443 -1.3809228 0.9756633 0.06158202 -0.5925782
-0.69281083 -0.6670084 -0.21524496 0.116096966 0.59322935 1.170685 -1.0157088 1.2472885
1.9532723 -0.687162 0.26391262 -0.7162472 -0.6339744 -0.42867568 0.4783066 0.46431857
0.9178588 -0.64743966 0.94359165 -0.35159817 -0.4086575 -0.2757332 -0.4651724 0.51057917
-0.6373439 0.032235596 0.5700344 -0.7372943 -0.74062383 -0.6168924 0.65775955 0.49046504
-0.15234886 -0.8646547 0.064225346 -0.2972423 0.69508487 0.47370207 -0.5479004 -0.50367594
-0.5778312 -0.327444 -0.15164207 0.31000134 -0.37037832 -0.72240907 -0.34984565 -0.6521956
00000000: 2f8f bbbe 7e32 11c0 8951 553f 15c5 2e3f
00000010: d4a2 2abf 0e4b 09bf e50b d93d bb78 acbf
00000020: 262f babf 6553 28c0 3649 07bf 0a97 383e
00000030: 4895 37bf d911 e73e 7ecb cebd a9f1 97be
00000040: bfd9 9bbe 72ef 16bf dc8c 123e d9e4 8ebf
00000050: 9011 a5be 4c8e e4bd 5b47 92be 6b2a 5e3e
00000060: b79a bfbe 42dc 04be 9c07 acbc 2ec8 973b
00000070: c6da 29be a8b6 3dbe 2bb2 96be 438e 8fbe
00000080: be03 d9be fc46 fa3d f41b 583e de83 8dbe
00000090: 7ed6 74be 13ed 75be 450c 03bf 5ef9 d4bc
000000a0: f950 e1bf 9e72 cfbf 9649 1ebf f32f c7bf
000000b0: 9395 7640 a932 98bf 031f d9bf 5a27 d9bf
000000c0: 753b 03bf 085b 04c0 372d ccbf b09b 3cbf
000000d0: 02a2 f6bf 56ef ddbf 63eb 49bd b1fa 4cbf
000000e0: 5422 8ebf b197 6abf 6250 5041 fb52 f93f
000000f0: 5f90 ce3f ce84 923e ef67 dbbd a23e 0640
00000100: d4d9 8abf 723b 7c3f b014 6dc0 f9ed 1540
00000110: 897b 0640 e269 ab3f a289 3440 4560 84bf
00000120: ef07 7c3e 90b2 113f c577 0f3f b505 5240
00000130: aeb4 6040 34b0 2240 cf82 17c0 0fca 20c1
00000140: 43ff fcbb 6fec bebe 0d58 3bbf 57ea 1cbf
00000150: 3dfe 073e 98d8 b9bc 4507 b2bd 4332 b43e
00000160: 8cb0 eabe 95ac e03d ca30 7d3d 3388 5fbf
00000170: 897e fabe 3893 23bf 364d 52bf bc9e debd
00000180: c93f f03d 85f0 b43e 94e4 c2be fe28 dd3e
00000190: f6a4 2b3f 7d83 ddbe 5094 cabf 6a1f 37be
000001a0: 621d fcbe 6a7a 743c 6b23 c2bf 3ecb 2c3f
000001b0: e28d 703f 1c13 523f cc59 0f3f fffc 17be
000001c0: 3b34 aabf 3990 2f3e b5d3 023e a7b0 1cbf
000001d0: 8a5e a3be 38c5 b53e 767e e6c0 faf3 1dbf
000001e0: 9dec 8b3f 3ced 84bd 6300 09bf e821 493e
000001f0: fe6d cebf 2971 213f 9ce7 23bf f3a4 553f
00000200: 416c eb3e c63e fb3f 3e30 05bf 3e95 36bf
00000210: bd91 c03e bae2 283f af9d 0f3f df4d ea3e
00000220: 5949 183f 1d99 003f 5e3e dbbe c4db 033d
00000230: 11c2 93bd 9c5b d2bf 1acb 563e 5931 8e3f
00000240: ce4a 1dbf 6eaa 69be 75ff e4be 9240 a33e
00000250: 9884 243f 49a8 203f 0dae e9bf f4b5 d4bd
00000260: 4f0c b7be 8d2c 203f f858 133f 2b5d f8bf
00000270: 096b 91bf 37f2 b93e b424 d63b 4d8a 383e
00000280: beaf 18bf 8384 3bc0 477d 6fbf cf83 66bf
00000290: 0587 d8bf f7ee f0bf fa09 8bbf dedf d83c
000002a0: 5367 4cbe f7e2 0abf adb5 febe bbc1 803e
000002b0: a31f fe3e 23dd bb3e b488 ae3f dc3d 67bf
000002c0: a040 94be 4fc6 183f 35fc 653f ac60 62c0
000002d0: cab0 24bf a603 07c0 e848 30c0 d76a a6bf
000002e0: bce2 123f ff33 39c0 1d40 8cbf 7697 18bf
000002f0: 696c 16bd 8beb 44bf 1850 87bf 149f d0be
00000300: e865 a1bc d7d5 a1bf 547b ac3e bed4 ecbf
00000310: c193 01c0 936a 29c0 e332 0140 fe95 bb3f
00000320: 1954 ab3e 11e4 cc3f 9756 b83d 8e1f 19be
00000330: 14c2 b0bf 12c5 793f 6e3d 7c3d 34b3 17bf
00000340: 0d5c 31bf 10c1 2abf 2d69 5cbe 3fc4 ed3d
00000350: e1dd 173f 02d9 953f bf02 82bf 26a7 9f3f
00000360: d404 fa3f d9e9 2fbf 8e1f 873e fa5b 37bf
00000370: 254c 22bf 617b dbbe 9ae4 f43e 2abb ed3e
00000380: cbf8 6a3f 9bbe 25bf 398f 713f ad04 b4be
00000390: 8e3b d1be e72c 8dbe 142b eebe 51b5 023f
000003a0: f828 23bf 7909 043d c6ed 113f 52bf 3cbf
000003b0: 8699 3dbf a9ec 1dbf ee62 283f 3c1e fb3e
000003c0: 5701 1cbe 035a 5dbf 9488 833d 2530 98be
000003d0: 15f1 313f 1489 f23e 3343 0cbf e8f0 00bf
000003e0: bfec 13bf bda6 a7be 0f48 1bbe 7fb8 9e3e
000003f0: 3aa2 bdbe cdef 38bf f81e b3be 4af6 26bf

module.lstm.weight_hh_l0_reverse f4 [40, 10]
-1.3967375 -0.83620065 0.7200953 0.16257839 -0.35953686 -1.2719287 0.63136375 0.7821238
0.9520912 -0.121142484 -0.6189174 -2.4128053 1.4888037 0.08107311 0.33748665 1.2874615
-0.5944501 0.6829107 -0.87086886 -0.21197839 3.5503619 -1.3175919 2.8196483 -1.2120368
1.6067793 -6.2963357 -0.8481235 0.2387361 2.530591 -0.05812503 1.8678468 -0.21794993
-0.15533231 -2.5375285 0.7122854 4.0168285 -2.2615304 2.1655474 1.3979573 0.14635399
4.535208 -0.6986019 2.6453633 1.5123844 0.24346139 -0.38018462 -2.2520463 0.12779039
-0.15165374 0.10744512 -0.53114206 -0.8930825 -0.104044676 -0.5673815 0.97300303 1.4414352
-1.7869118 0.0026977265 -0.8315578 0.05837912 -1.3218682 0.84521616 0.31719798 -0.7690871
0.32429823 2.680339 -0.31172282 0.22480206 -0.4711014 -0.6672527 0.67026323 -3.6948793
-1.1602298 0.5128994 -1.033663 -1.2115086 -1.1612478 -0.50535977 0.2236966 -0.3085126
2.1992652 6.986511 1.0852343 2.2772832 0.8952125 0.07822862 -3.9541223 -5.3687887
-0.58924216 0.22876821 -0.28267404 -0.02120152 5.7147865 0.846513 1.9756162 4.1594086
-2.869242 1.854195 3.2186062 4.1798167 1.2776173 -0.17449294 -3.7816806 -0.81836516
1.6599257 -1.1311603 -0.28287822 0.07633717 0.56615525 0.27200794 -0.34386078 0.9511219
0.6838291 0.70940894 -2.393322 -0.22672996 -1.0927874 0.569042 -0.4343624 0.118434176
1.334649 -1.7193836 -0.81693333 2.7670846 1.389535 -2.1785831 1.0929505 -0.26515937
0.11992982 0.0061546047 -1.8855828 -0.9930666 -2.5334654 0.57774305 -2.8298454 -5.7594376
0.8606096 -1.3074182 -0.022424048 -0.12598224 -2.9554834 -1.3076451 0.95791286 -2.2806308
4.4610786 1.2673086 0.18094899 0.7770314 -0.14526545 0.085112184 0.42447624 1.1250608
0.3789298 0.13131282 2.3183167 1.6883394 -1.0421584 1.1618856 0.2883929 0.20931023
-1.7142484 -1.8172214 -1.0663637 -1.5437614 1.0221896 -1.6131043 -1.9802766 2.081853
1.5362817 0.6689022 0.2163859 0.14909086 -0.762791 0.57910764 -0.1073335 0.09210583
0.6399524 0.60930115 -0.08663424 0.33157173 -4.231815 -1.6975949 1.5487448 0.9056329
-0.9384383 1.7976552 2.6031196 0.21241572 0.5505427 -0.16224754 -0.10589648 0.15176943
-0.053884916 0.16926135 -0.26171553 -0.2764256 -0.0073736818 -0.054472733 -0.24578385 1.2523408
-0.86323833 -1.2382687 -0.6609021 -0.024259022 0.12601979 1.7179707 1.1410322 -1.6628134
-1.017792 -0.15491953 0.23034923 -1.7752216 -0.1334248 -0.15629157 -1.1449246 -2.0073543
-0.7762407 0.7076581 0.22767134 -0.01179501 0.386675 1.4823542 -0.11602298 1.3606529
-1.8346282 -0.016710902 1.4014152 -1.8161156 1.2924883 -0.082271755 -1.44588 0.9798561
1.1252013 -0.98720765 1.0594853 1.706163 -0.37189576 0.06449041 -0.5079944 0.053147435
0.502461 0.57321584 0.14950569 -2.2004492 -2.4728832 4.854879 -0.2658188 0.02250874
0.08960328 -0.048926387 -2.1199393 -3.3353105 -2.0505474 -1.8990662 -0.77584976 -5.381203
00000000: 4bc8 b2bf 3f11 56bf 2a58 383f f37a 263e
00000010: 3715 b8be 8fce a2bf 0ea1 213f 4439 483f
00000020: 40bc 733f 8d19 f8bd 5f71 1ebf 676b 1ac0
00000030: 1f91 be3f a909 a63d 0dcb ac3e 8acb a43f
00000040: e22d 18bf 3cd3 2e3f 43f1 5ebf dd10 59be
00000050: 2139 6340 daa6 a8bf 1e75 3440 0624 9bbf
00000060: f2aa cd3f 957b c9c0 9f1e 59bf 3c77 743e
00000070: 34f5 2140 8314 6ebd 9b15 ef3f 442e 5fbe
00000080: 6f0f 1fbe de66 22c0 5658 363f dc89 8040
00000090: eabc 10c0 5498 0a40 44f0 b23f d2dd 153e
000000a0: 6d20 9140 93d7 32bf a24d 2940 d095 c13f
000000b0: f14d 793e 8fa7 c2be 8721 10c0 7cdb 023e
000000c0: 1e4b 1bbe 300c dc3d edf8 07bf 0ea1 64bf
000000d0: 6015 d5bd ea3f 11bf ba16 793f f380 b83f
000000e0: 87b9 e4bf 57cc 303b f9e0 54bf f21e 6f3d
000000f0: fa32 a9bf 1660 583f c667 a23e e4e2 44bf
00000100: 6b0a a63e ad8a 2b40 229a 9fbe 8332 663e
00000110: 3434 f1be 13d1 2abf 5f96 2b3f e778 6cc0
00000120: 6982 94bf 604d 033f 124f 84bf b712 9bbf
00000130: c5a3 94bf 425f 01bf b910 653e 5df5 9dbe
00000140: c3c0 0c40 8091 df40 f5e8 8a3f 02bf 1140
00000150: a52c 653f 5436 a03d 5710 7dc0 1ecd abc0
00000160: 93d8 16bf 3742 6a3e a7ba 90be cfae adbc
00000170: 88df b640 13b5 583f fee0 fc3f e019 8540
00000180: a9a1 37c0 4356 ed3f a5fd 4d40 0fc1 8540
00000190: f788 a33f 47ae 32be 0e07 72c0 6180 51bf
000001a0: 7278 d43f dcc9 90bf 6ad5 90be aa56 9c3d
000001b0: 8def 103f a044 8b3e 850e b0be ba7c 733f
000001c0: 6d0f 2f3f d39b 353f 302c 19c0 e62b 68be
000001d0: 75e0 8bbf bdac 113f c064 debe 9e8d f23d
000001e0: c7d5 aa3f c314 dcbf 8b22 51bf ea17 3140
000001f0: 48dc b13f e86d 0bc0 cde5 8b3f f8c2 87be
00000200: c49d f53d 91ac c93b c75a f1bf 9d39 7ebf
00000210: 4c24 22c0 f8e6 133f 301c 35c0 504d b8c0
00000220: e950 5c3f 7b59 a7bf a3b2 b7bc 7d01 01be
00000230: a426 3dc0 ea60 a7bf c739 753f dbf5 11c0
00000240: 28c1 8e40 2b37 a23f b14a 393e 88eb 463f
00000250: 77c0 14be 4c4f ae3d f354 d93e fe01 903f
00000260: 1603 c23e de76 063e 4d5f 1440 811b d83f
00000270: 7265 85bf abb8 943f 3ca8 933e 6c55 563e
00000280: 7e6c dbbf b69a e8bf 9b7e 88bf f999 c5bf
00000290: 1cd7 823f 347a cebf b479 fdbf 143d 0540
000002a0: e1a4 c43f 2d3d 2b3f 4494 5d3e 46ab 183e
000002b0: 4546 43bf 6640 143f abd1 dbbd fba1 bc3d
000002c0: ecd3 233f 29fb 1b3f 4b6d b1bd c5c3 a93e
000002d0: 076b 87c0 ca4a d9bf 453d c63f 8fd7 673f
000002e0: 7e3d 70bf 9119 e63f 8399 2640 8283 593e
000002f0: 5ef0 0c3f 3824 26be 41e0 d8bd 7269 1b3e
00000300: 6eb6 5cbd d952 2d3e 94ff 85be a887 8dbe
00000310: ed9e f1bb cd1e 5fbd c3ae 7bbe b44c a03f
00000320: 30fd 5cbf 977f 9ebf e130 29bf dbba c6bc
00000330: 550b 013e 77e6 db3f 580d 923f 12d7 d4bf
00000340: 0247 82bf 3aa3 1ebe abe0 6b3e 763a e3bf
00000350: 83a0 08be e60a 20be e48c 92bf 7e78 00c0
00000360: b6b7 46bf 1529 353f ad22 693e dc3f 41bc
00000370: 44fa c53e c8bd bd3f 759d edbd e029 ae3f
00000380: 19d5 eabf 4de5 88bc 9361 b33f 7a76 e8bf
00000390: 4270 a53f 187e a8bd 9912 b9bf d9d7 7a3f
000003a0: 9906 903f a4b9 7cbf 379d 873f 8d63 da3f
000003b0: 1f69 bebe 8c13 843d ec0b 02bf 20b1 593d
000003c0: 49a1 003f 46be 123f 0518 193e 29d4 0cc0
000003d0: b843 1ec0 2b5b 9b40 6719 88be 4064 b83c
000003e0: ed81 b73d 0967 48bd 16ad 07c0 ba75 55c0
000003f0: 2b3c 03c0 9a14 f3bf 179e 46bf d132 acc0

module.lstm.bias_ih_l0_reverse f4 [40]
-1.4841326 -0.46624216 -0.063737154 -0.03559731 -0.052423507 -0.75671166 -1.1811745 -0.9707611
0.44606978 -1.5435985 0.6037459 0.52914333 0.54343855 -0.39200887 1.1376295 0.84266645
1.1267216 1.0240217 -0.18009336 0.97946054 -0.24546856 -0.850281 0.36682948 0.6057384
-0.23919685 -0.8440616 -0.38052556 0.45066974 0.14331281 0.2097852 0.21293598 1.1182406
0.066286474 -0.22887558 -0.115839034 -0.8758762 -0.25417814 -0.118287764 -0.60347754 -1.9291092
00000000: 0ff8 bdbf 4bb7 eebe a088 82bd 7cce 11bd
00000010: 08ba 56bd dbb7 41bf ba30 97bf cd83 78bf
00000020: 4263 e43e a394 c5bf 178f 1a3f f075 073f
00000030: ca1e 0b3f 63b5 c8be d89d 913f fdb8 573f
00000040: 6a38 903f 2513 833f 656a 38be edbd 7a3f
00000050: 1c5c 7bbe 04ac 59bf 13d1 bb3e ac11 1b3f
00000060: 05f0 74be 6c14 58bf 3fd4 c2be 2fbe e63e
00000070: 98c0 123e eed1 563e e40b 5a3e 8222 8f3f
00000080: 34c1 873d 5c5e 6abe 043d edbd 6c39 60bf
00000090: a323 82be db40 f2bd 817d 1abf 0ded f6bf

module.lstm.bias_hh_l0_reverse f4 [40]
-1.7136468 -0.7412613 0.39689097 0.018170474 -0.21548088 -0.82429504 -1.1331502 -1.4468958
0.63315743 -1.4674801 0.90020967 0.45811918 0.28520614 -0.081986435 1.2570804 1.0406482
1.4010252 0.7434028 -0.11303884 1.1621748 -0.5337431 -0.80589426 0.30359787 0.58043057
-0.21111871 -0.9218733 -0.45578128 0.07988533 -0.058192044 0.16030432 0.52771175 1.1626693
0.48215336 -0.2823325 0.072183765 -0.6813442 -0.28997156 -0.1668833 -0.48199102 -1.792435
00000000: c758 dbbf 4dc3 3dbf 4b35 cb3e 3fda 943c
00000010: 05a7 5cbe 0005 53bf 110b 91bf e233 b9bf
00000020: 9b16 223f 63d6 bbbf 2474 663f 998e ea3e
00000030: 8a06 923e 81e8 a7bd 03e8 a03f f633 853f
00000040: cb54 b33f a54f 3e3f e880 e7bd 25c2 943f
00000050: 63a3 08bf 164f 4ebf 2e71 9b3e 1997 143f
00000060: 812f 58be e3ff 6bbf 2a5c e9be eb9a a33d
00000070: c85a 6ebd d126 243e 1e18 073f 59d2 943f
00000080: cedc f63e e38d 90be 15d5 933d 936c 2ebf
00000090: 2777 94be 75e3 2abe 87c7 f6be 836e e5bf

module.lstm.weight_ih_l1 f4 [40, 20]
-0.2263325 0.19327044 0.1607427 -0.28143156 0.6324283 -0.29390216 0.08049768 0.21437554
-0.26226407 -1.1608462 -0.33087182 -2.2679129 -2.1405869 -1.3119268 3.1575444 -1.4405696
-1.3646936 0.4295549 0.579294 0.8066826 -0.38334644 -0.44767815 0.97463226 -1.0205022
-0.34920722 0.4160619 0.26428315 -0.40127248 0.90228605 -0.12724495 -0.9308672 0.81425095
-0.21867813 -0.26848528 1.4818078 0.09707771 -0.70567805 -0.9291928 -0.19954042 0.021461155
0.2572875 -0.53664625 -0.3165482 1.2387931 -1.0802746 1.2626045 0.2067471 -0.19288293
0.7729696 0.9723869 -0.23441349 -0.5938471 1.1192338 -0.6762824 -0.21740186 0.38306046
-0.039144095 0.23619774 -0.8628319 2.4190838 -0.0004660551 -0.060003355 1.1049477 0.08709487
-0.06389117 -0.045705855 0.08638941 0.11240433 0.11232872 0.085224785 -0.51880187 -0.04724931
0.35317492 -0.16843174 0.0417289 0.17380206 0.40953365 -0.026833307 0.024421226 -0.03473705
1.1575059 -2.0944178 -0.6391351 2.1988802 -1.6242894 1.8749716 1.7090133 -1.2780167
1.131559 2.5985277 1.5336419 -0.28801528 3.4037528 -1.0434929 0.6491887 2.124187
0.44965076 0.17709798 0.46337405 1.694159 0.0070455167 0.5383333 0.4902229 -0.5523306
-0.24985583 0.06717609 -0.26380292 0.0056098285 -0.53437364 -0.12943372 0.771196 0.66735244
0.11045502 0.073233895 -0.12673336 0.7708357 0.20530133 -0.10988141 -0.29450846 0.8284104
-0.18306737 -0.8955411 0.67078525 -0.14015016 -0.7927645 -0.23845142 0.26617628 -0.6340408
0.7242927 -0.49518263 0.011669466 2.3914711 0.62263584 -0.027472695 1.645593 0.0998552
-0.7034586 -2.588114 -0.16749585 4.9270916 0.2413968 -0.99356467 1.2255497 -0.020336624
-0.6545332 -0.11827382 -0.14813897 -0.20372751 0.5451219 0.62177914 -0.08405359 1.2086972
1.4369994 -0.28702757 -0.34041098 0.73372877 1.1004212 -0.17108004 -0.30316985 -0.43781823
0.45564806 -0.36092773 0.9051868 0.14789644 0.9468829 0.23207745 -0.7861038 -0.087981604
-0.18072812 0.16375747 -0.105634 -0.062805526 1.545472 -0.5383417 -1.811595 0.9097417
1.1282724 -0.083963245 0.6941109 4.7362447 -0.4152925 0.13857432 0.2507122 -0.015841141
-0.3378443 0.12744796 0.21245587 -0.09393881 -0.05393431 0.5499368 1.706804 -0.30189306
0.016799638 0.30002788 -0.7193863 0.04651801 -0.07700948 -0.16566299 0.0009568938 0.11902526
-0.26433063 0.10451618 0.3383986 -0.0035499788 1.7885239 -0.27740574 0.5311179 -0.013273385
-0.51382923 -1.6148089 -0.6798399 -3.0588286 -2.6366699 -1.3793714 2.2829297 -1.66663
-1.0030366 0.20756023 0.76839465 1.1185595 0.6172003 -0.01852671 -0.9711581 0.99471885
0.6911834 -0.0065337457 -0.103786156 -0.31693295 -0.88750017 -0.38764098 1.234747 -0.651111
-0.47182402 0.21850249 -0.58529866 -0.44524208 0.10320777 -0.0281025 -0.10698317 -2.086236
1.9097168 1.4230684 1.64121 3.8424253 -0.32676348 2.3890586 0.75999576 -0.41337276
0.3410404 3.323186 -4.655977 0.46857274 -4.322117 -1.279032 0.7862907 -0.4821981
00000000: b5c3 67be b0e8 453e bc99 243e cc17 90be
00000010: d2e6 213f 587a 96be f8db a43d 4385 5b3e
00000020: 7a47 86be 9c96 94bf 0868 a9be 7c25 11c0
00000030: 60ff 08c0 38ed a7bf 3515 4a40 9664 b8bf
00000040: 48ae aebf 9fee db3e 9d4c 143f c082 4e3f
00000050: fc45 c4be 1236 e5be 8081 793f d19f 82bf
00000060: 4acb b2be 1106 d53e 1f50 873e 9673 cdbe
00000070: 38fc 663f 804c 02be 504d 6ebf c072 503f
00000080: 29ed 5fbe e776 89be e1ab bd3f aed0 c63d
00000090: 51a7 34bf 94df 6dbf 5354 4cbe 4ecf af3c
000000a0: 30bb 833e a661 09bf 9b12 a2be c690 9e3f
000000b0: 7046 8abf 069d a13f 83b5 533e 1a83 45be
000000c0: 56e1 453f 59ee 783f 170a 70be 5d06 18bf
000000d0: 0e43 8f3f d820 2dbf 989e 5ebe 8020 c43e
000000e0: 8f55 20bd d2dd 713e 8de2 5cbf 45d2 1a40
000000f0: db58 f4b9 14c6 75bd ed6e 8d3f cc5e b23d
00000100: 60d9 82bd 1036 3bbd eeec b03d 3e34 e63d
00000110: 9a0c e63d 558a ae3d 33d0 04bf 7e88 41bd
00000120: 58d3 b43e 5f79 2cbe eceb 2a3d 2bf9 313e
00000130: 65ae d13e 86d1 dbbc 060f c83c 7048 0ebd
00000140: 2729 943f f10a 06c0 5c9e 23bf 74ba 0c40
00000150: b7e8 cfbf 12ff ef3f f3c0 da3f 0d96 a3bf
00000160: edd6 903f 474e 2640 614e c43f bd76 93be
00000170: 16d7 5940 2d91 85bf 3b31 263f aef2 0740
00000180: a038 e63e 2c59 353e 5d3f ed3e 34da d83f
00000190: 14de e63b 36d0 093f 7ffe fa3e 8a65 0dbf
000001a0: 35da 7fbe 9e93 893d 2d11 87be a7d2 b73b
000001b0: b6cc 08bf 468a 04be 1a6d 453f 9cd7 2a3f
000001c0: 3e36 e23d a7fb 953d 64c6 01be 7d55 453f
000001d0: 833a 523e 8109 e1bd d0c9 96be b412 543f
000001e0: 0376 3bbe 2e42 65bf 95b8 2b3f 8683 0fbe
000001f0: 9df2 4abf 9c2c 74be 4248 883e 7f50 22bf
00000200: 3f6b 393f 9488 fdbe 4a31 3f3c dd0d 1940
00000210: 1065 1f3f 6b0e e1bc cba2 d23f e280 cc3d
00000220: dd15 34bf a9a3 25c0 0884 2bbe bcaa 9d40
00000230: b930 773e 415a 7ebf d0de 9c3f fe98 a6bc
00000240: 7d8f 27bf 8b39 f2bd beb1 17be f29d 50be
00000250: 1c8d 0b3f eb2c 1f3f 4a24 acbd 97b6 9a3f
00000260: 99ef b73f 47f5 92be 594a aebe a6d5 3b3f
00000270: 9ada 8c3f 9b2f 2fbe 1439 9bbe b629 e0be
00000280: b44a e93e 85cb b8be 52ba 673f 2a72 173e
00000290: eb66 723f b6a5 6d3e 193e 49bf b32f b4bd
000002a0: cb10 39be 0ab0 273e a356 d8bd 2fa0 80bd
000002b0: 07d2 c53f c3d0 09bf 58e2 e7bf d5e4 683f
000002c0: 3b6b 903f ecf4 abbd 40b1 313f 518f 9740
000002d0: 38a1 d4be 6de6 0d3e 595d 803e 48c5 81bc
000002e0: eef9 acbe b881 023e 088e 593e fe62 c0bd
000002f0: 39ea 5cbd a8c8 0c3f 8e78 da3f ba91 9abe
00000300: 659f 893c 419d 993e b329 38bf ab89 3e3d
00000310: 25b7 9dbd 8fa3 29be 0ed8 7a3a 84c3 f33d
00000320: 5856 87be 940c d63d 9542 ad3e c3a6 68bb
00000330: 5aee e43f 2008 8ebe 58f7 073f 9d78 59bc
00000340: 508a 03bf 0fb2 cebf fd09 2ebf d9c3 43c0
00000350: 33bf 28c0 3e8f b0bf 851b 1240 2254 d5bf
00000360: 8163 80bf ab8a 543e 83b5 443f f52c 8f3f
00000370: d700 1e3f 54c5 97bc d19d 78bf e5a5 7e3f
00000380: 65f1 303f 0819 d6bb d68d d4bd 0945 a2be
00000390: 3633 63bf e178 c6be 310c 9e3f 36af 26bf
000003a0: eb92 f1be 1ebf 5f3e 22d6 15bf c5f6 e3be
000003b0: 985e d33d 3737 e6bc fe19 dbbd e484 05c0
000003c0: 9a71 f43f 1b27 b63f 2b13 d23f 4cea 7540
000003d0: 8b4d a7be 56e6 1840 158f 423f 98a5 d3be
000003e0: d99c ae3e 14af 5440 c3fd 94c0 c4e8 ef3e
000003f0: c84e 8ac0 52b7 a3bf 594a 493f abe2 f6be

module.lstm.weight_hh_l1 f4 [40, 10]
2.2845225 -0.6218115 0.3200051 2.0869997 1.0048311 -2.8602986 0.08894964 0.33889124
0.4374847 0.106343836 0.45199713 0.622861 2.0547283 0.68053925 0.8723615 -1.4673952
-0.2173066 0.9112368 1.5670977 1.0676122 -0.083749436 1.1287705 0.9975544 -0.42052114
0.45663428 -0.33974406 0.5783865 0.13287798 -0.7838035 0.97630095 0.1238345 -0.86334807
0.5395458 -0.012303062 0.29008842 0.42748922 0.2539166 -0.099507816 -0.43869662 1.0689353
-1.1463058 1.3859152 -7.5031247 1.4658495 2.067988 0.595717 -9.712268 -0.040275674
-2.055568 2.3906252 1.4452986 -0.8660749 2.0693824 -0.08987791 0.25220278 -1.2984188
-0.050849997 0.28550702 0.13013868 0.65876746 0.7315314 -0.8664893 -0.92941606 0.430295
0.0037164702 -0.6227178 0.72990435 0.03439541 -0.14963618 0.23111168 -2.8809385 2.5233235
-0.13603692 0.9188673 0.7426535 2.2726216 0.48937747 1.2830205 -3.0930684 0.95627093
0.015370132 -8.390067 -1.0739989 2.2039738 2.271408 -3.239369 1.4150382 0.5361126
-2.9751668 0.39247507 3.3649404 -3.124474 1.2467608 -1.146503 -0.63504505 -3.890048
-1.485495 -0.48714197 -1.211744 5.082676 -1.2157791 0.8513965 -0.0060267295 2.1697145
0.2478632 -3.0580292 -1.1545725 -0.26191378 -0.121821485 -0.463208 -0.74276805 2.583414
-1.3922662 1.1224934 0.3456689 0.38489565 -1.3112231 1.212146 0.892293 -1.58386
-0.5947138 1.0716983 -1.3136777 -3.5067792 -0.8033021 0.73532623 -2.3127613 -0.839021
1.8598351 -2.450837 -0.93912363 -1.2496628 -3.4508626 1.730076 0.3572927 -1.0119009
-0.12384978 1.6056027 -2.317732 2.203746 -0.3467199 1.647283 -1.1645168 0.9032871
-0.4290035 -1.3324711 -2.2086136 -0.83502746 -0.067423716 -0.36790586 1.6494464 1.5800976
6.301887 -1.1670089 1.0729755 -0.80203456 -1.0039426 -0.50698096 2.975683 -1.0302331
-0.48097214 -0.5738592 0.9947715 1.1674968 -0.5317569 0.11596998 1.4936775 0.1088635
0.70277864 -1.0542977 2.6673808 -0.8589107 -3.59671 1.5324464 0.79929173 -0.87194514
0.9588883 0.49140096 -0.43814537 -0.41965547 -2.6800919 -3.4188411 -2.3771439 2.7415771
0.48519814 -2.9198704 -1.5535126 -1.4625988 -3.048121 -3.2241046 1.7276673 -0.36474502
1.9063014 -1.8333559 -1.4188243 -1.8095202 -1.2414421 -2.6232703 1.1734886 2.1120632
-3.438445 -1.5051128 -0.4449444 -1.7347249 0.095996775 2.4217162 1.2487319 -1.2660824
-1.956744 0.7143095 0.14138408 0.7170388 1.9558402 0.4602459 0.53226763 0.40973312
1.6464045 -0.34051302 3.387277 2.1343122 -0.19174708 0.9556555 -0.37658715 -2.0591302
1.0112128 -1.911477 -3.611635 0.16825438 1.644875 -0.307062 3.9644074 -0.7363154
1.2045611 -0.168703 -0.071063824 -1.0669181 -0.5663274 -0.47786835 0.30436555 -3.1007066
5.7473235 3.463611 1.8395331 0.26174012 -1.106836 -0.34967545 -3.2698596 0.35398576
-4.588816 6.9703126 -1.3694375 -1.668983 1.771189 0.11014661 1.2441823 -2.0504575
00000000: 9e35 1240 0a2f 1fbf b5d7 a33e 6791 0540
00000010: 4e9e 803f 220f 37c0 3b2b b63d 2783 ad3e
00000020: fffd df3e ccca d93d 2b6c e73e d273 1f3f
00000030: ab80 0340 d237 2e3f 1553 5f3f 9bd3 bbbf
00000040: 9f85 5ebe d146 693f a896 c83f 84a7 883f
00000050: d384 abbd 8d7b 903f ba5f 7f3f 8c4e d7be
00000060: f8cb e93e eff2 adbe 2311 143f 2a11 083e
00000070: 59a7 48bf dcee 793f f19c fd3d 6104 5dbf
00000080: ac1f 0a3f c892 49bc 7886 943e dedf da3e
00000090: 5b01 823e c1ca cbbd d89c e0be dfd2 883f
000000a0: 26ba 92bf ab65 b13f 9919 f0c0 f5a0 bb3f
000000b0: ea59 0440 e980 183f 7365 1bc1 1bf8 24bd
000000c0: 6d8e 03c0 0100 1940 8bff b83f 16b7 5dbf
000000d0: c370 0440 e911 b8bd b920 813e 9632 a6bf
000000e0: 1648 50bd fa2d 923e 1343 053e fca4 283f
000000f0: a445 3b3f 3ed2 5dbf 36ee 6dbf a04f dc3e
00000100: 0690 733b 6f6a 1fbf 03db 3a3f 34e2 0c3d
00000110: 3a3a 19be 8aa8 6c3e 4c61 38c0 227e 2140
00000120: 434d 0bbe e33a 6b3f 8a1e 3e3f a272 1140
00000130: af8f fa3e 043a a43f d5f4 45c0 2cce 743f
00000140: 02d3 7b3c b73d 06c1 cc78 89bf e80d 0d40
00000150: c05e 1140 d251 4fc0 f91f b53f ad3e 093f
00000160: 2269 3ec0 7ef2 c83e 2f5b 5740 62f7 47c0
00000170: dc95 9f3f 9cc0 92bf 5092 22bf 8cf6 78c0
00000180: b324 bebf ac6a f9be 6d1a 9bbf 48a5 a240
00000190: a69e 9bbf 1ff5 593f df7b c5bb 9adc 0a40
000001a0: dacf 7d3e c0b6 43c0 08c9 93bf 9019 86be
000001b0: 8b7d f9bd 9929 edbe 0c26 3ebf a856 2540
000001c0: c735 b2bf ddad 8f3f 84fb b03e 0b11 c53e
000001d0: 29d6 a7bf 9a27 9b3f 506d 643f edbb cabf
000001e0: 2a3f 18bf 692d 893f 9726 a8bf 126f 60c0
000001f0: 35a5 4dbf 573e 3c3f 4804 14c0 15ca 56bf
00000200: 140f ee3f 83da 1cc0 686a 70bf f3f4 9fbf
00000210: efda 5cc0 2173 dd3f 12ef b63e f885 81bf
00000220: f4a4 fdbd 6484 cd3f b955 14c0 2d0a 0d40
00000230: 4585 b1be 2bda d23f e30e 95bf d33d 673f
00000240: 59a6 dbbe 6a8e aabf ed59 0dc0 5cc4 55bf
00000250: 7215 8abd 285e bcbe 0f21 d33f a340 ca3f
00000260: 0fa9 c940 8c60 95bf 4357 893f 2352 4dbf
00000270: 3181 80bf 81c9 01bf 9771 3e40 aede 83bf
00000280: fb41 f6be 70e8 12bf 58a9 7e3f 8970 953f
00000290: 3821 08bf ab81 ed3d d330 bf3f d4f3 de3d
000002a0: 4de9 333f 3af3 86bf 5eb6 2a40 92e1 5bbf
000002b0: 7f30 66c0 3427 c43f 629e 4c3f cc37 5fbf
000002c0: b479 753f e898 fb3e 9754 e0be 15dd d6be
000002d0: a086 2bc0 4bce 5ac0 2023 18c0 0076 2f40
000002e0: e46b f83e 28df 3ac0 80d9 c6bf 7036 bbbf
000002f0: 6a14 43c0 bb57 4ec0 3424 dd3f dcbf babe
00000300: af01 f43f 68ab eabf 099c b5bf 5c9e e7bf
00000310: 93e7 9ebf a9e3 27c0 e034 963f 0b2c 0740
00000320: 7c0f 5cc0 89a7 c0bf c1cf e3be 770b debf
00000330: f599 c43d 66fd 1a40 72d6 9f3f fd0e a2bf
00000340: 9676 fabf fddc 363f fdc6 103e db8f 373f
00000350: f958 fa3f 5aa5 eb3e b142 083f 8ac8 d13e
00000360: 62bd d23f b957 aebe 25c9 5840 9298 0840
00000370: 5959 44be d7a5 743f 08d0 c0be cac8 03c0
00000380: 6c6f 813f 47ab f4bf 0725 67c0 e04a 2c3e
00000390: 448b d23f 3b37 9dbe dab8 7d40 2b7f 3cbf
000003a0: 0f2f 9a3f 7bc0 2cbe e989 91bd c690 88bf
000003b0: d5fa 10bf 29ab f4be cdd5 9b3e fa71 46c0
000003c0: 13ea b740 cdab 5d40 d275 eb3f cd02 863e
000003d0: cdac 8dbf a908 b3be 6145 51c0 9f3d b53e
000003e0: 95d7 92c0 cd0c df40 ba49 afbf 3ca1 d5bf
000003f0: 52b6 e23f 8c94 e13d 5e41 9f3f b23a 03c0

module.lstm.bias_ih_l1 f4 [40]
-1.2767056 -1.4948529 -1.6295292 -1.1627074 0.0019651125 -1.1466802 -1.4098697 -0.564959
0.1288136 -0.1645109 1.7441493 1.3431121 1.3295455 3.0697153 1.78761 1.2536308
1.8290073 2.3746989 1.1302351 1.2761135 -1.7112482 0.33341947 0.43887284 -0.42369038
-0.15587282 -0.14284524 -0.29553685 1.1436536 1.0155898 -2.304691 1.2353537 0.32661968
-0.18406321 2.3302693 -0.70348614 2.5507748 0.8883329 0.1131225 -1.3230778 -0.9463499
00000000: 176b a3bf 5757 bfbf 6a94 d0bf 99d3 94bf
00000010: 1ec9 003b 6bc6 92bf 9c76 b4bf 27a1 10bf
00000020: b6e7 033e 8c75 28be 4940 df3f 19eb ab3f
00000030: 8c2e aa3f 3776 4440 68d0 e43f f976 a03f
00000040: e91c ea3f 11fb 1740 8bab 903f b057 a33f
00000050: 2e0a dbbf f5b5 aa3e f1b3 e03e f2ed d8be
00000060: 209d 1fbe 0646 12be 9b50 97be 3e63 923f
00000070: d9fe 813f 0f80 13c0 1220 9e3f b23a a73e
00000080: 117b 3cbe 2223 1540 ab17 34bf e53f 2340
00000090: c969 633f c5ac e73d 9d5a a9bf fd43 72bf

module.lstm.bias_hh_l1 f4 [40]
-1.1145284 -1.331652 -1.8011429 -1.0690762 0.27948686 -1.2401226 -1.5254797 -0.4762162
-0.2612504 -0.13499251 1.5541432 1.2136276 1.0584038 3.2007 1.794176 1.2241629
1.72082 2.3743436 1.2889977 1.3955427 -2.301633 0.39309567 0.043453045 -0.24368373
-0.24870011 0.085265346 -0.7237095 0.96139693 1.0180897 -2.0976918 0.9285655 -0.13890482
-0.11059635 1.8927503 -0.6699623 2.5252457 0.9309446 0.53776616 -1.2756187 -1.0674711
00000000: dea8 8ebf 9373 aabf da8b e6bf 7dd7 88bf
00000010: e718 8f3e 56bc 9ebf eb42 c3bf 9cd2 f3be
00000020: 9dc2 85be 7a3b 0abe 2aee c63f 2658 9b3f
00000030: c779 873f 45d8 4c40 8fa7 e53f 5fb1 9c3f
00000040: d443 dc3f 3ff5 1740 e0fd a43f 25a1 b23f
00000050: f44d 13c0 d643 c93e d2fb 313d 3a88 79be
00000060: 3eab 7ebe 999f ae3d 0745 39bf 1c1e 763f
00000070: c350 823f 9540 06c0 78b6 6d3f 113d 0ebe
00000080: 5780 e2bd a445 f23f a682 2bbf a09d 2140
00000090: 6352 6e3f 0bab 093f 7947 a3bf e5a2 88bf

module.lstm.weight_ih_l1_reverse f4 [40, 20]
0.33183712 -0.54523915 -0.84157634 1.520537 -0.9415658 0.6608279 1.0003397 -0.765537
0.010263167 0.2701927 -0.46294907 -0.557014 0.493234 -0.20787744 0.44726968 -0.3019709
-0.5928874 0.22585928 -0.17429878 0.28680837 -0.08287707 -1.6685504 -1.6940305 1.6788298
-0.70754415 1.8751298 0.52318186 -0.42069227 1.678167 1.7063489 -0.7815433 0.44705158
-0.39288056 -1.5590006 0.96797884 -0.14788437 -0.25276613 0.35475427 -0.38352418 0.23222338
0.28638238 0.28494322 -4.1445475 2.016437 0.11722652 2.0558996 0.9494127 -1.2602139
0.4715979 0.5583594 1.430804 1.8310416 -0.067868024 0.16315575 1.7355593 1.0356762
-0.055780485 0.6599539 0.17988554 0.4851718 -0.13993008 -1.2662383 14.796196 0.80873877
-1.4925797 0.5084212 0.25624818 0.45335013 1.9699527 0.060213387 -0.70506805 1.7074227
1.221571 -1.1268957 -1.1072214 1.5111545 0.42236254 -0.5927496 1.5826398 -1.0030468
0.1276771 0.8380637 2.264757 -1.5218877 0.17984633 -0.4569715 0.028231148 0.56091857
-0.20394014 -1.0370361 -2.6295624 0.9582251 0.21786365 -0.5902044 0.40267932 0.43896517
-0.5600539 -0.114464745 -0.3384341 -0.2185544 -0.17347951 0.24241032 0.0009059731 0.26587567
0.30351081 -0.18244186 0.36188394 0.0033664787 0.051909544 -0.36174083 -0.06160972 0.46929848
0.38595542 -0.10823714 0.47437546 0.24346197 0.024313848 0.050056305 -0.08790186 0.05940304
-0.09303778 0.81289595 8.710581 -0.5468983 -0.071493 -0.035256967 -0.30287594 0.048858184
-0.75258684 -0.074101634 0.7396536 1.0478072 0.5025489 0.09836171 -1.0878881 1.3994315
1.0411009 -0.16340479 -0.11036118 0.09334219 -0.060512334 0.06725395 -1.4888676 -0.1541
-0.22808649 0.29129183 0.00902764 -0.21344826 -0.036436785 -0.024147801 1.1060231 -0.09307559
-1.0355498 -0.23358324 0.9923367 0.1658966 -0.08650667 0.111294724 0.07802075 0.048599824
0.38341764 -2.0356739 1.0856951 1.3064437 -1.7394439 1.8174089 1.1668322 -1.5403974
-0.3346794 -0.0598335 -0.9452521 1.9417223 -0.57457507 -1.7817765 2.5108776 2.7180011
-2.465675 -2.7311797 -0.25194207 0.725235 -0.21494001 0.10016868 0.14522518 -0.21377702
0.041133106 -0.027915658 -0.08585071 -0.17460784 -0.048077803 0.05905306 0.18864417 0.34030282
0.13852648 0.2241756 -0.3406328 0.18904687 0.3766479 -0.06896643 -0.14161083 -0.05040352
2.6168587 -0.19752923 -0.46282756 -0.1391689 2.1138878 -3.3244138 2.3126326 -1.8579832
-1.6611739 -6.2193155 -5.880166 2.5107005 -2.5939345 1.3031577 -0.14876507 0.42618996
-2.930108 -2.240847 1.2246727 -5.6372333 0.7610668 -1.4808289 -1.1955253 1.4693903
0.9309123 1.2051585 0.86756366 -0.93713164 1.2204264 -0.8947388 -0.046913512 -0.97005135
-2.3649619 -1.9222242 3.7410333 -0.28789714 -0.23996717 0.39652514 0.32128745 -0.022722388
0.087946005 2.6636937 1.4652596 3.7071712 0.6474216 2.4627337 2.7947533 -3.2652755
-2.4170506 -0.051784653 1.362389 -0.5833939 -0.56861144 0.8056992 -0.24889329 -0.84221286
00000000: 8ee6 a93e cb94 0bbf 8c71 57bf f5a0 c23f
00000010: 750a 71bf 042c 293f 220b 803f 3cfa 43bf
00000020: d826 283c b356 8a3e a907 edbe 7898 0ebf
00000030: 2b89 fc3e d3dd 54be 8800 e53e ee9b 9abe
00000040: 78c7 17bf a847 673e 617b 32be 8cd8 923e
00000050: 74bb a9bd 0f93 d5bf fed5 d8bf e5e3 d63f
00000060: 9d21 35bf 4104 f03f 3fef 053f fa64 d7be
00000070: 2dce d63f a469 da3f 3913 48bf f2e3 e43e
00000080: a427 c9be 558d c7bf 76cd 773f 006f 17be
00000090: 906a 81be 5aa2 b53e 485d c4be f7cb 6d3e
000000a0: b6a0 923e 14e4 913e 22a0 84c0 4e0d 0140
000000b0: 7514 f03d dc93 0340 b60c 733f b04e a1bf
000000c0: 4875 f13e a4f0 0e3f 9624 b73f 925f ea3f
000000d0: 64fe 8abd 4d12 273e cf26 de3f 0a91 843f
000000e0: 147a 64bd bdf2 283f ea33 383e 7068 f83e
000000f0: d549 0fbe 1914 a2bf 38bd 6c41 8109 4f3f
00000100: da0c bfbf e427 023f f632 833e 821d e83e
00000110: 6927 fc3f 50a2 763d 577f 34bf d48c da3f
00000120: 705c 9c3f 1e3e 90bf 6eb9 8dbf 836d c13f
00000130: e73f d83e 70be 17bf f193 ca3f d663 80bf
00000140: c9bd 023e 588b 563f c7f1 1040 37cd c2bf
00000150: a329 383e 2bf8 e9be 0245 e73c 5c98 0f3f
00000160: afd5 50be 99bd 84bf c04a 28c0 3d4e 753f
00000170: a617 5f3e a317 17bf fc2b ce3e 0bc0 e03e
00000180: b15f 0fbf 7e6c eabd 3c47 adbe bacc 5fbe
00000190: 9da4 31be 693a 783e d37e 6d3a db20 883e
000001a0: c565 9b3e 0ad2 3abe da48 b93e 24a0 5c3b
000001b0: 1a9f 543d 1836 b9be 795a 7cbd e447 f03e
000001c0: f39b c53e 6fab ddbd 57e1 f23e 184e 793e
000001d0: d62d c73c d707 4d3d e405 b4bd 9a50 733d
000001e0: 978a bebd f319 503f 8a5e 0b41 8701 0cbf
000001f0: ec6a 92bd 9c69 10bd 8e12 9bbe 851f 483d
00000200: 88a9 40bf 99c2 97bd f059 3d3f 8c1e 863f
00000210: 0ba7 003f dd71 c93d eb3f 8bbf 9220 b33f
00000220: cb42 853f 9653 27be 0b05 e2bd 312a bf3d
00000230: c8db 77bd 70bc 893d 3793 bebf 64cc 1dbe
00000240: 818f 69be 3424 953e abe8 133c 2e92 5abe
00000250: bd3e 15bd 9cd1 c5bc 2a92 8d3f 6a9e bebd
00000260: e58c 84bf 7230 6fbe c709 7e3f cce0 293e
00000270: 692a b1bd 7dee e33d 58c9 9f3d 9c10 473d
00000280: 514f c43e 7b48 02c0 0ff8 8a3f 8c39 a73f
00000290: 19a6 debf dba0 e83f c25a 953f be2b c5bf
000002a0: 195b abbe f913 75bd 0bfc 71bf 5b8a f83f
000002b0: 5a17 13bf 4111 e4bf 38b2 2040 bbf3 2d40
000002c0: 9fcd 1dc0 a6cb 2ec0 8dfe 80be 00a9 393f
000002d0: 3c19 5cbe 3d25 cd3d e9b5 143e 5de8 5abe
000002e0: 307b 283d 61af e4bc 7fd2 afbd 66cc 32be
000002f0: 3bed 44bd 9fe1 713d f02b 413e 2c3c ae3e
00000300: e3d9 0d3e 4a8e 653e 6c67 aebe 8195 413e
00000310: fed7 c03e 463e 8dbd 6e02 11be ec73 4ebd
00000320: 9d7a 2740 1a45 4abe bcf7 ecbe 4b82 0ebe
00000330: f049 0740 32c3 54c0 2c02 1440 65d2 edbf
00000340: 59a1 d4bf a204 c7c0 522a bcc0 51af 2040
00000350: 0603 26c0 dfcd a63f df55 18be 9235 da3e
00000360: e486 3bc0 0a6a 0fc0 13c2 9c3f 3764 b4c0
00000370: 46d5 423f cd8b bdbf f906 99bf fb14 bc3f
00000380: 4550 6e3f a242 9a3f a718 5e3f dce7 6fbf
00000390: ef36 9c3f 9a0d 65bf 6228 40bd 4955 78bf
000003a0: 895b 17c0 710b f6bf 176d 6f40 4167 93be
000003b0: f4b9 75be 5805 cb3e ca7f a43e 4d24 babc
000003c0: 091d b43d f579 2a40 a08d bb3f 4b42 6d40
000003d0: 6cbd 253f 6e9d 1d40 3ddd 3240 46fa 50c0
000003e0: f5b0 1ac0 251c 54bd c362 ae3f 4d59 15bf
000003f0: 8590 11bf 4e42 4e3f e2dd 7ebe 439b 57bf
