sparrow/data/networks/phosphorylation/thr_phosphorylation_predictor_network_v1.pt (torch, 23690 bytes, 18 tensors)

lstm.weight_ih_l0 f4 [40, 20]
0	0x3e32239f	0.17396401
1	0xbe9184d8	-0.28421664
2	0x3ea11b79	0.31466272
3	0xbcaa7b1d	-0.020810658
4	0x3cf7f94b	0.03027024
5	0xbd4a7a11	-0.049432818
6	0x3dd2bb92	0.102896824
7	0x3dbd1a70	0.09233558
8	0x3da2427c	0.07922837
9	0x3e678753	0.22610216
10	0xbe422e4b	-0.18962972
11	0xbddc6cd0	-0.10762942
12	0xbe1340fd	-0.1438026
13	0x3c4afa66	0.012388801
14	0x3e0e779d	0.13912816
15	0xbeb9205a	-0.36157495
16	0xbdfa901c	-0.12234518
17	0x3d9eed5d	0.07760117
18	0xbef883d1	-0.48538068
19	0x3d5aa3d0	0.05337888
20	0xbe23779f	-0.159636
21	0x3db36426	0.08759336
22	0xbdd3837e	-0.103278145
23	0xbe0b37e4	-0.1359554
24	0xbd384a1e	-0.04499256
25	0x3dfbc3b2	0.12293185
26	0xbe25d945	-0.16196163
27	0x3e350ef4	0.17681485
28	0xbcfb3727	-0.030665947
29	0xbe9feb52	-0.31234223
30	0xbdda5917	-0.10661524
31	0xbeaa17de	-0.33221334
32	0xbea13b4f	-0.3149056
33	0x3dc5377a	0.09629722
34	0xbcfe08dc	-0.031010084
35	0xbde3273e	-0.11091469
36	0xbe55bc14	-0.20872527
37	0x3df668da	0.120317176
38	0x3d90c19c	0.07068178
39	0x3ef3e7b1	0.47637704
40	0xbeab314a	-0.33436042
41	0x3e4e879b	0.20168917
42	0x3cf85ec8	0.030318633
43	0x3eaecac3	0.3413907
44	0xbcfdc1ef	-0.030976264
45	0x3e481cfc	0.19542307
46	0x3e0ee1a4	0.13953263
47	0x3ea8da05	0.32978836
48	0xbe150a9f	-0.14554833
49	0x3eec8196	0.46192616
50	0xbce3fb13	-0.027829682
51	0xbe091171	-0.1338556
52	0xbed51b84	-0.41622555
53	0x3e54a924	0.20767647
54	0x3df316ed	0.11869607
55	0xbc8bbf62	-0.017059032
56	0x3ea5d26e	0.32387108
57	0x3e637eec	0.22216386
58	0xbe0c7cc5	-0.13719471
59	0x3e1a7c6d	0.15086527
60	0xbeaf89ad	-0.34284726
61	0xbece1122	-0.40247446
62	0x3e434951	0.19070937
63	0xbeece6fa	-0.4626997
64	0x3e8d6ed8	0.2762363
65	0xbd6c18aa	-0.05764071
66	0xbe009df0	-0.12560248
67	0x3d98762f	0.07444417
68	0xbeb736f9	-0.35784128
69	0x3ec4afd2	0.3841539
70	0xbe0f4798	-0.13992155
71	0x3e819bcd	0.2531418
72	0xbe821c07	-0.25412008
73	0x3e6ea7d4	0.23306209
74	0x3d86f4e8	0.06589681
75	0xbda3bc42	-0.07994892
76	0xbe0545c6	-0.13014898
77	0x3bcad77d	0.006190239
78	0xbe80fd52	-0.25193268
79	0xbdb5b553	-0.088724755
80	0x3e49e4b6	0.19716153
81	0xbcb0ac24	-0.021566458
82	0x3e337ba0	0.17527628
83	0xbe95a482	-0.29227072
84	0x3dd3149d	0.10306666
85	0xbebb4f4a	-0.3658393
86	0x3e57e4a0	0.21083307
87	0x3eefcd4c	0.46836317
88	0xbd8c747a	-0.06858154
89	0x3ea47b42	0.32125288
90	0x3ce51d0a	0.027967948
91	0xbea5f950	-0.32416773
92	0x3bc582c6	0.0060275523
93	0x3e9aa908	0.30207086
94	0xbe057c07	-0.13035594
95	0xbe6290ec	-0.22125596
96	0x3e5996c8	0.21248925
97	0xbd096121	-0.033539895
98	0x3e61e36a	0.22059408
99	0xbe0faa7d	-0.1402988
100	0xbd59669f	-0.053076383
101	0x3ea7d97b	0.32783112
102	0xbddbe41a	-0.10736866
103	0x3e1fa509	0.155903
104	0xbd7623f9	-0.0600929
105	0xbba4f293	-0.0050338
106	0xbe518df3	-0.20464306
107	0x3db2a81b	0.0872347
108	0xbd1bc81a	-0.03803263
109	0x3e8bb31a	0.2728508
110	0x3e503c61	0.20335533
111	0xbe089f8a	-0.1334211
112	0xbeca09ea	-0.3946069
113	0xbe49c86d	-0.19705363
114	0x3ebb5a72	0.36592442
115	0x3f0bc960	0.5460415
116	0x3e5684e9	0.20949139
117	0x3e00ae43	0.12566476
118	0x3dcc5a1c	0.099781245
119	0x3f019e85	0.50632507
120	0x3e7a6339	0.24451913
121	0x3d22d69a	0.03975544
122	0xbc7daa77	-0.0154825365
123	0xbe541f1b	-0.20714991
124	0x3eb2083d	0.3477191
125	0x3e8d2998	0.27570796
126	0xbebaef2e	-0.36510605
127	0xbdbd2885	-0.09236244
128	0x3e3cdf35	0.18444522
129	0xbe8cd633	-0.2750717
130	0x3e10444b	0.14088552
131	0xbe957260	-0.29188824
132	0x3e3998a4	0.18124634
133	0xbf096849	-0.5367475
134	0xbe8f8997	-0.2803466
135	0x3f34d3bb	0.70635575
136	0xbd6b15bc	-0.057393774
137	0x3e744174	0.23853093
138	0xbdc5fca5	-0.09667329
139	0xbda6335d	-0.081152655
140	0x3dc6e4b0	0.097115874
141	0xbe09ea57	-0.134683
142	0xbe7566cb	-0.23964994
143	0xbd9010b3	-0.07034435
144	0xbccca041	-0.024978759
145	0x3eb01cac	0.34396875
146	0xbd22de50	-0.039762795
147	0x3dacf49b	0.08445092
148	0xbe17390c	-0.14767855
149	0x3db82f32	0.08993377
150	0xbea0bbfa	-0.31393415
151	0x3d993fe1	0.07482887
152	0xbf172505	-0.5904086
153	0xbe4ead22	-0.20183232
154	0xbc0cd8a5	-0.008596574
155	0x3eb5c1d0	0.3549943
156	0x3e8bf721	0.27336982
157	0xbeb9a143	-0.36255845
158	0x3dedd43a	0.11612745
159	0xbc878419	-0.016542481
160	0xbea73324	-0.32656205
161	0x3e63febc	0.22265142
162	0xbdc67ea7	-0.09692126
163	0x3e731697	0.23739086
164	0xbd9904c1	-0.0747161
165	0x3e942907	0.2893755
166	0xbe503d89	-0.20335974
167	0xbe562178	-0.20911205
168	0x3e44d29e	0.19220969
169	0xbdbc5a12	-0.09196867
170	0x3d27253e	0.040807
171	0x3e96e0fd	0.29468527
172	0xbe25409d	-0.1613793
173	0x3de08e76	0.10964672
174	0x3e6a96c6	0.22909078
175	0x3e4f30fd	0.20233531
176	0x3eaf957b	0.34293732
177	0xbe4af62a	-0.19820467
178	0xbed00761	-0.4063063
179	0x3ee0c26c	0.43898332
180	0x3e3b5320	0.18293428
181	0x3de17885	0.110093154
182	0x3d0b2725	0.033972878
183	0xbe0833de	-0.13301036
184	0xbe85bc63	-0.2612029
185	0x3ed2b9ac	0.4115728
186	0xbe08a6ae	-0.13344833
187	0xbea9aa01	-0.33137515
188	0x3dca89d7	0.09889572
189	0xbd881b0f	-0.06645786
190	0xbe70e53e	-0.23524949
191	0xbe51b7da	-0.2048029
192	0x3e152b54	0.1456731
193	0x3e1f4f30	0.15557551
194	0xbccf5e92	-0.02531365
195	0xbe56b78a	-0.20968452
196	0x3e90947f	0.28238294
197	0x3cdd8ea6	0.02704556
198	0x3ea3a5c4	0.31962407
199	0xbe3928e9	-0.18082012
200	0x3e6cc7df	0.2312312
201	0xbe8712f9	-0.26381662
202	0x3f16ab83	0.58855456
203	0x3e020670	0.12697768
204	0x3f02f36d	0.5115269
205	0x3c6c0593	0.014405626
206	0xbe6f4e00	-0.23369598
207	0xbd4120a4	-0.04715027
208	0x3be9df92	0.0071372474
209	0x3ebbe5d1	0.36698774
210	0x3e28d208	0.1648637
211	0xbc8ae01b	-0.016952565
212	0xbf553058	-0.8327689
213	0x3ea838c4	0.3285581
214	0xbd7c32ce	-0.06157189
215	0x3f00a5b9	0.5025287
216	0x3e221f04	0.15832144
217	0x3dc95125	0.0982993
218	0xbec0099f	-0.3750734
219	0x3d958f71	0.0730275
220	0xbeaea63e	-0.34111208
221	0x3e88ceef	0.26720378
222	0xbf27a271	-0.6548224
223	0xbe44f8ad	-0.19235487
224	0xbeb46a96	-0.3523757
225	0xbba4b29f	-0.005026176
226	0xbdb4cad4	-0.08827749
227	0xbdf3b307	-0.11899381
228	0x3e0b830d	0.1362421
229	0x3ebcff50	0.36913538
230	0xbdb0384a	-0.08604486
231	0x3eb1506f	0.34631678
232	0x3f22c2c7	0.63578457
233	0xbe11defb	-0.14245217
234	0xbf0dc442	-0.5537759
235	0xbcfda776	-0.03096364
236	0x3e1e9557	0.15486656
237	0x3ec154c6	0.3775999
238	0xbe9b2976	-0.3030507
239	0x3e85a0a9	0.26099136
240	0xbe8c6913	-0.27423915
241	0xbec15d6b	-0.37766585
242	0xbd9470e0	-0.07248092
243	0x3ee2ce7a	0.44298154
244	0x3ecd058b	0.4004329
245	0xbcb7de54	-0.022444881
246	0x3c98ca90	0.018651277
247	0x3f0a8eb0	0.54123974
248	0xbeef458b	-0.46732745
249	0x3e532a69	0.20621647
250	0xbcab16e6	-0.020884942
251	0x3e0e67c3	0.1390677
252	0xbe93e3eb	-0.28884825
253	0xbd8153d9	-0.06314821
254	0xbe610e73	-0.21978168
255	0x3e947506	0.28995532

lstm.weight_hh_l0 f4 [40, 10]
0	0x3e6777c5	0.22604282
1	0xbd4f1a0c	-0.05056195
2	0xbf021cc2	-0.5082513
3	0x3ebe6df1	0.37193254
4	0xbe63c5ee	-0.22243473
5	0x3eb115b2	0.34586865
6	0x3e65c0c9	0.22436823
7	0x3db27813	0.087143086
8	0xbe1aca29	-0.1511618
9	0x3e652556	0.22377524
10	0x3e087ca9	0.13328804
11	0x3dfbb623	0.12290599
12	0x3d94a49e	0.07257961
13	0x3e481dd2	0.19542626
14	0x3e48b024	0.19598442
15	0x3e26ff77	0.1630839
16	0xbe23dc7f	-0.16002081
17	0xbe99ca18	-0.30036998
18	0xbe2641ee	-0.16236088
19	0xbdc3b759	-0.09556455
20	0x3e2a205d	0.16613908
21	0x3d97ae56	0.07406299
22	0xbe97a1da	-0.2961567
23	0xbe649d0b	-0.22325532
24	0xbd3e75c5	-0.046499033
25	0x3ec0ad61	0.37632278
26	0xbb6ae81f	-0.0035843921
27	0x3d931ef8	0.07183641
28	0x3d989285	0.074498214
29	0xbe10c203	-0.1413651
30	0x3e40d2c1	0.18830396
31	0x3e27bed2	0.16381386
32	0xbe912e86	-0.28355807
33	0xbdd048a9	-0.10170109
34	0xbea4378b	-0.32073626
35	0x3bbcfecc	0.005767679
36	0xbd691f5a	-0.056914665
37	0x3e851801	0.25994876
38	0x3d6cadf2	0.057783075
39	0xbe704a75	-0.23465903
40	0x3de3d4a9	0.11124546
41	0x3dc460ae	0.09588753
42	0xbe9c63e5	-0.30544963
43	0x3d519709	0.05116943
44	0xbd90b9bb	-0.07066675
45	0x3e6dbebc	0.2321729
46	0xbeb452b3	-0.35219344
47	0xbe9e6f0a	-0.3094409
48	0xbd5122f0	-0.05105871
49	0xbec6ce53	-0.38829288
50	0xbeaed7ac	-0.3414892
51	0xbd9197bb	-0.071090184
52	0xbea17046	-0.3153097
53	0x3dbddba7	0.09270411
54	0xbe169c33	-0.14708023
55	0x3d9d5b1c	0.07683393
56	0x3dd2d938	0.102953374
57	0xbec597ed	-0.38592473
58	0x3e4024c1	0.1876402
59	0xbe2be26d	-0.16785593
60	0x3dd66f51	0.10470451
61	0xbe09f930	-0.13473964
62	0x3dc36c9e	0.095422015
63	0x3e01b1a3	0.1266542
64	0xbdaf819f	-0.08569645
65	0x3c49e537	0.0123227155
66	0x3dfe1b3b	0.124075375
67	0xbe2040d3	-0.15649728
68	0x3dc6108f	0.09671127
69	0x3d36df55	0.04464658
70	0x3dbfb98b	0.093615614
71	0x3ed7bd67	0.4213669
72	0xbe839212	-0.2569738
73	0x3dc02207	0.0938149
74	0xbc382d78	-0.011241309
75	0x3dafe256	0.08588092
76	0xbe20a94a	-0.15689579
77	0x3e5b8e20	0.21440935
78	0xbe33b744	-0.17550379
79	0xbcc39430	-0.023874372
80	0x3eb50c35	0.35360876
81	0xbccbdedc	-0.024886541
82	0x3df40f1b	0.11916944
83	0x3e788e0d	0.24272938
84	0x3ea24362	0.31692034
85	0x3ec07a22	0.3759318
86	0xbe1bc4a1	-0.15211727
87	0xbed10e18	-0.40831065
88	0xbe4998be	-0.19687173
89	0xbeb0e841	-0.34552196
90	0x3d63fdfd	0.055662144
91	0x3f1077eb	0.5643298
92	0x3db40cda	0.08791514
93	0x3e72d08b	0.23712365
94	0xbd9fb9b4	-0.07799092
95	0x3eba1b2b	0.36348853
96	0x3cfdf4fa	0.031000603
97	0xbe774224	-0.24146324
98	0xbe16bebc	-0.14721197
99	0x3da092ee	0.078405246
100	0xbed73e46	-0.42039698
101	0x3d5c7a59	0.053827617
102	0xbef741ab	-0.48292288
103	0x3d83db5a	0.06438322
104	0x3dcd8e61	0.10036922
105	0x3ea37770	0.3192706
106	0x3d67c90c	0.056588218
107	0xbeb94ba2	-0.36190516
108	0xbe8f7151	-0.2801614
109	0xbe3c482f	-0.18386911
110	0xbdcabdb6	-0.09899466
111	0x3eb9215e	0.3615827
112	0x3e044ef9	0.1292075
113	0x3d615532	0.05501289
114	0xbcf5b16c	-0.029991828
115	0x3e6c76a0	0.23092127
116	0xbe1d61b0	-0.15369296
117	0x3dff6636	0.12470667
118	0xbd7e3c57	-0.062069263
119	0xbe629d1d	-0.22130246
120	0xbed3e8cc	-0.41388547
121	0x3eafd949	0.34345463
122	0x3dbf1f0e	0.09332095
123	0xbe300351	-0.17188765
124	0xbf09180c	-0.5355232
125	0x3cc6f43a	0.024286378
126	0x3e53c801	0.20681764
127	0xbecb25af	-0.39677188
128	0xbea8ec83	-0.32992944
129	0xbc215457	-0.009846768
130	0x3e3f343f	0.18672274
131	0x3d40d6d3	0.047079872
132	0xbe053b11	-0.13010813
133	0xbe36fc63	-0.17869715
134	0xbe80e3af	-0.2517371
135	0x3ec93c3c	0.39303768
136	0xbeb1e99f	-0.3474855
137	0x3d5abeba	0.053404547
138	0xbdd800be	-0.105470166
139	0xbd06deec	-0.03292744
140	0x3d5959d7	0.053064194
141	0xbe4a0832	-0.19729689
142	0xbeb4c4b8	-0.35306334
143	0xbdd54dbe	-0.10415219
144	0xbebd3193	-0.36951885
145	0x3d3bb3d8	0.04582581
146	0xbeb9ed46	-0.36313838
147	0xbbefae1a	-0.0073144557
148	0xbe299825	-0.16561945
149	0xbde7e5a7	-0.113230996
150	0xbeccce1e	-0.40001005
151	0x3ea105b3	0.3144966
152	0x3e046c55	0.1293195
153	0x3e1213ca	0.14265361
154	0xbe0d2aeb	-0.13785903
155	0x3ecf4866	0.40484923
156	0xbe7237f3	-0.23654155
157	0x3d8577e4	0.06517008
158	0xbe961ad7	-0.29317352
159	0xbe4eaa75	-0.20182212
160	0x3e93b6dc	0.28850448
161	0x3e321675	0.17391379
162	0xbd34b53d	-0.044118155
163	0xbd5d3342	-0.05400396
164	0x3ccfeb6e	0.025380816
165	0x3ea293dc	0.31753433
166	0xbe69bf01	-0.22826768
167	0xbec34f6e	-0.38146538
168	0xbe4a0c7a	-0.19731322
169	0xbe9cacf7	-0.30600712
170	0xbeb46201	-0.3523102
171	0xbe05782b	-0.13034122
172	0xbe016713	-0.12636976
173	0x3ea88ef3	0.32921562
174	0xbe9894eb	-0.29801115
175	0x3ea02fc2	0.31286436
176	0xbb56116a	-0.0032664188
177	0x3e6ac557	0.22926842
178	0xbdc2b36b	-0.095068775
179	0xbe8ff2cb	-0.28114924
180	0xbcebb612	-0.028773341
181	0xbd044590	-0.032292902
182	0xbe00c6a2	-0.12575772
183	0x3ebbe3c4	0.3669721
184	0x3d3ffc59	0.046871517
185	0x3e6ccc4e	0.23124811
186	0xbd708ce8	-0.05872813
187	0xbe8c7d3c	-0.27439296
188	0xbcdd2bef	-0.026998488
189	0xbdf4d7c5	-0.11955217
190	0xbec65970	-0.3874011
191	0x3eae83a8	0.3408482
192	0xbecbfb25	-0.39840046
193	0x3df7ce3b	0.12099882
194	0xbea126fc	-0.31475055
195	0x3e4e065a	0.2011961
196	0xbe474d01	-0.19462968
197	0xbde5fc23	-0.11229732
198	0x3cae4190	0.021271497
199	0xbea884f7	-0.32913944
200	0xbe1c5fa8	-0.15270865
201	0x3dd04476	0.10169308
202	0x3e4a098a	0.19730201
203	0xbe1522e7	-0.14564095
204	0x3e54bc87	0.20775042
205	0xbe0a6f5e	-0.13519046
206	0xbbadede2	-0.005307899
207	0xbe966ba4	-0.29378998
208	0xbe0ec089	-0.13940634
209	0x3e720097	0.23633038
210	0xbebe2c2b	-0.37143072
211	0xbe3451b1	-0.17609288
212	0x3e71973d	0.23592849
213	0x3e9105fe	0.28324884
214	0xbd938695	-0.07203404
215	0x3e5f4b65	0.21806104
216	0x3e29b87a	0.16574278
217	0xbdbbe440	-0.091743946
218	0xbeba0358	-0.36330676
219	0xbea7b9ce	-0.32758945
220	0x3ea43c83	0.32077417
221	0x3e80d8d8	0.2516544
222	0xbe611841	-0.21981908
223	0xbe8b0eb5	-0.27159658
224	0x3ea346ec	0.31890047
225	0xbe6fa863	-0.23404078
226	0x3e7469f2	0.2386854
227	0x3da814dd	0.08207104
228	0x3e826623	0.2546855
229	0xbe49cd7a	-0.1970729
230	0xbdb50b80	-0.08840084
231	0x3ed9b23b	0.42518792
232	0xbe7d2c5e	-0.24723956
233	0xbe4d3014	-0.20037872
234	0xbe6f03cd	-0.23341294
235	0xbe277712	-0.16354015
236	0x3e87e12f	0.2653899
237	0xbe90ff3c	-0.28319728
238	0xbe67b5c2	-0.22627929
239	0xbeb5abbb	-0.35482582
240	0xbda7fd3e	-0.08202599
241	0xbe81f1e7	-0.2537987
242	0xbdbb6e0b	-0.091518484
243	0xbea205a9	-0.31644943
244	0x3e63c0a7	0.2224146
245	0xbecc9231	-0.39955285
246	0x3e2d769d	0.16939779
247	0x3e530aa9	0.20609535
248	0x3dd4553b	0.10367819
249	0xbe8b25f6	-0.271774
250	0xbe839c92	-0.2570539
251	0x3d27b2ea	0.04094211
252	0xbe75e5fd	-0.24013515
253	0xbe18440e	-0.14869711
254	0xbebe0eb3	-0.3712059
255	0xbe758a47	-0.2397853

lstm.bias_ih_l0 f4 [40]
0	0x3e8a82bf	0.27052876
1	0xbcf555f1	-0.029948207
2	0x3ea2e260	0.31813335
3	0x3e8c66ee	0.2742228
4	0xbe1a4cd0	-0.15068364
5	0x3cc61649	0.024180548
6	0xbe4eb91b	-0.201878
7	0x3ea95a7f	0.33076856
8	0x3e14679d	0.1449265
9	0x3e7be72c	0.24599904
10	0x3d66feba	0.05639527
11	0xbdf31c76	-0.11870663
12	0xbe2c9167	-0.16852342
13	0x3d56c2ac	0.052431747
14	0xbe34a701	-0.17641832
15	0xbe3185e9	-0.17336239
16	0x3e08c0d1	0.13354804
17	0x3e7dbbf5	0.24778731
18	0xbbc3bfc1	-0.0059737866
19	0xbdaa4df5	-0.083156504
20	0xbd094eaa	-0.033522286
21	0x3db614f0	0.08890712
22	0x3df3f74d	0.11912403
23	0x3e7e3b0c	0.24827212
24	0x3ddec912	0.10878195
25	0xbe67b66e	-0.22628185
26	0xbe7735c6	-0.24141607
27	0xbe1b5ff0	-0.15173316
28	0x3de26ce1	0.11055923
29	0xbe1a727d	-0.15082736
30	0xbdd7a791	-0.10530008
31	0x3eccb2fb	0.399803
32	0xbe61ea9f	-0.22062157
33	0xbbb47217	-0.0055067646
34	0x3db6930f	0.08914768
35	0xbe318d63	-0.17339091
36	0x3df9bd1c	0.12194273
37	0xbe3762d0	-0.17908788
38	0x3e148185	0.14502533
39	0xbddcf742	-0.10789348

lstm.bias_hh_l0 f4 [40]
0	0x3e8a6a59	0.27034262
1	0x3d059493	0.032612395
2	0xbba683d6	-0.005081634
3	0xbd6f1c45	-0.05837657
4	0x3e0b3846	0.13595685
5	0x3da4a9c0	0.0804019
6	0xbd7d6f4c	-0.06187372
7	0x3e9d376c	0.30706346
8	0xbdb63e13	-0.088985585
9	0x3ec6bf5c	0.3881787
10	0xbe21750d	-0.15767308
11	0x3e775ad8	0.24155748
12	0xbd96dbf5	-0.07366172
13	0xbe237b45	-0.15964992
14	0x3dfa654e	0.122263536
15	0x3d05630c	0.03256516
16	0x3e8625d8	0.26200747
17	0x3df703c0	0.12061262
18	0x3befc25c	0.0073168706
19	0x3d1ab1e0	0.03776729
20	0xbe906f8e	-0.2821011
21	0xbe70509d	-0.23468252
22	0xbdfa9913	-0.12236228
23	0x3e8f43bd	0.27981368
24	0x3dc197ef	0.09452807
25	0x3e8ed69a	0.27898103
26	0xbe8c7841	-0.27435496
27	0xbe8ce0db	-0.275153
28	0xbce3c2e8	-0.0278029
29	0xbdb33456	-0.08750217
30	0x3e1ac54f	0.1511433
31	0x3e355d84	0.17711455
32	0x3e92ff89	0.28710583
33	0x3e82a95b	0.25519833
34	0x3ea6f47c	0.32608402
35	0x3eb72726	0.35772055
36	0x3e3a5e0f	0.18199943
37	0xbd742b02	-0.059611328
38	0x3e88f34d	0.26748124
39	0x3ec09f08	0.3762133

lstm.weight_ih_l0_reverse f4 [40, 20]
0	0xbe2e9391	-0.1704848
1	0xbdd47f23	-0.10375812
2	0x3e47619d	0.1947083
3	0xbd8790ea	-0.06619437
4	0x3e28f663	0.16500239
5	0xbd2679e2	-0.04064358
6	0x3e3692d9	0.17829455
7	0xbdcf5875	-0.10124294
8	0x3ec04d6d	0.3755907
9	0x3da50896	0.08058278
10	0xbe1921f4	-0.14954358
11	0xbd37f8da	-0.044915058
12	0xbe61b950	-0.22043347
13	0xbd8145f5	-0.06312171
14	0xbd9d297a	-0.07673927
15	0xbcf79967	-0.030224515
16	0x3f1cd38a	0.61260283
17	0x3e056077	0.1302508
18	0xbe3fa7ac	-0.18716305
19	0x3ea83e13	0.3285986
20	0xbe3bf538	-0.18355262
21	0xbd7a70f4	-0.061142877
22	0x3eb27a3c	0.34858882
23	0xbd1e942c	-0.038715526
24	0xbe68ddaa	-0.22740808
25	0xbdc7f062	-0.09762646
26	0x3e504cdc	0.2034182
27	0xbe11af03	-0.14226918
28	0x3e628992	0.22122791
29	0x3e2ba687	0.16762744
30	0xbdcf4011	-0.101196416
31	0x3e992c17	0.2991645
32	0x3e569de9	0.20958675
33	0xbde15167	-0.110018544
34	0xbe2b7cba	-0.16746798
35	0x3db0d80e	0.08634959
36	0x3e86fc70	0.2636447
37	0xbd4294f7	-0.047505345
38	0x3e87f148	0.2655127
39	0x3d1dea9f	0.03855383
40	0x3d19710d	0.03746133
41	0x3d697af5	0.057002027
42	0x3d43968b	0.04775099
43	0xbe66af30	-0.22527766
44	0x3d6ba62b	0.057531517
45	0xbe748e7c	-0.23882478
46	0x3e6fa034	0.23400956
47	0xbe2e02b2	-0.16993216
48	0x3e791845	0.24325664
49	0x3d8456c2	0.0646186
50	0x3f04eafc	0.5192106
51	0x3d4fa976	0.05069872
52	0xbdb78e79	-0.089627214
53	0xbe5b03ed	-0.21388216
54	0x3ca62775	0.020282486
55	0xbe87ac72	-0.26498753
56	0xbec76372	-0.38943058
57	0x3def71b3	0.11691608
58	0x3eaa7d4f	0.33298728
59	0x3e1446c3	0.14480118
60	0x3c94a7f7	0.018146498
61	0x3c802fa2	0.015647713
62	0x3ebfa7f2	0.3743282
63	0xbc50357e	-0.012708066
64	0xbe22ac93	-0.15886144
65	0xbe19ab70	-0.15006804
66	0xbe19b157	-0.15009056
67	0x3e262709	0.16225828
68	0xbdd9fff0	-0.10644519
69	0x3e1a12a2	0.1504617
70	0xbb6be7b2	-0.0035996255
71	0xbd7ba8f0	-0.06144041
72	0x3e55c236	0.20874867
73	0x3de18704	0.1101208
74	0x3df251b3	0.11831989
75	0xbd007560	-0.031361938
76	0xbdb45a94	-0.08806339
77	0xbde204a8	-0.11036044
78	0x3d6084bf	0.054814097
79	0x3d8cc8d1	0.0687424
80	0xbe8eeb04	-0.27913678
81	0x3ee482f2	0.44631153
82	0x3e99f42c	0.300691
83	0x3e440750	0.19143414
84	0xbe859200	-0.26087952
85	0x3e5f43c9	0.21803202
86	0xbee9a2d7	-0.4563205
87	0x3e2df2df	0.16987179
88	0x3e5ce5c9	0.21572031
89	0xba024bed	-0.000497042
90	0xbebec6af	-0.3726096
91	0xbdd12149	-0.10211427
92	0xbe16ef10	-0.14739633
93	0xbe970f85	-0.29504028
94	0xbdbe2265	-0.09283904
95	0x3ec5dbdc	0.38644302
96	0x3f0c274c	0.5474746
97	0xbf044576	-0.5166849
98	0x3e1b8ab9	0.15189637
99	0xbe35765a	-0.17720929
100	0xbe6cff7c	-0.23144335
101	0xbe0a7519	-0.13521232
102	0xbea537fb	-0.32269272
103	0x3e217c5d	0.15770097
104	0xbdde7a28	-0.10863143
105	0x3b371084	0.0027933428
106	0x3c1c1b13	0.009527939
107	0x3e520512	0.20509747
108	0x3de499f3	0.11162176
109	0xbe338416	-0.17530856
110	0x3d746b85	0.05967285
111	0x3e5eecd3	0.21770029
112	0x3dbfbd03	0.09362223
113	0x3cee6d3e	0.029104825
114	0x3eb468b0	0.3523612
115	0x3d81c9ef	0.06337344
116	0x3eaed959	0.34150198
117	0x3d99b164	0.07504538
118	0x3e2b12c9	0.16706385
119	0xbe058f65	-0.13042982
120	0xbe0a28fd	-0.13492198
121	0xbf17f2e7	-0.59355015
122	0xbe86d450	-0.26333857
123	0xbea2fb32	-0.31832272
124	0xbe07e1b2	-0.1326969
125	0xbde1c0f6	-0.110231325
126	0x3e828251	0.2549005
127	0xbe5c2c20	-0.21501207
128	0x3de6fb90	0.112784505
129	0x3e10b8af	0.14132951
130	0xbce309b7	-0.027714593
131	0x3e1173bd	0.14204307
132	0xbe2d6ea0	-0.16936731
133	0x3e02d5f3	0.12776928
134	0x3ebf6594	0.37382185
135	0x3ece41cc	0.40284574
136	0x3da98229	0.08276779
137	0x3e76eb9b	0.24113314
138	0xbe4d49d7	-0.20047699
139	0x3ec74a2b	0.38923773
140	0x3d87b0d1	0.06625522
141	0x3f156d48	0.58369875
142	0xbe5154aa	-0.20442453
143	0xbbf1bd96	-0.0073773367
144	0x3e409153	0.18805437
145	0x3db8cc74	0.09023371
146	0xbdfe2715	-0.12409798
147	0x3eda165d	0.42595187
148	0x3d572613	0.052526545
149	0x3de7f43a	0.113258794
150	0x3dea257e	0.11432932
151	0xba3dc503	-0.0007239135
152	0x3efdb75e	0.4955396
153	0xbe700f3d	-0.23443313
154	0xbdeb4852	-0.114884034
155	0xbdb36ab9	-0.0876059
156	0xbde62153	-0.11236825
157	0x3d0b8626	0.03406348
158	0x3e3e5c3d	0.18589874
159	0xbe9d43c5	-0.30715767
160	0xbd877cad	-0.06615577
161	0x3e31d39e	0.17365882
162	0x3d951fbd	0.07281444
163	0xbe3aa5a2	-0.18227246
164	0xbebc7070	-0.36804533
165	0x3eb56a42	0.3543263
166	0x3e3fef01	0.18743517
167	0x3d91512d	0.07095561
168	0xbe08d3e1	-0.13362075
169	0xbf033b80	-0.51262665
170	0x3ea61692	0.32439095
171	0x3e44e437	0.19227682
172	0xbe8708d9	-0.26373938
173	0x3e0e6f88	0.13909733
174	0xbe15db7c	-0.14634508
175	0x3e83a292	0.2570997
176	0x3ea8cfe4	0.32971108
177	0x3ebdcbc8	0.37069535
178	0x3e79ee50	0.24407315
179	0x3e4e2227	0.20130216
180	0xbec8f69e	-0.39250654
181	0x3e19958f	0.14998458
182	0xbe661a6c	-0.22471017
183	0x3c916ade	0.017751154
184	0xbe0a22c5	-0.13489826
185	0xbf091466	-0.5354675
186	0xbe8e438d	-0.27785912
187	0x3d9e55bb	0.077311955
188	0x3e2f6635	0.17128833
189	0x3e0dd5b3	0.13851051
190	0xbee2f1d3	-0.44325122
191	0xbd9d266e	-0.076733455
192	0x3e3c018a	0.18359962
193	0xbe3c2556	-0.18373618
194	0x3e158412	0.14601162
195	0x3f40241a	0.75055087
196	0x3fc81449	1.563119
197	0x3e36ebf5	0.17863448
198	0x3f125797	0.571649
199	0x3e1968c2	0.14981368
200	0xbecdd42e	-0.40200943
201	0xbe94537b	-0.2896994
202	0xbdf1e06a	-0.11810382
203	0xbd6a6a0e	-0.057230048
204	0x3eb19ae5	0.34688488
205	0x3d0c1d2b	0.034207504
206	0x3d80483e	0.06263779
207	0x3da5d1b1	0.08096636
208	0xbe4a312b	-0.19745319
209	0xbe2b93c8	-0.16755593
210	0x3d1182ec	0.035525247
211	0xbe8c8f6c	-0.27453172
212	0x3f3eaf86	0.7448658
213	0x3e81f6ed	0.25383702
214	0x3e888ac3	0.26668367
215	0x3e97bcdd	0.2963628
216	0x3f195ddc	0.59908843
217	0xbbf9ea3a	-0.007626799
218	0x3ea0386c	0.31293046
219	0xbebdbde4	-0.37058938
220	0xbe45c5e3	-0.19313769
221	0x3f115a26	0.5677818
222	0x3edfe999	0.43732908
223	0xbcbac52c	-0.022799097
224	0x3e332707	0.17495357
225	0x3d2bd3ed	0.041950155
226	0x3e31bcc5	0.17357166
227	0x3e2aef7c	0.16692919
228	0x3da09e0c	0.07842645
229	0x3e84d8d2	0.2594667
230	0xbce62bd9	-0.02809708
231	0x3e76c07c	0.24096864
232	0xbe39d764	-0.18148571
233	0x3d9fc3dd	0.0780103
234	0x3e525626	0.20540676
235	0xbb1346ad	-0.0022472546
236	0xbec7c7ee	-0.39019722
237	0x3ea51e72	0.3224979
238	0xbcd8f80d	-0.026485467
239	0x3f03f961	0.51552397
240	0xbedbdae5	-0.4294044
241	0x3b5965ad	0.0033172176
242	0x3e88742e	0.26651138
243	0x3e96f338	0.29482436
244	0xbed5da2d	-0.41768017
245	0xbe90524c	-0.28187788
246	0xbef5aacf	-0.4798188
247	0xbdbc23ec	-0.09186539
248	0xbe8d360d	-0.275803
249	0xbeeb78b0	-0.45990515
250	0x3da300cf	0.079591386
251	0xbe82eef6	-0.25572938
252	0x3e62546c	0.22102517
253	0x3ec5761d	0.38566676
254	0xbe3dad25	-0.1852308
255	0x3def50ef	0.11685359

lstm.weight_hh_l0_reverse f4 [40, 10]
0	0xbd42bcff	-0.047543522
1	0xbdce52ee	-0.10074411
2	0x3e0177ea	0.126434
3	0xbe9c59fd	-0.30537406
4	0xbe6ef5dc	-0.23335975
5	0xbe3d037c	-0.1845836
6	0x3e88059f	0.2656679
7	0x3e6d72f4	0.23188382
8	0xbe2ea2cf	-0.17054294
9	0x3e630b42	0.22172263
10	0xbdc80690	-0.09766877
11	0xbdc81a50	-0.09770644
12	0xbed40a3c	-0.41414058
13	0x3e326ceb	0.17424361
14	0x3def9710	0.11698735
15	0xbe779b08	-0.24180233
16	0xbd694939	-0.056954596
17	0x3e80c8a6	0.25153083
18	0x3e877a00	0.26460266
19	0x3ed68917	0.41901466
20	0xbec161b7	-0.37769863
21	0x3ece2be2	0.40267855
22	0x3e60a25b	0.21936934
23	0x3df6b37a	0.12045951
24	0x3e7bef70	0.24603057
25	0x3c1f10d2	0.0097086
26	0xbbad1c53	-0.0052829175
27	0x3e003f42	0.12524131
28	0x3e3db196	0.18524775
29	0x3e200040	0.15625095
30	0xbe438ae8	-0.19095957
31	0x3ce676f4	0.028132893
32	0x3de539ca	0.11192663
33	0xbe9874b9	-0.29776552
34	0xbedd8d9a	-0.43272096
35	0xbeb05c36	-0.3444535
36	0x3dce9ef3	0.10088911
37	0x3e16eeb1	0.14739491
38	0x3e83b717	0.25725624
39	0xbe235e2d	-0.15953894
40	0xbe127154	-0.14301044
41	0x3eb85183	0.35999689
42	0xbe3f176f	-0.18661283
43	0xbcb73d40	-0.022368073
44	0x3e45bfd6	0.19311461
45	0x3de281e9	0.11059935
46	0x3e18c449	0.14918627
47	0x3ed5a8a4	0.41730225
48	0x3caab9bc	0.020840518
49	0x3f39cce7	0.7257828
50	0xbd9a33af	-0.07529389
51	0x3e9814fa	0.29703504
52	0xbe8897ff	-0.26678464
53	0xbd89513b	-0.067049466
54	0x3d9a0dc8	0.0752216
55	0xbe5600d7	-0.20898758
56	0xbe58f8dc	-0.21188682
57	0x3e1681ff	0.14698027
58	0xbd3e0045	-0.046386976
59	0xbedbdc50	-0.42941523
60	0x3d752c76	0.059856854
61	0x3e4a7432	0.19770887
62	0xbe01710c	-0.1264078
63	0xbda82d5c	-0.082117766
64	0xbbff1130	-0.0077840313
65	0xbdf96e43	-0.12179234
66	0x3ecd6819	0.40118483
67	0x3e88ccca	0.26718742
68	0x3e74f7d3	0.23922662
69	0xbebbdc6e	-0.36691612
70	0xbe3dcac3	-0.18534379
71	0x3d105949	0.0352414
72	0xbd36d46b	-0.04463617
73	0x3d209c53	0.039211582
74	0x3e30c484	0.17262465
75	0x3e4fd1a8	0.20294821
76	0x3e9643ef	0.29348704
77	0x3e0ffdc7	0.14061652
78	0xbdab16a3	-0.08353927
79	0xbd106392	-0.035251208
80	0xbe171d92	-0.14757374
81	0xbdb32726	-0.08747701
82	0x3d2960c0	0.041352034
83	0xbecfe3e3	-0.4060355
84	0x3f262a21	0.64908034
85	0xbe7527e4	-0.23940998
86	0x3eda4f1d	0.42638484
87	0xbe047447	-0.12934981
88	0xbe2bbcb2	-0.167712
89	0x3da08f31	0.078398116
90	0xbe6085a5	-0.21925981
91	0x3e813433	0.25235137
92	0x3c3e0f5d	0.011600343
93	0xbef13fb7	-0.47118923
94	0x3ded1b2d	0.11577449
95	0x3df79e2f	0.12090718
96	0x3eb0a1ae	0.34498352
97	0xbbd50ca8	-0.006501753
98	0x3de888aa	0.113541916
99	0x3ecc2aab	0.39876303
100	0xbe907fa9	-0.28222397
101	0x3e25316d	0.16132136
102	0x3e729bc0	0.23692226
103	0x3e69f55b	0.22847502
104	0xbdabfd02	-0.08397867
105	0xbc250082	-0.010070922
106	0xbd4f6b87	-0.050639655
107	0x3dcd0380	0.10010433
108	0x3b30d5d5	0.0026982923
109	0x3e1359e4	0.1438976
110	0x3d0369c1	0.032083277
111	0x3eeb093c	0.45905483
112	0xbd8cfa52	-0.06883682
113	0xbeab53f0	-0.33462477
114	0x3ec62d61	0.38706496
115	0x3e473719	0.19454612
116	0x3de7acb9	0.11312241
117	0x3e942b81	0.2893944
118	0xbe08c4d3	-0.13356332
119	0xbe3a5df1	-0.18199898
120	0xbe106abf	-0.1410322
121	0x3da63317	0.08115213
122	0x3e0e266a	0.13881841
123	0xbe4d378e	-0.20040724
124	0x3de1f5e1	0.11033226
125	0x3e2cd327	0.16877423
126	0x3dae8ad0	0.0852257
127	0xbd4e36cc	-0.050345227
128	0xbc90a7ae	-0.01765808
129	0x3e178df8	0.1480025
130	0xbeca8e9c	-0.39561927
131	0x3e9ea8b0	0.30988073
132	0x3d1a68b1	0.037697498
133	0xbdb0a243	-0.08624699
134	0xbe5bf333	-0.21479492
135	0xbe05f69f	-0.1308236
136	0x3d19940b	0.0374947
137	0x3e92aab0	0.2864585
138	0x3ea3900c	0.31945837
139	0xbe029f46	-0.1275607
140	0x3ec4b8b7	0.38422176
141	0x3d05dca2	0.032681115
142	0x3d42bf33	0.047545623
143	0xbd084b8a	-0.033275165
144	0x3e801efb	0.25023636
145	0x3d7719b6	0.060327254
146	0x3ef584b9	0.47952822
147	0xbe785a0c	-0.242531
148	0x3e7f115e	0.24908969
149	0x3e2e813d	0.17041488
150	0x3e34572e	0.17611381
151	0xbe458342	-0.19288352
152	0xbe92fc08	-0.2870791
153	0xbe580288	-0.21094716
154	0xbdceed8c	-0.10103902
155	0x3df62e80	0.12020588
156	0x3e9af32b	0.30263647
157	0xbe5fdade	-0.21860835
158	0xbe831b59	-0.25606802
159	0xbe623db1	-0.22093846
160	0x3d18b8df	0.03728568
161	0x3e569763	0.20956187
162	0x3e6761d2	0.22595909
163	0xbebe8a68	-0.3721497
164	0x3d2fc179	0.04290912
165	0xbea6a3fa	-0.3254698
166	0x3e993618	0.29924083
167	0xbe619314	-0.22028762
168	0x3e864dba	0.26231176
169	0xbeb50636	-0.353563
170	0xbea08028	-0.31347775
171	0x3ef4d124	0.47815812
172	0xbe425ff4	-0.18981916
173	0xbed4f771	-0.41595033
174	0x3b6790de	0.003533415
175	0xbdc13f2f	-0.094358794
176	0x3c10011f	0.00878933
177	0x3eaa142c	0.33218515
178	0xbe480524	-0.19533211
179	0x3de22edf	0.11044096
180	0xbe5a7662	-0.21334222
181	0xbea259a6	-0.3170902
182	0xbebaf966	-0.365184
183	0xbeb4aa34	-0.35286105
184	0x3dc579a8	0.09642345
185	0xbefc07d2	-0.49224716
186	0x3e3977d4	0.18112117
187	0x3ed9e5c7	0.4255812
188	0xbdbd7112	-0.09250082
189	0x3e333917	0.17502247
190	0xbcdfebfc	-0.027334206
191	0x3e76024f	0.24024318
192	0xbec14f56	-0.3775584
193	0x3e4932bd	0.19648261
194	0x3e94951d	0.29020014
195	0xbe68aa23	-0.22721152
196	0x3ca3a8df	0.019977985
197	0x3e861580	0.26188278
198	0xbf08b049	-0.5339399
199	0xbdd6f9e5	-0.10496882
200	0x3e850c74	0.25986063
201	0xbc361d4f	-0.011115386
202	0x3dd25093	0.102692746
203	0x3ea3a4e1	0.3196173
204	0xbe336bd2	-0.17521599
205	0xbe2ac668	-0.16677248
206	0x3e422cdc	0.18962425
207	0xbe91f8c7	-0.28510115
208	0xbd0eb9c7	-0.03484514
209	0x3e924c45	0.28573814
210	0x3ddf3df8	0.109004915
211	0x3d841388	0.06449038
212	0xbca1fd1a	-0.019774009
213	0x3db2c6d6	0.08729331
214	0x3eb072de	0.34462637
215	0x3d916806	0.07099919
216	0xbda24569	-0.07923395
217	0x3eae47d1	0.34039167
218	0x3e0a183e	0.1348581
219	0x3d641a2c	0.055689022
220	0x3ea4e834	0.32208407
221	0xbd967dbc	-0.07348201
222	0xbe49a5b0	-0.19692111
223	0xbe83ce28	-0.25743222
224	0xbeba5dfc	-0.3639983
225	0x3ea210b5	0.3165337
226	0xbe8fe79b	-0.28106388
227	0x3cc57cb9	0.024107324
228	0x3dca0440	0.09864092
229	0xbe40c2bf	-0.1882429
230	0xbddcffe1	-0.107909925
231	0x3e96a4ce	0.2942261
232	0x3e714881	0.23562814
233	0x3e275a73	0.16343097
234	0x3e441a45	0.19150646
235	0x3d331194	0.043717936
236	0x3e24d8df	0.16098355
237	0xbe991407	-0.29898092
238	0xbee951d4	-0.45570242
239	0x3e9207cf	0.28521582
240	0x3e37e0cf	0.17956851
241	0x3ea1559b	0.31510624
242	0x3dbaf4ed	0.09128747
243	0xbe95ecd5	-0.2928225
244	0x3e3b701f	0.1830449
245	0xbe9bf5c1	-0.30460933
246	0xbd0a3759	-0.03374419
247	0xbd336f40	-0.04380727
248	0xbe922fc5	-0.2855207
249	0x3e3cd7ca	0.18441692
250	0xbe8f0d22	-0.27939707
251	0x3e874c6f	0.26425502
252	0xbe99a746	-0.30010432
253	0x3e56a0c1	0.2095976
254	0x3e0164ba	0.1263608
255	0xbe865ec3	-0.26244172

lstm.bias_ih_l0_reverse f4 [40]
0	0x3e50e35c	0.2039923
1	0xbdaed476	-0.085366175
2	0xbbce56e8	-0.006296981
3	0xbe71754c	-0.23579901
4	0x3ea66342	0.32497603
5	0xbe4b1697	-0.19832836
6	0x3e6d5ae1	0.23179199
7	0xbe343747	-0.17599212
8	0x3eb639e3	0.3559104
9	0xbe4c1719	-0.19930686
10	0x3e52153f	0.20515917
11	0x3e8fa130	0.28052664
12	0xbe1f6717	-0.1556667
13	0x3e8953f4	0.26821864
14	0xbe35143b	-0.17683499
15	0xbcfa5c5f	-0.030561624
16	0xbe91298c	-0.2835201
17	0x3ebc94fb	0.36832413
18	0x3d27e04e	0.040985398
19	0x3ec69050	0.38781977
20	0x3d593fd4	0.053039387
21	0x3e339d1a	0.17540398
22	0xbe0e10aa	-0.13873544
23	0xbe51b8a6	-0.20480594
24	0x3e593ea9	0.21215309
25	0xbdde41ae	-0.10852371
26	0xbcec9df4	-0.028883912
27	0x3e80bbfd	0.25143424
28	0xbd634a63	-0.055490863
29	0xbcc0c164	-0.023529716
30	0xbe5083bb	-0.20362751
31	0x3eab3041	0.33435252
32	0xbe64a0b4	-0.22326928
33	0x3e9d3db6	0.30711144
34	0x3eb4b7c9	0.35296467
35	0xbe7fb673	-0.24971943
36	0x3edba15e	0.4289655
37	0x3e8f7e6b	0.28026137
38	0x3ea2f30b	0.31826052
39	0x3ef60934	0.48053896

lstm.bias_hh_l0_reverse f4 [40]
0	0x3e22d72c	0.15902394
1	0xba7aee9b	-0.0009572298
2	0x3ea5deab	0.32396445
3	0x3ca38952	0.01996294
4	0x3e927b89	0.28609875
5	0x3e9741e6	0.29542464
6	0x3ed819a1	0.42207053
7	0xbd23714c	-0.03990297
8	0xbe3c8870	-0.18411422
9	0x3dedd8c0	0.116136074
10	0x3d96a378	0.07355398
11	0x3e3e046b	0.18556373
12	0x3e940fd0	0.28918314
13	0x3c7e40b5	0.015518357
14	0x3ebdcd43	0.37070665
15	0x3e93aa0c	0.28840673
16	0x3dce5144	0.10074094
17	0x3ba57a8d	0.0050500096
18	0x3e3b51d5	0.18292935
19	0x3ec0a1bf	0.37623402
20	0xbe64e9f3	-0.2235487
21	0xbda81f22	-0.08209063
22	0xbe962cb6	-0.29330987
23	0xbe4ac6db	-0.1980242
24	0xbe5feeb0	-0.21868396
25	0xbe13535a	-0.14387265
26	0x3e914d0f	0.28379104
27	0x3ea60a9c	0.3242997
28	0x3e6c63f6	0.23085007
29	0x3c467b9e	0.012114434
30	0x3ead354a	0.3382972
31	0x3d6b097b	0.05738209
32	0x3e8821d9	0.26588324
33	0xbe3bffca	-0.18359295
34	0x3e9d0c19	0.30673292
35	0xbe979528	-0.29605985
36	0x3e77dbfe	0.24205014
37	0x3e5f3ab5	0.21799739
38	0xbe18b929	-0.14914383
39	0xbe11c617	-0.14235722

lstm.weight_ih_l1 f4 [40, 20]
0	0xbd56c093	-0.052429747
1	0xbddb12a6	-0.10696916
2	0xbed4fb18	-0.4159782
3	0x3e15ab3a	0.14616099
4	0x3ed5ccae	0.4175772
5	0xbe79268c	-0.2433111
6	0xbeabeff7	-0.33581516
7	0x3d8481fa	0.064701036
8	0xbd8b2d25	-0.0679572
9	0xbd904848	-0.070450366
10	0xbe4ab17f	-0.19794272
11	0xbe8ee683	-0.2791024
12	0x3e200529	0.15626968
13	0xbe9c618f	-0.3054318
14	0xbe9c8fcc	-0.30578458
15	0x3e9a13bd	0.30093184
16	0x3db6cf7e	0.08926295
17	0x3e4615ea	0.19344297
18	0xbeaf1668	-0.34196782
19	0xbecfeb80	-0.4060936
20	0x3ca3c54d	0.019991541
21	0xbe515b48	-0.20444977
22	0xbd673fbb	-0.056457262
23	0xbe3e7f60	-0.18603277
24	0x3d9642d0	0.07336962
25	0x3e907d23	0.28220472
26	0xbe3d64d3	-0.18495493
27	0xbc1088cd	-0.008821678
28	0xbe8db50c	-0.2767719
29	0x3e5c8298	0.21534193
30	0x3e358da9	0.1772982
31	0x3c0b2a3a	0.008493954
32	0xbe32f826	-0.17477474
33	0xbd2660d8	-0.0406197
34	0x3de6bb00	0.11266136
35	0xbeb0ec92	-0.3455549
36	0x3ebd8e73	0.37022743
37	0x3e442198	0.1915344
38	0x3e7921b7	0.24329267
39	0xbeb49c0d	-0.35275307
40	0xbe2a5154	-0.16632587
41	0x3e837721	0.25676826
42	0x3e252a51	0.16129424
43	0x3df168db	0.11787578
44	0xbea30919	-0.31842878
45	0x3d9ddc46	0.077080294
46	0x3da95ecd	0.08270035
47	0x3e58b9a8	0.21164572
48	0xbb8b8a25	-0.0042584115
49	0xbea9672e	-0.33086532
50	0xbe12acb0	-0.14323688
51	0x3dfeb019	0.12435932
52	0x3e075c28	0.13218749
53	0xbe80d1da	-0.25160104
54	0x3e60d20e	0.2195513
55	0xbe86adfa	-0.2630461
56	0x3eb20d51	0.34775785
57	0xbc63bdd9	-0.013900244
58	0x3e37ef58	0.17962396
59	0xbd407871	-0.046989862
60	0x3dd390e1	0.10330368
61	0x3e968b87	0.29403326
62	0xbe64c082	-0.22339061
63	0x3e96fb5e	0.29488653
64	0x3ecebabb	0.4037684
65	0xbe76781f	-0.2406926
66	0xbe8cc5b1	-0.27494577
67	0x3c788692	0.015168803
68	0xbe5415e9	-0.20711483
69	0x3e2004a1	0.15626766
70	0xbd8d5884	-0.06901649
71	0xbe07fe25	-0.13280542
72	0xbe303e7c	-0.17211336
73	0x3e4b1f05	0.19836052
74	0xbdc84724	-0.09779194
75	0xbd1beca9	-0.038067494
76	0xbdb2a0bd	-0.08722065
77	0x3e86e677	0.26347706
78	0x3c783b62	0.015150877
79	0xbe830297	-0.25587913
80	0xbeac185d	-0.33612338
81	0x3e46bd58	0.19408166
82	0xbe0ad977	-0.13559519
83	0x3d0bd146	0.034135126
84	0xbedc9f08	-0.4309008
85	0x3e237b8d	0.159651
86	0x3e1dbe8f	0.15404724
87	0xbecd5079	-0.40100458
88	0xbe9b940c	-0.30386388
89	0x3e59e7f8	0.21279895
90	0xbd09abd7	-0.033611145
91	0xbcd707d6	-0.026248854
92	0xbeb12a4a	-0.34602576
93	0xbd14a826	-0.03629317
94	0xbd7ccf06	-0.06172087
95	0x3e1a6b3a	0.15079966
96	0xbdf19531	-0.11796034
97	0x3e9eccb5	0.31015554
98	0x3e1b6ad2	0.15177467
99	0xbd997ac1	-0.074941166
100	0x3e13a6ab	0.14419048
101	0x3decd3aa	0.11563809
102	0xbf046a1f	-0.5172443
103	0xbdbd104d	-0.09231625
104	0xbe62eb66	-0.2216011
105	0x3e5ce62d	0.2157218
106	0xbe5e2027	-0.21691953
107	0xbeb182fe	-0.34670252
108	0x3d244ea8	0.040114075
109	0xbe976540	-0.29569435
110	0xbe977d07	-0.29587576
111	0xbdda3ae9	-0.106557675
112	0x3e52ca8d	0.2058508
113	0x3da87fd3	0.082275055
114	0xbd923ac4	-0.07140115
115	0xbeea4e65	-0.45762935
116	0x3ef1ae92	0.472035
117	0x3e107d0e	0.14110205
118	0xbdf27991	-0.11839593
119	0xbe8aebf0	-0.2713313
120	0x3c5b2c86	0.013377314
121	0x3de7f3bf	0.11325788
122	0xbe997006	-0.2996828
123	0x3ea73ac4	0.32662022
124	0x3d2ba04c	0.041900918
125	0x3e2f947f	0.1714649
126	0xbd556e00	-0.052106857
127	0xbe7a1843	-0.24423318
128	0x3e13d44c	0.14436454
129	0x3c515ab7	0.012777976
130	0x3e899ec3	0.26878938
131	0xbb857b07	-0.004073504
132	0xbe149771	-0.14510895
133	0x3c8d5a84	0.017255075
134	0x3ea0401d	0.31298915
135	0x3dcda7d9	0.1004178
136	0xbcd3b6dd	-0.025844032
137	0xbe948545	-0.29007927
138	0xbe252316	-0.16126665
139	0x3ee08c26	0.43856925
140	0xbe0ee605	-0.13954933
141	0x3e722dfe	0.23650357
142	0xbdc36685	-0.095410384
143	0x3eab998d	0.33515587
144	0xbe351318	-0.17683065
145	0x3eded20f	0.43519637
146	0xbecb258b	-0.3967708
147	0x3dbe18ee	0.09282099
148	0xbe4bf9a7	-0.19919454
149	0x3e02d695	0.12777169
150	0xbe4dba2e	-0.20090553
151	0xbe629064	-0.22125393
152	0xbd901aff	-0.07036399
153	0xbba07c97	-0.0048976648
154	0x3e6ca0ab	0.23108165
155	0xbe2e7f49	-0.17040743
156	0x3e5fe645	0.21865185
157	0xbda12845	-0.07869009
158	0x3e80f7dc	0.25189102
159	0x3ed7e413	0.42166194
160	0x3e698bcc	0.22807235
161	0x3e8c2691	0.27373174
162	0xbeacc97b	-0.33747467
163	0xbdeacebb	-0.11465212
164	0xbe02cac1	-0.12772657
165	0x3e2adb3b	0.16685192
166	0x3e43fb34	0.19138795
167	0xbe8ca9bf	-0.27473256
168	0x3dcfda22	0.101490274
169	0xbd981f5e	-0.07427858
170	0x3df39480	0.118935585
171	0x3de68bab	0.11257108
172	0x3db9ddfb	0.090755425
173	0xbdad1de3	-0.08452966
174	0x3e93a762	0.2883864
175	0x3d5e2801	0.05423737
176	0x3daa3706	0.08311276
177	0x39873b4b	0.00025793383
178	0x380012e6	3.053518e-05
179	0x3e6ca54b	0.2310993
180	0x3e3311ba	0.17487231
181	0x3e8a7a29	0.27046326
182	0xbe091ce5	-0.13389929
183	0x3d8e9864	0.0696266
184	0xbeee9fe7	-0.4660637
185	0x3da1a726	0.07893209
186	0xbe5305a4	-0.2060762
187	0xbeb7e00f	-0.3591313
188	0x3e13cfd0	0.14434743
189	0xbdf5860c	-0.11988458
190	0x3dfe09aa	0.12404187
191	0x3df5ca25	0.12001447
192	0x3e5a9da4	0.21349198
193	0xbed1428a	-0.40871078
194	0xbd2e71d5	-0.042589027
195	0xbe5d7798	-0.21627653
196	0x3ea60435	0.32425085
197	0x3eb810df	0.35950372
198	0x3e15519f	0.14581917
199	0xbe3e7414	-0.18598968
200	0xbeb29f46	-0.3488714
201	0x3ed389e8	0.41316152
202	0x3dfc0c02	0.12306978
203	0x3ea55310	0.32289934
204	0xbd7c6b95	-0.061626036
205	0x3e93a673	0.28837928
206	0xbe9f7745	-0.31145683
207	0xbede3f1e	-0.4340753
208	0xbd221a22	-0.039575703
209	0xbe443ec0	-0.19164562
210	0xbec3a3ee	-0.38211006
211	0xbe286365	-0.16444166
212	0xbe3c8187	-0.18408786
213	0xbe431c02	-0.19053653
214	0xbcd6fe08	-0.026244178
215	0x3e34170b	0.17586915
216	0x3e401a27	0.18759976
217	0x3e9aec67	0.30258486
218	0xbe1012ac	-0.14069623
219	0xbe42ef35	-0.19036563
220	0xbda1bf6b	-0.07897838
221	0x3e4bb241	0.19892217
222	0xbeda3ef5	-0.42626157
223	0xbe10556e	-0.14095089
224	0xbdbb1209	-0.09134299
225	0x3eb1c2ee	0.34719032
226	0xbdd39bd7	-0.103324585
227	0x3b4481c1	0.0029984566
228	0xbe63b4ad	-0.22236891
229	0x3cb55cbc	0.022138946
230	0xbe21bb19	-0.15794028
231	0x3ddaeddf	0.106899016
232	0x3da5fe15	0.08105103
233	0xbebea97b	-0.37238678
234	0xbe233211	-0.15937068
235	0xbe7ec913	-0.24881391
236	0x3e49a999	0.19693603
237	0x3e50fc9a	0.2040886
238	0x3e3f6a3e	0.18692872
239	0xbe2fbdaf	-0.17162202
240	0xbea5f379	-0.32412317
241	0xbda5b502	-0.08091165
242	0xbd08807f	-0.03332567
243	0x3cc75efd	0.024337286
244	0xbe88ec0f	-0.26742598
245	0x3df1e2ac	0.11810812
246	0xbd01b577	-0.0316672
247	0x3e75760f	0.23970817
248	0xbe579d0d	-0.21056004
249	0xbe94a02a	-0.29028445
250	0x3dcaf3c7	0.09909778
251	0x3e8a011e	0.26953977
252	0x3d1f02ad	0.03882091
253	0x3db3c46f	0.08777701
254	0x3ed20035	0.41015783
255	0x3e612ec7	0.219905

lstm.weight_hh_l1 f4 [40, 10]
0	0x3e257be7	0.16160546
1	0x3e946c6b	0.28988966
2	0x3e322822	0.17398122
3	0x3f0277d0	0.5096407
4	0x3e371b8b	0.178816
5	0x3baf3f21	0.0053481017
6	0x3e9d8d94	0.30772078
7	0x3d7cc022	0.06170667
8	0xbea2f4e9	-0.31827477
9	0x3e27f11f	0.16400574
10	0xbedd67ee	-0.43243355
11	0x3e69ad18	0.22819936
12	0x3de48d8e	0.11159812
13	0x3dc4e4ab	0.096139275
14	0xbe01c3d5	-0.1267236
15	0xbd824382	-0.06360532
16	0xbe569da5	-0.20958574
17	0x3eaa081e	0.33209318
18	0x3dcec9e3	0.100971006
19	0xbdec0c79	-0.115258165
20	0x3e66f614	0.22554809
21	0xbe136310	-0.14393258
22	0x3dfb6d1c	0.1227667
23	0x3eae9a78	0.34102225
24	0x3d9cabe5	0.07649974
25	0x3e56f5f6	0.20992264
26	0xbe020d42	-0.1270037
27	0xbd8041ba	-0.06262536
28	0xbe74bd31	-0.23900296
29	0x3ec46a15	0.38362184
30	0x3db3ec65	0.08785323
31	0x3e84d3ae	0.2594275
32	0x3e1792cc	0.14802092
33	0x3ebd3632	0.3695541
34	0x3e12b23f	0.14325808
35	0xbea8576e	-0.32879204
36	0xbd7c8528	-0.061650425
37	0xbe0253cd	-0.1272728
38	0x3e4398b8	0.19101226
39	0xbe97fdfe	-0.29685968
40	0xbe6ad3b4	-0.22932321
41	0x3ec00ea5	0.37511173
42	0x3e04badc	0.12961906
43	0x3e2d4bf1	0.169235
44	0xbe052b6f	-0.1300485
45	0x3de9bf32	0.11413421
46	0xbd8f16f4	-0.069868
47	0x3f08edd5	0.534879
48	0xbe0b1a6e	-0.13584301
49	0xbe79ad9a	-0.2438263
50	0x3d629509	0.055317912
51	0x3ddbb1bd	0.1072726
52	0x3eb87001	0.36022952
53	0x3dacd79b	0.08439561
54	0xb997727e	-0.00028886268
55	0xbe958e43	-0.292101
56	0xbd703f67	-0.058654215
57	0x3df3106e	0.11868368
58	0xbdd7e3b9	-0.105414815
59	0x3d8daa19	0.06917209
60	0xbe008fbf	-0.12554835
61	0x3ea0dd3e	0.31418794
62	0x3e9690cc	0.29407346
63	0xbca5d7ec	-0.020244561
64	0x3dcf3be8	0.10118848
65	0x3e9b85a7	0.30375406
66	0xbe921279	-0.2852972
67	0xbe48316d	-0.19550104
68	0xbe4e052d	-0.20119162
69	0x3e8c9df0	0.27464247
70	0x3e3be917	0.18350635
71	0x3d918387	0.07105165
72	0x3e62e3fe	0.22157285
73	0x3eaf4267	0.34230348
74	0xbe1c029a	-0.15235367
75	0x3dbc82df	0.09204649
76	0xbd5d4c27	-0.054027703
77	0x3e16c73d	0.14724441
78	0xbd8423aa	-0.06452115
79	0xbd12154c	-0.03566484
80	0x3d2c370d	0.042044688
81	0xbe28a1e2	-0.16468003
82	0x3e6f886e	0.23391888
83	0x3e74dd34	0.23912507
84	0xbe91ddf7	-0.28489658
85	0x3e3906b1	0.18068959
86	0xbe41b281	-0.1891575
87	0x3d274b42	0.040843256
88	0x3e45ae3e	0.1930475
89	0x3ec18ce3	0.378028
90	0xbe95e444	-0.29275715
91	0xbd0f857f	-0.03503942
92	0xbdd6a1e6	-0.104800984
93	0x3e8808bc	0.26569164
94	0xbed94c3d	-0.42440978
95	0xbd2646da	-0.040594913
96	0x3e9b3a9c	0.30318153
97	0x3e4d4876	0.20047173
98	0xbddd5c92	-0.10808672
99	0x3dd6ddb4	0.10491505
100	0x3e0afa8d	0.1357214
101	0xbdc77f68	-0.09741098
102	0x3e0e600b	0.13903825
103	0x3d9baa16	0.07600801
104	0xbed6822a	-0.41896182
105	0x3c888339	0.016664134
106	0xbdf377ab	-0.11888059
107	0xbde47ca9	-0.111565895
108	0xbe3ac0c1	-0.18237592
109	0x3ea9d5c2	0.33170897
110	0xbe817dbb	-0.25291237
111	0x3e60508e	0.21905729
112	0x3e4e3076	0.20135674
113	0xbe68d204	-0.22736365
114	0xbd882ff9	-0.06649775
115	0xbdde3441	-0.108498104
116	0x3e108ba5	0.1411577
117	0xbc7e03f6	-0.015503874
118	0x3e0ea985	0.13931854
119	0x3e0bba10	0.13645196
120	0xbe270300	-0.16309738
121	0xbe2791cc	-0.16364211
122	0x3cc60ff3	0.024177527
123	0xbe57e5ca	-0.21083751
124	0xbee77b2a	-0.45211154
125	0xbc94aa56	-0.018147629
126	0x3c00c57e	0.007859586
127	0xbdce2aa6	-0.10066728
128	0xbeb9aaa9	-0.36263016
129	0x3ed02dd4	0.40659964
130	0x3eba969c	0.3644303
131	0x3e1a8fe4	0.15093952
132	0xbe9ebc54	-0.31003058
133	0x3eb163c3	0.34646425
134	0xbe3805ae	-0.17970917
135	0xbee004ad	-0.43753567
136	0xbea3100c	-0.3184818
137	0xbdb1644c	-0.08661708
138	0x3e7b6854	0.24551517
139	0xbec283ad	-0.37991086
140	0xbdf5c451	-0.12000335
141	0x3dbf15ac	0.093303055
142	0x3eda1d99	0.42600706
143	0xbe56a2f0	-0.20960593
144	0xbe099689	-0.13436331
145	0x3d974b95	0.07387463
146	0x3f0a1385	0.53936034
147	0x39646c20	0.00021784054
148	0x3dad6039	0.08465619
149	0x3d69b16b	0.057053965
150	0x3e04fca6	0.12987003
151	0x3e7a6762	0.244535
152	0xbda9921b	-0.082798205
153	0x3eb030de	0.34412283
154	0xbe9efd63	-0.31052694
155	0xbc8fc2c3	-0.017548924
156	0x3ebcfb55	0.369105
157	0xbe524184	-0.20532805
158	0xbe5719d4	-0.21005946
159	0xbdc12f37	-0.09432834
160	0xbead55ba	-0.33854467
161	0x3daa2083	0.08306982
162	0x3dab32d0	0.08359301
163	0xbe7ce874	-0.24698049
164	0x3ceabc27	0.028654171
165	0xbe486a14	-0.19571716
166	0xbe705845	-0.23471172
167	0xbe412b5c	-0.18864197
168	0x3de738be	0.112901196
169	0x3ee178b6	0.44037408
170	0x3e6ab7db	0.22921698
171	0xbc406e9c	-0.011745121
172	0xbe1a9bb7	-0.15098463
173	0x3ef17d45	0.47165886
174	0xbede528b	-0.4342235
175	0x3db2607b	0.087098084
176	0x3e378200	0.17920685
177	0x3a8ca503	0.001073033
178	0xbe981af8	-0.29708076
179	0x3eb46088	0.35229897
180	0x3e893f71	0.26806214
181	0xbe382546	-0.17982969
182	0xbe4b2528	-0.19838393
183	0x3e634c7e	0.22197148
184	0xbdf7e553	-0.12104287
185	0xbe0b3ff0	-0.13598609
186	0xbe84d2bd	-0.2594203
187	0x3ea91e32	0.3303085
188	0xbd93da2b	-0.072193466
189	0x3eac68de	0.33673757
190	0xbdb27f77	-0.08715718
191	0x3e5519a6	0.20810565
192	0x3d8254c8	0.06363827
193	0x3e221a43	0.1583033
194	0xbca1106d	-0.019661153
195	0xbe537256	-0.20649084
196	0x3ec679de	0.38764852
197	0xbe038375	-0.12843116
198	0x3d5b6e23	0.05357183
199	0xbe82e5e1	-0.2556601
200	0x3e652ff4	0.22381574
201	0xbd9989d8	-0.07496995
202	0x3da90bbb	0.082541905
203	0xbe5d16a1	-0.21590663
204	0xbe1355f8	-0.14388263
205	0xbea5d140	-0.32386208
206	0xbf003bda	-0.50091326
207	0xbe07f51c	-0.13277096
208	0x3e1babc3	0.1520224
209	0xbeac1676	-0.33610886
210	0x3aec6a3e	0.0018037034
211	0xbd8eff62	-0.06982304
212	0x3e324d29	0.17412247
213	0x3e273f65	0.16332777
214	0xbe03a873	-0.12857227
215	0x3dc2a516	0.09504144
216	0x3e88f400	0.26748657
217	0x3ec21e12	0.37913567
218	0x3eaa0ff8	0.33215308
219	0x3e91ca90	0.28474855
220	0x3e2cd3e7	0.1687771
221	0x3e73d994	0.23813468
222	0x3e83bf16	0.25731725
223	0x3de646f6	0.112440035
224	0x3c8cea74	0.01720164
225	0x3e6fd0b6	0.2341946
226	0xbc7ee511	-0.015557543
227	0x3df5927b	0.119908296
228	0xba9ba4ca	-0.0011874672
229	0x3dac4459	0.08411474
230	0xbe0b51c5	-0.13605411
231	0xbb7357e0	-0.0037131235
232	0xbdd28d1b	-0.1028082
233	0x3e03f719	0.12887229
234	0x3ca3106c	0.019905291
235	0xbeb0535a	-0.34438592
236	0x3ddf3262	0.10898282
237	0xbed83133	-0.42225036
238	0x3e3d0841	0.1846018
239	0xbecba423	-0.39773664
240	0xbec87a83	-0.3915597
241	0xbe06f7af	-0.13180421
242	0xbe9271fe	-0.28602594
243	0x3e501610	0.20320916
244	0x3eb9204e	0.3615746
245	0x3e659acb	0.2242233
246	0xbdd187ca	-0.10230978
247	0x3d5cf382	0.053943165
248	0x3dd4b250	0.10385573
249	0x3dacf86c	0.0844582
250	0x3e87acbe	0.2649898
251	0xbde7c225	-0.11316327
252	0xbd641c2c	-0.05569093
253	0xbe0db214	-0.13837463
254	0x3dfe6be8	0.12422925
255	0xbe05256c	-0.13002557

lstm.bias_ih_l1 f4 [40]
0	0xbe232252	-0.15931061
1	0x3d63e21c	0.055635557
2	0x3d19fa18	0.037592024
3	0xbe4db0fd	-0.20087047
4	0x3ea1b321	0.31581977
5	0x3ea551aa	0.32288867
6	0x3e130fc0	0.14361477
7	0xbe1c27bb	-0.15249531
8	0xbe18fd4e	-0.14940378
9	0x3e5c80d6	0.21533522
10	0xbc8348d7	-0.016025944
11	0xbe2a2597	-0.16615902
12	0x3dc725cf	0.09724008
13	0x3e399a7f	0.18125342
14	0xbd6461ad	-0.055757213
15	0x3d9c5af7	0.07634538
16	0xbe8171a7	-0.25282022
17	0x3e91e5e2	0.284957
18	0xbe182a44	-0.14859873
19	0x3ec604bd	0.3867549
20	0x3e7ee5f9	0.24892415
21	0xbc18c2d3	-0.009323793
22	0xbe8e6c4b	-0.27816996
23	0x3d82bfb4	0.06384221
24	0x3d02bf91	0.031920973
25	0xbe59fe57	-0.21288429
26	0x3e6ff52a	0.23433366
27	0xbe69ff0c	-0.22851199
28	0xbe5a1fa8	-0.21301138
29	0xbe7dec4e	-0.24797174
30	0x3ee979a5	0.4560062
31	0x3e5de34c	0.21668738
32	0xbd9b7626	-0.075908944
33	0xba8e4dd6	-0.0010856937
34	0xbe39e9ee	-0.18155643
35	0xbe1a02fc	-0.15040201
36	0x3d4fe6e3	0.0507573
37	0x3d815d76	0.063166544
38	0x3e695a5b	0.22788374
39	0x3e9dd559	0.30826834

lstm.bias_hh_l1 f4 [40]
0	0xbdcba624	-0.09943798
1	0x3e3ea865	0.18618925
2	0xbe6a3207	-0.22870646
3	0x3d6d772d	0.057974983
4	0x3c56e347	0.013115711
5	0x3e89e280	0.26930618
6	0x3e58227c	0.21106905
7	0xbe0a1ab7	-0.13486753
8	0xbdc662b6	-0.09686796
9	0xbdc1a1a2	-0.09454657
10	0xbe048289	-0.1294042
11	0xbe830a98	-0.2559402
12	0x3c815e84	0.015792139
13	0x3e209035	0.1568001
14	0xbda33794	-0.07969585
15	0x3e360149	0.17773928
16	0x3ea6918b	0.32532915
17	0x3c4b8799	0.012422466
18	0x3e2886df	0.16457699
19	0x3df2a07a	0.11847015
20	0x3e7c04f8	0.2461127
21	0x3e251448	0.16121018
22	0xbdd206ff	-0.10255241
23	0x3e8649ef	0.26228282
24	0xbe7355ea	-0.23763242
25	0x3dfde07a	0.12396331
26	0xbe2ee129	-0.1707808
27	0x3dc4bccf	0.09606325
28	0xbe5b8cd0	-0.21440434
29	0x3e7ab4b8	0.24483001
30	0x3e460ae6	0.19340095
31	0x3dd001de	0.10156606
32	0x3d7f8786	0.062385105
33	0x3e5b2adc	0.21403068
34	0x3dfeb1a4	0.12436226
35	0x3deaf5a9	0.11472637
36	0xbd0a8c1a	-0.033825018
37	0xbcf2f047	-0.029655589
38	0xbdf0b7eb	-0.117538296
39	0x3e265c09	0.16246046
