sparrow/data/networks/scaling_exponent/scaling_exponent_network_v1.5.pt (torch, 52067 bytes, 9 tensors)

lstm.weight_ih_l0 f4 [120, 20]
-1.4332185 0.64146626 -0.802502 0.8489467 -0.2968199 0.016719913 1.1982689 1.0455948
0.06186051 -0.65438986 0.17398994 0.105566666 0.1786939 0.15768354 0.0969416 -1.147791
0.18342549 -1.2601666 1.7023606 -0.21612301 0.31189874 1.8424876 0.014366745 -0.2815001
0.7204054 -0.124841966 -0.30644685 1.5842588 -1.3352436 1.1867619 -1.2779716 -1.9905365
0.24791442 1.2693871 -1.1601999 -1.0264617 -1.4977216 0.44865462 1.4185959 0.07744403
-0.88463235 -1.19627 0.48243654 0.22302517 1.0275832 -1.5206227 0.05972404 -0.34713003
1.2663999 0.5200151 -1.2618774 -0.05574673 -0.97910225 -1.2310519 -1.0100672 -0.6664443
0.67150223 1.0662743 -0.79295534 -0.15106997 -0.59773135 0.4910156 0.55662197 -0.4320592
0.49279281 -0.18072848 -0.6892589 1.2036965 0.48096305 -0.34824765 -0.30371827 -1.4777863
-0.47269636 -0.7906583 -0.17198133 -0.9764755 0.6897922 1.3185332 0.73591727 0.29913098
-0.37797025 0.14452454 -0.4980263 -0.7272477 -0.90687454 -0.6189767 0.6756343 0.66393876
-0.017050676 1.5257506 0.99275213 -0.10341948 -0.061443925 0.12172984 -0.82617694 -1.7879493
-0.6128322 -0.73466337 -0.6043683 0.5387941 -1.7397827 -0.61054087 0.80777717 0.39270434
-0.22004125 0.2637762 -0.9947217 0.6243529 -0.94299346 1.7296262 1.2780488 0.18396828
-0.20280012 -0.8820667 0.81826234 0.72646713 -1.9290522 -1.2177304 0.76008356 0.13235635
-3.5123565 0.43746737 0.330855 -0.18399821 0.3592675 -0.045258697 -2.2328153 0.3407834
0.93949944 1.2716436 0.8554355 0.1996904 0.6602628 -1.3904061 1.1415137 0.67872566
-0.70404583 -0.6696287 0.070317514 2.0787506 0.5767716 0.379353 -0.26624942 -0.20890476
0.16202918 -1.2927381 -0.41865933 -0.015891561 -0.6266848 0.42443752 0.44192898 -0.25973758
0.56060714 0.6370356 0.14731994 -1.7655239 -0.049681816 0.684018 1.2678585 0.18325394
0.3318646 -0.8542204 -0.43856707 -0.25783756 0.03356701 0.47169012 -0.41891605 1.1584979
0.48283333 0.5097282 -0.26593244 0.09176209 -0.6949818 0.27044567 0.73608637 -0.074232675
-0.16805735 -0.23139633 0.6315758 0.7478257 0.39449245 0.98462164 -1.3599966 -0.90900564
-0.3634257 -1.093298 -0.14385034 1.2709497 0.109038666 -0.3850291 0.40577814 -0.87069833
-1.6114553 -0.3013824 -1.601496 -0.6817756 -0.56389517 -0.21286753 1.4479035 0.6164983
-0.49674177 1.2101309 0.95599353 0.3247705 0.47018877 -0.07451937 0.7885368 0.05387428
-0.011375137 0.37602153 -1.5317143 -0.7707987 -0.4288574 -0.066966794 0.74224347 -1.6231799
-0.62725484 -1.4115431 0.819456 -0.019310521 0.23935798 0.6005347 -0.7603412 -1.9054912
0.23931451 -0.7620099 0.47905868 0.8858717 1.1556444 0.16975093 0.9756702 -0.12258495
0.48823044 -0.37123197 0.06751315 0.29895127 -0.5247307 1.3561146 1.0539491 0.31017363
-0.42100438 0.2784304 0.42315343 0.86771256 0.8576197 -1.0005686 1.1493044 0.4742219
0.27279723 0.18752858 1.3522718 -1.0261348 -0.019563083 0.7098363 -1.050657 -3.910944
00000000: b473 b7bf 2237 243f c570 4dbf 9254 593f
00000010: c7f8 97be 33f8 883c e060 993f 0dd6 853f
00000020: 7261 7d3d 1886 27bf 6b2a 323e 5633 d83d
00000030: 89fb 363e cb77 213e 5189 c63d d1ea 92bf
00000040: e4d3 3b3e 244d a1bf f4e6 d93f 5a4f 5dbe
00000050: 31b1 9f3e a2d6 eb3f 7f62 6b3c c820 90be
00000060: 7d6c 383f 25ad ffbd 9ae6 9cbe fec8 ca3f
00000070: 43e9 aabf d0e7 973f 9394 a3bf e6c9 febf
00000080: 47dd 7d3e 477b a23f 6e81 94bf 1963 83bf
00000090: 57b5 bfbf 0fb6 e53e 8d94 b53f fa9a 9e3d
000000a0: 4477 62bf 601f 99bf ec01 f73e b660 643e
000000b0: d987 833f c4a3 c2bf 32a1 743d 07bb b1be
000000c0: 6419 a23f b61f 053f 3385 a1bf af56 64bd
000000d0: 72a6 7abf 1c93 9dbf e249 81bf 189c 2abf
000000e0: 92e7 2b3f ad7b 883f 1fff 4abf 16b2 1abe
000000f0: ec04 19bf 6666 fb3e c77e 0e3f dd36 ddbe
00000100: 574f fc3e e310 39be 4573 30bf ba12 9a3f
00000110: ca40 f63e 844d b2be f680 9bbe 1a28 bdbf
00000120: 4205 f2be 9568 4abf e01b 30be 4cfa 79bf
00000130: 3996 303f b2c5 a83f 1365 3c3f b227 993e
00000140: 5185 c1be 3efe 133e 4efd febe e82c 3abf
00000150: ee28 68bf 4275 1ebf 5ff6 2c3f e4f7 293f
00000160: dcad 8bbc cc4b c33f 0125 7e3f 98cd d3bd
00000170: a0ac 7bbd 7f4d f93d 5580 53bf 86db e4bf
00000180: 92e2 1cbf e612 3cbf e2b7 1abf 69ee 093f
00000190: 33b1 debf 684c 1cbf 7cca 4e3f 8b10 c93e
000001a0: 7e52 61be ad0d 873e 15a6 7ebf 97d5 1f3f
000001b0: 0568 71bf 6464 dd3f 1a97 a33f 2e62 3c3e
000001c0: d6aa 4fbe 20cf 61bf a479 513f c0f9 393f
000001d0: 2feb f6bf 97de 9bbf d694 423f 6c88 073e
000001e0: 73ca 60c0 b9fb df3e d465 a93e 076a 3cbe
000001f0: e9f1 b73e 2f61 39bd 72e6 0ec0 297b ae3e
00000200: 0983 703f 38c5 a23f d2fd 5a3f a47b 4c3e
00000210: fc06 293f d4f8 b1bf 1f1d 923f f7c0 2d3f
00000220: 593c 34bf c96c 2bbf a102 903d 400a 0540
00000230: 4ea7 133f 8e3a c23e d851 88be 21eb 55be
00000240: faea 253e 7178 a5bf 845a d6be 052f 82bc
00000250: 6a6e 20bf e04f d93e 8444 e23e 53fc 84be
00000260: f383 0f3f c414 233f 0adb 163e b0fc e1bf
00000270: 297f 4bbd ce1b 2f3f 3049 a23f eca6 3b3e
00000280: 28ea a93e 30ae 5abf dd8b e0be 4903 84be
00000290: 907d 093d 5e81 f13e 2a7c d6be a949 943f
000002a0: ee35 f73e 8c7d 023f 4c28 88be c3ed bb3d
000002b0: 54ea 31bf db77 8a3e 2870 3c3f 4d07 98bd
000002c0: 3a17 2cbe 29f3 6cbe f4ae 213f 8171 3f3f
000002d0: eafa c93e 2a10 7c3f 5e14 aebf 98b4 68bf
000002e0: ef12 babe 30f1 8bbf 814d 13be 7bae a23f
000002f0: aa4f df3d 8922 c5be 27c2 cf3e 16e6 5ebf
00000300: 2b44 cebf cb4e 9abe d2fd ccbf d988 2ebf
00000310: 6f5b 10bf f2f9 59be e754 b93f d5d2 1d3f
00000320: f054 febe 92e5 9a3f febb 743f 5248 a63e
00000330: 95bc f03e 9d9d 98bd 8cdd 493f 47ab 5c3d
00000340: c85e 3abc e585 c03e 370f c4bf 1053 45bf
00000350: 3293 dbbe e325 89bd ab03 3e3f 5cc4 cfbf
00000360: c693 20bf 72ad b4bf dec7 513f 1931 9ebc
00000370: 421a 753e a4bc 193f b9a5 42bf 23e7 f3bf
00000380: dd0e 753e 1513 43bf 2e47 f53e 7dc8 623f
00000390: 28ec 933f 30d3 2d3e 86c5 793f d10d fbbd
000003a0: 57f9 f93e 1e12 bebe 5644 8a3d 2410 993e
000003b0: c054 06bf 2a95 ad3f cee7 863f 14cf 9e3e
000003c0: e38d d7be 6e8e 8e3e 91a7 d83e 6922 5e3f
000003d0: f78c 5b3f a212 80bf 681c 933f 36cd f23e
000003e0: 14ac 8b3e 7e07 403e 3e17 ad3f 6358 83bf
000003f0: c242 a0bc d5b7 353f ee7b 86bf e84c 7ac0

lstm.weight_hh_l0 f4 [120, 30]
-0.46032885 0.27934417 0.52618736 2.1381927 -0.12632993 0.46128395 0.17859246 -0.28564623
-0.48355877 -0.7126478 -0.091956876 -0.1663501 1.8615994 -3.0996704 0.05845314 -1.5232614
1.320802 1.9133023 -0.05670867 -0.073871106 1.9610447 1.0271353 1.6615868 0.88768977
1.3256464 -0.86258626 -0.10496289 0.28980488 0.037449025 0.9636065 -1.1670887 0.2255588
1.1421313 -0.9005542 0.23617521 -0.8235897 -0.07548916 -0.73446614 2.6569436 -0.6171824
-0.3469631 1.0317048 3.770326 -1.5095811 0.1454687 5.069863 1.3006215 -0.899964
1.087011 0.18523446 0.4458719 0.58886653 -0.22581317 -3.4788742 -0.60980386 3.3784027
-0.3044381 -0.8516587 0.054701384 1.231311 -0.33183473 2.3255386 -1.1345526 2.1165473
-2.9085147 0.13804531 -1.3333732 -0.5557215 1.8174255 -0.0076781125 2.3502374 0.5481028
-1.1184393 2.3456872 0.1803624 0.009001411 -1.9819016 -1.4118295 0.6787568 -0.44276473
0.9645278 2.6758342 2.3129408 0.9547309 1.7578131 1.5553027 -0.832674 -2.9013805
0.1278241 1.1210152 -2.3880148 0.9583928 -0.058280904 -1.79708 -0.4302911 -2.7412658
-0.68227047 -1.4815189 2.1448963 -0.9935361 2.4332826 1.2739648 0.45901576 0.16529346
0.83410233 1.1639448 -0.95864874 -2.4366033 0.86819667 0.029438818 1.4572414 1.4013662
0.30546853 -0.23558354 -0.49504828 1.795353 -0.46827316 0.6491404 -0.23226868 1.2886934
-2.9871938 -0.75990546 1.9543169 -1.029295 -0.49289343 0.19745295 2.0722694 -0.61191493
3.3363745 0.5665233 1.8451911 0.42393443 -1.4539015 -1.4976876 0.8571149 0.81758916
-1.4803259 -2.971586 0.014647827 -0.051489316 0.71094674 -1.5080646 1.7529707 -0.47019067
1.6885003 0.8448777 -0.120836265 -3.2826872 0.44721603 1.1272415 -2.21173 1.0590919
-2.5028372 0.24181473 0.57792115 0.19385646 0.2734428 -0.44725454 2.7370226 0.15641767
2.1471899 -0.32272643 -1.5894583 0.23216254 0.3743915 1.2783705 -1.1871836 -1.1833255
1.4178449 -0.16679446 1.5684768 3.6518736 3.1844695 -0.33660105 1.0711107 -0.37086776
-0.1024189 -2.2150536 0.35542396 0.7093509 -3.5402684 0.78900236 0.95365894 0.22601327
1.1614618 2.3696713 0.9275232 -0.2824819 3.7455885 -0.5925999 -3.8294477 0.29063123
3.8085809 -1.9108706 0.121086136 -0.29042763 5.7314997 -1.794738 0.052124877 -0.13764587
0.5405042 1.2091465 -1.2680445 0.6235035 1.8494644 1.4735984 0.6379881 0.5291347
0.39247864 1.5734096 -0.5791354 0.09157966 -1.414591 0.446747 -1.0395063 -0.043020755
1.6607774 -0.13626409 0.4677426 -0.019848876 0.3278337 0.20251042 -2.3127775 2.199261
0.7996478 2.130912 0.46257168 -1.4221005 0.779246 -0.43815076 -1.223083 1.4366013
1.4499359 -0.4830644 1.4722116 1.2655306 -0.050367568 -1.7743767 -0.21871266 1.5226902
0.93978333 0.3219054 2.0003638 0.3169462 -0.120757855 -0.24514669 -0.2650079 -0.61983895
-0.9309331 -0.63095516 -0.52759707 0.21499401 0.6328404 -2.3472495 -0.02631134 -0.031549994
00000000: 39b0 ebbe 3306 8f3e 37b4 063f 26d8 0840
00000010: a25c 01be 692d ec3e f1e0 363e 3940 92be
00000020: 0495 f7be 1670 36bf e353 bcbd ae57 2abe
00000030: e448 ee3f 0061 46c0 8f6c 6f3d 3bfa c2bf
00000040: 0a10 a93f 17e7 f43f 5a47 68bd bc49 97bd
00000050: 8303 fb3f 2b79 833f e0ae d43f a33f 633f
00000060: c8ae a93f 74d2 5cbf c9f6 d6bd 4e61 943e
00000070: 2664 193d eaae 763f 2a63 95bf e3f8 663e
00000080: 5c31 923f b88a 66bf ead7 713e c6d6 52bf
00000090: 109a 9abd f905 3cbf 5d0b 2a40 aaff 1dbf
000000a0: 26a5 b1be e70e 843f 054d 7140 f439 c1bf
000000b0: bff5 143e 513c a240 c47a a63f 0a64 66bf
000000c0: 2d23 8b3f 1aae 3d3e 5249 e43e f5bf 163f
000000d0: 913b 67be e0a5 5ec0 1b1c 1cbf c037 5840
000000e0: 50df 9bbe 4e06 5abf 8f0e 603d 999b 9d3f
000000f0: 3ee6 a9be a0d5 1440 0539 91bf 8375 0740
00000100: 1b25 3ac0 c05b 0d3e f9ab aabf c443 0ebf
00000110: 66a1 e83f ad98 fbbb 4a6a 1640 7750 0c3f
00000120: 0529 8fbf bd1f 1640 ecb0 383e a77a 133c
00000130: f4ae fdbf d4b6 b4bf 01c3 2d3f 0fb2 e2be
00000140: 4beb 763f de40 2b40 3907 1440 3f69 743f
00000150: 0500 e13f 2914 c73f 202a 55bf 38b0 39c0
00000160: 52e4 023e 6d7d 8f3f 3cd5 18c0 3b59 753f
00000170: f5b7 6ebd b806 e6bf 1d4f dcbe e670 2fc0
00000180: 47a9 2ebf 69a2 bdbf fb45 0940 6258 7ebf
00000190: e7ba 1b40 4711 a33f 1d04 eb3e b042 293e
000001a0: bb87 553f 25fc 943f 016a 75bf 4ff1 1bc0
000001b0: 2342 5e3f ad29 f13c e386 ba3f f85f b33f
000001c0: 5f66 9c3e d03c 71be f876 fdbe 21ce e53f
000001d0: 80c1 efbe 112e 263f d7d7 6dbe e8f3 a43f
000001e0: 2f2e 3fc0 2a89 42bf 0e27 fa3f f0bf 83bf
000001f0: 875c fcbe 1b31 4a3e 10a0 0440 75a6 1cbf
00000200: 2987 5540 ac07 113f 392f ec3f ef0d d93e
00000210: 7219 babf 3ab4 bfbf e26b 5b3f 864d 513f
00000220: 527b bdbf 772e 3ec0 70fd 6f3c 76e6 52bd
00000230: 9b00 363f 4308 c1bf 5861 e03f d5bc f0be
00000240: c720 d83f e849 583f 0179 f7bd 8c17 52c0
00000250: 80f9 e43e 7349 903f fc8c 0dc0 5390 873f
00000260: 7c2e 20c0 489e 773e a4f2 133f 4f82 463e
00000270: b200 8c3e 8cfe e4be 612b 2f40 f42b 203e
00000280: 8f6b 0940 663c a5be 5f73 cbbf 04bc 6d3e
00000290: 3eb0 bf3e a5a1 a33f a2f5 97bf 3677 97bf
000002a0: f17b b53f 2bcc 2abe d9c3 c83f 4cb8 6940
000002b0: 59ce 4b40 f956 acbe 281a 893f 61e2 bdbe
000002c0: 00c1 d1bd 70c3 0dc0 21fa b53e 0598 353f
000002d0: c293 62c0 0ffc 493f fe22 743f 0670 673e
000002e0: c8aa 943f b2a8 1740 2972 6d3f 78a1 90be
000002f0: b9b7 6f40 a1b4 17bf ac15 75c0 9ecd 943e
00000300: cabf 7340 6897 f4bf 02fc f73d eeb2 94be
00000310: 7268 b740 fab9 e5bf e580 553d 0af3 0cbe
00000320: 7c5e 0a3f 50c5 9a3f 484f a2bf ed9d 1f3f
00000330: 40bb ec3f df9e bc3f 3053 233f 5f75 073f
00000340: f6f2 c83e 7c65 c93f 3842 14bf 1e8e bb3d
00000350: 5111 b5bf 06bc e43e 8b0e 85bf 8836 30bd
00000360: 5b94 d43f d088 0bbe f57b ef3e 1c9a a2bc
00000370: d2d9 a73e e45e 4f3e 8c04 14c0 b1c0 0c40
00000380: b8b5 4c3f dd60 0840 32d6 ec3e 6407 b6bf
00000390: aa7c 473f 4c55 e0be fc8d 9cbf 8de2 b73f
000003a0: 8097 b93f 3854 f7be 6e71 bc3f e8fc a13f
000003b0: 394e 4ebd c71e e3bf 36f6 5fbe 83e7 c23f
000003c0: a495 703f c9d0 a43e f605 0040 c646 a23e
000003d0: e54f f7bd bc07 7bbe 1eaf 87be c4ad 1ebf
000003e0: a251 6ebf 4786 21bf 9a10 07bf 6427 5c3e
000003f0: d401 223f 5639 16c0 e18a d7bc 913a 01bd

lstm.bias_ih_l0 f4 [120]
-1.0318222 -1.1123047 -0.81599563 -0.969536 -0.7732904 -0.9804312 -1.2626394 -1.4593216
-0.8468493 -1.2331159 -0.7583794 -1.0750589 -0.8442939 -0.98335075 -3.043203 -0.90518916
-1.2183014 -0.4569431 -3.0039825 -2.9826705 -1.1543624 -0.96204776 -0.91969514 -1.2097588
-1.1535972 -0.8806923 -3.1099818 -0.9660327 -2.9796357 0.42555827 -0.07245956 0.4698409
-0.12548958 0.43651766 -0.5436397 -0.38471496 0.1569672 -0.30694902 0.041076776 0.40097722
0.22273576 0.004444538 -0.20739108 -0.3132403 -0.8868282 0.09815563 -0.25904867 0.10725416
-1.4379083 -1.0493338 -0.048551925 0.42681918 -0.654602 0.80377626 -0.27841264 0.48906016
-1.3135046 0.2025067 -1.0048627 0.73336667 0.13529031 -0.008061234 -0.14507811 -0.13276452
0.11335752 0.09378967 0.055530917 0.04754589 -0.12752254 0.07431842 -0.11860571 -0.018337876
-0.06971328 0.069982275 -0.11221252 -0.115090065 0.08309002 0.040898237 -0.013979993 -0.034385476
-0.12494732 0.02224759 -0.040772267 -0.142243 0.036320288 -0.04142309 0.07817483 0.12004593
0.059563432 -1.3592026 -1.0135474 -0.89720607 -0.74620456 -0.9755268 -1.2235523 -1.0689337
-1.1794661 -1.4851503 -1.199368 -0.9663894 -0.97269243 -0.949865 -0.9492988 -0.82125896
-3.3441222 -1.2781975 -1.2410487 -1.1717453 -3.0492885 -3.2152169 -1.2633953 -1.2694882
-0.7079332 -1.2843869 -1.0446284 -1.1161182 -2.9099212 -1.3309412 -2.9765952 -0.35475838
00000000: c012 84bf 0060 8ebf 17e5 50bf 8333 78bf
00000010: 5cf6 45bf 8afd 7abf 2b9e a1bf 0dcb babf
00000020: 1ecb 58bf bed6 9dbf 2725 42bf 889b 89bf
00000030: a523 58bf e0bc 7bbf d7c3 42c0 7aba 67bf
00000040: 4df1 9bbf 72f4 e9be 4041 40c0 13e4 3ec0
00000050: 26c2 93bf c348 76bf 2471 6bbf 60d9 9abf
00000060: 13a9 93bf 0d75 61bf f109 47c0 eb4d 77bf
00000070: 5ab2 3ec0 c6e2 d93e ae65 94bd fd8e f03e
00000080: 5780 00be 3e7f df3e f92b 0bbf 5cf9 c4be
00000090: 02bc 203e 6c28 9dbe 1f40 283d e34c cd3e
000000a0: d814 643e 7da3 913b 545e 54be 0861 a0be
000000b0: 2c07 63bf d205 c93d 07a2 84be 12a8 db3d
000000c0: 610d b8bf 9250 86bf 62de 46bd 0b88 da3e
000000d0: ff93 27bf 48c4 4d3f 1a8c 8ebe 1866 fa3e
000000e0: eb20 a8bf eb5d 4f3e 579f 80bf ebbd 3b3f
000000f0: 8b89 0a3e 4413 04bc 5b8f 14be 6cf3 07be
00000100: fd27 e83d cc14 c03d 6374 633d 7bbf 423d
00000110: 4595 02be 4134 983d 8de7 f2bd 5039 96bc
00000120: d6c5 8ebd de52 8f3d adcf e5bd 57b4 ebbd
00000130: 1a2b aa3d e984 273d 570c 65bc c9d7 0cbd
00000140: 61e4 ffbd 9440 b63c d200 27bd 26a8 11be
00000150: 95c4 143d 42ab 29bd 201a a03d a4da f53d
00000160: c9f8 733d 5afa adbf ecbb 81bf 4caf 65bf
00000170: 4307 3fbf 20bc 79bf 5d9d 9cbf d2d2 88bf
00000180: bff8 96bf 6819 bebf e484 99bf 4c65 77bf
00000190: 5f02 79bf 5a2a 73bf 3f05 73bf 073e 52bf
000001a0: 1906 56c0 fa9b a3bf afda 9ebf c0fb 95bf
000001b0: 8b27 43c0 1dc6 4dc0 f0b6 a1bf 977e a2bf
000001c0: 1c3b 35bf ca66 a4bf 62b6 85bf f6dc 8ebf
000001d0: 263c 3ac0 485c aabf 8980 3ec0 e4a2 b5be

lstm.bias_hh_l0 f4 [120]
-1.0314226 -1.1074556 -0.91561514 -1.1590914 -0.6970814 -0.77833587 -1.1406026 -1.4469138
-0.9020087 -1.3834699 -0.8739158 -1.073947 -1.0143434 -0.8585848 -3.1123216 -0.82791305
-1.1533993 -0.22936583 -2.913556 -2.9838588 -1.0199388 -0.9314741 -0.9160621 -1.1959332
-1.2419676 -0.88449055 -3.1914196 -0.9310398 -3.0832064 0.6632983 -0.0029154306 0.4986221
0.08421359 0.6669881 -0.27440748 -0.29471028 0.25059414 -0.36238575 0.23090999 0.34152013
0.056485318 0.07218516 -0.25964126 -0.12015883 -0.85588914 0.07746201 -0.24178292 0.14991732
-1.2701577 -1.0034735 -0.12210137 0.22874239 -0.4274534 0.58139735 -0.1993466 0.3117562
-1.3156496 0.018633053 -1.1265435 0.6800549 -0.09070332 0.1122115 -0.050359033 -0.044720583
0.12199915 0.10040306 -0.0687556 0.18674861 -0.11792084 0.01010028 -0.12135191 0.046713207
-0.07132767 -0.18709448 0.014815074 0.0029385744 -0.07715461 0.11020495 -0.10252894 0.058860615
-0.0708369 -0.11990228 -0.12099206 0.044964917 -0.13503352 -0.09334705 0.008264685 -0.018823508
0.034986403 -1.2435806 -1.1415389 -0.92851996 -1.0162603 -0.93019927 -0.8634533 -1.2793431
-1.1682682 -1.4060585 -1.1995435 -1.2045103 -0.80862993 -0.7308374 -0.9174513 -0.7764629
-3.1817856 -1.2563199 -1.3064853 -1.0479009 -2.9906356 -3.2148798 -1.4025651 -1.2752174
-0.931128 -1.169037 -1.0977861 -1.2600718 -2.9301367 -1.1148586 -3.0954401 -0.20926501
00000000: a805 84bf 1bc1 8dbf c165 6abf 1b5d 94bf
00000010: ed73 32bf 0541 47bf 44ff 91bf 7934 b9bf
00000020: 0bea 66bf 8b15 b1bf f2b8 5fbf 1877 89bf
00000030: 01d6 81bf 37cc 5bbf 4730 47c0 1cf2 53bf
00000040: 97a2 93bf e0de 6abe b477 3ac0 8bf7 3ec0
00000050: 5b8d 82bf 1675 6ebf 0c83 6abf 5714 99bf
00000060: cbf8 9ebf f96d 62bf 3840 4cc0 a058 6ebf
00000070: 4153 45c0 ebcd 293f cf10 3fbb 654b ff3e
00000080: 2d78 ac3d bbbf 2a3f 237f 8cbe 44e4 96be
00000090: e04d 803e a08a b9be ab73 6c3e badb ae3e
000000a0: 265d 673d d0d5 933d b3ef 84be d515 f6bd
000000b0: 8d1b 5bbf 67a4 9e3d f195 77be ed83 193e
000000c0: 8794 a2bf d271 80bf 4810 fabd 723b 6a3e
000000d0: 2cdb dabe 75d6 143f 8421 4cbe 829e 9f3e
000000e0: 3567 a8bf 58a4 983c 9432 90bf 1418 2e3f
000000f0: aac2 b9bd 25cf e53d 4645 4ebd ee2c 37bd
00000100: b1da f93d 1fa0 cd3d bccf 8cbd 073b 3f3e
00000110: 7b80 f1bd a57b 253c 5a87 f8bd 5956 3f3d
00000120: 3e14 92bd b295 3fbe edba 723c 1995 403b
00000130: 3c03 9ebd 22b3 e13d b1fa d1bd d417 713d
00000140: f012 91bd 548f f5bd afca f7bd 222d 383d
00000150: 3a46 0abe bd2c bfbd 9a68 073c c233 9abc
00000160: e74d 0f3d a62d 9fbf f21d 92bf 7cb3 6dbf
00000170: d114 82bf 8a21 6ebf 470b 5dbf 84c1 a3bf
00000180: d089 95bf baf9 b3bf a48a 99bf 652d 9abf
00000190: 5f02 4fbf 2918 3bbf 17de 6abf 46c6 46bf
000001a0: 60a2 4bc0 17cf a0bf e93a a7bf 9e21 86bf
000001b0: 9366 3fc0 97c0 4dc0 4187 b3bf 533a a3bf
000001c0: 685e 6ebf 01a3 95bf 4184 8cbf 084a a1bf
000001d0: 5c87 3bc0 b0b3 8ebf b11b 46c0 9149 56be

lstm.weight_ih_l0_reverse f4 [120, 20]
-1.8576739 -0.5881549 1.1877905 -0.6367885 1.1348236 -1.5970725 1.1951686 0.98896533
0.700315 -0.5187769 0.08811485 -1.220677 -1.8931485 -1.5711404 -0.14499785 -1.0351242
-0.54422784 -0.07088631 -1.0504944 -0.20316453 -1.171648 -2.2269633 -0.312354 0.16890708
-1.35047 -0.60926884 0.8385363 -0.44068453 -0.038041048 0.22737677 -1.4226094 -1.2944392
-1.2400419 -1.1589977 0.8482345 -0.9333377 -1.8214295 -0.61471915 -0.011114689 0.089056864
-0.7787415 0.66998863 -1.0974422 0.96437436 -1.1102071 -3.4082496 -0.24286833 -1.9398054
1.1175852 -0.5426625 0.040453468 -0.69772464 -2.3817637 -0.7981118 1.4504287 -1.6651675
-0.63211954 0.37434456 0.45644426 -0.59352267 -1.9470166 -0.9595682 -0.092709266 -0.35530362
-0.2951 -0.69869167 -1.0913137 1.1874012 -0.66203624 -0.24831894 0.09896842 -0.50519216
-0.5543422 -2.0067549 -1.2078755 -1.3846387 -2.2429783 -1.2421176 1.0804803 -0.10908971
-1.4577739 -0.8901999 -0.8099673 -0.69178313 2.4550822 0.31516084 -0.40768695 2.1962762
-0.9790844 1.7589556 2.1326945 -2.023859 1.4692209 -2.4309268 -0.6069065 0.068737745
-2.2432885 2.1414063 0.34410557 -1.961714 -0.35763136 -0.21433434 0.54039896 -0.7914159
0.2818444 -0.19494879 0.57343256 -0.282062 -0.49093428 -0.11904085 0.9765413 -2.8524878
-2.343553 0.23068735 0.08766012 -2.4660847 -1.759319 0.3557709 -0.2225643 -1.5389103
-0.71285504 -0.6541666 0.35867614 0.59850097 1.555606 -0.8633242 -0.78936064 -0.8811915
-1.6856161 -0.16412888 0.28375039 -0.037162084 0.8068483 0.46009174 -0.39070082 -0.17666952
0.27389887 -2.372841 1.6428548 -0.35433775 0.30289862 2.3243544 -1.1622136 -0.87919545
-1.6116632 1.304868 0.36008 4.0698266 0.41440934 0.8198642 -3.1484149 0.9868203
-1.5744784 -0.17915933 -1.3568758 0.6052557 0.28218788 -0.31169355 -0.37490886 -1.2413297
-2.25126 -0.77892387 -0.59094363 0.091187194 0.42866173 -1.3052762 -1.6696882 -0.85396576
-0.3342169 -0.36406752 -0.5150269 -0.17423345 -1.4367225 -0.19423313 -0.63652277 -1.9028999
-4.3196216 -0.3721143 1.024539 0.20289665 1.1774353 1.0799422 -0.00799751 -0.87442714
0.87368166 1.7825528 0.5149512 3.0577333 -2.0870922 1.3476381 0.77055204 1.6665397
3.9165597 -1.3862326 -1.4501464 -0.47876406 1.5027649 3.3028467 1.4329723 0.6548066
0.75447285 0.53884846 -0.0841839 0.22298288 1.1025207 0.014529958 -0.29086915 1.7569392
0.23441516 -0.42611766 -0.7638986 -0.94061035 1.2613655 -2.00635 0.06763665 -0.6191647
-0.013729985 -0.21511595 1.4741458 -1.5776356 0.27347124 0.004657099 -1.4638796 -2.2952902
1.8715032 -0.8069275 0.34019125 -0.9614253 -0.4030972 -0.6073989 -0.42940286 -1.6156712
0.8566729 -0.58665556 -0.55028766 -1.1910886 -1.763554 0.8410591 1.3680466 0.737712
-0.30816442 2.3327246 -0.58983845 -1.7277083 1.6048748 0.116980836 -2.1563175 1.4331805
0.85028076 1.4855124 1.4822755 0.102156736 0.90352356 0.76530594 -0.6476348 -1.1487114
00000000: 42c8 edbf 5291 16bf 8509 983f 9204 23bf
00000010: e641 913f df6c ccbf 49fb 983f d52c 7d3f
00000020: d847 333f 90ce 04bf 8f75 b43d 253f 9cbf
00000030: b152 f2bf 211b c9bf 517a 14be f37e 84bf
00000040: 8452 0bbf d72c 91bd 9a76 86bf 5d0a 50be
00000050: 90f8 95bf 9186 0ec0 ddec 9fbe faf5 2c3e
00000060: 33dc acbf 0bf9 1bbf 51aa 563f 67a1 e1be
00000070: eed0 1bbd 75d5 683e 1118 b6bf 2fb0 a5bf
00000080: b1b9 9ebf 095a 94bf e525 593f 38ef 6ebf
00000090: 9a24 e9bf 3c5e 1dbf 621a 36bc 7263 b63d
000000a0: 9a5b 47bf 6084 2b3f fc78 8cbf 3de1 763f
000000b0: 441b 8ebf c320 5ac0 7ab2 78be 8b4b f8bf
000000c0: 080d 8f3f eeeb 0abf 89b2 253d 159e 32bf
000000d0: d16e 18c0 0e51 4cbf a6a7 b93f 3524 d5bf
000000e0: 96d2 21bf 17aa bf3e 10b3 e93e 1af1 17bf
000000f0: d737 f9bf 43a6 75bf 5bde bdbd 5bea b5be
00000100: 5917 97be 75dd 32bf 2bb0 8bbf c3fc 973f
00000110: 357b 29bf 5247 7ebe f4af ca3d 4654 01bf
00000120: 5fe9 0dbf ac6e 00c0 aa9b 9abf d73b b1bf
00000130: f58c 0fc0 b6fd 9ebf 2e4d 8a3f 6d6a dfbd
00000140: 5698 babf 24e4 63bf 045a 4fbf b318 31bf
00000150: 1120 1d40 c35c a13e 58bc d0be ca8f 0c40
00000160: 46a5 7abf 7525 e13f 117e 0840 e886 01c0
00000170: 6e0f bc3f 4e94 1bc0 395e 1bbf 60c6 8c3d
00000180: 0a92 0fc0 cd0c 0940 9b2e b03e 7219 fbbf
00000190: 751b b7be 767a 5bbe 9657 0a3f 3c9a 4abf
000001a0: e94d 903e a8a0 47be 7acc 123f 6e6a 90be
000001b0: bd5b fbbe b0cb f3bd 9cfe 793f 298f 36c0
000001c0: c6fc 15c0 4e39 6c3e 2687 b33d 55d4 1dc0
000001d0: 5d31 e1bf 9a27 b63e e5e7 63be 03fb c4bf
000001e0: ab7d 36bf 7677 27bf 66a4 b73e 5c37 193f
000001f0: 191e c73f d102 5dbf 8a13 4abf c495 61bf
00000200: 45c2 d7bf 6711 28be bb47 913e 4537 18bd
00000210: 9c8d 4e3f 2591 eb3e f009 c8be dbe8 34be
00000220: 793c 8c3e a0dc 17c0 1149 d23f c26b b5be
00000230: 8715 9b3e 39c2 1440 6ac3 94bf f412 61bf
00000240: fb4a cebf ea05 a73f 685c b83e 053c 8240
00000250: 762d d43e 9fe2 513f a17f 49c0 41a0 7c3f
00000260: 8288 c9bf 8b75 37be 1bae adbf 0af2 1a3f
00000270: ee7a 903e 4c96 9fbe 0ef4 bfbe e4e3 9ebf
00000280: a514 10c0 8e67 47bf 1548 17bf 5ac0 ba3d
00000290: 8d79 db3e 4a13 a7bf 58b8 d5bf 809d 5abf
000002a0: 7a1e abbe 0f67 babe ced8 03bf 416a 32be
000002b0: 86e6 b7bf 0de5 46be 28f3 22bf 3992 f3bf
000002c0: 573a 8ac0 c485 bebe 1824 833f 24c4 4f3e
000002d0: 33b6 963f 8c3b 8a3f fd07 03bc 75da 5fbf
000002e0: 9aa9 5f3f b12a e43f d8d3 033f e7b1 4340
000002f0: eb92 05c0 687f ac3f e642 453f 2c51 d53f
00000300: eaa8 7a40 1270 b1bf 669e b9bf 9020 f5be
00000310: 9a5a c03f d761 5340 a36b b73f 68a1 273f
00000320: 2225 413f f9f1 093f 9c68 acbd a055 643e
00000330: 661f 8d3f 100f 6e3c cdec 94be 62e3 e03f
00000340: 870a 703e 182c dabe dc8e 43bf d7cb 70bf
00000350: 6d74 a13f 0a68 00c0 1585 8a3d 9481 1ebf
00000360: bbf3 60bc 5b47 5cbe cfb0 bc3f f7ef c9bf
00000370: 6c04 8c3e 949a 983b 6860 bbbf 09e6 12c0
00000380: 6b8d ef3f cd92 4ebf 8c2d ae3e f81f 76bf
00000390: c262 cebe 7f7e 1bbf b1da dbbe 50ce cebf
000003a0: ea4e 5b3f 0f2f 16bf a7df 0cbf 9775 98bf
000003b0: 23bc e1bf a64f 573f 271c af3f b2da 3c3f
000003c0: bac7 9dbe 5c4b 1540 a7ff 16bf 8c25 ddbf
000003d0: 8a6c cd3f a693 ef3d 1b01 0ac0 7572 b73f
000003e0: 00ac 593f 4525 be3f 34bb bd3f 8d37 d13d
000003f0: 524d 673f 17eb 433f 65cb 25bf fa08 93bf

lstm.weight_hh_l0_reverse f4 [120, 30]
0.3708789 -0.45373753 0.37131083 0.5279851 0.67674845 -1.1683463 -0.9862705 1.1145583
-0.19223154 -1.7299695 1.0316031 0.18211353 1.2983817 1.5246568 -0.677879 -0.8088643
-0.22226949 -0.7175012 1.2186834 -1.0264764 -1.4582179 0.34240407 -2.2585435 -0.83294153
0.27876008 0.59852725 -1.0094252 -0.6753285 0.83504844 0.2728121 0.95891243 0.40428236
0.47633767 1.1046249 -1.3336087 0.5530535 -1.3678728 1.9305394 0.68225807 0.026233504
-0.41018757 -0.97017866 -0.6961448 1.8711495 0.600088 -0.6120622 -1.4086918 -1.3787936
-0.013973493 1.3842709 -0.49552393 1.2987362 -1.6059306 -0.021353925 -0.63928604 0.1279188
-1.3828614 -0.037891928 1.315306 0.9807659 -0.40063655 -0.47910836 0.48765174 -0.7504225
0.6560755 -0.83606696 -1.5213015 0.6021486 0.7375826 -1.2506568 0.7696133 -0.9544991
-1.744323 0.8632679 0.63712907 -1.3263534 0.1238239 0.8731034 -0.7941166 0.54137677
-0.3093388 -0.21028799 -0.040229756 -1.8441824 -0.53997034 0.416917 -1.8407767 -1.0322726
0.6790924 -0.5860214 -0.32971233 -0.16829556 -1.481593 -0.46408257 0.0014041199 0.41435266
-0.82206714 1.4246497 0.19705945 -1.7774125 -0.7208254 0.43334463 -0.20344293 0.91056406
0.38279575 -0.8493473 0.35118702 0.59617996 -0.6266178 0.31184885 0.4855734 1.4406129
-0.791383 0.8054807 -0.28060165 1.9529861 -1.0194372 -0.059126955 0.7714642 0.24645466
0.3345184 0.7776682 0.512814 -0.47350147 -0.44318545 0.5936002 -0.3447072 1.3049071
0.73736495 -0.4024672 -2.3353124 -0.026938906 -0.6342944 -0.16384636 0.5779812 -0.22227201
0.38683867 0.52646065 1.007029 0.015734171 0.054199856 0.08110384 -0.90460926 -0.17344294
0.24740575 0.6660335 1.3904737 -1.2585157 0.6614023 0.19301318 0.2877315 -0.3580779
-0.5039159 -1.1996682 -1.2366579 0.17861198 -1.0562384 2.3014727 0.5263551 -0.75535697
0.5866421 0.40484998 -0.13555698 -0.32829946 0.3921418 -0.20741458 0.18234542 0.3933104
0.7424512 -1.1038526 0.31320718 1.5478168 -0.60965836 -0.58963054 -0.5514816 1.4385337
1.0091718 -0.4689283 1.4102693 -1.0396817 1.084701 -0.21776009 -1.9036086 -1.8843449
0.26629403 -0.075474374 0.048683777 0.6681657 -1.2016716 -0.062362507 0.30238056 -1.0634604
0.13505378 1.3510219 -0.3518054 -1.3033822 0.1401814 0.6712747 2.3118546 1.0693048
-0.8278583 -0.7090564 -1.5592897 -0.37733325 0.91645825 0.39497465 -0.14209007 -0.40440091
0.6393684 -0.98805463 0.39012766 -1.6318431 -0.12552246 -1.3188947 0.098516405 0.9123478
0.5563338 -0.90312415 -0.98935455 -1.3144717 -1.2212002 -0.004268017 -0.49434057 0.41478345
0.8210943 -0.5803324 -0.33457643 1.6734245 0.5077372 0.32749492 -1.0778592 -0.7394826
-0.91389984 -1.2799283 0.7936555 0.0893085 0.4477782 0.15112835 0.9467136 0.613431
0.21020162 0.12135906 -0.4061583 0.28880522 -0.75209606 0.26235917 -0.66752076 1.5943246
0.56953 -0.4166904 0.68950224 -0.89125425 -0.85774195 0.5493811 -0.8529201 -0.383312
00000000: d7e3 bd3e 4950 e8be 741c be3e 082a 073f
00000010: 633f 2d3f 5f8c 95bf 397c 7cbf d9a9 8e3f
00000020: 58d8 44be a46f ddbf 920b 843f f87b 3a3e
00000030: 5f31 a63f f427 c33f 7a89 2dbf bb11 4fbf
00000040: 9d9a 63be 29ae 37bf d1fd 9b3f 9463 83bf
00000050: e2a6 babf 964f af3e fa8b 10c0 a83b 55bf
00000060: a4b9 8e3e 1539 193f d834 81bf 54e2 2cbf
00000070: bcc5 553f 07ae 8b3e 497b 753f 19fe ce3e
00000080: 88e2 f33e 5964 8d3f b1b3 aabf ea94 0d3f
00000090: 7516 afbf ea1b f73f 77a8 2e3f a5e7 d63c
000000a0: 1b04 d2be a15d 78bf 8c36 32bf d481 ef3f
000000b0: 5e9f 193f 1cb0 1cbf 0350 b4bf 4f7c b0bf
000000c0: 14f1 64bc ca2f b13f 50b5 fdbe fd3c a63f
000000d0: 228f cdbf 6dee aebc 40a8 23bf 25fd 023e
000000e0: 9a01 b1bf 9134 1bbd f25b a83f 7913 7b3f
000000f0: 3c20 cdbe b14d f5be 7dad f93e b01b 40bf
00000100: 90f4 273f 7c08 56bf 02ba c2bf 6926 1a3f
00000110: 37d2 3c3f 8615 a0bf 6105 453f 0e5a 74bf
00000120: fa45 dfbf 20ff 5c3f e41a 233f f3c5 a9bf
00000130: 6397 fd3d b483 5f3f 3a4b 4bbf ab97 0a3f
00000140: a861 9ebe bc55 57be f5c7 24bd 2b0e ecbf
00000150: 7f3b 0abf 2576 d53e 929e ebbf 8221 84bf
00000160: 00d9 2d3f 8005 16bf 0ed0 a8be ac55 2cbe
00000170: d7a4 bdbf 3b9c edbe 720a b83a 0826 d43e
00000180: fe72 52bf ec5a b63f f4c9 493e 4182 e3bf
00000190: 0388 38bf 59df dd3e 5853 50be ba1a 693f
000001a0: cefd c33e d36e 59bf c9ce b33e 409f 183f
000001b0: 066a 20bf a7aa 9f3e 149d f83e 0166 b83f
000001c0: 1498 4abf fc33 4e3f 05ab 8fbe 73fb f93f
000001d0: eb7c 82bf 1b2f 72bd ae7e 453f 9c5e 7c3e
000001e0: ff45 ab3e 4315 473f c747 033f c96e f2be
000001f0: 34e9 e2be 2ff6 173f 767d b0be 3207 a73f
00000200: f3c3 3c3f 2e10 cebe c275 15c0 fbae dcbc
00000210: 1e61 22bf 57c7 27be 93f6 133f 469b 63be
00000220: b80f c63e 20c6 063f 54e6 803f f3e4 803c
00000230: ab00 5e3d c519 a63d 7994 67bf 079b 31be
00000240: ef57 7d3e 2c81 2a3f 0bfb b13f 0b17 a1bf
00000250: a951 293f 3fa5 453e 8b51 933e fd55 b7be
00000260: a200 01bf ba8e 99bf ce4a 9ebf 0fe6 363e
00000270: d232 87bf 544b 1340 35bf 063f 135f 41bf
00000280: 2d2e 163f 7f48 cf3e 73cf 0abe de16 a8be
00000290: cfc6 c83e 7d64 54be c2b8 3a3e fb5f c93e
000002a0: 4811 3e3f 0b4b 8dbf b15c a03e dc1e c63f
000002b0: 9212 1cbf 07f2 16bf e62d 0dbf df21 b83f
000002c0: 8b2c 813f 5f17 f0be b483 b43f 4a14 85bf
000002d0: 7bd7 8a3f 80fc 5ebe 72a9 f3bf 3732 f1bf
000002e0: b157 883e 4f92 9abd a468 473d e80c 2b3f
000002f0: 60d0 99bf d46f 7fbd a0d1 9a3e 781f 88bf
00000300: 8a4b 0a3e 49ee ac3f d61f b4be 3ad5 a6bf
00000310: b78b 0f3e a9d8 2b3f 6df5 1340 fbde 883f
00000320: 86ee 53bf b884 35bf ce96 c7bf d331 c1be
00000330: 029d 6a3f 1e3a ca3e 0f80 11be a30d cfbe
00000340: a6ad 233f 26f1 7cbf d0be c73e 3ce0 d0bf
00000350: f688 00be 8bd1 a8bf f8c2 c93d a08f 693f
00000360: e46b 0e3f 2533 67bf 5746 7dbf 9c40 a8bf
00000370: 4a50 9cbf b9da 8bbb 351a fdbe 7f5e d43e
00000380: 3c33 523f aa90 14bf 9a4d abbe c632 d63f
00000390: 11fb 013f 6aad a73e 4af7 89bf bb4e 3dbf
000003a0: 57f5 69bf b1d4 a3bf 022d 4b3f 60e7 b63d
000003b0: 2f43 e53e 64c1 1a3e d35b 723f d009 1d3f
000003c0: 183f 573e 198b f83d fbf3 cfbe 47de 933e
000003d0: 5e89 40bf f153 863e a4e2 2abf d412 cc3f
000003e0: b8cc 113f 7258 d5be 3883 303f 3d29 64bf
000003f0: fa94 5bbf 3da4 0c3f f958 5abf 7841 c4be

lstm.bias_ih_l0_reverse f4 [120]
-0.70232403 -1.1636252 -0.8341003 -1.3407422 -0.5567796 -0.81238645 -0.7772443 -0.45853904
-1.4042931 -0.3662405 -0.65416735 -0.8823361 -0.73475796 -1.0778928 -0.44818252 -1.2065841
-0.9135852 -0.87227887 -0.99643034 -0.6447307 -0.7653697 -1.3509325 -0.6093257 -1.1438744
-1.1544136 -1.0086671 -0.70732296 -0.7204667 -0.8408059 -0.7801793 0.5418029 1.1307088
0.4914362 0.44086477 0.41783056 0.10963872 0.5271358 0.19851404 1.4520451 0.3701413
0.36199012 0.20500255 0.4700863 0.38057715 0.08996643 1.1655667 0.7277193 0.6898798
0.23647128 0.5578979 0.9332872 1.1916937 0.5035535 1.1137418 1.2202631 0.9130722
-0.13580313 -0.21909352 0.651315 0.8666737 -0.09382155 0.1004681 -0.09625619 0.021142425
0.27285895 0.111294255 0.051564198 -0.22112961 0.21940295 -0.066138655 -0.22550116 0.038567957
0.11101773 -0.19375998 0.035789374 0.042473633 -0.024259062 -0.13218193 0.09178399 0.048214603
-0.07645758 0.05321042 0.22798245 -0.075819455 -0.08468168 0.041060805 0.22533053 0.28889024
0.13435382 0.049331035 -0.43672168 -0.20993635 -0.49983937 -0.23823455 -0.68283206 -0.7449149
-0.56892276 -0.89493275 0.10494841 -0.6680951 -0.44991383 -0.59947515 -0.816114 -0.520516
-0.9654485 -0.17391036 -0.2670679 -0.32176352 -0.44055274 -0.35647345 -0.5742192 -0.40573454
-0.62715787 -0.29765454 -0.101001635 -0.3329114 -0.41418618 -0.6353244 -0.62907475 -0.37982106
00000000: 82cb 33bf acf1 94bf 9987 55bf 719d abbf
00000010: 1c89 0ebf 8ff8 4fbf 7cf9 46bf a1c5 eabe
00000020: e0bf b3bf e083 bbbe 8377 27bf c7e0 61bf
00000030: 1919 3cbf 64f8 89bf 2e78 e5be 5971 9abf
00000040: b8e0 69bf ab4d 5fbf 0f16 7fbf 120d 25bf
00000050: 45ef 43bf 5beb acbf c5fc 1bbf 7a6a 92bf
00000060: d3c3 93bf 011c 81bf 1e13 35bf 8170 38bf
00000070: 0e3f 57bf d5b9 47bf 98b3 0a3f 11bb 903f
00000080: 879d fb3e 07b9 e13e e3ed d53e 448a e03d
00000090: 5ff2 063f 4447 4b3e 9ddc b93f 2983 bd3e
000000a0: c556 b93e 30ec 513e 27af f03e 02db c23e
000000b0: 5240 b83d 4a31 953f d04b 3a3f f69b 303f
000000c0: 8725 723e 66d2 0e3f e9eb 6e3f 6b89 983f
000000d0: e2e8 003f 178f 8e3f 9531 9c3f 1abf 693f
000000e0: fa0f 0bbe 0d5a 60be 94bc 263f 54de 5d3f
000000f0: 8325 c0bd 38c2 cd3d f721 c5bd e132 ad3c
00000100: 2bb4 8b3e 3eee e33d fb34 533d cd6f 62be
00000110: 2bab 603e b473 87bd c7e9 66be 6ff9 1d3d
00000120: 435d e33d 0469 46be e197 123d d5f8 2d3d
00000130: f1ba c6bc b35a 07be 3ff9 bb3d ad7c 453d
00000140: cb95 9cbd 2bf3 593d 3b74 693e 3b47 9bbd
00000150: 976d adbd 602f 283d 0cbd 663e 6ce9 933e
00000160: 0c94 093e 570f 4a3d fc99 dfbe 8ef9 56be
00000170: f2ea ffbe c2f3 73be 15ce 2ebf beb2 3ebf
00000180: eca4 11bf 501a 65bf 31ef d63d 4808 2bbf
00000190: 1b5b e6be 3477 19bf d9ec 50bf 8940 05bf
000001a0: a227 77bf 8f15 32be 20bd 88be 30be a4be
000001b0: 2190 e1be b083 b6be 0800 13bf 70bc cfbe
000001c0: 6b8d 20bf 2d66 98be f2d9 cebd 5d73 aabe
000001d0: 3610 d4be 9fa4 22bf 0b0b 21bf e877 c2be

lstm.bias_hh_l0_reverse f4 [120]
-0.47459945 -1.1661513 -1.0281483 -1.2417711 -0.8085446 -0.7828582 -0.69449764 -0.68393195
-1.1610708 -0.11577409 -0.67244625 -0.75032514 -0.8879052 -1.1880028 -0.6139879 -1.3001306
-0.947617 -0.84718287 -0.9392574 -0.50507355 -0.93230194 -1.1598222 -0.89162874 -0.99362046
-1.3748671 -1.1461425 -0.66786444 -0.75570035 -0.5595262 -0.60747385 0.44688904 1.1969694
0.661214 0.54360783 0.7094003 0.2666221 0.56379545 0.41989946 1.2909349 0.40184945
0.64497066 0.09321026 0.48657992 0.4172693 -0.018699646 1.181405 0.74193096 0.75106514
0.036329567 0.4941894 1.1357628 1.3954711 0.16769962 1.2623795 1.1805857 0.88805795
0.06236146 -0.19576384 0.42862257 0.8929563 0.051245067 0.15868789 -0.029035231 0.057933863
0.290133 -0.12729561 -0.032084815 -0.09657103 0.109552264 0.10597192 0.029221928 -0.022716047
-0.15864839 -0.22197498 0.0869046 0.070819385 -0.20572595 0.042388007 0.062365416 -0.1722242
-0.03898269 0.07027812 0.06943106 -0.049731534 -0.010567243 -0.11625499 0.119367816 -0.019322112
-0.064355515 0.21570769 -0.73888785 0.010031538 -0.4734512 -0.25322565 -0.60685974 -0.5257286
-0.49518803 -0.9503323 -0.13463604 -0.56744534 -0.60190153 -0.6242526 -0.702285 -0.34564826
-1.0253462 -0.393686 -0.20029517 -0.42917544 -0.6789453 -0.26600993 -0.5864666 -0.60172015
-0.47358623 -0.43412757 -0.12887408 -0.24203114 -0.70372325 -0.7529025 -0.4494089 -0.47431663
00000000: b3fe f2be 7244 95bf 5d9a 83bf 5bf2 9ebf
00000010: c7fc 4ebf 6569 48bf 99ca 31bf 2a16 2fbf
00000020: f89d 94bf f71a edbd 7025 2cbf 4f15 40bf
00000030: c14d 63bf 7a10 98bf 502e 1dbf ae6a a6bf
00000040: 0797 72bf fae0 58bf 2c73 70bf 804c 01bf
00000050: 57ab 6ebf 0e75 94bf c841 64bf e95d 7ebf
00000060: a5fb afbf ccb4 92bf 2af9 2abf 9475 41bf
00000070: 1c3d 0fbf 6883 1bbf a4ce e43e 4b36 993f
00000080: 5245 293f e229 0b3f 429b 353f b182 883e
00000090: e654 103f 10fd d63e 5b3d a53f 36bf cd3e
000000a0: cc1c 253f 05e5 be3d 0121 f93e 52a4 d53e
000000b0: 0030 99bc 4738 973f 30ef 3d3f ce45 403f
000000c0: 50ce 143d 6506 fd3e ad60 913f cc9e b23f
000000d0: 73b9 2b3e a795 a13f 6f1d 973f c457 633f
000000e0: bb6e 7f3d 5176 48be 6b74 db3e c998 643f
000000f0: 59e6 513d 147f 223e 4bdb edbc 0f4c 6d3d
00000100: 508c 943e c859 02be 5e6b 03bd 08c7 c5bd
00000110: f05c e03d ce07 d93d d362 ef3c 0117 babc
00000120: b974 22be 694d 63be 0afb b13d c109 913d
00000130: d3a9 52be 0c9f 2d3d e172 7f3d 8a5b 30be
00000140: 50ac 1fbd faed 8f3d df31 8e3d 4bb3 4bbd
00000150: 3b22 2dbc 1917 eebd 1d77 f43d 6849 9ebc
00000160: d3cc 83bd 7ae2 5c3e c127 3dbf 525b 243c
00000170: 3268 f2be cba6 81be 295b 1bbf 2696 06bf
00000180: 4989 fdbe fa48 73bf 08de 09be 1944 11bf
00000190: 3816 1abf 05cf 1fbf f3c8 33bf cff8 b0be
000001a0: 8b3e 83bf 3691 c9be 2d1a 4dbe e2bc dbbe
000001b0: 5ccf 2dbf 7432 88be ad22 16bf 550a 1abf
000001c0: e579 f2be f845 debe 91f7 03be 03d7 77be
000001d0: 3527 34bf 38be 40bf ec18 e6be a1d9 f2be

fc.weight f4 [1, 60]
0.021786537 0.026457034 -0.08798817 -0.09292206 0.17008425 0.14384831 -0.14988405 0.051939286
-0.026140213 0.08882504 -0.0638834 0.050657824 -0.021089185 -0.054724295 0.006250554 -0.03726894
0.056470387 0.011507964 -0.006823483 -0.00801805 -0.011069894 0.0071103084 -0.042657148 0.010035507
0.008052029 -0.10274549 0.016275229 0.12024903 0.023255164 -0.1914197 -0.0144385155 0.15307464
0.044205215 0.055719648 -0.028721284 0.07712309 -0.00752727 -0.008377763 -0.0019342924 0.029862147
0.06670491 0.024672845 -0.06696399 -0.015043598 0.28275737 0.23686373 0.001959483 -0.07408256
-0.2658043 -0.0077941357 -0.020092856 -0.023345659 0.03136038 -0.07833881 -0.21392027 0.004629255
0.18471308 0.16497204 -0.038578197 -0.036878735
00000000: ae79 b23c 6cbc d83c 2433 b4bd ec4d bebd
00000010: 912a 2e3e f94c 133e 347b 19be 4abe 543d
00000020: 0024 d6bc e7e9 b53d 4dd5 82bd 947e 4f3d
00000030: 3ac3 acbc 9526 60bd 73d1 cc3b 51a7 18bd
00000040: 7e4d 673d e68b 3c3c 8697 dfbb 245e 03bc
00000050: 805e 35bc 97fd e83b 43b9 2ebd f86b 243c
00000060: a8ec 033c 3a6c d2bd a153 853c 2045 f63d
00000070: 9d81 be3c 8703 44be 868f 6cbc 99bf 1c3e
00000080: 8710 353d 493a 643d e648 ebbc b6f2 9d3d
00000090: 51a7 f6bb e342 09bc 1588 fdba 76a1 f43c
000000a0: 959c 883d b51e ca3c 6b24 89bd 6c79 76bc
000000b0: 93c5 903e 688c 723e ab6a 003b 99b8 97bd
000000c0: 8017 88be f365 ffbb c699 a4bc 653f bfbc
000000d0: be73 003d 1970 a0bd ea0d 5bbe 01b1 973b
000000e0: 6d25 3d3e 6eee 283e 2c04 1ebd 280e 17bd
