sparrow/data/networks/scaling_exponent/scaling_exponent_network_v2.pt (torch, 186531 bytes, 17 tensors)

lstm.weight_ih_l0 f4 [140, 20]
00000000: b8bc d2be aff0 9abf 881e cf3e 9c8e e9bc
00000010: a924 693e a435 0dc0 608b b13e fc7c d4be
00000020: 613a d1be 8733 00bf e653 473f 99dc 0bc0
00000030: a027 853f 1c0d 1abf dedf 123f cef6 c8be
00000040: c07e 65be ce71 16bf 4368 a33e 03fa 2cbe
00000050: 0feb b6be 62f5 cb3e 1ee9 e0be 7430 8abc
00000060: 6086 693f e611 4b3f 1422 b23d a427 07bd
00000070: 9e9c dfbf 7446 573f 2c0c 463e f2fd 75be
00000080: 684d 8dbd 5677 733e c39f 08bf 5af9 16bf
00000090: a831 cebe a9ea 0440 90fb fe3e 8630 77be
000000a0: 7574 05bf 0cf8 5bbf 2472 ef3e 3701 b23e
000000b0: d404 2cbe 7ef7 d6bf f28b 22bf 420a a7be
000000c0: afb3 bf3d a6a5 b3be 93e1 ca3e a183 7fbf
000000d0: db91 b53e fd83 43bf 13a2 2abf d38d a8bf
000000e0: a6a4 aebf 0785 a03e af13 053f 40b2 773e
000000f0: 7c73 10bf cc7c 27bf 1035 d4bd 0eb6 893e
00000100: 1f05 14bf 52e8 83bf 7829 7e3f fb3e 9fbe
00000110: 5c56 3e3f ba28 073d 58e6 f4be 9e9e a7bf
00000120: 5c39 95bf 2206 54bf 726e 8bbf 8129 91bf
00000130: 77cb 0fbf c34f 84bf 80bc 863f 8924 5c3f
00000140: 7642 9fbf 7165 ba3d 7400 883f 9d7e adbf
00000150: 0db6 1ebe e5e8 303f 5d02 f1bd 9a18 e83e
00000160: 9b3b a43f 1135 04bf eaa1 633c eea2 e5be
00000170: e99f 473f 3813 27bf efce 04bf b5b2 c8be
00000180: 4c9d debe d38f 1b3e 386b 65bc 2ad5 febf
00000190: 04a9 a23e 174c 3abf 44b5 ed3d 3b62 a8bf
000001a0: 9ed3 cb3e 8be7 32bf 6b08 89be 289e 28bf
000001b0: 5e6c 01bf d901 c6bf 9c22 8ebf e4a2 b43d
000001c0: 0fb4 85bf 98e6 babd 8241 243f e47f 40bf
000001d0: d446 fabe beb5 babf 919e 3e3f fa47 35be
000001e0: 8b0b 25c0 f525 d2bf 7ce2 b23e 3bf6 863e
000001f0: 4d1d f83e d561 40bf 9f10 303e 0f1b debf
00000200: fc32 11bf 8bb9 86bf b3d3 a2bf 5cd1 3cbe
00000210: a8f0 d7be d63c 88bf f2b4 49bc 89c2 2abf
00000220: 0e8b edbc 5ceb 8bbe bda6 0c3f 1ddd 8abe
00000230: 17ed b0bd 1eca b8be 87a8 c23d 8f32 773e
00000240: d372 d43e e197 06bf 8cab 4cbf cd2c 293f
00000250: 40ff e3bf c1e2 04bf 0e88 bb3b c6d2 29c0
00000260: c1a7 c53d 18c5 aebf a469 0c3f 3bbe 33be
00000270: ef85 fd3d aaa4 1dbd 5927 2a3f 996b 153e
00000280: 2697 7ebf a093 0dbf 1714 45bf 6df1 5fbf
00000290: 577b 8cbe 608f b0be 3bb8 01bf acab f2be
000002a0: fe89 283e 1afd a1bf d4c8 cabe c772 f2bf
000002b0: 4c88 e5be 34f9 d0bf a026 47bf caee 4bbf
000002c0: c93c 96be c486 1e3f 4ac1 383f 482f 69be
000002d0: 0cbc c0be f320 43bf ff78 7abe 3a52 45be
000002e0: 637e 38bd 722b afbf 8cb4 2c3f bb5e e03e
000002f0: bb7d 18c0 e923 5b3f 0392 b33e ff21 8cbd
00000300: 13d4 343f 631d d5be c75d 213e 64d2 05bf
00000310: 3cbd d73e affb 923f 11f1 693f 95ad 82be
00000320: 3586 f7bd 910e d43e 6bcb 80be bf47 a63e
00000330: 7e41 9c3f 0b17 93bf efb5 163f ea75 173f
00000340: 7ae2 5dbf 6294 66bf d8ad 62bf c00e 55be
00000350: 7823 c2bf f60e 433e 9016 06bf 12cc 8dbf
00000360: 1d4c 3e3d 0814 debf f26d 883f 12b3 af3f
00000370: ace9 45be 9448 42be 13b4 8c3f 55a7 393e
00000380: e1e9 cbbd 9124 8bbd 4341 a93e 074e 3b3f
00000390: 54e8 1dbf a1f8 0b3d 048b a03e 2137 91bf
000003a0: ea5b ccbe 1eeb 2bbf 1c4a 083f e0ee fabe
000003b0: cea9 d93d dbe7 b5be 6802 1f3f c987 d1bf
000003c0: df2c 2e3e 852a 903e 0694 97be 26a0 503e
000003d0: 053c 93bf 6419 cdbe bbb2 37bf 5cc4 053f
000003e0: 3376 b3be 6c22 ebbe 281a 04be af42 dc3b
000003f0: bc09 ee3e f299 abbf 9129 c2bd 14ab fbbe
-0.41159606 -1.2104701 0.4045298 -0.028510384 0.22767891 -2.206399 0.34676647 -0.41501606
-0.40864852 -0.50078624 0.77862394 -2.1853392 1.0402718 -0.60176253 0.57372844 -0.39250797
-0.22411633 -0.587674 0.31915483 -0.16892247 -0.3572621 0.3983565 -0.43927854 -0.016868807
0.91220665 0.79324186 0.08697906 -0.03299679 -1.7469671 0.8409188 0.1934058 -0.24022654
-0.0689953 0.23775992 -0.5336878 -0.5897423 -0.4027226 2.0768225 0.49801302 -0.24139604
-0.52130824 -0.85925364 0.4676677 0.34766552 -0.16798717 -1.6794279 -0.6349479 -0.32625014
0.09360444 -0.35087317 0.39625224 -0.99810225 0.3546284 -0.76373273 -0.66653556 -1.3168281
-1.3643997 0.31351492 0.5198316 0.2418909 -0.56426215 -0.654248 -0.10361683 0.2689671
-0.57820314 -1.0305274 0.99282026 -0.31102738 0.74350524 0.032997824 -0.47831988 -1.3095281
-1.165813 -0.8282186 -1.089308 -1.1340791 -0.5616984 -1.0336841 1.0526276 0.8599325
-1.2442157 0.0910138 1.0625138 -1.3554264 -0.15499134 0.6910537 -0.11768029 0.4533127
1.283069 -0.5164347 0.013893584 -0.44850868 0.7797838 -0.652637 -0.51878256 -0.39198843
-0.43479383 0.15191583 -0.014002614 -1.9908803 0.31769574 -0.72772354 0.11606839 -1.3154978
0.3980989 -0.69884557 -0.26764235 -0.6586633 -0.5055598 -1.5469314 -1.1104312 0.088201314
-1.0445575 -0.091260135 0.64162457 -0.75195146 -0.48882163 -1.4586713 0.74460703 -0.17703238
-2.5788295 -1.6417834 0.3493842 0.26359734 0.48459855 -0.7514928 0.1719384 -1.7352008
-0.5671842 -1.0525373 -1.2720855 -0.1843924 -0.42175794 -1.0643566 -0.012311207 -0.6670309
-0.02899697 -0.27328002 0.5494192 -0.2712182 -0.08638971 -0.36091703 0.095048 0.2414038
0.41493854 -0.525755 -0.7994926 0.66083986 -1.7812271 -0.519085 0.005723006 -2.6534896
0.09651137 -1.3653898 0.54848695 -0.17553036 0.123790614 -0.038487114 0.6646629 0.14591826
-0.99449384 -0.5530338 -0.7698378 -0.8747776 -0.2743785 -0.34484386 -0.5067174 -0.473966
0.1645889 -1.2655365 -0.39606345 -1.8941277 -0.4483055 -1.6326051 -0.7779331 -0.7966124
-0.2934325 0.61924386 0.72169936 -0.22771943 -0.37643468 -0.7622215 -0.24460219 -0.19269648
-0.045042407 -1.3685133 0.6746299 0.43822274 -2.382674 0.8560167 0.35072336 -0.06842422
0.706361 -0.41623983 0.1575843 -0.52274156 0.42136562 1.1483058 0.91383463 -0.25523058
-0.12086145 0.41417363 -0.25155196 0.32476613 1.2207487 -1.1491407 0.5887136 0.591643
-0.866737 -0.90070164 -0.88546515 -0.20806408 -1.5167074 0.19048676 -0.5237818 -1.1077902
0.046459306 -1.7349863 1.0658553 1.3726523 -0.1932742 -0.18972999 1.0992454 0.18130238
-0.09956718 -0.06794084 0.33057603 0.73165935 -0.6168263 0.034172658 0.3135606 -1.1344949
-0.39913875 -0.67155635 0.5323808 -0.49010372 0.10628091 -0.35528454 0.62113047 -1.6369563
0.17009304 0.2815744 -0.2960512 0.20373592 -1.1502692 -0.40058434 -0.71757096 0.52252746
-0.35051116 -0.459247 -0.12900603 0.0067218165 0.46491802 -1.3406355 -0.094805844 -0.4915396

lstm.weight_hh_l0 f4 [140, 35]
00000000: 94a1 f0be 103b 6a3f 9bbb 453b a114 bd3f
00000010: 4dca a73f c714 96be a12d 763d 8888 4bbf
00000020: a53d 3ebf 6c1d acbe 74bc 513f bebb 213f
00000030: 5f60 a3bf 09c0 8dbe 5bb9 e43e 3349 033d
00000040: cc8d bdbd 038d 8bbf 8006 523f 08b0 193f
00000050: f2d9 d73c 3247 3b3f ebfe 6a3e cbea cdbe
00000060: 6907 57bc d216 6a3f efaa a1be 9223 7cbf
00000070: 56df 04bf df55 b6be bf1c 98ba 2768 783f
00000080: bf7e 403f 37c0 d9be 2d72 9f3f 0dce 523d
00000090: d172 2dbb d709 61be f632 c1bc 9450 0e3e
000000a0: 1fd3 ebbe c758 033f 7705 0a3f e6cd 9cbf
000000b0: 0560 95be 05a6 3cbf a0e9 4a3d 59ce 00bf
000000c0: 26ba a13d 8ada 82be e598 37bf fb49 4b3e
000000d0: 6364 e1be 3d03 e8be 1605 c1be 1b3e 813e
000000e0: 08ec 19bf 3add 953f 5279 2cbe fd78 723e
000000f0: 1ed8 be3f a98d 343d c7cd 70bf fba5 883e
00000100: 0343 b93d 8ed9 a33e ddcb c0be fa7f ab3c
00000110: bfef 663f 1682 f5bd fc11 49bf 78e6 83be
00000120: 3a0e 393e ba32 bd3e 3951 26bb 0858 793e
00000130: 7f98 f13e fdbf cbbe d21f 48bf 5909 1cbf
00000140: 048f 453f ba6e 2c3f 6098 123f 3ea9 b33e
00000150: 645f 913e add0 753e 1dce 1cbc 3a6e 97be
00000160: 63cd b9be 2828 d43d 2e5b a03e cc94 6e3d
00000170: f4ff 61be e956 25be f990 b33e 2ccc 733f
00000180: 1e70 5cbe 7f64 a5be 13d1 8dbe 393e 44bf
00000190: 83eb bebd 4bf9 2cbe 3f18 b3be a90e 223e
000001a0: 5596 24bf fb19 233f 31f1 563f c29e 9ebe
000001b0: 48ba eebe 92cc 9abd fb31 b9bd d85a d2be
000001c0: 7ab3 5b3b eabe c73e 314e 3abf 7f3a 7d3e
000001d0: 5dcb 403f 13f6 74be 4966 85be 9cc8 b2bd
000001e0: 2722 c0be 1ba3 03bf f8c8 efbe ff83 2a3e
000001f0: c0bb 57be 2318 f33e 6a0a 3c3e 8d39 103d
00000200: d92c d1bd 788a ef3e a3ba b53d cefa 5d3e
00000210: e911 323f 916d 093b 5bc3 1f3f 81dc 1fbf
00000220: 1c38 b0be 9b2d 6abf ac53 153e b947 54bf
00000230: eaa9 27bf a3c7 eebf 2943 fabe 7604 da3e
00000240: 264e 4c3e 189c cebe 080a 353f 484c 6e3e
00000250: ec53 8dbe 268c 1b3f 27e4 cdbe e664 04bf
00000260: c295 8b3f 6a74 0d3f 7c94 13bf f802 51bf
00000270: db84 673f b398 00bf 0c4a a5be 5368 573c
00000280: b462 64bd 7a4e bc3e cf91 09bf d1e3 c1be
00000290: f6ec 023e bac0 b53e 6b25 bdbe 7e32 373e
000002a0: 5e2e b0be e4f7 043f 2976 443f 0fa8 c3be
000002b0: 97d8 363d c980 96be 83e6 8a3f da96 dbbc
000002c0: de80 98be 934c dd3e af80 b7be 1318 09bf
000002d0: ccef 31bc 39e9 f33e 56ca 9bbe af3d fb3d
000002e0: 8c60 2fbe 1599 ad3e cf78 a4be ca5a 113f
000002f0: 29b2 293f 08f8 b8be aa0d 573f 7224 8bbe
00000300: 9c90 863f f948 9a3f 3c2f 47be 96e6 f63e
00000310: 717a a2be e338 28be 20c0 543e bd53 3cbf
00000320: ac19 d0be ce43 d93f d0fa eebe c2f2 5f3f
00000330: fa5c 14bf e20a 7abf 5c8e 593e a329 5dbe
00000340: becd 7e3f 28ea 783f 5669 24bf b159 293a
00000350: 4e96 2cbf b162 153f ae48 50be 09df 0bbe
00000360: 6667 2e3f 5a70 013e 936e 17c0 f1bb 6c3e
00000370: b982 d93e 9f86 423f f7c8 55bf 2a7d ad3e
00000380: ed11 19bc c9d9 023e 93ae c2be ca3a 93bf
00000390: c9dc adbf 3870 90be ff07 f93e 8425 27be
000003a0: a87d 633d 52b4 8f3e 0d18 f1bd d59b 7ebf
000003b0: 594d 65be 7efd a9be c4b2 02bc 3b91 89bf
000003c0: 64b4 7b3f 5658 00c0 c59c 0c3e dbfc 9abf
000003d0: 46d8 4abf 8fe5 8a3d 5c8b b43e 09f2 063e
000003e0: 630b 853e f8ca 803e fe9e 463f 57ce 5bbf
000003f0: 9538 85be 8fa8 133e de8d 133f 7305 6e3e
-0.46998274 0.9149637 0.0030171636 1.477192 1.3108612 -0.29312727 0.06010211 -0.79505205
-0.7431281 -0.33616197 0.8192818 0.63177097 -1.2763785 -0.27685574 0.44672665 0.03205223
-0.09255561 -1.0902408 0.8204117 0.6003423 0.026349042 0.7315551 0.22948806 -0.40218195
-0.013124325 0.9144107 -0.31575724 -0.98491776 -0.51903284 -0.3561239 -0.0011605247 0.97033924
0.751934 -0.4252946 1.2456719 0.051466037 -0.002646614 -0.2197641 -0.02358387 0.13897926
-0.4605951 0.5130734 0.5391459 -1.2250335 -0.2917482 -0.73690826 0.04953921 -0.5031486
0.07896833 -0.25557357 -0.71717674 0.1985244 -0.440219 -0.4531497 -0.37699193 0.25242695
-0.6012578 1.1708138 -0.16843155 0.23678966 1.4909704 0.04408041 -0.9406399 0.26689133
0.090459846 0.3200192 -0.37655535 0.020935047 0.90209574 -0.119877025 -0.78543067 -0.2576177
0.18071833 0.36952764 -0.0025378002 0.24349988 0.47186658 -0.39794913 -0.78173554 -0.60951763
0.7717135 0.67356455 0.57263756 0.3509006 0.2839309 0.24005385 -0.009570626 -0.29576284
-0.3628951 0.10359222 0.31319565 0.058247373 -0.22070295 -0.16146435 0.35071543 0.95233417
-0.21527144 -0.32303235 -0.27698573 -0.76657444 -0.09322264 -0.16891973 -0.34979436 0.15825905
-0.6429189 0.6371152 0.8396178 -0.30980498 -0.46626496 -0.0755855 -0.09042736 -0.41084933
0.0033523724 0.39012843 -0.7277556 0.24729346 0.7531031 -0.23921995 -0.260546 -0.087296695
-0.37526056 -0.51420754 -0.46833014 0.16651915 -0.21067715 0.47479352 0.18363348 0.035211135
-0.10213632 0.4678533 0.08873489 0.21677706 0.6955858 0.0020969848 0.62407464 -0.6244584
-0.34417808 -0.9147584 0.145827 -0.8292194 -0.65493643 -1.8654674 -0.48879364 0.42581528
0.19951686 -0.40353465 0.7071843 0.23271286 -0.2760309 0.60760725 -0.4021313 -0.5171646
1.0905077 0.5525576 -0.57648444 -0.81645155 0.90437096 -0.50233 -0.32283056 0.013147431
-0.055758193 0.36778623 -0.5373811 -0.37869123 0.12785706 0.354986 -0.3694261 0.17890355
-0.34410375 0.5194075 0.767428 -0.38214156 0.04464015 -0.2939513 1.0851597 -0.02680533
-0.29785818 0.43222484 -0.35840365 -0.5355236 -0.010860395 0.47638872 -0.30427808 0.122676246
-0.17126673 0.33905855 -0.3212342 0.5677916 0.66287476 -0.36126733 0.84005225 -0.27176243
1.0512881 1.205352 -0.19451612 0.48222798 -0.3173404 -0.1642795 0.20776415 -0.73565274
-0.40644586 1.6973817 -0.4667573 0.87479794 -0.5795437 -0.97672856 0.21245712 -0.21597914
0.9953269 0.97232294 -0.6422323 0.00064602034 -0.67416847 0.58353716 -0.20340225 -0.136593
0.68126523 0.12640515 -2.366124 0.23118569 0.42482546 0.75986665 -0.83509773 0.33884555
-0.009342653 0.12778391 -0.38023815 -1.1502316 -1.3583003 -0.28210616 0.48638913 -0.16322905
0.055539757 0.2806726 -0.117721654 -0.9945653 -0.22392787 -0.33201212 -0.007977191 -1.0747446
0.9832213 -2.0053916 0.13731678 -1.2108415 -0.7923626 0.06782066 0.35262573 0.13178267
0.2598525 0.25154853 0.7758635 -0.85861725 -0.2601973 0.14419769 0.5763835 0.23244266

lstm.bias_ih_l0 f4 [140]
00000000: 6bd9 b6be 14f9 bbbe 03db 54bf a3d3 2ebe
00000010: f37e 5abe a7ed e2be 4e3b 0ebf 59fa 09bf
00000020: 22c0 f1be 893c f0be 249f d8be 9b8e babe
00000030: f7de 6fbe 50fc 9cbe 5ad3 3fbf 2483 c1be
00000040: 9be4 e7be 33ad bbbe a3e2 1bbf 74fb 2dbf
00000050: d499 99be f113 d6be 0887 00bf 7987 12bf
00000060: 1515 04be 0998 9abb d00f 9bbe dd90 37bf
00000070: d394 d8be 7e2e e7be 6777 d5be 82a9 bbbd
00000080: 1c32 9bbe ec46 babe b1b9 05bf 3eb0 74be
00000090: 3d69 d4bd 9305 893f c32f 553e dc8d a03d
000000a0: a39f 653d 0c66 05be 31f2 af3e 57f1 b33e
000000b0: 5ef5 1abe 1a0e ba3e 76e5 793e fb40 393e
000000c0: d1be a73c b33c f13d 9f1a 0fbe 3244 083f
000000d0: c318 8c3e 6a3f a03e 42fc 0f3f 281b 943c
000000e0: 5a64 cd3e 0a4e 64be 1bfc 123e 4210 a8be
000000f0: 61a5 82bd 4ac4 c83e e6df 853f 4be7 a13e
00000100: e60c f93c 777b f73d ed1d 88be f7fd 0c3e
00000110: a51a 1f3f 4189 213e a30a 6a3d 78a4 ac3d
00000120: a95b 013e 7414 0abe 1cf5 ee3d 9029 babd
00000130: cc6d 843b c91b 7d3d f7c5 813e 641f 6fbd
00000140: f1b0 093e 69fe 1ebe e810 783e ca01 903e
00000150: 9e99 a73d ffe2 8fbd 9917 ab3d 5391 ecbc
00000160: 8a64 7f3d ce89 313e a9db e13d cb64 dcbc
00000170: a5f5 48bc a16f 18bd 905c 48be f962 413e
00000180: 12fb 00be 5f42 923d 8fa5 313e fe55 1c3e
00000190: c7ce 64bd 720c 623e 4ba7 04bc ab74 1ebd
000001a0: 76fd 9e3e f7da 0ebd e2d3 3dbe 5463 0fbe
000001b0: bec8 72bd a742 62be 3625 aabe 35cf 92be
000001c0: e65f f1bc cdbc 9dbd d588 9bbe 00c5 63be
000001d0: efc2 debe b314 8cbe d21d 8ebe 79a2 3abe
000001e0: 9021 a1be 90f2 39be 3184 29be f376 1fbd
000001f0: 4093 6abe 88b2 2dbe a01e ffbd f271 a9bd
00000200: 8045 05bf 3656 20be 1250 d0bc 888e 29be
00000210: d9a6 483d d3c9 ab3d 987d 92be b39d 87bd
00000220: 2406 71be b0fe e9be 86f8 22bd f50d 90be
-0.35712752 -0.3671347 -0.83146685 -0.1707292 -0.2133749 -0.4432194 -0.5555924 -0.53897625
-0.47216898 -0.46921185 -0.42308915 -0.36436924 -0.23424898 -0.3066125 -0.7493187 -0.37795365
-0.452916 -0.36655578 -0.60892695 -0.6796181 -0.30000174 -0.4181209 -0.5020604 -0.57237965
-0.12898667 -0.004717831 -0.302855 -0.7170542 -0.42301044 -0.45152658 -0.4169266 -0.091631904
-0.30311668 -0.36382234 -0.5223647 -0.23895356 -0.10371635 1.0704826 0.20819001 0.078395575
0.056060445 -0.13027209 0.34364465 0.35145065 -0.15132663 0.36338884 0.24403939 0.18091194
0.02047673 0.117791556 -0.13974999 0.5322906 0.27362642 0.3129838 0.5624429 0.018079355
0.40115625 -0.22295395 0.14353983 -0.32824904 -0.063792 0.39212257 1.0458953 0.31621775
0.030401658 0.12084096 -0.26585332 0.13768755 0.6215003 0.15775014 0.05713905 0.084298074
0.12632622 -0.13484365 0.11667845 -0.09089959 0.004041409 0.061794076 0.25346348 -0.058379546
0.13446404 -0.15526737 0.24225199 0.28126365 0.08183597 -0.07025718 0.0835411 -0.02887789
0.06235174 0.17337725 0.11028225 -0.02690353 -0.0122655975 -0.037215833 -0.1956656 0.18885411
-0.12595776 0.071415655 0.17348312 0.15267178 -0.05586126 0.2207506 -0.008096526 -0.038685482
0.3105275 -0.03487679 -0.18537858 -0.14002734 -0.059273474 -0.22095738 -0.33231515 -0.2867371
-0.029464673 -0.077020265 -0.30377832 -0.22243118 -0.43508098 -0.27359542 -0.27757126 -0.18226041
-0.3147092 -0.18158937 -0.16554333 -0.0389318 -0.22907734 -0.16962636 -0.12457013 -0.082736865
-0.52059174 -0.15657887 -0.025428806 -0.16558278 0.048987243 0.08388104 -0.28611445 -0.066218756
-0.23537499 -0.45702124 -0.03978779 -0.28135648

lstm.bias_hh_l0 f4 [140]
00000000: 25a3 5abe acb5 a4be 76f4 6fbf 9c54 37be
00000010: c502 a9be 314e 04bf 5d99 e9be 5c33 a2be
00000020: acd5 d1be 4b98 f4be 0a31 febe 3ccb debe
00000030: 23ed c7be b7c8 afbe ad2e 21bf 6ef1 9cbe
00000040: 1cac e3be dd8f d0be 93b7 04bf 3f8a fcbe
00000050: e375 93be 0c39 c1be 966c fdbe 5578 0bbf
00000060: ae5a bdbe 3d85 1a3e f8df 95be b221 41bf
00000070: c1b0 02bf 661f 17bf 8b05 fabe c706 49be
00000080: e8e7 aabe 28bf 13bf 4513 edbe 751b 4bbe
00000090: a234 37bd d593 903f a42d ba3e e379 443e
000000a0: 9e53 fe3c 43e9 52be 6413 ef3e 28b9 463e
000000b0: ccfd 2fbe 90c1 aa3e 0e66 563e cf9f bc3e
000000c0: 259b a23d 30ae c13e 2929 f9bd cd0e bb3e
000000d0: 37d5 e63e 3f19 fb3e 130b 083f 2ddd c23d
000000e0: 832e 9c3e 1d8f c0bd 5de1 413e 8626 a7be
000000f0: 577e 203d 0f55 193f ac3e 793f c026 d63e
00000100: 93ce 533d 9f2c c13e 55d7 d8be 591b d23d
00000110: ac8f 113f a1cf 203e ad92 8e3e 17a6 9a3d
00000120: 592a 743d 12e1 b4bd e58d 853d 8d9d c1bd
00000130: f3af 45be 902a dd3d 3b83 cb3d 8531 38be
00000140: 5d84 f6bc 74a7 86be b70a b93d 71f5 413e
00000150: 5d67 a8bd 6157 5fbe 8e26 af3d 8d66 40bd
00000160: e50a 333d 7d9c 443e b836 d6bc f003 c3bd
00000170: b62b a8bd 1be0 f8bc 994c 1dbd 43fd aa3b
00000180: 9189 ffbd be30 79bd 723e 71bd d13e 4e3d
00000190: b303 41be aeb1 2ebc c282 a3bd 6baf 423e
000001a0: 8818 353e f188 e23b 36d7 aabd 5c7b 4cbe
000001b0: 0175 72bc c3ac a4be 65ff cebe 3270 b3be
000001c0: 6414 37be 3693 adbd d7d4 d0be d3bc e9be
000001d0: a3d9 aabe a87c 53be f360 85be f085 16be
000001e0: 1778 1abe 6253 89bc 8e73 a2be ce16 d2bd
000001f0: 2ff5 02be 7b6b b13d a9d5 42be 7fef 4bbe
00000200: e111 fcbe ebaf 99be 64db 123e 40b9 853d
00000210: 0dd8 bf3b e187 a33d 3754 dfbe 3e68 63be
00000220: 5bf8 6abd b6bb 88be e684 aa3d ca75 90be
-0.21351297 -0.32169855 -0.9373239 -0.1790337 -0.33009925 -0.5168181 -0.4562482 -0.3167981
-0.4098333 -0.4777244 -0.4964679 -0.4351443 -0.39048108 -0.3433282 -0.62961847 -0.30652946
-0.44467247 -0.4073476 -0.5184261 -0.49324223 -0.28800878 -0.37738836 -0.49496907 -0.5448049
-0.36983246 0.15089889 -0.29272437 -0.7544204 -0.51050955 -0.59032285 -0.48832354 -0.19631492
-0.33380055 -0.57713556 -0.46303764 -0.19834693 -0.04472793 1.1295115 0.36362946 0.19187121
0.031045731 -0.20596795 0.4669448 0.19406569 -0.1718666 0.333508 0.20937368 0.36840674
0.07939748 0.37828207 -0.12166054 0.3653473 0.45084545 0.490427 0.531419 0.09514842
0.30504236 -0.09402297 0.18933626 -0.3264658 0.039182987 0.59895414 0.97361255 0.4182644
0.051710676 0.37729356 -0.42351785 0.102591224 0.5685985 0.15704204 0.2784628 0.075512104
0.0596107 -0.08831991 0.06521205 -0.094538786 -0.193054 0.10799134 0.099371396 -0.1798764
-0.030092413 -0.26299632 0.09035247 0.18941285 -0.0822284 -0.21810676 0.085522756 -0.0469728
0.04371156 0.1920032 -0.026149139 -0.095222354 -0.08211462 -0.0303803 -0.038403127 0.0052181794
-0.124774106 -0.0608375 -0.058897443 0.050352875 -0.18849067 -0.010662479 -0.079839244 0.19012229
0.17685139 0.0069132973 -0.083418295 -0.19968933 -0.014798404 -0.32163057 -0.40429226 -0.35046536
-0.17878872 -0.08475344 -0.40787384 -0.45651874 -0.3336917 -0.20653021 -0.2605053 -0.1469953
-0.15084873 -0.016763393 -0.31728786 -0.10258256 -0.12788843 0.086630784 -0.19026817 -0.1991558
-0.4923239 -0.30017027 0.14341503 0.06529474 0.0058546127 0.07984901 -0.43618938 -0.22207734
-0.057365756 -0.26705712 0.083261296 -0.28214866

lstm.weight_ih_l0_reverse f4 [140, 20]
00000000: 6487 573f 9139 68bd 5180 223f 69d8 7b3f
00000010: 4d6e 6d3f 50aa 9a3e 6a15 54bf 27b5 d13e
00000020: 37f0 85be 748d bb3f 334e b63d c18f 47bf
00000030: dcb3 0cbf 76bf d3be 9f05 22bf a068 883f
00000040: 394c 073f fdb4 133f 1c74 07bf 66d9 21bf
00000050: f94f 14be 65ae bcbf 14ab 80bf 188b 1d3f
00000060: 2bf6 0a3f b671 2d3e 4b3f 793f 36e9 23ba
00000070: 70c4 543d 1d81 aebe f815 90bf bc21 003f
00000080: 1338 16c0 72ba b0bf e4a4 173f ff6f de3e
00000090: 26e2 a1bf 7962 67be 44bf 90be 1c4d 103f
000000a0: ffdb 993e a7d2 73be 945f 3b3d 1771 81be
000000b0: 29ea 86bf 4238 df3f bdc1 2fbe d596 e0be
000000c0: 4c52 2fbf b123 96be 7ac1 123e 5521 a9bf
000000d0: 3d16 cabf ec76 64bf 0a11 aabf 863b a23f
000000e0: 6010 36be 78d9 023f f0b7 42bf c2fd 2b3f
000000f0: 9183 9d3e 42cc 8a3f 209d 83bf 7fa0 0a3f
00000100: dd38 e3be b110 813f e5ad 9cbf 8002 053f
00000110: c879 8cbd 990b 573f 15cc 823d 5b7b 71bf
00000120: 6e49 bb3e 0d4f dcbf e53b d3be 9310 373f
00000130: ac32 8ebe d0b2 a0be c527 a7be 9827 81be
00000140: 87ea 1240 a703 303f 6b4d 0140 129c 34be
00000150: c4a3 f23e 9c73 7bbd dde8 c8be 1876 c73d
00000160: be67 79bf 1307 273f e855 91bf 6485 67bf
00000170: f72b 83bf 3365 81bf 8164 923f aa8c 5abf
00000180: 724f 73bf 66de 82bf 4ab7 8b3f 8f62 0c40
00000190: 750e 75bf fea6 c63f 0c1e f83d 7a38 f03e
000001a0: 2d29 723f c15d 88bf 5397 0fbf 44a4 843f
000001b0: 91d7 323f ed1a cd3e 3881 9f3e a1c4 30bf
000001c0: 496d f9bf 8ccb d33f b96a dfbe d218 99bd
000001d0: 57c6 17bf fdc0 89bf 82d3 1fbe 6e8f 17bf
000001e0: 5a63 d9be e558 9a3f 0f4b 633d 7f33 5a3f
000001f0: ecd5 06be d03f 5dbe 02d3 53bf cf70 8d3e
00000200: 39fc 3a3d 3272 c4be 1952 b83d 5d70 063e
00000210: a721 fc3f 2a3e 23bf 929d 0fbf 6256 1a3e
00000220: 67b8 1e3f 6b9d bfbe da55 15bf ba7d a9be
00000230: 519a c33e 0c98 87be 6327 9abf 1b1c b3bf
00000240: 5489 71bf ded8 4d3e 8fe4 08bf 1d62 80be
00000250: aba4 24bf 299c 60bf 0a45 2ebf 289c d6be
00000260: dcb8 86bf 929b 75bd 49ff d13e 0e7c 32bf
00000270: b84d 70be 568d 5f3f aefa 393f 174f b0be
00000280: 61d6 04bf a138 6fbd 918a 4abe 4308 36bf
00000290: 939e 08bf aa3c 993f 932e ba3e e5c6 273f
000002a0: c0e9 72bf 37ec 473f b821 2bbf 5d8d 9c3e
000002b0: 176a a7be c786 0fbf a021 983e 872e 483f
000002c0: 0b0e 36bf fc44 13bf 0039 5a3e df04 1e3f
000002d0: 1da1 b4bf 236b 9ebf c238 95bd b31a aebe
000002e0: c47f 593e f73e 19c0 d906 94bf b56e ccbe
000002f0: 6436 df3e 6834 c8bf 12d6 80bf 83d7 a5be
00000300: d9c2 283f 06e2 8abd 99f4 c63e e3d4 76bf
00000310: a15c a2bf 7490 16bf 91e0 abbe b428 b83c
00000320: 8208 dcbe 7472 b4bc 9d77 3e3f 03bb 623f
00000330: 50ce 7f3e 7512 8abf e4a4 62bf 6039 0fbf
00000340: f1c7 963a 0cf9 893e f5e4 febe 0286 d43d
00000350: 6150 933e 634f c73c b2cd aabe 400b 02bf
00000360: 5140 efbe a4a7 343e cbd4 813d c1ae 64be
00000370: 1640 ecbf a60e 94be e426 df3d 7c19 1240
00000380: e0c5 73be 1bbe 983f b67c 3cbf 9824 1dbf
00000390: 5d3d 623f f943 863f 3a3a a13f de2e 5fbf
000003a0: 3095 03bf 15af f73e 3c5d 993e 7c71 823f
000003b0: 3c8f dbbf 0113 9ebf 1a10 febe a6df ccbe
000003c0: a075 23bf 47ce dd3e 3f20 043f ad52 0e3f
000003d0: 2490 633e 31f6 363d a120 87bf 864d 5cbc
000003e0: a1a0 cabe fbf9 7cbc 6cc5 113f b27f c13e
000003f0: abc9 cfbf 64b3 bf3d 498f 1bbf 79af 983e
0.84190965 -0.056695525 0.63477045 0.9837709 0.9274643 0.30208063 -0.82845175 0.4095852
-0.26159832 1.4652543 0.08901634 -0.77953726 -0.54961944 -0.4135701 -0.6328983 1.0656929
0.5285068 0.5769804 -0.52911544 -0.6322235 -0.14483632 -1.4740721 -1.0052209 0.61540365
0.5428187 0.16937909 0.973622 -0.00062527077 0.05194515 -0.3408288 -1.1256704 0.50051475
-2.3471725 -1.3806899 0.5923598 0.4344482 -1.264714 -0.22596158 -0.28270924 0.5636766
0.30050656 -0.23810826 0.045745447 -0.25281593 -1.054021 1.7439044 -0.17163749 -0.43865076
-0.6848495 -0.29324105 0.14331618 -1.3213297 -1.5788037 -0.8924396 -1.328645 1.2674415
-0.17779684 0.5111308 -0.76061916 0.6718408 0.3076444 1.0843585 -1.0282326 0.5415115
-0.4437932 1.0083219 -1.2240568 0.5195694 -0.068591654 0.8400207 0.06386582 -0.9432885
0.3657946 -1.7211624 -0.41256633 0.71509665 -0.27773035 -0.31386423 -0.3264753 -0.2522552
2.2955644 0.68755573 2.0203502 -0.17637661 0.47390568 -0.06138955 -0.3924016 0.097393215
-0.97423923 0.6524517 -1.1354342 -0.9043791 -1.0247792 -1.0109009 1.1436921 -0.85370886
-0.950431 -1.0224121 1.091531 2.1935155 -0.95725185 1.5519712 0.12115106 0.46918088
0.9459408 -1.0653611 -0.5609028 1.036263 0.6986018 0.40059605 0.31153274 -0.6905003
-1.9486476 1.6546493 -0.4363611 -0.07475437 -0.5928702 -1.076202 -0.15608028 -0.5920323
-0.42458612 1.2058378 0.055491503 0.85234827 -0.13167542 -0.21606374 -0.8274385 0.2762513
0.045650695 -0.38368374 0.09000034 0.131288 1.969777 -0.6376673 -0.5609981 0.15072015
0.62000126 -0.37424788 -0.58334124 -0.33103734 0.38203672 -0.2648319 -1.204327 -1.3992952
-0.9435017 0.2010226 -0.5347375 -0.25074854 -0.64313763 -0.8773828 -0.68074095 -0.41916013
-1.0525165 -0.059962817 0.4101508 -0.6972054 -0.23467147 0.87325037 0.7264813 -0.3443534
-0.51889616 -0.058403615 -0.19779421 -0.71106356 -0.53366965 1.1971638 0.36363658 0.65537864
-0.94887924 0.7809481 -0.66848326 0.30576602 -0.32698128 -0.5606503 0.29713154 0.78195995
-0.7111518 -0.57527137 0.21310806 0.6172618 -1.4111668 -1.2376446 -0.07286216 -0.34004745
0.21240145 -2.394468 -1.156459 -0.39928213 0.43596184 -1.5640993 -1.0065329 -0.32390985
0.65922314 -0.06781392 0.38858488 -0.9641859 -1.2684518 -0.5881417 -0.33569768 0.022480346
-0.4297524 -0.022027232 0.74401265 0.8856661 0.24981046 -1.0786883 -0.88532853 -0.5594692
0.0011503679 0.2694782 -0.49784055 0.103771225 0.28772262 0.024329847 -0.33360058 -0.50798416
-0.46728757 0.17642075 0.06339415 -0.22332288 -1.8457057 -0.28917426 0.1089609 2.2828054
-0.23805952 1.1933016 -0.73627794 -0.6138396 0.8837488 1.0489494 1.2595894 -0.8718089
-0.5139952 0.48375764 0.29953945 1.0190883 -1.7153087 -1.234955 -0.4962166 -0.4001438
-0.63851357 0.4332144 0.51611704 0.55594903 0.22222954 0.04466838 -1.0556833 -0.013446217
-0.39575675 -0.015440459 0.56941867 0.37792736 -1.6233419 0.09360388 -0.6076551 0.29821375

lstm.weight_hh_l0_reverse f4 [140, 35]
00000000: f18b 41bf ed44 c7be 8a6c 84bf e49d 1abc
00000010: ea6c 36be 6d84 2cbf 601d 79be 14c2 55bf
00000020: cd9e e73d 6326 b4bd 91ce 7cbd 9601 90bd
00000030: 7b83 873f 2c8e 04bd 869d e6be 0919 de3e
00000040: 1dc7 813d 642a e83e 0be6 593e a309 f13e
00000050: a459 383e be04 473e dd92 1bbe b649 133f
00000060: d0de f33e 616d 3abe 0d20 9f3d 3a81 ca3f
00000070: 3cb0 b5be 13fb ad3f cb83 633e b607 89be
00000080: 5cd6 763e 7ba8 96bf 27ca 4b3e 0dcd d7be
00000090: 9184 2f3f 2e88 07bf 9d96 3e3f 9fca cbbf
000000a0: 0d33 81bf 3cdc 87bf 2ca4 d7be 774b 9fbe
000000b0: a9de 20bf a185 e83e ad15 a1be a2e9 a03f
000000c0: 5bb0 18bf 2929 c2be 8d42 00ba 9405 37bf
000000d0: 1bd7 b43f cd9e 4d3f 11bd bc3e f46c 30be
000000e0: 2c56 0a3f 91c9 10bf d61c 643f 7963 603f
000000f0: b053 31bf a36a 733f 584e abbf 5d47 dc3c
00000100: a5eb 43bf 0d33 a93e 3099 55bf 2835 7ebe
00000110: 1862 be3f 1e40 103f 640a 10bf 8d56 033e
00000120: 53bd e33e b9b0 6cbf 935b 0abe 5055 9ebf
00000130: 7b7f 51bf 324e 09bf 32c1 60bd 3c9c 373f
00000140: f05a 483f 0ebe a0bf b1d2 863e f48a b13d
00000150: 9c46 5a3e cc4e 90bd 8cca 10bf 9512 323e
00000160: 1183 adbe 9d2e 2e3e 8022 ef3e bada 1a3f
00000170: 0d6e da3e 9b94 a23e 3539 203e 56dd 67be
00000180: 26f8 ae3e 9f0f 9e3e 40f3 0e3f b154 19bf
00000190: f6ab 3c3e faa4 0bbf e252 e4be b8f0 1f3e
000001a0: 9aaa c73c 1650 cc3e b332 883f dc9a 49bf
000001b0: 770e 5abf a0c3 d2be 2bbf 693f 8fcb 1ebd
000001c0: 690d 45bf 935f babf 4224 c9be ef57 14bf
000001d0: c5ae a7bf eac5 e13e 2e58 523f 3600 13bf
000001e0: 50b5 183f c0f5 41bf d036 9e3e cf39 093f
000001f0: 8c21 d13f 4124 833f ded6 a63e ee6c 343f
00000200: 7eff 3bbd 45ce 403f 3085 66bf 6e97 a2be
00000210: 7dcd 94bd 3f9f 66bf ccc4 ae3e ba4e 7e3f
00000220: 8846 88bf e0e3 fdbf 6e89 71bf 90d7 8cbd
00000230: 8514 083e d92b 963e d5a9 013d 48e6 e2be
00000240: 0095 843f 2ea9 9d3f ef0e 26bd 2c9c 673d
00000250: eab8 273c 6a7e aa3d 2a7d 10be 5dc3 0d3f
00000260: 2306 18be 67e5 c1be 4220 e53c a9d0 e6bd
00000270: fd02 d43f 4213 1ebf 3e8c 6e3c 2283 eabe
00000280: 5e30 08bf a1b4 633e 7606 d9be 0233 683e
00000290: f5cc 5e3d bfa3 373e cf7a 103d 290b b03f
000002a0: b1bb 293e 4dee 70be 9799 a9bc ce8e 013f
000002b0: 7792 73bf 4abd 843e 7b72 9cbe c28e 143f
000002c0: a0b6 9cbd 5e6d 0abf c78c 323f 1ad7 90be
000002d0: 0963 70bf 55e1 ee3d 747e 65bf 0a92 683d
000002e0: d8f7 43bf f7a9 093e 58a4 76be aba7 143e
000002f0: 4a6b 7abc 1174 333b 096a 503d 4e8a c63e
00000300: ccb7 9ebd a272 8a3f 3cd9 f4bd 173c 5e3f
00000310: bf6e 9d3f 3d91 613f 19cc 873f 84b1 36bf
00000320: 78b1 b7be 2c78 bcbe 85a1 873e 05a9 1a3e
00000330: 36c1 8c3f b2ec 0b3e 571c 1ebe 4cfd 13bf
00000340: 2ee6 0a3f b796 7cbe f697 493f 31aa 67be
00000350: 6236 0abf e8a8 033f d7ac b8be 1d8f 91bd
00000360: 08c6 23bc 15dc 373f 0843 30bf 4bd8 9fbe
00000370: 740c c33e ad48 c53e bff4 593f 7476 413e
00000380: ece2 1a3d c0e4 5d3e fdba 3e3e 64a2 543d
00000390: fdf9 0d3f d2c8 2b3f a8b5 aa3e 37d6 223f
000003a0: ec67 fd3e f80d c33f 2a9f edbe 2d3d a9be
000003b0: 3906 b83e 22ef eabe 8577 83be 5b8e 793e
000003c0: 2f2b 923e b24d 003e f2f4 e9be 361c 2cbd
000003d0: de2a 58bf 919b 6cbd 5b7d 093f ec64 5b3e
000003e0: 8c69 fdbf cdaf 14be d32d ba3e 13a3 eabe
000003f0: b3fe c63e 6b85 b1be 50cb 783f a31c 07bf
-0.7560416 -0.38919774 -1.0345623 -0.009437058 -0.17814985 -0.67389566 -0.24327612 -0.83499265
0.11309586 -0.08796384 -0.061720435 -0.070315525 1.0587 -0.03236215 -0.45042056 0.43378475
0.06336806 0.4534484 0.2127916 0.47077665 0.18002945 0.19435403 -0.15192743 0.5753435
0.4763093 -0.18205787 0.07769785 1.5820687 -0.3548602 1.3592247 0.22218244 -0.26763695
0.24105209 -1.1770166 0.19901334 -0.4214863 0.68561655 -0.5294217 0.7444857 -1.592121
-1.0093704 -1.0614085 -0.4211744 -0.31112263 -0.6283975 0.4541445 -0.3146185 1.2571299
-0.596441 -0.37922028 -0.00048927293 -0.71492887 1.4128145 0.80320436 0.36862996 -0.17229062
0.5403774 -0.56557566 0.891065 0.87651783 -0.6926832 0.9508459 -1.3383284 0.026889497
-0.7653144 0.3304676 -0.8343687 -0.24824965 1.4873686 0.56347835 -0.56265855 0.12825985
0.4448038 -0.9245716 -0.13511495 -1.2369785 -0.81835145 -0.5363494 -0.054871745 0.7172277
0.7826376 -1.2558 0.2633262 0.08669081 0.21315998 -0.07046279 -0.5655906 0.17389901
-0.33889058 0.17009969 0.4670601 0.6049 0.42662087 0.31754002 0.15646823 -0.22643027
0.34173697 0.30871293 0.5583992 -0.59894854 0.18424973 -0.5454861 -0.44594485 0.1561917
0.024373341 0.3990485 1.0640472 -0.7875192 -0.8517832 -0.41164875 0.91307324 -0.038768347
-0.7697359 -1.4560417 -0.39285475 -0.57946676 -1.310021 0.4409631 0.821658 -0.57422197
0.5965166 -0.7576561 0.30901194 0.53603834 1.6338363 1.0245439 0.32585806 0.70478714
-0.045897953 0.7531474 -0.9004698 -0.31756157 -0.07265756 -0.9008674 0.3413452 0.9933888
-1.0646524 -1.9835167 -0.94350326 -0.06877053 0.13289078 0.29330328 0.031656105 -0.44316316
1.0357971 1.2317255 -0.040541586 0.05654542 0.010236958 0.08324893 -0.14110246 0.55376226
-0.14846091 -0.37870333 0.027969483 -0.112702675 1.6563412 -0.61748135 0.0145598035 -0.4580317
-0.531988 0.22236873 -0.42387742 0.22675708 0.05439468 0.17933558 0.03527337 1.3753406
0.16575505 -0.23528405 -0.02070312 0.5060853 -0.9514536 0.25925666 -0.30556092 0.5803033
-0.076520205 -0.5407313 0.6974606 -0.2828911 -0.93901116 0.116640724 -0.8964608 0.0567799
-0.76550055 0.13443743 -0.2408613 0.14517085 -0.015284369 0.0027382413 0.050882373 0.38777393
-0.077499 1.0816233 -0.11955497 0.8681044 1.2299422 0.8811224 1.0609161 -0.7136462
-0.35877585 -0.36810434 0.26490417 0.15103538 1.0996463 0.13664511 -0.15440498 -0.57808375
0.54257476 -0.24666868 0.787475 -0.22623517 -0.5398923 0.51429605 -0.36069366 -0.07107375
-0.009995945 0.71820194 -0.6885228 -0.31219706 0.38095438 0.3853201 0.8513908 0.18892843
0.037814066 0.21669292 0.18626018 0.05191268 0.55459577 0.671033 0.33341718 0.63608116
0.4949335 1.5238638 -0.46410495 -0.33054486 0.35942248 -0.4588557 -0.25677124 0.2437071
0.2854857 0.12529638 -0.4569469 -0.04201909 -0.8444041 -0.057765547 0.537069 0.21425217
-1.9797835 -0.14520188 0.36363086 -0.4582754 0.38866195 -0.34672102 0.9718523 -0.5277807

lstm.bias_ih_l0_reverse f4 [140]
00000000: ee0c 43be 1b07 31be ca1c 173e c1ac c83e
00000010: e54f 6f3d 0e7e 3bbe 2bc4 3a3d 2e57 cd3d
00000020: 9f45 f2bb c80b acbe cebe a43e 52b2 16be
00000030: 1d81 2abf 255d 7dbe 558a 63be e492 4b3f
00000040: ea39 9dbe eb00 913f 5462 8cbe a17a 0e3e
00000050: 2723 28be 91a9 d43e 900c 2abe db11 b1be
00000060: b9e3 753f 948f b9bc 151e 71be 2dc7 14be
00000070: 91d3 513d e745 1fbf 9d25 a8be 5911 5f3f
00000080: ad11 83be afe0 bf3f 90af 593e edb2 4dbc
00000090: 83c0 afbe 1351 6a3e 1082 1c3e adbb 933e
000000a0: bfb7 4ebc 0a3c d63e 6d39 9c3e 3dd1 bd3a
000000b0: 69a7 103f 4546 18bd e53c 393e b555 0e3f
000000c0: c491 963e 6dec 223f b61f 093f 4731 583e
000000d0: 1d45 d83e fb74 a93e ae9f 013f 610b 0dbe
000000e0: c476 153f 73f2 b43e 465b 073f 5c2e 3c3e
000000f0: da8a 133e ba89 da3e ab35 97be b825 d43a
00000100: d077 a63e e26a 2e3f ed3d a53e b265 cb3e
00000110: b9e0 183f 0d7c 0fbe c7a0 babe 3b0a 013e
00000120: 8881 233d 3a7e fcbe 27fb 0b3e 0ee1 f63d
00000130: ca49 453d 6ea8 483e ced9 263d 35d5 753b
00000140: 3f97 27bf 9668 5ebe e574 3c3d 39cc 21be
00000150: 5287 dbbd 67c5 60bf 6e3f d4ba 143e 20bf
00000160: 66c3 24be 7b20 b73d 97e1 483e c790 03bf
00000170: f251 9e3b 1eba 04bd e177 e83e 0107 cb3e
00000180: d4b1 e2bc 1ec2 23be 774f 32be 49ea c1bd
00000190: d12b 903d 1665 0cbe ac83 42be dfd5 4abf
000001a0: 088c e03e 0546 293d 3ae9 4d3e 61b7 2cbe
000001b0: 0ab5 d63e 7e27 d2be f083 71be 5459 fc3b
000001c0: 0724 473e ed96 f2be fb4a 333e 856d 793e
000001d0: 5053 a3be 7569 db3e 7f78 ad3e 15a5 c7bc
000001e0: 018f 86bd 9e63 87be b43c c5be 1997 e2bd
000001f0: 80a8 f4be f7c0 44be f05b cfbe b3c1 773d
00000200: 399a f43d c831 16be c05c 00bf 3f05 a6be
00000210: 5282 853e 963e 143d f7cd 183e d755 47be
00000220: 2636 febe c893 b9be 416a 15be 081a 813e
-0.19047901 -0.17287867 0.14757076 0.391943 0.058425803 -0.18309805 0.045597237 0.10026394
-0.0073935534 -0.33602738 0.32176822 -0.14716461 -0.6660326 -0.24742563 -0.22220738 0.7952101
-0.30708247 1.1328405 -0.27418768 0.13913967 -0.1641966 0.4153562 -0.16606355 -0.34583935
0.960506 -0.022651471 -0.23546632 -0.14529105 0.051227156 -0.6221604 -0.32841197 0.87135845
-0.25599423 1.4990443 0.21258378 -0.012554866 -0.34326562 0.2288249 0.1528399 0.28854123
-0.012617051 0.4184268 0.30512562 0.0014481914 0.5650545 -0.03717639 0.18089636 0.5559953
0.29408085 0.6364201 0.5356401 0.21112548 0.4224023 0.33097062 0.50634277 -0.13773872
0.58384347 0.35341224 0.5287365 0.1837706 0.14408436 0.42683202 -0.29533133 0.0016185557
0.32513285 0.6813184 0.32273808 0.39726025 0.597179 -0.14012165 -0.36450788 0.12601559
0.039918453 -0.49315053 0.13670026 0.120546445 0.048166074 0.19595501 0.04073506 0.0037511114
-0.6546516 -0.21719584 0.046009917 -0.15800561 -0.1071917 -0.8780121 -0.001619322 -0.62594724
-0.16090164 0.08941742 0.19617306 -0.5139279 0.004831546 -0.032404058 0.4540396 0.3965378
-0.027672686 -0.15992019 -0.17413126 -0.094685145 0.07039607 -0.13710436 -0.18995541 -0.7923259
0.43856835 0.04132654 0.201085 -0.16866829 0.41934997 -0.41045755 -0.23585486 0.0077010784
0.19447337 -0.47380772 0.17509072 0.24358185 -0.318995 0.42853895 0.33880994 -0.02437071
-0.065702446 -0.2644319 -0.38522875 -0.11063976 -0.47784805 -0.19214235 -0.4049983 0.06048746
0.11943478 -0.14667428 -0.50141525 -0.32425877 0.2607599 0.0361925 0.1492232 -0.19466339
-0.49650687 -0.3624556 -0.14591314 0.25215173

lstm.bias_hh_l0_reverse f4 [140]
00000000: 9ee7 31be f9c8 a53d 5281 bc3d f2cd bc3e
00000010: aa19 84be 73a4 98be b8b4 3fbc 365d 00be
00000020: 4f3d 25be c68a a2be 0d6c 4f3e ce9c 13bd
00000030: 715c 41bf db05 debd a020 8bbe 480c 3e3f
00000040: c072 4cbe 5ea0 923f d47e 4cbe 6a3e a73d
00000050: 9bcb 24be 5e15 e93e 698a 25be 6106 16bf
00000060: b449 6b3f 84ca 393d af36 a2bc a2af 063c
00000070: 4f74 dabc 4565 0dbf dcc9 c0be 28ba 5f3f
00000080: 803d 98be 58d9 af3f 9001 2e3e 79d8 60bd
00000090: 9014 66be 8c9e ac3e 6582 283e 06a1 7b3e
000000a0: bd59 7bbe 6a6e 3e3e 9af6 863e 579f 5a3e
000000b0: aa7f cb3e b044 863a 8a3b ba3d ac78 4a3f
000000c0: c8e1 073f 68e7 393f dd0e 2d3f 32d6 2d3e
000000d0: a47e c93e f339 c13e d44c 443f 51cc 8bbe
000000e0: 1642 3d3f aa0c 323e 6cdc 233f c50e 503e
000000f0: cf3f 7d3e cf5b 8a3e 6f85 5bbe 0919 64be
00000100: 2609 9b3e 34db 303f 254f a43e 0b1c b53e
00000110: c6b0 a23e 2de7 8ebd 3ae7 86be c40a 223e
00000120: d9ce bb3e 901b 16bf 1ae6 063e d8e9 babd
00000130: 5657 353e 0583 c33d 4255 113e dc58 013e
00000140: e993 e9be 9b61 0c3d dbbc 6cbe 7f2e 8ebd
00000150: 3f6d 3d3e a0aa 6cbf 5038 e4bd ffc4 46bf
00000160: cbe9 35be cfaf 853e f9de b73d acfd 0dbf
00000170: 3308 9eb9 6382 d93d 41c8 043f 45ee 023f
00000180: 2cec dd3c 22aa 28bc b542 9cbe 67e1 45bd
00000190: 83d5 7d3e e051 92be 6749 f83c 6144 1dbf
000001a0: dc2c 9e3e 9521 f93d 4ef9 213e 654e edbd
000001b0: 51c7 013f ce90 e3be 69a6 e1bd ac38 98bd
000001c0: 6fd0 003e fe9b aabe 1785 1b3e 6436 b23e
000001d0: 87df 06bf 5507 da3e 7dfa 2f3e 3fd5 d23d
000001e0: 5579 a9bc f654 a2be 8c5e 4cbe ffb7 c4be
000001f0: 1765 a4be db01 073e bfdc efbe 3e7c 073e
00000200: 1a33 c43e 3373 c4be abf1 07bf b0ba 82be
00000210: 989c 913d 8a5a 0d3c 0d5f 943d 438b 94be
00000220: eacd 35bf e8fe 48be b8a8 d8be 5c65 e53d
-0.17373511 0.08094973 0.092043534 0.36875874 -0.2580083 -0.29812965 -0.011700802 -0.12535557
-0.16136669 -0.317465 0.20256062 -0.036038212 -0.7553168 -0.108409606 -0.27173328 0.7423749
-0.19965649 1.145519 -0.19970256 0.081662014 -0.16093294 0.45524114 -0.1616608 -0.58603483
0.9190934 0.04535915 -0.019801466 0.008220585 -0.026666788 -0.5523265 -0.37654006 0.87393427
-0.2973442 1.3738203 0.16992784 -0.054893944 -0.22468781 0.33714712 0.16455992 0.24573144
-0.24545951 0.18596807 0.26360017 0.21349846 0.39745837 0.0010243859 0.090933874 0.7909038
0.5307889 0.7261872 0.67600805 0.1697624 0.39354432 0.37739524 0.7667973 -0.2730432
0.73928964 0.17387643 0.6400821 0.20318134 0.24731372 0.2702317 -0.2143762 -0.22275175
0.30280417 0.6908448 0.32091632 0.35372958 0.31775492 -0.06977687 -0.26348287 0.1582442
0.3668125 -0.5863581 0.13173714 -0.091266334 0.17709097 0.09546474 0.1419268 0.12631553
-0.4562066 0.03427277 -0.23118918 -0.06942462 0.18498705 -0.92447853 -0.11143553 -0.7764434
-0.17764966 0.26110694 0.089780755 -0.554652 -0.00030142217 0.106205724 0.51868063 0.5114482
0.027090155 -0.010294469 -0.30519643 -0.048310664 0.2478848 -0.2857809 0.030308438 -0.6143246
0.308936 0.121646084 0.15817758 -0.11587218 0.5069476 -0.44446415 -0.11018068 -0.07432684
0.12579511 -0.33322138 0.15187488 0.34807122 -0.52684826 0.4258372 0.17185397 0.1029458
-0.020687738 -0.31705445 -0.19957942 -0.38421628 -0.32108375 0.13184302 -0.46848103 0.13230988
0.38320237 -0.3836914 -0.5310313 -0.25533056 0.07109946 0.008627543 0.07244692 -0.29012498
-0.71017325 -0.19628489 -0.42316222 0.112009734

lstm.weight_ih_l1 f4 [140, 70]
00000000: f7a0 9d3d 1498 d9be 05d1 7dbe 7bb2 2b3f
00000010: 8de7 a83d 422c 413f 5515 2ebe d985 923e
00000020: 6b45 aebf 525b b1bd dabf 9c3e 6bf3 123d
00000030: a6ce b2be 09eb 36be 2240 1d3e cb3f 733e
00000040: e9d9 edbe 9ce9 6abd bfc4 c8bd 8a35 d5be
00000050: 4308 5bbf ee9b c93e 915c c83d 70e7 b6bd
00000060: 7db7 f8bb 6048 903f a58f c3bd 75e1 65bf
00000070: 1d88 5ebe 1e19 34be 9335 c0be 7643 b03e
00000080: 44a9 0bbb 4627 83bd 44f5 8cbc b1ef af3f
00000090: 5719 0fbf 730c 20bf 0c28 f13f 31e3 2bbf
000000a0: 363a 94be 611e 85bf 766c b6be 3721 94bf
000000b0: 60f8 22bf 311c bc3f 3459 f73e c7cc bd3e
000000c0: a553 043c 45bd fbbe 06b4 f13f 82dc 013f
000000d0: e38d e83f 467d 833f 0ed0 7d3d c194 40bf
000000e0: a6de c83f 7c99 cabe 8aba e13e 0ea0 d4bf
000000f0: cc76 81bf 7c2f 25bf cf5b 4f3f 9f21 903f
00000100: 0524 143f bcf7 373f 330a 7c3f cd0f 293e
00000110: 6b58 c53f 90f6 cdbf 98d9 2cbd 3eef c7be
00000120: 3fd8 83be dda3 1c3f 8c2a dd3d fe3c 653f
00000130: e847 2abe e604 f93d 6b47 b2bf eb7c 24be
00000140: 7052 89bc 7544 b83e 3491 acbe 9b73 32be
00000150: 510c d43e 995b d838 1537 d5be ef03 3f3d
00000160: ef14 0e3e 3fc9 efbe 7c82 75bf f4b1 623f
00000170: 2d57 57be 8db0 0ebe c6e4 06bd e8ef 9c3f
00000180: 9566 ccbd 656f 36bf 30c1 04bc eb21 763d
00000190: fcce 01bf 18a5 333e 4393 9fbb 7db4 04be
000001a0: 3463 083e 7da5 9c3f 3272 2abf 124e 47bf
000001b0: 432c 923f 5fcb ecbe 49a1 8abd f3bd 00bf
000001c0: 36d0 c1be 40f7 4cbf 3f8d 21bf a9e1 a63f
000001d0: bab4 d33e 13c7 d73e 6fe5 ac3e 91bf d3be
000001e0: d76a d43f 1aa1 273f 8f4d ae3f 0477 ab3f
000001f0: aebd 6ebe cef2 29bf 63cc c83f edb3 2ebe
00000200: be02 423f 8b72 b5bf 3850 5ebf 727c 4ebf
00000210: 09cc 823f 6796 363f 43f0 423f 18bb 4a3f
00000220: 862c 823f cebf a0bb 3284 bb3f 600e a8bf
00000230: d978 013e 01f6 02bf f354 acbe 466b 183f
00000240: 95dc a03e 2ff0 5d3f dac9 013e 6560 42bd
00000250: b769 22bf 5838 093e ce53 8b3e ab4a 7d3e
00000260: 3b47 f0bd 4f59 f93d eea2 8d3e bec7 d03d
00000270: 171e ecbd 80ac 3b3e 10d0 7abd 7310 b1be
00000280: a65c 4cbf 5dde d53e 1021 5fbe bb7a d5bd
00000290: 3452 073d 8247 1f3f 1b90 36be cfc2 5ebf
000002a0: 936e 6cbc c2b6 0fbc 5f7a b4be 0c21 263e
000002b0: 9bbb 263e 4ab8 443e e74e 68bb 37a9 ae3f
000002c0: 354c d9be 6791 65bf fab7 a63f 0729 43bf
000002d0: b0f9 8bbe 5afb 38bf c05e 69be ef4f 8cbf
000002e0: d9d2 3abf 4a5d ac3f c89a 813e 8c0d 1e3f
000002f0: c467 8d3e d3b7 13bf 84e5 f03f 52fd 963e
00000300: dc42 a73f 7a00 a73f 4ad2 95bd fdc2 0abf
00000310: 04b9 a13f d49e 0bbd 2209 423f 1075 c3bf
00000320: f890 6ebf 799c 91be 767f 3f3f 8b3b 7c3f
00000330: ffcf 803f aa3f 3a3f dfa2 633f 0eca 3f3d
00000340: b6e7 c43f f3d9 c9bf 66a5 7739 2844 b7bf
00000350: 7c06 263e 28cb 18bf ffd6 0a3e 7389 ce3f
00000360: fa98 993e 16c3 1f3c ab02 53bf 8eea f03d
00000370: fef3 8ebe 5687 173f c3ae b3be 595e 0e3f
00000380: 687a 0fbf 8994 183d dde6 0cbf f0d4 ea3e
00000390: 1b32 97bc 60c3 e83e 68e3 90bf 622c 0f3f
000003a0: e176 bfbe 4ffa 25bf 54a2 0abf 3e8d e03e
000003b0: 64ba 8d3c 98f2 233f 38b0 5f3e c697 c4be
000003c0: 8d35 2fbf 2bc0 693f 3a58 25bf 7d90 513f
000003d0: 0c39 c3be a97d 693f de8e 69bf 86f1 d53e
000003e0: 094b e93e 7ade c2be 7ed0 7ebf c164 8bbf
000003f0: f01c 46bf 56ec 8bbf 8454 00bf 6389 233f
0.07696717 -0.4249884 -0.24786766 0.67069215 0.0824729 0.7545816 -0.17000325 0.28617743
-1.3614935 -0.08659996 0.3061512 0.035876673 -0.34923285 -0.17863096 0.15356496 0.23754804
-0.46455315 -0.057351694 -0.09803151 -0.4164241 -0.8555948 0.39376777 0.09783281 -0.08930862
-0.007590233 1.1272087 -0.095488824 -0.89797145 -0.2173161 -0.17587706 -0.37540874 0.3442647
-0.0021310607 -0.06403975 -0.017206796 1.3745023 -0.5589804 -0.62518996 1.8840346 -0.6714354
-0.2895066 -1.0399896 -0.35629624 -1.1572636 -0.6366024 1.4696103 0.48310244 0.37070295
0.008076583 -0.4916784 1.8883064 0.50727093 1.81683 1.0272605 0.061965995 -0.7522698
1.5692947 -0.39570224 0.4408763 -1.6611345 -1.0114379 -0.6452558 0.80999464 1.126026
0.5786746 0.7186239 0.9845306 0.16509934 1.5417608 -1.609087 -0.0421997 -0.39049715
-0.2575092 0.61187536 0.10799131 0.8954619 -0.16628993 0.121591374 -1.3928045 -0.16063277
-0.016762942 0.3598973 -0.3370453 -0.17426912 0.41415647 0.00010316744 -0.41643587 0.04663461
0.13875173 -0.46833226 -0.9590223 0.88552785 -0.21029349 -0.13934536 -0.03293302 1.2260714
-0.099805035 -0.71263725 -0.0081027 0.06009094 -0.5070646 0.17543447 -0.00486985 -0.12959476
0.13319093 1.2238003 -0.665805 -0.778535 1.1419758 -0.4624891 -0.06769044 -0.5028984
-0.37854165 -0.80064774 -0.6310615 1.3037616 0.4134882 0.4214407 0.33768794 -0.4135709
1.6595105 0.65480196 1.3617419 1.3395696 -0.23314545 -0.66386116 1.5687374 -0.17060824
0.75785434 -1.4175581 -0.86841154 -0.8065864 1.0218517 0.71323246 0.7614786 0.7919173
1.0169837 -0.0049056774 1.4649718 -1.3129387 0.12643756 -0.5115662 -0.3365856 0.59538686
0.3141829 0.86694616 0.12674657 -0.04745521 -0.6344256 0.134004 0.27212375 0.24735515
-0.11732336 0.121752374 0.27663368 0.10194348 -0.11529177 0.18327522 -0.06123358 -0.34582862
-0.7982887 0.41771212 -0.21789956 -0.104237996 0.03303738 0.6221849 -0.1782841 -0.87016004
-0.01443066 -0.0087716 -0.35249612 0.16223544 0.16282503 0.19210926 -0.003544742 1.364539
-0.42440954 -0.8967499 1.3024895 -0.7623448 -0.27338934 -0.7225853 -0.2279005 -1.0961894
-0.7297798 1.346597 0.253134 0.6173942 0.2761823 -0.5770237 1.8820043 0.29490143
1.3067279 1.304702 -0.073155 -0.5420378 1.2634587 -0.034087017 0.75795186 -1.52701
-0.93189955 -0.28439692 0.74803865 0.98528355 1.0063475 0.72753394 0.88920397 0.046823554
1.5383213 -1.5769638 0.00023617371 -1.4317675 0.16213411 -0.5968499 0.13558577 1.6135696
0.29999524 0.009751102 -0.82425946 0.11763488 -0.27920526 0.5919088 -0.3509427 0.55612713
-0.5604615 0.03725103 -0.5503977 0.45865583 -0.01845651 0.4546156 -1.1319399 0.559271
-0.37395385 -0.64835066 -0.54153943 0.4385776 0.017300792 0.64042044 0.21844566 -0.38397044
-0.68441087 0.9130885 -0.6458775 0.81861097 -0.3812946 0.9120737 -0.91233623 0.4178583
0.4556506 -0.3806036 -0.99536884 -1.0890123 -0.77387905 -1.0931499 -0.5012896 0.6388151

lstm.weight_hh_l1 f4 [140, 35]
00000000: 1a1e 5fbe a4bb 2c3e 42e7 e6bd cd0c 323e
00000010: 5724 73bf 4bc7 d83e 1a45 53be 08c6 9a3e
00000020: 5a5f 26be bc59 b5bd 796b f4be cfc1 9b3d
00000030: 2889 cabc d562 2fbe 26b0 7bbf bac5 44bf
00000040: e096 a63d 3909 f93e 6b19 fc3d cbc7 60bd
00000050: bd57 c03e 214e 7e3e e0ed 62be 37cf b1be
00000060: 2c90 953e 6bb5 103f 61b5 1a3f 55f6 d43d
00000070: d8e0 b9bf 49ae c7be efbf b8bc 03ef b7be
00000080: a0a3 103f ac02 3a3f 4c36 1cbe 3d8a 35be
00000090: 9bbb 82bd bd9b 80bb 316c 963d 11de 52bf
000000a0: caea bf3d 01c5 60bd 12a4 813e 9fe2 8dbe
000000b0: 52bb 7d3d dd3d 8dbe 78d9 af3e aea3 ce3d
000000c0: 35cd 0cbd a0ec ccbe 2b27 49bf 83b6 403e
000000d0: 2763 a53e 7e2f 07be d59d 613e e2d9 b33e
000000e0: 2a8f c6bd a453 bdbe de4f 69be 8432 8bbd
000000f0: d37c e43e 94f4 f03e bca5 2c3e 4920 97bf
00000100: b358 15bc 62da 4abd 0660 1ebe b5bd 0f3f
00000110: 476a 4e3f 4813 80bb b29f cb3d 258d 29be
00000120: 779a 9bbe 0579 4abe a907 31bf adf8 bf3e
00000130: c2ef 7abe 97f5 603e 7088 3ebe a6cd 64be
00000140: f6fa 08bd 96bd b13d 33d7 823e 9e9e 15be
00000150: 45c0 18be 59cb 83bf 40d7 12be 80e8 6b3e
00000160: e2d1 12bd 2ae6 5e3e ccb2 c03e 9e4e 8b3d
00000170: 6bc1 23be 77c1 16bf dc0d 573e 7e8d cc3e
00000180: 56c1 673e f3af cd3d 6c70 adbf ad87 10be
00000190: edeb d43d 5c3e e7bd 9817 a83e 7988 283f
000001a0: b439 263d d40f fabd bbd9 9ebd 47f5 633d
000001b0: c513 d33d 182a b5be bb3b 7d3e a4b0 233f
000001c0: 716c 023f 4e28 41be 2608 0ebd f383 50be
000001d0: 50b5 23be b0f8 89be 0548 dbbd edd0 e2bd
000001e0: 0a44 6bbf 2f39 713e 8aa5 96be 30be 7b3e
000001f0: a49e 10be ce19 9abe fac0 a4be d6d3 80be
00000200: d0ba 92be e126 053e df55 2f3f b9d0 5c3f
00000210: 5876 3b3e e657 52bf 001d c7be d757 ba3e
00000220: b035 5bbe 2c86 d93e 65bf be3e dcf7 19bf
00000230: 2ac4 2b3d 5d61 8cbe b020 8ebd f054 ce3f
00000240: 36f6 81bf fa1c f239 9571 8cbf f51e cfbd
00000250: 3c80 2b3c 936d 593e a0b3 83be 2a4f 38bc
00000260: 986d 53be 03da 08bd 6e16 2dbf ec2c 80be
00000270: 99c7 903e 0cde fc3f ee0b 7b3f 965d ef3d
00000280: 689b 353f 35d8 063e b04a 94be 2a42 10be
00000290: efd9 f7bd 32f7 9dbe b459 0ebf f8c0 44bf
000002a0: bdba 57bf f1e1 f13e eb87 38be 6545 24be
000002b0: 221b 933e 0ebc 413e 9c0c b2be 2038 a33c
000002c0: d652 5d3d 34c8 21bc fd90 babd badb f2be
000002d0: d2a0 7b3d 2be7 84be 64c0 b3be cfb8 72bc
000002e0: 92c7 f4ba 72c1 83be ae4c dfbd 5d9b 073e
000002f0: 33bf febd 8b0c eebe d4a3 45bf 4f78 253d
00000300: 2f7f 303b 6f58 9bbd 2db0 5e3d 1177 843e
00000310: 7c32 383b 21dd 37bd 783e 1dbf c284 683d
00000320: 67ba fcbc b396 cd3d 392c ae3e ad3e 4bbf
00000330: 4506 febd 1084 c8be 9781 a4bc c444 7e3e
00000340: 5abd 223f f5a6 75be aa10 3fbe 3272 4ebe
00000350: f3ec 9bbe 90f4 57bf b569 a1bf 35e7 943e
00000360: bf0e ae3e 2231 8b3e 9b8b 363e 12c2 37bd
00000370: 4f91 5f3e 5b4f 043d ace0 063f e281 52be
00000380: 6087 c5be 1973 47bf 3070 3c3f 6c4f e7be
00000390: 5e04 aa3f a83d 033e 0d59 0340 fbac 833e
000003a0: 90e8 80be 064c 0abe 69e4 2b3d e41e 933e
000003b0: a954 48bf f86d bf3d 474f b3be 84fe 463e
000003c0: 5b39 1c3e 5df8 7dbe be1d 463e 9ece 843f
000003d0: dd2f 17be 041b aa3e 2ece 293e 7433 04be
000003e0: 1c62 88be e932 25bf 5e43 013e 625e 323b
000003f0: 491a ea3d 204d 78be 80f0 abbe 14ea 99be
-0.21788827 0.16868454 -0.11274578 0.17387696 -0.94977325 0.42339548 -0.20631829 0.3022921
-0.16247311 -0.08855006 -0.47738245 0.076053254 -0.024723604 -0.17127545 -0.98315656 -0.76864207
0.08134246 0.4863985 0.123095356 -0.054878037 0.3756694 0.24834491 -0.22161055 -0.34728405
0.29211557 0.5652682 0.6043301 0.103985466 -1.4521742 -0.39000157 -0.022552459 -0.3592454
0.5649967 0.72660327 -0.15255088 -0.17728515 -0.06383439 -0.0039248154 0.073448546 -0.82370096
0.09370954 -0.054875378 0.25320488 -0.2771196 0.06194622 -0.2758626 0.34345603 0.10089813
-0.03437539 -0.4002428 -0.7857539 0.18819623 0.3230221 -0.1320171 0.22032864 0.3512717
-0.09695275 -0.36977875 -0.22784373 -0.067967445 0.44626483 0.47061598 0.16860098 -1.1806728
-0.009115386 -0.049524672 -0.15466318 0.56148845 0.80630916 -0.0039085485 0.09942569 -0.16557749
-0.30391285 -0.19772728 -0.69152313 0.37494412 -0.24505523 0.21968685 -0.18606734 -0.22344074
-0.03344246 0.08678739 0.2555481 -0.14611289 -0.14917095 -1.0296432 -0.14339924 0.2303791
-0.03584469 0.21767488 0.3763641 0.068021044 -0.15991752 -0.58888954 0.2100138 0.399517
0.22632346 0.10043325 -1.3549933 -0.14114256 0.10396562 -0.11291191 0.328305 0.6583324
0.040582374 -0.1221005 -0.077563725 0.055653837 0.10306505 -0.35383677 0.24729817 0.6394141
0.5094672 -0.18863031 -0.03467574 -0.20362835 -0.15987134 -0.26947546 -0.10707096 -0.11075006
-0.91900694 0.2355697 -0.2942317 0.2458427 -0.14123017 -0.30097812 -0.3217848 -0.25161618
-0.28658152 0.13003112 0.68490404 0.86255985 0.18306863 -0.8216537 -0.38889313 0.3639514
-0.21407199 0.42485178 0.37255397 -0.6014383 0.041935124 -0.27418032 -0.069398284 1.6119671
-1.0153263 0.00046179426 -1.0972162 -0.101133265 0.010467585 0.21233205 -0.2572298 -0.011249343
-0.20647275 -0.033411037 -0.6761235 -0.25034273 0.2827728 1.9755263 0.9806508 0.11687772
0.70940256 0.13168414 -0.28963232 -0.1408774 -0.121021144 -0.30852658 -0.55605626 -0.76856947
-0.84269315 0.47242692 -0.18020599 -0.16042097 0.28731638 0.18919393 -0.34775245 0.019924223
0.054034077 -0.009874392 -0.091096856 -0.47433263 0.061432667 -0.25957617 -0.3510772 -0.01481457
-0.0018675199 -0.25733525 -0.10903297 0.1324286 -0.12438812 -0.46493945 -0.77203107 0.04039794
0.0026931276 -0.07585227 0.054367233 0.2587209 0.0028106263 -0.04488862 -0.61423445 0.056767233
-0.030850602 0.10038509 0.34018114 -0.7939251 -0.124035396 -0.39163256 -0.020081325 0.2483092
0.6357018 -0.2398947 -0.186587 -0.2016075 -0.30454215 -0.8435755 -1.2610384 0.29082647
0.33995625 0.27185923 0.17826693 -0.044862814 0.21832775 0.03230224 0.5268657 -0.20557359
-0.38579845 -0.7791 0.73608685 -0.45177782 1.3282583 0.12816489 2.0523102 0.2571791
-0.2517743 -0.13505563 0.041965876 0.28734505 -0.7825418 0.09347147 -0.3502142 0.19433028
0.15256254 -0.24801774 0.19347283 1.0375555 -0.14764352 0.33223736 0.16582558 -0.12910253
-0.26637352 -0.6453081 0.12623355 0.00272169 0.11430795 -0.24248171 -0.33581924 -0.300614
