sparrow/data/networks/scaling_exponent/scaling_exp_predictor_nl_2_hs_20_b_8_lr_001.pt (torch, 69283 bytes, 17 tensors)

lstm.weight_ih_l0 f4 [80, 20]
0	0x3e7f7e50	0.24950528
1	0x3f1ae446	0.6050457
2	0xbfa186c8	-1.2619257
3	0xbedf705e	-0.43640417
4	0xbe6aba2f	-0.22922586
5	0xbe0245db	-0.1272196
6	0x3d6bddb3	0.057584476
7	0x3fd70534	1.6798463
8	0xbe9d69db	-0.30744824
9	0x3f94a60c	1.1613173
10	0x3df34ac5	0.118794955
11	0xbfff29e6	-1.9934661
12	0x3f5b0a03	0.8556215
13	0xbfa272c8	-1.2691278
14	0xbfc72095	-1.5556818
15	0xbe2d8c01	-0.16947939
16	0xbecd8f62	-0.40148455
17	0x400a98f9	2.1655867
18	0xbf5620ee	-0.83643997
19	0x3eecd11f	0.46253297
20	0xbfacf303	-1.3511661
21	0x401e925d	2.4776833
22	0xbf27cfb5	-0.6555131
23	0x3f0d6ff7	0.5524897
24	0xc02666d9	-2.6000273
25	0xbed3fa36	-0.41401833
26	0x3f480a30	0.78140545
27	0x3d0bb6f4	0.034110025
28	0xbf562def	-0.8366384
29	0x3f4580db	0.7714974
30	0x3fcb0a20	1.5862465
31	0xbfe2e280	-1.7725372
32	0xbe9ebe1a	-0.3100441
33	0x3ef43263	0.47694692
34	0xbfb81a5f	-1.4383048
35	0xbf2c573e	-0.6732062
36	0x3f60730f	0.87675565
37	0x3f93c9a2	1.1545908
38	0xc002fdeb	-2.046748
39	0x3e8acaf2	0.2710796
40	0xc0104bd2	-2.2546277
41	0xbf003bfe	-0.5009154
42	0x3f8b3476	1.0875385
43	0x3e9ba95e	0.30402654
44	0x3f98fdf8	1.1952505
45	0xc0226143	-2.5371864
46	0xbd83fe44	-0.06444982
47	0x3fdd2f18	1.7279997
48	0xbd2db29d	-0.042406667
49	0x3fde09bc	1.7346721
50	0xbda096ab	-0.07841238
51	0xbf5e7532	-0.86897576
52	0x3e0555d7	0.13021027
53	0xbe8327eb	-0.25616392
54	0xbf369b18	-0.71330404
55	0x3fb4a7b0	1.4113674
56	0xbfb7ad47	-1.4349755
57	0x3ddd493a	0.108049825
58	0x3f5f9abc	0.8734548
59	0x3f8b6ead	1.089315
60	0xbed1851f	-0.40921876
61	0x3e3fe0f2	0.18738154
62	0xc00d5fc0	-2.208969
63	0xbf5687a1	-0.83800703
64	0x3f48a038	0.78369474
65	0xbe21028b	-0.15723626
66	0x3fda7ce9	1.706937
67	0xbf9b05c3	-1.2111133
68	0x3f399059	0.7248588
69	0xc079fee8	-3.9061832
70	0x3f5f2e94	0.8718045
71	0xbf0601e8	-0.5234666
72	0x3f27897b	0.65444154
73	0x3ee6ef4b	0.4510444
74	0xbf1dd923	-0.6165945
75	0xc03cd1e8	-2.9503117
76	0xc0478f54	-3.118123
77	0x3f523d05	0.8212436
78	0x3f45cb37	0.77263206
79	0xbf9277bb	-1.1442789
80	0xbf7a30c8	-0.97730684
81	0xbeeaadbb	-0.4583567
82	0xbe8fe11d	-0.28101435
83	0xbdd1eff6	-0.10250847
84	0xbf285dbb	-0.6576802
85	0xbfc31a41	-1.5242387
86	0xbf223675	-0.63364345
87	0x3f71041e	0.9414691
88	0x3f951cbe	1.1649396
89	0x3f9346fd	1.1506039
90	0x3f5ed102	0.8703767
91	0x4011f414	2.2805223
92	0x3f946944	1.1594625
93	0x3e337e36	0.17528614
94	0xbea0b531	-0.31388238
95	0xbe4090a3	-0.18805175
96	0xbfd4030f	-1.6563433
97	0x3eac28c9	0.33624867
98	0xbf940011	-1.156252
99	0xbddc1319	-0.1074583
100	0x3fa1c5a1	1.2638437
101	0x3fb2e01f	1.3974646
102	0xbf073b9b	-0.52825326
103	0x3ed8e2b8	0.42360473
104	0xbfb34480	-1.400528
105	0x3ebfbc0d	0.3744816
106	0xc0163515	-2.3469899
107	0xbdd6823b	-0.10474058
108	0x3f634134	0.8877137
109	0x3e832564	0.25614464
110	0xbe1d6d2a	-0.15373674
111	0xbfba85f0	-1.4572124
112	0x3fc63101	1.5483705
113	0xbf927d65	-1.1444517
114	0xbf9f5b45	-1.2449728
115	0x3f0a249e	0.53962123
116	0xbf37db1c	-0.7181871
117	0xbebf5f08	-0.3737719
118	0xbff3d8e1	-1.9050561
119	0xbec36505	-0.3816301
120	0xbfcd6e3b	-1.6049265
121	0xbd117af8	-0.035517663
122	0xbfbf0522	-1.4923441
123	0x3f0d9c49	0.553166
124	0x3f3a9422	0.7288228
125	0xc0388f2b	-2.8837383
126	0xbf83c900	-1.0295715
127	0x3d9c78d9	0.07640237
128	0x401991e2	2.399529
129	0xbe7c3a4b	-0.24631612
130	0x3d859100	0.06521797
131	0xbfc86104	-1.5654607
132	0xbe3c3d1b	-0.18382685
133	0xc07fea73	-3.9986846
134	0x3fbddd24	1.4833112
135	0xc02c90e5	-2.6963437
136	0xbfd1cd74	-1.6390824
137	0x3fc18d2b	1.5121206
138	0x3f199f33	0.60008544
139	0xbe1ab93b	-0.15109722
140	0xbf02ed17	-0.5114302
141	0x3f848edb	1.0356096
142	0x3ef152b3	0.47133407
143	0xbf914f80	-1.1352386
144	0x3f9151f5	1.1353136
145	0xbf660639	-0.89853245
146	0xbfa431b0	-1.2827663
147	0x3f601a6d	0.8754032
148	0xbe589eff	-0.21154402
149	0xbff59be2	-1.9188197
150	0xbf261c95	-0.6488736
151	0xbfa17b3f	-1.2615737
152	0xc000977e	-2.0092463
153	0xbe029cd0	-0.12755132
154	0x3d20f017	0.039291468
155	0xbf6460c6	-0.89210165
156	0xbfa8bc32	-1.3182433
157	0x3fc45634	1.5338807
158	0x3fefe59b	1.8741945
159	0xbeda291e	-0.42609495
160	0xc051721c	-3.2725897
161	0xbf744018	-0.954103
162	0x3f204dd7	0.62618774
163	0x3e6fea87	0.23429309
164	0x3f86fa70	1.0545177
165	0xbf8a6787	-1.0812844
166	0xc08f3ed6	-4.4764204
167	0x3b390513	0.0028231784
168	0x3e13127c	0.1436252
169	0xbf7dfe98	-0.99216604
170	0x3f52043f	0.8203773
171	0xbf30bed5	-0.69041187
172	0xbf376427	-0.71637195
173	0xbf3def6e	-0.74193466
174	0x3fb4910d	1.4106766
175	0xbfbae47e	-1.460098
176	0xbfabf320	-1.3433571
177	0xbfbee2e7	-1.4912995
178	0xbd9fd4d5	-0.07804266
179	0xbf4e8a27	-0.80679554
180	0xbfd4e0e4	-1.6631131
181	0x3e43811e	0.19092223
182	0x3f5e8e6a	0.86936057
183	0x3ee0725a	0.43837243
184	0xbf4975a4	-0.7869513
185	0xbfc07b85	-1.5037695
186	0xbfc933f4	-1.571898
187	0xbff6bf23	-1.927708
188	0x3df8d45a	0.12149878
189	0x3fd50cfe	1.664459
190	0x3f2d5452	0.6770679
191	0xbec3c7ae	-0.3823828
192	0xbf09788e	-0.53699577
193	0xbf0d8e97	-0.552957
194	0x3f15aea3	0.584696
195	0xc00f4ec2	-2.239182
196	0xbfa85a21	-1.3152505
197	0xbf69dafb	-0.9134976
198	0x3f1d30e2	0.61402714
199	0xbf1c10fa	-0.60963404
200	0xbe93529e	-0.2877397
201	0x3e14cb92	0.14530781
202	0x3df05620	0.11735177
203	0xbfd22349	-1.6417018
204	0x3fcb5459	1.5885116
205	0xbe833fb6	-0.25634545
206	0xbf217d06	-0.63081396
207	0xbf254321	-0.64555556
208	0x3e9df057	0.30847427
209	0xbfbed8e2	-1.4909937
210	0x40162287	2.3458574
211	0xbf188e93	-0.5959255
212	0x3e4a8a42	0.19779304
213	0x3e504ab6	0.20341
214	0x3e9b7192	0.30360085
215	0xbeac94f1	-0.33707383
216	0xbf204aab	-0.62613934
217	0xbe8cc27e	-0.27492136
218	0x3f9c4cb8	1.2210913
219	0x3fa692e8	1.3013582
220	0xbfbd3914	-1.4783044
221	0xbf69b08e	-0.91285026
222	0x3ee8ef23	0.45494947
223	0x3f140dca	0.5783354
224	0x3ecd7458	0.40127826
225	0xbf4f5f2c	-0.81004596
226	0x3e1fb43b	0.15596096
227	0xbde9dcdd	-0.114190795
228	0x3e0b019f	0.13574837
229	0x3e9a39bb	0.3012217
230	0xbdfd54fc	-0.12369725
231	0xc02aaaa8	-2.666666
232	0x3fa606ea	1.297086
233	0xbf7bacdc	-0.9831064
234	0xbebe3300	-0.37148285
235	0xbf3da5da	-0.74081194
236	0xbf3e9521	-0.744463
237	0x3eda5b27	0.4264767
238	0xbfdaa610	-1.7081928
239	0x3f7a8be1	0.9786969
240	0xbfcce05a	-1.6005967
241	0x3f69237e	0.9106978
242	0x3fab3d61	1.3378106
243	0xbed1f2de	-0.41005605
244	0x3f83cdc8	1.0297174
245	0xbf74d73c	-0.9564092
246	0xbfcd6ba8	-1.6048479
247	0xbf846588	-1.0343485
248	0xbeb8aa19	-0.36067274
249	0xbfa30b9c	-1.2737918
250	0xbfe98fa6	-1.8246963
251	0xc0039e6c	-2.0565443
252	0xbfc37242	-1.5269244
253	0x3e8040b4	0.25049365
254	0x3e333221	0.17499591
255	0x3e4cf525	0.2001539

lstm.weight_hh_l0 f4 [80, 20]
0	0xbf2d8a97	-0.67789596
1	0xc00c30bb	-2.1904743
2	0xbe8d935b	-0.27651486
3	0xbe760706	-0.24026117
4	0xbde71835	-0.11283914
5	0xbf59b597	-0.8504271
6	0x3f90fdef	1.1327494
7	0x3ee0916a	0.43860942
8	0xbf0f24b3	-0.55915374
9	0xbf72fb3c	-0.94914603
10	0xbf2e9079	-0.681892
11	0x3f9f5b60	1.244976
12	0x3f02eae7	0.5113968
13	0x3f173c87	0.5907673
14	0xbe280e50	-0.1641171
15	0xbe491831	-0.19638135
16	0xc0376c2c	-2.8659773
17	0xc00c73a6	-2.1945586
18	0xbec880d0	-0.39160776
19	0x3f16e9e5	0.58950645
20	0x3f547609	0.8299261
21	0xbcdb07e9	-0.02673717
22	0x3f783c84	0.9696734
23	0x3e3206c9	0.17385401
24	0x3dd961a8	0.106143296
25	0xbfb641f0	-1.4238873
26	0x3ed6a017	0.41919014
27	0x3e7c8532	0.24660185
28	0xbf64a416	-0.89312875
29	0x3f5672f0	0.8376913
30	0x3fd8b379	1.6929771
31	0x3fc89026	1.5668991
32	0x3e623db7	0.22093855
33	0xbed24d1e	-0.4107446
34	0xbd21c743	-0.03949667
35	0xbe1acbcc	-0.15116805
36	0xc020c51c	-2.5120306
37	0xbf897f6a	-1.0742009
38	0x3f01b29d	0.5066317
39	0xbe7fe83c	-0.24990934
40	0x3f21f730	0.63267803
41	0x3f06cdaf	0.526576
42	0xbfedcdc8	-1.8578424
43	0x3f509754	0.8148091
44	0xbf6e22c6	-0.9302181
45	0x3e502337	0.20325933
46	0xbe11834d	-0.14210244
47	0xbe8bbe67	-0.27293703
48	0x3f23c3e3	0.63970774
49	0xbfa5c068	-1.2949343
50	0xbd1d4c16	-0.03840264
51	0x3f8497c8	1.035882
52	0xbeda3a95	-0.4262282
53	0x3f1769d1	0.5914584
54	0xbf2adfe5	-0.66747886
55	0xbe067653	-0.13131075
56	0xbe4ac46a	-0.19801489
57	0xc0077091	-2.1162455
58	0x3e38dadf	0.18052243
59	0x3f9006b6	1.1252048
60	0xbf9694fd	-1.1764218
61	0xbe9c3b3b	-0.3051394
62	0xbf16f759	-0.5897117
63	0x3edfbfde	0.4370107
64	0x3ee63afa	0.4496687
65	0xbdc0bb0c	-0.09410676
66	0x3e19beae	0.15014145
67	0x3f0a45cf	0.5401277
68	0xbe3730da	-0.17889729
69	0x3f96cb9c	1.1780887
70	0x3f635447	0.8880047
71	0x3f30524e	0.68875587
72	0x3ebd14d9	0.36929968
73	0x3e385ad1	0.18003394
74	0xbf615955	-0.88026935
75	0xbdfa6c13	-0.12227645
76	0xbf51c571	-0.81941897
77	0x3f2feffb	0.68725556
78	0x3f5566e0	0.833601
79	0xbf6f0409	-0.9336553
80	0x3d402ca0	0.046917558
81	0x3ed04686	0.40678805
82	0xbf0bcacc	-0.5460632
83	0x3f42165b	0.7581536
84	0x3f6ff20a	0.937287
85	0x3e59f927	0.2128645
86	0xbd68736d	-0.056750704
87	0x3f773d6f	0.96578115
88	0x3f4f0fcd	0.80883485
89	0x3f96e0cf	1.1787356
90	0x3f33924b	0.701451
91	0xbef131c8	-0.47108293
92	0xbfa40751	-1.2814733
93	0x3fafb61c	1.372745
94	0x3e7e251d	0.24818845
95	0x3f4d185b	0.8011529
96	0x3f6c6b78	0.92351484
97	0xbd928f19	-0.071562
98	0xbf00e549	-0.5034986
99	0xbfc82c8c	-1.5638595
100	0x3fb7ab62	1.4349177
101	0x3f77323d	0.9656103
102	0xbf76c35d	-0.9639185
103	0xbf88f060	-1.0698357
104	0xbf3655bb	-0.71224564
105	0x3cfbd0bd	0.030739183
106	0xbec79c04	-0.38986218
107	0xc001d91a	-2.0288758
108	0xc06b0fb2	-3.672833
109	0x3eeef4ba	0.46671087
110	0xbe489893	-0.19589452
111	0x3d811ef0	0.06304729
112	0x3caec059	0.021331953
113	0x3f1d349a	0.6140839
114	0xbf3e644a	-0.7437178
115	0x3b994666	0.0046775816
116	0x3f29e133	0.6635925
117	0xbcacc35b	-0.021089246
118	0xbf8a594d	-1.0808502
119	0xbf565a27	-0.8373131
120	0x3fc9c6dc	1.5763812
121	0xbecf4c36	-0.40487832
122	0xbfc69987	-1.5515603
123	0xbf847e83	-1.0351108
124	0x3b61a811	0.003443245
125	0xbe4ecadd	-0.20194574
126	0xbefbf51a	-0.49210435
127	0x3d3f0d0c	0.0466433
128	0x3f56fbc8	0.8397794
129	0x3f32e401	0.69879156
130	0x3ed5fe39	0.4179552
131	0x3f48449e	0.782297
132	0xbe3d9f72	-0.18517855
133	0x3dbf6ad6	0.09346549
134	0xbdc1abc6	-0.09456591
135	0xbd2e7253	-0.042589497
136	0x3db9fb2b	0.090811096
137	0xbf92c502	-1.1466372
138	0x3be83370	0.00708621
139	0xbe6cd66f	-0.23128675
140	0xbeb91fdf	-0.36157128
141	0x3e57eb31	0.21085812
142	0x3f656243	0.8960306
143	0x3f46ade1	0.7760907
144	0x3c84d478	0.016214594
145	0x3ed4146d	0.41421834
146	0xbf4d5697	-0.8021025
147	0x3fab9acd	1.3406616
148	0xbddcb4d4	-0.10776678
149	0x3f7a76ca	0.9783751
150	0x3d0a42c8	0.033755094
151	0x3f18af2d	0.596423
152	0x3f2268e4	0.634413
153	0x3f178834	0.59192204
154	0xbd896027	-0.06707793
155	0x3f03dcfb	0.51509064
156	0x3ed084e4	0.40726388
157	0xbfab7618	-1.3395414
158	0xbf80f3b0	-1.0074368
159	0xbd16ecb4	-0.03684683
160	0xbeb61d06	-0.35569018
161	0x3d248176	0.040162526
162	0x3f4d7f4b	0.8027236
163	0x3e6c798c	0.23093241
164	0xbfaef397	-1.3668088
165	0xbe935eec	-0.28783357
166	0x3fc30907	1.523713
167	0xbf483951	-0.7821246
168	0xbf3c6ead	-0.7360638
169	0xbf9f460e	-1.2443254
170	0xbf0ee574	-0.5581887
171	0x3f476b35	0.7789796
172	0x3f1fa2ce	0.62357795
173	0xbf36f5d3	-0.7146885
174	0xbe9dd315	-0.30825105
175	0xbf1fe0dd	-0.6245249
176	0xbf818346	-1.0118186
177	0x3f26035d	0.6484888
178	0x3f10baed	0.56535226
179	0xbfad5750	-1.3542271
180	0xbf0d7cea	-0.5526873
181	0x3e1c1e1f	0.15245865
182	0xbe94e3f7	-0.29080173
183	0xbf0332c2	-0.51249325
184	0xbc64baf2	-0.013960587
185	0xbeae213a	-0.34009725
186	0xbf22d2bb	-0.636028
187	0xbea60a6a	-0.3242982
188	0x3e0a66af	0.13515733
189	0x3f368225	0.71292335
190	0x3ea030af	0.31287143
191	0xbf26ce32	-0.6515838
192	0xbf0de48b	-0.55426854
193	0x3cbce6a5	0.023059199
194	0xbebe7dab	-0.37205252
195	0xbe54c35f	-0.20777653
196	0x3f423b25	0.758715
197	0xbbbf6091	-0.005840369
198	0x3d47260b	0.048620265
199	0x3f690377	0.9102091
200	0x3fa3534e	1.2759798
201	0xbe178133	-0.1479538
202	0xbf6ba24d	-0.92044526
203	0x3ec438ec	0.38324678
204	0xbf93c0d6	-1.1543224
205	0xbe499447	-0.1968547
206	0xbf0ed1a7	-0.55788654
207	0xbf9257a7	-1.1432999
208	0x3eab11ea	0.33412105
209	0x3ac4f24e	0.0015025826
210	0x3f42d21f	0.7610187
211	0x3f90f574	1.1324906
212	0xbe68ddc1	-0.22740842
213	0xbfa6600d	-1.2998062
214	0xbea7363c	-0.32658565
215	0x3f5a6b52	0.8532001
216	0xbd212b89	-0.03934816
217	0xbd8278e6	-0.06370716
218	0xbf016178	-0.5053935
219	0xbef148f6	-0.47125977
220	0x3eb20509	0.34769467
221	0x3fa9cd97	1.3265866
222	0xbeb622ed	-0.3557352
223	0x3fd71e78	1.6806173
224	0x3c123319	0.008923315
225	0xbe78abde	-0.24284312
226	0xbfc20f44	-1.5160909
227	0xbeac1d2d	-0.3361601
228	0xbf7eba36	-0.99502885
229	0x3fb45e99	1.4091369
230	0xbf5cdad2	-0.86271393
231	0xbf11d440	-0.5696449
232	0xbf9b3c8d	-1.2127854
233	0x3f0c626a	0.5483767
234	0x3f58f08e	0.8474206
235	0x3eb54cc2	0.35410124
236	0x3f1b9e5b	0.60788506
237	0xbb996897	-0.0046816575
238	0xbf219edc	-0.63133025
239	0xbe86be61	-0.26317123
240	0x3f38d1f9	0.7219539
241	0x4004afbe	2.0732265
242	0x3e7ec3a0	0.24879313
243	0xbf1cea0e	-0.6129464
244	0x3f4c1801	0.7972413
245	0xbf651451	-0.89484125
246	0x3fa8dda1	1.3192636
247	0xbef1bb21	-0.4721308
248	0xbf5a614c	-0.85304713
249	0xbe2c9342	-0.1685305
250	0x3fe570a2	1.7924998
251	0x3ef204fe	0.47269434
252	0xbfbf180a	-1.4929211
253	0x3e161e62	0.14660028
254	0x3f826ae9	1.0188876
255	0x3faf1ae5	1.3680083

lstm.bias_ih_l0 f4 [80]
0	0xbeddeada	-0.4334324
1	0xbed7eaee	-0.42171425
2	0xbf33af83	-0.70189685
3	0xbefcbc16	-0.49362248
4	0xbf36630a	-0.7124487
5	0xbeb31118	-0.3497398
6	0xbf5e1638	-0.86752653
7	0xbf3a469a	-0.7276398
8	0xbf148437	-0.58014244
9	0xbf1c5b9f	-0.610773
10	0xbf03b4f3	-0.5144798
11	0xbf31909f	-0.693613
12	0xbf09585b	-0.53650445
13	0xbef256f6	-0.4733197
14	0xbe98ee5b	-0.2986935
15	0xbf3e6f4e	-0.7438859
16	0xbf0c5f14	-0.5483258
17	0xbf42bec7	-0.76072353
18	0xbec61d25	-0.3869411
19	0xbf35211d	-0.7075365
20	0xbd063d2a	-0.032773174
21	0x3e5a8d4f	0.21342967
22	0x3f09ac5d	0.5377863
23	0xbdb7adb1	-0.08968676
24	0x3ef33f65	0.47509304
25	0x3eccc36a	0.3999284
26	0x3f277794	0.65416837
27	0x3f31439c	0.6924379
28	0x3df646ec	0.12025246
29	0x3f3c1b47	0.7347912
30	0x3f2a5df6	0.66549623
31	0xbd50f94e	-0.051019005
32	0x3f031766	0.5120758
33	0x3f426674	0.7593758
34	0x3f231687	0.6370625
35	0x3e624c18	0.2209934
36	0x3ea9bdb7	0.33152553
37	0x3f1b8fa4	0.60766053
38	0x3e6ae20b	0.22937791
39	0x3f7a50d5	0.9777959
40	0xbea25bd1	-0.31710675
41	0xbe7f556c	-0.2493493
42	0x3e440405	0.19142158
43	0x3d775ac1	0.060389284
44	0x3d767696	0.060171686
45	0x3e8e418f	0.27784392
46	0x3e9157ee	0.28387398
47	0xbd4fbc3c	-0.050716624
48	0x3e0fdcbb	0.14049046
49	0xbecf9298	-0.4054153
50	0xbd8e88eb	-0.06959709
51	0x3de77ee0	0.11303496
52	0x3e31c848	0.17361557
53	0xbeaa86c3	-0.3330594
54	0xbe4dee66	-0.20110473
55	0xbe961a7e	-0.29317087
56	0x3daead1f	0.08529114
57	0xbbf594bb	-0.0074945367
58	0xbea2a8f8	-0.31769538
59	0x3d8a668d	0.06757841
60	0xbe6b8c5b	-0.2300276
61	0xbe233e14	-0.1594165
62	0xbeba02d9	-0.36330298
63	0xbca30fe5	-0.01990504
64	0xbea88d10	-0.32920122
65	0xbe9d8c08	-0.30770898
66	0xbe7ad2be	-0.24494454
67	0xbeee99bb	-0.46601662
68	0xbddc7363	-0.10764196
69	0xbd4dbe6b	-0.050230425
70	0xbeeb1901	-0.45917514
71	0xbeb02b3a	-0.3440798
72	0xbef8b248	-0.48573518
73	0xbea15d28	-0.31516385
74	0xbe34c755	-0.17654164
75	0x3d62a37a	0.055331685
76	0xbe98aea9	-0.29820755
77	0xbed994ee	-0.42496437
78	0xbebee6da	-0.372855
79	0xbec02ebc	-0.37535655

lstm.bias_hh_l0 f4 [80]
0	0xbea0c33c	-0.31398952
1	0xbf2eaec6	-0.68235433
2	0xbf276cd4	-0.65400434
3	0xbf1dd02b	-0.61645764
4	0xbecdef51	-0.40221646
5	0xbe619f91	-0.22033526
6	0xbef5534d	-0.47915116
7	0xbf36c1a3	-0.71389216
8	0xbf02e692	-0.5113307
9	0xbf3ce2b4	-0.7378342
10	0xbf18c44a	-0.59674513
11	0xbf221dcd	-0.6332672
12	0xbe884e0d	-0.26622048
13	0xbf473bdb	-0.7782571
14	0xbeb22fe4	-0.34802163
15	0xbee98907	-0.45612356
16	0xbefe8a5a	-0.4971493
17	0xbf0c1bbc	-0.5472982
18	0xbf029f41	-0.5102425
19	0xbf2c591f	-0.6732349
20	0xbdbeef40	-0.09322977
21	0x3e0e31cf	0.13886188
22	0x3e465752	0.19369248
23	0x3bffc067	0.0078049186
24	0x3e7911e2	0.24323228
25	0x3be388c0	0.006943792
26	0x3f23fd18	0.64058065
27	0x3f567570	0.83772945
28	0x3e29583b	0.16537564
29	0x3f1999b3	0.6000015
30	0x3f502131	0.81300646
31	0xbdfbe913	-0.12300315
32	0x3f466a9e	0.77506435
33	0x3f4d3da5	0.8017219
34	0x3f00bf86	0.5029224
35	0x3e92fdad	0.28709164
36	0x3e6c2321	0.23060276
37	0x3f613494	0.8797085
38	0x3e2c3128	0.16815627
39	0x3f69a927	0.9127373
40	0x3d77f6a3	0.060537945
41	0x3e1bfedc	0.1523394
42	0x3d6874d7	0.056752052
43	0xbd3baa10	-0.04581648
44	0xbeb17970	-0.34662962
45	0x3e80852d	0.25101605
46	0xbd8f66a1	-0.07001997
47	0x3d379ff4	0.044830278
48	0x3dc4cf8e	0.096099004
49	0xbe607c46	-0.21922407
50	0x3e3ddd98	0.18541563
51	0xbe00bb35	-0.12571414
52	0x3ed93297	0.4242141
53	0xbe5024b1	-0.20326497
54	0xbecbd477	-0.39810535
55	0xbdc1d2c8	-0.094640315
56	0xbcff8fa1	-0.031196417
57	0xbd64ce41	-0.05586076
58	0xbddbfd54	-0.10741678
59	0xbe41d04f	-0.1892712
60	0xbeb60db2	-0.35557324
61	0xbda73b44	-0.08165601
62	0xbee185ee	-0.44047493
63	0xbe32ec06	-0.17472848
64	0xbe697979	-0.22800244
65	0xbe608cc6	-0.21928701
66	0x3d68cd8d	0.056836654
67	0xbf1cd25d	-0.6125849
68	0xbe904187	-0.28174993
69	0xbe800a86	-0.2500803
70	0xbefe4f13	-0.49669704
71	0x3c198974	0.00937115
72	0xbe2b6b74	-0.16740209
73	0xbeaff5f0	-0.34367323
74	0xbea6ecf9	-0.3260267
75	0x3e4c196e	0.19931576
76	0xbe0c9b80	-0.13731194
77	0xbf03325e	-0.5124873
78	0xbe99ce68	-0.30040288
79	0xbe331e26	-0.1749197

lstm.weight_ih_l0_reverse f4 [80, 20]
0	0xbfeb39ab	-1.8376974
1	0x3e7d627b	0.24744599
2	0x3ec99cd9	0.39377478
3	0x3ea474aa	0.32120258
4	0x3f0d5210	0.5520334
5	0xbfe8663c	-1.81562
6	0xbf8e10cf	-1.109888
7	0x3fe753c5	1.807244
8	0x3f6c56aa	0.9231974
9	0x3f251bec	0.6449573
10	0xbfa48cdc	-1.2855487
11	0x3f0abb3a	0.54191935
12	0x3fabec6b	1.3431524
13	0xbf48ec87	-0.7848591
14	0xbf818bb4	-1.0120759
15	0xbf03557c	-0.51302314
16	0xbd245ca3	-0.040127408
17	0xbf194402	-0.59869397
18	0x3f8f06aa	1.1173909
19	0x3fc34404	1.5255132
20	0x3f15af1f	0.5847034
21	0xbe529742	-0.20565513
22	0xbf1d2784	-0.6138842
23	0xbf258d5f	-0.6466884
24	0x3ee6c64e	0.4507317
25	0x3eb492a1	0.3526812
26	0x3f2705eb	0.65243405
27	0x3f913d20	1.1346779
28	0xbf0dde94	-0.5541775
29	0x3ef183f5	0.47170988
30	0x3f975904	1.182404
31	0x3dd3070e	0.1030408
32	0x3fe7f79b	1.8122438
33	0xc0081258	-2.1261196
34	0xbf088b8c	-0.5333793
35	0x3eb51dee	0.35374397
36	0xbee0a958	-0.438792
37	0x3f83d1e0	1.0298424
38	0x3f8190a9	1.0122272
39	0xbe05157c	-0.12996477
40	0x3e8939aa	0.26801807
41	0x3f314734	0.6924927
42	0x3f05b5cf	0.5223054
43	0x3fadb711	1.3571492
44	0xbf31d4cd	-0.69465333
45	0xbfe0bbe8	-1.7557344
46	0xbdd7e6ff	-0.10542106
47	0x3e17c324	0.14820534
48	0xbea1a255	-0.31569162
49	0x40050788	2.0785847
50	0x4063d30d	3.5597565
51	0xbfc7b093	-1.5600761
52	0x3ff8edc5	1.9447562
53	0xbf5b60ae	-0.85694396
54	0xbf66f889	-0.90222985
55	0xbefe52e0	-0.49672604
56	0x3f623a99	0.8837066
57	0x3f90b399	1.1304809
58	0xc02eb2c8	-2.729662
59	0xbe95e5c2	-0.29276854
60	0xbf4b0cc7	-0.7931637
61	0xbed235fc	-0.41056812
62	0x3f3c5f60	0.7358303
63	0x3ea62f26	0.32457846
64	0x3cdc03b1	0.026857229
65	0xbfcecace	-1.6155641
66	0xbd144aa0	-0.03620398
67	0x3ee8fcb5	0.455053
68	0x3fa92a1f	1.3215979
69	0xbf9ef073	-1.2417129
70	0x3f0d0031	0.5507842
71	0xbf9e8858	-1.2385359
72	0xc0974965	-4.7277093
73	0xbf4952eb	-0.7864215
74	0x3f60dcfb	0.8783719
75	0xbfd4b631	-1.66181
76	0xbf9c13d4	-1.2193551
77	0xbf2aeebd	-0.66770536
78	0x3f9eb034	1.2397523
79	0xbeddc873	-0.43316993
80	0xbdf75733	-0.12077179
81	0x3f018dc3	0.50606936
82	0x3f32bfd1	0.6982394
83	0xbf244fee	-0.64184463
84	0x3d8bd478	0.068276346
85	0x3eedb812	0.46429497
86	0xbfd496b5	-1.6608492
87	0x3f3665c0	0.7124901
88	0xbf8c6ea5	-1.0971266
89	0x400b7b9d	2.1794198
90	0xbeb0838e	-0.34475368
91	0xbe57e847	-0.210847
92	0x3ef48635	0.47758642
93	0xbe049d22	-0.12950566
94	0x3eabd866	0.33563536
95	0xbeb28a5d	-0.34871188
96	0xbf38ed78	-0.7223735
97	0x3d412d31	0.04716224
98	0xbf35a4ce	-0.70954597
99	0x3f9c52e8	1.2212801
100	0xbf1156a0	-0.56772804
101	0xbfaf2de6	-1.3685882
102	0xbfe2cd40	-1.7718887
103	0xbf15ff79	-0.58592945
104	0x3f0f4c3f	0.5597572
105	0xbff0b531	-1.8805295
106	0xbf234ce9	-0.6378923
107	0x3f0fa870	0.5611639
108	0x3f65c796	0.8975767
109	0x3ecd8c70	0.40146208
110	0x3f4df2aa	0.804484
111	0xbf7f45cd	-0.9971588
112	0xbf0e87c0	-0.5567589
113	0xbec03401	-0.37539676
114	0xbf02f5dc	-0.511564
115	0xbf4d00ad	-0.80079156
116	0xbf34c553	-0.7061359
117	0xbe1810c5	-0.14850147
118	0x400ada44	2.1695719
119	0x3f1c7ab5	0.61124736
120	0xbf1c2fb1	-0.6101027
121	0x4029780a	2.6479516
122	0xbed5081c	-0.4160775
123	0x3e703a81	0.23459817
124	0x405babf4	3.4323702
125	0xbfc8164d	-1.5631806
126	0xbeb82a65	-0.35969844
127	0xc043b5e4	-3.0579767
128	0xbeb89eaa	-0.3605855
129	0x401088d5	2.2583516
130	0x3f15be58	0.58493567
131	0x3f09c9a2	0.5382329
132	0x3f5bf54c	0.8592117
133	0xc00ae48b	-2.1701992
134	0xbe3ce108	-0.18445218
135	0x3e5f2c30	0.217942
136	0xbfbbd2c0	-1.4673691
137	0x3ec39e83	0.38206872
138	0x3fe9e53e	1.8273084
139	0x4016b125	2.354562
140	0xbf5fdae2	-0.87443364
141	0x3f005b5a	0.5013939
142	0xbfb44ba0	-1.4085579
143	0x3f9e9a6c	1.2390876
144	0xbf2508d5	-0.644666
145	0xbf3e6b66	-0.74382627
146	0x3ebb7c91	0.36618474
147	0x4014c8dd	2.3247597
148	0x3e818701	0.25298312
149	0xbf69fcee	-0.91401565
150	0xbf052b26	-0.52018964
151	0xbe051bad	-0.12998839
152	0x401e474c	2.4731016
153	0xbf05e5b6	-0.52303636
154	0xbd83915d	-0.0642421
155	0xbdffd281	-0.12491322
156	0x3df788d1	0.120866425
157	0xbffbe1bf	-1.9678267
158	0xbee3dd70	-0.4450488
159	0x3f9529c8	1.1653376
160	0xbfce092c	-1.6096549
161	0x3e7de81d	0.24795575
162	0xbea06cff	-0.31333157
163	0x3d823159	0.063570686
164	0xbe820ef1	-0.25402024
165	0xbfbc3ba2	-1.4705698
166	0xbcb972ad	-0.02263769
167	0xbd95588c	-0.072922796
168	0x3ee22eaf	0.44176242
169	0xbf328268	-0.69730234
170	0xbf374b17	-0.71598953
171	0xbfc1af74	-1.5131669
172	0xbfc66a81	-1.5501252
173	0xbfb5a100	-1.4189758
174	0x3f757497	0.95881027
175	0xbf3cef8d	-0.73803025
176	0xc016805d	-2.3515847
177	0xbf77c97b	-0.9679181
178	0x3dd3614b	0.103212915
179	0x3e34b760	0.17648077
180	0xbf87fdd9	-1.0624343
181	0x3fc3ef34	1.5307374
182	0xbf61251e	-0.8794726
183	0x3dceccd7	0.10097664
184	0x3f1d9ff8	0.6157222
185	0xbf768e98	-0.9631133
186	0xbe8d68ba	-0.27618963
187	0x3e508a34	0.2036522
188	0xbf2465d2	-0.64217865
189	0x3f151105	0.58229095
190	0xbfc59495	-1.5435969
191	0xbf4160ea	-0.75538504
192	0xbeb5eeed	-0.35533848
193	0xc0166028	-2.349619
194	0x3f308e8c	0.6896751
195	0xbe94588a	-0.289738
196	0xbf6f47d8	-0.93469
197	0xbfaf92c9	-1.371667
198	0xbfd5445d	-1.6661488
199	0xc086cea2	-4.2127237
200	0xbeaa25b0	-0.33231878
201	0x3d19efdd	0.037582267
202	0xbf2fe79f	-0.687128
203	0xbe8a82e8	-0.27053
204	0x3f693346	0.9109386
205	0xbd88dd18	-0.06682795
206	0xbfa517d6	-1.2897899
207	0x407c2c5e	3.940208
208	0x3f08e386	0.53472173
209	0x3dafffa3	0.08593681
210	0x3d985a5e	0.07439111
211	0x3f829030	1.0200253
212	0x3eafb4da	0.34317666
213	0xc02eb110	-2.729557
214	0x3e53a311	0.20667674
215	0x3eaa5f13	0.3327566
216	0x3fb1457a	1.3849328
217	0xbd8f2c2b	-0.06990846
218	0xbe02a020	-0.12756395
219	0x3df910b7	0.12161391
220	0x3f00bf8c	0.5029228
221	0x3f1232c4	0.5710871
222	0xbfe38082	-1.7773592
223	0xbf4e2c90	-0.80536747
224	0x3efedc58	0.49777484
225	0x3f99f021	1.2026407
226	0x3f31ac4f	0.6940355
227	0x3f9c4288	1.2207804
228	0x3e7d44ff	0.24733351
229	0x3f028b01	0.50993353
230	0x3fd3e887	1.6555337
231	0xbe3d8565	-0.18507917
232	0x3f38fc22	0.72259724
233	0xc0111e64	-2.26748
234	0xbec20bab	-0.37899527
235	0xbf2e0606	-0.6797794
236	0xbe10497a	-0.14090529
237	0x403f54a6	2.9895415
238	0x3f605eef	0.8764486
239	0x3f950aca	1.1643918
240	0x3f1e432d	0.6182125
241	0xbf066f9e	-0.52514064
242	0x3e083d3e	0.13304612
243	0xbfcccba8	-1.5999651
244	0x3fb823ca	1.4385922
245	0x3e83aa16	0.25715703
246	0xbf0b4f3f	-0.54417795
247	0xbf18e118	-0.59718466
248	0x3e383cd0	0.17991948
249	0x4039417e	2.8946223
250	0xbf729884	-0.9476397
251	0xbf9f3ee9	-1.2441074
252	0x3fa831b2	1.3140166
253	0xbf22526d	-0.6340702
254	0xbf14eb0b	-0.5817115
255	0xbdd56152	-0.10418953

lstm.weight_hh_l0_reverse f4 [80, 20]
0	0xbfabe96e	-1.3430612
1	0xbf3db853	-0.7410938
2	0xbe09e766	-0.13467178
3	0x3e4ad5a0	0.19808054
4	0xbec1366b	-0.3773683
5	0x3fc34e44	1.525826
6	0xbebad714	-0.36492217
7	0x3f3a78e7	0.7284073
8	0xbf0d05fd	-0.5508726
9	0x400fb35a	2.2453218
10	0x3e3f500e	0.18682882
11	0x3d5d3cab	0.054012936
12	0xbf14e22d	-0.58157617
13	0x3ec11c6a	0.3771699
14	0xbf9b8d90	-1.2152576
15	0x3e55791d	0.20846982
16	0xbc41c573	-0.011826861
17	0xbe85ff61	-0.261714
18	0xbf3342fc	-0.70024085
19	0xbe35176b	-0.17684714
20	0x3f0f4ad7	0.5597357
21	0x3c4abebf	0.012374579
22	0xbe9fb377	-0.31191608
23	0x3ee758d2	0.45184952
24	0x40110a9b	2.2662723
25	0xbeb63887	-0.35590002
26	0x3e7711a3	0.24127822
27	0xbe9b592f	-0.3034148
28	0x3e1ef055	0.15521367
29	0x3f278028	0.65429926
30	0xbd0921fd	-0.03347968
31	0x3e8a347b	0.26993164
32	0xbf1cdc5e	-0.61273754
33	0x4006d48d	2.106723
34	0xbe52dd06	-0.20592126
35	0xbf0f3085	-0.5593341
36	0xbe885642	-0.2662831
37	0x3e120f34	0.14263612
38	0xbe9d71cb	-0.3075088
39	0x3f583981	0.84462744
40	0xbf3c8ef6	-0.7365564
41	0xbe88115b	-0.2657574
42	0x3f9d7e2d	1.2304131
43	0x3f1bec4c	0.60907435
44	0x3f0f167b	0.5589368
45	0x3e909954	0.2824198
46	0xbf4708d2	-0.77747834
47	0x3e8a1b5b	0.26973996
48	0x3ed60d3a	0.41806966
49	0x3ef0ad63	0.47007284
50	0x3f19daff	0.60099787
51	0xbf94f92d	-1.1638542
52	0xbea920ea	-0.33032924
53	0x3f98cec1	1.1938096
54	0xbf83a791	-1.0285512
55	0x3dc6cad2	0.09706654
56	0xbf111410	-0.5667124
57	0x3de9dc47	0.11418968
58	0x3f189227	0.5959801
59	0x3da8dfc4	0.08245805
60	0x3ebb60d7	0.3659732
61	0x3eba649d	0.36404887
62	0xbf82aff6	-1.0209949
63	0x3e1025ab	0.14076869
64	0x3efddbf8	0.49581885
65	0xbeba19b1	-0.36347726
66	0x3e69964a	0.22811237
67	0x3f9b28fc	1.2121882
68	0xbe3c4788	-0.18386662
69	0xbf6d8bd4	-0.92791486
70	0x3fa1565e	1.2604482
71	0xbed0f373	-0.40810737
72	0x3f5fda8a	0.8744284
73	0x3fc59926	1.5437362
74	0xbe74b39c	-0.2389664
75	0x3e26d3c8	0.16291726
76	0xbe812d50	-0.25229883
77	0xbdabb98c	-0.08385
78	0xbeed2773	-0.4631916
79	0xbf89d182	-1.0767062
80	0xbf0b6c85	-0.5446246
81	0xbd670b94	-0.056407526
82	0x3f4b5076	0.7941965
83	0x3ed68d0c	0.41904485
84	0x3e10ed37	0.1415299
85	0x3e52f39e	0.20600745
86	0xbe09031f	-0.13380097
87	0x3f453fd5	0.77050525
88	0xbf56827d	-0.8379286
89	0xbf9d4336	-1.2286136
90	0xbf5b1c18	-0.8558974
91	0xbb99019a	-0.0046693804
92	0x3dcc465b	0.09974357
93	0xbee21441	-0.44156078
94	0x3fd9c4ad	1.7013146
95	0xbf0eadec	-0.55734134
96	0x3d11f437	0.035633292
97	0x3e03e54f	0.12880443
98	0x3ecb6528	0.39725614
99	0xbfee41dc	-1.8613849
100	0xbe95470e	-0.29155773
101	0xbd92a523	-0.071604036
102	0x401fa402	2.4943852
103	0xbf05c21d	-0.5224932
104	0xbea87f68	-0.32909703
105	0x3efd4488	0.49466348
106	0xbf5fa5fc	-0.8736265
107	0x3ecc996a	0.39960796
108	0x3ca23575	0.01980088
109	0x3f5e8920	0.86927986
110	0xc0381f54	-2.876912
111	0xbe8f707b	-0.28015503
112	0x3f38b0a1	0.72144514
113	0x3f94e282	1.1631625
114	0x3f1d8d02	0.61543286
115	0xbf962e80	-1.1732941
116	0x3e9b0410	0.30276537
117	0xbee678e8	-0.4501412
118	0x3f3f83f3	0.74810714
119	0x3e6e9dbf	0.23302363
120	0x3c1942ef	0.009354337
121	0x3e992776	0.2991292
122	0xbeec1d79	-0.46116236
123	0x3e693ac7	0.22776328
124	0x3e99bd2b	0.30027136
125	0xbf6b5d4f	-0.9193925
126	0xbfa02d8e	-1.2513902
127	0x3f4a77f3	0.7908928
128	0x3e2cdad2	0.16880348
129	0xbf955f62	-1.1669734
130	0xbf3948d8	-0.72376776
131	0xbf5b9ac9	-0.8578306
132	0x3f95d075	1.1704241
133	0x3f91f8ba	1.140403
134	0x3e309fb9	0.1724843
135	0xbf174b9b	-0.5909974
136	0xbe51cb5e	-0.20487735
137	0xbf0dec60	-0.55438805
138	0xbe0a3906	-0.13498315
139	0xbd6931a7	-0.056932118
140	0xbf6de2fe	-0.9292449
141	0xbf3a60c5	-0.7280391
142	0x3fc009b5	1.5002962
143	0x3fbead02	1.4896548
144	0x3f37fee2	0.71873295
145	0xbfb8d33d	-1.4439465
146	0x3ea6969b	0.32536778
147	0xbe0da72d	-0.13833304
148	0xc011623b	-2.2716205
149	0x3f0630f8	0.5241847
150	0xbea71e4a	-0.32640296
151	0xbf8481ad	-1.0352074
152	0x3e438b04	0.19095999
153	0x3e803d21	0.25046638
154	0x3f67e4ed	0.9058369
155	0x3eb3889a	0.35065156
156	0xbf0da982	-0.55336773
157	0xbebbc797	-0.36675712
158	0xbd80e0ea	-0.06292899
159	0xbf18600c	-0.59521556
160	0xbecec5ae	-0.40385193
161	0xbd8c92b6	-0.068639204
162	0x3eee3e86	0.46532077
163	0xbd880945	-0.06642393
164	0x3effd6c5	0.49968544
165	0xbf03ea2a	-0.5152918
166	0x3f2f2569	0.6841646
167	0x3f8a46e1	1.080288
168	0x3eb6c53d	0.35697356
169	0x3f8d9bc8	1.1063166
170	0xbf1a3a49	-0.60245186
171	0xbea5fcbb	-0.3241938
172	0x3f4895c8	0.7835355
173	0x3f1d82ce	0.6152772
174	0x3e4ca8f8	0.19986331
175	0xbf76d33c	-0.9641607
176	0xbf82cd77	-1.0218953
177	0xbebe109b	-0.37122044
178	0x3fb2c3e2	1.3966029
179	0x3e6e7fea	0.23290983
180	0x3ec9eb10	0.3943715
181	0xbfdae46b	-1.7100958
182	0x3f3c35f6	0.7351984
183	0xbf63c56f	-0.88973135
184	0x3d711ac1	0.058863405
185	0xbf8a0533	-1.0782837
186	0x3f203c0c	0.62591624
187	0x3e1b12e6	0.15143928
188	0x3f12ebd4	0.57391095
189	0x3fa846fb	1.3146662
190	0x3fe45807	1.7839364
191	0x3d53fedc	0.051756725
192	0x3fa8c95d	1.3186451
193	0xbe210f61	-0.15728523
194	0x3f8b9cd2	1.0907233
195	0xbf059e71	-0.5219489
196	0x3f1d2c85	0.61396056
197	0xbe206b66	-0.15665969
198	0x3f03dac1	0.51505667
199	0xbe968fdb	-0.29406628
200	0xbe44fe9b	-0.1923775
201	0x3f7171b1	0.94314104
202	0x3e865ba2	0.26241785
203	0x3fc90feb	1.5707983
204	0x3ef3d0f4	0.47620356
205	0xbf1b9012	-0.6076671
206	0xbf68e9b1	-0.90981585
207	0x3f486a12	0.7828685
208	0x3fcf6c65	1.6204954
209	0x3e1f8acb	0.15580289
210	0xbf75ea68	-0.960608
211	0x3d4bf4cd	0.049794007
212	0x3e2d55cd	0.16927262
213	0x3f88b995	1.0681635
214	0x3fdca4be	1.7237775
215	0xbfc8ad47	-1.567788
216	0x3d0063e1	0.031345252
217	0xbb9ec943	-0.0048457696
218	0x3f60b7fe	0.8778075
219	0xc01f3f93	-2.4882553
220	0xbe9da936	-0.3079316
221	0x3d116f20	0.035506368
222	0xbf5f923f	-0.8733253
223	0x3ee9e14a	0.45679694
224	0x3e81e074	0.25366557
225	0xbfeb0203	-1.8359989
226	0xbf80cddb	-1.0062822
227	0xbe4b27f1	-0.19839455
228	0xbecfcec4	-0.40587437
229	0x3f3e6278	0.74369
230	0xbfad21a7	-1.3525895
231	0xbf378fa5	-0.7170356
232	0xbf86d380	-1.0533295
233	0x3f850c22	1.0394328
234	0xbe4d048c	-0.20021266
235	0x3f6cad87	0.9245228
236	0xbec57a56	-0.38569897
237	0x3f6a89e7	0.9161667
238	0x3eeb31be	0.45936388
239	0x3f7bcbb1	0.98357683
240	0x3f8146d3	1.0099739
241	0xbf834af7	-1.0257252
242	0x3ec55087	0.38538
243	0x3e336098	0.17517316
244	0x3fd63f5e	1.6738088
245	0x3e52c304	0.20582205
246	0x3eada84c	0.33917463
247	0x3d301aeb	0.04299442
248	0xbea14c56	-0.31503552
249	0xbf2ba934	-0.6705506
250	0xbf870057	-1.0546979
251	0xbeb6c922	-0.35700327
252	0xbdcb6f8d	-0.09933386
253	0x3f54bfc0	0.8310509
254	0xbc70a79c	-0.014688399
255	0x3fbd749a	1.4801209

lstm.bias_ih_l0_reverse f4 [80]
0	0xbee8bf17	-0.4545829
1	0xbe34a536	-0.17641148
2	0xbe62001e	-0.22070357
3	0xbed156ea	-0.40886623
4	0xbf4a64c7	-0.79060024
5	0xbefddc04	-0.4958192
6	0xbf5ce326	-0.862841
7	0x3e1b97fb	0.15194695
8	0xbf5ac286	-0.8545307
9	0xbf31b9c5	-0.69424087
10	0xbf2306f0	-0.6368246
11	0xbe3c3615	-0.18380006
12	0xbf1620e4	-0.5864394
13	0xbf3aed0c	-0.73017955
14	0xbeab978a	-0.33514053
15	0xbed45d91	-0.41477636
16	0xbf3a629d	-0.7280672
17	0xbef6058e	-0.48051113
18	0xbf9f65a5	-1.2452894
19	0xbda06f6a	-0.078337505
20	0x3ec434bc	0.38321483
21	0xbe22e405	-0.15907295
22	0x3eaa99b8	0.33320403
23	0x3ee78cd8	0.45224643
24	0x3f38f8ab	0.7225444
25	0x3f359e6e	0.7094487
26	0x3ece3b62	0.4027968
27	0x3e56ca3e	0.20975587
28	0x3f94eae6	1.1634185
29	0x3e901ab8	0.28145385
30	0x3dec9c92	0.11553301
31	0x3ed7c5ec	0.4214319
32	0x3f0606d4	0.5235417
33	0x3f47e9cc	0.7809112
34	0x3e11f182	0.14252284
35	0xbebaf1f0	-0.3651271
36	0x3ee1de1f	0.44114777
37	0x3f1f56b4	0.62241673
38	0x3f8f5f2d	1.120092
39	0x3eca5925	0.39521137
40	0x3dda8b91	0.106711514
41	0xbd1eb972	-0.038751073
42	0xbe94befc	-0.2905196
43	0xbe2b2741	-0.16714193
44	0xbc9bd647	-0.019023074
45	0x3d988162	0.07446553
46	0x3d4f9b32	0.050685115
47	0xbf002f92	-0.50072587
48	0x3e8a8eaf	0.27061984
49	0xbea2968b	-0.3175548
50	0x3cdf9483	0.027292496
51	0x3e5b89a1	0.2143922
52	0xbe5754c7	-0.21028434
53	0x3ca91ed7	0.020644588
54	0xbe897a92	-0.26851326
55	0x3cfe5c9c	0.031050019
56	0xbd952925	-0.07283238
57	0xbe79b564	-0.24385601
58	0x3e0ab550	0.13545728
59	0xbe065f74	-0.1312235
60	0xbe4e4fe5	-0.20147665
61	0xbe46fff8	-0.19433582
62	0xbe82ab8f	-0.25521514
63	0xbd88f751	-0.06687797
64	0xbe30ae47	-0.17253982
65	0xbe737e09	-0.23778547
66	0xbeb7f0f1	-0.3592601
67	0xbcdcd696	-0.026957791
68	0x3e1ed011	0.15509059
69	0xbe6c4160	-0.23071814
70	0x3c9fa099	0.019485759
71	0x3e319539	0.1734208
72	0xbdffed6f	-0.12496459
73	0x3ee9ab0f	0.4563832
74	0xbf127e99	-0.5722442
75	0x3c5c4266	0.013443565
76	0xbee54ba7	-0.4478428
77	0x3e82c950	0.25544214
78	0x3e46f00a	0.19427505
79	0x3c28a5cd	0.010293436

lstm.bias_hh_l0_reverse f4 [80]
0	0xbe8c385d	-0.27386752
1	0xbec406ba	-0.38286382
2	0xbe946b60	-0.2898817
3	0xbe9d304d	-0.30700913
4	0xbf34532a	-0.704394
5	0xbee33815	-0.44378725
6	0xbf8e58ef	-1.112089
7	0x3e78855c	0.24269623
8	0xbf442761	-0.7662259
9	0xbf639fe1	-0.8891583
10	0xbee4e4b9	-0.44705752
11	0xbe6f40bc	-0.23364538
12	0xbee017ed	-0.43768254
13	0xbf65cbe1	-0.8976422
14	0xbeaa830f	-0.33303115
15	0xbdcba782	-0.09944059
16	0xbf87bb45	-1.0604025
17	0xbee94188	-0.4555781
18	0xbf91fdee	-1.1405618
19	0xbe0474ed	-0.12935229
20	0x3da85f76	0.08221333
21	0xbe18e9ab	-0.14932887
22	0x3ead520d	0.33851662
23	0x3f064121	0.5244313
24	0x3eb84bcc	0.35995328
25	0x3ed08d1d	0.4073266
26	0x3ef97063	0.48718557
27	0x3ea36ccb	0.3191894
28	0x3f6b647f	0.9195022
29	0x3e5a5145	0.21320064
30	0xbcfe7c76	-0.031065207
31	0x3ef91e89	0.4865611
32	0x3efa233a	0.48855
33	0x3f49b9cb	0.7879912
34	0xbdd8a66f	-0.1057862
35	0x3d174771	0.036933366
36	0x3f134ee9	0.5754228
37	0x3f0a6a83	0.54068774
38	0x3f3d4fd5	0.7394994
39	0x3e49acca	0.1969482
40	0x3dc8d4b2	0.098061934
41	0xbd7fa781	-0.062415604
42	0xbeada948	-0.33918214
43	0x3dba54a0	0.09098172
44	0xbd71eb9c	-0.059062585
45	0x3cb1e98f	0.021717815
46	0x3a9d52c9	0.0012002821
47	0xbee088ef	-0.43854472
48	0x3e5fc511	0.21852519
49	0xbe8e66c6	-0.27812785
50	0xbdb45e5c	-0.0880706
51	0x3d459d6f	0.048245843
52	0xbe52bbc5	-0.20579441
53	0xbdbb108f	-0.09134018
54	0xbe9fef23	-0.31237134
55	0x3e1bd9ae	0.15219757
56	0x3d3000ff	0.0429697
57	0xbe00a374	-0.12562352
58	0xbda9d21f	-0.082920305
59	0xbe3198df	-0.17343472
60	0xbe65fab0	-0.22458911
61	0xbe98d8af	-0.29852816
62	0xbe05a16c	-0.13049859
63	0x3be52f77	0.0069941836
64	0xbe3fba22	-0.18723348
65	0x3d7977e1	0.06090534
66	0xbe83f26d	-0.25770894
67	0x3e1c48e3	0.15262179
68	0x3d873bd8	0.06603211
69	0xbe0a5b0e	-0.13511297
70	0xbd885055	-0.06655947
71	0xbd7befe9	-0.061508093
72	0xbeb63ce6	-0.35593337
73	0x3cfe123c	0.031014554
74	0xbe811dcd	-0.2521805
75	0xbc1e2c0b	-0.009654055
76	0xbe3737e2	-0.17892411
77	0x3e4f1c15	0.20225556
78	0x3e28089c	0.16409534
79	0xbd4acb8a	-0.049510516

lstm.weight_ih_l1 f4 [80, 40]
0	0x3f409a75	0.7523568
1	0x3f4d08f7	0.80091804
2	0x3e9d3ef8	0.30712104
3	0x3effbe27	0.49949762
4	0x3f2b5424	0.66925263
5	0xc00da596	-2.2132316
6	0xbd24057e	-0.0400443
7	0xbf89bb3b	-1.0760263
8	0xbf0edc42	-0.55804837
9	0x3e9084cb	0.28226313
10	0xbf1ab585	-0.60433227
11	0xbf3150ca	-0.692639
12	0x3e96c744	0.29448903
13	0x3f4c7706	0.79869115
14	0x3d5ae631	0.053442184
15	0xbf262708	-0.64903307
16	0x3f2ac6b5	0.6670945
17	0xbeff859b	-0.4990662
18	0xbe8e5576	-0.27799577
19	0xbf651bc5	-0.894955
20	0xbf7077d7	-0.9393286
21	0xbf22f0c2	-0.6364862
22	0x3fbb8643	1.4650348
23	0xbf5db70f	-0.8660745
24	0xbf0ab4ac	-0.54181933
25	0xbf05ea83	-0.5231096
26	0xbd1f3157	-0.038865414
27	0x3ef3c97b	0.47614655
28	0xbd847f1e	-0.06469558
29	0xbf03adfb	-0.5143735
30	0xbeeb464a	-0.45952064
31	0xbf7d70b2	-0.99000084
32	0x400310a5	2.047891
33	0xbfb495d9	-1.410823
34	0x3fcfe694	1.6242242
35	0xbec2786d	-0.37982503
36	0xbfcc8d65	-1.598065
37	0xbf28a16c	-0.6587131
38	0x3ec68919	0.38776472
39	0x3f845971	1.0339795
40	0x3fbf8883	1.4963535
41	0xbfa39f88	-1.278306
42	0xbe1ffa86	-0.15622911
43	0x3f8eb366	1.1148498
44	0xbf0d98b5	-0.5531114
45	0xbfee02cc	-1.8594604
46	0x3f4a8439	0.79108006
47	0xbf108ce0	-0.5646496
48	0x3e66009c	0.2246117
49	0x3dfc9f52	0.123350754
50	0x3ee34ed5	0.44396082
51	0x3f7b2746	0.981068
52	0xbe740237	-0.2382897
53	0xbd6d25f6	-0.05789753
54	0x3ea13dcc	0.3149246
55	0x3ecf31bf	0.4046764
56	0x3f07b962	0.53017247
57	0xbe8b4d4e	-0.27207416
58	0x3e56734d	0.20942421
59	0x3ed22205	0.4104158
60	0xbecb8ba8	-0.39754987
61	0x3f3460d2	0.70460236
62	0x3efc53ca	0.49282676
63	0xbe1ec39a	-0.15504304
64	0xbea49521	-0.32145026
65	0x3f2e8358	0.68169165
66	0xbeb39d2b	-0.35080847
67	0x3fa85c73	1.3153213
68	0xbf18ce59	-0.5968986
69	0x3f06ce75	0.5265878
70	0xbf116631	-0.56796557
71	0xbeac1596	-0.3361022
72	0xbf264d81	-0.6496201
73	0x3f17fb75	0.5936807
74	0x3ffde74d	1.9836212
75	0xbf9951a9	-1.1978046
76	0xbfdd5ef7	-1.7294606
77	0xbf0c1727	-0.5472283
78	0xbdb2eeb9	-0.08736939
79	0x3f9c464e	1.2208955
80	0x3f23cbd7	0.6398291
81	0x3eafd0f4	0.34339106
82	0x3ef2a20c	0.47389257
83	0xbc5ebdea	-0.013595084
84	0xbd56a69d	-0.05240499
85	0xbff57282	-1.917557
86	0x3ed49e32	0.41526943
87	0xbfe00f49	-1.7504665
88	0x3ebf67ec	0.37383974
89	0xbf80b61c	-1.0055575
90	0xbf159418	-0.584291
91	0xbce1370b	-0.027492067
92	0x3f5e80e9	0.8691545
93	0x3e223c7b	0.15843384
94	0x3e71aee5	0.23601873
95	0x3d29f391	0.04149205
96	0xbf4907e7	-0.78527683
97	0xbf351e0f	-0.7074899
98	0x3ec1eb57	0.37874863
99	0xbd98568d	-0.07438383
100	0xbf282356	-0.6567892
101	0x3f189c0a	0.59613097
102	0x400db6c1	2.2142794
103	0x3f305a9a	0.68888247
104	0xbd775785	-0.0603862
105	0xbef83579	-0.48478296
106	0xbf342eae	-0.7038373
107	0x40120266	2.2813964
108	0xbe36a325	-0.17835672
109	0x3f857eee	1.0429361
110	0xbf7d4aa9	-0.9894205
111	0xbfd302c5	-1.648522
112	0x3f9b2713	1.21213
113	0x3f0851aa	0.5324961
114	0x3fcbb595	1.591479
115	0xbff56108	-1.9170237
116	0xbfb5f726	-1.4216049
117	0xbf08c6ea	-0.5342852
118	0x3f078339	0.52934605
119	0x3d83f1d2	0.06442608
120	0x3f4916af	0.7855024
121	0x3fcc3bec	1.5955787
122	0x3f9e70b6	1.2378147
123	0xbd1c090f	-0.038094576
124	0x3e764140	0.24048328
125	0xbfe9eedc	-1.8276019
126	0xbdefdd19	-0.11712093
127	0xbf6d1cca	-0.92622054
128	0x3f9fd9cd	1.2488343
129	0xbf075855	-0.5286916
130	0x3eea3f08	0.45751214
131	0xb9b32379	-0.0003416797
132	0x3bc2a80b	0.0059404424
133	0x3ec0b50b	0.37638125
134	0x3e2bb5c0	0.16768551
135	0xbdc6aa3e	-0.0970044
136	0xbeb71dce	-0.35764927
137	0xbeb92756	-0.36162823
138	0x3ec65b88	0.38741708
139	0xbe9bad2b	-0.30405554
140	0xbe9d93d8	-0.30776858
141	0x3f635641	0.8880349
142	0x3fb70d03	1.4300846
143	0x3ee95380	0.45571518
144	0xbdc1ca71	-0.09462441
145	0xbe7f86ac	-0.24953717
146	0xbf31e4b3	-0.6948959
147	0x40099556	2.1497397
148	0x3e93d7aa	0.28875476
149	0x3f277e74	0.6542733
150	0xbf50249e	-0.81305873
151	0xbfa5b998	-1.2947264
152	0x3f127543	0.5721018
153	0x3e9729f1	0.29524186
154	0x3f716ec7	0.9430966
155	0xbf5773aa	-0.84160864
156	0xbf5e3632	-0.86801445
157	0xbf029538	-0.5100894
158	0xbe16816d	-0.1469781
159	0x3e29f748	0.16598237
160	0xbf1149b6	-0.567531
161	0x3e774a9d	0.24149556
162	0xbe4e77c1	-0.2016287
163	0xbcc91827	-0.02454765
164	0x3fa77233	1.3081726
165	0xbce0fc3f	-0.02746403
166	0x3f0a64cf	0.5406007
167	0x3f1791ff	0.5920715
168	0xbf8f7fe3	-1.1210903
169	0x3f803fb8	1.0019445
170	0x3ea7b946	0.3275854
171	0xbf8597a7	-1.0436906
172	0xbeebc592	-0.46049172
173	0x3f590fbb	0.8478963
174	0x3dea0276	0.11426251
175	0x3f4d5912	0.80214036
176	0xbf9c9f02	-1.2236025
177	0x3f714fe0	0.94262505
178	0xbdfd86f9	-0.123792596
179	0xbfcc2a76	-1.5950458
180	0xbf2fd8f1	-0.686904
181	0x3ea15eba	0.31517583
182	0x3ec801f6	0.39063996
183	0xbf9bdc65	-1.2176634
184	0xbf4b2c60	-0.79364586
185	0x3f460993	0.7735836
186	0x3e176f97	0.14788662
187	0x3f3294a5	0.69758064
188	0xbfb5d6b2	-1.4206145
189	0xbe0ea1dd	-0.13928933
190	0xc01b9590	-2.4310036
191	0x3dd60096	0.104493305
192	0xbd69488a	-0.056953944
193	0xbd8e1987	-0.06938463
194	0xbd14fbec	-0.036373064
195	0x3f97d1c2	1.1860888
196	0x3fad0285	1.3516394
197	0x3f9d21bb	1.2275919
198	0xbf78606d	-0.97022134
199	0x3f204bf3	0.6261589
200	0x3e0d1f86	0.13781556
201	0xbd03d173	-0.03218217
202	0x3f3ed536	0.74544084
203	0x3fa10baa	1.2581685
204	0x3f2db236	0.67850053
205	0xc005cf87	-2.0907915
206	0x3f1b4670	0.60654354
207	0x3f52ed8c	0.8239372
208	0x3f8e9a01	1.1140748
209	0xbf800b30	-1.0003414
210	0x3eb57418	0.35440135
211	0x3efcfb90	0.49410677
212	0x3f876d69	1.0580264
213	0x3dd4082c	0.10353121
214	0x3f383d45	0.7196849
215	0x3e3cf64f	0.18453334
216	0xbfd75dac	-1.6825461
217	0xbf42b6bf	-0.760601
218	0x4011890f	2.2739904
219	0xbf1f829d	-0.62308675
220	0x3f3a5561	0.7278653
221	0x3f97ff14	1.1874719
222	0x3e9ea21d	0.30983058
223	0xbe03b6e4	-0.12862736
224	0xbf1ab887	-0.60437816
225	0x3ec9a3cf	0.3938279
226	0x3d189f39	0.03726122
227	0x3f036e4f	0.5134019
228	0xbf346c60	-0.7047787
229	0x3f756001	0.95849615
230	0xbfee9b71	-1.8641187
231	0xb987a0b9	-0.00025868954
232	0x3fbb95a9	1.4655048
233	0xbdb3b3bf	-0.08774518
234	0x3f81f851	1.0153905
235	0xbf17d7db	-0.59313744
236	0xbe62b591	-0.22139575
237	0x3f01294d	0.50453645
238	0x3ee956a1	0.45573905
239	0x3f0562f6	0.5210413
240	0x3f8b119c	1.0864749
241	0xbf1c096c	-0.60951877
242	0x3ec56765	0.38555446
243	0xbe86fe9a	-0.2636612
244	0xbf1deb55	-0.61687213
245	0xc0143dbe	-2.3162684
246	0x3fa30314	1.2735314
247	0xbf4ac2c0	-0.79203415
248	0x3fb1350f	1.3844317
249	0x3f34ce59	0.7062736
250	0x3df657a3	0.12028434
251	0xbe805225	-0.2506267
252	0x3f9cc91f	1.2248877
253	0x3eb8dca0	0.36105824
254	0xbef6e959	-0.48224905
255	0xbee54e03	-0.4478608

lstm.weight_hh_l1 f4 [80, 20]
0	0x3e766ea9	0.24065651
1	0xbeb880dc	-0.36035812
2	0x3f0afb79	0.54289967
3	0xbd7d2bf8	-0.06180951
4	0x3fd56819	1.6672393
5	0xbee6d63d	-0.45085326
6	0xbde0a9bc	-0.10969874
7	0x3ed3b17e	0.41346353
8	0xbcd275b0	-0.025690883
9	0x3f62c5e2	0.88583195
10	0x3ed24e36	0.41075295
11	0x3ada83e6	0.0016671389
12	0xbe7dccfa	-0.24785224
13	0x3ebf728e	0.37392086
14	0x3f20350f	0.6258096
15	0x3fd0bfed	1.6308571
16	0x3f2e94c6	0.6819576
17	0xbfae3568	-1.3610048
18	0xbe895b72	-0.2682758
19	0xbfa18b32	-1.2620604
20	0x3f540b3a	0.8282963
21	0x3ceb95e8	0.028758004
22	0x3f074687	0.5284199
23	0xbc709c59	-0.014685714
24	0x3f2cdde1	0.6752606
25	0x3f40fa43	0.7538187
26	0x3d8d1198	0.06888121
27	0x3e0f8244	0.14014536
28	0x3f52f227	0.82400745
29	0xbf6b1eda	-0.9184395
30	0x3f4f9b22	0.8109609
31	0xbd25daac	-0.040491745
32	0xbd2fc94a	-0.042916574
33	0x3fce8d3f	1.6136855
34	0x3e0fb6c1	0.14034559
35	0xbe5b39a8	-0.21408713
36	0x3ee097f4	0.4386593
37	0x3ec01507	0.37516043
38	0xbd66afd6	-0.056320034
39	0xbe2b0eb8	-0.16704834
40	0x3f2f4c86	0.6847614
41	0xbf13b9c8	-0.57705355
42	0x3d576112	0.052582808
43	0x3e81f30b	0.2538074
44	0x3e8d12c5	0.27553383
45	0x3c5cc9b8	0.013475828
46	0xbd258445	-0.040409345
47	0x3fac47cd	1.3459412
48	0xbc92f53f	-0.017939208
49	0x3eafb5c3	0.3431836
50	0x3efad78b	0.4899257
51	0x3f079e06	0.529755
52	0xbd913976	-0.07091038
53	0x3eb3e3c4	0.3513471
54	0x3e140968	0.14456713
55	0xbd3e0b8f	-0.046397742
56	0x3d3d3af2	0.046198793
57	0xbf021db9	-0.50826603
58	0xbf00724b	-0.501744
59	0xbeff2163	-0.4983016
60	0x3e7b4b55	0.24540456
61	0xbdeb64bf	-0.11493825
62	0x3b025a7d	0.001989036
63	0xbf014076	-0.50488985
64	0xbef905a0	-0.48637104
65	0x3e357828	0.17721617
66	0x3da2d3ea	0.07950576
67	0x3fdc3d3e	1.720619
68	0x3f003e47	0.5009503
69	0x3d1ecaaa	0.038767494
70	0x3e4c1917	0.19931446
71	0x3f0ec653	0.5577137
72	0xbdb52904	-0.08845714
73	0x3d852836	0.0650181
74	0xbd2660ac	-0.040619537
75	0x3e474e1a	0.19463387
76	0x3ebb56f0	0.36589766
77	0x3b1cde3d	0.0023936175
78	0x3d1a6869	0.03769723
79	0xbeb94c29	-0.36190918
80	0x3f0ebd00	0.5575714
81	0xbf6efd5a	-0.93355334
82	0xbc24da3f	-0.0100618
83	0xbec28d1a	-0.37998277
84	0x3e209600	0.1568222
85	0x3f201cd4	0.6254399
86	0xbfaf5668	-1.3698244
87	0xbf8786bf	-1.0587996
88	0xbf4bfa70	-0.7967901
89	0xbefe4d25	-0.49668232
90	0xbe12918c	-0.14313334
91	0x3f33785e	0.7010554
92	0x3ee34a4c	0.44392622
93	0x3e10a507	0.14125453
94	0x3ef81654	0.48454535
95	0x3fa2795a	1.2693284
96	0x3e79ae58	0.24382913
97	0xbf43d28b	-0.7649314
98	0x3fe15d46	1.760659
99	0xbf29f32d	-0.6638668
100	0x3f91ebb5	1.1400057
101	0xbfa683a1	-1.300892
102	0x3ef6c6b1	0.48198465
103	0xbd9a47b0	-0.075332046
104	0xbf85036a	-1.0391667
105	0x3eab907a	0.33508664
106	0xbf554f28	-0.8332391
107	0x3ed6343e	0.41836733
108	0xbfbc1427	-1.469365
109	0xc00608b1	-2.0942805
110	0x3f2c5e0e	0.67331016
111	0x3f58c0cd	0.8466919
112	0xbd5c2cac	-0.05375354
113	0x3fadc6ed	1.3576332
114	0x3f284290	0.65726566
115	0xbf39ecbe	-0.72626865
116	0x3ec72a8f	0.38899657
117	0xbd052014	-0.032501295
118	0x3f533ef3	0.8251793
119	0x3d746119	0.059662912
120	0x3f792ae2	0.9733106
121	0xbf5c3268	-0.86014414
122	0xbed55832	-0.4166885
123	0xbf02279e	-0.508417
124	0xbeb5e284	-0.3552438
125	0x3f68d1ee	0.9094533
126	0xbe548d73	-0.20757084
127	0xbf2e89b1	-0.6817885
128	0xbeb7aee6	-0.35875624
129	0x3e0d8b4e	0.13822672
130	0x3e80435e	0.25051397
131	0x3ebbfa4b	0.36714396
132	0x3d64475f	0.055732127
133	0x3f9dee5c	1.2338367
134	0x3d9c775c	0.076399535
135	0x3fe45bb2	1.7840483
136	0xbf30199f	-0.68789095
137	0xbf650265	-0.8945678
138	0x3fda5b46	1.7059104
139	0xbd8462bd	-0.06464145
140	0x3ea77e3f	0.32713506
141	0xbf95a123	-1.16898
142	0x3e362241	0.17786504
143	0x3ee62aa7	0.44954416
144	0xbfa9d924	-1.3269391
145	0xbfed5015	-1.8540064
146	0xbecfe5f3	-0.40605125
147	0x3f1a346a	0.6023623
148	0xbf0f56c1	-0.5599175
149	0xbf221f6a	-0.63329184
150	0xbeaba229	-0.33522156
151	0x3d3121b3	0.04324503
152	0xbe3bb035	-0.18328936
153	0x3f55c9d9	0.8351112
154	0xbd4634e7	-0.048390295
155	0xbf24f935	-0.6444276
156	0x3ea2f9a4	0.31831086
157	0xbdb1e412	-0.08686079
158	0xc04ef36a	-3.2336068
159	0xbf919212	-1.1372702
160	0x3f04f844	0.51941323
161	0xbe5bdcf5	-0.21471007
162	0x3e298350	0.16553998
163	0xbe68e2bb	-0.22742741
164	0x3ea1d886	0.31610507
165	0x3dcb14f8	0.09916109
166	0xbf2b1adf	-0.6683788
167	0x3f0226c5	0.5084041
168	0xbf3c3901	-0.7352448
169	0x3e423d17	0.18968616
170	0xbbd40dcc	-0.0064713713
171	0x3e5e9c10	0.2173922
172	0xbe99e8be	-0.3006038
173	0xbde944eb	-0.11390098
174	0x3dce574f	0.100752465
175	0x3fab4442	1.3380206
176	0x3e3b1fd7	0.18273865
177	0xbf8bff8b	-1.093736
178	0xbe1aa3e7	-0.15101586
179	0xbeec002a	-0.46093875
180	0x3f4d2380	0.80132294
181	0xbea93815	-0.330506
182	0xbd53ff72	-0.051757284
183	0xbd273589	-0.04082254
184	0xbef1d9f9	-0.47236612
185	0x3f3e2952	0.742818
186	0x3f8874d6	1.0660655
187	0xbf282781	-0.6568528
188	0xbe400f04	-0.18755728
189	0x3ec170ad	0.37781277
190	0x3b6244da	0.0034525902
191	0x3f7a8d76	0.978721
192	0xbe04a8ce	-0.12955019
193	0x3cdb6218	0.026780173
194	0xbc4e48da	-0.012590611
195	0x3f4e343e	0.80548465
196	0xbee6ca5c	-0.45076263
197	0x3c0af687	0.008481628
198	0xbeaba939	-0.33527544
199	0xbe919b70	-0.28438902
200	0x3f16f7c3	0.58971804
201	0xbe2cc75c	-0.16872925
202	0x3df7332d	0.12070308
203	0x3b59aabb	0.0033213336
204	0x3d9f32c2	0.07773353
205	0xbeb86be0	-0.36019802
206	0xbe8ac46c	-0.27102983
207	0x3ffa3d3a	1.9549935
208	0x3ec8daca	0.39229423
209	0xbddc1d45	-0.1074777
210	0x3f31291b	0.69203347
211	0x3ee3373b	0.44378075
212	0xbd1c89a4	-0.0382172
213	0x3ef687c0	0.48150444
214	0x3ed5489b	0.41656956
215	0xbcd7a7dc	-0.026325159
216	0x3e484539	0.19557656
217	0x3e0f71db	0.14008276
218	0x3e147f73	0.14501743
219	0x3d5d1ff3	0.053985547
220	0xbeaf0b33	-0.34188232
221	0x3ed19d2e	0.4094023
222	0x3ebff830	0.3749404
223	0xbe1f740a	-0.15571609
224	0x3f920f83	1.1410984
225	0x3d88ab87	0.06673341
226	0x3fc6b75b	1.5524706
227	0xbfbca79a	-1.4738648
228	0x3fe1830c	1.7618117
229	0x402f3c11	2.7380412
230	0x3eea95e4	0.45817482
231	0x3dacabbb	0.084311925
232	0x3ec2cea6	0.38048285
233	0x3e5f0cb1	0.21782185
234	0x3f2f31a0	0.68435097
235	0xbee04f8d	-0.43810692
236	0x3ebf43b5	0.37356344
237	0xbfefe8fc	-1.8742976
238	0x3d4ba9d8	0.049722522
239	0xbef824cd	-0.48465577
240	0x3e380b49	0.17973055
241	0xbcf426a8	-0.029803589
242	0xbed2f713	-0.41204128
243	0x3dc650c8	0.096833766
244	0xbce06d33	-0.02739582
245	0x3ef6c365	0.4819595
246	0xbaa8c61f	-0.0012876427
247	0x3f864981	1.0491182
248	0x3e7927ea	0.24331632
249	0x3da90252	0.08252396
250	0x3e223f2a	0.15844408
251	0x3f51a065	0.8188537
252	0xbe367718	-0.17818868
253	0xbce83623	-0.028346127
254	0x3b26c655	0.0025447805
255	0x3e12bb60	0.1432929

lstm.bias_ih_l1 f4 [80]
0	0xbfaf5eb2	-1.3700774
1	0xbf9a7f51	-1.2070104
2	0xc023621b	-2.552863
3	0xc0412ab7	-3.018232
4	0xbf9bb458	-1.2164412
5	0xbfd1208b	-1.6338056
6	0xbfcf2bc9	-1.6185237
7	0xbf4100a8	-0.75391626
8	0xbfe7e1f6	-1.8115833
9	0xbfe0f652	-1.7575171
10	0xc05d4a6a	-3.4576669
11	0xbf7d00b9	-0.9882923
12	0xc050f0b1	-3.2646906
13	0xbfe60066	-1.7968872
14	0xc04a2ecf	-3.159107
15	0xbfd09636	-1.6295841
16	0xc04670ed	-3.1006424
17	0xbf85dddd	-1.0458332
18	0xbfce8cfc	-1.6136775
19	0xc0550150	-3.328205
20	0xbeaea250	-0.3410821
21	0xbfcd051f	-1.6017188
22	0xbfa1133e	-1.2583997
23	0xbfaea8ea	-1.3645298
24	0xbdbdd673	-0.092694186
25	0xbe843c14	-0.25827086
26	0xc00f5f25	-2.2401822
27	0x3f43b943	0.7645456
28	0xc032c945	-2.7935345
29	0xc01eebaf	-2.483135
30	0xbf89eedc	-1.0776019
31	0xbe39144a	-0.18074146
32	0xbfee4db7	-1.8617467
33	0xbfa21ce8	-1.2665071
34	0xbfafb51a	-1.3727143
35	0xbfaf3c37	-1.3690251
36	0xbfb5c6c8	-1.4201288
37	0xbe87b1d6	-0.26502866
38	0xbf601ae3	-0.87541026
39	0xbf9e1df5	-1.2352892
40	0x3b43fd5e	0.0029905657
41	0x3ea0820a	0.31349212
42	0x3d5cdff4	0.053924516
43	0xbe26126c	-0.16217965
44	0xbd92129e	-0.07132457
45	0xbda02d5e	-0.07821153
46	0xbd5e5e9a	-0.054289438
47	0xbdcaadb6	-0.09896414
48	0xbd79d868	-0.060997397
49	0xbde211f1	-0.11038578
50	0x3d5da1fa	0.05410955
51	0x3e7a0673	0.24416523
52	0xbda4c8ff	-0.080461495
53	0xbe481d26	-0.19542369
54	0xbddc9d3f	-0.1077218
55	0xbdccab35	-0.09993593
56	0xbc3387a2	-0.01095763
57	0xbd181c4e	-0.03713637
58	0xbc51785d	-0.0127850445
59	0xbdf328cd	-0.118730165
60	0xbfb62161	-1.4228936
61	0xbfbf9ed5	-1.4970347
62	0xc024f486	-2.5774245
63	0xc02c13b1	-2.6887019
64	0xbfd36fac	-1.6518455
65	0xbfa8b18e	-1.3179185
66	0xbfce63be	-1.6124189
67	0xbfdd2b11	-1.7278768
68	0xbfe098fb	-1.7546686
69	0xbfd1982e	-1.6374567
70	0xc04480ca	-3.0703607
71	0xbfb022f3	-1.3760666
72	0xc0538c7c	-3.3054495
73	0xbfd03c1f	-1.6268348
74	0xc037a78f	-2.869602
75	0xbfb3a46c	-1.4034553
76	0xc035c28e	-2.8399997
77	0xbfa7424a	-1.3067105
78	0xbfac0548	-1.3439112
79	0xc04c5676	-3.1927772
