sparrow/data/networks/scaling_exponent/scaling_exponent_network_v1.pt (torch, 150115 bytes, 33 tensors)

lstm.weight_ih_l0 f4 [80, 20]
-1.0574608 -0.5578283 0.15122378 -1.0831219 0.15915272 -0.050962087 -0.44161883 0.33021352
-0.4834187 1.476407 -0.35102677 -1.1922247 1.0450817 -2.042825 -0.7422945 -0.038212553
0.34613666 -0.35197765 0.23939206 0.61131084 -1.0096895 -0.65639627 0.7352539 -0.10299762
0.44775018 0.49170157 -0.03243969 0.23216167 0.62092197 -0.7167513 -0.455698 -1.3590018
-1.3860863 -2.1536536 0.6289779 -0.08209413 -0.05690226 0.03703604 -0.6584187 0.64915305
0.037298143 1.414527 -0.0017544266 0.12998286 -0.6056244 0.061801344 -0.37349424 1.0896561
-0.4282648 0.81835127 2.0807788 0.8872215 0.48825532 0.018979866 -0.12440162 -0.30138662
0.037744105 -1.2861407 -0.6225594 -0.6756966 0.3373733 -0.30286637 0.0505585 0.8331726
-0.4878707 -1.3694196 -1.1583066 0.26476908 0.6517659 -0.5694111 0.15957886 -1.2288514
-0.5430913 -2.6975951 -0.2647256 -0.8393782 -1.043426 -0.13245025 -0.6706986 0.62124884
0.011451964 0.6133479 -1.3805054 0.14015594 -0.12075167 -0.6974601 0.11988905 1.2462338
-1.0671719 -0.035527073 0.42515385 0.35767388 -0.79468906 0.72301805 -0.41727635 -0.84739417
-0.60143644 -0.56767887 0.7891399 0.51222306 -1.9010727 -0.6464477 0.68292046 0.6485735
-2.2418528 -0.9643138 -1.7872474 -1.4078833 -0.80955935 -1.0000708 -1.4442458 -1.2715209
0.12868957 -1.6652534 1.197478 -1.3152117 -1.9287611 0.066258885 0.2860623 -1.0197916
-0.85106814 -0.047915123 -1.2082006 -0.9158413 0.30844286 -1.1456302 0.6910208 0.31363744
0.37702778 0.20537704 0.2740892 -3.0952785 1.2936906 -4.0980396 -0.13966508 -0.500319
-0.16628177 -0.03832983 1.5603338 -0.14068444 0.081554316 0.5836218 -0.29787317 -0.43481043
0.7136736 -1.2890859 -0.94736546 0.23384182 -0.039309435 1.3486913 0.9914878 -0.07123381
0.7752364 0.35644853 -0.94240266 -1.1775085 -0.5556102 -0.61746985 0.751235 1.3761351
0.4449249 0.5564591 -1.4125173 0.16992939 1.1724993 0.5949529 0.42089072 -0.53802884
-1.5779685 0.06581373 0.60158265 -0.18144006 0.64490247 0.32499963 -0.34562838 -1.30522
-0.58961374 -1.3572512 0.6172242 0.55573016 0.040089864 -0.32244805 -2.0434234 0.5173168
-1.5956099 0.12455094 -0.41130215 0.48130757 0.97462124 0.42097396 -1.660033 -1.4601628
-1.7902244 -1.7562906 0.41828075 -2.4514294 0.056403946 -0.04125961 0.07068895 -0.8353452
-0.8791971 0.28680885 -1.259035 0.21498314 0.33896342 -0.90813416 -0.97395825 1.0050867
1.271322 -0.09856591 0.18802996 -0.53112864 1.2670797 -0.7868079 0.8263613 -0.9729835
-0.39063513 0.3762 0.57066387 0.93102014 -0.03387115 0.39249098 -1.7320762 -1.2005597
0.06710735 -0.3630969 -0.2239862 0.3714401 -0.27346233 -0.35448572 -0.06052474 -1.6307148
0.7221561 -2.8951523 -2.3553107 -0.3751592 0.5827951 -0.23232986 1.1399322 0.83237845
0.8914965 -1.1134824 -0.75407594 -1.2816868 -0.33187467 -1.0116453 -0.47548243 1.2471005
-2.0250397 -0.42616177 -0.56961834 -0.33549646 -1.0047523 -1.7826974 0.16738941 0.76732385
00000000: e05a 87bf d6cd 0ebf 68da 1a3e bda3 8abf
00000010: eef8 223e 9fbd 50bd dd1b e2be bf11 a93e
00000020: a882 f7be e8fa bc3f c8b9 b3be d29a 98bf
00000030: 3dc5 853f a5bd 02c0 0307 3ebf c484 1cbd
00000040: d338 b13e 6a36 b4be 3123 753e de7e 1c3f
00000050: 813d 81bf 9609 28bf 9939 3c3f 6bf0 d2bd
00000060: 833f e53e 4fc0 fb3e 7bdf 04bd cabb 6d3e
00000070: bef4 1e3f 037d 37bf 4051 e9be c5f3 adbf
00000080: 476b b1bf 76d5 09c0 b204 213f f820 a8bd
00000090: 5812 69bd 1ab3 173d 218e 28bf e52e 263f
000000a0: f0c5 183d 390f b53f caf4 e5ba 3a1a 053e
000000b0: 330a 1bbf 6823 7d3d a33a bfbe da79 8b3f
000000c0: 8645 dbbe 787f 513f 7b2b 0540 f320 633f
000000d0: 9afc f93e aa7b 9b3c 47c6 febd 594f 9abe
000000e0: 9099 1a3d 42a0 a4bf 0e60 1fbf 74fa 2cbf
000000f0: 31bc ac3e 4d11 9bbe 6e16 4f3d cd4a 553f
00000100: 30ca f9be 2449 afbf 6443 94bf d08f 873e
00000110: 21da 263f edc4 11bf a468 233e 014b 9dbf
00000120: 0808 0bbf 66a5 2cc0 1d8a 87be 7de1 56bf
00000130: fc8e 85bf 0aa1 07be e7b2 2bbf 2a0a 1f3f
00000140: 05a1 3b3c 5e04 1d3f 67b4 b0bf 0a85 0f3e
00000150: a74c f7bd bf8c 32bf 6488 f53d 9784 9f3f
00000160: 1799 88bf d684 11bd c4ad d93e 0821 b73e
00000170: be70 4bbf b617 393f 3fa5 d5be d3ee 58bf
00000180: bdf7 19bf 6753 11bf 1305 4a3f 0d21 033f
00000190: 5a56 f3bf 997d 25bf e0d3 2e3f ea08 263f
000001a0: 847a 0fc0 45dd 76bf 86c4 e4bf 8535 b4bf
000001b0: 483f 4fbf 5202 80bf 0cdd b8bf 32c1 a2bf
000001c0: 33c7 033e 0627 d5bf f646 993f db58 a8bf
000001d0: a5e1 f6bf bdb2 873d c276 923e 8888 82bf
000001e0: 9adf 59bf a642 44bd 51a6 9abf 9374 6abf
000001f0: 39ec 9d3e 03a4 92bf bde6 303f 1695 a03e
00000200: c909 c13e 5c4e 523e 6b55 8c3e 0b19 46c0
00000210: a797 a53f 2423 83c0 5d04 0fbe e814 00bf
00000220: c545 2abe bdff 1cbd 05b9 c73f 950f 10be
00000230: f305 a73d 3d68 153f d582 98be 799f debe
00000240: 50b3 363f c400 a5bf 8b86 72bf 3b74 6f3e
00000250: ee02 21bd eba1 ac3f 25d2 7d3f 08e3 91bd
00000260: e575 463f 6c80 b63e 4d41 71bf 99b8 96bf
00000270: 783c 0ebf 8112 1ebf f050 403f 3225 b03f
00000280: 32cd e33e 1b74 0e3f 5ecd b4bf f801 2e3e
00000290: 7514 963f d54e 183f fd7e d73e 42bc 09bf
000002a0: dffa c9bf 59c9 863d 5201 1a3f 6ccb 39be
000002b0: 5418 253f 5a66 a63e 34f6 b0be 7311 a7bf
000002c0: edf0 16bf 68ba adbf 6802 1e3f 5544 0e3f
000002d0: 4535 243d e917 a5be 73c7 02c0 e06e 043f
000002e0: f23c ccbf 9014 ff3d 3296 d2be f26d f63e
000002f0: c780 793f e689 d73e f67b d4bf 9de6 babf
00000300: 1326 e5bf 21ce e0bf e528 d63e 38e4 1cc0
00000310: d307 673d d6ff 28bd 5ec5 903d 2fd9 55bf
00000320: 1013 61bf 9cd8 923e 0f28 a1bf 8a24 5c3e
00000330: 9d8c ad3e 7b7b 68bf 5455 79bf aea6 803f
00000340: aeba a23f ecdc c9bd ed8a 403e 0cf8 07bf
00000350: ab2f a23f 3e6c 49bf 6a8c 533f 7215 79bf
00000360: 5401 c8be 499d c03e 0717 123f 5657 6e3f
00000370: 7abc 0abd 94f4 c83e acb4 ddbf f1ab 99bf
00000380: 946f 893d d6e7 b9be a35c 65be 662d be3e
00000390: 4103 8cbe 277f b5be cae8 77bd 43bb d0bf
000003a0: 39df 383f 2d4a 39c0 69bd 16c0 de14 c0be
000003b0: 0f32 153f e1e7 6dbe 4ce9 913f c116 553f
000003c0: 1d39 643f 9786 8ebf 1f0b 41bf 500e a4bf
000003d0: 7aeb a9be 987d 81bf 6f72 f3be fda0 9f3f
000003e0: 409a 01c0 e031 dabe 82d2 11bf 31c6 abbe
000003f0: b99b 80bf 6e2f e4bf 2168 2b3e 566f 443f

lstm.weight_hh_l0 f4 [80, 20]
-0.9926275 -0.37888187 -0.29430726 -0.19740441 0.29902926 0.034619376 -0.21189567 -0.34303218
0.14771238 -0.41105393 -0.23765472 -0.44940725 0.34435955 0.18041517 -0.2635451 0.46809933
-1.0587406 0.6156778 0.16620632 -0.3123586 0.059421327 -0.08676854 -0.18706954 0.42158464
-0.24461302 0.039009124 -0.9533863 -0.44381118 -0.27955163 -0.61594224 -0.3482743 -0.51488495
-0.2189015 0.29280695 0.5273549 0.19558224 -0.18753842 -0.57457924 0.82830304 -0.6970494
0.01590878 0.75346833 -1.1491456 0.9087566 -0.35951316 -1.2330302 0.35055456 -0.15415627
-0.1620292 0.21155518 1.3078115 0.68465257 -1.0412033 -0.8947233 -0.39173457 -1.201217
-0.38828278 0.33340582 -0.10432431 -0.37414557 0.33872634 0.68029195 0.10640997 0.14828002
-1.0796803 -1.1852068 -0.79455173 0.05797455 0.13179354 -0.07962735 -1.0963675 -0.7788522
-0.3041468 -0.8541005 -0.20390318 -0.47716525 0.24587694 -1.2920437 -0.49283057 -0.502439
0.90535295 0.7741852 -0.6859915 0.32061228 -0.27712265 -0.052945614 -0.18903339 0.29527426
0.3800391 0.093121074 -0.85723436 -0.59158 -0.18781374 -0.5639494 0.456459 -0.12077844
0.5279356 -0.46385857 -0.41015702 -0.34067085 0.14180662 0.10974654 0.43214643 -0.6846523
-0.12846132 0.048188977 0.19925678 0.2714664 -0.08255357 0.2845423 -0.11202555 -0.018748257
0.32342544 0.37928662 -0.30050159 0.09684699 -0.28816858 0.04785408 0.12371377 -0.13630752
-0.58705115 0.2662587 -0.35758403 0.17331548 0.2467156 -1.0510379 -0.13457471 0.37940553
0.09870344 -0.25132796 0.52716273 0.04728049 -0.057656202 -0.17842588 -0.46612665 0.5204443
-0.19373107 0.13475148 0.019807234 0.09653244 0.6329497 0.10769912 0.6037493 0.17130975
-0.35626817 -0.06005692 0.44281316 0.6642161 1.0311452 0.5702125 0.47135332 0.20171162
0.4519925 -0.6472791 -0.03869594 0.20574893 0.16005819 0.37477648 -0.2473768 0.29023817
-0.2610022 1.4413619 0.096139714 -0.10326342 -0.06648834 -0.43386328 0.8649166 0.58871734
0.48104647 0.67498946 -0.5552892 0.69089615 -0.4192938 -0.37656415 0.17082693 0.6312047
0.2521355 -0.22753562 -0.980972 -0.16562639 -0.19409776 0.01606309 -0.034361128 0.42950016
-0.4140735 0.10408867 0.171325 0.8464357 0.56979823 -0.16279235 -0.5921741 -0.04256279
0.02875367 0.30917677 -0.24604599 -0.18535785 0.15139318 0.42643532 -0.14936 0.3972476
0.100601636 -0.4400487 -0.7725949 0.014127372 -0.1836686 -0.37080997 0.34933165 -0.3610795
0.54250026 0.45943376 0.053671245 0.47076824 -0.23945427 -0.5809538 -0.40363106 -0.43597406
-0.7244848 -0.04853892 0.23576474 0.087992854 -0.79632103 0.2884738 -0.002741445 -0.43744546
0.18933865 -0.6839506 -0.50349355 0.50962794 0.41750258 -0.21202561 0.2747314 -0.6330163
0.47799855 0.24864143 0.71084493 -0.061253354 0.15710151 0.20796421 0.70656765 -0.66015404
0.5347391 0.26103052 -0.65948 -0.6017042 1.1574402 0.19383803 0.12438332 0.1672155
-0.12811965 -0.09332499 -0.08511508 -0.4652141 0.33557707 0.73609734 -0.8630866 -0.5843948
00000000: d61c 7ebf cefc c1be 71af 96be 6224 4abe
00000010: 5d1a 993e 0ccd 0d3d 2efb 58be eaa1 afbe
00000020: ea41 173e a975 d2be c25b 73be b518 e6be
00000030: e54f b03e c1be 383e 62ef 86be b7aa ef3e
00000040: d084 87bf 0f9d 1d3f fd31 2a3e 77ed 9fbe
00000050: c763 733d b4b3 b1bd 288f 3fbe f1d9 d73e
00000060: d67b 7abe 08c8 1f3d 2011 74bf 383b e3be
00000070: 6421 8fbe 64ae 1dbf 0251 b2be 80cf 03bf
00000080: b727 60be cbea 953e bb00 073f b646 483e
00000090: 120a 40be a017 13bf ab0b 543f d471 32bf
000000a0: 2153 823c 4de3 403f 3417 93bf 46a4 683f
000000b0: 1c12 b8be efd3 9dbf e37b b33e 24db 1dbe
000000c0: fcea 25be eca1 583e 5e66 a73f 6445 2f3f
000000d0: 2646 85bf 960c 65bf 6f91 c8be 7bc1 99bf
000000e0: 00cd c6be 2bb4 aa3e fca7 d5bd 0290 bfbe
000000f0: 8a6d ad3e 9d27 2e3f 78ed d93d b8d6 173e
00000100: f732 8abf dbb4 97bf be67 4bbf b976 6d3d
00000110: e3f4 063e aa13 a3bd c555 8cbf dc62 47bf
00000120: 21b9 9bbe 55a6 5abf ffcb 50be 014f f4be
00000130: 2ac7 7b3e b061 a5bf 4a54 fcbe d89f 00bf
00000140: 36c5 673f 0031 463f 249d 2fbf 4b27 a43e
00000150: 05e3 8dbe 80dd 58bd f891 41be 302e 973e
00000160: 7c94 c23e 43b6 be3d b673 5bbf c971 17bf
00000170: 3f52 40be fd5e 10bf feb4 e93e b05a f7bd
00000180: ca26 073f df7e edbe 1a00 d2be 696c aebe
00000190: c135 113e cbc2 e03d 4c42 dd3e 6045 2fbf
000001a0: 5d8b 03be ce61 453d f809 4c3e a5fd 8a3e
000001b0: d911 a9bd 87af 913e a76d e5bd f295 99bc
000001c0: 0598 a53e db31 c23e 58db 99be b757 c63d
000001d0: d58a 93be a402 443d a55d fd3d 3394 0bbe
000001e0: fc48 16bf 0f53 883e 4115 b7be 9d79 313e
000001f0: 04a3 7c3e 6988 86bf f4cd 09be 7141 c23e
00000200: 0725 ca3d 0fae 80be 23f4 063f 30a9 413d
00000210: e928 6cbd 46b5 36be 27a8 eebe d63b 053f
00000220: 7061 46be 4bfc 093e c842 a23c cdb2 c53d
00000230: fe08 223f 5b91 dc3d 508f 1a3f d36b 2f3e
00000240: c868 b6be 3ffe 75bd 68b8 e23e 110a 2a3f
00000250: 91fc 833f 72f9 113f 3955 f13e 7e8d 4e3e
00000260: 906b e73e 15b4 25bf a27f 1ebd d9af 523e
00000270: 4be6 233e b4e2 bf3e 5850 7dbe 199a 943e
00000280: 15a2 85be 8c7e b83f e6e4 c43d c67b d3bd
00000290: 0a2b 88bd 5423 debe 2d6b 5d3f 2eb6 163f
000002a0: b94b f63e 1ccc 2c3f 6f27 0ebf 92de 303f
000002b0: adad d6be 04cd c0be 41ed 2e3e a296 213f
000002c0: e717 813e 19ff 68be fb20 7bbf f799 29be
000002d0: 90c1 46be be96 833c 41be 0cbd 72e7 db3e
000002e0: 7101 d4be 712c d53d d26f 2f3e 03b0 583f
000002f0: 4cde 113f 0ab3 26be b998 17bf 5256 2ebd
00000300: d18c eb3c 6b4c 9e3e 7bf3 7bbe 73ce 3dbe
00000310: d006 1b3e bb55 da3e d4f1 18be 0a64 cb3e
00000320: 3b08 ce3d 104e e1be c8c8 45bf 7e76 673c
00000330: 9f13 3cbe ceda bdbe 99db b23e 6adf b8be
00000340: 4ce1 0a3f e73a eb3e 61d6 5b3d 8908 f13e
00000350: 8033 75be 63b9 14bf bba8 cebe fe37 dfbe
00000360: d677 39bf bfd0 46bd 506c 713e 9935 b43d
00000370: b2db 4bbf d7b2 933e d1a9 33bb daf8 dfbe
00000380: fee1 413e 6317 2fbf f4e4 00bf fa76 023f
00000390: e6c2 d53e 3e1d 59be 98a9 8c3e 5b0d 22bf
000003a0: 3abc f43e dc9b 7e3e eff9 353f cce4 7abd
000003b0: 38df 203e 92f4 543e 9ee1 343f dbff 28bf
000003c0: a9e4 083f cba5 853e aed3 28bf 4909 1abf
000003d0: 0027 943f 7a7d 463e afbc fe3d 8a3a 2b3e
000003e0: cc31 03be 2c21 bfbd d150 aebd 8b30 eebe
000003f0: c2d0 ab3e e070 3c3f 3ef3 5cbf e69a 15bf

lstm.bias_ih_l0 f4 [80]
0.21590652 -0.0029611888 -0.22268887 -0.13037993 -0.19030388 -0.111031994 -0.4228843 -0.31388095
-0.06875597 0.0908383 -0.19103065 -0.24955094 -0.07657185 -0.38060933 -0.040017545 -0.040205598
-0.22030175 -0.59609723 -0.17837189 -0.4883517 -0.045952834 -0.10958584 0.18905063 0.10604463
0.0052343016 0.34283152 0.7424303 0.14686742 0.15770508 -0.02719069 0.7392596 -0.03262082
-0.0014006782 0.18007764 -0.04102582 0.12887433 -0.1900804 0.4063427 -0.005773151 0.47328728
0.032312494 -0.08643118 0.10399435 -0.2517202 0.05137667 -0.012532922 -0.12736641 -0.04601377
0.124176756 0.079348326 0.11050264 -0.28171766 0.10584411 0.1573108 0.13716012 0.056989845
0.116504915 0.10169754 -0.0040892446 -0.2879646 0.0047397395 -0.02323968 -0.025789795 -0.36229244
0.077144384 -0.047341727 0.42177388 -0.23021634 -0.20022145 0.14478365 -0.105461225 -0.10957249
0.030741515 -0.23123097 0.12215688 -0.015872357 0.042210273 -0.01781065 -0.21546817 -0.527033
00000000: 9916 5d3e 8110 42bb 8d08 64be 5182 05be
00000010: 05df 42be be64 e3bd 4a84 d8be 01b5 a0be
00000020: eecf 8cbd 6e09 ba3d 8a9d 43be 488a 7fbe
00000030: b4d1 9cbd 3adf c2be 70e9 23bd a0ae 24bd
00000040: c896 61be d499 18bf 1fa7 36be 3c09 fabe
00000050: 0a39 3cbd 8a6e e0bd 7d96 413e ed2d d93d
00000060: 8184 ab3b 9d87 af3e ea0f 3e3f 6a64 163e
00000070: 717d 213e 03bf debc 1e40 3d3f 699d 05bd
00000080: f696 b7ba 4666 383e b10a 28bd a2f7 033e
00000090: 70a4 42be 260c d03e b32c bdbb b652 f23e
000000a0: 1b5a 043d d502 b1bd fdfa d43d 78e1 80be
000000b0: 5870 523d e356 4dbc 576c 02be ef78 3cbd
000000c0: 6250 fe3d 6081 a23d 354f e23d 4c3d 90be
000000d0: ccc4 d83d 1516 213e b473 0c3e 2f6e 693d
000000e0: 219a ee3d cd46 d03d 12ff 85bb 1970 93be
000000f0: d14f 9b3b 2461 bebc 1f45 d3bc 657e b9be
00000100: e0fd 9d3d 66e9 41bd bff2 d73e d5bd 6bbe
00000110: da06 4dbe 2a42 143e 0efc d7bd 8b67 e0bd
00000120: a1d5 fb3c d0c7 6cbe 632d fa3d bf06 82bc
00000130: aee4 2c3d a4e7 91bc b0a3 5cbe a2eb 06bf

lstm.bias_hh_l0 f4 [80]
0.0053000506 -0.10300382 -0.480014 -0.28230754 0.020852584 -0.15745477 -0.33213806 -0.45840582
0.030595738 -0.2262886 -0.16251694 0.06475838 -0.2180107 -0.34548813 0.016965505 -0.08034827
-0.23907402 -0.6734888 -0.17116451 -0.35308862 -0.3247021 -0.05079546 -0.0856605 -0.17785667
0.006876293 0.16842379 0.56959325 0.31046236 0.25681207 0.15269342 0.50977635 0.005914185
-0.18135922 0.36446145 -0.06929535 0.13915934 0.06327191 0.34859604 -0.20600212 0.7238867
-0.32772326 -0.08808543 0.03419054 0.013183489 0.082978286 0.06843897 -0.07618147 -0.023423985
-0.13214824 -0.20193237 -0.07501043 -0.1633524 0.18475445 0.1767733 0.1252079 0.118452206
0.19334877 0.019381452 0.25900272 -0.19000186 0.3102776 -0.14113827 -0.14961855 -0.13983189
0.06850673 0.15564208 0.1748356 -0.2248794 0.057550233 0.04786986 0.0017984787 0.22839318
-0.094905384 0.049559485 0.18771233 -0.07476752 -0.08063289 0.007927469 -0.040640637 -0.15730901
00000000: 0cac ad3b abf3 d2bd 65c4 f5be 9d8a 90be
00000010: 0ad3 aa3c d33b 21be 000e aabe 2bb4 eabe
00000020: eaa3 fa3c 33b8 67be d76a 26be 0ba0 843d
00000030: 323e 5fbe d2e3 b0be 3efb 8a3c a28d a4bd
00000040: d2cf 74be c369 2cbf c045 2fbe 08c8 b4be
00000050: 5b3f a6be e60e 50bd c66e afbd 0f20 36be
00000060: 8752 e13b 4977 2c3e ddd0 113f ecf4 9e3e
00000070: df7c 833e aa5b 1c3e b480 023f c8cb c13b
00000080: 3bb6 39be b19a ba3e b8ea 8dbd c97f 0e3e
00000090: b494 813d 2e7b b23e 38f2 52be a450 393f
000000a0: 58cb a7be 2266 b4bd 610b 0c3d 90ff 573c
000000b0: 85f0 a93d bb29 8c3d 0805 9cbd a8e3 bfbc
000000c0: de51 07be 5cc7 4ebe 119f 99bd da45 27be
000000d0: 4530 3d3e 0f04 353e 8036 003e 1297 f23d
000000e0: 38fd 453e dac5 9e3c 019c 843e d98f 42be
000000f0: b5dc 9e3e 8d86 10be 9b35 19be 1730 0fbe
00000100: 424d 8c3d a360 1f3e 1b08 333e c946 66be
00000110: cbb9 6b3d 3013 443d eeba eb3a e7df 693e
00000120: c15d c2bd e3fe 4a3d a937 403e b71f 99bd
00000130: db22 a5bd 37e2 013c cc76 26bd 9d15 21be

lstm.weight_ih_l0_reverse f4 [80, 20]
-1.5030317 0.30950773 1.356413 0.81640923 0.877671 -1.5377314 -0.9984308 -0.31999832
-1.1269424 -0.4960799 -1.5697192 -0.59594154 0.18311794 0.070895836 -0.2231607 -2.1982114
-0.6219323 -0.49190286 0.92723733 0.809375 0.29320094 0.020725882 -1.651194 0.08832529
0.1317481 -0.73680556 0.025850737 2.2944372 0.4768067 1.3132333 -1.2701368 -0.4002666
0.7078899 -0.49132854 -0.2583386 -1.2872382 -0.27311784 0.78361535 1.0167979 -0.11216597
-0.42864352 0.9863264 -0.5671781 0.2681859 0.88162196 -2.893847 -0.5334647 -0.15143041
0.09941393 -0.9433942 0.025852947 -0.8358456 -0.3270941 -0.45995006 -0.21136688 -2.0975702
-1.9808441 -0.9050412 1.1598821 0.43927002 -0.62263584 -0.8684841 -0.46257898 -0.5068594
-0.10313975 -0.38879916 -0.23123606 1.096005 0.9053909 0.15044509 -0.09476286 -0.4520068
-0.022133753 -2.2141 -1.1603343 -1.1494907 0.31058887 -1.0190924 1.517628 0.47402495
-0.75098306 0.54448473 -0.3532614 -0.41992262 -0.3841548 -0.36699778 -1.4939598 0.41105387
0.77151066 -0.0031149113 0.3847643 -1.4574977 1.848688 -2.0704377 -0.970132 0.16745943
-0.44437158 0.61261606 0.69848716 0.45070714 -2.1012287 0.28698483 0.46592063 -1.2364787
0.5744202 -1.7938945 -0.578457 -0.48557344 0.39096192 -0.4908784 -0.43143395 -0.3099162
0.17860986 -0.826064 -0.038196415 -0.8537804 -1.9771136 -0.01508624 1.1616442 0.63620365
-0.055982195 0.25685772 0.49361843 -0.2762064 -0.50966233 -0.018740797 -0.1075141 -0.7228973
-1.1490551 -1.241827 -0.39811975 0.10781485 0.77374035 0.23762849 -0.17395383 -0.49103647
-0.37888467 -0.32593507 1.4998631 0.4886923 -1.446126 0.2980227 0.09508841 0.4888383
0.52389145 -2.4470828 0.38917965 0.69609827 1.0046997 -0.97993135 -0.8586292 -1.5874516
-2.44545 -1.1815495 0.8551373 -1.1904732 -1.36118 0.18187366 0.25962055 -0.8485242
-0.8087647 0.18783896 0.9718025 -0.3260565 -0.8105631 -1.249633 -0.0640119 -1.3431293
1.1413162 -0.7227617 0.5137687 -2.017462 -0.60110134 -1.3528311 -0.8505241 -0.8641155
-1.2719332 0.69435626 -2.0206985 -2.2131047 -0.7409267 0.23614468 -1.744199 -1.5324237
1.1423174 -1.5124378 0.7357638 -1.1623058 -0.2900354 0.90303165 -0.055444855 -1.301609
-0.10771606 -0.9932363 -0.25459367 -0.8578128 -1.4118807 -0.43324262 1.3784031 0.86136335
-0.83914065 -0.3817631 0.07955704 0.030326659 0.9455188 -1.1173975 0.19297859 0.44140688
-1.1346414 0.47055286 0.7565735 -0.96119124 0.62089807 -1.7593652 -1.3681487 -2.3545098
-0.59168357 0.1205415 1.454095 -0.3378198 0.335841 -0.38594878 0.29655498 0.42110524
-0.079638325 -0.18253951 -1.7973449 -0.029114919 0.285815 1.0550865 0.96511817 -0.5868656
0.008941175 -2.1802013 -0.17196868 -1.3922629 -1.7281185 1.0264161 1.0178362 0.58399874
0.057977185 0.32859838 1.09761 1.4616263 -1.4629426 -0.7491029 -0.36733827 0.08461121
0.5332327 -1.6152599 -0.08225667 -1.5663016 -1.5643933 -0.29176426 -0.5621485 -1.8405217
00000000: 5863 c0bf cc77 9e3e f19e ad3f 3200 513f
00000010: 0caf 603f 62d4 c4bf 2999 7fbf d2d6 a3be
00000020: a63f 90bf 2ffe fdbe 8fec c8bf a08f 18bf
00000030: 4583 3b3e d631 913d 3d84 64be 7faf 0cc0
00000040: f536 1fbf b1da fbbe 6d5f 6d3f 3333 4f3f
00000050: 6f1e 963e 53c9 a93c 535a d3bf e4e3 b43d
00000060: f9e8 063e 4a9f 3cbf edc4 d33c 0fd8 1240
00000070: 0220 f43e 0718 a83f d893 a2bf beef ccbe
00000080: 4638 353f 6a8f fbbe f544 84be 39c4 a4bf
00000090: 1ad6 8bbe 049b 483f 6f26 823f 46b7 e5bd
000000a0: 2a77 dbbe e37f 7c3f 9532 11bf aa4f 893e
000000b0: fab1 613f ca34 39c0 2591 08bf 9310 1bbe
000000c0: 8899 cb3d 4882 71bf 8fc9 d33c faf9 55bf
000000d0: e178 a7be 937e ebbe 8f70 58be 973e 06c0
000000e0: 4d8c fdbf c8b0 67bf 0477 943f 00e8 e03e
000000f0: 1065 1fbf f954 5ebf 27d7 ecbe 8ac1 01bf
00000100: ef3a d3bd af10 c7be 25c9 6cbe e449 8c3f
00000110: b3c7 673f 470e 1a3e 0813 c2bd 6f6d e7be
00000120: d851 b5bc d0b3 0dc0 d685 94bf 8322 93bf
00000130: 8105 9f3e 9f71 82bf a241 c23f 66b3 f23e
00000140: 6d40 40bf 5a63 0b3f aede b4be 1900 d7be
00000150: f0af c4be 22e7 bbbe 133a bfbf a775 d23e
00000160: b981 453f 8a23 4cbb d4ff c43e 498f babf
00000170: cfa1 ec3f 0d82 04c0 925a 78bf 7c7a 2b3e
00000180: ac84 e3be 68d4 1c3f 0ed0 323f 16c3 e63e
00000190: 887a 06c0 adef 923e 268d ee3e ef44 9ebf
000001a0: 340d 133f 569e e5bf c215 14bf 159d f8be
000001b0: 292c c83e 6a54 fbbe e9e4 dcbe 56ad 9ebe
000001c0: 81e5 363e ee78 53bf d873 1cbd 5a91 5abf
000001d0: 0f12 fdbf 472c 77bc c2b0 943f 3ede 223f
000001e0: 964d 65bd db82 833e 8ebb fc3e ed6a 8dbe
000001f0: 3b79 02bf 4d86 99bc 5a30 dcbd cc0f 39bf
00000200: 3d14 93bf 30f4 9ebf 5ad6 cbbe 08ce dc3d
00000210: d913 463f e254 733e f420 32be 2269 fbbe
00000220: 2cfd c1be f6e0 a6be 84fb bf3f e135 fa3e
00000230: a81a b9bf 6e96 983e b6bd c23d 0349 fa3e
00000240: c01d 063f 019d 1cc0 8e42 c73e 7f33 323f
00000250: 009a 803f c8dc 7abf 20cf 5bbf 9d31 cbbf
00000260: 4182 1cc0 043d 97bf 47ea 5a3f 6d61 98bf
00000270: 253b aebf 173d 3a3e fcec 843e e238 59bf
00000280: 340b 4fbf db58 403e 0cc8 783f e1f0 a6be
00000290: 1081 4fbf f9f3 9fbf ac18 83bd a9eb abbf
000002a0: a616 923f e906 39bf 5886 033f 191e 01c0
000002b0: c7e1 19bf 9229 adbf f3bb 59bf ac36 5dbf
000002c0: b5ce a2bf 55c1 313f 2053 01c0 82a3 0dc0
000002d0: 5fad 3dbf e9cf 713e ea41 dfbf 7626 c4bf
000002e0: 7537 923f 9097 c1bf 045b 3c3f 70c6 94bf
000002f0: 857f 94be 152d 673f 251a 63bd 209b a6bf
00000300: 3d9a dcbd bc44 7ebf 1a5a 82be 9f99 5bbf
00000310: 82b8 b4bf fad1 ddbe 836f b03f 4f82 5c3f
00000320: ecd1 56bf 7476 c3be cdee a23d 9d6f f83c
00000330: 850d 723f e206 8fbf 2e9c 453e 1500 e23e
00000340: ee3b 91bf 4eec f03e cdae 413f a110 76bf
00000350: 2df3 1e3f e132 e1bf 7f1f afbf 4ab0 16c0
00000360: 9378 17bf 76de f63d c91f ba3f b8f6 acbe
00000370: 5af3 ab3e 149b c5be 0ed6 973e 1b9b d73e
00000380: 6b19 a3bd a3eb 3abe 660f e6bf 6982 eebc
00000390: 5856 923e 130d 873f fc11 773f d33c 16bf
000003a0: 027e 123c 6b88 0bc0 8f18 30be ac35 b2bf
000003b0: fd32 ddbf 9a61 833f 7548 823f f180 153f
000003c0: 7c79 6d3d 0c3e a83e 7c7e 8c3f 9216 bb3f
000003d0: b441 bbbf 35c5 3fbf c313 bcbe a448 ad3d
000003e0: f081 083f d6c0 cebf 2f76 a8bd 927c c8bf
000003f0: 0a3e c8bf 2062 95be f7e8 0fbf 3796 ebbf

lstm.weight_hh_l0_reverse f4 [80, 20]
0.2178922 0.037785083 0.48459476 0.69279665 -0.13442062 -0.20977046 -0.2661816 0.17781287
0.2851043 0.4183062 -0.2804489 0.12570487 0.51121306 0.28913644 0.059300255 -0.45676497
0.07699401 -0.21310085 -0.3484888 0.63925457 0.37418514 0.43914992 0.30310813 -0.016723832
-0.7733268 -0.23982203 0.5594074 -0.7668171 0.33932582 0.78153515 0.10493721 -1.3094941
0.8362285 -0.11432826 0.49081966 -0.8538607 0.7147853 -0.46866938 0.28225386 0.5366014
-0.27483925 0.03519048 -0.36718494 0.17334293 -1.3962374 0.033867385 0.2341567 -0.5893025
0.88477844 -0.2959367 0.07595036 -0.6340688 1.0367182 -0.47021103 0.07373187 -0.081711926
0.09596176 0.24783808 -0.090234995 0.047519576 -0.36000967 -0.48899794 0.21406503 0.4937822
-0.6868675 -0.23203066 1.1089041 -0.59734434 0.33026794 -0.55231214 0.011942795 0.027024802
-0.38746408 0.47071454 1.045184 0.06307739 -0.50999385 0.49007288 -0.035187524 -0.2694005
0.7159891 -0.8882528 0.7250134 0.9516321 -0.19088201 0.6276894 0.2867734 -0.556182
0.33293223 -0.5896394 -1.5639261 -0.17864047 0.091415666 -0.5148107 0.06181338 -0.80747175
-0.0705229 0.3385972 0.6385103 -0.06746777 -0.16785084 0.3188996 0.54665065 0.14003949
0.86970264 0.28013465 0.5160902 -0.4891392 0.6173754 0.123291165 -0.77471024 -0.9689816
-0.1751159 -0.3477539 -0.17720097 0.105921455 -0.037310332 0.28393438 0.3140578 0.29053885
0.094399065 -0.8275703 0.39397997 -0.039695513 -0.12591207 0.04103309 0.0653832 0.45453513
0.31185472 0.34677142 -1.1635852 -0.47124693 0.017601373 -0.81007016 -0.46369466 0.006002187
0.83655137 -0.21272953 0.19720294 -0.09938927 -0.39994663 0.28945497 0.3341209 0.4367277
-0.8710741 0.26207972 0.31211698 -0.6573297 0.042617433 0.06898304 -0.23016043 -0.11716355
-0.26793104 -0.005429672 0.09015391 0.09956553 0.011871713 -0.07387654 0.24262457 0.37275493
0.14799829 0.28673962 -0.51776224 -0.5067828 0.6055481 -0.23051922 0.016503876 -0.5197205
-0.13546808 0.3381635 -0.95779586 -0.1849605 -0.14442717 0.06876295 -0.1952257 0.29366535
0.27365673 0.42699966 -0.100831755 0.0005794108 0.30793166 -0.011649831 0.31289053 0.7715306
0.9993593 -0.51710886 -0.11464053 0.89433855 -0.26172823 0.00919289 -0.031902213 -0.47783297
-0.49479845 0.1990329 0.18394561 0.5027934 -0.13374907 -0.7979919 0.6238989 0.3668198
0.38726828 0.76798785 -0.28333434 0.8659331 -1.085781 -0.07935881 -0.049735997 -0.20144926
0.18756253 -0.030787805 0.30975753 -0.7630388 1.2135383 0.18204363 -0.09764721 -0.611549
0.22187926 -0.11865249 0.10413862 0.28135997 0.21388046 -0.16027388 -0.42875504 0.106315196
0.4255388 -0.12114967 0.06685659 -0.20655644 -0.12536621 0.11126129 -0.5205408 -0.11015095
-0.6306225 -0.25725445 0.09807897 0.027801791 0.069482945 -0.5571022 0.59529215 -0.06605991
0.06114411 -0.10812701 -0.15658575 0.26765922 -1.0711088 0.18634425 0.7267582 0.096232325
0.09607924 -0.5328516 -0.18103337 -0.4118483 0.28774202 0.55769616 0.209972 -0.27494586
00000000: 221f 5f3e 88c4 1a3d ce1c f83e 1f5b 313f
00000010: 8fa5 09be 11ce 56be f448 88be 9414 363e
00000020: 31f9 913e 3b2c d63e 0097 8fbe c7b8 003e
00000030: dcde 023f b109 943e d3e4 723d 19dd e9be
00000040: 09af 9d3d 1c37 5abe 206d b2be 30a6 233f
00000050: 3295 bf3e 42d8 e03e fd30 9b3e 6b00 89bc
00000060: bff8 45bf e893 75be 5335 0f3f 204e 44bf
00000070: 1dbc ad3e b012 483f 52e9 d63d 819d a7bf
00000080: 1213 563f ef24 eabd b74c fb3e 9d96 5abf
00000090: 2bfc 363f 6ff5 efbe 9483 903e b65e 093f
000000a0: bbb7 8cbe e523 103d aaff bbbe cf80 313e
000000b0: e8b7 b2bf 87b8 0a3d c6c6 6f3e 87dc 16bf
000000c0: d780 623f 0485 97be dd8b 9b3d 5552 22bf
000000d0: 2fb3 843f 80bf f0be bc00 973d 9558 a7bd
000000e0: 9987 c43d 44c9 7d3e 20cd b8bd e3a3 423d
000000f0: 3053 b8be f05d fabe dd33 5b3e 05d1 fc3e
00000100: 8cd6 2fbf 7299 6dbe 92f0 8d3f 8feb 18bf
00000110: e118 a93e 5464 0dbf b6ab 433c 1e63 dd3c
00000120: b161 c6be 7f01 f13e 97c8 853f b82e 813d
00000130: f58e 02bf d5ea fa3e cb20 10bd ddee 89be
00000140: 104b 373f 8964 63bf 7a9a 393f 299e 733f
00000150: 9376 43be 41b0 203f f7d3 923e f261 0ebf
00000160: 1876 aa3e 9cf2 16bf bb2e c8bf 87ed 36be
00000170: 2338 bb3d a2ca 03bf 0730 7d3d 78b6 4ebf
00000180: 4f6e 90bd 9d5c ad3e 6975 233f 8b2c 8abd
00000190: 17e1 2bbe cf46 a33e 4cf1 0b3f 8366 0f3e
000001a0: d5a4 5e3f cf6d 8f3e 7d1e 043f 7470 fabe
000001b0: 500c 1e3f 1480 fc3d 6953 46bf 2e0f 78bf
000001c0: 9551 33be cd0c b2be 2c74 35be 59ed d83d
000001d0: b8d2 18bd d95f 913e 2fcc a03e 82c1 943e
000001e0: 4c54 c13d a6db 53bf beb7 c93e c397 22bd
000001f0: 18ef 00be 5012 283d a1e7 853d d4b8 e83e
00000200: 6cab 9f3e 068c b13e 5cf0 94bf 4747 f1be
00000210: c130 903c c260 4fbf 6369 edbe fead c43b
00000220: 3b28 563f c5d5 59be 91ef 493e 9a8c cbbd
00000230: cec5 ccbe 7133 943e e511 ab3e c69a df3e
00000240: b6fe 5ebf 502f 863e cccd 9f3e c246 28bf
00000250: 9e8f 2e3d fb46 8d3d 2daf 6bbe 71f3 efbd
00000260: 422e 89be 64eb b1bb 9da2 b83d 03e9 cb3d
00000270: 9381 423c 954c 97bd 9372 783e bcd9 be3e
00000280: dd8c 173e 89cf 923e 118c 04bf 85bc 01bf
00000290: 3305 1b3f 3b0d 6cbe 2333 873c 670c 05bf
000002a0: 25b8 0abe c423 ad3e 1c32 75bf 4966 3dbe
000002b0: b7e4 13be 97d3 8c3d 3fe9 47be 4e5b 963e
000002c0: bc1c 8c3e b39f da3e e180 cebd 9ae3 173a
000002d0: 38a9 9d3e efde 3ebc 3033 a03e 0883 453f
000002e0: 03d6 7f3f 3f61 04bf a7c8 eabd 5ff3 643f
000002f0: 3e01 86be c69d 163c e5ab 02bd 86a6 f4be
00000300: 3956 fdbe 48cf 4b3e 3d5c 3c3e 11b7 003f
00000310: 84f5 08be 3249 4cbf d7b7 1f3f cecf bb3e
00000320: 0748 c63e da9a 443f 3311 91be cbad 5d3f
00000330: dffa 8abf df86 a2bd f9b7 4bbd b748 4ebe
00000340: 6410 403e b536 fcbc 8a98 9e3e 8356 43bf
00000350: 3955 9b3f a569 3a3e 43fb c7bd 7a8e 1cbf
00000360: 5134 633e 1400 f3bd a146 d53d 6a0e 903e
00000370: 7b03 5b3e d61e 24be c885 dbbe c8bb d93d
00000380: 39e0 d93e 511d f8bd 1cec 883d 8883 53be
00000390: 0060 00be f6dc e33d 2942 05bf d296 e1bd
000003a0: 7a70 21bf dbb6 83be a1dd c83d 95c0 e33c
000003b0: 134d 8e3d 409e 0ebf 1165 183f 6b4a 87bd
000003c0: 3f72 7a3d b271 ddbd 0458 20be a10a 893e
000003d0: 181a 89bf 07d1 3e3e d30c 3a3f 7415 c53d
000003e0: 31c5 c43d f668 08bf d060 39be c8dd d2be
000003f0: ec52 933e 2dc5 0e3f e602 573e b4c5 8cbe

lstm.bias_ih_l0_reverse f4 [80]
-0.48669034 -0.32999355 -0.55895895 -0.3859938 -0.1827411 -0.5770611 -0.3696684 -0.41711876
-0.20654435 -0.5026727 -0.66150254 -0.5602301 -0.7071771 0.023847606 -0.13694642 -0.4726972
-0.20918842 -0.28190225 -0.5452189 -0.6511983 0.7307664 0.063340686 -0.23981577 0.45722574
-0.09273932 0.60667884 0.6550798 0.552094 0.15512404 0.22002494 0.08816913 0.22970666
0.6430194 0.4287006 0.66905177 0.25620127 0.38281882 0.21800415 0.27651894 0.47298512
-0.014680791 -0.02456646 0.033926528 0.1345381 -0.056045458 0.23888806 -0.012789266 0.1367797
-0.2055551 -0.10122325 0.11032071 0.028553782 0.046414614 0.2201391 0.21067493 0.14240097
-0.060511384 0.140828 0.059388887 0.029268812 -0.10270279 0.13112013 -0.3637056 -0.3308782
-0.07036944 0.13744417 -0.2219324 0.13651189 -0.093412474 -0.011299203 -0.29286107 -0.2919674
-0.16790019 -0.40457028 -0.5538176 -0.13107514 -0.1934366 -0.034884956 -0.19604668 -0.25840017
00000000: 7a2f f9be eaf4 a8be ef17 0fbf fba0 c5be
00000010: 7c20 3bbe 47ba 13bf 2d45 bdbe 9790 d5be
00000020: 5d80 53be 28af 00bf 3b58 29bf 3d6b 0fbf
00000030: 8f09 35bf 0e5c c33c af3b 0cbe 5e05 f2be
00000040: 7d35 56be 7e55 90be 7793 0bbf efb4 26bf
00000050: 8213 3b3f c3b8 813d 4492 75be 7e19 ea3e
00000060: 1dee bdbd 4e4f 1b3f 4fb3 273f 0856 0d3f
00000070: d6d8 1e3e 384e 613e 0492 b43d 3938 6b3e
00000080: eb9c 243f a57e db3e fa46 2b3f d02c 833e
00000090: d400 c43e 7b3c 5f3e e493 8d3e 1b2b f23e
000000a0: b387 70bc 9a3f c9bc 8bf6 0a3d 5bc4 093e
000000b0: ec8f 65bd 129f 743e 128a 51bc fa0f 0c3e
000000c0: 097d 52be 234e cfbd d3ef e13d 9fe9 e93c
000000d0: 401d 3e3d 256c 613e 2bbb 573e 8fd1 113e
000000e0: c9da 77bd 3735 103e c341 733d 26c5 ef3c
000000f0: d755 d2bd 5b44 063e 9f37 babe de68 a9be
00000100: da1d 90bd 2abe 0c3e 3f42 63be c6c9 0b3e
00000110: 0a4f bfbd 4b20 39bc e3f1 95be c07c 95be
00000120: 07ee 2bbe d623 cfbe fdc6 0dbf 9038 06be
00000130: 3e14 46be 87e3 0ebd 76c0 48be 074d 84be

lstm.bias_hh_l0_reverse f4 [80]
-0.5278071 -0.36966127 -0.43813288 -0.30749235 -0.13321996 -0.46015814 -0.60367066 -0.4712256
-0.29991487 -0.48233557 -0.66237056 -0.47542784 -0.5243378 -0.022569897 0.05569194 -0.57573766
-0.33843637 -0.20253617 -0.35606125 -0.4967952 0.5864295 0.41869327 -0.27990425 0.33209315
0.06157493 0.31955385 0.6711686 0.36965072 0.32771453 0.32000402 -0.05701841 0.13427582
0.6435287 0.17544217 0.6841903 0.349136 0.37729186 0.29583558 0.3993202 0.5158179
-0.24683982 0.069391735 0.07386096 0.21924411 0.12333675 -0.13864094 -0.00026494206 -0.003204651
-0.08833047 -0.16722128 0.050101344 0.051734164 -0.121246584 -0.041687053 -0.0005655731 0.22152452
-0.10639129 -0.21714962 0.118156835 0.0073725823 0.096886724 0.16601117 -0.38715675 -0.13245933
0.0123866005 0.061295625 -0.20663497 0.08499882 0.12196081 -0.004931029 -0.17213464 -0.3001717
-0.06426344 -0.3900413 -0.52823 -0.40094745 -0.09857557 0.034298047 -0.098682106 0.006201045
00000000: 5e1e 07bf 3e44 bdbe f452 e0be a36f 9dbe
00000010: d06a 08be d999 ebbe 298a 1abf 7b44 f1be
00000020: 718e 99be b0f4 f6be 1e91 29bf 476b f3be
00000030: 013b 06bf 81e4 b8bc 3b1d 643d 8b63 13bf
00000040: 8847 adbe a465 4fbe a94d b6be f15b febe
00000050: 3e20 163f f75e d63e 9c4f 8fbe 1d08 aa3e
00000060: fe35 7c3d 909c a33e b5d1 2b3f dc42 bd3e
00000070: 33ca a73e 91d7 a33e 238c 69bd 9a7f 093e
00000080: 4cbe 243f 1da7 333e 1827 2f3f f4c1 b23e
00000090: 662c c13e c377 973e b273 cc3e a40c 043f
000000a0: 94c3 7cbe 411d 8e3d 6a44 973d 8781 603e
000000b0: fa97 fc3d e4f7 0dbe ece7 8ab9 1f05 52bb
000000c0: 9be6 b4bd 0e3c 2bbe 1137 4d3d 34e7 533d
000000d0: 2150 f8bd 0bc0 2abd f842 14ba 53d7 623e
000000e0: ade3 d9bd 785c 5ebe 36fc f13d b495 f13b
000000f0: 8c6c c63d d5fe 293e 6939 c6be 6ba3 07be
00000100: 2bf1 4a3c 1f11 7b3d 1e98 53be dd13 ae3d
00000110: 97c6 f93d 7894 a1bb 1044 30be 1bb0 99be
00000120: 8d9c 83bd 7eb3 c7be 153a 07bf fc48 cdbe
00000130: fde1 c9bd 1c7c 0c3d d819 cabd 2332 cb3b

lstm.weight_ih_l1 f4 [80, 40]
0.7123683 -0.14812857 -0.42924526 0.24398737 -0.13927823 -0.28461158 -0.27985597 0.015805874
-0.94426733 -0.7405383 -0.85526365 -0.364572 -0.23998185 -0.39877382 0.006199173 -0.88060397
-0.4711284 -0.6447445 0.59196687 0.5048784 1.2111098 -0.10271473 0.25990328 0.22559889
0.5376392 0.15240058 0.13308546 -0.38844103 -0.46856546 -0.44212213 -0.019932682 0.20032673
0.44511405 0.7981765 0.1663851 -0.60402626 -0.22648491 -0.6655396 0.1333891 0.6760181
0.42701134 -0.44233596 -0.04407585 -0.30051354 0.6890077 0.29788888 -0.87542003 -0.27297878
-0.6338447 -0.71902275 -0.19684598 -0.18789801 0.30652142 0.3554154 -0.1943886 -0.3663559
-0.057872634 -0.66571426 0.6817444 0.13178541 -0.097393036 -0.24776267 -0.079336666 -0.81546026
0.5106636 -0.11017494 0.14578743 -0.15724567 -0.16314328 -0.9933538 -0.28782076 0.77253723
-0.2733664 0.7596813 -0.26945725 0.12707825 -0.63754493 0.8348715 -0.80183095 -0.04497115
-1.0824398 -0.35633665 -0.5080079 0.10504289 -0.17364988 0.035294667 -0.5310721 -0.78476524
0.6825911 -0.31346568 0.08817323 0.18960094 -0.38422093 -0.8385215 1.3608147 -1.2586862
-1.0861468 0.48757517 1.2294147 0.2593109 -0.2510773 0.34270498 -0.49772605 -0.093712516
0.3612087 -0.3331595 0.8153635 -0.36885154 0.20577684 -0.3126275 -0.28404084 -0.070369825
-0.19667666 0.45338026 0.39547995 -0.3939537 -0.17226234 -0.28069636 -0.14921978 -0.48374197
0.42560595 -0.07373542 0.43113536 -0.31618643 0.6543012 0.566085 0.8945027 0.6030039
-1.1013063 0.96902645 -0.68387336 0.690113 -0.5181574 0.19651859 -0.5959381 -0.36572137
-0.76619315 0.44238403 -0.44184175 0.3638164 -0.6161801 -0.11896975 0.4827568 0.04106902
0.5179051 -0.6658399 -0.34160724 0.22105996 0.085559025 -0.32970574 0.69212353 0.3518426
-0.047049865 1.0857354 0.19853444 0.63023496 -0.93342364 0.34625402 -0.32489127 -0.051541217
0.6676209 0.2603096 -0.2110691 0.13534702 -0.5752183 0.028985946 -0.58551013 0.2833942
-0.41922328 0.05503205 -0.16178995 -0.14782381 -0.01506545 -0.29757842 0.06709709 -0.2613118
-0.39564803 -0.4070935 -0.6757324 0.65777326 -1.1630694 -0.021132976 -0.23038168 0.018647244
-0.72726274 -0.7144236 0.19222288 0.62331146 -0.32705948 -0.7197342 0.12634543 0.2609843
0.32871696 1.0952924 -0.053735938 0.53791076 -1.2347169 0.020146372 -0.59702885 0.15894915
-0.057272222 -0.5923196 -0.18496697 -0.2193223 0.5609646 -0.19119708 0.32018247 0.030950366
-0.39284098 0.21558031 1.2620039 0.03281266 -0.04774751 -0.19154015 0.24451572 -1.0887349
-0.6329759 0.19426547 1.2653953 0.2284753 -0.48174596 -0.6235048 0.42456827 0.20660041
0.89424837 0.7738509 0.76987225 -0.6051699 1.007474 0.009380205 0.32698822 -0.24082237
-0.62249446 -0.11431851 -0.09727471 -0.13441727 -0.14704275 0.7343923 0.08842781 -0.4881124
-0.16014405 0.16586466 -0.32470393 -0.18410358 0.0828317 -0.19835697 0.24555652 0.16600084
-0.17027655 0.48573038 -0.2340033 0.3397955 -0.24081036 -0.24454886 0.114553586 -0.944971
00000000: c55d 363f 04af 17be 09c6 dbbe d3d7 793e
00000010: f49e 0ebe 9cb8 91be 4849 8fbe 527b 813c
00000020: 81bb 71bf eb93 3dbf 8ff2 5abf 2ea9 babe
00000030: cdbd 75be 152c ccbe 6f22 cb3b 436f 61bf
00000040: be37 f1be fa0d 25bf 248b 173f b63f 013f
00000050: a505 9b3f 1a5c d2bd 0b12 853e 6503 673e
00000060: b9a2 093f e60e 1c3e 8e47 083e bee1 c6be
00000070: d0e7 efbe d55d e2be dd49 a3bc 7322 4d3e
00000080: fde5 e33e 4c55 4c3f db60 2a3e 77a1 1abf
00000090: a9eb 67be ce60 2abf 2797 083e 860f 2d3f
000000a0: 3ba1 da3e dc79 e2be e188 34bd e9dc 99be
000000b0: cf62 303f e484 983e 871b 60bf e0c3 8bbe
000000c0: a543 22bf e011 38bf fe91 49be 5668 40be
000000d0: 60f0 9c3e 02f9 b53e ce0d 47be 0093 bbbe
000000e0: db0b 6dbd 406c 2abf cd86 2e3f c1f2 063e
000000f0: 0076 c7bd 7fb5 7dbe 437b a2bd 01c2 50bf
00000100: daba 023f 66a3 e1bd 4d49 153e 0205 21be
00000110: 080f 27be 6f4c 7ebf 3e5d 93be 00c5 453f
00000120: aef6 8bbe 797a 423f 4df6 89be cd20 023e
00000130: 2536 23bf 23ba 553f cb44 4dbf ab33 38bd
00000140: 638d 8abf c271 b6be ce0c 02bf ba20 d73d
00000150: 46d1 31be 2491 103d 57f4 07bf 60e6 48bf
00000160: 4abe 2e3f 937e a0be 2b94 b43d c026 423e
00000170: 9bb8 c4be 58a9 56bf 2d2f ae3f a11c a1bf
00000180: dc06 8bbf 74a3 f93e 765d 9d3f 66c4 843e
00000190: 348d 80be 0777 af3e f3d5 febe 59ec bfbd
000001a0: 59f0 b83e e293 aabe aabb 503f 1cda bcbe
000001b0: 2ab7 523e b610 a0be cd6d 91be 0e1e 90bd
000001c0: 9b65 49be 7521 e83e 597c ca3e 4db4 c9be
000001d0: 8a65 30be 6fb7 8fbe 12cd 18be 07ad f7be
000001e0: 06e9 d93e 9902 97bd c6bd dc3e 30e3 a1be
000001f0: 4980 273f f2ea 103f 21fe 643f 775e 1a3f
00000200: 9bf7 8cbf 1e12 783f 5312 2fbf 3fab 303f
00000210: f7a5 04bf 2b3c 493e 668f 18bf d53f bbbe
00000220: 3c25 44bf 2980 e23e 1539 e2be 2546 ba3e
00000230: fbbd 1dbf 6aa6 f3bd e62b f73e fd37 283d
00000240: 6e95 043f 7c74 2abf 25e7 aebe 8b5d 623e
00000250: 9239 af3d 31cf a8be 022f 313f b724 b43e
00000260: 5cb7 40bd 61f9 8a3f 9d4c 4b3e 1457 213f
00000270: daf4 6ebf 3548 b13e 2658 a6be e21c 53bd
00000280: 34e9 2a3f 4d47 853e 8022 58be 6998 0a3e
00000290: 8241 13bf ef73 ed3c fee3 15bf 0b19 913e
000002a0: 6fa4 d6be 4969 613d 44ac 25be 205f 17be
000002b0: 14d5 76bc 335c 98be 336a 893d a9ca 85be
000002c0: 6192 cabe 8f6e d0be ccfc 2cbf d463 283f
000002d0: 75df 94bf 101f adbc 2de9 6bbe 1bc2 983c
000002e0: e42d 3abf 77e4 36bf 13d6 443e 5791 1f3f
000002f0: 5774 a7be 8040 38bf b260 013e bc9f 853e
00000300: 974d a83e 8b32 8c3f 371a 5cbd 85b4 093f
00000310: 340b 9ebf 010a a53c e2d6 18bf 91c3 223e
00000320: 4796 6abd 42a2 17bf fb67 3dbe 0696 60be
00000330: 609b 0f3f 2bc9 43be f5ee a33e 9f8b fd3c
00000340: 7422 c9be 16c1 5c3e 5889 a13f 9166 063d
00000350: e592 43bd 1a23 44be 5462 7a3e aa5b 8bbf
00000360: b50a 22bf 87ed 463e 79f8 a13f 6ef5 693e
00000370: 68a7 f6be 039e 1fbf 0361 d93e 0f8f 533e
00000380: 76ed 643f 181b 463f 5916 453f 6aec 1abf
00000390: e8f4 803f 6eaf 193c 006b a73e 249a 76be
000003a0: cc5b 1fbf d31f eabd f737 c7bd aea4 09be
000003b0: 6092 16be 2201 3c3f a419 b53d dee9 f9be
000003c0: cdfc 23be 6dd8 293e 983f a6be a685 3cbe
000003d0: aba3 a93d 171e 4bbe 2b73 7b3e 20fc 293e
000003e0: fa5c 2ebe a7b1 f83e 909e 6fbe adf9 ad3e
000003f0: fe96 76be 046b 7abe 129b ea3d 9fe9 71bf

lstm.weight_hh_l1 f4 [80, 20]
-0.23876825 0.12226492 0.3509555 -0.08541515 0.03125505 0.3270407 0.027345465 -0.4086856
-0.26939633 0.84316707 -0.13855344 -0.09960326 -0.34815937 -0.6669926 -0.7412797 0.13123024
-0.33811453 0.6343221 -0.5264939 -0.77542347 -0.17026871 0.29745996 -0.77043194 0.54021734
-0.84633523 -0.2872349 -0.32003826 -0.13220297 0.1100236 0.76156485 -0.041320365 -0.0043105707
-0.091689706 -0.24181375 -0.5994835 0.20205773 -0.013353673 0.595307 -1.0558273 -0.21490625
-1.23163 0.21024086 1.1452855 -0.13550317 0.33087924 0.61851186 -0.7203472 -0.77381414
-0.90379214 0.47558627 -0.65660185 -0.8338493 0.04999505 0.3727668 -0.35811672 -0.01854802
-0.26598585 -0.22993173 0.11554368 -0.27528805 -0.36868882 0.89207006 0.40206376 0.25283962
-0.83382505 0.2830485 -0.5289961 -0.23124543 -0.12787537 0.09730842 -0.093279265 -0.5033956
-0.79574615 0.34898275 0.4852616 0.3129305 -0.4869445 -0.20379236 -0.07085767 -0.69908375
-0.10969912 -0.33298495 0.18520238 -0.85202324 -0.03642132 0.35443994 0.51089025 -0.1955542
-0.49390838 0.24566226 0.18746959 0.18894942 0.42666167 -0.09312541 0.68073046 0.09036967
0.74591106 -0.5754735 0.6758224 -0.7096289 -0.70117253 0.33173728 0.7408545 0.52850634
-0.32284757 0.11709907 0.010235002 0.33641356 -0.08485125 0.006133625 0.014198319 -0.083614945
0.2186597 -0.95123404 0.30307716 0.42157686 0.4016155 -0.26952073 -0.22346288 -0.825705
-0.47192544 0.28469753 -0.2509163 0.31438512 0.34248775 0.513885 -0.552087 -0.8694526
-0.17391676 -0.5486581 -0.24797256 -0.4524367 -0.14217839 0.10690112 -0.6661803 0.33719313
0.1250685 0.3343555 0.30257455 -0.15623444 -0.49945977 0.38479832 -0.52465165 0.5348059
0.14028883 0.07593378 0.07177432 -0.47245017 -0.09990211 -0.7743017 0.37670684 -0.53072256
0.69319797 -0.89974934 0.6237802 -0.0025842825 0.13782263 -0.48298395 -0.5447915 0.09941866
-0.108285114 0.52956975 0.33429942 -0.3110916 0.15763472 0.100346245 0.09906098 -0.03663443
0.19539197 -0.35664776 0.587302 -0.050016873 -0.08485979 -0.33144698 0.20559372 0.12662758
0.2897759 -0.09733697 -0.16703619 0.17875919 0.12719667 0.20459007 -0.43391025 0.13386807
0.10392932 0.66824734 0.12733503 -0.79993415 -0.6359709 -0.4192542 -0.08265222 -0.2533522
0.10205413 -0.19654173 -0.20974095 0.19071242 0.46384048 -0.13495992 -0.02658671 -0.07276118
-0.15087487 -0.02445266 -0.2018497 -0.0056022997 0.035179727 0.15489048 0.2852888 0.19505765
0.6973396 0.0049863057 0.3517448 0.24715458 0.19011697 0.5185102 -0.07784265 -0.20656602
0.17162299 0.58780396 0.059837878 0.22156721 0.21142396 -0.06524969 -0.40457714 -0.23024471
-0.81969416 0.122977674 0.25693923 -0.6669415 0.008066486 0.47285166 -0.47804 0.1052403
-0.38444564 -0.16803937 -0.43047717 0.4711993 -0.13178736 0.25636742 -0.51970243 -0.15082426
-0.20493707 0.50584376 -0.5222087 0.00055022293 -0.06437376 0.59760237 0.5459104 0.16094892
-0.2500497 -0.30053326 0.27050403 -0.26846933 -0.021227041 -0.017596303 -0.10970739 0.14757806
00000000: aa7f 74be 0866 fa3d 70b0 b33e 23ee aebd
00000010: 4c05 003d e171 a73e 9903 e03c 3d3f d1be
00000020: 51ee 89be ccd9 573f f4e0 0dbe cbfc cbbd
00000030: f241 b2be 07c0 2abf 82c4 3dbf 3861 063e
00000040: 591d adbe ef62 223f 4ec8 06bf 2782 46bf
00000050: ec5a 2ebe ac4c 983e 073b 45bf af4b 0a3f
00000060: 6da9 58bf 7410 93be 0edc a3be 3760 07be
00000070: 0e54 e13d eaf5 423f 8b3f 29bd b03f 8dbb
00000080: d0c7 bbbd 069e 77be c077 19bf 39e8 4e3e
00000090: 5dc9 5abc 0a66 183f 5925 87bf 6210 5cbe
000000a0: 0da6 9dbf 6149 573e b798 923f 58c1 0abe
000000b0: 0169 a93e cb56 1e3f ad68 38bf af18 46bf
000000c0: ec5e 67bf 0b80 f33e 0f17 28bf 2677 55bf
000000d0: 9cc7 4c3d 4adb be3e 135b b7be 04f2 97bc
000000e0: 4c2f 88be 3973 6bbe 2aa2 ec3d 8ef2 8cbe
000000f0: c8c4 bcbe b45e 643f 4ddb cd3e 3274 813e
00000100: 8f75 55bf bceb 903e 4a6c 07bf 9acb 6cbe
00000110: c3f1 02be a349 c73d 3309 bfbd 89de 00bf
00000120: 05b6 4bbf dead b23e 3574 f83e 6d38 a03e
00000130: ca50 f9be f2ae 50be d31d 91bd 27f7 32bf
00000140: efa9 e0bd 017d aabe b1a5 3d3e 321e 5abf
00000150: 862e 15bd 2779 b53e b4c9 023f 5c3f 48be
00000160: 8fe1 fcbe e38e 7b3e 07f8 3f3e f57b 413e
00000170: 6673 da3e 89b8 bebd 5a44 2e3f bc13 b93d
00000180: 07f4 3e3f 3b52 13bf b202 2d3f 3daa 35bf
00000190: 0b80 33bf 78d9 a93e a4a8 3d3f 314c 073f
000001a0: 474c a5be a3d1 ef3d b6b0 273c 663e ac3e
000001b0: 7ec6 adbd 93fc c83b 11a0 683c 503e abbd
000001c0: 54e8 5f3e 1384 73bf ee2c 9b3e ecd8 d73e
000001d0: 8ca0 cd3e 9ffe 89be 74d3 64be 6761 53bf
000001e0: 36a0 f1be e0c3 913e 1a78 80be 16f7 a03e
000001f0: 8e5a af3e f88d 033f 9355 0dbf 7294 5ebf
00000200: 3c17 32be db74 0cbf 85ec 7dbe c8a5 e7be
00000210: 3697 11be f9ee da3d cb8a 2abf 94a4 ac3e
00000220: f511 003e a530 ab3e 0deb 9a3e ecfb 1fbe
00000230: 31b9 ffbe 4904 c53e 924f 06bf 0ae9 083f
00000240: e0a7 0f3e 2b83 9b3d 6afe 923d fde4 f1be
00000250: 7a99 ccbd a338 46bf b8df c03e 6fdd 07bf
00000260: 6c75 313f f955 66bf 0fb0 1f3f 115d 29bb
00000270: 6021 0d3e ac49 f7be 7577 0bbf 039c cb3d
00000280: 96c4 ddbd e291 073f 4b29 ab3e 6647 9fbe
00000290: ff6a 213e 5582 cd3d 7ce0 ca3d fc0d 16bd
000002a0: d514 483e 899a b6be 6d59 163f 7ede 4cbd
000002b0: f8ca adbd 6bb3 a9be 2987 523e a9aa 013e
000002c0: 825d 943e 9b58 c7bd 890b 2bbe a60c 373e
000002d0: d83f 023e 0f80 513e 7c29 debe b614 093e
000002e0: e5d8 d43d 4212 2b3f 1d64 023e 7cc8 4cbf
000002f0: fdce 22bf 7da8 d6be 9145 a9bd 61b7 81be
00000300: c101 d13d 3c42 49be 55c6 56be 1e4a 433e
00000310: 807c ed3e ef32 0abe 5fcc d9bc d003 95bd
00000320: f17e 1abe f250 c8bc b0b1 4ebe 7f93 b7bb
00000330: 9e18 103d 9c9b 1e3e 6011 923e 31bd 473e
00000340: d984 323f 2a64 a33b e517 b43e 1716 7d3e
00000350: 06ae 423e 16bd 043f f86b 9fbd 0b86 53be
00000360: f0bd 2f3e 527a 163f 9018 753d 84e2 623e
00000370: 867f 583e a1a1 85bd bc24 cfbe 45c5 6bbe
00000380: 7ad7 51bf b8db fb3d 8a8d 833e aebc 2abf
00000390: 4b29 043c 9d19 f23e a9c1 f4be 3a88 d73d
000003a0: 0fd6 c4be 8312 2cbe 8167 dcbe 0941 f13e
000003b0: 44f3 06be 9742 833e 380b 05bf ad71 1abe
000003c0: 06db 51be fa7e 013f 78af 05bf d63c 103a
000003d0: 64d6 83bd 78fc 183f c9c0 0b3f cbcf 243e
000003e0: 8406 80be 7fdf 99be 817f 8a3e d074 89be
000003f0: 55e4 adbc 1f26 90bc 45ae e0bd b41e 173e

lstm.bias_ih_l1 f4 [80]
-0.44283754 0.14401299 -0.33567908 -0.01258593 -0.3068461 -0.516488 -0.3472788 -0.6143018
0.040651403 -0.6063497 -0.2628971 0.16691393 -0.6253154 -0.43705812 -0.2884214 -0.05378112
-0.7002088 -0.19503155 -0.030930283 -0.55304426 0.27556 -0.031129671 -0.43990692 -0.5474279
-0.18230398 -0.28446218 -0.13335215 -0.52793664 0.038816392 -0.12533493 0.5213726 0.31177378
0.007299848 0.60742116 0.18732134 0.04237576 -0.25784677 0.3497411 -0.10697192 -0.6702283
0.19518577 -0.6732938 -0.1633818 -0.6002332 -0.27791157 0.10850944 0.20664029 0.64900804
0.7466914 0.014188038 0.16040602 0.52795297 -0.10526694 -0.005986136 -0.036546152 -0.45441318
0.03797533 0.21817192 0.11231049 -0.13064231 0.15898158 -0.23265192 -0.33035406 0.035556357
-0.11737186 -0.28602666 0.03677608 -0.5136382 0.16087355 -0.49390632 -0.28519973 0.14547954
-0.3381908 -0.25009498 -0.41788018 0.094784066 -0.6817673 -0.034639098 -0.08169032 -0.55390096
00000000: 9abb e2be 2478 133e 21de abbe 3735 4ebc
00000010: ef1a 9dbe 8f38 04bf 87ce b1be e242 1dbf
00000020: 1682 263d bc39 1bbf 739a 86be 7ceb 2a3e
00000030: ac14 20bf 15c6 dfbe f8ab 93be 9749 5cbd
00000040: e240 33bf 5ab6 47be 8161 fdbc 4f94 0dbf
00000050: 3316 8d3e a703 ffbc 7b3b e1be 3c24 0cbf
00000060: e5ad 3abe 07a5 91be 778d 08be db26 07bf
00000070: f0fd 1e3d cd57 00be ad78 053f d0a0 9f3e
00000080: 9033 ef3b f47f 1b3f 2ad1 3f3e 3492 2d3d
00000090: 7e04 84be 4411 b33e 1814 dbbd 1594 2bbf
000000a0: c7de 473e fc5c 2cbf 8f4d 27be e2a8 19bf
000000b0: 6d4a 8ebe 333a de3d 8399 533e 6425 263f
000000c0: 2b27 3f3f f274 683c 7a41 243e ed27 073f
000000d0: 3296 d7bd 5927 c4bb 6bb1 15bd d8a8 e8be
000000e0: 058c 1b3d 7668 5f3e 0b03 e63d 19c7 05be
000000f0: 11cc 223e 4e3c 6ebe 2b24 a9be 8ba3 113d
00000100: a860 f0bd 1672 92be 84a2 163d cb7d 03bf
00000110: 09bc 243e 4ae1 fcbe b305 92be 97f8 143e
00000120: 5827 adbe 730c 80be 64f4 d5be 261e c23d
00000130: 4d88 2ebf bae1 0dbd 414d a7bd 74cc 0dbf

lstm.bias_hh_l1 f4 [80]
-0.27107462 -0.11282103 -0.5207624 0.04705853 -0.1849668 -0.40859237 -0.32702023 -0.34586483
0.3169191 -0.33399102 -0.21402858 0.11861562 -0.42633465 -0.44188428 -0.535826 0.15678516
-0.5033267 -0.4018872 -0.25933 -0.55886626 0.22526002 -0.13745052 -0.16295178 -0.42181453
-0.20208304 -0.28843993 0.017474962 -0.73825425 0.06640074 -0.4250319 0.27810514 0.5127354
-0.07014807 0.6231018 -0.21243529 -0.2950795 -0.12658541 0.19109364 -0.41930574 -0.47881463
0.22977649 -0.652701 -0.28308702 -0.5357387 -0.19285512 -0.01207027 0.45522454 0.3253805
0.678963 -0.18488611 0.24740255 0.510794 -0.08403115 0.3406788 -0.15701565 -0.61052054
-0.14910324 0.354366 0.39079562 -0.017969657 -0.17406173 -0.28743604 -0.31070462 -0.34613752
-0.23372912 -0.661935 -0.07828598 -0.5826612 0.25702837 -0.29086965 -0.11845884 0.058104407
-0.21815507 -0.3829796 -0.28031182 -0.09036399 -0.52461654 -0.091498986 -0.3120617 -0.4955932
00000000: 4bca 8abe b60e e7bd af50 05bf 72c0 403d
00000010: f067 3dbe 0533 d1be 326f a7be 3215 b1be
00000020: 3843 a23e df00 abbe 4f2a 5bbe bfec f23d
00000030: 8948 dabe a83e e2be e52b 09bf 4a8c 203e
00000040: 05da 00bf 29c4 cdbe e7c6 84be dc11 0fbf
00000050: 90aa 663e d4bf 0cbe d5dc 26be 13f8 d7be
00000060: dbee 4ebe 66ae 93be a727 8f3c 3bfe 3cbf
00000070: 1cfd 873d c89d d9be cc63 8e3e a142 033f
00000080: cba9 8fbd 9983 1f3f a388 59be a914 97be
00000090: 9b9f 01be 0dae 433e 3eaf d6be 3127 f5be
000000a0: 874a 6b3e 6a17 27bf c8f0 90be 2c26 09bf
000000b0: d07b 45be 62c2 45bc 3113 e93e 4698 a63e
000000c0: 85d0 2d3f c952 3dbe 1857 7d3e 65c3 023f
000000d0: 8618 acbd 746d ae3e b6c8 20be 134b 1cbf
000000e0: 85ae 18be 766f b53e 5d16 c83e 1a35 93bc
000000f0: 3d3d 32be d12a 93be ad14 9fbe f038 b1be
00000100: b056 6fbe 9274 29bf 6654 a0bd 4929 15bf
00000110: 3999 833e deec 94be 8c9a f2bd e3fe 6d3d
00000120: 0b64 5fbe e715 c4be 0885 8fbe c110 b9bd
00000130: 454d 06bf d263 bbbd 8dc6 9fbe 64be fdbe
