sparrow/data/networks/adf/adf_morffy_min_network_v1.pt (torch, 23238 bytes, 17 tensors)

lstm.weight_ih_l0 f4 [40, 20]
000000 bb e0 2a bf 6a 3b 10 3f f7 a5 7b 3f 7b 22 e9 3e
       -0.6674916 0.5634066 0.9830012 0.4553412
000010 c4 bd c1 3e 36 a3 f0 3c 71 fe 87 bf 0c 66 d6 3e
       0.37840092 0.0293747 -1.0624524 0.4187473
000020 da 08 8a c1 94 d5 7c 3f e2 72 b5 3e f2 e9 3d 3e
       -17.254322 0.98763394 0.3543921 0.18546274
000030 87 b2 ae bf 7a 0c 77 3e ca d6 6b be 82 ef c6 3e
       -1.3648232 0.24125853 -0.23031154 0.38854605
000040 53 c0 08 c0 a1 57 84 bf 8d 17 bb 3f 97 6b 61 bd
       -2.1367385 -1.0339242 1.4616562 -0.055034246
000050 fe c5 52 3f 00 1e bc 3f da 00 41 bf b2 79 91 3f
       0.8233336 1.4696655 -0.75391924 1.1365263
000060 b6 40 be 3c f8 91 da 3f 6c 76 ef 3f 0e fe e7 3e
       0.023224216 1.7075796 1.8708014 0.45311016
000070 95 8d 9d 3f 28 7c 24 be 34 81 52 3e 29 81 5c 3f
       1.2308832 -0.16062987 0.205571 0.8613458
000080 a3 7d ef 3f 6f 53 b3 3f 42 67 b6 3f 5d b4 cb 3f
       1.8710216 1.4009837 1.4250262 1.5914418
000090 83 27 8f 3f 5a 4f 8e 3f 47 18 e0 bd 03 7f 34 3f
       1.1183933 1.1117966 -0.109421305 0.70506305
0000a0 34 60 0a 3f 72 20 be 3e 5c bd 18 3f 04 3b 4b 3f
       0.54053044 0.3713413 0.5966394 0.79386926
0000b0 6d 30 b3 3f 9d 9e c3 3e 5e 8c 93 bf 7d 42 d4 3e
       1.3999153 0.3820695 -1.1527212 0.41456977
0000c0 94 25 4f 3f 69 2b 8c 3e 64 fd 1b bf 6a ba 25 3f
       0.80916715 0.2737687 -0.6093352 0.6473757
0000d0 bf 58 9e be b1 ba 3a 3f 91 70 6c 3f 69 70 22 3f
       -0.30927083 0.7294112 0.9235926 0.63452774
0000e0 3c 72 26 3e bb 1a ec 3e 7c cb ce 3f 83 6b 6f be
       0.16254514 0.46114144 1.6155849 -0.23380856
0000f0 ca e1 17 c0 c2 a2 63 be c4 7e 44 3d 92 fb a0 3e
       -2.373156 -0.22230056 0.047972456 0.31441933
000100 75 59 ce 3f cc 22 4e 3d a3 1b cb 3d 29 f6 51 3f
       1.612105 0.050326154 0.09917381 0.82016236
000110 24 62 5c 3f e8 8d 96 3f f4 bc 3c 3f 06 a9 88 bf
       0.8608725 1.1762056 0.7372582 -1.0676582
000120 8c d9 6c c1 fb c6 84 bf 5f b8 e4 3e 47 36 db be
       -14.803112 -1.0373224 0.44671914 -0.42814848
000130 62 26 a3 bf 97 1f 36 bf f4 e0 0a 40 e2 99 0f 3f
       -1.2746089 -0.7114195 2.16998 0.5609418
000140 c0 50 80 3f f1 1d 81 3f 80 f2 31 3f d8 0c 14 bf
       1.0024643 1.0087262 0.6951065 -0.578321
000150 1e 34 fd bc 3a 03 12 3f ee 9e 94 3f 25 28 c7 bf
       -0.03090864 0.57036173 1.1611001 -1.5559126
000160 f7 75 ce 3f 75 f5 64 3f 09 d6 82 3f 1b c3 87 bf
       1.612975 0.8943704 1.0221568 -1.0606416
000170 78 3d bd 3f 68 59 62 3f 32 7b d8 3e 9c f7 71 3f
       1.4784384 0.88417673 0.4228149 0.94518447
000180 8f 40 81 3f 25 33 6b 3f 19 d6 3d 3e 7c 9b 79 3f
       1.0097827 0.91874915 0.18538703 0.97502875
000190 24 1a e8 3d d0 0e e6 3c 57 d5 d5 be 4c ea 24 bf
       0.11333111 0.028083235 -0.41764328 -0.6442001
0001a0 13 d5 01 40 aa 7c b3 3e af c1 45 be b3 52 7e 3f
       2.02863 0.3505605 -0.19312166 0.9934494
0001b0 c5 8c bc 3f 5a 69 36 c0 60 5c 4b 3f a9 d9 68 be
       1.473046 -2.8501801 0.7943783 -0.22739281
0001c0 86 87 9d be bf cd 74 bc 07 99 c0 3f c4 4c 78 3c
       -0.3076746 -0.014941632 1.50467 0.015155021
0001d0 0a 4e 04 3f 5f e9 7e be 0b 14 39 40 69 ad bf 3f
       0.5168158 -0.24893712 2.8918483 1.4974796
0001e0 0a cd b7 bf 49 2f e5 be 74 9e 46 3f d7 3d 1f 3f
       -1.4359448 -0.44762638 0.7758553 0.62203735
0001f0 3f 1e ce 3f dd c7 a4 bf 98 f2 e4 c0 3b 85 b6 3f
       1.610298 -1.2873493 -7.1546135 1.4259409
000200 59 78 db 3f dd ea bc 3f 30 b1 ac 3e 9a f7 dd bd
       1.7146102 1.4759175 0.33728933 -0.10838242
000210 6f 5b 87 3f 75 e7 ee be 26 88 dd 3f 24 fd cc bf
       1.0574778 -0.46660963 1.7307174 -1.6014752
000220 92 08 bd be 01 14 e4 3f 32 2e d4 3f e1 7d e0 3f
       -0.369206 1.7818605 1.6576598 1.7538415
000230 2c e2 14 bf ba d3 ae bf 19 b0 78 3f 26 f9 fe bc
       -0.5815761 -1.3658364 0.97143704 -0.031124663
000240 7b 88 4a bf 44 52 ba bf 66 be c2 3e 35 97 2e 3e
       -0.791145 -1.4556355 0.38035887 0.17049868
000250 e8 8a 54 3f 72 cd 3b 3f 67 0e 82 3f 14 97 98 c0
       0.83024454 0.7336036 1.0160645 -4.768442
000260 8b ac a2 be 33 2e 83 c1 4a e6 84 3f f2 ff a8 be
       -0.31772265 -16.397558 1.0382779 -0.3300777
000270 e0 66 41 c0 cb 42 d4 bf 95 88 85 3f f3 15 8c bf
       -3.021904 -1.6582884 1.0432307 -1.0944198
000280 b3 2d 32 c1 e9 de 2f 3f 8e 91 16 bf 84 d9 fe 3e
       -11.136157 0.6869951 -0.5881585 0.49775326
000290 ef cd 05 c0 91 dd 2a 3f fc df f6 3d 38 86 2c 3f
       -2.0906942 0.66744334 0.120544404 0.673923
0002a0 4c 8a 60 3f f8 6d 85 3f 0f de 77 3e da df 4a 3f
       0.87711024 1.0424185 0.24205802 0.7924782
0002b0 5d 12 25 c0 4e cf da 3e a8 86 46 3f e0 8c 4e 3e
       -2.5792458 0.42736286 0.7754922 0.20170927
0002c0 1a f3 7c 3d ba 48 6b 3f e7 13 f0 3f 3c c9 96 3f
       0.061755277 0.91907847 1.8756074 1.1780162
0002d0 7d 95 bc bf d7 2e 40 bf ea 50 eb 3f 46 1d b4 3f
       -1.473312 -0.7507147 1.8384068 1.4071434
0002e0 fe 07 a8 bf 15 53 4d c0 8e a9 1b bf b4 32 9d be
       -1.3127439 -3.208196 -0.60805595 -0.30702746
0002f0 9d b6 cd 3f 1a 77 22 bf e0 f3 c3 bf a5 78 4b c0
       1.6071354 -0.63462985 -1.53088 -3.1792386
000300 99 c1 27 c0 40 ee e0 bf 15 fe cb 3f e0 bb d1 bf
       -2.6211913 -1.7572708 1.5936915 -1.638546
000310 28 ac 1a c0 48 53 31 3e d0 bf d5 bf 61 26 ac bf
       -2.4167576 0.17316926 -1.6699162 -1.3449212
000320 2e 3c 52 3d 77 b9 05 c0 ce 53 80 41 64 ab e9 3f
       0.051326923 -2.0894449 16.04092 1.8255429
000330 eb a4 1a c0 49 d4 98 3c e0 b7 ad bf 73 fc c6 bf
       -2.4163158 0.018655913 -1.3571739 -1.5545791
000340 09 8d ab bf bc 5d 0a c0 1a 48 98 bf 74 73 17 3f
       -1.3402416 -2.161971 -1.1897004 0.5916054
000350 b6 4a 82 bf 0d d2 89 bf 88 1c 90 bf 48 b2 8a be
       -1.017905 -1.0767227 -1.1258707 -0.27089143
000360 1f ed 7a bf 4d 5a 36 be e8 09 0b c0 71 ad 4b 40
       -0.9801807 -0.17807885 -2.1724796 3.182461
000370 29 a5 32 be 0e 3f 32 bf 0b bd d6 bf b0 d2 5a bf
       -0.17445816 -0.69627464 -1.6776441 -0.85477734
000380 a4 26 54 40 65 5b 94 be 79 ab ec 40 32 be 7d be
       3.3148584 -0.28975978 7.3959317 -0.24779585
000390 17 37 8c 40 15 01 63 bf 95 ae 96 bd bf 87 58 bf
       4.381725 -0.88673526 -0.07357518 -0.8458213
0003a0 33 17 ee 3d 38 b9 99 40 3e 5a 19 3f 49 55 93 bf
       0.11625519 4.8038597 0.59903324 -1.1510402
0003b0 45 79 01 be d4 ae 95 bf a0 42 68 41 b7 cb 21 41
       -0.12643917 -1.1693978 14.516266 10.112235
0003c0 12 6f e9 3d 05 38 00 bf 0d 78 14 c0 94 c4 2a 3f
       0.11398138 -0.5008548 -2.3198273 0.66706204
0003d0 1a d3 ab be f4 65 c4 3f a5 bf 62 41 88 7f 70 41
       -0.33559495 1.5343614 14.171788 15.031136
0003e0 87 65 32 41 88 d5 71 41 e6 9c 6a 41 a7 29 02 c0
       11.149787 15.114632 14.663305 -2.0337923
0003f0 59 8e 55 41 ae 33 c5 bf 63 f7 67 41 ed cf 61 41
       13.347253 -1.5406396 14.497897 14.113263

lstm.weight_hh_l0 f4 [40, 10]
000000 da 03 d1 3e 8b 9c 9b bf f5 7b 57 bf 76 39 ac 3d
       0.4082325 -1.2157148 -0.8417352 0.08409397
000010 5e f6 e7 bf 34 f2 eb 3e 48 52 ae 3f 31 fb 06 bf
       -1.812206 0.46083224 1.361886 -0.5272704
000020 bb 53 e7 3f ed 6f 89 3f 41 27 b5 be e3 85 88 be
       1.8072428 1.0737282 -0.3538151 -0.26664647
000030 da b5 c7 3e d8 f1 e7 bd 8b f6 82 40 8c 67 6f 3f
       0.3900593 -0.11325425 4.0925956 0.93517375
000040 21 f9 c7 bf ed 81 44 bd 4d 6b 8d 3e 5c 19 fc 3d
       -1.5622903 -0.04797547 0.27620926 0.123095244
000050 ec cf e7 be 55 6d 4c 3f e0 4c d5 bf e7 c5 c3 3f
       -0.4527582 0.7985433 -1.6664085 1.529477
000060 ea ae 7f 40 df b9 97 bf 7e ca 3e 40 a1 eb 54 40
       3.995051 -1.1853598 2.9811091 3.3268816
000070 40 00 7f c0 39 9d 61 bf 72 e6 0d be a8 4b ab 3e
       -3.9843903 -0.8813053 -0.13857439 0.3345616
000080 55 6c 91 3e 36 89 9f be 3f e7 19 3f 52 9c 31 3d
       0.28402963 -0.3115937 0.6011848 0.04336197
000090 9e cf a0 3e 1d dd 82 be 6f bd 85 3e 0a 97 6f 3e
       0.314084 -0.2555932 0.2612109 0.2339746
0000a0 57 1e 93 3e e9 ee 9f bf 48 33 20 be 97 d4 9d be
       0.28734085 -1.2494785 -0.15644562 -0.30826256
0000b0 c5 22 bd bf 44 c5 62 3e e9 5b a9 bf f1 4c a3 bf
       -1.4776236 0.22145563 -1.3231174 -1.2757856
0000c0 72 81 bf 3f 87 87 5d bf ce df d5 bf 93 3f b1 be
       1.4961379 -0.86534923 -1.6708925 -0.34618816
0000d0 6e a7 dc bf e7 64 c6 3f b0 3e b0 3f 13 67 43 bd
       -1.7238595 1.5499543 1.3769131 -0.04770572
0000e0 41 a6 f7 3f 6c 50 44 3f 2b ad 75 bf a8 40 15 bc
       1.9347612 0.76685214 -0.9596736 -0.0091096535
0000f0 91 be 2e be 20 c7 53 3f 2e 23 b9 bd 20 d4 80 3f
       -0.17064883 0.82725716 -0.09039913 1.0064735
000100 26 b2 b2 be 27 0b a6 be 43 ae e1 bf 5a 85 cb 3f
       -0.3490154 -0.32430384 -1.7631305 1.5900071
000110 0d 24 99 bf 84 55 1f 3f ea b7 f2 3f 8c b9 bd bf
       -1.1964127 0.6223986 1.8962376 -1.482225
000120 58 24 a2 3d df 02 06 40 1f ea 53 40 c7 35 b5 be
       0.07917088 2.0939252 3.3111646 -0.3539259
000130 f2 97 5b bf 75 c3 04 40 a7 36 b7 bf a9 32 b5 3f
       -0.85778725 2.0744298 -1.4313554 1.4156085
000140 38 08 85 be fe 06 42 bf 97 4a e1 3f 01 dd b3 3d
       -0.25982833 -0.7579192 1.7600888 0.087823875
000150 30 68 f0 be 33 52 8b 3f 10 4b 0a 3f 2f 34 a0 bf
       -0.4695449 1.088446 0.54020786 -1.2515925
000160 bd 3d 0b 40 64 82 37 3f e0 eb 84 3f 1a 60 0c bf
       2.1756432 0.71683335 1.0384483 -0.5483414
000170 d9 06 9f 3e 3b a2 f5 3e 86 da 27 3f c7 b2 0e be
       0.31059912 0.47975335 0.65567815 -0.13935386
000180 71 c6 0d c0 56 0c 5c bf dd 1c 11 3f ce 81 35 be
       -2.215237 -0.85956323 0.56684667 -0.17725298
000190 4f b8 80 be 35 25 a6 3f 45 96 19 c0 ee e0 0e be
       -0.25140616 1.2980105 -2.3997967 -0.13952991
0001a0 a7 89 fa bf 7c ad 38 c0 da 47 e8 3b b0 aa e8 3f
       -1.9573258 -2.8855886 0.0070886435 1.817709
0001b0 6e 77 37 c0 00 7f 04 3f de 93 24 3f 54 26 0c 40
       -2.8666644 0.51756287 0.6428813 2.1898394
0001c0 91 14 97 3e cc e5 be bf d4 87 2e c0 3d de 3d c0
       0.29507878 -1.4913878 -2.7270403 -2.9666893
0001d0 6f d9 e1 3f 40 7c 48 3f 64 1d 00 bf 31 48 36 bf
       1.764448 0.7831459 -0.50044847 -0.71203905
0001e0 c8 f1 b0 c0 94 e1 aa c0 ce 9a 7d be 4f 2f 7a 40
       -5.5295143 -5.3400364 -0.24766085 3.9091375
0001f0 0d 12 fe 3e 21 5b 64 40 ef 5f 04 41 31 1a 99 bf
       0.49623147 3.568062 8.273421 -1.1961118
000200 d0 7d cc 40 19 73 16 40 7c 4d 35 3d 93 b6 0d 3f
       6.390358 2.350775 0.044263348 0.5535671
000210 37 df 92 3f 19 02 31 3e a5 ac c5 3f d5 fe 74 bf
       1.147437 0.17285956 1.5443312 -0.9570134
000220 2d 42 fa 3e 15 c7 77 be e6 de 98 3f 8f e2 f7 3f
       0.48878613 -0.24197038 1.1943023 1.9366015
000230 9e 43 b6 bd 7f 7f ba 3e 18 a2 e3 bf cf 0a a8 3f
       -0.08899616 0.36425397 -1.7783842 1.3128299
000240 95 bd 86 3f ac 87 01 c0 dd ad a1 bf 02 f3 09 3e
       1.0526606 -2.0239058 -1.2631184 0.13471606
000250 df fc 47 c0 ee ad 6a bf 9e 16 61 c0 c2 7e 5d bf
       -3.124809 -0.91671646 -3.5170054 -0.8652154
000260 0d bc 6f c0 32 3c 52 3e 99 a3 8c c0 d2 76 5d c0
       -3.7458527 0.20530775 -4.3949704 -3.4603772
000270 51 d4 14 c0 a9 df 18 c0 a8 f5 9e 3f 54 5e d1 3f
       -2.3254588 -2.3886511 1.2418718 1.6356912
000280 64 42 98 bf 5a bd ff bd b0 03 1b bf 4d 56 01 3f
       -1.1895261 -0.12487288 -0.605525 0.5052231
000290 8b 1e 61 c0 ad 87 a0 bf d7 34 71 be 2c 6c 8f 3e
       -3.5174892 -1.2541405 -0.23555313 0.28012216
0002a0 81 d1 62 40 3d ca 19 40 fb 49 50 be c3 d6 f3 bf
       3.544037 2.4029686 -0.20340721 -1.9049915
0002b0 1a 51 a8 40 f7 ae b0 3f 4f 3d 83 3f f6 5c 81 3f
       5.2599 1.3803395 1.0253085 1.0106494
0002c0 44 e2 5a c0 5c d0 23 3f e7 9b 8e 3f 0b 9c 2d c0
       -3.4200602 0.63989806 1.1141328 -2.712649
0002d0 90 ac 38 c0 b3 b5 b4 3f 43 67 f0 3e 93 c8 1d 3e
       -2.8855324 1.411795 0.46953782 0.15408544
0002e0 e0 75 f7 bf cf e6 5f 3f f8 a6 9b c0 10 ec 03 40
       -1.9332848 0.8746156 -4.864132 2.061283
0002f0 f4 a4 55 c0 aa 63 62 3f 1e df b5 bb 60 df 74 be
       -3.338193 0.88433325 -0.0055502793 -0.23913336
000300 9f 80 14 bf d8 c3 bd 3f b9 4b 93 bf d3 30 24 be
       -0.5800876 1.4825392 -1.1507484 -0.1603425
000310 1b b9 05 c0 2e 8a 00 bf 10 9e 79 3e 91 e9 a9 3e
       -2.089423 -0.50210845 0.24376702 0.3318601
000320 c8 33 6e 3f 7b 43 79 3f fb 19 8e bb 63 f7 30 40
       0.9304776 0.9736859 -0.004336593 2.7650993
000330 17 72 3b c0 a1 b4 8e c0 ad 22 eb c0 93 14 72 3d
       -2.9288385 -4.4595494 -7.347983 0.059101652
000340 2c d7 cd bf 10 e4 8a 3f 27 46 14 40 0c d5 c2 3f
       -1.608129 1.0850849 2.3167818 1.5221267
000350 18 9c 3b bf 8a 77 00 40 5c 68 3a c0 24 56 ac c0
       -0.73285055 2.007296 -2.9126196 -5.385515
000360 95 12 c6 3f e5 05 8d 3e 8d c4 af bd 74 af 09 40
       1.5474421 0.2754356 -0.08582411 2.1513338
000370 ee 41 8a 40 91 ff 02 40 00 79 50 40 5e 31 5f bd
       4.320548 2.0468485 3.2573853 -0.05449044
000380 7e e9 72 40 21 a1 64 c0 38 e0 02 3f ac 1a 32 40
       3.7955012 -3.5723345 0.5112338 2.782878
000390 a4 14 ce bf 91 65 1c c0 4b 12 a2 3e 4f 0d 1d c0
       -1.6100049 -2.4436991 0.3165458 -2.4539373
0003a0 fb ef 3b 3f 53 5b cd be ce 20 71 3e 52 d6 8f 3f
       0.73413056 -0.40108737 0.2354767 1.123728
0003b0 64 a5 ad bf 41 a9 32 3e 25 14 35 be 34 a8 1b 40
       -1.3566098 0.17447378 -0.17683466 2.4321413
0003c0 1f ce 3a c0 df 78 bf c0 41 26 20 be 2c 01 52 bf
       -2.9188306 -5.983505 -0.15639593 -0.8203304
0003d0 93 0a 41 40 5b dd 12 3f 34 a0 23 be 54 3c d1 bf
       3.0162704 0.5736901 -0.15979081 -1.6346536
0003e0 08 4c 31 bf 9c cd db bf 72 5a 0d c0 96 e0 7b bf
       -0.6925664 -1.7172122 -2.2086453 -0.98389566
0003f0 ba 71 20 c0 31 c2 2b c0 c2 66 c7 bf c5 01 40 3e
       -2.5069413 -2.6837275 -1.5578234 0.18750675

lstm.bias_ih_l0 f4 [40]
000000 59 c5 ac bf 45 b0 97 bf 6c db a1 bf 2e 44 a3 bf
       -1.3497726 -1.1850668 -1.2645087 -1.2755182
000010 6d 0c 00 c0 ff 51 c9 bf 87 af 8d bf 06 90 68 bf
       -2.0007584 -1.5728148 -1.1069192 -0.9084476
000020 df 85 08 c0 57 5b 6c bf 6f 2a c2 3f 16 b2 cf 3f
       -2.1331708 -0.92326874 1.51692 1.6226223
000030 66 64 a6 3f 92 64 74 3f 2d fa 85 3f 6c b7 d3 3f
       1.2999389 0.9546596 1.0466973 1.6540351
000040 72 d4 6f 3f 8c 14 21 40 3c 5d 40 3f e8 1b 81 3f
       0.9368354 2.516879 0.75142264 1.0086641
000050 28 85 9e bf 13 d4 3c bf 60 d3 d2 3e 70 46 e1 be
       -1.2384386 -0.737611 0.4117689 -0.43999052
000060 31 85 3b 3e 96 1a 95 3e 3c 78 6c 3f 34 3a 8f bd
       0.18312527 0.29121846 0.92370963 -0.06993523
000070 0c 6d 87 3e cc 2e b6 3e 9f f0 82 be db 8a b2 bf
       0.26450384 0.35582578 -0.25574204 -1.3948625
000080 b2 6f bc bf 62 3b 00 3f 4a cd 4a bf 1d 51 b2 bf
       -1.4721587 0.5009061 -0.79219496 -1.3931004
000090 58 a5 b0 bf 80 58 b6 3c 23 c8 05 3f 10 8c cc 3a
       -1.3800459 0.022258997 0.5225851 0.0015605707

lstm.bias_hh_l0 f4 [40]
000000 17 93 c6 bf 92 ee c7 bf 8d 98 91 bf 6a fa 8b bf
       -1.5513638 -1.5619681 -1.137468 -1.0935795
000010 02 d7 d2 bf ca 4f 8e bf 21 89 ba bf 23 77 63 bf
       -1.6471865 -1.11181 -1.4573098 -0.88853663
000020 e3 3b 0b c0 02 00 87 bf 2b 86 95 3f b2 3e a1 3f
       -2.1755302 -1.0546877 1.168157 1.2597258
000030 eb 3c ea 3f f9 92 39 3f 88 94 79 3f dc 4e ab 3f
       1.8299841 0.7248989 0.97492266 1.3383441
000040 11 74 dd 3e 65 ae 0d 40 ca 38 3c 3f 6e 76 8f 3f
       0.43252614 2.2137692 0.73524153 1.1208017
000050 ca 43 82 bf 22 e8 21 bf 11 34 f9 3e 4d c8 1d bf
       -1.0176938 -0.6324483 0.48672536 -0.6163376
000060 8b 39 21 3f 24 76 09 3f bf 69 44 3f 36 c5 b4 be
       0.6297843 0.53695893 0.76723856 -0.3530671
000070 84 2b aa 3e 60 74 8d 3d 30 66 47 3e 2a b3 7e bf
       0.33236325 0.069069624 0.19472575 -0.9949213
000080 19 d4 bd bf 93 cf 72 3e e0 d9 4c bf 48 09 bc bf
       -1.4830352 0.23711996 -0.8001995 -1.4690332
000090 0c 41 c6 bf aa af de be f8 87 14 3f 5c 74 a9 bb
       -1.5488601 -0.43493396 0.5801997 -0.005171342

lstm.weight_ih_l0_reverse f4 [40, 20]
000000 59 43 87 bf 7e c6 92 bf 9b 3b 31 be dc f1 30 3e
       -1.0567428 -1.1466825 -0.17307894 0.17279762
000010 bb 2f e8 3f fe 6d 1a bf b8 bc 57 bf c1 85 92 3f
       1.8139566 -0.60324085 -0.84272337 1.1447068
000020 65 2c bf 3e 2f eb 93 3f 84 f5 83 be 5d 42 2a be
       0.37338558 1.1556147 -0.2577325 -0.16626878
000030 ce 41 95 bf d1 ad d4 be 40 67 2e 3e d0 d7 c2 bd
       -1.1660707 -0.4153886 0.17031574 -0.09513819
000040 9f 9d 3a bf 21 9d 0f 3e 6a c0 b6 3f 10 7b 65 3f
       -0.7289676 0.14024784 1.427747 0.89640903
000050 6a d4 44 be 2b b4 0b bf 24 7f e3 3d 93 02 64 bd
       -0.19221655 -0.5457179 0.111082345 -0.055666517
000060 7c 5c 3f 3f 66 06 5f 3f b1 c4 03 3f 16 c7 0a 3f
       0.74750495 0.8711914 0.51472 0.5421003
000070 c9 35 c6 3f 3f 9a 43 3f fc c1 ec 3e a5 aa 48 3f
       1.5485164 0.76407236 0.46241748 0.7838538
000080 bd fe 7b 3f 13 12 05 3f 32 ac 3a 3f a3 23 6e 3d
       0.98435575 0.51980704 0.72919 0.058139455
000090 b3 8d d1 bd ae 92 33 3f 6f 8a c6 3f eb bd 6d 3f
       -0.10232105 0.7014569 1.5510997 0.92867917
0000a0 60 cb 3f 3f 0b d3 da 3f 38 0e 8e 3f be 65 95 3f
       0.749197 1.7095655 1.1098089 1.1671674
0000b0 a0 86 82 3f 7e ae 8d 3e 05 5f 94 3f b0 4f a7 be
       1.0197334 0.2767219 1.1591498 -0.32677984
0000c0 7a ef e1 3f 7b da 2b 3f 42 8f 65 3f c1 9a 85 3e
       1.7651207 0.6713025 0.8967172 0.2609463
0000d0 b9 ca 78 3f ba c5 9a 3f bb d4 cb 3f 33 a6 4a 3f
       0.9718433 1.2091591 1.5924295 0.7915985
0000e0 10 fe 73 3b 67 51 4a 3f 0b df 66 3d c9 2f 05 3f
       0.003723029 0.7903046 0.056365054 0.5202604
0000f0 93 9e 68 3e 4f 8d 56 bf 0b 89 a7 be a5 a7 79 3d
       0.22716741 -0.8380937 -0.32721743 0.060950894
000100 db 95 d1 3e 8a ff 7d bd b7 a2 71 3f 57 b2 07 3f
       0.40934643 -0.06201128 0.9438891 0.530065
000110 12 f9 46 3f fd e7 56 3d c8 35 19 3e b9 9f 1b 3f
       0.777238 0.052467335 0.14961922 0.6079059
000120 9c 8d 4b 3d c6 b6 39 3f 2b 68 65 3f 62 cb 0d bf
       0.049695596 0.72544515 0.8961207 -0.5538846
000130 a5 cd 7d 3e 42 c7 0e 3f 19 f1 cf 3e 0b e3 e0 be
       0.24785478 0.55772793 0.4061363 -0.4392322
000140 1a 48 72 bf bd bc 08 3f 79 9e 30 40 19 d9 d5 3f
       -0.9464127 0.5341299 2.7596724 1.6706878
000150 a7 4c c8 bf 24 4e d4 be e9 28 55 3e 78 b9 a4 3e
       -1.5648392 -0.41465867 0.20816387 0.3217275
000160 bb 11 11 40 68 e5 12 be df 99 e5 bf 46 df 60 bc
       2.2667072 -0.14345324 -1.7937583 -0.013725108
000170 98 7b 71 be b9 f8 35 3e ea 5d f6 3f ed 17 01 c0
       -0.23582304 0.17770661 1.924741 -2.0170853
000180 79 35 84 bf 2f 19 c7 3e c8 74 40 3f 16 1e d5 bd
       -1.0328819 0.388864 0.75178194 -0.10406129
000190 75 f7 2e 3e 7e b4 c4 3e 34 f6 a9 3f 32 d2 aa 3f
       0.17086585 0.38418955 1.327826 1.3345397
0001a0 24 6e b2 3e 11 5b f9 bf 4c 03 00 3f 72 b2 9c 3e
       0.34849656 -1.9480916 0.5000503 0.30604893
0001b0 8a 9e b8 3f 68 02 22 3f 91 72 69 bf 47 d5 e2 bf
       1.4423382 0.6328492 -0.9119044 -1.7721337
0001c0 36 4a d3 3e bf 24 b1 3e 98 12 be 3f ef 7e 0d bf
       0.41267556 0.34598348 1.4849424 -0.5527181
0001d0 67 d6 88 bf fe 74 7a be d3 75 2a bf e8 ec 68 3e
       -1.069043 -0.24458691 -0.66586035 0.22746623
0001e0 04 50 9e 3f 6e 9a 6d 3f f3 14 1f 3f 09 c2 9c 3e
       1.2368169 0.92813766 0.6214134 0.30616787
0001f0 2d b0 49 3e 55 33 2c 3f 8c f6 9e 3e eb d9 2a 3f
       0.19696112 0.67265826 0.31047475 0.66738766
000200 f7 53 6d 3f 67 e2 99 3f 65 8e 50 3f 22 35 da bd
       0.92706245 1.2022218 0.81467277 -0.106546655
000210 25 41 6d 3f 78 95 df 3d 43 ec 90 3f da 4c 42 3f
       0.9267753 0.10917181 1.1322101 0.75898516
000220 a0 53 d4 3e 0d 6c 91 3f a5 c2 cc 3f 18 b7 08 bf
       0.4147005 1.13611 1.5996901 -0.5340438
000230 cb 27 97 3f a7 7b 50 3f c7 1a bf 3f fa 2d 87 3e
       1.1809019 0.8143868 1.4930047 0.26402265
000240 f3 2a aa 3f 3b cf 25 3f 3d 15 83 3f 12 ca 2e 3f
       1.3294357 0.64769334 1.0240856 0.68277085
000250 f9 5b a9 3f a9 89 5a 3f b7 f2 2e 3e 33 e5 c8 be
       1.3231193 0.853663 0.17084776 -0.39237365
000260 ae 6c 84 3f 94 17 ca 3f f2 9b 97 3e a4 94 98 3f
       1.0345666 1.5788445 0.29611164 1.1920362
000270 9b a6 d8 be 0d b2 9e 3f 53 74 ba 3f b4 52 00 40
       -0.4231461 1.2398087 1.4566749 2.0050478
000280 78 bd 41 3f bd 92 ad 3f f8 19 af 3f e8 7d 35 3f
       0.7567973 1.3560406 1.36798 0.7089524
000290 99 9d 38 be 34 88 87 3f e0 a9 1a 3f 35 92 4b 3f
       -0.18028869 1.0588441 0.6041546 0.7951997
0002a0 59 7e b0 3f 97 8e 95 3f f0 28 be 3f af 65 7e bf
       1.3788558 1.168414 1.4856243 -0.99373907
0002b0 3e 09 8d 3f 5c a2 36 3e 56 28 76 3f 86 d5 43 3f
       1.1018445 0.17835373 0.961553 0.76497686
0002c0 f3 1b f3 3d 35 0d 84 3f b4 db 09 bf 35 a5 91 3f
       0.11870565 1.031653 -0.53850865 1.1378542
0002d0 c9 ef 28 bf 0e 86 b9 c0 a2 6a 84 3e 39 05 42 bd
       -0.65990883 -5.797614 0.25862604 -0.047368262
0002e0 88 46 fe 3e be 03 f3 be 7e ea cd 3e 40 40 6b c0
       0.49663186 -0.47463793 0.40217966 -3.6757965
0002f0 8f f2 c0 3f 0f a6 19 bf 6e d6 08 c0 25 82 f7 be
       1.5074023 -0.6001901 -2.1380877 -0.4834148
000300 5e 1b 02 bf 24 10 20 be 18 62 a8 3f 96 3b 27 bf
       -0.5082301 -0.15631157 1.3154936 -0.65325296
000310 50 f2 2a 3e cd 2a 35 be d1 0e 80 3f 3e 93 72 bf
       0.16693997 -0.17692108 1.0004522 -0.94755924
000320 e3 41 29 be 2e 88 89 bf 3d 87 0d 3f d7 15 e5 3d
       -0.1652904 -1.0744684 0.5528448 0.11185806
000330 99 22 1e 3f 61 d4 be be f0 c7 fb 3e 49 cf 29 bf
       0.6177154 -0.37271407 0.49175978 -0.6633192
000340 47 d5 81 3e 0b 7b 07 bd a4 73 17 be 3b 7d bb be
       0.2535803 -0.033076327 -0.14790207 -0.3661898
000350 fc 46 24 bf ec eb 07 40 0a 30 1c 3f 40 f8 23 3e
       -0.64170814 2.1237745 0.610108 0.16012669
000360 72 4e 89 be 88 11 8e be e4 59 be 3e a6 9b 49 3c
       -0.26817662 -0.2774775 0.37177956 0.012305176
000370 bc 16 c7 3e 4c ca 8e bf 40 0c 88 40 42 27 1d 40
       0.38884532 -1.1155486 4.2514954 2.455521
000380 da 15 9b bf 5e 74 7b 41 ce 18 a7 3d 41 7f 88 bf
       -1.2116044 15.71591 0.08159028 -1.0663835
000390 34 b9 96 bf 89 10 64 41 90 07 4a 40 29 2a 3d be
       -1.177527 14.254037 3.1567116 -0.18473114
0003a0 48 c0 df be e0 65 79 41 90 a7 92 bf 84 31 af be
       -0.43701386 15.587372 -1.1457386 -0.34217465
0003b0 d0 2a e1 be d5 4b ce 3e 1e 24 57 41 c6 34 1e 41
       -0.43977976 0.4029223 13.446318 9.887884
0003c0 ab e4 e9 be 2b bf 74 be e1 1a 16 bf 69 09 96 be
       -0.45682272 -0.2390105 -0.58634764 -0.29304054
0003d0 91 b0 38 3e 4e 0a 13 bf b0 9a a0 bf 18 b9 a2 bf
       0.18036105 -0.574376 -1.2547207 -1.2712736
0003e0 bf fb a0 be e0 bd 2a 3f 47 6d 9a 3e 4b bd 93 bf
       -0.31442067 0.66695976 0.30161497 -1.1542143
0003f0 19 32 4d bf b5 82 94 bf 0f 79 c4 bf ff 81 8f 3e
       -0.8015457 -1.1602389 -1.5349444 0.28028867

lstm.weight_hh_l0_reverse f4 [40, 10]
000000 f5 cc 22 40 ff b3 30 3c f4 ec 4d be c1 b3 95 bf
       2.5437596 0.010785102 -0.20109922 -1.1695482
000010 93 12 9d 3e 85 20 a5 3e 36 c5 a3 3f 22 8a 46 3f
       0.30678234 0.32251373 1.2794559 0.77554524
000020 61 bc d0 bf e4 cf 85 3d c6 a1 03 40 78 eb 32 40
       -1.6307489 0.065337926 2.0567489 2.7956219
000030 8a a9 be 3e c7 1d 89 bf 81 ac c8 3f b6 b5 20 3e
       0.37238723 -1.0712212 1.5677644 0.15694317
000040 68 13 c8 bf f1 cc fb 3e c5 2c 4a bf 6b 1a 85 bf
       -1.5630922 0.49179795 -0.7897456 -1.0398687
000050 41 73 4f 3e 4a 5a 0b 3f bb 1c bb be 46 bc 22 bf
       0.2025881 0.54434645 -0.36545357 -0.6356853
000060 75 9f 1b 3f d2 95 c4 be 31 e3 2a c0 98 ac b1 bf
       0.6079019 -0.38395554 -2.6701167 -1.3880796
000070 7e 76 f3 bf 55 28 84 bf 2a 31 09 be 04 1b c3 3d
       -1.9020536 -1.0324808 -0.13397661 0.09526637
000080 12 30 10 40 0c b1 ab bf 5b 0d cc bf 9f 91 6e bf
       2.252934 -1.3413405 -1.5941576 -0.9319095
000090 58 65 9f bf 30 d3 7b bf 6d 09 76 c0 74 90 c3 be
       -1.2452803 -0.9836912 -3.8443253 -0.38196146
0000a0 c5 b1 a0 3f 4d c1 11 3e 5c 61 08 3f f0 37 2e bf
       1.2554251 0.14233895 0.5327356 -0.68054104
0000b0 84 49 53 3f 2f ce 53 3f 94 18 25 3e 23 d7 18 c0
       0.8253405 0.82736486 0.16122657 -2.388131
0000c0 11 b0 f4 3f 82 d6 2d bf 90 79 23 bf 53 64 da 3f
       1.9116231 -0.6790544 -0.63857365 1.7061867
0000d0 f5 69 14 bf 9a bb 1a c0 0a d3 0e 3e 51 f5 49 bf
       -0.5797418 -2.4177003 0.13947693 -0.7888995
0000e0 df 37 24 3e a3 14 45 3f 22 e1 ce 3e fd b4 96 bf
       0.16036938 0.76984614 0.40406138 -1.1773983
0000f0 24 15 ee 3f 82 b8 ce be 18 7c df 3f b7 49 c2 3f
       1.8600202 -0.40375143 1.7459745 1.5178746
000100 19 02 6c 3c b2 1d c9 3f 3a bf 46 3f 82 b1 ca bf
       0.014404797 1.5712187 0.7763554 -1.5835421
000110 2e 04 5a 3f be af 94 be 69 2d 1d c0 85 d7 a3 3f
       0.8516263 -0.2904033 -2.4558966 1.2800146
000120 be 90 0d bf 72 55 69 bf 0d e3 8f bf 52 8d 8c 3f
       -0.55298984 -0.91146004 -1.1241165 1.0980628
000130 99 c2 7d bf b8 c6 4e 40 7b 1f 6b bf 53 ac 54 3f
       -0.9912506 3.2308788 -0.9184491 0.83075446
000140 30 d8 12 bf 2e b9 8b bf 6c 27 10 3f 77 bd 2d c0
       -0.57361126 -1.0915887 0.56310153 -2.714689
000150 4d c1 d7 bf 0c c8 4c 3f 21 9b f4 bf 4c 88 7a 3e
       -1.6855866 0.7999275 -1.9109842 0.24466056
000160 b6 b2 2a c0 49 4e ef be e7 c5 9c 3f de 81 dd 3c
       -2.6671576 -0.46739414 1.2247895 0.027039465
000170 15 34 b7 bd aa f9 fd 3e 04 92 10 bf 87 dd 8e be
       -0.08945481 0.4960454 -0.564728 -0.27903387
000180 4f 10 63 3d bb d8 95 bd f0 49 75 bf b9 4c 3f 3f
       0.055435475 -0.07316729 -0.95815945 0.74726444
000190 1d 59 44 be 3c 18 75 bf db aa 13 3f 00 a7 04 be
       -0.19174619 -0.95740104 0.5768258 -0.1295433
0001a0 18 4d da 40 73 a9 15 40 8c 82 36 bf a0 3a 61 3f
       6.821911 2.3384674 -0.7129295 0.8798008
0001b0 67 a8 11 c0 ff e1 f3 be 87 11 85 3f 10 8f 83 40
       -2.2759035 -0.4763336 1.0395974 4.1112137
0001c0 1f 6f 5d bf 85 96 db be 02 65 98 40 40 1d 03 3f
       -0.8649768 -0.42888275 4.76233 0.51216507
0001d0 98 f3 9f 40 99 a9 87 c0 c4 cc 5a c0 d2 77 b8 bf
       4.9984856 -4.239453 -3.418748 -1.4411566
0001e0 c0 87 2c be c0 1f 8d bf 55 8d 40 c0 0e cd 04 c0
       -0.1684866 -1.1025314 -3.0086262 -2.0750155
0001f0 bf da ce 3e 6a c2 3b c0 48 b1 c5 be 29 93 d8 3e
       0.40401265 -2.933741 -0.38611817 0.42299774
000200 74 51 1e 3f 52 2a de 3f bc 1e dc 3c ce ea 98 3f
       0.6184304 1.7356665 0.026870124 1.1946657
000210 69 4d e6 be bc cc 4b 40 51 0a 46 bc 17 28 5d 3d
       -0.44980934 3.184371 -0.012087421 0.05399331
000220 04 45 84 bf 7a 9b 90 3f 43 75 11 40 15 9f 97 3f
       -1.0333562 1.1297448 2.272782 1.1845423
000230 22 f5 7c 40 c6 79 ec bc ef 1c a9 bf 4f 37 1d 3f
       3.9524617 -0.02886666 -1.3211955 0.6141252
000240 3e 60 1c 3f 3f 4e 08 c0 4a 88 f8 3f 15 21 36 be
       0.61084354 -2.1297758 1.9416592 -0.17786057
000250 6d 0b 20 be 29 43 38 3f 76 19 3e 3f 8f ed e1 c0
       -0.15629359 0.7197748 0.742576 -7.060249
000260 91 33 d7 bf a0 a8 0a be d2 23 d4 bf ec 94 80 c0
       -1.6812612 -0.13540888 -1.6573431 -4.018179
000270 d0 97 ef 3f de 62 08 41 31 21 26 40 0b f1 37 3f
       1.8718204 8.5241375 2.5957758 0.7185218
000280 30 60 87 bf ff f7 37 bf 02 4e 72 3e 78 46 03 40
       -1.0576229 -0.71862787 0.2366257 2.051176
000290 97 c5 18 bf ea a5 39 bd d1 00 44 c0 18 db 0e 40
       -0.596765 -0.045324244 -3.0625498 2.2321224
0002a0 d0 d1 fe bf f5 05 a4 3f ee 83 68 c0 a7 c9 b9 bf
       -1.990778 1.2814318 -3.6330523 -1.4514664
0002b0 f4 1a b6 bf 2b 7c ba 3e aa 68 85 3f b0 71 24 3f
       -1.4226975 0.36422858 1.0422566 0.64235973
0002c0 03 b8 02 bf e0 e7 73 3f c3 09 35 c0 2a 7d 38 3f
       -0.5106203 0.9527569 -2.8287208 0.72065985
0002d0 0d ff a0 be 90 86 83 be 54 65 d6 bf 27 5b 15 40
       -0.31444588 -0.256886 -1.6749673 2.3336885
0002e0 d5 5e 03 c0 43 72 0b be 14 c0 1d 40 8e 77 9f 3f
       -2.052663 -0.13617806 2.4648485 1.245836
0002f0 81 1d c0 3e 83 b0 30 3f d4 30 b4 3f 2d d7 e1 3e
       0.3752251 0.69019336 1.4077401 0.4410948
000300 d4 8c 05 bf c4 f3 b6 3f e6 54 19 3e fd e2 34 40
       -0.5216801 1.4293141 0.14973792 2.8263543
000310 e7 2f 10 c0 9b 22 92 3f d1 73 94 3f b3 52 7d bf
       -2.2529237 1.1416811 1.1597844 -0.98954314
000320 cb 7f 58 40 3f 76 80 bf b4 8e 52 3f 7d d8 bd 3f
       3.3827999 -1.0036086 0.82249 1.4831692
000330 65 3f 28 c0 29 4d 67 bf ac 6a a4 bf c7 d9 ea be
       -2.6288693 -0.9035211 -1.2845054 -0.45869276
000340 84 10 29 bd cc ac b0 3e eb 58 0f c0 21 f3 07 3f
       -0.041275516 0.34506834 -2.2398021 0.5310536
000350 8e d2 cf bd 54 a8 a6 be 6a 21 11 c0 f7 1f 5c bf
       -0.10147582 -0.325503 -2.2676644 -0.85986274
000360 ab 06 a9 bc f0 2d 2a c0 6b 5c d2 3f b4 00 0a 40
       -0.020633062 -2.6590538 1.6434454 2.156293
000370 33 0c 45 3e 94 51 96 bf a5 62 32 40 95 17 02 40
       0.19242935 -1.1743646 2.7872708 2.0326893
000380 c0 17 f4 bf 05 34 23 bf a6 a1 1a c0 ee 04 b0 3e
       -1.9069748 -0.6375125 -2.4161162 0.3437876
000390 50 8d 56 bf 1f 38 ed 3f c3 af 64 bf e2 35 11 40
       -0.83809376 1.8532752 -0.8933069 2.2689137
0003a0 05 b7 14 3f b5 4b 1c 40 7e 2a 41 40 99 04 2d 40
       0.58091766 2.4421208 3.0182185 2.7034056
0003b0 75 67 f1 be 9d 62 7d 3f 0e 82 28 bf 92 46 12 c0
       -0.47149244 0.98978597 -0.6582345 -2.2855573
0003c0 a1 d6 99 c0 26 32 4b 40 e0 ad 75 bf 5f fc 25 40
       -4.80745 3.1749358 -0.9596844 2.5935285
0003d0 48 59 9c 3f 25 41 05 bf 3a e3 d5 40 1e 75 c8 bf
       1.2214746 -0.5205253 6.6839876 -1.5660741
0003e0 0c d6 1a 40 b0 ad a9 c0 a5 16 87 c0 3c e8 3e 40
       2.4193144 -5.302452 -4.221514 2.9829245
0003f0 61 54 6b bf 5b 3a 85 c0 c8 e3 19 40 fd b9 ad c0
       -0.91925627 -4.1633735 2.4045277 -5.4289536

lstm.bias_ih_l0_reverse f4 [40]
000000 de 2d 85 bf 8a c3 d1 bf 7f 32 64 bf 0b 4c 13 c0
       -1.0404623 -1.6387799 -0.8913955 -2.3015163
000010 bf 25 90 bf 8c 53 cd bf 74 e1 0b c0 be 0f 1a c0
       -1.1261519 -1.6041121 -2.1856356 -2.4072108
000020 f0 68 07 c0 76 27 75 bf 83 b6 a2 3f 08 0f f9 3f
       -2.1157799 -0.9576334 1.2711948 1.9457712
000030 c0 69 a9 3f e9 b6 e8 3f e2 8f 75 3f 5a 6e b4 3f
       1.3235397 1.818082 0.9592267 1.4096177
000040 55 3c c5 3f ca 02 08 3f cf 03 b4 3f 8d 9e 0b 40
       1.5409037 0.53129256 1.4063662 2.1815522
000050 e1 c9 14 3e 48 56 3e be 5e 75 34 3e b4 17 86 be
       0.14530136 -0.18587601 0.17622897 -0.2618996
000060 df d9 0d bf d2 c3 a3 3e 2b 55 67 3f 40 5e 27 3e
       -0.5541057 0.31985337 0.9036433 0.16344547
000070 67 07 85 3d e7 b5 83 3f 94 84 c7 be e5 06 f4 be
       0.064955525 1.0289887 -0.38968337 -0.4766151
000080 43 8a 81 bf bf d7 e1 3e ff 8e 58 bf c4 5e ef be
       -1.0120319 0.44109914 -0.84593195 -0.46751988
000090 7d a0 a6 3f c0 ed d2 3e 35 29 c3 bd 0e 63 02 3f
       1.3017727 0.41197014 -0.09529344 0.50932395

lstm.bias_hh_l0_reverse f4 [40]
000000 00 e7 c7 bf 13 5d da bf 8d 0f 59 bf 12 1c f3 bf
       -1.5617371 -1.7059654 -0.84789354 -1.8992941
000010 38 0c c3 bf 56 8e cd bf 30 0b 0b c0 50 6c f2 bf
       -1.5238104 -1.6059062 -2.1725578 -1.8939304
000020 c2 b1 f8 bf eb 53 8c bf c9 1d 73 3f 8c 27 0f 40
       -1.9429247 -1.096311 0.94967324 2.2367887
000030 21 9b a9 3f 98 62 14 40 8f 89 c2 3f b9 12 d5 3f
       1.3250467 2.3185177 1.519823 1.6646339
000040 ed 94 b1 3f 98 25 d3 3e cd 13 a8 3f 28 57 d4 3f
       1.3873574 0.4123962 1.3131043 1.6589098
000050 da bd cb bd 48 d8 74 be d9 a0 c3 3e ed e5 f8 be
       -0.09948321 -0.2391063 0.38208655 -0.4861292
000060 8b fa 9d be 0c d1 03 3f 87 e8 40 3f a9 19 0e 3e
       -0.30855212 0.51490855 0.7535481 0.13876976
000070 f7 0b a9 bd cc 5d fd 3e c8 0f ea be d4 0f 22 bf
       -0.08254235 0.49485624 -0.45715165 -0.633054
000080 13 43 7f bf e3 4d 7c 3f e8 da a4 bf 9b 6e 38 bf
       -0.9971172 0.98556346 -1.2879305 -0.7204377
000090 01 01 bf 3f 2d bd 06 3f 88 00 ca 3d 25 16 f0 3e
       1.4922181 0.5263241 0.098633826 0.46891895

lstm.weight_ih_l1 f4 [40, 20]
000000 35 c7 13 c0 bb 04 95 3f 74 3e 33 40 21 65 e0 3f
       -2.3090336 1.1642069 2.8006868 1.7530862
000010 bf 29 b2 40 2e af 8b c0 fe 4d 92 3f df aa 80 c0
       5.567596 -4.3651342 1.1430051 -4.0208583
000020 c2 16 62 40 51 17 a1 3f 40 c1 48 3f 06 50 91 3e
       3.532639 1.2585241 0.78419876 0.28381366
000030 7d 68 0a 3b 54 7e 20 c0 94 d7 68 3f fb 14 03 40
       0.0021119409 -2.5077105 0.90953946 2.0481555
000040 84 6b 26 40 c2 a7 53 40 0f cc 51 c0 6a 02 16 3f
       2.6003122 3.3071141 -3.2780797 0.58597434
000050 d6 16 3c c0 e4 eb 04 bf 4d e5 66 3f 14 b7 98 3e
       -2.9388938 -0.5192244 0.90193635 0.29827178
000060 34 d5 93 3e 86 66 68 40 71 4d c0 40 76 57 a2 bf
       0.288736 3.6312575 6.0094533 -1.2682941
000070 e5 53 d5 3e c2 d9 32 c0 b1 3d 31 3c df 14 b9 3e
       0.4166557 -2.794541 0.010817931 0.36148736
000080 a4 6d 9c 3e 4e a3 0b 40 88 f7 13 3f de de 18 3f
       0.305524 2.1818423 0.5779958 0.5971507
000090 31 c9 c2 be 60 a2 69 40 2d d1 92 3f 46 f5 16 c0
       -0.38044122 3.6505356 1.1470085 -2.3587203
0000a0 56 c3 68 c0 3f 43 09 40 0d 77 61 40 10 db c2 bf
       -3.6369224 2.1447294 3.5228913 -1.5223103
0000b0 12 d2 f8 3f 94 58 df 3e ca 37 24 40 5c a8 c1 40
       1.9439108 0.43622267 2.565905 6.0518017
0000c0 6b 47 05 c0 9e c1 12 bf 2b 88 c6 bf 1a 4e ac 40
       -2.082484 -0.57326686 -1.5510305 5.384534
0000d0 dc 35 23 40 7d 3d 23 3f 36 68 9b 3f dc bd fa bf
       2.5501623 0.637657 1.2141178 -1.958919
0000e0 d0 a6 a5 c0 af 46 da c0 1b b0 84 40 ed fb 74 3d
       -5.176613 -6.8211284 4.1464972 0.059810568
0000f0 ee 05 96 be cd cb 9a bd 8d 72 7a c0 16 d3 b4 3f
       -0.293014 -0.07558403 -3.9132416 1.4126918
000100 3e 24 63 c0 08 40 69 40 36 96 2a be e3 96 52 40
       -3.549087 3.6445332 -0.16658863 3.2904594
000110 95 df 3a c0 c9 44 8d bf 6d 42 08 c0 95 b7 34 40
       -2.9198964 -1.1036617 -2.1290543 2.823705
000120 aa b9 bc be fd 24 23 c0 f5 60 f0 3d ae e5 80 40
       -0.368604 -2.5491326 0.11737243 4.028037
000130 3c e6 8a 3f ad fb f4 bf a6 4e 10 3e 11 70 36 3f
       1.0851512 -1.9139305 0.14092502 0.7126475
000140 6a d9 03 40 b9 e2 71 3f 2b 7c 76 c0 16 5b 25 40
       2.060145 0.94486576 -3.8513286 2.5836844
000150 2e 95 1c c0 97 fb 45 c0 65 73 7c 3f 68 0a d9 3f
       -2.4466052 -3.0934808 0.9861358 1.6956301
000160 6c 00 b4 3f af 75 21 40 d2 4f ce 3f 2a a9 59 3f
       1.4062629 2.5228078 1.6118109 0.8502375
000170 f7 f2 33 3f 4a bd b7 3f c7 01 07 3f 72 1e 9e 3f
       0.7029261 1.4354641 0.52737087 1.2353041
000180 33 e1 82 bf 9e 10 33 40 fb 14 90 3f e0 f4 0d c0
       -1.0224975 2.7978892 1.1256403 -2.218071
000190 1b 2c 96 40 55 47 bd 40 d3 a1 88 40 94 b7 ee 3f
       4.692884 5.9149575 4.269754 1.8649774
0001a0 da 4f 21 bf 99 d6 d5 c0 00 32 4b 3f f1 ec b0 3f
       -0.6301247 -6.682446 0.7937317 1.3822309
0001b0 66 98 9b c0 6f de 85 3e ee f7 5b c0 c3 3f a8 bf
       -4.8623533 0.26146266 -3.4370074 -1.3144459
0001c0 62 ef c8 bf 74 dd 65 c0 d6 a4 17 40 e8 bb 91 40
       -1.5698054 -3.5916414 2.3694358 4.554188
0001d0 d6 8a 57 40 d2 19 97 40 52 87 15 40 77 78 08 40
       3.3678489 4.721902 2.3363843 2.1323526
0001e0 c2 89 55 3f 4d 4e 18 c0 e4 6c 67 40 d2 17 fe 3f
       0.83413327 -2.379779 3.6160212 1.9851019
0001f0 54 bb 84 bf 9d 65 18 3f 86 fb 3d c0 df 4c a1 3f
       -1.0369668 0.5953005 -2.9684768 1.2601584
000200 e1 1a 37 41 09 cf f3 3f d0 4f c1 3f 4d 0c 5d c0
       11.444062 1.9047557 1.5102482 -3.4538758
000210 4e a4 b0 3f 95 46 90 40 ec 44 2e c0 71 8f bb 40
       1.3800142 4.508616 -2.7229567 5.86126
000220 a3 15 85 be c3 a8 e8 be 21 a8 4c 3f 47 ac ff 3f
       -0.2599307 -0.45441255 0.79944044 1.997445
000230 fb 58 92 40 05 c8 cc 3e ab df a0 bd 81 ca fd 3c
       4.573362 0.39996353 -0.07855161 0.03098035
000240 c7 e0 f7 be 49 8b d0 bf c3 06 ea 3e 67 49 5e c0
       -0.4841368 -1.6292506 0.45708284 -3.4732301
000250 48 43 89 40 32 6c 9e bf 54 06 21 c0 a1 94 1e 40
       4.289463 -1.2376769 -2.5160112 2.4778216
000260 43 10 9a bf 29 1c 04 40 bf e0 1d c1 67 03 8d 3e
       -1.2036213 2.0642188 -9.86737 0.27541658
000270 83 8d ee 3f 59 ed e0 40 2f 1d 99 c0 0a 42 9e bf
       1.8636936 7.028973 -4.7848125 -1.2363904
000280 31 23 96 3f e3 bf cc 3f 08 e1 bb 3f cd 94 7b be
       1.172949 1.5996059 1.4678049 -0.24568482
000290 9d a8 25 3e 94 51 7f 3f 5d 2f 97 c0 e0 94 0e bf
       0.16177602 0.99733853 -4.7245317 -0.55695915
0002a0 e6 02 11 40 c0 13 aa 3f ff da 23 40 2c 4f 7c 40
       2.265802 1.3287277 2.5602415 3.9423323
0002b0 0b 94 4e 40 55 3e 2f 3f aa b7 33 40 9e 42 9a bf
       3.2277858 0.68454486 2.808085 -1.205158
0002c0 33 29 a8 40 ef 7f 81 3f 11 03 53 40 01 4c 54 bf
       5.255029 1.0117167 3.2970622 -0.8292847
0002d0 24 2c 31 3f af cc b1 bf 3d 07 69 bf a8 4f 99 bd
       0.6920798 -1.389059 -0.9102667 -0.07485896
0002e0 6d 3d 77 bb 8a ff fd be 71 1a 83 c0 4c 35 26 3e
       -0.0037725822 -0.49609023 -4.0969777 0.16231269
0002f0 dc 11 40 bf bf f7 64 3e d7 4d ce 3f 3c 4a 52 3f
       -0.7502725 0.22360133 1.6117505 0.8214452
000300 1c 17 59 bf cf 34 26 40 d7 ce d9 bf 0d 6a ca be
       -0.8480089 2.5969732 -1.7016248 -0.39534035
000310 8b 58 33 bd f0 f1 0c be 3a bc 1a 40 5e d9 28 c0
       -0.043785613 -0.13764167 2.4177384 -2.638267
000320 ff a4 2b 41 11 b3 5b c0 3e 1e 96 c0 3b 01 6d c0
       10.727782 -3.4328043 -4.6911917 -3.7032
000330 ab 69 f2 3e 5a 8a b6 be e3 ae 85 c0 d6 ab f3 40
       0.47346243 -0.3565243 -4.1775985 7.614726
000340 00 89 64 41 e6 66 0e c0 57 9c f4 3f 57 97 67 c1
       14.283447 -2.2250304 1.9110211 -14.474448
000350 2b 62 a0 bf 0f 84 a4 c1 ab ac 6a 40 58 04 0a c1
       -1.2529958 -20.564482 3.6667888 -8.6260605
000360 6e ae 52 40 75 77 36 41 9c 96 b0 c0 24 27 e2 40
       3.2918963 11.404164 -5.518385 7.067278
000370 80 b2 23 bf 87 61 55 40 60 3b 3f c1 bb df d1 40
       -0.63944244 3.3340776 -11.951996 6.558561
000380 ae cf 37 c0 0e f9 ef 3f 7b 8b 5a 40 81 ae 03 41
       -2.8720508 1.874788 3.4147632 8.2301035
000390 c8 66 64 bf 33 23 fb 3f 8d d5 5e 40 8b 37 29 c0
       -0.8921933 1.9620117 3.481784 -2.644015
0003a0 9c 8e d0 bf ab 08 ee c0 af d4 47 bf 64 46 35 c0
       -1.6293521 -7.438558 -0.78058904 -2.8324213
0003b0 b2 d5 fd 3f d8 e2 42 c0 0b 6e 9c 40 2f b9 e4 3f
       1.983084 -3.0450954 4.888433 1.7869014
0003c0 62 05 66 3f 27 d8 7c 3f 88 b0 5e 3f 85 09 34 40
       0.89851964 0.9876732 0.86988115 2.813081
0003d0 ba 23 98 c0 a7 f6 0f 40 bb de 40 3e 66 ba ee bf
       -4.754361 2.2494295 0.18834965 -1.8650634
0003e0 76 73 f7 3f 89 01 38 c0 c7 ea 18 c0 f3 35 7e c0
       1.9332111 -2.8750937 -2.3893297 -3.9720428
0003f0 5d 6e 58 3f cb 37 e5 3f 29 b7 0c 40 64 02 96 40
       0.845434 1.7907652 2.1986792 4.687792

lstm.weight_hh_l1 f4 [40, 10]
000000 a7 a6 f3 3d b6 bc 90 c0 4f 5d 02 3f d3 7c 23 c1
       0.11897021 -4.523036 0.5092363 -10.217975
000010 55 e6 94 bf 15 ed b7 41 af 54 ab 41 cc 4d a0 c0
       -1.1632792 22.990763 21.41635 -5.0094967
000020 7f a0 fc 40 23 48 f1 40 ab 76 31 3c 5d b3 63 40
       7.894592 7.5400558 0.010831515 3.5578225
000030 ad b5 43 be c9 89 26 3f 61 66 0d be 63 fb 94 c0
       -0.19112273 0.65053993 -0.13808586 -4.655687
000040 b6 7c c1 3f f0 e6 1a 40 ca 9b c8 bf e3 9b 78 3e
       1.5116184 2.4203453 -1.5672543 0.24278216
000050 1e 6c d2 c0 65 b1 3a bf dc 23 39 be 4e 0f 06 c0
       -6.575698 -0.7292693 -0.18080086 -2.0946841
000060 9b 7d d7 3f 22 5a 30 c1 c2 3f 19 3e fa 09 40 40
       1.6835207 -11.022005 0.14965728 3.000609
000070 a6 88 e0 bd 40 69 0a c0 71 36 3b c1 e6 07 1e c1
       -0.109635636 -2.162674 -11.700791 -9.876928
000080 a0 a8 20 40 39 1b db bf 89 c6 bc 3f 56 7f 9c 3f
       2.510292 -1.7117683 1.4748088 1.222636
000090 53 c6 06 40 19 94 ae 3e 96 50 9f 40 e0 b3 22 40
       2.1058547 0.34097365 4.978587 2.5422287
0000a0 8e a1 9f 3f 8d a4 76 40 ed d6 7a 40 6b 91 37 c0
       1.2471178 3.8537934 3.919368 -2.8682506
0000b0 c4 d2 d2 bf ae e6 d4 c0 81 b0 db 3e 1d 70 29 c0
       -1.647057 -6.653159 0.429081 -2.6474679
0000c0 0e e3 80 3f c5 71 28 40 43 f0 1e c1 ea 0b e2 bf
       1.0069292 2.631944 -9.933658 -1.7659886
0000d0 cb 1e 7f 3f 97 28 52 c1 af 28 73 bf df 84 ca 3f
       0.9965636 -13.13491 -0.94983953 1.5821799
0000e0 c4 84 86 40 5f 7a bf bf fe 1d fa 3f a8 92 0b 40
       4.2037067 -1.495922 1.9540403 2.1808262
0000f0 a3 c7 dc 3e b4 a2 0e c0 c9 13 34 3f 8a 77 c0 c0
       0.4312106 -2.2286806 0.7034269 -6.014592
000100 29 d4 1a c0 24 f5 67 40 5e bd 69 40 84 14 26 c1
       -2.4191992 3.6243372 3.652183 -10.380009
000110 a6 cb b4 3f 5d 4b 4e c0 ee 96 0c c0 bc c5 b1 40
       1.4124649 -3.2233498 -2.196712 5.5553875
000120 21 d0 6f 3e 97 f8 4a 41 d1 54 9b c0 e6 0e 7e c1
       0.23419239 12.685691 -4.8541036 -15.878637
000130 78 1f c9 c0 f3 a8 7f be 92 6c d9 be 15 a0 97 40
       -6.2850914 -0.24966793 -0.42465645 4.7382913
000140 53 98 00 c0 2c 87 13 c0 6a 2e b3 bf 37 f6 54 c1
       -2.0092971 -2.3051252 -1.399854 -13.310111
000150 c7 e5 95 bf 56 98 91 3e 16 ca 16 c0 04 7c 93 3f
       -1.1710747 0.28436536 -2.3560843 1.1522222
000160 2b 1c fa 3f 28 a3 d4 bf 95 82 a6 40 4d 5a 1b 40
       1.9539846 -1.6612291 5.20344 2.4273865
000170 a0 e9 4a 40 16 55 db c0 81 f5 48 3f d2 bb 92 c0
       3.1705093 -6.8541365 0.7849961 -4.5854273
000180 c2 2d a1 3f 70 8f b2 40 13 e5 9a c0 4a b5 99 bf
       1.2592089 5.5800095 -4.840463 -1.200845
000190 b2 95 2f c1 fc ed 6b 41 2c 12 77 40 d8 b0 a7 41
       -10.974047 14.745602 3.8604841 20.96135
0001a0 5d 5b 45 40 13 8d 73 41 25 97 10 c1 f9 47 53 40
       3.0837014 15.221942 -9.0369005 3.3012679
0001b0 21 da 08 c1 9a ff 4c 41 20 fc 14 3f e9 3a 0d 41
       -8.553254 12.812403 0.5819721 8.826882
0001c0 9c 40 df bf cc 97 47 c1 84 d1 a6 40 70 e2 07 c1
       -1.7441592 -12.47456 5.2130756 -8.492783
0001d0 03 ee 59 40 5c ef 19 be 6a cc 23 3f 57 04 2d 40
       3.405152 -0.15032715 0.63983786 2.70339
0001e0 74 14 f0 3d 5d d9 36 40 3b d2 61 40 a3 49 07 41
       0.11722651 2.8570168 3.5284564 8.455478
0001f0 57 2c 05 40 76 fb 14 c1 4b 9d da c0 b1 3b 08 41
       2.0808313 -9.311392 -6.831701 8.514573
000200 07 5f de be 8a 05 b7 bf 29 3d b1 bf 4c 40 56 40
       -0.43431875 -1.4298565 -1.384679 3.3476744
000210 94 91 40 40 68 48 f0 40 bb 5f 0a c0 61 48 63 c0
       3.0088854 7.5088387 -2.162093 -3.5512927
000220 a5 78 ad 3f b1 71 d6 40 6e 4d 04 c0 44 d6 23 40
       1.3552443 6.7013783 -2.067226 2.5599527
000230 ef 32 9d 3f f6 69 84 3f 5a 0b 2f c0 d5 74 81 40
       1.2281169 1.0344837 -2.7350678 4.0455117
000240 60 d0 b1 3e 0c 89 a6 c0 ab 29 8e 40 6a b1 f4 3f
       0.3472929 -5.2042294 4.4425864 1.9116642
000250 a6 ec e1 40 b8 80 20 3f e9 75 8e 40 43 ea 95 bf
       7.0601377 0.6269641 4.4518933 -1.1712116
000260 24 fd b1 be 96 76 a9 bf e6 d8 8a 3e 6c d3 83 41
       -0.34763443 -1.3239315 0.27118605 16.478233
000270 a3 38 8e 40 e1 0f d4 3f 3e 6e 03 c0 79 9e 6c be
       4.4444137 1.6567346 -2.0536036 -0.23107328
000280 8d 0b d2 bd 01 be 03 41 fe 6a a7 bf 8e 54 d1 3f
       -0.102561094 8.233888 -1.3079526 1.6353929
000290 c6 6c b4 bf e3 c7 8a c0 73 dc 8a bf 9c 1b 86 40
       -1.4095695 -4.3369 -1.0848526 4.1908703
0002a0 9b a3 95 c0 a1 9f 8f c0 08 c3 5b 40 eb 4a 6d c0
       -4.6762214 -4.488236 3.4337788 -3.7076976
0002b0 d4 bb 9b 40 83 7f 93 c1 43 be 21 c1 95 ad 51 c1
       4.866678 -18.437262 -10.108951 -13.104878
0002c0 01 c2 79 3f 8f 1c 19 c0 41 f4 82 40 cf 3f 5f 3f
       0.9756165 -2.392368 4.092316 0.8720674
0002d0 24 28 ca 3f c9 a2 5a 40 ad 92 ec 3f 35 67 06 40
       1.57935 3.4161856 1.8482262 2.1000493
0002e0 8e d8 1c 3f cd 1d 66 bf 2a c3 be 40 b7 b4 ea bf
       0.61267936 -0.8988922 5.9613237 -1.83364
0002f0 08 5b f9 3f 57 90 43 bf 5e 36 b0 bf f7 11 a7 3e
       1.9480906 -0.7639212 -1.3766592 0.32630894
000300 06 f2 97 bf d1 10 88 40 82 c3 81 bf d9 b6 89 bf
       -1.1870735 4.252053 -1.0137789 -1.0758926
000310 0a 38 36 40 2c 91 1a 40 a2 bc 87 40 0c 68 71 3f
       2.8471704 2.4151106 4.2417765 0.9429939
000320 06 a7 4d 40 ff f6 5b 40 8f f0 38 3e de f4 20 c0
       3.2133193 3.4369504 0.18060516 -2.5149455
000330 83 0b 17 3d 35 5b 35 41 dc 64 33 bf 60 53 7c c0
       0.036876213 11.334767 -0.70075774 -3.9425888
000340 46 82 88 bf 8b 4a 3c 40 a7 b0 3c c0 24 8b 74 bf
       -1.0664756 2.9420497 -2.948282 -0.9552481
000350 b3 28 27 c1 f9 29 89 c0 fb 97 4c 3f 9f c5 88 c0
       -10.447436 -4.2863736 0.79919404 -4.2741237
000360 d9 1f ad be d7 fe b4 c0 1b 59 10 40 9c 44 ce be
       -0.3381336 -5.6561084 2.2554386 -0.4028672
000370 6c 82 40 40 3f 19 f7 3f 9d 67 ba c0 a0 ee 98 bf
       3.0079603 1.930458 -5.825148 -1.1947823
000380 96 df e1 bf 88 cb c6 bf da cd 8d 40 77 e8 2f c0
       -1.7646358 -1.5530863 4.4313784 -2.7485635
000390 be 46 63 c0 95 7a f0 be 33 81 ea 3e 2e 65 a3 c0
       -3.5511928 -0.46968523 0.45801696 -5.106101
0003a0 6b 30 75 c0 02 54 70 40 1b 94 49 bf 1f e2 23 3f
       -3.8310802 3.7551274 -0.78741616 0.6401691
0003b0 aa 04 22 41 a7 c7 78 3f d0 fd c6 c0 ae c4 1f 40
       10.126139 0.97179645 -6.218483 2.4963794
0003c0 a0 69 27 41 03 ad f4 40 40 5c 80 40 fc 20 b6 c0
       10.463287 7.6461196 4.011261 -5.6915264
0003d0 3a 83 0e c0 ab d1 d2 40 d0 14 e4 bf 23 40 84 40
       -2.2267594 6.588094 -1.7818851 4.132829
0003e0 18 a5 10 40 6d 35 78 40 26 d2 9b 3e 82 1c 18 40
       2.2600765 3.8782609 0.30433768 2.37674
0003f0 d4 27 1f 3e 8d 79 b6 bf ec 63 85 bf b7 13 9f c0
       0.15542537 -1.4255844 -1.0421119 -4.9711566

lstm.bias_ih_l1 f4 [40]
000000 66 03 08 c0 ee fd bf bf 50 13 38 bf a2 0a e9 bf
       -2.1252074 -1.4999368 -0.7190447 -1.820637
000010 83 c4 c5 bf 04 6e d7 bf d4 c1 0b c0 f2 82 99 3c
       -1.5450596 -1.6830449 -2.1837053 0.018739197
000020 73 a3 b3 bf a5 7b da bf fb a1 eb 3f 10 ae 92 3f
       -1.4034256 -1.7068983 1.8408808 1.145937
000030 4e 0c ee 3c fb 23 1a 40 91 24 e9 3f e0 e9 0a 40
       0.029058602 2.408446 1.8214284 2.1705246
000040 52 37 55 3e 81 1b 87 bf b5 86 e3 3d 3a c7 95 3f
       0.20821884 -1.0555269 0.11109678 1.1701424
000050 07 d5 4b 3f 94 47 51 3e b2 81 88 3e 7e 8b 7b be
       0.7962193 0.20437461 0.2666145 -0.24564931
000060 b0 18 88 3f 77 45 27 bf fa 6e 93 be f6 ed a6 3e
       1.0632534 -0.6534037 -0.28795606 0.32603425
000070 7f bc 15 bf 0a 43 ae bf 2b 3b 0f bf d8 79 13 bf
       -0.5849075 -1.3614209 -0.5594966 -0.57607794
000080 05 96 c9 bf b9 9d c1 bf d0 6c a2 be 24 7d 97 bf
       -1.5748907 -1.5126258 -0.31723642 -1.1835065
000090 d7 8f 99 bf fa 8d 80 bf de b3 8f bf 46 74 c5 3e
       -1.1997021 -1.0043328 -1.1226766 0.38565272

lstm.bias_hh_l1 f4 [40]
000000 83 65 03 c0 58 ab 00 c0 8c 3b 24 bf 91 91 e6 bf
       -2.0530708 -2.010458 -0.6415336 -1.8013173
000010 fd bb c1 bf 04 28 e6 bf 24 e1 02 c0 b8 7e 9e 3d
       -1.5135494 -1.7980962 -2.0449915 0.077390134
000020 12 eb 9b bf b0 d8 00 c0 6b 9a bb 3f 62 b4 9a 3f
       -1.2181113 -2.0132256 1.46565 1.2086298
000030 cb a5 22 3d 2a a4 f8 3f 54 5d b6 3f fb fc 08 40
       0.039708894 1.9425099 1.4247231 2.1404407
000040 fe 59 b8 3e 3a 4d 16 bf 04 d6 cb 3d c4 4f 84 3f
       0.3600616 -0.5871159 0.099529296 1.0336843
000050 23 22 3f 3f a6 82 93 3e 7e 3a a8 3e b2 9b 71 be
       0.74661463 0.28810614 0.32857126 -0.2359455
000060 ca 92 9b 3f a7 5d a4 be fb e8 04 bf 9f d3 4b 3d
       1.2154171 -0.321027 -0.51918 0.049762364
000070 3b d2 44 bf 1d e3 b0 bf 20 64 3b bf 3b a8 50 bf
       -0.76883286 -1.381931 -0.73199654 -0.815067
000080 23 7e b4 bf b8 27 91 bf 74 bc 5e be e6 8a 8b bf
       -1.4100994 -1.1340246 -0.21751577 -1.0901763
000090 15 b2 6a bf 55 76 c5 bf 45 c1 a4 bf 58 a7 b2 bb
       -0.9167798 -1.5426737 -1.2871481 -0.005452078
