sparrow/data/networks/adf/adf_morffy_mean_network_v1.pt (torch, 23243 bytes, 17 tensors)

lstm.weight_ih_l0 f4 [40, 20]
0	0x3e7f2a44	0.24918467
1	0xc03e9803	-2.978028
2	0xbeb8e5b7	-0.3611276
3	0xc14c3747	-12.763495
4	0xc1892873	-17.14475
5	0xbca6dd6d	-0.020369256
6	0x3e740fdc	0.23834175
7	0xbddf68a2	-0.10908629
8	0x3f93b19e	1.153858
9	0xbfd2c078	-1.6464987
10	0xc026ad1d	-2.604316
11	0xbf59b276	-0.85037935
12	0xbfc17289	-1.5113078
13	0xc0843e40	-4.132599
14	0x3f424a6e	0.7589482
15	0xbfb9ddd5	-1.4520823
16	0xc0990b8f	-4.782661
17	0xbd49563a	-0.049154498
18	0x3f999243	1.199776
19	0x3c677f34	0.014129449
20	0xbf93d5f7	-1.1549672
21	0xbf01de51	-0.5072985
22	0x3ff374fb	1.9020075
23	0x3fb6ff4b	1.4296659
24	0xbeaa8904	-0.3330766
25	0xc0c20164	-6.0626698
26	0xbf40caa8	-0.7530923
27	0xbe022b9f	-0.12711953
28	0x3fd74ac8	1.6819696
29	0xbeeeec93	-0.46664867
30	0xbfacc1d0	-1.3496647
31	0xc06f83a9	-3.742411
32	0xbfaa8f9b	-1.3325075
33	0xc0079be3	-2.1188896
34	0x3fc605d8	1.5470533
35	0xc015369e	-2.3314586
36	0xc078ba1a	-3.8863587
37	0x3e5fe76a	0.21865621
38	0xbe0bfe0c	-0.1367113
39	0xbf56398a	-0.8368155
40	0xbf3a3fe9	-0.7275377
41	0xbdcc4cc1	-0.09975577
42	0x3f25ac88	0.64716387
43	0xbd309149	-0.043107305
44	0x3f86e14a	1.0537503
45	0xbfe92c99	-1.8216735
46	0x3f4bde36	0.7963594
47	0xbf1ec6c7	-0.6202206
48	0x3f8af375	1.0855547
49	0xbd3d7788	-0.046256572
50	0x3f0bd230	0.54617596
51	0xbf993373	-1.1968826
52	0xc175f6c9	-15.37275
53	0xbf0b5105	-0.544205
54	0x3f6ad2ce	0.9172791
55	0x3ec50701	0.38481906
56	0xbf789411	-0.9710093
57	0x3d200902	0.03907109
58	0x3f95f551	1.171549
59	0xc1835183	-16.4148
60	0x3f89eaa4	1.0774732
61	0x3fc1fefc	1.515594
62	0x3f55b271	0.83475405
63	0xc00bdbca	-2.1852899
64	0xbea69ff4	-0.3254391
65	0x3fa03886	1.251725
66	0x3f1a6bda	0.6032082
67	0x3fc54d97	1.5414304
68	0x3fb4c563	1.4122738
69	0x3fd1afaa	1.6381733
70	0x3faa5e1e	1.3309972
71	0x3f50091e	0.8126391
72	0x3feef9fc	1.8670039
73	0x3f24a6f2	0.6431724
74	0x3f8e29cd	1.1106507
75	0x3ed76d38	0.42075515
76	0x3f1ad143	0.6047556
77	0x3fea4b3c	1.830421
78	0x3fbb57bc	1.463615
79	0x3e99ef2e	0.30065292
80	0x3e60a56d	0.21938105
81	0x3f20d688	0.6282735
82	0x3f291cb1	0.66059405
83	0x3f1e7769	0.61900955
84	0x3f9047b2	1.127188
85	0x3fb4e343	1.4131855
86	0x3f1320ef	0.5747213
87	0x3f8175fc	1.0114131
88	0xc1576fc7	-13.464789
89	0x3fcec9a1	1.6155282
90	0x3f7e8efc	0.99436927
91	0xbf0a7f5b	-0.5410058
92	0x3f27f163	0.656027
93	0x3f3525eb	0.70760983
94	0xbc37d352	-0.011219816
95	0x3e149286	0.1450902
96	0x3f0b0871	0.54309756
97	0x3f7bb46c	0.98322177
98	0xc120954e	-10.036451
99	0x3f41bace	0.75675666
100	0xbff1ed08	-1.8900461
101	0xbf2ec2e6	-0.6826614
102	0x3d9d33cd	0.07675896
103	0x3e6c9a4b	0.23105733
104	0x3fc3b55f	1.5289725
105	0xbf314e1c	-0.6925981
106	0xbf08c5cc	-0.53426814
107	0x3f2a2a08	0.66470385
108	0xbfbd8c68	-1.4808474
109	0x3f8d39a2	1.1033213
110	0x3edd1e5e	0.4318723
111	0xc00666f6	-2.1000342
112	0xbfc96737	-1.5734624
113	0xbf9c5555	-1.2213541
114	0xbf7900bc	-0.97266746
115	0xbf845a06	-1.0339973
116	0xbf54dcfd	-0.831497
117	0x3d2c51bc	0.042070135
118	0x400db467	2.214136
119	0x3f33960e	0.7015084
120	0xbcdcde6b	-0.026961526
121	0x3d8c13b8	0.068396986
122	0x3f42f655	0.7615712
123	0x3f241384	0.6409228
124	0xbfece4fe	-1.8507383
125	0x3e03cb44	0.12870508
126	0x3e882ac3	0.26595125
127	0xbf41bd85	-0.7567981
128	0x3ecfafe5	0.40563884
129	0xbe35e819	-0.1776432
130	0x3e4f0b26	0.20219097
131	0xbe0020fa	-0.1251258
132	0x3e7a9a8f	0.24473022
133	0x3e5f437f	0.21803091
134	0x3f03a846	0.5142864
135	0x3e5acd62	0.2136741
136	0xbe70891e	-0.23489806
137	0x3d818dd4	0.0632588
138	0x3f0cb707	0.5496678
139	0x3e48780e	0.19577047
140	0x3f1bf43f	0.60919565
141	0x3dc045be	0.09388302
142	0x3f71fc1e	0.94525325
143	0xbd4748cd	-0.048653413
144	0xbf2beba5	-0.6715644
145	0xbd5c0935	-0.053719718
146	0x3c9efad9	0.019406723
147	0x3f98ae84	1.1928258
148	0x3f811b91	1.0086538
149	0x3f9a75e6	1.206723
150	0x3f5d0b7d	0.86345655
151	0x3e7cff75	0.24706824
152	0x3efb80f1	0.49121812
153	0x3eb8bfd0	0.3608384
154	0x3f81438a	1.0098736
155	0xc092208c	-4.566473
156	0x3f38cae6	0.721846
157	0x3f07bf8f	0.5302667
158	0x4024ecf8	2.5769634
159	0x3f929281	1.145096
160	0xbf89d605	-1.0768439
161	0x3d0ad171	0.033891145
162	0xbedf4f4c	-0.43615186
163	0xbfacd3c1	-1.3502122
164	0x3fc53229	1.5405933
165	0x3eb8bad5	0.36080042
166	0xbeee9ae8	-0.4660256
167	0x3f4b28f7	0.7935938
168	0x3f17509f	0.59107393
169	0xbf0e0c42	-0.55487454
170	0x3e87e357	0.26540634
171	0xbe03fdbc	-0.1288976
172	0xbf438441	-0.7637368
173	0xbf23445c	-0.63776183
174	0x3fa216fc	1.2663264
175	0xbf03bafa	-0.5145718
176	0xbf79e07f	-0.9760818
177	0xbe825fa2	-0.25463587
178	0x401f31cc	2.4874144
179	0x3f713bad	0.94231683
180	0xbe3f478b	-0.18679635
181	0xbfa26da7	-1.2689713
182	0x3fe09c4d	1.7547699
183	0x3f42b9b3	0.76064605
184	0xbf105eaf	-0.56394476
185	0x3f19414b	0.59865254
186	0x3e35bb7a	0.17747298
187	0x3eceba2a	0.40376407
188	0x3fdc4fad	1.7211815
189	0xbec228ac	-0.37921655
190	0xbfeea9b0	-1.8645535
191	0xbe99e7bd	-0.30059615
192	0xbf63c23e	-0.88968265
193	0x3ed97a16	0.42475957
194	0x3f9d2fdd	1.2280232
195	0x3ee2405b	0.44189724
196	0xbee629c3	-0.44953737
197	0xbefdeec0	-0.49596214
198	0xbf888bd8	-1.0667677
199	0xbf09a169	-0.5376192
200	0x3e5c2207	0.21497355
201	0x3e51be1a	0.20482674
202	0x3eea7073	0.45788917
203	0x3ecce9ac	0.40022027
204	0x3ea08a88	0.3135569
205	0x3f1b9757	0.607778
206	0x3e32c508	0.17457974
207	0x3f5cfebe	0.86326206
208	0x3ec0c074	0.3764683
209	0x3d1d2c2d	0.038372207
210	0xbdc1901f	-0.09451317
211	0x3e9832df	0.29726312
212	0x3ecade80	0.3962288
213	0xbd9b0149	-0.075686045
214	0x3e75c5f4	0.24001294
215	0x3ecb7f7c	0.397457
216	0x3ed0ea1f	0.4080362
217	0x3ec759c5	0.38935676
218	0xbe1be6eb	-0.15224807
219	0xbe5ac50a	-0.21364227
220	0xbe67f815	-0.2265323
221	0xbcb90f70	-0.022590369
222	0x3d86d72d	0.0658401
223	0x3ec93893	0.39300975
224	0x3f85e954	1.0461831
225	0x3d4d34d4	0.05009921
226	0xbf1564c9	-0.5835691
227	0x3ec4fb84	0.3847314
228	0xbf65acb1	-0.8971663
229	0x3f116db0	0.56807995
230	0x3f8aca88	1.0843058
231	0xbed4026a	-0.41408092
232	0xbe98b2f9	-0.29824045
233	0x3ebf7364	0.37392724
234	0xbf222aca	-0.6334654
235	0xbeee203e	-0.46508974
236	0xbef4b8b4	-0.47797167
237	0xbe9813f7	-0.29702732
238	0x3f67acf8	0.90498304
239	0x3e9274fb	0.28604874
240	0xbe2e99ab	-0.17050807
241	0x3f54050c	0.828202
242	0x3e2a7abf	0.16648386
243	0x3e7bcc12	0.24589565
244	0x3f4b58ed	0.79432565
245	0x3f9a2b79	1.2044517
246	0x3d51a85a	0.051185943
247	0xbef0c445	-0.47024742
248	0x3e6477eb	0.2231137
249	0x3eca9436	0.395662
250	0x3ec499c9	0.3839858
251	0xbea380b0	-0.31934118
252	0xbf18014e	-0.5937699
253	0xbe5dbaa4	-0.21653229
254	0xbe4609da	-0.19339696
255	0xbba6e986	-0.005093756

lstm.weight_hh_l0 f4 [40, 10]
0	0x3e5c1844	0.21493632
1	0xbde09874	-0.10966578
2	0xbe3703e2	-0.17872575
3	0x3f9b25e0	1.2120934
4	0x3ed16409	0.40896633
5	0xbf806718	-1.0031462
6	0xbf2daccf	-0.6784181
7	0xbf5e3698	-0.86802053
8	0xbeadbda8	-0.3393376
9	0xbdd3df6f	-0.10345351
10	0x3e0831dd	0.13300271
11	0xbea674ff	-0.32511136
12	0xbf7eaa01	-0.99478155
13	0x3f6cb43e	0.9246253
14	0x3f384c75	0.71991664
15	0x3f882424	1.0636029
16	0x3f3117a0	0.69176674
17	0xbeeda8ec	-0.4641794
18	0xbe80e76b	-0.25176558
19	0xbb47e043	-0.003049866
20	0xbba75103	-0.005106093
21	0x3ed60b93	0.41805705
22	0x3f6fa74b	0.93614644
23	0xbfbe2623	-1.4855388
24	0xbda149a2	-0.078753725
25	0x3ec8c3d1	0.39211896
26	0xbf938504	-1.1524968
27	0x3f86205c	1.0478625
28	0xbf7e27b1	-0.99279314
29	0xbef13dc3	-0.47117433
30	0x3ea4d6a7	0.32195017
31	0xbed31d3e	-0.41233248
32	0xbf76ae08	-0.963593
33	0xbebcda6b	-0.3688539
34	0x4008377d	2.1283867
35	0x3ff5e1b3	1.9209503
36	0xbe8bf096	-0.2733199
37	0x3f1c3582	0.61019146
38	0x3fa6edb0	1.3041286
39	0x3f3c823d	0.7363623
40	0x3ee96c09	0.45590237
41	0xbe498065	-0.19677885
42	0xbee626ac	-0.4495138
43	0xbffff699	-1.9997131
44	0xc01f514c	-2.489337
45	0x3d5e94c9	0.05434111
46	0xbfa69874	-1.3015275
47	0x3ca99d8b	0.020705005
48	0xbfc43026	-1.5327194
49	0x3f0a6652	0.5406238
50	0x3dafb116	0.08578698
51	0x3f6de93c	0.9293401
52	0xbf054bb0	-0.52068615
53	0xbe7c6b8c	-0.24650401
54	0xbe0f5a63	-0.13999324
55	0xbe97f599	-0.29679564
56	0xbef09240	-0.4698658
57	0x3e9f05fb	0.3105925
58	0x3e939982	0.28828055
59	0xbf9ef57b	-1.2418665
60	0xbe81d7c6	-0.25359935
61	0x3f99fb47	1.2029809
62	0x3f849b3b	1.0359873
63	0x3d8383cc	0.06421623
64	0x3f6dd396	0.9290098
65	0x3f6d9d05	0.9281772
66	0xbf129af2	-0.5726768
67	0x3dc8615f	0.09784197
68	0xbf923602	-1.1422732
69	0x3df23d16	0.118280575
70	0x3f84c5a6	1.0372818
71	0xc01f4414	-2.4885302
72	0x408d7c9d	4.4214616
73	0xbf03fb51	-0.51555353
74	0x40a2f3f1	5.092278
75	0x3f433de6	0.76266325
76	0x3fb6d401	1.4283448
77	0xc00b422f	-2.1759145
78	0xc0938333	-4.6097655
79	0x3f336403	0.7007448
80	0x3f38d083	0.72193164
81	0x3d4ed492	0.05049569
82	0x3fbf0187	1.4922341
83	0xbe7fce63	-0.24981074
84	0x3ec194b3	0.3780876
85	0x3e39dda4	0.18150955
86	0xc0301403	-2.7512214
87	0xbf0533db	-0.5203225
88	0xbfb94d5d	-1.4476734
89	0x4031ea04	2.7799082
90	0xbfa425f4	-1.2824082
91	0x3e436379	0.19080915
92	0xc0722f55	-3.784139
93	0x3fad859c	1.3556399
94	0x40816bdf	4.044418
95	0x4040a7c0	3.0102386
96	0xbfc055c9	-1.502618
97	0x3eb7d7dd	0.35906878
98	0xbe3a78cc	-0.18210143
99	0xc039b204	-2.9014902
100	0x3fefc647	1.8732384
101	0x3f41dc96	0.7572721
102	0xbf62e948	-0.8863721
103	0x3f4aebbe	0.79265964
104	0x4005538e	2.0832248
105	0x3f934c20	1.1507607
106	0xbfc85603	-1.5651249
107	0xc00ddc5f	-2.2165754
108	0x3f9c5374	1.2212968
109	0xbe6ca8ed	-0.23111315
110	0xbee48ca6	-0.44638556
111	0x3cdce29a	0.02696352
112	0x3e0c419a	0.136969
113	0x3ee0e98e	0.43928188
114	0xbe4042bc	-0.18775457
115	0x400aedbe	2.1707606
116	0x3f9eddbb	1.2411417
117	0xbe370b9f	-0.17875527
118	0xbfc3d4ba	-1.5299294
119	0xbf205401	-0.6262818
120	0x406349fc	3.5513906
121	0x3f6a542f	0.91534704
122	0x3f04e35b	0.51909417
123	0x4005329e	2.0812144
124	0x3e4bb311	0.19892527
125	0x3f6c800e	0.92382896
126	0xbfd7581b	-1.6823763
127	0xbf318232	-0.6933929
128	0xbf94bcfd	-1.1620175
129	0x3f9445dd	1.158382
130	0x3f89beeb	1.0761389
131	0x3f56631a	0.83744967
132	0xc0aa2df4	-5.3181095
133	0xc025cb5d	-2.5905373
134	0x40808b8f	4.017036
135	0xbf555ad1	-0.833417
136	0xbfe8f8e0	-1.8200951
137	0x3f3a772e	0.72838104
138	0xc07e2330	-3.9708977
139	0xbfc37289	-1.5269328
140	0x40556414	3.3342333
141	0xbfdd406b	-1.7285284
142	0xbebdad80	-0.37046432
143	0x3fbdc7b3	1.4826568
144	0x401c737a	2.4445481
145	0xbf3787bf	-0.7169151
146	0xc095c286	-4.6799955
147	0xc0104491	-2.254185
148	0x3fb8992f	1.4421748
149	0xbf4c8609	-0.7989202
150	0x3fa7f9d1	1.3123113
151	0x401b0f98	2.4228268
152	0x3dabe1c0	0.08392668
153	0x402d0734	2.7035646
154	0xbe8320ec	-0.25611055
155	0x3f078b35	0.5294679
156	0xc00c7de1	-2.195183
157	0xbf613410	-0.87970066
158	0xbf2af1f4	-0.6677544
159	0xbf625ba0	-0.8842106
160	0xc0a5a888	-5.1768227
161	0x4044e08e	3.0762057
162	0x4019a87c	2.4009085
163	0x3ef36931	0.47541192
164	0xbca56f1c	-0.020194583
165	0x3e1a8984	0.1509152
166	0x3f5919d9	0.84805065
167	0x3ff9605e	1.9482534
168	0xc088af58	-4.2714043
169	0x3f3cde74	0.73776937
170	0xc00f6f3a	-2.2411637
171	0xc0a1aa61	-5.052048
172	0xc021fabe	-2.530929
173	0xbf997c15	-1.1990992
174	0xc05387a7	-3.3051546
175	0xc044e39b	-3.076392
176	0xbf00daea	-0.50334036
177	0xc0699149	-3.6494925
178	0x40c8e59a	6.2780275
179	0x406e51d7	3.723745
180	0xc0098f2a	-2.149363
181	0x3fda76de	1.7067525
182	0xbdfc72e1	-0.12326599
183	0x3fcdeab6	1.6087253
184	0xbfe2c7c7	-1.7717217
185	0x3f924395	1.1426874
186	0x3fc38367	1.5274476
187	0x3ee6caa6	0.45076483
188	0xc0640afb	-3.5631702
189	0xbf0e9ef3	-0.5571129
190	0xc086c722	-4.211808
191	0x3f6d97ba	0.9280964
192	0x4049507c	3.1455374
193	0x40440d09	3.0632956
194	0x3df9411d	0.121706225
195	0x404ccc4f	3.19997
196	0x40469e4d	3.103412
197	0x3f33256c	0.69978976
198	0xc00e2e2a	-2.2215676
199	0x3fa57e12	1.2929099
200	0xbf434d7b	-0.762901
201	0xbc4cabb7	-0.012492112
202	0x4022e733	2.5453613
203	0x3f82275f	1.0168265
204	0xc0af181b	-5.4716926
205	0x40ee0ff2	7.4394464
206	0x40cf6872	6.4814997
207	0x4051bd67	3.2771852
208	0x3ff5596e	1.9167917
209	0x406aa990	3.6665993
210	0x409fc84b	4.9932
211	0x3fe62d1d	1.7982517
212	0x3e6c841b	0.23097269
213	0xbe8fe57e	-0.28104776
214	0xbfe4233d	-1.7823254
215	0xbfe91360	-1.8209038
216	0xc07733b5	-3.862531
217	0xbe39b102	-0.1813393
218	0x4040185e	3.0014873
219	0xbf5eddca	-0.87057173
220	0xbfdad485	-1.7096106
221	0x3f13cb8a	0.5773245
222	0x403c0764	2.937951
223	0xbf48dae2	-0.7845899
224	0xc04da83e	-3.2133937
225	0x3f8ca5e8	1.098813
226	0x40bd31da	5.9123354
227	0x3f8a2a89	1.0794231
228	0xc0262b1b	-2.596381
229	0xc0087f4a	-2.132769
230	0xc10fac84	-8.979618
231	0x400557dc	2.0834875
232	0x3fbb75bc	1.4645305
233	0xbf4f5595	-0.8098996
234	0x416b5768	14.708839
235	0xc0b2dddb	-5.589582
236	0xbd279593	-0.04091413
237	0x40a80209	5.2502484
238	0xc0f61d8d	-7.6911073
239	0xc0aaf129	-5.3419385
240	0xc04f6284	-3.240388
241	0xc053374c	-3.30025
242	0x3d8dc34b	0.06922015
243	0xc02f9160	-2.743248
244	0x3e69867f	0.22805212
245	0x400380f6	2.0547462
246	0xbfddbe1a	-1.7323639
247	0xbfdf9c45	-1.7469565
248	0x3f48fd8b	0.78511876
249	0x3f85dc16	1.045779
250	0xbf887698	-1.0661192
251	0xc0370ebe	-2.8602748
252	0xbf257aaf	-0.64640325
253	0xbe0dcf46	-0.138486
254	0xbfecbeea	-1.8495762
255	0x3fe484fd	1.7853085

lstm.bias_ih_l0 f4 [40]
0	0xbfdae16e	-1.7100046
1	0xbf9de3a7	-1.2335099
2	0xbf54dba3	-0.8314764
3	0xc01c830a	-2.445498
4	0xc026e6b1	-2.6078303
5	0xbf7cdacc	-0.9877136
6	0xbfeb36fc	-1.8376155
7	0xbfa0ef4b	-1.2573026
8	0xbf58d9a8	-0.8470712
9	0xbf9900f0	-1.1953411
10	0x3ed1aaa2	0.40950495
11	0x3f7a55a9	0.9778696
12	0x3f850a86	1.0393836
13	0x3ea43599	0.32072142
14	0x3f0174d6	0.505689
15	0x3f26d735	0.6517213
16	0x3f3b6e10	0.7321482
17	0x3ec561aa	0.38551074
18	0x3f99019a	1.1953614
19	0x3f8d7c49	1.1053554
20	0x3d83b337	0.06430667
21	0x3e4a5620	0.19759417
22	0x3e4964be	0.19667336
23	0x3e2ddaf4	0.16978055
24	0xbe84f6ed	-0.2596964
25	0x3f5d68d4	0.8648808
26	0x3cb9546d	0.022623265
27	0xbe799af4	-0.24375516
28	0x3f062351	0.5239764
29	0x3ec54e77	0.38536426
30	0x3f43bedc	0.76463103
31	0xbe9763e2	-0.29568392
32	0xbf848bc2	-1.0355151
33	0xbf6f7925	-0.93544227
34	0x3f2b6611	0.66952616
35	0xbea20858	-0.3164699
36	0x3f949680	1.1608429
37	0xbfb27633	-1.3942322
38	0xbfb35672	-1.4010756
39	0xbf8d9d90	-1.1063709

lstm.bias_hh_l0 f4 [40]
0	0xbfffa1b4	-1.9971223
1	0xbf7a5c9a	-0.9779755
2	0xbf9e4ce7	-1.2367219
3	0xc01f3ba8	-2.4880161
4	0xc008bb1b	-2.13642
5	0xbf8518e6	-1.0398223
6	0xc01bf868	-2.4370365
7	0xbf8e5b8d	-1.1121689
8	0xbf33fe4d	-0.7030991
9	0xbf98d628	-1.1940355
10	0x3eb4ab71	0.3528705
11	0x3f747456	0.95490015
12	0x3f8729df	1.0559653
13	0x3f2f10bc	0.6838491
14	0x3f07d6cd	0.53062135
15	0x3f8d67eb	1.1047338
16	0x3f28ee56	0.6598867
17	0x3ed577e1	0.41693023
18	0x3fc94d71	1.5726758
19	0x3f6ddd63	0.92915934
20	0xbd6fd721	-0.058554772
21	0xbd52d137	-0.051469054
22	0x3cff74a5	0.03118355
23	0x3e91a1cd	0.28443757
24	0xbb25fb5c	-0.0025326824
25	0x3f179ab8	0.5922046
26	0xbeb19d72	-0.34690434
27	0xbefdcdba	-0.4957102
28	0x3f0670d5	0.5251592
29	0x3e56a71b	0.20962183
30	0x3f0f1ec4	0.5590632
31	0xbd410d1a	-0.047131635
32	0xbf5192f9	-0.8186489
33	0xbf67b17d	-0.905052
34	0x3f7f5202	0.9973451
35	0xbd3d97d1	-0.04628736
36	0x3f89cd01	1.0765687
37	0xbfa79ef5	-1.3095385
38	0xbfd3e906	-1.6555488
39	0xbfa36b44	-1.276711

lstm.weight_ih_l0_reverse f4 [40, 20]
0	0xbfb744dd	-1.431789
1	0xbffec1a0	-1.990284
2	0x3d5e4c7f	0.05427217
3	0x3f1287c4	0.5723841
4	0x3f13f63f	0.57797617
5	0x3ec9c33d	0.39406767
6	0x3e9886f4	0.2979046
7	0x3e8e25af	0.27763125
8	0x3fd6a84c	1.677011
9	0xbee80ec5	-0.45323768
10	0x3de03775	0.109480776
11	0xbf52a2da	-0.8227974
12	0x3ecb925b	0.39760098
13	0x3e8326a0	0.25615406
14	0x3e65640c	0.22401446
15	0xbf2a30f9	-0.66480976
16	0x3ea8d025	0.32971302
17	0xbf8e9c90	-1.1141529
18	0x3f9a74f1	1.2066938
19	0x3eb5764f	0.35441825
20	0x3f28b73e	0.65904605
21	0x3ed9b0fd	0.42517844
22	0x3f720ad0	0.9454775
23	0xbf0265a6	-0.50936353
24	0x3fd88483	1.6915439
25	0x3f26b8e3	0.65125865
26	0x3f3200ac	0.69532275
27	0x3e7319c5	0.23740299
28	0x3f64024a	0.8906599
29	0x3ee71000	0.45129395
30	0xc01906f5	-2.3910496
31	0x3f13b4cd	0.57697755
32	0x3f85c2c9	1.0450069
33	0x3ec380fb	0.38184342
34	0x3ff7215e	1.9307058
35	0x3f28684b	0.6578414
36	0x3f3ed784	0.745476
37	0x3f368c1e	0.7130755
38	0x3fc78f9c	1.5590701
39	0xbe16b378	-0.147169
40	0xbee10a5c	-0.43953216
41	0xbf935ae2	-1.151211
42	0x3fcdeb71	1.6087476
43	0x3f41ef14	0.7575543
44	0xbe0d82ee	-0.13819477
45	0xbfa9e029	-1.3271533
46	0x3e6f17d5	0.23348935
47	0xbe4894d0	-0.19588017
48	0x3faa02bd	1.3282086
49	0xbf94dbfa	-1.1629632
50	0xc13148ec	-11.080303
51	0xbf59c85a	-0.8507134
52	0xc15a590f	-13.646743
53	0xbd833894	-0.06407276
54	0x3fd81ef4	1.6884446
55	0xc0804882	-4.008851
56	0x3e88cfcd	0.2672104
57	0x3eb3c5aa	0.35111743
58	0x3f5ed800	0.8704834
59	0xbfc236c4	-1.5172963
60	0xbf5b99b1	-0.8578139
61	0xbdcd42f8	-0.10022539
62	0x3fb460af	1.4092005
63	0x3fa5ecb3	1.296286
64	0x3f875752	1.0573523
65	0xc0308585	-2.7581494
66	0x3f9a7dd7	1.2069653
67	0xbe1f4723	-0.1555448
68	0x40155bbc	2.333724
69	0xbc97673a	-0.01848184
70	0x3f3ae39a	0.7300354
71	0x3e0e7cde	0.1391482
72	0x3e8028ec	0.2503122
73	0x3edc0995	0.4297606
74	0x3fac867b	1.347854
75	0x3ecfdfe6	0.40600508
76	0xbeee57d4	-0.46551383
77	0xbfb075d9	-1.3785964
78	0x3fed6896	1.8547542
79	0x3fd25a1f	1.6433753
80	0x3f4ff824	0.8123801
81	0x3e99f74e	0.3007149
82	0xbee5838f	-0.44826934
83	0xbedaa811	-0.4270635
84	0x3fcb2217	1.5869778
85	0xbf061e1d	-0.523897
86	0x3eea5ead	0.45775357
87	0x3fb63e25	1.4237715
88	0x3fa8f9da	1.3201249
89	0x3fd8aa12	1.6926901
90	0x3f5a90b2	0.8537704
91	0x3f12ddc6	0.5736965
92	0xbf2362ad	-0.6382244
93	0x3f8a69e1	1.0813562
94	0x3fa51114	1.2895837
95	0xc01b31ff	-2.4249265
96	0x3eceb3cf	0.40371558
97	0xbcd41efc	-0.02589368
98	0x3f8183db	1.0118364
99	0xbd43d4e9	-0.04781047
100	0xbee88198	-0.45411372
101	0x3fac4477	1.3458394
102	0x3d26dcef	0.040738042
103	0xbe9426cf	-0.2893586
104	0xbd743c09	-0.059627566
105	0xbe988631	-0.2978988
106	0xbd21c37d	-0.039493073
107	0xbf94c9a2	-1.1624033
108	0x3fb06f59	1.3783981
109	0xc1785b1d	-15.522244
110	0xbe6f746d	-0.23384257
111	0x3f76c992	0.9640132
112	0xbf6267f0	-0.88439846
113	0x3f3423fc	0.7036741
114	0x3f6e7fe9	0.93163925
115	0xbf434224	-0.762728
116	0xbf3b4918	-0.7315841
117	0xbee8fa38	-0.45503402
118	0x3f515987	0.8177723
119	0xc017573d	-2.3646996
120	0x3f187985	0.59560424
121	0xbf846a23	-1.034489
122	0x3f7b9b31	0.9828368
123	0x3eec9f77	0.46215412
124	0x3f33fbc1	0.7030602
125	0x3f26e4de	0.65192974
126	0x3ce97220	0.028496802
127	0x3e3a16a1	0.18172695
128	0x3ee28504	0.44242108
129	0x3dfe4c8d	0.12416945
130	0x3f290ff7	0.66039985
131	0x3f293cb1	0.6610823
132	0x3f5bb937	0.8582949
133	0xbe9b5d37	-0.30344555
134	0x3f921eac	1.141561
135	0x3ef8f105	0.48621383
136	0x3f80268a	1.0011761
137	0x3f2d9b25	0.67814857
138	0x3e29549d	0.16536184
139	0x3f0867b2	0.53283226
140	0xbfad2059	-1.3525497
141	0x40061d3c	2.0955343
142	0x3f74d14a	0.9563185
143	0x3fa1d198	1.2642088
144	0x3f0f8fc7	0.5607876
145	0x3f477622	0.7791463
146	0x3e81b6b2	0.25334698
147	0x3f0fd924	0.56190705
148	0x3e55bfca	0.20873943
149	0x3f5b11e8	0.855742
150	0x3f980ac6	1.1878288
151	0x3a76394f	0.0009392695
152	0x3ea5523f	0.3228931
153	0x3fb50bb1	1.4144193
154	0xbfa96525	-1.3233992
155	0x3f8222e3	1.0166897
156	0xbf95d7b1	-1.1706449
157	0xbf29fdf8	-0.6640315
158	0x3f41c743	0.75694674
159	0xbe4ea216	-0.20179018
160	0xbda5ba38	-0.08092159
161	0xbf6dad08	-0.9284215
162	0xc0302ce9	-2.752741
163	0xc0ec4e58	-7.3845634
164	0x3fed2939	1.8528205
165	0xbfb8dc0a	-1.444215
166	0xbd8c26a5	-0.06843308
167	0x3f1b08a1	0.6056004
168	0x3f83a0cf	1.028345
169	0x3f8a6d27	1.0814561
170	0x3e9f8665	0.31157222
171	0xbf5a59d5	-0.8529332
172	0xbf598700	-0.8497162
173	0xc0055fc4	-2.08397
174	0x3f7cca1c	0.98745894
175	0xbe9aaa5a	-0.30208093
176	0xbc832220	-0.016007483
177	0xbf81a0e4	-1.0127225
178	0x3ffadcc2	1.959862
179	0x3f34542d	0.7044094
180	0xbea8902f	-0.32922503
181	0x3dc3ffd0	0.09570277
182	0x3ef24f0f	0.47325942
183	0x3f2c9751	0.6741839
184	0x3f1d797d	0.615135
185	0x3e03a104	0.12854391
186	0xbea22a79	-0.3167303
187	0xbdb61677	-0.088910036
188	0x3fc56498	1.5421324
189	0xbebaecb5	-0.36508718
190	0x3d010d4b	0.031506818
191	0x3f4567fc	0.7711179
192	0x3f40f8b0	0.75379467
193	0x3ec37188	0.38172555
194	0x3fd95982	1.6980441
195	0x3e890457	0.26761124
196	0xbd3dff0b	-0.046385806
197	0x3f24518a	0.6418692
198	0x3f7fbd90	0.99898624
199	0x3eeca931	0.46222833
200	0x3d26984f	0.040672597
201	0xbf3412a1	-0.70340925
202	0x3e994b12	0.29940087
203	0xbf042152	-0.5161334
204	0xbe7940db	-0.24341147
205	0x3f3ad873	0.72986525
206	0x3fa1e29a	1.2647278
207	0xbf160553	-0.58601874
208	0x3f9ab036	1.2085025
209	0xbe35a912	-0.17740276
210	0x3e8ca4ae	0.2746939
211	0xbb1661a9	-0.0022946394
212	0x3f76baab	0.9637858
213	0x3ea37251	0.31923154
214	0x3eaa9e50	0.33323908
215	0x3e87266f	0.2639651
216	0x3fc282f9	1.519622
217	0x3de0270d	0.10944948
218	0xbf29b4a4	-0.6629126
219	0xbe5bd5b6	-0.21468243
220	0x402f53d9	2.7394927
221	0xbf1ac786	-0.604607
222	0xbe7962e8	-0.24354136
223	0xbe4abb35	-0.19797976
224	0xbe65f86d	-0.22458048
225	0x3f473ced	0.7782734
226	0xbe27ccde	-0.16386744
227	0xbf283dbd	-0.65719205
228	0xbe8e5449	-0.2779868
229	0xbf765892	-0.962289
230	0x417d5d55	15.835286
231	0x3f471a5f	0.77774614
232	0x3eaf4609	0.3423312
233	0xbee464ac	-0.44608057
234	0x3f63639b	0.8882386
235	0x3b31b520	0.0027116016
236	0x3f750246	0.95706594
237	0x3f70165a	0.93784106
238	0xbfab8994	-1.340136
239	0x3ee5102f	0.4473891
240	0x3ced5b49	0.028974192
241	0x3c82e19b	0.015976718
242	0xbf1cc6a6	-0.61240613
243	0xbf8583b5	-1.0430819
244	0x3dbd686c	0.092484325
245	0x3f8c36a4	1.0954175
246	0x3f6dcd18	0.92891073
247	0x3e1e49d1	0.15457846
248	0xbec5880c	-0.38580358
249	0x3e0af25e	0.13569018
250	0x3d102100	0.03518772
251	0x3e9f4023	0.3110362
252	0x4092a0d0	4.5821304
253	0xbe3fb742	-0.18722251
254	0xbf083fac	-0.53222156
255	0x3d929303	0.071569465

lstm.weight_hh_l0_reverse f4 [40, 10]
0	0x3fc9097c	1.5706019
1	0x3c5b8ed3	0.013400751
2	0x3eed5c24	0.4635936
3	0xbf6e2ff1	-0.930419
4	0xbff7228b	-1.9307417
5	0x3e348abf	0.17631052
6	0x3ff9f6ba	1.952842
7	0xbf74c30e	-0.9561013
8	0xbf15fa26	-0.5858482
9	0xbf6c681d	-0.92346364
10	0xc000692d	-2.0064194
11	0x40688908	3.6333637
12	0xc00bb7a3	-2.1830833
13	0x401d2ee4	2.455987
14	0xbf2aca63	-0.6671507
15	0x3e7c804f	0.24658321
16	0x3f0d298e	0.5514153
17	0x3f57423d	0.84085447
18	0xbfb6541e	-1.424442
19	0xbebd7d7b	-0.37009797
20	0xbf60ab16	-0.87761056
21	0x3e9c6e95	0.30553117
22	0x3f1f84a4	0.6231177
23	0xbed17df2	-0.409164
24	0xbfe0054a	-1.7501614
25	0x3dacb18b	0.08432301
26	0xbf74812d	-0.95509607
27	0x3e876997	0.26447746
28	0xbf8a213b	-1.0791391
29	0xbebcde73	-0.36888465
30	0xbfef9aca	-1.8719113
31	0xbe7b6810	-0.24551415
32	0xbe0261b7	-0.12732588
33	0xc0815905	-4.0421166
34	0xbf224f2f	-0.63402075
35	0xc01b310e	-2.424869
36	0x3f3bda61	0.73380095
37	0xbfd87ccb	-1.6913084
38	0xbf756d5d	-0.9587
39	0xbefa4903	-0.4888383
40	0xbc3f22f5	-0.011666049
41	0x3f43384c	0.7625778
42	0xbebf1c25	-0.3732616
43	0xbe676ca9	-0.22600044
44	0xc02fa52a	-2.7444558
45	0xbf685f02	-0.9076997
46	0xbf85f119	-1.0464202
47	0x3b7f9b47	0.0039002465
48	0x3f0a5d79	0.5404888
49	0xbf6a5c2d	-0.915469
50	0xbf78732c	-0.9705074
51	0xbea14cd2	-0.31503922
52	0xbe9ad1c6	-0.3023817
53	0x3ea02ef9	0.31285837
54	0xbf7e3156	-0.9929403
55	0x3f1a14b1	0.6018782
56	0xbe4f7c80	-0.20262337
57	0x3e5e7173	0.21722965
58	0x3dc1b88b	0.09459027
59	0xbfae186d	-1.3601204
60	0x3ea4b39e	0.32168287
61	0x3f1c4559	0.61043316
62	0x3eb1c9d2	0.3472429
63	0x3f204ab7	0.62614006
64	0xbfdff693	-1.7497123
65	0x3faf2d74	1.3685746
66	0xbfe6c7e4	-1.8029752
67	0xbed80ef5	-0.4219891
68	0x3d1ed1d8	0.03877434
69	0xc08b1f34	-4.347559
70	0xbeb1814b	-0.34668955
71	0xbf9e4d24	-1.2367291
72	0x402912ef	2.6417806
73	0x3fd7b7d6	1.6852977
74	0xc036b7fd	-2.8549798
75	0x3fee9506	1.8639228
76	0x407fca2d	3.9967148
77	0xbec17bea	-0.3778985
78	0x3fa7b6b9	1.3102638
79	0xc02163d5	-2.5217183
80	0x40152350	2.3302803
81	0x4000ebd6	2.0143943
82	0x3fc618b5	1.547629
83	0x3f5c87ba	0.861446
84	0xc0284750	-2.6293526
85	0x3e5c58f9	0.21518315
86	0xbf5c9129	-0.86158997
87	0x3f3cd899	0.73768
88	0xbfef676b	-1.8703436
89	0x3d682ec5	0.056685228
90	0xbf712cad	-0.94208795
91	0x3ffed275	1.9907976
92	0x3fdc3c12	1.7205832
93	0x3f81517a	1.010299
94	0xbfdc4a82	-1.7210238
95	0x3fad2016	1.3525417
96	0x4002568c	2.0365324
97	0xbf4ae797	-0.7925963
98	0x3f426687	0.75937694
99	0xc0d06edc	-6.5135326
100	0xc055408d	-3.3320649
101	0x40a870e2	5.2637796
102	0xbf2175b0	-0.630702
103	0xc0033491	-2.0500834
104	0xc04a936e	-3.1652484
105	0x3efacfae	0.48986572
106	0xbf34499a	-0.7042481
107	0xbe6f15ff	-0.23348235
108	0xbf1bdd24	-0.6088431
109	0xbd9ce23f	-0.076603405
110	0x40f278ba	7.577237
111	0x4123f857	10.24813
112	0x40613df5	3.5194066
113	0xc02dc1e5	-2.7149594
114	0xc0969478	-4.7056236
115	0xc01db225	-2.463998
116	0xc04b5b8c	-3.1774626
117	0xbef88c08	-0.48544335
118	0xbe8ff9fc	-0.2812041
119	0xc0147f78	-2.32028
120	0x4023c0ff	2.5586545
121	0x40290ff2	2.6415982
122	0x3e17f34a	0.14838901
123	0x3f33e31d	0.7026842
124	0xbfdfaef2	-1.7475264
125	0x3fd7c13f	1.6855849
126	0xc06295fe	-3.5404048
127	0x3dad6c77	0.08467954
128	0xbf6a94d9	-0.91633373
129	0x3fe38397	1.7774533
130	0xbf020ecd	-0.50803834
131	0xbd899259	-0.06717367
132	0x3fc256ef	1.518278
133	0xc01a8471	-2.4143336
134	0xbe0f30a4	-0.13983399
135	0x3e17f150	0.14838147
136	0xbf22b305	-0.6355441
137	0x403ed9b9	2.9820387
138	0xbff15e74	-1.885695
139	0xbf4989f6	-0.78726137
140	0xbf3264ba	-0.69684947
141	0x4006c002	2.1054692
142	0xbf1ee1ca	-0.62063277
143	0x3de29e1a	0.11065312
144	0x40531e07	3.2987077
145	0xbecf54c6	-0.40494365
146	0xbf053f02	-0.5204927
147	0xc095737a	-4.6703463
148	0xbf949c8d	-1.1610276
149	0x3ed1a2b8	0.40944457
150	0x3faba6d8	1.3410292
151	0x3f41829e	0.7558993
152	0x3f776577	0.966392
153	0xc0307018	-2.7568417
154	0xbda2eba5	-0.07955102
155	0x4044c3a2	3.0744405
156	0x3f36980a	0.71325743
157	0xbf94700d	-1.1596695
158	0xbf89fdaa	-1.0780537
159	0x3fbee531	1.4913694
160	0xbe02053d	-0.12697311
161	0x3e840ba9	0.25790146
162	0x408f3e27	4.476337
163	0xbf721dfd	-0.9457701
164	0x4069cb69	3.6530402
165	0x40177af9	2.3668807
166	0xc00cbbcb	-2.198962
167	0xbff79266	-1.9341552
168	0xbf44234f	-0.76616377
169	0xc0583a9c	-3.3785772
170	0x3f58fafb	0.84757966
171	0xc005d8e3	-2.0913627
172	0xbf4820f5	-0.7817529
173	0x40c37ea7	6.1092105
174	0x40018375	2.0236485
175	0x3f5fe4e3	0.8745863
176	0x3f5f386f	0.87195486
177	0x3ffbe078	1.9677877
178	0xc063a33d	-3.5568383
179	0xbfef537d	-1.8697354
180	0x3dd3c604	0.10340503
181	0xbe874115	-0.2641684
182	0xc018887b	-2.38333
183	0xc062f6bf	-3.5463102
184	0x4075474a	3.8324761
185	0x3faa8a65	1.3323485
186	0xbfb413fe	-1.4068601
187	0xbf51c6df	-0.8194408
188	0x3fb944c5	1.4474112
189	0x3f5bbdcc	0.8583648
190	0xbf848b6e	-1.035505
191	0x3e085168	0.13312304
192	0x3fa4958c	1.2858138
193	0x3dd77156	0.10519664
194	0xbfcb2ca8	-1.5873003
195	0x40286b60	2.6315536
196	0xc100e709	-8.056405
197	0x3ff5e615	1.921084
198	0x3fc9295e	1.5715749
199	0x3f8aff3c	1.0859141
200	0xc0515f43	-3.2714393
201	0x403b033b	2.9220722
202	0xc02e0baf	-2.719463
203	0x3fd24efe	1.6430357
204	0x409f5e47	4.9802585
205	0xbf8d7a87	-1.1053017
206	0xc06aec09	-3.6706564
207	0x3f5a6834	0.8531525
208	0x3fa94a28	1.3225756
209	0x3f34f2e7	0.7068314
210	0xc0f72cae	-7.724204
211	0x4123cd8b	10.237681
212	0xbff08fd3	-1.8793892
213	0xbcfd5ef9	-0.030929076
214	0x3d51d7d2	0.051231213
215	0xbea1843b	-0.31546196
216	0x3f4f2287	0.8091206
217	0xbfca8673	-1.5822281
218	0xbdb68faa	-0.089141205
219	0xbe1c0f35	-0.15240176
220	0xc10effe7	-8.937476
221	0xbfe51511	-1.7897054
222	0xc028652d	-2.6311753
223	0x40b395cf	5.612037
224	0xc036b5c6	-2.8548446
225	0xbfed508b	-1.8540205
226	0x4029a756	2.6508384
227	0xbfc2f574	-1.5231156
228	0xc02bde88	-2.6854572
229	0x3e1eb095	0.15497048
230	0xc0093ed2	-2.1444592
231	0x3f489e09	0.7836614
232	0x40482faf	3.1279104
233	0x40ef2db7	7.4743304
234	0xbf9dca7c	-1.2327418
235	0xbf8f4152	-1.1191809
236	0xc0929f5c	-4.581953
237	0x3fb8cc8d	1.4437424
238	0xbfeccc3c	-1.8499827
239	0xbff62624	-1.923039
240	0xbe43c5c1	-0.19118406
241	0x40d2cc91	6.5874715
242	0x3edfe10a	0.4372638
243	0x3e4f7222	0.20258382
244	0x40a4f922	5.1554117
245	0xc0981ed2	-4.7537622
246	0xc08d2a89	-4.4114423
247	0x3edc8dc5	0.43076912
248	0x402506a3	2.57853
249	0xc0788ac4	-3.8834696
250	0x3f29d60d	0.6634224
251	0xc08df3f0	-4.4360275
252	0x4061cd78	3.5281658
253	0x3fe3f876	1.7810199
254	0x3f33e02e	0.70263946
255	0x3f344ace	0.7042664

lstm.bias_ih_l0_reverse f4 [40]
0	0xbfb8a4f4	-1.442534
1	0xbfbd26dd	-1.4777485
2	0xbfa90715	-1.3205286
3	0xbfa9a37a	-1.3253014
4	0xc009b8b7	-2.151899
5	0xbf71db3c	-0.9447515
6	0xc013b3ee	-2.307857
7	0xbfd3b7dd	-1.6540486
8	0xbf6dca47	-0.92886776
9	0xbf841f4a	-1.0322049
10	0x3f9d7a86	1.2303016
11	0x3fea0064	1.8281369
12	0x3fd6f998	1.679492
13	0x3f7c9bc4	0.9867518
14	0x3df556ef	0.11979472
15	0x3f747655	0.9549306
16	0x3f81ccb0	1.0140591
17	0x3f0297dd	0.51012975
18	0x3f29b082	0.66284955
19	0x3fa4e88a	1.2883465
20	0x3d91311d	0.07089446
21	0xbcea5795	-0.028606215
22	0xbe949acd	-0.29024354
23	0x3da01f81	0.07818509
24	0x3cb4638a	0.02202012
25	0x3cb1ac05	0.02168847
26	0x3e669bbe	0.22520348
27	0xbf3a31d3	-0.72732276
28	0x3e897103	0.26844034
29	0xbd280459	-0.04101977
30	0xbf6d7ae4	-0.9276564
31	0xbfb52b60	-1.4153862
32	0xbf70d7a4	-0.9407904
33	0xbf95ffed	-1.1718727
34	0x3ec0fdca	0.37693626
35	0xbf841dbf	-1.0321578
36	0x3e158e09	0.14604963
37	0xbf51966f	-0.8187017
38	0xbf1cfb87	-0.613213
39	0xbfc17b31	-1.511572

lstm.bias_hh_l0_reverse f4 [40]
0	0xbfa18c5d	-1.262096
1	0xbfb3651a	-1.4015229
2	0xbf6c0e7a	-0.9220959
3	0xbfab415e	-1.3379323
4	0xc021d983	-2.5289009
5	0xbf460c87	-0.77362865
6	0xc01a3c68	-2.409937
7	0xbfecb5d2	-1.8492987
8	0xbf617b8b	-0.88079137
9	0xbfc237ab	-1.5173239
10	0x3fccdc16	1.6004665
11	0x3fd88ca2	1.6917918
12	0x3fb0e22f	1.3819026
13	0x3f875da2	1.057545
14	0x3e275da5	0.16344316
15	0x3f82cccb	1.0218748
16	0x3f9c8bdc	1.2230182
17	0x3f1776e9	0.5916582
18	0x3f4a2b31	0.78972155
19	0x3fc6ce46	1.55317
20	0x3df038ce	0.11729585
21	0xbea9ae51	-0.33140805
22	0x3df84dbb	0.12124201
23	0x3eb39bf8	0.35079932
24	0x3ea2e258	0.31813312
25	0x3e1821df	0.14856671
26	0x3dc08710	0.09400761
27	0xbf08fd0c	-0.5351112
28	0x3ec7ada7	0.38999674
29	0xbecbc39b	-0.39797673
30	0xbf8d5af2	-1.1043379
31	0xbf83fc77	-1.0311421
32	0xbf35ca1b	-0.71011513
33	0xbfc796ea	-1.559293
34	0x3f321b5c	0.69573
35	0xbf7ac8be	-0.9796256
36	0x3ebcdabf	0.3688564
37	0xbf186616	-0.5953077
38	0xbf5965a0	-0.8492069
39	0xbf9bf9f8	-1.218566

lstm.weight_ih_l1 f4 [40, 20]
0	0xc04435e4	-3.0657892
1	0x408e256b	4.4420676
2	0xc0755079	-3.8330367
3	0x3fc953fe	1.5728757
4	0x3ead6e9e	0.33873457
5	0xbf57d0de	-0.8430308
6	0x405874f9	3.3821394
7	0xbf501ea8	-0.8129678
8	0xc0054ea5	-2.082925
9	0x406aa5c5	3.6663678
10	0x4028be93	2.6366317
11	0xbefc9ee7	-0.49339983
12	0x3ee62f86	0.44958133
13	0xbe0223f3	-0.12709026
14	0x3ff56503	1.9171451
15	0xbdd7bbe9	-0.10533888
16	0x40475670	3.1146507
17	0xbe992983	-0.29914483
18	0x406bf23c	3.6866598
19	0x3f9a8598	1.207202
20	0x403fbf78	2.9960613
21	0x400dde01	2.216675
22	0xbf07665a	-0.5289055
23	0x40e78e3f	7.236114
24	0x3e71854f	0.2358601
25	0x4053c318	3.3087826
26	0xbf98503f	-1.1899489
27	0xc15ff9d1	-13.99849
28	0xc0551407	-3.3293474
29	0x40a5b885	5.1787744
30	0x3f1a6cc8	0.60322237
31	0xbe250e91	-0.16118838
32	0xc06a2376	-3.6584144
33	0x3f0e287c	0.55530524
34	0xbed13921	-0.40863898
35	0xbfa59ae8	-1.2937899
36	0xbf711472	-0.9417182
37	0xbfded7b5	-1.7409579
38	0xbfdecfec	-1.7407203
39	0x3f2b2a50	0.6686144
40	0x3fbafff9	1.4609367
41	0x3ee26630	0.44218588
42	0x3fc59b5b	1.5438036
43	0xbfc1d5d0	-1.5143375
44	0xbf680cf3	-0.9064476
45	0x3fd7c539	1.6857063
46	0x3f73b95d	0.95204717
47	0xbf728303	-0.9473116
48	0x3e32e011	0.17468287
49	0xbf0cc7bc	-0.5499227
50	0x3e97a5b4	0.2961861
51	0xc06ab0a3	-3.667031
52	0xc0710971	-3.7662013
53	0x3fbe3e07	1.4862679
54	0x400534b5	2.081342
55	0x3f92230a	1.1416943
56	0x3f87553e	1.0572889
57	0x3fb17357	1.3863324
58	0xc042a7d0	-3.0414925
59	0xbf9f834e	-1.2461946
60	0x3f9df6ef	1.2340983
61	0xbf2efc42	-0.68353665
62	0xbf94ca67	-1.1624268
63	0x40390e84	2.891511
64	0x40be8bc8	5.954563
65	0xbe2d6037	-0.16931234
66	0x3f631a58	0.8871207
67	0x405c9007	3.4462907
68	0xbfe18860	-1.7619743
69	0xc08f0a62	-4.4700174
70	0x3f8727c4	1.055901
71	0x4000a564	2.0100946
72	0xc0b1e7a7	-5.559528
73	0x40057fe6	2.0859313
74	0x3fc882e8	1.566495
75	0x3fc16cad	1.511129
76	0x3f0af327	0.5427727
77	0xc051a88e	-3.2759128
78	0xbe983823	-0.2973033
79	0xbfdbd8b5	-1.7175509
80	0x3f2d8cb7	0.6779284
81	0x3ee88096	0.45410603
82	0xbfb3852c	-1.4025016
83	0xbf32fa94	-0.699136
84	0x3f562a07	0.8365788
85	0x3f0ab266	0.54178464
86	0xc03aaff8	-2.9169903
87	0xbd895508	-0.067056715
88	0xbf8916b9	-1.071006
89	0xc0328f7f	-2.7900083
90	0x40eeff9d	7.468703
91	0xc0a5f627	-5.186298
92	0xc083a7d5	-4.1142373
93	0x40116bdd	2.2722085
94	0xc08ac699	-4.336743
95	0xc01aaa14	-2.4166307
96	0xbf0ce26e	-0.55033004
97	0xbcbe038b	-0.023195049
98	0x40481d3b	3.126784
99	0x40073601	2.1126711
100	0x405c6a26	3.4439788
101	0x3eadb042	0.33923537
102	0x3f854ca4	1.0414014
103	0xbeb299d6	-0.34882993
104	0xbfff1152	-1.9927161
105	0x4010d2f3	2.2628753
106	0x3f75435e	0.9580592
107	0x3fefe68d	1.8742234
108	0xc0997675	-4.79571
109	0xc0acb928	-5.397602
110	0x3edba377	0.4289815
111	0xbfa12aac	-1.2591147
112	0xc01ab724	-2.417428
113	0xbf0cddcb	-0.5502593
114	0xbf1e286e	-0.6178044
115	0x4080e96c	4.028494
116	0x3e8b7df4	0.27244532
117	0x3fa67554	1.3004556
118	0xc088d3ed	-4.27587
119	0xbf842a47	-1.0325402
120	0x40ab62da	5.355817
121	0x3f1406bc	0.57822776
122	0x40155108	2.3330708
123	0xbdead920	-0.114671946
124	0xc07340ae	-3.8008227
125	0x4081b497	4.0532947
126	0x3f807cd3	1.0038093
127	0x40d567ee	6.6689367
128	0xbfdbf0eb	-1.7182897
129	0xbf455a2a	-0.77090704
130	0x3de6d23e	0.11270569
131	0x3fd8e87f	1.6945952
132	0xc064ef5b	-3.577109
133	0xc0828d54	-4.079752
134	0x40628e93	3.539952
135	0xbec1779f	-0.37786576
136	0xbfff5475	-1.9947649
137	0xc015bf31	-2.3397944
138	0xbf9ee2e8	-1.2412996
139	0x400d9bd1	2.2126353
140	0xbfa333d3	-1.275019
141	0xbedb12a0	-0.42787647
142	0xbf59343c	-0.8484533
143	0x3ec18019	0.37793043
144	0xbec3dd1d	-0.38254634
145	0xbf23260e	-0.6372994
146	0x3f126f54	0.57201123
147	0xbfae825a	-1.363353
148	0x3f9d5209	1.229066
149	0xbfc9f311	-1.5777303
150	0x3f229a4d	0.63516694
151	0x3c839ede	0.016066965
152	0x3f6e3cb1	0.9306136
153	0xbf1bae7a	-0.60813105
154	0x3f9dbaf9	1.2322685
155	0x3f3745c2	0.71590817
156	0xbfa8630b	-1.3155226
157	0x3f2fc2b0	0.68656445
158	0x3f4c248b	0.7974326
159	0xbeb53037	-0.35388348
160	0x3f9bd794	1.2175164
161	0x3f463eb6	0.7743944
162	0xc0a2ca00	-5.087158
163	0x40bccb51	5.899819
164	0x405eda45	3.482072
165	0x3f8f3412	1.1187766
166	0x40bf67af	5.9814067
167	0x409f480f	4.977546
168	0x3fed8eaa	1.8559163
169	0x3dc4a566	0.0960186
170	0xbf48db3d	-0.7845953
171	0xbe583130	-0.21112514
172	0xbfb9d431	-1.4517881
173	0xbe030628	-0.12795317
174	0x4027f007	2.624025
175	0xbf8183e9	-1.0118381
176	0xc0051a80	-2.0797424
177	0x3f0b1173	0.543235
178	0xc003a272	-2.0567899
179	0xbe1aa2dc	-0.15101188
180	0x3ed53421	0.41641334
181	0x3e8dcade	0.27693838
182	0xc10a9f46	-8.663885
183	0x410ea7a2	8.915926
184	0x40c88edd	6.2674394
185	0x3ec38b97	0.38192436
186	0xc0004874	-2.0044222
187	0xc09cd85e	-4.901412
188	0xc002bfa6	-2.0429473
189	0xc09613ed	-4.6899323
190	0x3f839136	1.027869
191	0xbf4a302f	-0.7897977
192	0x3fa610d5	1.2973887
193	0x400155e7	2.020868
194	0xc0906260	-4.5120087
195	0xbfbe639f	-1.4874152
196	0x4081fccc	4.062109
197	0xc08bdf47	-4.3710055
198	0x3fd62502	1.6730044
199	0x3fbf70e6	1.4956329
200	0xbf9855b0	-1.190115
201	0x3ff2cb4f	1.8968295
202	0x4053e657	3.3109338
203	0x3fa659c4	1.2996144
204	0xbfa772e5	-1.3081938
205	0x406ae17d	3.6700127
206	0xc0430a10	-3.0474892
207	0x3f9bffd6	1.218745
208	0x40616c43	3.5222328
209	0x402ef08f	2.7334325
210	0x40b32f06	5.59949
211	0xbd831afa	-0.0640163
212	0xc04d08b4	-3.2036562
213	0xbe377f3b	-0.17919628
214	0x3f60c005	0.87793
215	0x3f86f551	1.0543615
216	0xc045d22b	-3.0909526
217	0xc04ee764	-3.232873
218	0xbfad594b	-1.3542875
219	0x40b4b31d	5.6468644
220	0xc004e747	-2.076616
221	0xc076a4a5	-3.853799
222	0x409d75fc	4.9206524
223	0xc13a1785	-11.630742
224	0x40741d61	3.8142931
225	0x4053a9c3	3.3072364
226	0xbe9d0645	-0.30668846
227	0xbfe815cf	-1.8131655
228	0xbf97c8f9	-1.1858207
229	0xc099872f	-4.797752
230	0xbfe35ab7	-1.7762059
231	0x404629ce	3.0963016
232	0x401a994c	2.4156065
233	0x40371e29	2.8612158
234	0xc00d7661	-2.2103503
235	0xc0219dca	-2.5252557
236	0xc0b9b2c3	-5.8030715
237	0xbc373fd4	-0.011184651
238	0x406de04e	3.7168155
239	0xc067cb2b	-3.6217754
240	0x3f97d1e6	1.1860931
241	0x3e9e7fe5	0.3095695
242	0x4060946e	3.5090594
243	0xbd660482	-0.056156643
244	0xc000406c	-2.003932
245	0x3f9b6509	1.2140208
246	0x3fbd98b9	1.4812232
247	0xbf6b0ec6	-0.9181942
248	0xbdd58026	-0.10424833
249	0xc022f1b4	-2.5460024
250	0x3ef5512b	0.4791349
251	0xc0728cf8	-3.789854
252	0xc00656ec	-2.0990553
253	0xc0505086	-3.2549148
254	0x3d9d6308	0.07684904
255	0x3f913896	1.1345394

lstm.weight_hh_l1 f4 [40, 10]
0	0xc03b2dd8	-2.924673
1	0x40e350fa	7.103635
2	0x3fb62746	1.4230735
3	0xc09dbb5a	-4.92912
4	0xbfc34a3b	-1.5257028
5	0x3fa05059	1.252452
6	0xc06c575c	-3.692832
7	0xc0bcd171	-5.9005666
8	0xbfc4ce59	-1.5375472
9	0x402fafe8	2.7451115
10	0xc087b83d	-4.24124
11	0x40a13cb5	5.0386605
12	0xc0a991d7	-5.2990527
13	0xc07fdd50	-3.9978828
14	0x413c858b	11.782603
15	0x3f26bae4	0.6512892
16	0x4047c0eb	3.1211498
17	0xc09e5bd6	-4.9487104
18	0xc08615ec	-4.190176
19	0x3ffaf3c8	1.9605646
20	0x4098ee5b	4.779096
21	0x40a786de	5.2352133
22	0x3f909dcf	1.1298159
23	0x3feff6ab	1.8747152
24	0x401659e5	2.3492367
25	0xbf3312a1	-0.699503
26	0x3f104cfe	0.5636748
27	0x4118555f	9.520843
28	0x40a04d4e	5.0094366
29	0xbf8123b2	-1.0089018
30	0xc0a13ecb	-5.038915
31	0x41944987	18.535902
32	0x3fca3d61	1.5799981
33	0x3fec3b59	1.8455611
34	0xbf9124d5	-1.1339365
35	0x3e8d8170	0.27637815
36	0xc107a9b3	-8.47893
37	0x41786804	15.525394
38	0xc0ba6a54	-5.8254795
39	0x40e70b9f	7.2201686
40	0xc08ba44f	-4.363807
41	0x3ff3eafe	1.9056089
42	0xbf95fbca	-1.1717465
43	0x3fb6b67c	1.427444
44	0x41166af7	9.401114
45	0x401455ea	2.3177438
46	0xc0978fb6	-4.736293
47	0x406869e1	3.6314623
48	0x40bd58dc	5.917097
49	0xc05747d3	-3.3637588
50	0xc034b68c	-2.8236418
51	0x408be6d4	4.3719273
52	0x3fa3232e	1.2745111
53	0x40077d34	2.1170168
54	0x3fc7ce82	1.5609896
55	0x3fbde1f2	1.4834578
56	0x3f47bd04	0.7802279
57	0x408a5867	4.3232913
58	0x40a27bea	5.077626
59	0x3e35675f	0.17715214
60	0x40b478f5	5.6397653
61	0x3d655896	0.055992685
62	0xc07544c1	-3.8323214
63	0xbfe85330	-1.8150387
64	0x40536120	3.302803
65	0x3fef5ccb	1.8700193
66	0x401a6d4c	2.412921
67	0x3fa1ca91	1.2639943
68	0xc065f9e1	-3.5933764
69	0xc0473c70	-3.1130638
70	0x403f1915	2.985906
71	0xbf1b6fc7	-0.60717434
72	0xc0274d15	-2.6140797
73	0xc08a8039	-4.328152
74	0xbf912b13	-1.134127
75	0xbf6b8cba	-0.92011607
76	0xc00a3141	-2.1592562
77	0x3ff40c84	1.906632
78	0xc0f83410	-7.7563553
79	0x3ec4c37a	0.38430387
80	0x40dcda8c	6.901678
81	0xbfcf4cf0	-1.6195354
82	0xbeb53170	-0.3538928
83	0xc11aa565	-9.66538
84	0xc0d67b74	-6.70257
85	0x40bc34e2	5.8814554
86	0xc17fd655	-15.989827
87	0x4202b99e	32.681267
88	0xc19cf995	-19.621866
89	0x415d5568	13.833351
90	0xc02e3846	-2.7221847
91	0x410484a1	8.28238
92	0x3f7e03f1	0.99224764
93	0xc0294163	-2.644616
94	0xc0a86386	-5.262149
95	0x3ce6cefa	0.028174866
96	0xbfdf9f74	-1.7470536
97	0x4118c8f9	9.549066
98	0xc147a197	-12.476951
99	0xc105819b	-8.344142
100	0xbe3532a7	-0.17695104
101	0xc0d4e4bc	-6.6529217
102	0xc0d60fb3	-6.6894164
103	0x3e634966	0.22195968
104	0x3f9bac5e	1.2161977
105	0xbfb30f52	-1.398905
106	0x3fe69313	1.8013633
107	0xbfdca64a	-1.7238247
108	0x40d296f7	6.5809283
109	0x4011fa7c	2.2809134
110	0xc025130c	-2.5792875
111	0x413652ee	11.3952465
112	0xc07da4aa	-3.9631753
113	0xbfb5429d	-1.4160954
114	0xbf0f91ac	-0.5608165
115	0xbfe605b0	-1.7970486
116	0x40abdefe	5.3709707
117	0x4030319b	2.7530277
118	0xc03f6fa8	-2.99119
119	0xc16ffd1a	-14.999292
120	0xc0be6468	-5.9497566
121	0xbfe2d715	-1.7721888
122	0xbf2c8986	-0.67397344
123	0xbe8f8f2a	-0.28038913
124	0xbf75eaf6	-0.96061647
125	0x3f488055	0.7832082
126	0xc00731a0	-2.1124039
127	0x3db483a8	0.08814174
128	0x40f4411a	7.632947
129	0xc0256872	-2.5844998
130	0x401142e8	2.2697086
131	0x4155cf87	13.363166
132	0xc0ccec50	-6.4038467
133	0x4189b133	17.211523
134	0x40cc5a8a	6.386052
135	0xbfcefe27	-1.6171311
136	0xc1472a85	-12.447881
137	0x40986c45	4.7632165
138	0xc059e631	-3.4046748
139	0x4156ff8a	13.437387
140	0xc072fe4f	-3.7967718
141	0x419bb539	19.463488
142	0xc0e623d2	-7.1918726
143	0x40238711	2.5551188
144	0xc075d8cc	-3.8413572
145	0xbeca680b	-0.39532503
146	0xc145e5b9	-12.368585
147	0x3ff9dc63	1.9520382
148	0x404e5341	3.2238314
149	0x402f67d1	2.7407115
150	0x404d5b65	3.2087033
151	0x3e0ad500	0.13557816
152	0x4012bb40	2.2926788
153	0xc0074953	-2.1138504
154	0xc0720c5b	-3.782004
155	0x3e38866c	0.18020028
156	0xc0114b46	-2.2702193
157	0x40ce739e	6.4516134
158	0xbf0bddfe	-0.5463561
159	0xc09f3932	-4.975732
160	0xc0f10a1b	-7.5324836
161	0x408c984e	4.393592
162	0xbff2647e	-1.8936918
163	0x3f03ac41	0.51434714
164	0x3fec092b	1.8440298
165	0xbfee5617	-1.8620023
166	0x4080c3a1	4.0238805
167	0x40bfbe36	5.991969
168	0xc0c6cf48	-6.212803
169	0xc1404684	-12.017216
170	0x40d316e2	6.5965433
171	0xc1474bee	-12.4560375
172	0xc020b24c	-2.5108824
173	0xc159f8cf	-13.623244
174	0xbf81fbb7	-1.0154942
175	0xc083dfe6	-4.1210814
176	0xc03ba37d	-2.9318535
177	0x3fe34a6a	1.7757084
178	0xc10e21ad	-8.883222
179	0xc09c606f	-4.8867717
180	0xc1078bc0	-8.471619
181	0x3fd801de	1.687557
182	0xc0e32352	-7.0980616
183	0x3f649f9e	0.89306056
184	0x4124a942	10.291323
185	0xc027be07	-2.6209733
186	0x41a5c811	20.722689
187	0x40331bd6	2.798574
188	0x406eda3a	3.7320695
189	0xc0b53618	-5.6628532
190	0x40f21a83	7.5657363
191	0x4056a210	3.3536415
192	0x40569562	3.3528676
193	0x3e38bdf6	0.18041214
194	0x4037acfa	2.8699327
195	0x3ea2e30b	0.31813845
196	0xbd68fae4	-0.056879893
197	0x416551c2	14.33246
198	0xc163d055	-14.238362
199	0x4021d80f	2.5288122
200	0xc1460ec9	-12.37861
201	0x3f893fff	1.0722655
202	0x3f9c6309	1.2217723
203	0xc027debd	-2.6229699
204	0xbd8e5005	-0.06948856
205	0xc045712c	-3.0850325
206	0xbf52713c	-0.8220403
207	0x3f03e521	0.515215
208	0x3fec0f99	1.844226
209	0xbf069a49	-0.5257917
210	0x406c07cc	3.687976
211	0xc02ee48b	-2.7326992
212	0xbf1c196c	-0.6097629
213	0x40216d67	2.5223024
214	0xc01f70ab	-2.4912517
215	0x3facd883	1.3503574
216	0x401dbb9c	2.4645758
217	0x403fd267	2.997217
218	0x40228059	2.5390837
219	0x3f2104f1	0.62898165
220	0x40b1163f	5.5339656
221	0x3f571988	0.8402333
222	0xc0c3e7cd	-6.122046
223	0xbffaf84e	-1.9607027
224	0x3fb89771	1.4421216
225	0x3f7a0cba	0.9767567
226	0xc0cc3c25	-6.382342
227	0x3df0b0ae	0.11752449
228	0xbfd10e80	-1.633255
229	0x3f900426	1.1251266
230	0x40674401	3.6135256
231	0xc063ee6e	-3.5614276
232	0xbf6f6c06	-0.93524206
233	0x4077ea23	3.8736656
234	0x401240c4	2.285203
235	0x3f35a285	0.7095111
236	0xc0620a0e	-3.5318637
237	0x414327d9	12.197228
238	0xc08f83fc	-4.4848614
239	0x40bcfbfd	5.9057603
240	0xc0f08af4	-7.516962
241	0xbebefcd7	-0.37302276
242	0x40bbd544	5.8697834
243	0xbff95df9	-1.9481803
244	0xbfa22897	-1.2668637
245	0x40361b30	2.8454094
246	0x40c476c7	6.139499
247	0xc04c7525	-3.19465
248	0x40694159	3.6446135
249	0xc01553ab	-2.3332317
250	0x40a13a1e	5.0383444
251	0xbfcb4f73	-1.5883621
252	0xc081a809	-4.051762
253	0xbfaaa430	-1.3331356
254	0xbc4f29b9	-0.012644225
255	0x3f96adab	1.1771749

lstm.bias_ih_l1 f4 [40]
0	0xbf49e97a	-0.7887188
1	0xbfdd8aa0	-1.730793
2	0xbf8c7916	-1.0974452
3	0xbf4ad38f	-0.7922906
4	0xbfd803d9	-1.6876174
5	0xbfb6cb5b	-1.4280809
6	0xbfedb925	-1.8572127
7	0xbfd30133	-1.6484741
8	0xbf5d6ffa	-0.8649899
9	0xbf7a66a2	-0.97812855
10	0x3f09186e	0.535529
11	0x3f81f355	1.0152384
12	0x3e289d0b	0.16466157
13	0x40059bd2	2.0876355
14	0xbe7cd438	-0.2469033
15	0x3fa51a92	1.2898734
16	0x3fbf8bf9	1.4964591
17	0x3fe37cc4	1.777245
18	0x4009d9d0	2.1539192
19	0x3fdc6952	1.7219641
20	0xbf0d9afd	-0.5531462
21	0x3e912118	0.2834556
22	0xbe9348b3	-0.28766403
23	0x3eec9c7f	0.46213147
24	0x3e42164b	0.18953817
25	0xbf268321	-0.65043837
26	0x3ed3379e	0.4125337
27	0xbefe1ff8	-0.49633765
28	0x3f94a80a	1.1613781
29	0xbf273b34	-0.6532471
30	0xc0043c0f	-2.0661657
31	0xbfcbfabb	-1.5935892
32	0xbe2833b3	-0.16425972
33	0xbfc2e6fd	-1.5226742
34	0xbf38b0bc	-0.72144675
35	0xbf10cbad	-0.56560785
36	0xbf7337d4	-0.9500706
37	0xbf2532e7	-0.64530796
38	0xbf030008	-0.5117192
39	0xbf54e51e	-0.83162105

lstm.bias_hh_l1 f4 [40]
0	0xbf6cf9f9	-0.9256893
1	0xbff77c4b	-1.9334806
2	0xbf9d4184	-1.2285619
3	0xbf6b4e24	-0.9191611
4	0xbff33748	-1.9001245
5	0xbfce70e6	-1.6128204
6	0xc00ff866	-2.249536
7	0xbfdc58a5	-1.7214552
8	0xbf72c848	-0.94836855
9	0xbf89c55e	-1.0763357
10	0x3f0bb1f6	0.5456842
11	0x3f826ea7	1.0190018
12	0xbea937ff	-0.33050534
13	0x3fc9c773	1.5763992
14	0xbe3c4c95	-0.18388589
15	0x3f8485d2	1.0353339
16	0x3fd72ce7	1.6810578
17	0x3fe298df	1.7702903
18	0x4010d113	2.2627609
19	0x3fe1e84f	1.764902
20	0xbefd4aa9	-0.49471024
21	0xbbdb956e	-0.006701163
22	0x3c97efa9	0.018546896
23	0x3e2ba097	0.16760479
24	0xbdadb3a4	-0.08481529
25	0xbf3c453a	-0.7354313
26	0x3f33434d	0.7002457
27	0xbf253b81	-0.6454392
28	0x3f9b0f4e	1.2114046
29	0xbecbb9d2	-0.39790207
30	0xbfbeef2e	-1.4916742
31	0xbfc3b724	-1.5290265
32	0xbf28407c	-0.65723395
33	0xbfb61a9d	-1.4226872
34	0xbe804041	-0.25049022
35	0xbdf5822a	-0.119877174
36	0xbf18b518	-0.5965133
37	0xbf0b8498	-0.54499197
38	0xbf13af4d	-0.5768936
39	0xbf6e24c4	-0.9302485
