sparrow/data/networks/adf/adf_erijman_network_v1.pt (torch, 23203 bytes, 18 tensors)

lstm.weight_ih_l0 f4 [40, 20]
000000 a9 58 42 3f c3 25 ee be df 8c eb be f0 31 4c 3f
       0.75916535 -0.46513185 -0.46005914 0.797637
000010 46 a7 cb 3e a2 e1 91 3f b2 f8 d4 3f 47 e6 d2 3f
       0.39776057 1.1396983 1.6638396 1.6476525
000020 e1 4c 27 bf 68 26 d3 3d f2 50 3a 3e 72 97 e1 bf
       -0.6535168 0.1031006 0.1819494 -1.7624342
000030 53 44 59 3e a2 63 b6 3f 70 e9 f5 bf cb 65 b2 bf
       0.2121747 1.4249156 -1.9211864 -1.3937315
000040 f4 b7 dd 3e 3f ea e0 bf 02 a5 d6 3e 7e a9 82 bd
       0.43304408 -1.7571486 0.41922766 -0.06379984
000050 8b 3d 1c 3f 48 5d b2 bf cf 7e ae 3e 92 c4 a3 bf
       0.6103141 -1.3934717 0.34081122 -1.2794363
000060 16 2b 63 c1 93 4e ec be f2 a9 05 c1 0c d2 c6 bf
       -14.198019 -0.46153697 -8.353991 -1.5532851
000070 c9 79 cc bf 34 3b 98 bf 8d b9 e2 be 23 b1 8a bf
       -1.5974666 -1.1893067 -0.4428219 -1.0835308
000080 97 b5 d3 bf fc 39 e3 40 e3 33 a1 40 81 64 b8 3f
       -1.6539792 7.100828 5.037584 1.4405671
000090 69 a4 16 3f 91 14 f3 be e9 2c cc 3f cc 9f 83 bf
       0.5884462 -0.47476628 1.5951205 -1.0283141
0000a0 db dd 82 be c7 85 1f 3f a5 aa 30 3f 48 d0 b2 be
       -0.25559887 0.62313503 0.6901038 -0.3492453
0000b0 17 96 de c0 e4 f9 75 3e 14 9e c0 be f7 23 62 3f
       -6.9558215 0.24021107 -0.37620604 0.8833613
0000c0 6b 75 04 bf d1 f2 08 3f 49 ad f3 3d 0c cf 61 3f
       -0.51741666 0.5349551 0.11898286 0.88206553
0000d0 f2 ef e5 3f ef 84 87 be 11 28 1c be 1b da f5 3e
       1.796385 -0.26468608 -0.15249659 0.48017964
0000e0 dc 63 c8 bc cc 35 0d 3f e2 48 25 3f b8 66 d1 3e
       -0.02446168 0.5516021 0.64564335 0.4089868
0000f0 b0 4f d2 bf a3 55 89 bf d3 cc d0 3f 87 85 b5 3f
       -1.6430569 -1.0729259 1.6312507 1.4181374
000100 89 a9 2e bf 63 63 f4 c0 20 51 29 c0 77 70 e1 3d
       -0.6822744 -7.637132 -2.6455765 0.11007779
000110 d5 37 30 3f 06 00 22 bf 1d 2c 94 bf 14 2a ee 3d
       0.6883519 -0.63281286 -1.1575962 0.116291195
000120 3b f6 9a bf 82 92 60 bf 23 09 87 3f b7 d0 fd bf
       -1.2106394 -0.87723553 1.0549663 -1.982932
000130 a1 45 41 c0 c6 b5 36 3e 4c ef 61 bf 67 ec 21 c0
       -3.0198748 0.17842779 -0.88255763 -2.5300539
000140 57 d9 60 be 4e 92 09 c0 d2 32 05 c0 df 5b 2a be
       -0.21957909 -2.1495547 -2.0812268 -0.16636609
000150 a7 f4 a2 3f f1 57 8b 3d 48 69 9a bf 3e 98 33 3e
       1.2730912 0.06803883 -1.2063379 0.17538545
000160 a8 0e 71 3d ee 6d 55 3f e5 cb e6 3e 1a 0a 50 be
       0.058851868 0.83370864 0.45077434 -0.20316353
000170 36 3a fb be fe ca 34 3d 7e 75 27 be e6 cd cb be
       -0.4906785 0.0441389 -0.16353413 -0.39805526
000180 01 15 57 bf 8b f1 90 bf 50 7b 13 40 e3 ba 56 3f
       -0.84016424 -1.1323713 2.3044014 0.83878917
000190 2d 8d b7 bf 15 a7 69 c0 ad e3 fb bf 1c f9 47 c0
       -1.4339958 -3.6508229 -1.9678856 -3.1245794
0001a0 31 24 88 3f 93 53 0e bf 98 b1 b2 3e 9b 8a d4 3d
       1.0636045 -0.55596274 0.34901118 0.103779994
0001b0 57 c5 c3 3f 6f 18 0d 3f 1b c7 31 be 5a 6b 95 be
       1.5294598 0.5511541 -0.17361109 -0.29183465
0001c0 3d 15 67 bf 44 02 f9 3e 82 29 95 3f 49 e7 91 be
       -0.9026678 0.4863454 1.1653292 -0.2849677
0001d0 21 e8 7c bd 20 7f fd be ea 64 67 3f ce 85 1b bf
       -0.061744813 -0.4951105 0.9038836 -0.60751045
0001e0 3e 21 81 be 9d 9e c2 3f ae 28 39 3f f9 ef b7 c0
       -0.25220674 1.5204655 0.723277 -5.7480435
0001f0 bc f4 00 c0 3f 84 26 bf de 58 07 40 bb d2 84 be
       -2.0149374 -0.6504554 2.114799 -0.25942025
000200 4a ef c4 3f cf 58 75 bd d6 21 19 3f 34 fd 5d c0
       1.5385525 -0.059899148 0.59817255 -3.4685793
000210 29 ae b1 3f 16 26 d1 3f 74 d2 cd bf 1f 41 a4 3e
       1.3881274 1.6339748 -1.607985 0.32080933
000220 6b 6a 40 bf 98 f6 4a 3f 52 0d 00 40 9e c3 92 3f
       -0.7516238 0.7928252 2.000813 1.1465948
000230 f4 24 90 bf c7 0d 9c bf bd 41 d9 3f e2 03 84 3f
       -1.1261277 -1.2191705 1.6973187 1.0313685
000240 67 82 d7 3e f7 d5 1a 3f ff 7e d3 be d8 df b2 3f
       0.42091677 0.60482734 -0.41307828 1.3974562
000250 c0 05 cc bc 37 ed a7 3e 90 46 a6 3e a8 50 a1 3f
       -0.024905086 0.32798168 0.3247571 1.2602739
000260 c8 3b ca 3f da 9d 91 bc 3b bb d9 3c 94 c9 28 3f
       1.5799494 -0.017775465 0.026578536 0.65932584
000270 4e c5 60 bd 37 35 b1 3f c0 8d 29 c0 53 77 33 3d
       -0.054875664 1.3844365 -2.6492767 0.04381497
000280 4c 37 e3 bd 25 94 f4 be f9 73 be be 7a 3f 3b bf
       -0.110945314 -0.47769275 -0.37197855 -0.7314373
000290 ab f9 c9 3f cc 95 51 3f 23 d5 66 3f 9b 8a dd bf
       1.5779318 0.81869197 0.9016897 -1.7307924
0002a0 0f bb b7 bf d0 74 8c bf 3b ed 15 3f 86 29 a4 bf
       -1.4353961 -1.0973148 0.5856511 -1.2825172
0002b0 d8 f0 63 c0 8b 83 bf c0 2c cf 8a 3f 64 ee a0 bf
       -3.561575 -5.9848075 1.0844474 -1.2572751
0002c0 91 2f ea be 74 0f 16 c0 e3 6e b4 3f 8e 6f b6 3f
       -0.45739415 -2.3446932 1.409634 1.4252794
0002d0 07 b1 91 bd 17 c2 2f bf fb ba 03 c0 c0 63 45 bf
       -0.071138434 -0.6865553 -2.0582874 -0.7710533
0002e0 d1 66 ef bd 7b 7e 8d 3d 96 ae 71 3d e9 9e 6e 3e
       -0.116895325 0.0690889 0.05900439 0.23302807
0002f0 f3 f7 00 3f 62 59 cd 3e 9b f5 8b bf 0e d7 df 3f
       0.5037834 0.40107256 -1.0934328 1.7487504
000300 39 cb ec 3f 0a e5 8d c0 6c 1a 9b bf 85 cf f9 3e
       1.8499519 -4.434209 -1.2117438 0.48791137
000310 8b 78 41 be 7d ca 3e bf 34 1b e9 3f 55 83 15 3f
       -0.1889364 -0.7452772 1.8211427 0.5840352
000320 36 20 f3 40 b2 60 6c 41 cd 04 72 41 cc 20 bc 3c
       7.597682 14.773607 15.126172 0.022964858
000330 9e a0 61 bf 90 62 99 3e fe 34 da bb af 04 dd bf
       -0.8813571 0.2995801 -0.006659149 -1.7267054
000340 01 65 64 41 e9 3e 82 3f 05 fe 88 40 38 5d d7 40
       14.274659 1.0175449 4.2810082 6.7301292
000350 8a 41 d0 be 01 76 48 41 f3 ab 68 41 88 9d b5 3f
       -0.40675002 12.52881 14.54198 1.41887
000360 fe c6 bc 40 e1 fe 90 be 30 60 ca bf 3e 22 bb 40
       5.899291 -0.28319457 -1.5810604 5.84793
000370 02 36 18 40 ce 65 b6 40 30 13 4f 41 ea 33 6c 3f
       2.3782964 5.6999273 12.942184 0.92266715
000380 f0 13 c5 bf 51 01 44 bf 45 1c 5c 41 65 21 42 41
       -1.539671 -0.7656451 13.756902 12.133153
000390 da 29 33 41 00 86 a0 40 52 76 d2 3e b8 f0 5b 41
       11.197718 5.0163574 0.41105896 13.746269
0003a0 5a 81 68 41 b2 94 6b c0 1b fe 2a 41 c8 50 60 41
       14.53158 -3.6809506 10.687037 14.019722
0003b0 31 4c 4d 41 1f 69 55 41 0b 99 52 41 fb 85 0f 40
       12.831101 13.338164 13.162364 2.2425525
0003c0 f4 d4 82 be 8a 5c 15 be d1 56 b2 3f 8c bd 39 3e
       -0.25553095 -0.14586082 1.3932744 0.18138713
0003d0 42 eb 6b 41 e3 fd f9 40 db 08 1b bf 66 46 67 41
       14.744936 7.812242 -0.6056039 14.454687
0003e0 81 52 ce 3e be a9 21 40 8c 46 ef 3e 59 66 5c 40
       0.4029732 2.5259852 0.4673351 3.4437468
0003f0 09 b5 36 3f 99 89 9d bf 0b 01 06 3f e7 05 3c 41
       0.7136999 -1.2307616 0.5234534 11.751441

lstm.weight_hh_l0 f4 [40, 10]
000000 a5 de 0d c0 3b 69 e6 bc b2 4d c9 3d b4 fc b8 3e
       -2.2167141 -0.02812635 0.09829272 0.36130297
000010 04 08 51 3b b9 77 b6 bd 5c 11 52 3f ba 60 99 be
       0.0031895647 -0.08909554 0.8205774 -0.2995661
000020 2e b5 6e 3f 14 14 f7 3e 1f cf cb 3e 0b 5c 43 3f
       0.9324521 0.48257506 0.39806458 0.7631232
000030 f8 9e 42 3f d4 3f 16 3e d3 f1 8d 3f 69 2f 8e be
       0.7602382 0.14672786 1.1089424 -0.27770546
000040 cd 34 cd bf 9c fa 83 3f 5b ff 9b bf 04 9d 89 3d
       -1.6031739 1.0310855 -1.2187303 0.067194015
000050 77 8d 54 3e b9 e7 05 3e dd f7 f6 3f 81 d4 27 3e
       0.2075709 0.13076676 1.9294392 0.16389658
000060 5c e2 88 3c 64 78 e5 bd c7 e0 9a be bc 5d 93 3e
       0.016709499 -0.11204603 -0.30249617 0.2878245
000070 ee 58 b8 3c fd 21 1b 3e f7 a8 a4 3d 1b 55 fd 3c
       0.022503342 0.15149684 0.0804004 0.03092437
000080 93 38 98 be e9 56 e6 3e cd 36 0b 3e 34 ac db bd
       -0.29730663 0.44988182 0.13595124 -0.107262045
000090 47 37 9c 3d f8 ea b9 3d 94 11 13 be 5f f0 32 3b
       0.07627731 0.0907802 -0.14362174 0.0027303917
0000a0 83 1b 9a bd af f5 e8 bd e1 28 cc 3c 3c 7b 7c 3e
       -0.07524779 -0.113749854 0.024921836 0.24656385
0000b0 35 63 b7 3c 46 9a a4 3e da e9 b5 bd 20 a5 b3 3d
       0.022386173 0.3214895 -0.08882494 0.087717295
0000c0 20 82 56 be 15 1e 61 bd 9a 01 02 be b8 fd b7 bd
       -0.20948076 -0.05496033 -0.12695923 -0.0898394
0000d0 6b f8 62 3d 17 52 5f 3d cf cb 20 3e 87 56 8d bf
       0.05541269 0.054521646 0.15702747 -1.1042031
0000e0 43 b9 72 3e 84 2d d7 3d 3a e4 ca bc db da 40 bd
       0.23703484 0.10506728 -0.02476703 -0.047083717
0000f0 be 24 11 3d 3b c0 21 be 5d c0 31 3f 1d 94 74 3e
       0.03543543 -0.15795986 0.6943415 0.23884626
000100 38 2c 51 be e5 d5 46 3e c7 a9 3c bf 53 b5 77 3d
       -0.20427024 0.19417532 -0.7369656 0.06047566
000110 37 5e 9e bf 60 49 0a 3f bd e3 6b 3e a7 c8 c5 3f
       -1.2372502 0.5401821 0.23036094 1.5451859
000120 93 26 9d 3e 34 47 0c 40 b4 55 8e bf e0 f5 03 40
       0.30693492 2.191846 -1.1119905 2.061882
000130 1a 6b c4 3f 69 93 0f c0 de 06 74 3c d3 a5 94 3f
       1.5345185 -2.2433722 0.014894215 1.1613106
000140 82 6e 18 be a2 d7 e7 be 4c 50 2f be f8 38 a4 be
       -0.14885905 -0.45281702 -0.17120475 -0.32074714
000150 ff 92 71 3e 9e 0c 31 3e 9f c9 78 bc 59 6c 7c 3e
       0.23591231 0.1728997 -0.015184789 0.24650706
000160 52 ef a8 bf 09 e0 a5 3e 58 d7 0f 3f f7 0c d4 bd
       -1.3198035 0.32397488 0.56187963 -0.10354035
000170 90 b6 0e 3f ff 92 c0 3d 63 6e a8 3e ff 93 55 bf
       0.5574732 0.09403037 0.32896718 -0.8342895
000180 da 10 10 3e 74 87 da 3e 81 02 1d be 64 58 9a bd
       0.14068928 0.42681468 -0.15332986 -0.075363904
000190 d3 d8 2b be f9 fb 60 40 76 70 c8 40 d5 c0 e7 3f
       -0.1678193 3.5153792 6.263728 1.8105723
0001a0 09 d7 cb bf f0 73 46 c0 c6 9b cc c0 cb 9a 08 c0
       -1.5924999 -3.1008263 -6.3940153 -2.1344478
0001b0 90 88 b8 bf de 15 34 c0 a5 54 b0 c0 81 9d 16 3f
       -1.4416676 -2.8138347 -5.5103326 0.5883408
0001c0 f2 ae 19 bf f0 2b 58 c0 9c bb fc 3f 23 6c b1 c0
       -0.6003257 -3.3776817 1.9744754 -5.5444503
0001d0 0f 52 f2 3e 0d b5 d7 3e 7c 7e c9 be da 37 38 40
       0.4732823 0.42130318 -0.39354312 2.878409
0001e0 cd 70 9b 40 74 e3 04 be 59 02 c7 3f fd 31 36 bf
       4.8575196 -0.12977391 1.5547591 -0.71170026
0001f0 95 e1 08 c0 d1 83 1e be 09 08 ce c0 db f2 99 3f
       -2.1387684 -0.15479971 -6.438481 1.2027239
000200 fb b4 ad 3f 9f 67 95 40 fb 98 1a bf b9 78 39 3f
       1.3570856 4.668899 -0.6038968 0.72449833
000210 9d 69 65 be 16 36 07 3e f3 81 04 3f 3b 26 cf bf
       -0.2240357 0.13204226 0.51760787 -1.6183542
000220 a5 72 1a c0 ab ed f1 3f 60 09 13 40 f7 8e 15 40
       -2.4132473 1.8900656 2.2974472 2.336851
000230 09 de 3d c0 2c 1c 0b 40 c0 b6 a1 3f 2a a6 25 3e
       -2.966677 2.1735945 1.2633896 0.16176668
000240 8a 38 31 3e 12 01 af 3f 15 3e 39 40 94 ef 3a 3e
       0.17306724 1.3672202 2.8944142 0.18255454
000250 53 11 06 40 02 6b a3 be 0f f5 ee be 5a 26 52 bf
       2.0948074 -0.31917578 -0.4667134 -0.8208977
000260 8b 98 59 40 98 b1 9a 3f b1 9e 5f 40 cd 4d 5a 40
       3.3999355 1.2085447 3.4940608 3.4109986
000270 7c 8b b2 c0 83 79 fe 3e 30 88 73 3e 89 29 4b 40
       -5.579527 0.4970208 0.2378242 3.17441
000280 59 96 0e 40 60 70 62 40 d0 90 01 bf 41 e1 3c bf
       2.2279265 3.5381088 -0.5061159 -0.7378121
000290 fe c7 01 c0 1e b5 0c 3f df 1b 64 3f 7f 68 01 c0
       -2.0278316 0.5496386 0.8910503 -2.022003
0002a0 66 9c 12 bf ad 8c 15 40 c2 bd 2b 3f 83 45 e3 be
       -0.57269895 2.3367112 0.6708642 -0.4438897
0002b0 39 70 e6 3e 43 b9 35 3f 5a 54 ad 3d 75 e2 99 40
       0.45007494 0.7098581 0.084633544 4.8088937
0002c0 ec 6d 77 40 00 f4 05 c0 d0 69 29 3f 67 20 16 c0
       3.866084 -2.0930176 0.6617708 -2.3457277
0002d0 4d b2 4c c0 76 7f 30 c0 4c 65 82 3f a7 c1 89 bf
       -3.1983826 -2.7577796 1.0187163 -1.0762223
0002e0 b8 46 0d c0 ff 86 17 40 60 7c 42 40 3a 37 e7 3f
       -2.2074413 2.3676145 3.0388412 1.8063729
0002f0 c9 d5 6b 3f 11 73 cd bf e4 7f 45 40 5a 78 0c 40
       0.92123085 -1.605074 3.0859308 2.1948457
000300 0a 9f 93 3e 3a 03 8e be 29 78 18 3f fb e8 08 c0
       0.28832275 -0.27736837 0.5955835 -2.13922
000310 ac fc f6 be 1b f6 6f 40 a5 9b bd bf ff df b0 bf
       -0.48239648 3.749396 -1.4813124 -1.3818358
000320 99 b3 1c 40 69 74 6c bf 00 80 52 3f af bc 82 3e
       2.4484618 -0.9236513 0.8222656 0.2553458
000330 96 a3 40 bf 4b 44 d1 3f 4c 16 aa 40 3b 51 04 c0
       -0.7524961 1.6348966 5.315222 -2.067458
000340 fc 0d 23 40 18 d4 a0 40 48 be 28 3f 52 8a 10 3e
       2.5477285 5.0258904 0.65915346 0.14115265
000350 2e ce 8f 3f 61 b1 3b bf 86 d6 90 40 62 e4 7d bf
       1.1234796 -0.73317534 4.526187 -0.9917661
000360 b6 3f b3 c0 f7 06 cd 3f ac 97 bc 40 02 f9 90 bf
       -5.601527 1.601775 5.8935146 -1.1325991
000370 3d ce 71 c0 1b 1d cf 3f 06 fb 31 40 49 6a 59 3f
       -3.7782128 1.6180757 2.7809463 0.84927803
000380 25 41 ae be 66 d2 98 3e df 50 c1 bf a0 c9 a3 3d
       -0.34034076 0.2984802 -1.5102805 0.07997441
000390 41 6a 33 c0 cc 7c 4c 40 c3 c2 0f c0 04 fa 9b 3f
       -2.8033602 3.195117 -2.2462623 1.2185674
0003a0 85 4a 48 bf 4d 8c f1 3e 7d 7d 9f 3f ba d1 09 c0
       -0.7823871 0.47177354 1.2460171 -2.1534257
0003b0 1d 6c 00 3f 88 1f de 3f ec 56 cb be 2e 9d 1b 40
       0.5016497 1.7353373 -0.39714754 2.4314685
0003c0 19 8d 3e c0 76 b7 78 bf 27 48 ba 3f 14 51 f9 be
       -2.977362 -0.9715494 1.4553269 -0.4869467
0003d0 f3 51 6b 3f a0 e2 1d 40 90 f6 92 3f 9b 7a ef be
       0.9192192 2.466957 1.1481495 -0.46773228
0003e0 82 bd 9f 3f 4e f1 ec 3e 09 7b 13 40 a7 be 81 40
       1.2479708 0.4627785 2.3043845 4.054523
0003f0 70 ad ee bf 39 f6 36 bf a9 f5 97 3d 11 aa 01 3e
       -1.8646679 -0.71469456 0.07419903 0.12662531

lstm.bias_ih_l0 f4 [40]
000000 6d 78 c5 bf c0 72 f5 be dd 11 06 c0 ac 69 d8 bf
       -1.5427376 -0.4793911 -2.0948403 -1.6907248
000010 99 13 95 bf 2d 98 ce bf 26 ae 04 c0 31 ba b8 bf
       -1.1646606 -1.614019 -2.0731292 -1.4431821
000020 8e e6 c0 bf 24 b2 df bf 8e 41 26 40 a1 0d 12 40
       -1.507036 -1.7476239 2.5977511 2.2820818
000030 bc 42 1c 40 7c be 11 40 aa 1e 07 40 f5 0b 3b 40
       2.4415731 2.2772512 2.1112466 2.9226048
000040 6d aa d0 3f 44 c7 ac be 88 5a 05 40 d3 c3 cd 3f
       1.630201 -0.33745778 2.0836506 1.6075386
000050 44 75 e2 be 87 f2 00 c0 26 ed 82 be 85 eb 7c be
       -0.44230092 -2.0148027 -0.25571555 -0.24699219
000060 57 66 59 be fc 0a 2b be 88 3e b5 3f c2 fb 10 c0
       -0.21230446 -0.16703409 1.4159708 -2.265366
000070 b3 ce 1e bd ab f5 79 bf 03 71 19 bf ad a5 b8 bf
       -0.038771342 -0.97640485 -0.5993807 -1.442556
000080 df 37 d3 3f 1f 07 3c 3f 5e 4c fa be 2c 83 4d bf
       1.6501426 0.73448366 -0.4888639 -0.8027828
000090 49 05 be bf 1e 2d 04 3f b0 48 4c bf 87 28 8c bd
       -1.4845363 0.51631343 -0.7979841 -0.068436675

lstm.bias_hh_l0 f4 [40]
000000 86 d2 f2 bf 46 17 84 be 17 78 c8 bf 4b 97 a0 bf
       -1.8970497 -0.25799006 -1.5661649 -1.2546171
000010 8b a8 b3 bf c1 d6 ec bf e4 1f d1 bf 17 d2 c5 bf
       -1.403581 -1.8503038 -1.6337857 -1.5454739
000020 10 56 d3 bf c5 a9 f4 bf a6 73 2b 40 52 12 1c 40
       -1.6510639 -1.911431 2.6789336 2.4386182
000030 0f ca 2f 40 b8 18 2d 40 b3 3b f6 3f 2c 8d 1e 40
       2.7467077 2.7046337 1.9236969 2.4773664
000040 d9 7b 90 3f 8c 75 b7 be 6c 0b 0b 40 46 94 e4 3f
       1.1287795 -0.3583187 2.1725721 1.785775
000050 22 fe 49 be 29 45 ee bf 18 da 08 bf c2 26 d8 3d
       -0.1972585 -1.8614856 -0.53457785 0.105542675
000060 8e 12 27 be e0 27 78 be 58 df b2 3f 33 96 1f c0
       -0.16315672 -0.24233961 1.3974409 -2.4935424
000070 cf c6 4b 3e 08 87 5e bf cb dc 78 be f9 47 8f bf
       0.19900058 -0.8692479 -0.24302976 -1.1193839
000080 64 5b a8 3f 6c 21 25 3f a9 c4 18 bf 09 86 98 be
       1.315289 0.6450412 -0.5967508 -0.2978976
000090 e3 71 c7 bf ec 40 9f 3e d5 d9 c8 be 79 f7 0c bf
       -1.558163 0.3110422 -0.39228693 -0.55065113

lstm.weight_ih_l0_reverse f4 [40, 20]
000000 bc 81 b8 3d 4b 9e 43 bf db 40 f7 3f 75 5a ee 3f
       0.0900912 -0.7641341 1.9316667 1.8621355
000010 c7 28 22 c0 fc 3b e0 be f6 b7 1a 3f 82 c4 53 c1
       -2.5337389 -0.43795764 0.6043695 -13.235476
000020 1d 96 b9 3f e6 35 b7 3d c6 ea 80 be ae 9b e8 c0
       1.4498936 0.08945827 -0.25179118 -7.269004
000030 2b 60 49 c0 93 0e f8 3e 2d 3a e1 3f 1c ed 52 bf
       -3.1464946 0.4844862 1.7595879 -0.8239305
000040 9a a0 27 be f1 1f 80 c0 58 76 fb 3d 3e 01 1c be
       -0.16369858 -4.003899 0.12278432 -0.15234849
000050 5d fd 1e be 8b fc da be a7 7f 1f bf 63 4b 01 c1
       -0.15526338 -0.427708 -0.62304157 -8.080905
000060 17 a3 af 3c 55 a8 d6 c0 23 3d 2a 3f 3a 9c c7 3e
       0.021440072 -6.7080483 0.6649954 0.3898638
000070 59 db 83 bf 20 1d 8e bf 16 23 2e c0 46 00 8c 3e
       -1.0301315 -1.1102638 -2.7208915 0.2734396
000080 e4 07 b0 3f 6e 6d 02 3f ce 6c 5b c0 31 62 1c 3d
       1.3752408 0.50948226 -3.428516 0.03817958
000090 07 bd 1a c0 3b ae 44 3f c8 82 e7 3e 97 74 77 bf
       -2.4177873 0.76828355 0.45216966 -0.96662277
0000a0 40 e4 74 bc b5 6f e8 c0 fd e6 08 bf e1 d4 86 3e
       -0.014946997 -7.263636 -0.5347746 0.2633429
0000b0 44 9f c5 3f ce d3 89 3e 9b 92 12 bf 77 37 ec 3e
       1.5439229 0.26919407 -0.5725495 0.46136066
0000c0 f7 07 ef 3f d9 5d 95 3f 29 ea 30 3f 1b e4 26 3e
       1.8674306 1.1669265 0.691073 0.16297953
0000d0 44 64 3c 3e 93 7f 01 3f a6 64 32 3f c6 5c c4 bf
       0.18397623 0.5058529 0.6968483 -1.5340812
0000e0 7f 21 fa be 23 55 40 c0 97 9e e5 3f d5 ef 60 3f
       -0.4885368 -3.0051963 1.7939023 0.87865955
0000f0 09 c9 96 be 2a e9 c9 3f 86 2e 0a c1 f7 1c 85 3e
       -0.29450253 1.5774281 -8.636358 0.2599866
000100 14 66 1d bd 0e d2 81 3f 03 1e b6 3f c7 74 2c 3e
       -0.038427427 1.0142229 1.4227909 0.16841422
000110 bd fa 6a 3f 1e 0f d6 bf 3e f1 04 c0 48 e2 f9 3b
       0.91788846 -1.6723363 -2.0772243 0.007625852
000120 c5 86 69 3d 3b 24 b3 3e 09 8e 1d bf 12 26 1f be
       0.057013292 0.3498858 -0.61544853 -0.15541866
000130 8b 2f 82 3f ea d9 1a bf b4 e5 17 bf 99 1a 8a bf
       1.0170759 -0.6048876 -0.59334874 -1.0789367
000140 b0 66 a4 3e 15 a9 6a c0 e2 5a f3 3f 16 23 a1 3f
       0.32109594 -3.66657 1.901211 1.2588832
000150 76 2e 26 bd 83 e4 71 c0 55 41 dc 3f f0 27 09 40
       -0.040571652 -3.7795722 1.7207438 2.1430626
000160 ed 1e 32 3e 4c 69 65 3f ec 3a 90 3f 58 4f d3 3f
       0.1739461 0.89613795 1.1267982 1.6508589
000170 d7 26 37 be 2b 24 00 40 aa ac 39 40 3b cc a3 3f
       -0.1788591 2.0022075 2.9011636 1.2796701
000180 7b 2c 69 c0 bc 9e 98 bf 84 5d 35 3f 55 9f b2 3e
       -3.6433399 -1.1923442 0.7084582 0.34887186
000190 b9 5c ab bf 8d 6e 57 40 44 9c 24 3e bf a8 23 3f
       -1.3387672 3.3661225 0.16075236 0.6392936
0001a0 b7 54 95 3f b2 f6 c9 bf 04 da 26 3f 66 36 a2 3f
       1.1666478 -1.577841 0.65176415 1.2672851
0001b0 bb 66 42 3e 33 59 a8 bf 87 e3 ab 3b da fb fd bf
       0.18984501 -1.3152221 0.005245629 -1.9842484
0001c0 14 7d e0 3e 98 74 06 bf 75 0d 38 bf 20 a6 99 be
       0.43845427 -0.5252166 -0.71895534 -0.30009556
0001d0 a6 8d f8 3c f6 58 50 c0 d9 c0 3e 3e 0e 3f b3 bf
       0.03034098 -3.2554297 0.18628253 -1.4003618
0001e0 9d fd ad c0 88 cd 1a 40 c7 11 82 3f c5 18 29 3e
       -5.4372087 2.4187946 1.0161675 0.16513355
0001f0 4d 48 9f 3f b8 1d 42 3f 4d 7d f9 3f fa d1 c5 bf
       1.244394 0.758266 1.9491364 -1.5454705
000200 cb ad ce bf 72 99 2f 3f 1b ce e0 3e b1 58 91 bf
       -1.6146787 0.68593514 0.43907246 -1.1355191
000210 a0 18 e5 bf 4d 01 34 3e cc f5 aa be 82 e5 04 bf
       -1.789814 0.17578621 -0.33390653 -0.519127
000220 e1 66 7b 3f 12 5a e7 3e 0d 0d 29 40 a4 15 2c bf
       0.98203856 0.45185906 2.6414216 -0.6722052
000230 50 79 71 bf e9 ad a4 3f ad 04 2d 3f 78 e3 14 3e
       -0.94325733 1.2865573 0.6758526 0.14539897
000240 28 0e 72 c0 2e e8 40 3e 19 55 e8 bf bd c9 2f 3e
       -3.782114 0.1883857 -1.815097 0.17166801
000250 a9 12 88 3e 1a b2 18 bf 47 8f 10 3f 44 b5 9f be
       0.26576737 -0.5964676 0.56468624 -0.31192982
000260 11 fa 09 3e 3e 10 83 bd 44 17 b1 3e 42 f6 91 bf
       0.13474299 -0.06399582 0.34588063 -1.1403277
000270 50 73 8f bf 9f f6 3a 3f 6a a5 60 bf 21 ac b5 bf
       -1.1207066 0.73032564 -0.877524 -1.4193155
000280 3a 2e 6a bf c2 2a a6 3e 12 e4 dd c0 73 1c fd bf
       -0.91476786 0.32454497 -6.9340906 -1.9774307
000290 fc f3 bc 3f 55 aa 82 3f 67 6a ac 3f 05 23 81 3f
       1.4761958 1.0208231 1.3469971 1.0088812
0002a0 a9 ee de c0 f5 04 62 3f a2 b8 5d 3e 32 56 de bf
       -6.9666333 0.88288814 0.21652463 -1.7370055
0002b0 05 5c 8a 3f 72 e0 47 3e 3e 31 60 3f f2 63 fc bd
       1.0809332 0.19519213 0.8757514 -0.123237506
0002c0 29 a0 8e 3f de ea 30 c0 d6 30 86 3f ab 8e 10 3e
       1.1142627 -2.7643352 1.0483654 0.14116924
0002d0 dd af 46 3f 5d 08 07 40 6f 2d e0 be 6f ed 66 3f
       0.77612096 2.1098855 -0.43784663 0.90206045
0002e0 db 28 07 40 23 0d b6 3d 43 7f 9c 3f 19 fb a0 c0
       2.1118686 0.088892244 1.2226337 -5.0306516
0002f0 66 09 7e 41 6d f9 00 c0 2a 81 70 40 6f 28 51 3f
       15.877295 -2.0152237 3.7578835 0.8170232
000300 77 d1 47 3f fe ad 33 3f 58 62 c1 3f ba bc ff bf
       0.78053993 0.70187366 1.5108137 -1.997947
000310 5c 64 b0 bf 4c fe 86 c1 f5 ce b8 bf 0f ca 0c 3e
       -1.3780627 -16.874168 -1.4438158 0.13748954
000320 c5 5c 58 41 39 b1 3a 41 8b 04 68 41 ee 37 59 41
       13.522649 11.668267 14.501109 13.576155
000330 94 bf 6b 41 14 1b 5f 41 78 6f 67 41 7e 64 5a 41
       14.734272 13.944111 14.464714 13.649534
000340 43 4d 6c 41 ed 2a 67 41 a0 04 6a 41 e0 b6 68 41
       14.768863 14.44798 14.626129 14.544647
000350 ed 1d c1 bf da 54 63 41 c2 7c 07 41 6c 57 6a 41
       -1.5087258 14.208216 8.467958 14.646343
000360 28 34 65 41 3f 7c 6e 41 a0 8f 30 41 fe c0 82 bf
       14.325233 14.9053335 11.035065 -1.0215147
000370 cc b1 c7 40 c9 7c 6c 41 54 bf 4b 41 6b f9 eb bf
       6.2404537 14.780465 12.734211 -1.8435491
000380 44 a0 43 41 10 3a 7c 40 68 5a 66 c0 c2 0f 50 bf
       12.226627 3.9410439 -3.599268 -0.81274045
000390 b6 c8 89 3f ad 4b 23 41 14 f2 7a 40 a4 c2 36 41
       1.0764377 10.205976 3.9210253 11.42252
0003a0 93 70 60 41 ee be 5d 41 31 4d 40 41 6e 46 b0 bf
       14.027484 13.859114 12.018846 -1.3771493
0003b0 11 46 a3 3f 0c c9 52 41 62 54 fc bf e3 e1 45 40
       1.2755758 13.174084 -1.9713252 3.091912
0003c0 2c c3 45 41 be dc 69 3f c4 93 c5 40 33 1f 84 40
       12.360149 0.9135245 6.174288 4.1288085
0003d0 fe 6b be 3d b7 ac a6 3f 9d e8 f6 bf aa 6c a9 bb
       0.092979416 1.3021458 -1.9289738 -0.0051704245
0003e0 3b 0e ae bc 4c dd 9f bf df d1 39 c0 86 ef 6c 41
       -0.02124702 -1.248941 -2.9034345 14.808477
0003f0 f5 47 f9 40 3a 1d cd bf ba 09 8a bf cb 91 d4 40
       7.790034 -1.6024544 -1.0784218 6.642797

lstm.weight_hh_l0_reverse f4 [40, 10]
000000 95 d7 68 3e 2c bd db bb 9d 15 08 bd 52 e9 9e 3b
       0.22738488 -0.0067059007 -0.033223737 0.0048495913
000010 e3 f3 6c 3e b2 bd 25 3e b3 61 28 3d c0 3f 06 3d
       0.2313991 0.16185644 0.0411088 0.03277564
000020 30 7c 9d bc 63 aa 99 3c 0d f1 46 be 34 a7 17 3e
       -0.019224256 0.018758005 -0.19427891 0.14809877
000030 74 49 fb 3d 9b b1 84 3e 1d cb 9d be 62 c7 3b be
       0.122698694 0.25916752 -0.30819026 -0.18337777
000040 f0 e3 ca 3d 9b 72 f1 3c 58 33 67 3e cb 47 eb 3d
       0.09906757 0.029473593 0.2257818 0.11488303
000050 76 8a 92 bd 91 7b c5 bb eb a0 e1 bc 1d eb 04 be
       -0.071553156 -0.006026693 -0.027542552 -0.12980314
000060 7f 5a 24 be 8c 4a ca 3c 3c d6 0e 3e 1b 96 4b bd
       -0.16050147 0.02469375 0.13948911 -0.0497037
000070 6c e0 54 be 73 18 d4 3e 31 88 26 be 0c c6 c7 3e
       -0.20788735 0.41424903 -0.1626289 0.39018285
000080 6a 9c 76 3e 03 f7 50 bf b0 c0 fa 3d 20 8b 56 be
       0.24083105 -0.8162691 0.122437835 -0.2095151
000090 3e 21 15 3f 1a 25 67 3e f5 7b 2d 3e b9 b9 b3 be
       0.5825385 0.22572747 0.16941817 -0.35102633
0000a0 90 c6 69 3e 82 a8 97 bd 93 23 27 be 7f f0 a1 be
       0.22829652 -0.07405187 -0.16322164 -0.31628796
0000b0 4d d4 eb bf d6 02 af bf a9 35 4f 3f bd e5 16 3f
       -1.8424164 -1.367274 0.80941254 0.589443
0000c0 47 6d 51 be 82 f5 fd 3e 0d ee 69 3f e6 9e 83 be
       -0.20451842 0.4960137 0.9137886 -0.25707167
0000d0 6b 08 37 3f 68 20 cb bf d7 87 91 bf 47 5e 34 3f
       0.7149722 -1.5869265 -1.136958 0.70456356
0000e0 c1 9b bd 3f 57 34 0e bf f8 fe 16 be 48 1a 92 be
       1.4813157 -0.55548614 -0.147457 -0.28535676
0000f0 8a ed 9f be b6 62 aa 3d 5d 5b 21 3d b2 19 60 be
       -0.31235915 0.08319609 0.03939377 -0.21884802
000100 02 6b 46 3f 78 d1 f0 bc 05 db 6a 3f 9d 28 8f 3d
       0.7750703 -0.029396757 0.9174045 0.06990168
000110 d0 10 7b bc 73 5d 0a 3f 9b 0d 45 3d 64 eb 91 be
       -0.015323833 0.5404884 0.04810868 -0.284999
000120 1f 34 cb bd 14 a1 40 3e 67 f7 0e 3f 48 45 06 3d
       -0.09922051 0.18811446 0.55846256 0.032780915
000130 89 fd ee 3e a8 de b4 3e 84 55 23 be 38 89 e9 3e
       0.46677807 0.35326123 -0.1595059 0.45612502
000140 2d bb 46 bd cf 00 3b bd 37 d8 70 3e 9e 50 e2 3e
       -0.04851835 -0.045655068 0.2351998 0.4420213
000150 40 a8 06 3e b6 48 4c 3e 2d 72 3c bf 57 7d 20 bf
       0.1315012 0.19949612 -0.7361172 -0.62691253
000160 ff bc 35 bf 07 29 fc 3e fc db 8c 40 f7 1e 94 bf
       -0.7099151 0.4925005 4.4018536 -1.157195
000170 09 25 6e c0 34 48 9f bf ff f0 37 bf f7 54 18 c0
       -3.7210104 -1.244391 -0.71852106 -2.3801858
000180 22 4b dc be 59 c0 b7 bf 76 cb 8d 3f 64 e6 52 40
       -0.43026072 -1.4355575 1.1077716 3.295312
000190 3c f8 a1 3e 07 65 0b bc b1 42 05 40 a0 ee 51 3f
       0.316347 -0.0085079735 2.0821955 0.8200474
0001a0 33 61 c2 be 2c 2d 24 be 9d 40 77 40 d2 8c b5 3f
       -0.37964782 -0.16032857 3.8633187 1.41836
0001b0 92 47 56 be 02 fd cf bf f8 8e e4 bf 68 f4 1c bf
       -0.2092574 -1.6249087 -1.7856131 -0.61310434
0001c0 e9 b7 1a be a3 dc 95 40 87 ff 8a 3f b2 7e 37 3f
       -0.15109219 4.683183 1.0859231 0.71677697
0001d0 e9 64 fd bf 4b 67 e6 3f 48 61 27 40 40 f3 6c 40
       -1.979642 1.8000273 2.6153126 3.7023468
0001e0 a4 4f 5a 40 d7 00 44 c0 f4 da 51 be b8 96 b1 bf
       3.4111109 -3.0625513 -0.2049368 -1.3874121
0001f0 d9 8f 18 c0 cb 81 f2 bf 1c ab b9 c0 40 9e 6e 3f
       -2.3837798 -1.894586 -5.8021374 0.9321022
000200 cc 65 80 bd 3b 10 03 41 13 37 cb bf aa 31 8b 3f
       -0.06269416 8.1914625 -1.5876182 1.0874531
000210 fa ee 38 3e 92 0d 83 3e 85 52 b8 c0 ea cf 6d 40
       0.18059912 0.2559629 -5.760073 3.715815
000220 a2 8e fe 3f 24 8e af bf 72 8f 9d 3f 11 97 a0 3f
       1.9887278 -1.3715253 1.2309401 1.2546102
000230 d3 81 a6 c0 10 bf cc 3f 90 1c 28 40 06 29 31 40
       -5.2033477 1.5995808 2.6267433 2.7681289
000240 2e 4e f4 3f a6 cb e1 c0 bc 28 17 40 69 5a 84 3f
       1.9086359 -7.0561094 2.3618612 1.0340091
000250 08 85 fe bf 77 31 77 c0 b0 48 f4 3e 59 a5 d7 bf
       -1.9884348 -3.862394 0.47711706 -1.6847335
000260 14 15 67 3f a2 75 2d bf 49 39 06 c1 04 8b 89 c0
       0.9026654 -0.6775762 -8.388986 -4.2982197
000270 5f 48 b5 bf 45 53 88 3f c7 11 29 bf 1c 1c ab bf
       -1.4162711 1.0650412 -0.6604275 -1.3367953
000280 0f bd 34 c0 64 a3 b9 bf 5c 0f a0 3f 75 51 12 3f
       -2.8240392 -1.4502988 1.2504687 0.57155544
000290 ce 24 98 40 23 d7 84 40 1c 8e 2f c0 14 38 92 3f
       4.7544928 4.151262 -2.7430487 1.1423364
0002a0 57 f7 d5 3f 25 77 3f bf ec 88 5a 3f c6 fd 90 bf
       1.6716107 -0.74791175 0.85365176 -1.1327446
0002b0 85 38 00 40 d8 3f 98 3e a3 dd f8 3f 8b bc 6f 3f
       2.0034497 0.2973621 1.9442638 0.9364707
0002c0 ea a9 4b 3e c9 57 fa be 2e 16 b9 3c 87 ee 25 40
       0.19889036 -0.488951 0.022593584 2.5926836
0002d0 51 fe 47 40 8f f6 44 3e 83 f3 19 bf ce db d8 c0
       3.1248972 0.1923468 -0.60137194 -6.7768316
0002e0 bb 7e bb c0 5f 63 23 40 27 8d a1 c0 56 71 8d bf
       -5.85922 2.5529401 -5.0484805 -1.1050212
0002f0 57 00 c9 3f f2 78 76 be 8c dc 4c c0 68 5e e1 3d
       1.5703229 -0.24069574 -3.200961 0.11004335
000300 b9 24 d1 3f 46 71 bf 3f 94 58 66 bf a6 21 bd c0
       1.6339332 1.4956443 -0.8997891 -5.9103575
000310 de 69 68 40 d1 41 9c 40 68 43 96 c0 fe 66 96 c0
       3.6314616 4.883034 -4.6957283 -4.7000723
000320 ae ec 5e 3f 1d 36 bf 3f 64 39 0f 40 c0 ed b9 3f
       0.87079895 1.4938389 2.2378778 1.452568
000330 e5 1b 2d bf f9 47 9e 3e 68 19 88 3f d6 38 e9 3f
       -0.6762069 0.30914286 1.0632753 1.822047
000340 5b 3c 3d 3f 2d 6f 07 c1 c8 21 49 be e5 ef 07 40
       0.7392022 -8.464643 -0.19641793 2.124017
000350 01 1b d3 3f 5d 7a 85 bf 4c 18 ed 3f c8 c0 8d be
       1.6492616 -1.0427967 1.852304 -0.27686143
000360 09 43 c1 3f 7c 53 f7 3f eb 1e 80 40 26 cf 82 c0
       1.5098583 1.9322352 4.003774 -4.0877867
000370 fe 4d 14 bf f1 a2 08 c0 58 de 36 3f d8 3b 36 bf
       -0.57931507 -2.1349452 0.7143302 -0.71185064
000380 93 c0 e8 be 33 a4 36 40 ac 86 d8 3e 6b 90 67 bf
       -0.45459422 2.853772 0.42290246 -0.9045474
000390 89 9c 87 3f 1b 6c 8f 40 7c 97 4c c0 6c 0d e9 3f
       1.0594646 4.4819465 -3.1967459 1.8207221
0003a0 c8 93 49 3f 21 90 2c 40 41 11 79 3f f0 4c 82 40
       0.7874112 2.696297 0.9729195 4.071892
0003b0 da ee d1 3e 9c ab 18 40 89 77 4b 40 0c 51 d5 c0
       0.41002542 2.3854742 3.1791708 -6.6661434
0003c0 93 c5 ca 3f 3c 6d 12 3f 5d 20 ab be f4 55 fa 3d
       1.5841545 0.5719793 -0.3342313 0.122234255
0003d0 63 de f1 3f c5 93 94 3d e7 c0 1c c0 a9 e9 74 bf
       1.8895992 0.07254747 -2.4492738 -0.9566904
0003e0 7c 8c de be da ff 2d 40 f4 d6 82 3f fe 8c b0 3e
       -0.43466556 2.718741 1.0221848 0.34482569
0003f0 6e 02 4c c0 02 74 46 3f dc 10 f3 be 4c c1 9a 3f
       -3.1876483 0.77520764 -0.474738 1.209024

lstm.bias_ih_l0_reverse f4 [40]
000000 fc 09 e2 bf 09 bb 78 bf f3 11 df bf b9 bd be bf
       -1.7659297 -0.97160393 -1.7427353 -1.4901649
000010 e0 41 1b c0 66 4a ac bf 53 68 ed bf 8a a4 cf bf
       -2.4258957 -1.3460205 -1.8547462 -1.6222088
000020 35 48 d6 bf 04 ce 62 bf c9 80 15 40 93 8e 2a 40
       -1.6740786 -0.88595605 2.3359854 2.664952
000030 ad 26 6a 40 d2 56 ed 3f 11 c1 60 3f 32 73 25 40
       3.6586106 1.854212 0.87794596 2.585156
000040 06 32 34 40 2e cf 18 40 f7 dc 1e 40 ae 3a c2 be
       2.8155532 2.3876452 2.4822366 -0.37935394
000050 a3 b1 92 3e 62 1d 06 bf 34 fd 31 c0 4e 54 f1 3c
       0.2865115 -0.52388585 -2.7810793 0.029459145
000060 a7 6f 05 40 3a c8 d8 bd 44 e4 1a be a9 ed 90 3e
       2.0849397 -0.10585065 -0.15126139 0.2830632
000070 54 88 d1 3f 23 5e 1d c0 97 a8 6c 3f e3 4f 03 3f
       1.6369729 -2.4588706 0.9244475 0.5129377
000080 1f b1 97 3d f3 e7 a8 be b1 ae 4c c0 99 ec 8a bf
       0.0740683 -0.32989463 -3.1981623 -1.0853454
000090 83 78 0c bf 8e d0 40 be 3b 51 0c bf b4 72 d5 bf
       -0.54871386 -0.18829557 -0.5481145 -1.667563

lstm.bias_hh_l0_reverse f4 [40]
000000 4a 71 f5 bf 14 8e c8 bf 77 50 d1 bf af e2 e8 bf
       -1.9175198 -1.5668359 -1.6352681 -1.8194178
000010 38 69 1d c0 e5 48 95 bf bb ee f0 bf cd d2 da bf
       -2.459547 -1.1662871 -1.8822855 -1.7095581
000020 16 52 9d bf f6 21 1c bf 1a 13 0a 40 1f cb 51 40
       -1.2290676 -0.6098932 2.1574159 3.2780225
000030 ad 1b 6a 40 ee 93 d2 3f ef 6e 83 3f 2f 63 30 40
       3.6579392 1.6451395 1.0268229 2.7560537
000040 31 f9 37 40 bf 4f 04 40 ef f0 16 40 46 1d cc be
       2.8745844 2.0673673 2.3584554 -0.39866084
000050 bd 74 2f 3f 4c 10 9e be 07 1d 33 c0 37 24 eb 3d
       0.68537503 -0.3087181 -2.7986467 0.11481517
000060 dd 53 08 40 f2 04 a0 be d5 61 11 be be 94 41 3c
       2.1301186 -0.31253773 -0.14197476 0.011815248
000070 a7 c0 d1 3f 23 56 26 c0 3c 3f 75 3f eb 32 8c 3f
       1.6386918 -2.5990074 0.95799613 1.0953039
000080 d3 b4 97 3e 21 a8 1c bf cc 5b 5d c0 f8 cd b8 bf
       0.29630145 -0.61194044 -3.4587278 -1.4437857
000090 16 85 94 bf 01 c8 82 3d c0 8b 8d be 6f 49 dc bf
       -1.1603115 0.06385804 -0.27645683 -1.720991

lstm.weight_ih_l1 f4 [40, 20]
000000 86 fa 58 40 1d cc 4b 3f 74 ee 4a 3f c3 e6 86 3f
       3.3902907 0.7960833 0.792701 1.0539173
000010 72 ee 51 3f cb 84 d1 bd eb b8 4d bf 24 40 79 be
       0.82004464 -0.102304064 -0.8036029 -0.24340874
000020 50 48 27 3f ae 68 e8 bf 13 52 35 3f 78 eb 10 3f
       0.65344715 -1.8156946 0.7082836 0.56609297
000030 21 48 ae be 6d 29 61 40 0e 44 b3 bf be 21 9e 3f
       -0.34039405 3.5181534 -1.4005144 1.2354047
000040 e0 21 5e bf 4b 6e 2d be 85 b0 06 40 0d cb ac 40
       -0.8677044 -0.16936605 2.104524 5.3997865
000050 27 cc 29 c0 64 b5 a1 3f 2d f0 8c bf 37 a2 9f 40
       -2.6530855 1.2633481 -1.1010796 4.9885516
000060 7d 80 ac 3f bc da 38 bf 57 47 80 3f b2 95 1a 3f
       1.3476712 -0.7220876 1.0021771 0.60384667
000070 6f da 9f bf c3 d2 4d c0 25 ca c4 3f 03 0b 21 3f
       -1.2488536 -3.2159889 1.537419 0.6290743
000080 15 17 be 3d 5f 95 cc bf 05 a9 9c bf 11 0d f3 3f
       0.09281746 -1.5983084 -1.2239081 1.8988363
000090 c6 c3 1e 40 bd e3 59 3f f2 db d1 3e 70 e5 49 3f
       2.480699 0.85113126 0.40988117 0.7886572
0000a0 50 ab 5e be f7 fb a6 40 d6 2a 3b 40 8f f1 37 3f
       -0.21745038 5.2182574 2.9244895 0.71852964
0000b0 22 57 55 40 cf 6e 8d 40 a3 f6 07 3f 1d 37 85 3e
       3.3334432 4.4197764 0.5311071 0.2601861
0000c0 7c d4 8b 3e 8f 16 bf 40 ef a3 57 bf 2c b9 8e 3f
       0.2731055 5.9715037 -0.8423452 1.115026
0000d0 bf ad 4d 3f d0 15 c1 bf ad ff 2e c0 83 4d d5 bf
       0.8034324 -1.5084782 -2.7343552 -1.666428
0000e0 3f 5a 01 40 f2 fd 86 3e 07 d1 e4 be a2 9a 7d 40
       2.0211332 0.2636562 -0.44690725 3.962563
0000f0 12 2b 87 bf ac 39 ff be 65 68 17 3f 8a a8 bf 3e
       -1.0560019 -0.49848688 0.5914367 0.37433273
000100 77 d1 97 3e 7e 8d 1b 3f 6b 49 83 bf 3a 6b ba c0
       0.29651996 0.60762775 -1.025678 -5.825589
000110 ea 18 b7 3f c6 35 e2 bf c3 2b 6c 3f fd f0 2e 3e
       1.4304478 -1.767266 0.92254275 0.17084117
000120 1a 6f 26 c0 89 59 24 3e 90 59 8f c0 00 a5 e0 3f
       -2.600531 0.1604978 -4.479683 1.7550354
000130 ef 9b 72 bf 8e 65 c5 3f 6e 97 e8 3f cd 09 19 40
       -0.94769186 1.5421617 1.8171213 2.3912232
000140 c2 f6 14 c0 ca 70 b1 c0 be cb 42 bf 2d 96 48 c0
       -2.327561 -5.545018 -0.76092136 -3.134166
000150 47 16 f0 c0 38 f7 8b c0 6b 8b ad c0 2a b3 fa 40
       -7.5027194 -4.373928 -5.423269 7.8343706
000160 25 f5 df be 07 5b c3 bf d7 3a 1c bf 09 54 e7 bf
       -0.43741718 -1.5262154 -0.6102728 -1.807252
000170 01 19 96 40 af 87 d1 3f 12 99 95 c0 b8 1c 63 c0
       4.690552 1.6369532 -4.6749353 -3.5486279
000180 5b bf 3c c1 b3 43 61 c0 cf c8 17 c1 ce 7b 9b c0
       -11.796718 -3.519757 -9.486526 -4.858863
000190 8b 38 c5 3f 19 8e 84 40 51 07 f0 bb b5 fd 20 bf
       1.540788 4.142346 -0.007325091 -0.62887126
0001a0 b3 53 a6 bf 7b 80 b9 3f bb 01 f1 3f c1 4d 11 be
       -1.2994293 1.4492334 1.8828653 -0.14189817
0001b0 5b 99 54 40 3b 2a a3 bf 49 fd f3 bf 1f 32 ef 3e
       3.32186 -1.2747263 -1.9061671 0.46717927
0001c0 44 5c 1b c0 2d ef 88 3e 40 75 13 40 29 36 20 40
       -2.4275064 0.26744977 2.3040314 2.5033057
0001d0 46 ed b6 bf 2a 6f 48 40 5a 55 f0 bf b6 6c ad 40
       -1.429116 3.131785 -1.8776047 5.4195204
0001e0 5c 68 ad bf d2 f9 3c 3f 86 45 69 3f c8 b5 77 bf
       -1.3547473 0.73818696 0.9112171 -0.9676175
0001f0 9a be fc bf f2 40 1d bf 30 d6 ad bf 97 cd 81 3f
       -1.9745667 -0.61427224 -1.358099 1.0140866
000200 a5 f6 c4 bf 30 a5 30 40 a9 11 ee 3a f5 3c 64 3f
       -1.538777 2.7600822 0.0018163222 0.89155513
000210 a5 fb b2 3f fb 0c f2 3f 7c 02 69 bf 65 4f 35 bf
       1.3983046 1.8910211 -0.91019416 -0.7082427
000220 34 01 cf bf aa bc b4 3f d5 e1 ac be 9f 8b e9 3f
       -1.6172242 1.4120076 -0.33766046 1.8245734
000230 40 49 ad 3f e6 ba be be e4 26 47 3f 1a b0 4a bf
       1.3537979 -0.37251967 0.7779372 -0.7917496
000240 58 91 0e be 70 a7 4e 40 ff d5 cb 3d 8a 1c a3 bf
       -0.13922632 3.2289696 0.09952926 -1.2743084
000250 0b 2f 78 3e 0d a4 ca be be 43 fb bf 82 6e 09 40
       0.24236695 -0.39578286 -1.9630048 2.1473699
000260 18 df 1a c0 72 6a af 40 f4 a4 fe bf 05 d7 55 c0
       -2.4198666 5.481744 -1.989409 -3.3412488
000270 4c 6a b6 3f 7d 12 4b c0 90 b0 12 40 d1 0a 6d be
       1.4251189 -3.1730034 2.2920265 -0.23148657
000280 02 3a a6 bd 5b 50 64 3f 91 f7 26 c0 04 13 af bf
       -0.08116533 0.8918511 -2.6088603 -1.3677678
000290 91 44 8a bf 63 9d b4 bf a4 b7 b7 bf 53 fc fd 3f
       -1.0802175 -1.4110531 -1.4352918 1.9842628
0002a0 04 ab 0e c0 a0 4a 19 be 17 47 02 c0 ee 5c 0c c0
       -2.229188 -0.14969873 -2.035589 -2.193172
0002b0 54 22 78 40 13 2d a5 3f a8 4e 15 40 db 73 d4 be
       3.8770952 1.290438 2.3329258 -0.4149464
0002c0 a5 52 15 be d3 ec 77 bd af b8 1b bf 8f f6 4d c0
       -0.14582308 -0.060528588 -0.6082868 -3.2181737
0002d0 4e b9 15 c0 50 35 6e bf c5 ad a6 3f c9 a1 b2 c0
       -2.339435 -0.930501 1.302178 -5.582249
0002e0 f5 63 8e 3f 8b 3e 77 3e 62 26 ae 40 41 e8 6d bf
       1.1124254 0.24144952 5.4421854 -0.92932516
0002f0 1f b7 8c c0 6a 5c 81 c0 e8 38 c6 c0 51 5a 08 40
       -4.3973536 -4.042531 -6.1944466 2.1305125
000300 bc 94 e1 bf 69 0e fd 3f 06 6f 43 40 32 19 7c c0
       -1.7623515 1.9770023 3.0536513 -3.9390378
000310 04 9f aa bf 1a 96 c4 c0 d4 fb 58 c0 55 30 4a 40
       -1.3329778 -6.143323 -3.3903704 3.1592
000320 36 f1 3e c0 20 9d f8 3f a4 36 fc 40 15 3d 18 40
       -2.9834723 1.9422951 7.88167 2.3787282
000330 56 cf 07 c1 49 16 37 c0 6c 18 40 3e f5 1b a5 3f
       -8.488119 -2.8607352 0.18759316 1.2899157
000340 02 33 c0 c0 7d 62 5c 40 fa 7e 05 40 2b f1 3e 40
       -6.0062265 3.4435112 2.085875 2.9834697
000350 10 fa de 40 25 a5 27 c0 ea b1 c8 3f 31 03 99 c0
       6.968025 -2.6194546 1.5679295 -4.7816396
000360 49 c0 94 3e 96 b2 e7 bf 58 e6 0e c1 1b 65 ff c0
       0.29052952 -1.8101375 -8.931236 -7.981092
000370 93 4b d4 40 af 84 55 40 35 18 1a c0 fd c9 ef 40
       6.6342254 3.3362234 -2.4077275 7.493407
000380 fd 5b 8b 3e b1 29 27 c0 9e 54 25 40 3e 1b 1f 40
       0.2721862 -2.6119196 2.5832896 2.4860377
000390 8f ad 8a 3e ff 5f 1b 40 c6 57 53 40 69 60 f7 bf
       0.2708554 2.4277341 3.3022323 -1.9326297
0003a0 b6 94 0f 40 15 c2 d8 3f 05 07 af c0 e9 ce 89 40
       2.2434516 1.6934229 -5.469607 4.3065076
0003b0 28 52 3a c0 f3 d9 12 40 e6 a0 fd 3f d7 73 24 c0
       -2.9112644 2.2945526 1.9814727 -2.5695703
0003c0 74 21 66 c0 8c d2 9a 40 4b 6a 83 c0 e9 da 0d 40
       -3.5957918 4.8382015 -4.106725 2.2164862
0003d0 3a 51 fc bb 7a 30 5e 40 11 35 10 c0 00 6c eb 3f
       -0.0077001126 3.4717088 -2.253239 1.8392334
0003e0 2a 5d 16 3f e1 6c 16 40 c7 83 8e 40 6a 53 b3 bf
       0.5873591 2.3503954 4.453586 -1.4009831
0003f0 14 93 72 c0 1f 3e 11 c0 d5 15 1b bf d1 3a a9 3e
       -3.790227 -2.2694166 -0.6058019 0.33052686

lstm.weight_hh_l1 f4 [40, 10]
000000 67 7c 87 3f 0d 2b 9c bf 94 ee b2 3f 01 3f 3b 40
       1.058484 -1.2200638 1.3979058 2.9257205
000010 bf 36 5d 40 c5 ca f3 3e 82 fe f9 3e 41 ac af c0
       3.4564664 0.47615638 0.48826987 -5.489777
000020 ba 15 97 be 32 53 3e 40 48 e5 97 c0 98 2e 87 3e
       -0.29508764 2.9738278 -4.7467384 0.26402736
000030 6e c4 21 3e 0b 85 0d be 9f c2 90 c1 b4 11 fe 3f
       0.15797588 -0.13820283 -18.09503 1.9849153
000040 af 53 08 40 a3 8d 63 3f 82 90 57 40 76 3c 52 3e
       2.1301076 0.88887995 3.368195 0.20530877
000050 76 ff 33 c0 b9 ad be be 7b 93 1e bf fc 7d 6a 3e
       -2.812467 -0.37241915 -0.6194379 0.22899622
000060 78 87 2f c1 90 93 cb 3d 1a 14 79 bf 0e 32 5b c0
       -10.970573 0.09940255 -0.972963 -3.42493
000070 60 6c b8 c0 7c d3 5a c0 2e e4 c6 bf 02 2d c7 bf
       -5.7632294 -3.419158 -1.5538385 -1.556061
000080 21 df 4d be 8b 79 c7 3e 71 f3 9a c0 3b d5 94 3f
       -0.20104648 0.38959917 -4.842217 1.1627573
000090 0c be 98 40 e1 98 d0 bf c3 a1 7f 3d 57 7d 32 bf
       4.773199 -1.6296655 0.062410127 -0.69722503
0000a0 a2 60 25 40 2e 37 f6 3c 9b 2f 57 3f 33 36 e8 bf
       2.584023 0.030055609 0.84057015 -1.814154
0000b0 d8 9b b5 bd 8b 3d 14 bf 7e 9f 70 40 39 45 74 c1
       -0.088676155 -0.5790641 3.7597346 -15.2669
0000c0 e9 33 6f c0 a8 49 89 c0 ec c8 56 3f c4 7d cf 3f
       -3.7375433 -4.2902412 0.8390033 1.6210256
0000d0 47 01 76 c0 48 0f 45 c0 91 75 a9 c0 20 1d 19 c0
       -3.843828 -3.0790577 -5.2956014 -2.3924026
0000e0 fa e6 f2 bf 1c b4 ab bf 93 52 a6 3f 25 55 1d 40
       -1.8976738 -1.341434 1.299395 2.4583218
0000f0 81 6a c7 be e6 52 fe be f9 41 2c 40 22 e4 65 3f
       -0.38948444 -0.4967262 2.6915267 0.8980123
000100 49 e6 aa c0 c9 fe d6 be 8e fe b5 3e 50 b5 8a 3e
       -5.340611 -0.4199126 0.35545772 0.27091455
000110 9d 90 bf bd 80 3e 4e 3e a4 85 99 40 25 b9 a3 be
       -0.09353755 0.2014103 4.7975636 -0.31977192
000120 7f f3 41 c0 c4 d3 ae bf 74 30 d4 bf 0b 51 0c c0
       -3.0304868 -1.3658376 -1.6577287 -2.1924465
000130 9f 25 3d 40 8a d9 06 bf 2f ad 81 bf 46 68 3d c0
       2.9554212 -0.5267569 -1.0130976 -2.9594893
000140 f0 4b e6 40 a3 b2 2d bf 0e 46 a7 3f d9 95 93 3d
       7.1967697 -0.67850703 1.3068254 0.072063155
000150 b0 7b e8 40 2d 7a 7c 40 23 66 d0 3f 83 5c 6d 3f
       7.2650986 3.944957 1.628117 0.92719287
000160 c8 73 20 be f8 a8 b6 bf 18 60 d0 c0 f9 43 15 bf
       -0.15669167 -1.4270315 -6.51173 -0.58306843
000170 12 71 8b c0 fb f8 0e c0 bf bf 98 bf 4d 0b 12 40
       -4.3575525 -2.2339466 -1.1933516 2.2819397
000180 44 ee ea 3e 3b 42 49 bf db 26 1b c0 26 3c c0 3d
       0.45884907 -0.78616685 -2.4242465 0.093864724
000190 4b 26 a9 3f 50 f5 58 40 c3 98 86 3f 69 40 93 c0
       1.3214811 3.3899727 1.0515369 -4.6016126
0001a0 b8 ab eb c0 ac 87 84 c0 bf 41 80 3f 34 1a 66 c1
       -7.3647118 -4.1415615 1.0020064 -14.381397
0001b0 8a ce a9 3f 1a 24 89 c0 83 98 d6 3f f2 69 33 3f
       1.3266156 -4.285657 1.6765293 0.70083535
0001c0 50 b9 ca 3d f7 90 3d 3e f3 43 fa c0 73 cc ed bf
       0.09898627 0.18512331 -7.8207946 -1.8578018
0001d0 5a 78 a7 bf e5 27 cf bf 61 59 92 40 99 fd 13 c1
       -1.3083603 -1.618405 4.5734105 -9.2494135
0001e0 60 d4 c3 c0 05 e4 18 40 c7 44 e8 bf a2 da c9 bf
       -6.1196747 2.3889172 -1.8145989 -1.5769846
0001f0 dd d1 e7 c0 22 a6 ab 3f 30 be 35 c0 d7 f3 d6 bf
       -7.244368 1.3410075 -2.8397331 -1.6793164
000200 3b a8 a2 bf 4a 4f ac bf 55 5b 48 40 3e 20 b2 3f
       -1.270759 -1.3461697 3.1305745 1.391609
000210 4b 87 03 bf 96 31 e7 3f ab ad 89 40 3b 79 3f 3f
       -0.51378316 1.8062007 4.3024497 0.7479436
000220 13 cc a8 40 f1 f4 07 40 65 16 28 41 22 3b c1 40
       5.2749114 2.124325 10.505467 6.0384684
000230 73 87 b0 3f 34 b7 af bf bb af 4d 40 5e a9 8a c0
       1.3791336 -1.3727784 3.2138507 -4.3331747
000240 f1 c2 c3 be a4 a0 fb bf cb 78 52 40 20 b5 9c c0
       -0.38234666 -1.9658399 3.2886226 -4.89711
000250 25 de 67 40 d3 bb c5 bf 42 1c 34 bf 1f f5 02 bf
       3.6229336 -1.5447944 -0.7035562 -0.51155275
000260 46 bd 1c bf 72 7b eb bf 4a f4 b2 c0 2d c9 bb 3f
       -0.6122631 -1.8397048 -5.5923204 1.4670769
000270 99 7f b1 3f 35 db af be 1f e0 98 3e b0 14 84 3e
       1.3867065 -0.3434693 0.2985849 0.25797033
000280 b5 1f 02 c0 ce ea cd bf 0b 2d 2f 3f 26 b2 a0 c0
       -2.0331852 -1.6087282 0.68428105 -5.0217466
000290 00 00 91 c0 57 a7 b8 be 32 01 92 bf ca d9 82 40
       -4.53125 -0.3606517 -1.1406615 4.0890856
0002a0 19 73 1a 41 9f f1 96 c0 16 b6 93 3f fe be 33 bd
       9.6531 -4.716995 1.1539943 -0.043883316
0002b0 63 5e 41 40 92 f7 e4 bf 2f 30 b9 c0 20 d4 32 3f
       3.021386 -1.7888052 -5.787132 0.6985493
0002c0 6d 94 88 c0 1c 11 1c 3f 20 30 5c bf 8d 17 4f c0
       -4.2681184 0.60963607 -0.8601093 -3.2358124
0002d0 39 0c dd c0 2c 81 91 40 49 76 6c c0 51 e6 a6 3f
       -6.907742 4.547018 -3.6947196 1.3039037
0002e0 fd 74 d9 be c0 c1 af 3e 0e 3a 08 3e 49 14 21 40
       -0.42472067 0.34327507 0.13303396 2.516863
0002f0 53 1d 8f 3f a0 6a 35 c0 47 32 0d c0 5c 9f 07 c0
       1.1180824 -2.8346329 -2.2061937 -2.1191015
000300 3c 4c 4b bf 78 99 54 3f 47 da 1c 3f 34 bb 56 c0
       -0.794132 0.83046675 0.61270565 -3.355176
000310 8e 71 80 40 b8 38 0a bf db 71 47 c0 18 c7 78 bf
       4.0138617 -0.53992796 -3.1163242 -0.9717879
000320 19 06 a7 3f e7 5c 04 c0 e4 d1 9b c0 51 89 5d 3f
       1.3048736 -2.0681703 -4.8693714 0.86537653
000330 95 9e 3b 40 14 08 98 3d 3c c7 21 40 e7 1b 7b 40
       2.931554 0.07423416 2.5277853 3.923578
000340 a9 61 84 c0 3e 9e 85 bf f8 b0 94 3f 2f 76 b4 3e
       -4.1369214 -1.0438917 1.1616507 0.35246417
000350 62 cc a8 3f 2d 97 17 c0 0b 6d 44 41 34 24 e6 3f
       1.3187373 -2.368602 12.276622 1.7979798
000360 53 f4 f6 3c e4 7d d7 be 8a df 05 c0 c6 e2 87 3f
       0.0301458 -0.42088234 -2.0917687 1.0616081
000370 07 78 08 3f 3a 96 c5 3f 00 56 9d bf 94 1f b6 3f
       0.5330815 1.543647 -1.229187 1.4228387
000380 c4 13 cb c0 34 a6 e6 3f 0c b8 a6 be ff 6f 40 bf
       -6.346163 1.8019471 -0.32562292 -0.7517089
000390 ae 61 ab 3e 89 76 21 3f b8 36 57 c0 52 fa 79 be
       0.3347296 0.63071495 -3.3627148 -0.24411896
0003a0 89 f7 85 3f 4d 4b 74 c0 cc 27 9e 40 58 c1 61 bf
       1.0466167 -3.817096 4.942358 -0.88185644
0003b0 bb e6 d3 bf 05 11 7a bf a4 01 4a 40 0b 21 6c c0
       -1.6554788 -0.9768222 3.1563501 -3.6895168
0003c0 34 3c 0c be 0a 60 1a bf ee 4f e6 3f e7 c9 88 c0
       -0.1369484 -0.60302794 1.7993143 -4.2746463
0003d0 44 f9 0b c0 f8 0e 1b 40 3c 1f 85 c0 7f da a7 40
       -2.187089 2.4227886 -4.160063 5.245422
0003e0 dd 69 e5 bf 75 26 31 41 ed 37 d2 bf 4d 9f 7e be
       -1.7922932 11.071889 -1.6423317 -0.24865456
0003f0 0a 43 ae bf 1a 83 25 3d e9 1e 1a 40 d3 4f b3 bf
       -1.3614209 0.04040823 2.4081366 -1.4008735

lstm.bias_ih_l1 f4 [40]
000000 bc 59 c1 bf 47 6f 4a be 72 da 0e c0 37 e5 e6 bf
       -1.510551 -0.19769011 -2.2320828 -1.8038701
000010 bc b2 2d bf 55 9b 43 bf 1c 8c 0e bf c1 5a 9b bf
       -0.6785085 -0.7640889 -0.5568254 -1.2137071
000020 96 dc c1 bf 37 f7 38 bf c5 83 88 3f 62 01 14 c0
       -1.5145442 -0.7225222 1.0665213 -2.3125844
000030 cb 77 55 bf 31 fb 05 40 77 34 7a bf 22 0f d2 3f
       -0.83385915 2.0934565 -0.97736305 1.6410868
000040 e6 89 67 c0 29 be 97 3e 8b 8b 5a 40 75 3a 10 3f
       -3.6177917 0.29637268 3.414767 0.563392
000050 49 54 c6 be 5b e5 8c 3f ce d2 1a 3d e2 ca b2 3e
       -0.3873618 1.1007494 0.037798695 0.34920412
000060 f4 b8 4c 3f 11 20 80 bf 87 53 65 bc 00 88 45 bf
       0.79969716 -1.0009786 -0.013996965 -0.77160645
000070 bb cb 1f bf ca 87 b0 3e c8 9b 18 bf 15 59 b5 bf
       -0.62420243 0.344786 -0.59612703 -1.4167811
000080 e6 b4 03 bf fb e9 e4 be e6 ba cd bf 79 da 15 bf
       -0.51447904 -0.44709763 -1.6072662 -0.5853649
000090 88 a5 37 bf 49 c9 d3 bf c2 98 26 be 93 7f 54 bf
       -0.71736956 -1.6545802 -0.1626921 -0.8300716

lstm.bias_hh_l1 f4 [40]
000000 e3 fb ea bf 3e 44 ae be a2 08 1d c0 50 bb 02 c0
       -1.835812 -0.3403644 -2.453652 -2.0426826
000010 f0 41 a5 bf 55 13 1a bf 3f 0f 01 bf 68 00 84 bf
       -1.2910748 -0.6018575 -0.5041389 -1.0312624
000020 05 14 b6 bf 98 cc 58 bf 70 1c 82 3f 5e 59 0a c0
       -1.422486 -0.84687185 1.0164928 -2.1617045
000030 b1 82 64 bf 27 72 01 40 73 4e 7c bf ed 9a d6 3f
       -0.8926192 2.0225923 -0.98557204 1.676603
000040 e1 db 6c c0 35 a1 29 bd 84 c2 4b 40 6c 23 b5 3e
       -3.7009203 -0.041413505 3.1837473 0.35378587
000050 cd 4d 0e bf ff 2b 5f 3f 6b bd 8d 3e 29 84 d2 3e
       -0.55587465 0.8717651 0.27683577 0.41116455
000060 e4 f8 69 3f e6 d2 4c bf d9 80 3f 3e f4 79 4f bf
       0.913954 -0.80009305 0.18701495 -0.8104546
000070 17 3a e8 be a1 18 d6 3e c3 1a a1 be 18 5a 92 bf
       -0.4535682 0.41815665 -0.3146573 -1.1433744
000080 ad 63 7f bf 8f 22 4a be 39 ae ee bf 5d 36 b3 be
       -0.9976147 -0.19739746 -1.8646919 -0.35002413
000090 ae 72 32 bf f8 10 b9 bf e5 e0 a6 be 0d e6 5a bf
       -0.6970624 -1.4458303 -0.32593456 -0.8550728
