sparrow/data/networks/adf/adf_morffy_class_network_v1.pt (torch, 23312 bytes, 18 tensors)

lstm.weight_ih_l0 f4 [40, 20]
-1.2051795 1.0130957 -0.56133825 0.15354417 1.4414314 -0.92918295 -0.88757783 0.3017932
-0.9582593 0.95188606 0.26515004 -1.1367928 -2.9014738 0.08683014 -0.9083712 -0.26448786
-1.6646484 -0.33487207 1.1825981 -0.05738541 0.9592075 1.5109857 -0.07096803 -1.3781608
0.529376 -0.58356977 1.9464463 -0.06072075 -0.18783711 -0.7889367 1.6660767 -0.1272126
0.16646512 1.1261934 -0.17523496 -0.15706615 0.7444777 1.9729869 -2.5994606 -1.0334952
-1.1688874 2.90934 2.6440406 -1.5109156 -8.4989195 -1.4356856 1.1083823 1.4049251
0.21261674 0.108488314 0.2853172 -4.1890054 -0.44011283 1.9685553 1.2056093 -0.35319465
-1.5159262 0.65596193 0.79322535 -3.8131812 0.2967207 -1.7914988 -0.9279554 -0.11223724
1.0514327 0.042889673 -0.80660164 -1.7261239 0.719484 0.64242095 -1.6168071 -1.5519938
-0.0323779 -0.7030333 1.8054318 0.65957165 0.39976406 0.6772922 1.0956597 0.47786137
-0.37663317 0.68237996 2.456441 1.9653174 -5.5090065 -1.9770749 -1.032382 0.3896616
3.067237 0.5917113 -0.06939295 -0.35391197 -0.7335634 -2.2278564 3.1952431 -1.4505695
-1.1340611 0.67482585 -1.7507559 -1.5118957 -0.23538485 -0.14558421 -1.1954693 -0.5102699
0.5844227 0.5999061 1.0311625 0.5920071 1.1122835 -1.120971 -4.308355 -1.5522528
0.51532483 -2.6659942 0.6510925 -2.2094684 0.5739855 -1.3520876 2.884559 0.49480727
-0.42490065 -2.3101523 1.3700734 0.31676912 0.66120714 -0.033485167 0.33170745 -1.6441079
2.1629088 -1.1405218 -0.7990961 -1.1608604 -1.4477988 -0.6266328 1.7407168 -1.411691
-0.67887473 0.096303485 0.73892206 -2.8878593 1.0413666 1.4802431 1.7198213 1.3604969
-0.2634132 -1.1529411 1.6956627 1.6861808 0.39778247 1.5611984 0.795679 0.800369
-0.41269565 -0.99564564 -0.02318336 -0.2717947 0.3826064 0.93109584 0.32028788 -6.5753765
-1.804569 -1.7546964 1.0939964 1.4166969 -1.5219501 -1.1235837 1.4672334 -0.08153462
1.9097561 0.22805806 -0.9390508 -1.4609058 1.3673702 1.1792743 0.9067466 -7.4201975
1.3277864 0.60580784 -0.7595677 0.54773146 -0.6752731 0.1275818 -0.27438977 -1.9053059
0.8990704 -0.6202231 -3.4915993 -0.9334631 1.7669611 0.70280206 -0.8826736 -0.1811683
-5.7028947 -0.9272254 1.2833301 -4.08243 -2.8330147 -2.2342734 2.253753 1.3972957
1.4011285 0.6759323 1.6532856 1.7007495 0.1097782 1.0129654 1.0440835 2.2141151
0.19830224 1.2691448 0.9730131 1.1494886 0.20709856 -0.1497222 0.38157934 0.4781066
0.97412217 1.3933028 0.1276076 2.7823248 2.1780324 -0.34018454 0.6633843 2.1060352
1.6261762 0.5318591 1.6993027 0.9075486 -3.0603068 -0.78563845 -1.0780561 0.71510744
1.0594386 4.7538066 -1.3230242 0.26605487 -0.0058059786 1.129198 -0.07177726 3.2699666
3.452435 -0.5046621 -0.29756048 -0.07428768 -2.8978884 2.8469024 -1.0663407 2.952588
2.0137227 6.64234 3.2096415 2.4103465 0.96312475 8.164135 2.2265036 1.414777
00000000: 5243 9abf 1fad 813f ddb3 0fbf af3a 1d3e
00000010: d380 b83f efde 6dbf 4d38 63bf a384 9a3e
00000020: 7b50 75bf ceae 733f bfc1 873e 6d82 91bf
00000030: bfb1 39c0 00d4 b13d 048b 68bf f46a 87be
00000040: 3313 d5bf 5a74 abbe 605f 973f f70c 6bbd
00000050: 9f8e 753f fb67 c13f b057 91bd 9367 b0bf
00000060: 2f85 073f d464 15bf 2725 f93f 52b6 78bd
00000070: 5f58 40be c1f7 49bf 0042 d53f 0544 02be
00000080: d575 2a3e 1b27 903f cb70 33be f3d5 20be
00000090: 1796 3e3f d68a fc3f 905d 26c0 9249 84bf
000000a0: 1a9e 95bf a032 3a40 f637 2940 af65 c1bf
000000b0: 93fb 07c1 8cc4 b7bf 79df 8d3f 96d4 b33f
000000c0: 34b8 593e 1f2f de3d 1915 923e 550c 86c0
000000d0: 7856 e1be 9ff9 fb3f 6851 9a3f eed5 b4be
000000e0: df09 c2bf 1fed 273f d110 4b3f 290b 74c0
000000f0: c7eb 973e d54f e5bf 7c8e 6dbf a3dc e5bd
00000100: 5995 863f 15ad 2f3d 727d 4ebf a1f1 dcbf
00000110: 1a30 383f b375 243f 89f3 cebf bca7 c6bf
00000120: b09e 04bd fef9 33bf 6418 e73f b0d9 283f
00000130: e0ad cc3e 0663 2d3f 943e 8c3f 3faa f43e
00000140: 10d6 c0be 74b0 2e3f 5436 1d40 858f fb3f
00000150: c849 b0c0 ca10 fdbf 1825 84bf ba81 c73e
00000160: 9c4d 4440 647a 173f e41d 8ebd f333 b5be
00000170: d0ca 3bbf 3395 0ec0 dd7e 4c40 43ac b9bf
00000180: ea28 91bf 63c1 2c3f c518 e0bf cc85 c1bf
00000190: ba08 71be 0714 15be 2305 99bf 0ca1 02bf
000001a0: ba9c 153f 7293 193f 22fd 833f c78d 173f
000001b0: 4e5f 8e3f fa7b 8fbf 0bde 89c0 38b0 c6bf
000001c0: 54ec 033f a69f 2ac0 00ae 263f ee67 0dc0
000001d0: b7f0 123f 3511 adbf 9d9c 3840 6157 fd3e
000001e0: 948c d9be 89d9 13c0 915e af3f 902f a23e
000001f0: df44 293f be27 09bd 8fd5 a93e 2172 d2bf
00000200: 196d 0a40 9efc 91bf 9091 4cbf 1397 94bf
00000210: 7951 b9bf 026b 20bf cfcf de3f 4ab2 b4bf
00000220: bcca 2dbf c33a c53d ff29 3d3f b0d2 38c0
00000230: 804b 853f 9b78 bd3f 1b23 dc3f c324 ae3f
00000240: 18de 86be 9393 93bf 7a0b d93f c6d4 d73f
00000250: 25aa cb3e 59d5 c73f 9eb1 4b3f fce4 4c3f
00000260: d84c d3be a2e2 7ebf 08eb bdbc ad28 8bbe
00000270: fce4 c33e 4c5c 6e3f c6fc a33e 7c69 d2c0
00000280: 1efc e6bf e499 e0bf 1308 8c3f 5356 b53f
00000290: 43cf c2bf 97d1 8fbf 4ece bb3f 9ffb a6bd
000002a0: e372 f43f 0d88 693e a265 70bf f6fe babf
000002b0: fd05 af3f 76f2 963f 8c20 683f 4272 edc0
000002c0: e8f4 a93f 3916 1b3f 0773 42bf 2138 0c3f
000002d0: b3de 2cbf cea4 023e d17c 8cbe 10e1 f3bf
000002e0: 7a29 663f f1c6 1ebf 5d76 5fc0 70f7 6ebf
000002f0: c82b e23f d6ea 333f e6f6 61bf 2f84 39be
00000300: 1d7e b6c0 a55e 6dbf 2944 a43f 44a3 82c0
00000310: 1d50 35c0 56fe 0ec0 7d3d 1040 96da b23f
00000320: 2e58 b33f e609 2d3f dd9e d33f 29b2 d93f
00000330: 65d3 e03d daa8 813f 87a4 853f 10b4 0d40
00000340: be0f 4b3e 5673 a23f 6317 793f 7122 933f
00000350: a511 543e c750 19be 5e5e c33e 63ca f43e
00000360: 1260 793f bf57 b23f 91ab 023e 9c11 3240
00000370: e264 0b40 ab2c aebe 8ed3 293f 48c9 0640
00000380: 8b26 d03f eb27 083f c082 d93f 1b55 683f
00000390: 11dc 43c0 9a1f 49bf befd 89bf 4811 373f
000003a0: af9b 873f 2f1f 9840 db58 a9bf 5838 883e
000003b0: 1440 bebb 8f89 903f f5ff 92bd 2247 5140
000003c0: b2f4 5c40 8931 01bf d959 98be 2424 98bd
000003d0: 0177 39c0 a633 3640 da7d 88bf 34f7 3c40
000003e0: d5e0 0040 0d8e d440 c46a 4d40 1e43 1a40
000003f0: 588f 763f 4ca0 0241 097f 0e40 6a17 b53f

lstm.weight_hh_l0 f4 [40, 10]
-0.6133015 0.09607441 -0.22270867 0.42862335 0.75477815 0.27406305 -0.09177934 0.3964677
0.57158947 -0.8593924 0.9260184 1.0800524 1.4155766 0.14068024 0.28286743 -1.6956104
2.2608547 -0.18864919 1.55877 1.2159548 0.4442497 -2.5704784 0.7200432 0.9402165
-0.47846526 0.80577123 -1.9240649 0.18375331 0.052414425 -0.9911611 -0.5019263 1.2147613
1.0394145 -0.22943446 0.223694 0.36553374 1.0719243 -2.3784683 -0.031797543 -0.3087427
1.1372112 -0.37927163 -0.09228377 0.020424686 0.25970715 -0.10355733 -0.1773253 1.1718906
0.12408964 0.5924023 -1.1243294 -0.42103145 0.41503257 0.49067774 0.09476815 -0.23551215
0.6644574 -1.2197528 -1.0909503 -0.83887976 0.32896438 -0.25404838 -0.30218273 -0.20881718
0.14791234 -0.37182868 0.01903701 -0.21395984 -0.0087634055 -0.34361908 0.05184266 1.9752021
0.5925337 0.6324161 -0.3401056 -1.1943533 0.5958675 -1.1951584 0.8766778 1.2238406
0.98411864 0.13331074 1.1898445 -1.416009 -0.34915933 -1.5290442 0.62062675 -0.085491724
-0.25185683 1.2648728 0.38226008 -1.0893142 0.25070778 -0.3331228 0.40804747 -0.29261327
0.120644376 -0.48472068 -1.3629776 -1.2325822 0.0019602615 0.36749014 0.4726032 0.8054426
0.82806885 -0.034385964 1.0249226 -1.389744 -0.7210276 0.16519794 1.406079 -0.5831396
-2.4901335 0.28493723 -0.2766601 0.21224329 -0.014667363 1.204352 -0.4100085 0.1365923
0.2736037 -0.7230431 0.55259526 0.54035974 -0.3000267 1.0667801 0.45847848 0.7161035
0.70994014 4.890426 -0.7224935 -1.5856692 -1.56757 0.08074987 0.69358575 -1.0512922
-0.32396775 -2.133963 -0.12397503 -1.0900294 0.9333607 -0.12389043 -0.32162932 0.17543633
0.18263096 0.6433715 -0.0005230859 0.23292331 -0.018462738 0.32463416 0.2190652 -1.0804291
0.365795 1.46556 0.2584529 -0.073653884 0.63372105 -1.0189314 -0.886965 1.2022405
0.93196374 0.14402963 -0.5014276 1.2128146 -1.8180728 -0.11821186 1.5034504 0.6041152
-1.4949934 0.4224232 1.6319618 -0.083827235 1.0304828 0.72176707 0.06770455 -2.7432177
0.28131688 0.88874066 0.158452 2.568314 -1.0596037 0.92000484 -0.6768119 -0.758822
-1.6060549 -0.690885 1.7027849 -1.5278745 0.56054544 -0.44219965 1.0163808 -0.84798175
0.19512 -1.0227327 0.23070866 -0.5600019 0.08281535 0.3053068 0.6972907 -0.5423123
0.6533981 0.44218883 -1.9857218 -0.85571265 -0.21492682 -0.5616915 0.53287584 -2.1690938
-0.63324726 0.65370446 -0.48008722 -1.3564165 -0.59117407 -0.7437819 -2.1084983 -0.61572886
-1.7480792 0.19716425 0.012527878 -0.86039716 1.183103 -3.9519842 -1.1836774 -0.23317988
-1.2805984 0.3288073 0.592756 1.7579855 -1.6019849 -2.3203554 0.7393679 -0.5249883
0.19353625 2.0869749 1.2693444 -1.6115875 1.1228566 -1.3108594 1.2990549 -0.17264235
-0.76929355 -0.4880436 0.78769356 -1.5779262 -0.6318973 0.29272515 -2.0954897 -1.207273
0.024505243 -0.080712356 -1.399357 0.18941328 -0.018839842 1.8006182 0.25838745 0.9087564
00000000: 5401 1dbf a9c2 c43d be0d 64be 8574 db3e
00000010: 2439 413f fe51 8c3e cef6 bbbd d0fd ca3e
00000020: b053 123f 2401 5cbf 8b0f 6d3f 283f 8a3f
00000030: 9d31 b53f 7b0e 103e 00d4 903e c309 d9bf
00000040: d8b1 1040 412d 41be c685 c73f 68a4 9b3f
00000050: b274 e33e b882 24c0 c054 383f 07b2 703f
00000060: 66f9 f4be 0647 4e3f c247 f6bf d429 3c3e
00000070: 82b0 563d bcbc 7dbf 3e7e 00bf 4c7d 9b3f
00000080: 890b 853f def0 6abe 0a10 653e 3d27 bb3e
00000090: d134 893f d338 18c0 243e 02bd 8613 9ebe
000000a0: 2390 913f e42f c2be 46ff bcbd ac51 a73c
000000b0: 56f8 843e de15 d4bd c394 35be 8300 963f
000000c0: b622 fe3d ada7 173f 07ea 8fbf 6f91 d7be
000000d0: 267f d43e 1d3a fb3e ce15 c23d 192a 71be
000000e0: e119 2a3f dc20 9cbf 42a4 8bbf d3c0 56bf
000000f0: 056e a83e a112 82be b2b7 9abe 2cd4 55be
00000100: 5576 173e 5460 bebe 81f3 9b3c 4a18 5bbe
00000110: 6394 0fbc d7ee afbe f858 543d 6cd3 fc3f
00000120: 4ab0 173f 06e6 213f 5222 aebe 92e0 98bf
00000130: c68a 183f f3fa 98bf f56d 603f cfa6 9c3f
00000140: 33ef 7b3f 9c82 083e d34c 983f c83f b5bf
00000150: 03c5 b2be b8b7 c3bf 65e1 1e3f 4916 afbd
00000160: 61f3 80be 5ae7 a13f 98b7 c33e a66e 8bbf
00000170: c55c 803e 128f aabe 99eb d03e 68d1 95be
00000180: 6614 f73d 4f2d f8be 0d76 aebf 41c5 9dbf
00000190: bb77 003b ab27 bc3e 0cf9 f13e 7c31 4e3f
000001a0: 52fc 533f 4cd8 0cbd aa30 833f 22e3 b1bf
000001b0: 4495 38bf a629 293e 66fa b33f a348 15bf
000001c0: 595e 1fc0 4be3 913e 65a6 8dbe 4e56 593e
000001d0: 614f 70bc 3528 9a3f a2ec d1be dade 0b3e
000001e0: c915 8c3e 5a19 39bf e276 0d3f 0455 0a3f
000001f0: 1a9d 99be 408c 883f b1bd ea3e 8f52 373f
00000200: a3be 353f 5f7e 9c40 56f5 38bf 35f7 cabf
00000210: 22a6 c8bf 3060 a53d d68e 313f be90 86bf
00000220: 1adf a5be da92 08c0 9fe6 fdbd 1586 8bbf
00000230: baf0 6e3f 44ba fdbd 99ac a4be 95a5 333e
00000240: 9c03 3b3e ffb3 243f b31f 09ba 7383 6e3e
00000250: 2b3f 97bc 7336 a63e a152 603e 804b 8abf
00000260: 7b49 bb3e 7897 bb3f f053 843e d9d7 96bd
00000270: 8b3b 223f 586c 82bf 2310 63bf 04e3 993f
00000280: 2d95 6e3f 817c 133e 8f5d 00bf 823d 9b3f
00000290: 9cb6 e8bf 0f19 f2bd 1071 c03f 4ba7 1a3f
000002a0: f25b bfbf db47 d83e 20e4 d03f 9dad abbd
000002b0: dce6 833f bac5 383f afa8 8a3d e190 2fc0
000002c0: c408 903e 8284 633f 3e41 223e 425f 2440
000002d0: 18a1 87bf 7085 6b3f 8b43 2dbf 2942 42bf
000002e0: 3593 cdbf d7dd 30bf dbf4 d93f 6491 c3bf
000002f0: e87f 0f3f fe67 e2be c418 823f 5515 59bf
00000300: 8acd 473e e8e8 82bf e43e 6c3e 495c 0fbf
00000310: 189b a93d 2c51 9c3e a581 323f fbd4 0abf
00000320: 1945 273f 9366 e23e 222c febf fc0f 5bbf
00000330: c715 5cbe 04cb 0fbf 8d6a 083f 6fd2 0ac0
00000340: 7e1c 22bf 2d59 273f fecd f5be 0e9f adbf
00000350: 2f57 17bf 7e68 3ebf a3f1 06c0 68a0 1dbf
00000360: 0fc1 dfbf 6de5 493e bb41 4d3c fd42 5cbf
00000370: eb6f 973f 4fed 7cc0 be82 97bf b5c6 6ebe
00000380: a6ea a3bf 6e59 a83e dbbe 173f ab05 e13f
00000390: d70d cdbf b480 14c0 3747 3d3f a265 06bf
000003a0: 5e2e 463e ff90 0540 e179 a23f 8048 cebf
000003b0: c4b9 8f3f 3eca a7bf 6e47 a63f 28c9 30be
000003c0: 6cf0 44bf dae0 f9be 49a6 493f 7cf9 c9bf
000003d0: 05c4 21bf 12e0 953e 811c 06c0 ec87 9abf
000003e0: 38bf c83c 854c a5bd 211e b3bf 8ef5 413e
000003f0: 0356 9abc a87a e63f 5c4b 843e 42a4 683f

lstm.bias_ih_l0 f4 [40]
-0.32374173 -0.4585953 -0.883186 -0.83979696 -1.1411303 -0.55968636 -0.70189244 -1.4039626
-0.92299324 -0.33577815 0.3229728 0.17552257 0.0468123 0.55326134 0.47831658 0.6414386
1.2113147 0.37057495 0.2276169 1.0112454 0.27031505 -0.28636295 -0.30363747 0.12128993
0.0035288187 -0.1273794 0.3323754 -0.22900775 -0.14294758 0.06342942 -0.24943197 -0.54074997
0.031097468 -1.0265089 -0.10401711 -0.3371821 0.017817004 -0.97139853 -0.86944705 -0.8794532
00000000: 7ac1 a5be 01cd eabe 7a18 62bf effc 56bf
00000010: 8f10 92bf 9b47 0fbf 39af 33bf 0cb5 b3bf
00000020: 4949 6cbf 1deb abbe b15c a53e 30bc 333e
00000030: 41be 3f3d 89a2 0d3f e9e5 f43e 5235 243f
00000040: 5c0c 9b3f 00bc bd3e 6814 693e 7d70 813f
00000050: bc66 8a3e 2a9e 92be 5f76 9bbe db66 f83d
00000060: c143 673b bf6f 02be 1c2d aa3e 0281 6abe
00000070: da60 12be 49e7 813d 186b 7fbe 976e 0abf
00000080: 1ec0 fe3c a564 83bf ec06 d5bd 22a3 acbe
00000090: f7f4 913c 93ad 78bf 1594 5ebf d823 61bf

lstm.bias_hh_l0 f4 [40]
-0.30747423 -0.82847905 -0.6377671 -0.74710375 -0.9799017 -0.5181653 -0.74134123 -1.487679
-0.9378351 -0.5997839 0.53067183 0.43976256 0.27067688 0.5720382 0.36682296 0.828157
0.95734227 0.07479602 0.21561939 0.8480746 -0.021248138 0.121110916 -0.056402348 0.34434292
0.18386537 -0.61983776 0.44130188 -0.2658991 -0.09187972 -0.059498258 -0.14565885 -0.7705762
-0.28278342 -0.8095921 -0.1660845 -0.5984924 -0.10541881 -1.2888156 -0.617894 -0.8738862
00000000: 436d 9dbe 3417 54bf b444 23bf 3142 3fbf
00000010: d6da 7abf 7ba6 04bf 8ac8 3dbf 446c bebf
00000020: f615 70bf 708b 19bf 1cda 073f 8f28 e13e
00000030: 2996 8a3e 1871 123f 38d0 bb3e 1902 543f
00000040: 6214 753f a82e 993d 54cb 5c3e 6b1b 593f
00000050: 9310 aebc 0009 f83d 2606 67bd b74d b03e
00000060: 3447 3c3e b0ad 1ebf 52f2 e13e ed23 88be
00000070: 6f2b bcbd 72b4 73bd 9827 15be 7b44 45bf
00000080: fdc8 90be 6e41 4fbf 0e12 2abe cc36 19bf
00000090: d1e5 d7bd e9f7 a4bf 4d2e 1ebf 02b7 5fbf

lstm.weight_ih_l0_reverse f4 [40, 20]
0.28281707 1.4401274 -0.87524295 -1.3061972 1.0007446 -0.5815285 1.7797182 0.58705056
0.3353397 2.0517359 -3.372685 -5.140464 -4.7490587 -0.42589787 1.4436313 0.097797185
0.90059566 -0.308224 0.61023164 -1.1410906 0.43223447 -0.4575619 -0.77840966 -0.03574227
0.44600222 -2.289257 -0.4291295 -2.2838843 1.7061468 -1.5112541 -0.9839643 -0.3443392
0.41673222 0.098771125 0.9818332 -8.356696 -0.34260008 -0.7771765 2.1207008 0.47135803
-6.144669 0.9186842 -0.15799727 -0.19996278 0.67688876 -1.7387787 -4.5577817 1.012625
-0.20934105 0.15615214 -0.99306566 0.47406974 -0.5574543 -2.2992697 -0.6419072 1.3991367
-6.312752 1.0079052 1.1954999 1.5608683 0.50181895 0.19694746 1.834065 1.6730868
-0.18663615 0.81661725 0.075852424 0.74889547 2.207123 0.21048367 -0.24974684 -2.0342212
1.5467042 -1.3799348 2.1401253 -1.4418463 0.079419896 -0.0046924837 -0.23206598 1.0483359
0.8711546 0.2972891 2.3452861 0.82518315 -1.7196378 3.0321267 -0.36864868 1.0517031
-0.62506604 1.2901572 1.350765 -0.5310178 0.6340888 0.70449674 -2.7002394 -1.7871019
5.765137 0.6581808 -0.5369068 4.498381 -1.0429838 -3.168688 -6.7797036 -2.6198325
1.4057956 -0.6654925 0.6658188 0.12888852 1.2132032 0.68855006 0.009993468 -0.019742997
-0.50899774 -0.09076745 0.74417686 -0.62155384 -0.1424167 -1.5389379 1.8045892 0.53164595
-0.46837795 -0.6989479 2.1706471 1.7473893 -1.3504595 -1.6876997 0.015753435 0.19543621
2.0657477 -1.0752773 -0.26842943 -1.1274021 -0.63996184 -0.19389045 2.0623457 -2.9896665
-0.8690713 0.6517401 -2.172022 -1.1562743 -1.9196837 -2.2004125 2.5527625 1.9464762
-3.463296 -1.9777334 -0.29729664 -0.2774985 2.0737712 -0.75640655 -1.2179216 -1.5857512
-1.8474255 -0.89242136 2.1557457 -5.5582952 -0.52031934 0.4204257 0.934678 -4.7144384
-0.19537659 0.5678357 0.08183293 -0.45572364 -2.498007 0.22352938 1.0263641 -0.8163429
-0.37307408 0.4967511 1.1706377 0.28762612 2.610162 1.2621766 0.27773774 0.6193676
-1.0076864 -1.6078205 -2.1688218 -2.5681038 -5.2310457 -3.0695066 -0.050889652 0.043225702
1.5511068 -0.96341693 -2.6514714 0.662363 -0.7044463 0.6472668 0.35196733 -3.6283214
-1.9139903 -3.725117 -11.41496 -0.9086098 -2.7383351 -0.34692362 1.9106928 0.23511717
0.36977088 -2.182387 0.33670604 14.16082 -0.21730004 0.70670414 5.6484423 4.605949
-2.588454 -0.20528355 -0.4220886 -1.8596795 0.31022316 9.792978 0.4666392 2.8442664
2.444747 4.072281 0.40327 1.5048192 2.5055983 2.6189823 -0.018841533 0.20946631
0.26134753 0.110800885 -0.5115637 1.3040121 2.210126 4.6839304 3.2697306 0.5764133
4.260902 1.7190852 1.3326193 -0.10884367 0.11537002 0.6224948 -0.35272545 0.52089727
0.5884776 -1.34289 6.125902 2.6962914 0.9650612 -0.5100167 -0.35197863 -0.036240097
0.49367937 2.8089573 0.78483623 2.6878173 -1.0823333 0.97148645 -0.053394552 2.851527
00000000: 66cd 903e 1856 b83f ec0f 60bf 7831 a7bf
00000010: 6618 803f 0ddf 14bf cecd e33f f248 163f
00000020: a5b1 ab3e a44f 0340 12da 57c0 ae7e a4c0
00000030: 4af8 97c0 490f dabe e9c8 b83f e449 c83d
00000040: 708d 663f 89cf 9dbe 2438 1c3f 420f 92bf
00000050: d64d dd3e 8e45 eabe db45 47bf 7d66 12bd
00000060: 675a e43e 3083 12c0 ddb6 dbbe 292b 12c0
00000070: 0563 da3f c670 c1bf 16e5 7bbf 3a4d b0be
00000080: ed5d d53e 8448 ca3d 6c59 7b3f 07b5 05c1
00000090: 4769 afbe 0af5 46bf 90b9 0740 d755 f13e
000000a0: 21a1 c4c0 e32e 6b3f 09ca 21be 0bc3 4cbe
000000b0: 9548 2d3f 4d90 debf 59d9 91c0 b29d 813f
000000c0: 805d 56be 59e6 1f3e 8d39 7ebf 45b9 f23e
000000d0: 53b5 0ebf 3c27 13c0 0854 24bf e916 b33f
000000e0: 1002 cac0 0a03 813f 2406 993f 88ca c73f
000000f0: 3577 003f 98ac 493e a4c2 ea3f b527 d63f
00000100: 8c1d 3fbe d40d 513f 8458 9b3d 9db7 3f3f
00000110: 8141 0d40 0889 573e a3bd 7fbe ae30 02c0
00000120: 67fa c53f b4a1 b0bf d0f7 0840 6b8e b8bf
00000130: e6a6 a23d 68c3 99bb b4a2 6dbe df2f 863f
00000140: fd03 5f3f 4736 983e 2b19 1640 343f 533f
00000150: 171d dcbf 5d0e 4240 85bf bcbe 359e 863f
00000160: 5404 20bf df23 a53f dee5 ac3f c8f0 07bf
00000170: a553 223f e659 343f b9d0 2cc0 c1bf e4bf
00000180: 017c b840 897e 283f b972 09bf bdf2 8f40
00000190: 7e80 85bf c9cb 4ac0 55f3 d8c0 56ab 27c0
000001a0: 1cf1 b33f b75d 2abf 1a73 2a3f 5afb 033e
000001b0: 3e4a 9b3f d144 303f a5bb 233c 11bc a1bc
000001c0: ad4d 02bf 49e4 b9bd 6082 3e3f 271e 1fbf
000001d0: afd5 11be ebfb c4bf c7fc e63f f319 083f
000001e0: 3ccf efbe 40ee 32bf e2eb 0a40 74aa df3f
000001f0: dbdb acbf 8b06 d8bf 590d 813c 6e20 483e
00000200: 3635 0440 b0a2 89bf 956f 89be b64e 90bf
00000210: 8ad4 23bf 388b 46be 79fd 0340 b256 3fc0
00000220: 757b 5ebf 70d8 263f 6902 0bc0 cc00 94bf
00000230: 32b8 f5bf 8fd3 0cc0 7660 2340 2226 f93f
00000240: a4a6 5dc0 5e26 fdbf 4437 98be 4914 8ebe
00000250: abb8 0440 dca3 41bf dbe4 9bbf e5f9 cabf
00000260: 7078 ecbf ba75 64bf bdf7 0940 8edd b1c0
00000270: a633 05bf 0a42 d73e 0f47 6f3f aedc 96c0
00000280: cd10 48be ae5d 113f 0698 a73d 9c54 e9be
00000290: 59df 1fc0 e3e4 643e e65f 833f d9fb 50bf
000002a0: 9103 bfbe 2956 fe3e 75d7 953f bb43 933e
000002b0: e50c 2740 018f a13f a433 8e3e e08e 1e3f
000002c0: defb 80bf 10cd cdbf facd 0ac0 d05b 24c0
000002d0: ba64 a7c0 cc72 44c0 ab71 50bd 6f0d 313d
000002e0: ab8a c63f 7ea2 76bf b5b1 29c0 9f90 293f
000002f0: 9856 34bf 47b3 253f 1035 b43e 6b36 68c0
00000300: a2fd f4bf 5168 6ec0 ada3 36c1 a79a 68bf
00000310: e240 2fc0 f99f b1be 9591 f43f 8ec2 703e
00000320: 9c52 bd3e 3bac 0bc0 bc64 ac3e b892 6241
00000330: e783 5ebe 90ea 343f 0ac0 b440 ef63 9340
00000340: 3ba9 25c0 da35 52be ff1b d8be fa09 eebf
00000350: 92d5 9e3e 0ab0 1c41 55eb ee3e 7608 3640
00000360: bc76 1c40 2050 8240 6879 ce3e ea9d c03f
00000370: b95b 2040 689d 2740 8f59 9abc 567e 563e
00000380: 58cf 853e 93eb e23d d7f5 02bf dee9 a63f
00000390: b472 0d40 c2e2 9540 4443 5140 d28f 133f
000003a0: 4f59 8840 fc0a dc3f 4593 aa3f 6ee9 debd
000003b0: 1e47 ec3d d25b 1f3f 6e98 b4be 8659 053f
000003c0: 78a6 163f d2e3 abbf 6407 c440 0a90 2c40
000003d0: 400e 773f 7490 02bf 8b36 b4be 7f70 14bd
000003e0: 8bc3 fc3e f5c5 3340 07eb 483f 3305 2c40
000003f0: e689 8abf 56b3 783f 3fb4 5abd 6b7f 3640

lstm.weight_hh_l0_reverse f4 [40, 10]
2.0389366 4.4302425 5.155011 1.0841755 -0.29315645 -0.6999638 0.5080087 2.6153045
-1.9331522 0.39160156 -0.06737457 0.53880525 -0.104719386 0.0890559 1.1803026 -3.047304
1.351472 1.5570745 1.6104512 0.6462744 0.68094367 -1.3099837 -1.240704 2.6263413
-0.13930868 -0.21485376 0.51713276 -0.1900458 -1.3698971 -0.5120616 0.28281012 0.6099931
0.011089824 0.35120606 -0.04865032 0.015443137 -1.7000685 0.76058304 -1.242606 0.13769221
-2.5566282 -0.3022177 2.9773922 -1.4172605 -1.5374938 2.0836298 -1.0930886 -0.13920224
-2.2074668 -2.2557917 0.71280736 -0.22038206 -0.108366154 -0.26636901 0.033713773 0.36315084
0.4625111 -0.34595966 0.27131295 0.3007126 0.6845017 0.6984205 -0.5815765 -0.5896901
-0.06154685 0.3921075 0.15498422 -0.2731687 0.03562633 -0.23697409 0.8927949 -0.17280053
-0.87901247 -0.1744319 -0.26911163 -0.30426538 -0.03126105 -0.51496387 -0.16119768 -0.30900255
1.5542322 0.7724806 0.65606725 -1.7006438 0.97954524 -1.2956353 1.5275563 -0.110593826
-0.24621287 -0.27912226 -0.4419262 1.5137707 0.69870055 -0.48936123 -0.34252414 -0.0365534
-0.7128125 -0.746678 -0.18828812 0.05924426 -0.0570622 -1.4914211 -2.295087 0.54737306
4.3833714 -2.5696962 -1.1854291 1.2658687 -0.23528816 -0.9245927 1.3139005 -0.4215367
-0.0059312065 -3.7213266 1.3622535 -0.39874417 1.0362282 -0.07478355 -0.26445273 1.4938624
-0.58856857 -1.1878848 -1.0331554 0.12976173 -1.8365008 -0.31738085 1.740458 -1.1697874
1.8843431 1.1320992 -2.5175943 -2.795134 2.3721085 0.26405734 -0.0998843 -0.6242191
-0.7047255 -2.0158415 -0.18524949 1.5077434 0.8222255 1.2239377 1.3874991 1.2230005
2.2763727 1.7842137 -1.7847787 -1.8718748 -0.5591864 -0.19945152 -1.6284813 -0.06474172
0.6135549 -0.5304423 -1.3501254 -1.250363 -0.8063397 -0.8635192 -0.36907548 0.8472652
-0.3127299 -0.7336722 -1.3074832 -1.4254786 -0.22330472 -1.324491 0.7206017 -1.4309533
0.6522363 1.5611327 -0.8727652 -1.2248244 -0.7041626 -0.66015655 -1.537045 -0.39177844
0.49174657 -1.0039053 2.5470526 2.862952 0.3858222 0.45908263 -2.76387 1.3883187
-1.5168575 2.9559462 1.46338 -0.2928369 0.7173638 2.1571887 -0.0094879 1.0996283
-0.25011647 1.178192 0.5911058 -0.030862454 -3.045444 -1.6125077 -1.308141 -0.029798672
-0.6113597 -2.477598 -0.34076893 -1.7156098 -1.210409 3.1530063 0.028478261 -1.0205802
-0.81725216 1.4049184 -0.30829114 -0.32957548 1.0053345 -3.015791 -0.33669725 -1.2040315
-1.0811552 -1.1645159 0.14497696 0.69241726 0.4565203 0.9145088 -1.9881327 -0.9969718
-2.7022724 -1.8222369 1.1832639 0.6283646 0.6705232 0.5253728 3.5585418 0.7885651
-0.7706693 -0.1778321 -0.6165708 -0.45878425 -2.7514787 0.89746 2.0788598 0.73075515
-1.6660038 -1.1114396 0.006353516 0.72417283 0.37676957 0.9666368 0.113630526 -0.034546226
0.8579625 -2.9651654 -0.83154833 -1.4125085 0.87429285 -0.22920257 -1.1941966 -0.77912784
00000000: f07d 0240 8cc4 8d40 daf5 a440 43c6 8a3f
00000010: 9a18 96be d430 33bf dc0c 023f 2661 2740
00000020: 8871 f7bf 0080 c83e aefb 89bd 24ef 093f
00000030: 1e77 d6bd f162 b63d 2814 973f 0707 43c0
00000040: 09fd ac3f 384e c73f 4423 ce3f 3d72 253f
00000050: 5352 2e3f 8cad a7bf 64cf 9ebf fa15 2840
00000060: efa6 0ebe a002 5cbe d062 043f 5e9b 42be
00000070: ca58 afbf 7816 03bf 7dcc 903e 8228 1c3f
00000080: 18b2 353c 48d1 b33e 8f45 47bd 3605 7d3c
00000090: d89b d9bf 92b5 423f b70d 9fbf 30ff 0c3e
000000a0: cc9f 23c0 47bc 9abe 988d 3e40 cb68 b5bf
000000b0: 99cc c4bf 315a 0540 54ea 8bbf 088b 0ebe
000000c0: 2347 0dc0 e45e 10c0 8b7a 363f d6ab 61be
000000d0: 13ef ddbd 8561 88be 7417 0a3d e8ee b93e
000000e0: 41ce ec3e a021 b1be 88e9 8a3e 00f7 993e
000000f0: 813b 2f3f b0cb 323f 33e2 14bf eef5 16bf
00000100: 8d18 7cbd 50c2 c83e 2fb4 1e3e c5dc 8bbe
00000110: eaec 113d 56a9 72be 358e 643f 9ff2 30be
00000120: f606 61bf 479e 32be 00c9 89be acc8 9bbe
00000130: 960b 00bd acd4 03bf 0111 25be 9535 9ebe
00000140: 15f1 c63f 4ac1 453f 06f4 273f b2ae d9bf
00000150: 7ac3 7a3f 61d7 a5bf f786 c33f 047f e2bd
00000160: 3a1f 7cbe 1de9 8ebe 2744 e2be 3dc3 c13f
00000170: 0ade 323f 8e8d fabe 535f afbe 05b9 15bd
00000180: e17a 36bf 4a26 3fbf 9ace 40be 1caa 723d
00000190: 0eba 69bd e3e6 bebf b5e2 12c0 a420 0c3f
000001a0: 9444 8c40 e775 24c0 24bc 97bf fc07 a23f
000001b0: 61ef 70be 1bb2 6cbf e42d a83f a9d3 d7be
000001c0: 915a c2bb 372a 6ec0 535e ae3f 3228 ccbe
000001d0: 20a3 843f 1e28 99bd 5966 87be e236 bf3f
000001e0: 6eac 16bf 9c0c 98bf 703e 84bf 42e0 043e
000001f0: 7512 ebbf be7f a2be 54c7 de3f 98bb 95bf
00000200: 2832 f13f a0e8 903f 4420 21c0 7ae3 32c0
00000210: a0d0 1740 8632 873e 2490 ccbd d3cc 1fbf
00000220: e468 34bf 8c03 01c0 0bb2 3dbe bcfd c03f
00000230: 5f7d 523f fea9 9c3f 9299 b13f 488b 9c3f
00000240: 17b0 1140 1d61 e43f a173 e4bf 9899 efbf
00000250: d726 0fbf 053d 4cbe 1372 d0bf 4f97 84bd
00000260: ef11 1d3f 11cb 07bf e9d0 acbf e50b a0bf
00000270: 476c 4ebf 980f 5dbf 76f7 bcbe 5fe6 583f
00000280: 221e a0be f1d1 3bbf 9c5b a7bf 1576 b6bf
00000290: fea9 64be ec88 a9bf 5a79 383f 7a29 b7bf
000002a0: f5f8 263f 32d3 c73f 8a6d 5fbf 0cc7 9cbf
000002b0: 0044 34bf 0500 29bf e4bd c4bf 2f97 c8be
000002c0: 35c6 fb3e f87f 80bf e902 2340 9b3a 3740
000002d0: 7d8a c53e e10c eb3e 3fe3 30c0 6db4 b13f
000002e0: 6328 c2bf 392e 3d40 0950 bb3f b8ee 95be
000002f0: 27a5 373f 610f 0a40 2373 1bbc 9fc0 8c3f
00000300: 440f 80be ffce 963f b652 173f 42d3 fcbc
00000310: 8ee8 42c0 a766 cebf 2a71 a7bf 581c f4bc
00000320: 1282 1cbf f790 1ec0 4479 aebe 1a99 dbbf
00000330: afee 9abf dbca 4940 3e4b e93c 5fa2 82bf
00000340: 7037 51bf 5ed4 b33f 56d8 9dbe 1ebe a8be
00000350: cdae 803f b802 41c0 9563 acbe b41d 9abf
00000360: 4b63 8abf db0e 95bf d774 143e 4242 313f
00000370: 07bd e93e 401d 6a3f 227b febf 8b39 7fbf
00000380: 08f2 2cc0 0f3f e9bf 3175 973f 81dc 203f
00000390: 69a7 2b3f d57e 063f 26bf 6340 67df 493f
000003a0: 954a 45bf 9e19 36be 95d7 1dbf c5e5 eabe
000003b0: 3a18 30c0 f0bf 653f 0a0c 0540 c512 3b3f
000003c0: 9d3f d5bf a743 8ebf 2831 d03b 6463 393f
000003d0: f1e7 c03e 8275 773f 1fb7 e83d 5880 0dbd
000003e0: 6ea3 5b3f 45c5 3dc0 5ae0 54bf 14cd b4bf
000003f0: a8d1 5f3f 14b4 6abe 6fdb 98bf ec74 47bf

lstm.bias_ih_l0_reverse f4 [40]
-1.0403206 -0.7424136 -0.88820964 -1.7580781 -0.38531572 -0.9258608 -1.1357527 -1.205513
-0.92693806 -1.0432703 0.6556888 0.08189233 0.4829101 0.61812854 -0.747323 1.218308
0.96879524 1.3994464 -0.08110446 1.0425234 0.7420574 -0.46187654 0.028767446 -0.37473083
-0.56779146 0.3524823 0.5096947 -0.196794 -0.43736482 -0.085657105 -0.70026976 -0.7793943
-0.25852013 -0.54264206 -0.9902548 -0.32775244 -0.6851417 -0.41282213 -0.7677884 -0.4475545
00000000: 3a29 85bf d10e 3ebf b561 63bf b408 e1bf
00000010: 1a48 c5be 3705 6dbf 5860 91bf 404e 9abf
00000020: d04b 6dbf e289 85bf 39db 273f 2ab7 a73d
00000030: fe3f f73e ac3d 1e3f 8f50 3fbf 84f1 9b3f
00000040: f702 783f 0f21 b33f 181a a6bd 6871 853f
00000050: 79f7 3d3f 157b ecbe b5a9 eb3c b8dc bfbe
00000060: c85a 11bf 8f78 b43e 5a7b 023f 5e84 49be
00000070: 48ee dfbe fe6c afbd e144 33bf 6386 47bf
00000080: c05c 84be 97ea 0abf 5781 7dbf 2bcf a7be
00000090: 7265 2fbf 6c5d d3be c88d 44bf dd25 e5be

lstm.bias_hh_l0_reverse f4 [40]
-0.74066997 -0.9583307 -0.86687714 -1.3895739 -0.8462235 -0.74292535 -1.3896179 -0.7473054
-0.43769246 -0.65584934 1.0390804 -0.09141675 0.46121567 0.6646613 -0.75955534 1.0604084
0.6282124 1.3081152 0.013001961 1.5349567 0.7416231 -0.3472234 -0.15593152 -0.31379664
-0.29175055 -0.105753854 0.86143607 0.048962526 -0.605892 0.066897295 -0.5231531 -0.68850213
-0.08212021 -0.5766534 -1.0641785 -0.09216987 -0.62985575 0.00022268509 -0.68144506 -0.112710506
00000000: 8c9c 3dbf 2955 75bf a9eb 5dbf 8fdd b1bf
00000010: 1aa2 58bf 5b30 3ebf 00df b1bf 684f 3fbf
00000020: 3a19 e0be bee5 27bf 9600 853f b438 bbbd
00000030: 7624 ec3e 3e27 2a3f 3872 42bf 76bb 873f
00000040: 87d2 203f 5270 a73f 2d06 553c 7679 c43f
00000050: 03db 3d3f 44c7 b1be 83ac 1fbe f4a9 a0be
00000060: 5460 95be 7a95 d8bd 1387 5c3f ee8c 483d
00000070: bd1b 1bbf 7301 893d 5ded 05bf ad41 30bf
00000080: a42e a8bd 8f9f 13bf 0037 88bf 8fc3 bcbd
00000090: 3a3e 21bf 9380 6939 2f73 2ebf c4d4 e6bd

lstm.weight_ih_l1 f4 [40, 20]
-0.094884925 0.53299665 -0.31875363 -1.1653312 -0.5546511 -0.6176276 -2.3860967 -0.43136296
0.6228465 -0.691134 -1.6014433 -0.6953236 2.6986454 0.18563649 2.3583539 2.9375646
-0.70115507 1.0744128 -1.4517294 -1.1130748 0.72060144 -2.020035 0.96572685 -1.865271
-0.51557153 -1.2062482 -0.24519214 1.8462859 0.24611439 -0.14594182 -1.8881118 2.427951
-0.6939162 -1.0838227 0.45333904 -0.6094169 0.20503767 -0.069022804 1.6529241 -1.0836415
0.9469533 0.5265293 -0.11582253 0.15913981 0.80872506 -0.6595424 -0.091826834 -0.29571462
0.22779517 -0.40488476 -1.0138907 0.74213237 0.55316603 -2.4225636 -0.50697845 1.6914304
-0.7991056 -0.35484707 2.8207371 1.7154189 -0.13054202 0.3532987 1.5035816 0.5417143
-0.97688854 -0.37900642 -0.73751724 -0.527698 1.2018942 0.63806474 -1.0412894 1.9477572
1.2291085 -0.07061097 -1.0890464 -0.80157006 -0.74835676 -2.3111765 -0.69097465 -1.3668649
0.047374096 1.2094144 0.8277568 -0.65991205 1.0811409 0.85860926 0.7352801 0.90716505
-0.7208063 0.7224274 -0.1941304 4.2632394 -1.3033224 -0.08451665 2.1950905 1.2291794
-1.7202954 1.1092496 -1.2775714 -1.2399102 0.78055 1.5165267 -2.4110086 -0.091509014
-4.3092456 -4.5834413 0.8243671 6.289386 0.7226695 -0.91816056 -0.44415355 2.5457711
0.8474992 -4.4662337 0.89136887 2.0280437 3.1697378 -0.78813463 -3.322587 1.6562314
0.40199333 -0.09281177 0.081318066 1.8455416 -0.14301462 -0.8172765 0.5102281 -1.9467181
0.22241853 1.0219874 0.21930906 0.9354054 -0.58011675 0.05264149 -0.25390652 0.093223564
-1.3003743 -0.65636647 0.5010454 0.2785103 -0.15412296 0.5265207 1.0788323 0.9857238
-1.2295696 -0.4843415 2.0810606 -1.7185297 0.90994966 0.67679214 -0.46342725 2.9482236
-2.1270294 0.43359262 -0.7737847 -3.2575376 1.2858272 0.37062773 -0.87120134 0.7621441
0.18662961 -1.1663843 -0.73096365 -0.32283276 -0.10720261 -1.8849926 -0.7616866 0.6314387
1.4138565 -0.47421852 -0.27542445 -1.8441476 -1.2214044 0.58707154 1.8429596 -0.27629012
-0.48763096 -2.7920823 0.4728484 -1.5028329 0.17233053 0.5380008 0.8120803 -0.28908405
-0.52042645 2.9465044 -1.1632626 4.664051 0.030109541 -0.3535123 0.40432066 -4.647351
0.47673485 0.37066406 0.8946272 -0.5088116 -1.2775477 -1.9148084 -1.2508404 -1.8734212
-1.6638051 0.04488929 0.071150415 -5.326717 -1.0416454 -0.7032462 -4.95847 -0.39055434
-0.91719186 -2.305504 -5.466262 1.0410571 -1.8450453 -0.9823464 -1.2898237 3.2395551
0.027560202 0.97985834 -0.5477797 2.1422064 -0.5743988 2.349511 -2.1779814 -2.0475414
0.56285816 -0.89398354 -3.1294637 -0.16735409 -1.1891575 -4.7932343 1.2974205 -1.5012832
1.2384778 1.4437538 0.8433349 0.72351366 -0.00038351657 1.4179113 1.348213 3.5486178
-1.1040258 -2.4723449 0.94679165 -0.41633955 0.0781364 -0.21192218 -2.3790386 0.8106601
0.90667784 -3.871487 -1.3702043 -0.38671136 1.8111286 1.0928226 -1.519309 1.6200298
00000000: 0753 c2bd 7872 083f ad33 a3be 9329 95bf
00000010: 9dfd 0dbf d81c 1ebf cfb5 18c0 9bdb dcbe
00000020: de72 1f3f 28ee 30bf 18fc ccbf ba00 32bf
00000030: 9bb6 2c40 7e17 3e3e 45ef 1640 0f01 3c40
00000040: e67e 33bf 5c86 893f 45d2 b9bf 3c79 8ebf
00000050: 5679 383f 4148 01c0 e039 773f 33c1 eebf
00000060: 7ffc 03bf 5766 9abf a613 7bbe 1953 ec3f
00000070: 6905 7c3e c671 15be a6ad f1bf 8d63 1b40
00000080: 7ea4 31bf b4ba 8abf 0e1c e83e bf02 1cbf
00000090: 65f5 513e d45b 8dbd 0493 d33f c4b4 8abf
000000a0: 886b 723f a0ca 063f 5d34 edbd 8cf5 223e
000000b0: 9b08 4f3f c5d7 28bf b50f bcbd e867 97be
000000c0: 2343 693e 0e4d cfbe 2cc7 81bf 63fc 3d3f
000000d0: 4a9c 0d3f 480b 1bc0 57c9 01bf cb80 d83f
000000e0: 2f92 4cbf 84ae b5be f586 3440 d992 db3f
000000f0: cfac 05be 91e3 b43e 5d75 c03f caad 0a3f
00000100: 5e15 7abf 210d c2be eecd 3cbf 3717 07bf
00000110: abd7 993f 3658 233f f948 85bf 1c50 f93f
00000120: 6d53 9d3f 7c9c 90bd df65 8bbf b233 4dbf
00000130: 4f94 3fbf 51ea 13c0 b7e3 30bf 6ef5 aebf
00000140: 570b 423d 17ce 9a3f dfe7 533f ffef 28bf
00000150: d362 8a3f d1cd 5b3f 513b 3c3f f83b 683f
00000160: c386 38bf 01f1 383f 1fca 46be 756c 8840
00000170: 45d3 a6bf 1117 adbd 5d7c 0c40 c055 9d3f
00000180: a432 dcbf e4fb 8d3f 7687 a3bf 61b5 9ebf
00000190: 20d2 473f 8c1d c23f f74d 1ac0 1469 bbbd
000001a0: 57e5 89c0 8dab 92c0 b909 533f a642 c940
000001b0: de00 393f 920c 6bbf 1868 e3be eaed 2240
000001c0: b5f5 583f 63eb 8ec0 c030 643f 78cb 0140
000001d0: fcdc 4a40 31c3 49bf 44a5 54c0 64ff d33f
000001e0: 12d2 cd3e 1914 bebd 168a a63d b53a ec3f
000001f0: 6d72 12be 0839 51bf 4f9e 023f 0f2e f9bf
00000200: afc1 633e 7cd0 823f 8e92 603e ba76 6f3f
00000210: 8882 14bf 9a9e 573d 0900 82be ffeb be3d
00000220: aa72 a6bf a207 28bf 8344 003f e798 8e3e
00000230: 69d2 1dbe 10ca 063f 2d17 8a3f 6558 7c3f
00000240: 8962 9dbf 9cfb f7be 1930 0540 c8f8 dbbf
00000250: 76f2 683f 4042 2d3f 5646 edbe b2af 3c40
00000260: 4021 08c0 daff dd3e c116 46bf 7f7b 50c0
00000270: fc95 a43f ebc2 bd3e 0d07 5fbf e01b 433f
00000280: d51b 3f3e 154c 95bf 6f20 3bbf 564a a5be
00000290: 0b8d dbbd 7047 f1bf e5fd 42bf f7a5 213f
000002a0: 40f9 b43f c5cc f2be 6f04 8dbe 070d ecbf
000002b0: fb56 9cbf 524a 163f 1ae6 eb3f e675 8dbe
000002c0: c4aa f9be 7ab1 32c0 2f19 f23e d45c c0bf
000002d0: 6a77 303e 6cba 093f 7fe4 4f3f d302 94be
000002e0: ab3a 05bf 8793 3c40 cae5 94bf e83f 9540
000002f0: 49a8 f63c 90ff b4be 1e03 cf3e 19b7 94c0
00000300: 9716 f43e aec7 bd3e 4a06 653f 7a41 02bf
00000310: af86 a3bf 7118 f5bf 8a1b a0bf 44cc efbf
00000320: 91f7 d4bf d5dd 373d 4fb7 913d 7774 aac0
00000330: a354 85bf f107 34bf c9ab 9ec0 bdf6 c7be
00000340: 16cd 6abf 618d 13c0 9eeb aec0 5c41 853f
00000350: 722a ecbf 0e7b 7bbf f118 a5bf df54 4f40
00000360: efc5 e13c ffd7 7a3f 4a3b 0cbf e919 0940
00000370: cd0b 13bf 635e 1640 0c64 0bc0 eb0a 03c0
00000380: 7917 103f 1bdc 64bf 2249 48c0 df5e 2bbe
00000390: 5036 98bf 2d62 99c0 e011 a63f 0c2a c0bf
000003a0: 7186 9e3f edcc b83f cce4 573f 3138 393f
000003b0: b912 c9b9 1e7e b53f 3e92 ac3f 8e1c 6340
000003c0: b850 8dbf e63a 1ec0 f060 723f 752a d5be
000003d0: fa05 a03d 2102 59be 2b42 18c0 6c87 4f3f
000003e0: 0a1c 683f 71c6 77c0 db62 afbf 08ff c5be
000003f0: 10d3 e73f 9ce1 8b3f b878 c2bf 235d cf3f

lstm.weight_hh_l1 f4 [40, 10]
0.14567511 1.5980959 0.83278507 -1.7591128 -0.6350944 1.3240774 -2.2842622 -0.8986054
-0.116407454 1.4229462 -0.53728074 0.54405504 -0.34804624 -0.41286138 0.8224472 -2.117885
0.8500487 0.06328713 -0.05285518 3.9647639 -3.0267575 -0.41747087 0.3197576 1.0937643
0.07086967 0.71220034 -0.66364443 -0.72464496 0.36168578 -1.4937402 -0.8515434 0.45135108
-1.6068182 -0.11994951 -2.668443 -0.29787523 1.1985923 -1.3508186 0.1711191 -0.26526955
-2.3222082 0.48057294 0.8524021 -0.49811608 -0.4593299 0.82988536 0.7585841 -1.7441596
0.08040463 2.2893186 -3.27999 -0.3574927 -1.5069219 0.4833344 1.4668397 -0.8592437
3.396512 -1.9811218 0.32021582 5.767952 -0.9024507 0.58645844 -0.12660328 2.1621573
-0.1482533 -1.060397 -0.1427898 1.0765538 -0.40339002 -1.1973692 -0.22824754 0.43216094
-1.1718632 -1.3107206 -0.7844315 -0.42452702 -0.5734914 -1.2731292 -0.7437359 0.6935193
-4.895297 -0.10035739 -0.77666175 4.7395325 0.59406734 -0.6533649 0.301105 1.40045
-0.6525323 0.31043878 -2.5839813 1.0621217 1.6697686 -1.5451078 -2.6798837 -2.2351322
-3.349091 -3.3896627 0.5214656 -3.0523062 -0.36166656 0.37049812 0.19721751 -0.51579297
1.6616175 -1.1844603 0.058678642 -0.04669989 -0.90634584 4.0635953 -0.12864457 -0.39869517
-0.462152 -1.8634456 -1.28626 0.22773427 -0.38313204 -0.50645524 0.094325274 0.24925873
-0.6964067 0.4638803 0.6847678 -0.35750112 0.49370193 0.89573354 -0.19206908 -1.7827346
-0.68866634 1.3134271 -1.096327 -0.8139415 3.2492473 0.97762465 -0.11927215 -0.84678084
-1.8534428 -1.6930475 0.9063081 0.44685215 -1.634584 -2.6692924 2.0932138 -0.036492754
-0.2133534 -0.33096415 -1.0612286 0.67753106 -0.39644626 1.4457967 -3.9573157 -1.1938996
3.0225492 1.7561352 -0.74354416 -0.5115811 1.0112554 2.1767876 -0.830467 1.8035831
0.3337083 1.7131022 1.6569182 -0.9371623 0.53156805 0.5545757 1.1904317 0.8843152
2.2857356 0.8995341 0.070370644 -0.20261377 -0.592436 -1.5489414 1.0933213 3.0537755
-2.2570932 -0.20214878 1.512062 -3.0268934 -3.0820754 -0.66701865 1.1695236 1.483982
-1.434182 0.28856686 -0.67562383 -2.9790983 0.95852786 0.4480993 -1.8536285 0.8565102
1.9656559 2.622919 0.1288121 -1.5347406 -2.206037 -3.1029952 2.471305 5.1714926
-0.70166814 1.0072999 -0.6628219 -0.119212456 1.2362428 -1.7658688 1.820682 1.0061331
0.10348261 -3.3926837 0.5482002 -0.18007337 0.0323129 -1.1153005 0.019417148 -0.41391215
-0.51859134 0.14988992 0.7409751 -1.5106663 -4.802304 0.08673206 -1.5153754 -1.5406102
-2.1400967 2.7303772 -1.3246244 -0.9361974 -0.49545133 3.662027 -1.3438772 1.031337
-1.713419 -1.3394082 -0.05665731 -1.8422086 0.6302385 -0.78750855 0.5242622 3.6606057
-3.0033906 -0.66482705 3.0701947 1.8039179 -1.9111469 -0.5536593 0.11106076 1.4137584
1.2661166 0.1429216 7.6684356 1.9177016 -4.897707 -2.214995 -0.6931883 -0.26066217
00000000: db2b 153e 688e cc3f 6731 553f 9c2a e1bf
00000010: 8c95 22bf 5e7b a93f 5a31 12c0 010b 66bf
00000020: 0867 eebd 1a23 b63f 3b8b 09bf 3147 0b3f
00000030: 1e33 b2be 9162 d3be e68b 523f 6e8b 07c0
00000040: cb9c 593f af9c 813d ac7e 58bd b1be 7d40
00000050: 65b6 41c0 bebe d5be 45b7 a33e 7800 8c3f
00000060: 1e24 913d c352 363f 9ae4 29bf 5582 39bf
00000070: e12e b93e e132 bfbf c0fe 59bf 7d17 e73e
00000080: 38ac cdbf 17a8 f5bd c5c7 2ac0 1a83 98be
00000090: 796b 993f a0e7 acbf d839 2f3e 69d1 87be
000000a0: 0f9f 14c0 a80d f63e 0637 5a3f 1209 ffbe
000000b0: 4a2d ebbe 5e73 543f 9132 423f 9f40 dfbf
000000c0: 2fab a43d 3284 1240 5beb 51c0 4809 b7be
000000d0: d1e2 c0bf 9b77 f73e 67c1 bb3f 65f7 5bbf
000000e0: 7460 5940 6695 fdbf 54f3 a33e 1093 b840
000000f0: 0207 67bf 2422 163f 4aa4 01be c960 0a40
00000100: b7cf 17be 17bb 87bf 7d37 12be 84cc 893f
00000110: 2389 cebe 6543 99bf b9b9 69be 3344 dd3e
00000120: 9dff 95bf b1c5 a7bf 81d0 48bf 9b5b d9be
00000130: 55d0 12bf e6f5 a2bf 7a65 3ebf 7b8a 313f
00000140: 46a6 9cc0 2d88 cdbd 4ed3 46bf 40aa 9740
00000150: cc14 183f ec42 27bf 6f2a 9a3e f241 b33f
00000160: 5b0c 27bf d5f1 9e3e f35f 25c0 9bf3 873f
00000170: faba d53f 18c6 c5bf 3783 2bc0 680c 0fc0
00000180: 8257 56c0 3cf0 58c0 c57e 053f fc58 43c0
00000190: 5c2c b9be eeb1 bd3e 63f3 493e 020b 04bf
000001a0: e2af d43f 659c 97bf 0459 703d 6248 3fbd
000001b0: 4806 68bf f908 8240 67bb 03be c621 ccbe
000001c0: 309f ecbe 6385 eebf 2ba4 a4bf 2c33 693e
000001d0: e229 c4be 0da7 01bf 9c2d c13d ae3d 7f3e
000001e0: b647 32bf b881 ed3e f14c 2f3f 630a b7be
000001f0: 80c6 fc3e cb4e 653f c2ad 44be a630 e4bf
00000200: 704c 30bf 611e a83f 7154 8cbf 785e 50bf
00000210: abf3 4f40 9c45 7a3f f544 f4bd a1c6 58bf
00000220: 9d3d edbf c8b5 d8bf cf03 683f cec9 e43e
00000230: 0c3a d1bf b0d5 2ac0 37f7 0540 6d79 15bd
00000240: 5079 5abe 2274 a9be 57d6 87bf ad72 2d3f
00000250: 01fb cabe de0f b93f a944 7dc0 b4d1 98bf
00000260: 7271 4140 0ac9 e03f e958 3ebf fbf6 02bf
00000270: d170 813f 7d50 0b40 7c99 54bf d0db e63f
00000280: d0db aa3e ef46 db3f e515 d43f dee9 6fbf
00000290: d814 083f acf8 0d3f 1160 983f 7b62 623f
000002a0: 7e49 1240 de47 663f 7c1e 903d fc79 4fbe
000002b0: e3a9 17bf b643 c6bf f4f1 8b3f 0f71 4340
000002c0: 3774 10c0 1700 4fbe 3f8b c13f 9fb8 41c0
000002d0: b940 45c0 bcc1 2abf f3b2 953f 1ff3 bd3f
000002e0: 4793 b7bf 09bf 933e aff5 2cbf 8ca9 3ec0
000002f0: 1562 753f 456d e53e b343 edbf 4144 5b3f
00000300: 9d9a fb3f e8dd 2740 52e7 033e 6172 c4bf
00000310: b62f 0dc0 7997 46c0 dc29 1e40 de7c a540
00000320: 86a0 33bf 34ef 803f b2ae 29bf a925 f4bd
00000330: 343d 9e3f fd07 e2bf 1c0c e93f f8c8 803f
00000340: b1ee d33d bb21 59c0 d956 0c3f 2765 38be
00000350: 885a 043d 2bc2 8ebf b610 9f3c 4bec d3be
00000360: 67c2 04bf be7c 193e 8bb0 3d3f 835d c1bf
00000370: 79ac 99c0 94a0 b13d d2f7 c1bf b732 c5bf
00000380: 58f7 08c0 80be 2e40 4b8d a9bf a2aa 6fbf
00000390: ccab fdbe a65e 6a40 2b04 acbf da02 843f
000003a0: 5051 dbbf ba71 abbf 7f11 68bd 7ecd ebbf
000003b0: 4f57 213f 299a 49bf 0c36 063f 5d47 6a40
000003c0: 8d37 40c0 1b32 2abf 127e 4440 c8e6 e63f
000003d0: 76a0 f4bf 9ebc 0dbf d373 e33d 09f6 b43f
000003e0: 1c10 a23f 0a5a 123e d363 f540 3f77 f53f
000003f0: 04ba 9cc0 7ac2 0dc0 ca74 31bf 8375 85be

lstm.bias_ih_l1 f4 [40]
-1.185331 -0.6932204 -0.7649794 -1.1689306 -0.49929458 -2.211149 -1.2533227 -1.4324389
-0.86011 -2.3601568 1.0069251 0.6642051 1.5449222 0.3888875 0.19352426 -1.7109208
1.5747569 1.5230794 -0.002409074 1.0272477 -0.35576922 -0.022356333 0.67213196 -0.4905496
0.35132393 1.3360332 -0.26772925 0.80672264 0.6532875 -0.7289973 -1.0691664 0.09219392
-0.5317108 -0.39406943 0.3319851 -1.236021 0.9105808 0.44567114 -0.04781284 -2.1196225
00000000: edb8 97bf e476 31bf b1d5 43bf 859f 95bf
00000010: 8aa3 ffbe 7783 0dc0 e16c a0bf 285a b7bf
00000020: 2b30 5cbf cf0c 17c0 ece2 803f 5809 2a3f
00000030: 03c0 c53f 431c c73e 392b 463e 74ff dabf
00000040: a291 c93f 44f4 c23f 8ee1 1dbb da7c 833f
00000050: 6227 b6be a124 b7bc d710 2c3f 5129 fbbe
00000060: bbe0 b33e 2303 ab3f cf13 89be 6085 4e3f
00000070: d93d 273f 919f 3abf 72da 88bf 2ad0 bc3d
00000080: 331e 08bf 78c3 c9be f3f9 a93e f035 9ebf
00000090: d31b 693f 022f e43e 66d7 43bd e5a7 07c0

lstm.bias_hh_l1 f4 [40]
-1.2080101 -0.20649886 -0.7791467 -1.1200696 -0.98531455 -2.0740225 -1.1375042 -1.4129344
-0.33403757 -2.432687 1.0820203 1.130009 1.4417201 0.15771319 0.055907868 -1.7447697
1.5973027 1.5394458 -0.149284 1.5576105 -0.5171263 0.0062481267 0.67505187 -0.16778232
0.14303745 1.6563479 -0.0069621466 0.5720131 0.25055912 -0.87656146 -1.2727036 -0.35244066
-0.8780404 -0.38695937 0.30589724 -1.2987535 1.4968616 0.007838489 -0.29766732 -1.8853943
00000000: 13a0 9abf 7074 53be 2876 47bf 715e 8fbf
00000010: 933d 7cbf c9bc 04c0 bd99 91bf 09db b4bf
00000020: f906 abbe 25b1 1bc0 a47f 8a3f 23a4 903f
00000030: 498a b83f 917f 213e a6ff 643d 9d54 dfbf
00000040: 6a74 cc3f 8f0c c53f e8dd 18be c85f c73f
00000050: 6462 04bf 16bd cc3b 33d0 2c3f 21cf 2bbe
00000060: 6978 123e 3503 d43f b822 e4bb 736f 123f
00000070: 4949 803e 5566 60bf f4e7 a2bf 1a73 b4be
00000080: 41c7 60bf 8a1f c6be 909e 9c3e 8e3d a6bf
00000090: 2999 bf3f 016d 003c da67 98be 9a54 f1bf

lstm.weight_ih_l1_reverse f4 [40, 20]
0.50705916 1.0994589 -1.0792502 -0.58401287 -1.0862253 0.44276446 1.4043399 -0.15315013
0.7408105 -2.1837656 0.56391215 -1.8554752 0.7230599 1.3485771 1.2765104 1.8710006
1.0069172 1.8299326 -1.9563569 -0.55341434 0.7464106 -0.46427107 0.7346659 2.8610432
-1.883899 -0.202598 -0.3056963 -0.69525295 -1.8108773 -2.9183033 0.3516192 0.14787664
-0.40743586 1.936165 1.520319 -2.0237038 0.20194247 0.5605608 -0.10396767 0.408306
-0.580129 1.370746 -0.2962403 -1.6835101 -0.5687933 -0.56128573 -1.3051139 -0.07372396
-1.4945288 -1.3451904 -0.030662427 1.796834 0.19074558 0.45524827 0.5688983 0.36317626
-0.0693361 0.20797604 -0.10273314 2.3970568 -0.059475426 -0.31810415 0.6670691 -0.41971755
0.41252843 0.66126627 1.1808349 1.2501729 -0.087687224 1.7954051 1.4261394 3.0972264
0.118079476 -0.10078297 0.30901238 -1.7269682 -1.0607848 0.84607846 0.9110027 1.1692295
-0.64333874 -0.1324913 0.06464863 -3.4200814 1.0317425 -0.45409766 -2.3599613 -1.16828
0.9789377 1.4898275 1.5999581 5.1581564 -1.3815278 -2.832406 0.6583781 2.6086028
-1.1445849 -0.006980736 2.8418837 -1.212698 -1.5693122 -0.24079183 -1.5454099 0.6654546
1.0456294 -0.406794 -3.055788 -1.1452187 0.3368899 0.111555725 0.7293017 3.851065
-1.6251558 -2.668893 -0.43178508 -0.29184297 -0.35069275 -0.34450847 1.559024 0.7606353
1.0580454 -1.5822664 -0.043704703 1.497953 -1.509061 -0.26290503 -0.9808587 1.1900856
1.2853669 -0.20481604 -0.8207306 1.1560919 1.4438378 -0.41314828 -5.258705 0.2645821
-0.017573627 -1.3282436 1.1573968 1.1782017 -1.1612746 2.3496263 0.08396788 1.6504283
-0.5881813 4.3983965 0.8402589 1.7099731 -3.4759855 -1.2575827 -0.45838445 -0.73366493
-1.3636222 0.18293577 -1.101162 -0.50147665 -0.88297004 0.0007896313 1.9753481 -0.70780724
0.6605603 -2.2648869 1.1162661 0.64055157 -0.4132378 -0.80777556 1.5138587 -0.79243094
3.325809 -3.9639845 -2.655924 0.22285831 -1.1573007 0.38369405 1.3642082 -2.2449915
1.1740302 -1.7397197 1.2013766 -1.3925205 0.035064865 -1.1768017 -1.3921137 0.28062597
-2.2160559 0.61333793 -1.0183371 1.0557735 -0.12290766 -0.3775575 0.06616041 1.1898417
0.50790024 0.9290038 -0.67219114 -0.084988326 -0.31801826 0.69940233 -1.0149478 0.20044507
-0.12271093 -1.8923162 0.12395611 -0.45270061 -0.031290315 0.055396803 0.70764786 0.4253283
0.5007616 -1.836231 -1.0636747 1.0482272 0.040961083 -6.131291 -0.60040534 3.1737413
1.7951646 -1.0371288 2.2886288 1.3014499 0.39568493 -0.6120027 -1.5418082 -0.1675082
-0.45367035 -0.9925002 2.0703106 -0.6586811 1.4070545 -4.4707165 -0.2661195 -0.4191221
3.145708 0.4605534 3.9511716 2.7283003 1.3766968 2.2561738 4.824976 0.41332033
-1.6981938 0.85415536 -0.78783643 0.19803013 -0.007159211 0.087061696 -0.7864825 -1.0496817
-0.070486166 0.8872704 -0.22730137 0.3942869 -3.138077 -1.532962 0.35329074 -1.737078
00000000: a1ce 013f 12bb 8c3f df24 8abf de81 15bf
00000010: 6e09 8bbf 06b2 e23e 69c1 b33f 63d3 1cbe
00000020: c2a5 3d3f d1c2 0bc0 8c5c 103f 3680 edbf
00000030: 741a 393f 2d9e ac3f b164 a33f f37c ef3f
00000040: aae2 803f 3b3b ea3f e769 fabf 90ac 0dbf
00000050: c414 3f3f f0b4 edbe 1013 3c3f 551b 3740
00000060: 9a23 f1bf da75 4fbe 3a84 9cbe 19fc 31bf
00000070: d4ca e7bf 7bc5 3ac0 6f07 b43e f96c 173e
00000080: 6f9b d0be 41d4 f73f d099 c23f 5d84 01c0
00000090: 02ca 4e3e ea80 0f3f 00ed d4bd 7c0d d13e
000000a0: 5683 14bf 9b74 af3f cfac 97be 427d d7bf
000000b0: 709c 11bf 6cb0 0fbf f90d a7bf 96fc 96bd
000000c0: b84c bfbf 332f acbf c52f fbbc a8fe e53f
000000d0: cf52 433e 4d16 e93e 52a3 113f 3df2 b93e
000000e0: 1600 8ebd acf7 543e c165 d2bd 6169 1940
000000f0: 819c 73bd 8cde a2be 0ac5 2a3f 38e5 d6be
00000100: ed36 d33e bf48 293f 9925 973f aa05 a03f
00000110: 5c95 b3bd d6cf e53f bc8b b63f f538 4640
00000120: a7d3 f13d 4d67 cebd df36 9e3e 4b0d ddbf
00000130: ccc7 87bf 9998 583f 7937 693f 50a9 953f
00000140: d9b1 24bf cdab 07be 8066 843d 9de2 5ac0
00000150: 2310 843f 7d7f e8be 9b09 17c0 338a 95bf
00000160: a99b 7a3f abb2 be3f 6dcb cc3f 9e0f a540
00000170: e7d5 b0bf 2446 35c0 788b 283f 59f3 2640
00000180: c281 92bf a8be e4bb 6ce1 3540 b039 9bbf
00000190: 39df c8bf 2292 76be fecf c5bf 3c5b 2a3f
000001a0: 2fd7 853f 4e47 d0be 0892 43c0 8796 92bf
000001b0: d57c ac3e 5477 e43d 84b3 3a3f d977 7640
000001c0: 1b05 d0bf 25cf 2ac0 ef12 ddbe 716c 95be
000001d0: 008e b3be 6a63 b0be 198e c73f ffb8 423f
000001e0: 086e 873f b587 cabf b403 33bd edbc bf3f
000001f0: e928 c1bf 7d9b 86be 8e19 7bbf ba54 983f
00000200: e786 a43f 4cbb 51be 671b 52bf d2fa 933f
00000210: adcf b83f 2c88 d3be 5047 a8c0 4e77 873e
00000220: 91f6 8fbc e303 aabf 9425 943f 50cf 963f
00000230: a5a4 94bf 4760 1640 5af7 ab3d 3c41 d33f
00000240: 0d93 16bf aabf 8c40 351b 573f 66e0 da3f
00000250: 8c76 5ec0 78f8 a0bf 5eb1 eabe 77d1 3bbf
00000260: 2c8b aebf 8453 3b3e e0f2 8cbf c660 00bf
00000270: 530a 62bf 42ff 4e3a 35d8 fc3f db32 35bf
00000280: 7b1a 293f e8f3 10c0 cfe1 8e3f 30fb 233f
00000290: e893 d3be 61ca 4ebf 1fc6 c13f c1dc 4abf
000002a0: 0eda 5440 ecb1 7dc0 a9fa 29c0 f834 643e
000002b0: 6e22 94bf 8c73 c43e 609e ae3f f1ad 0fc0
000002c0: 9f46 963f 23af debf b5c6 993f 1d3e b2bf
000002d0: 2da0 0f3d 70a1 96bf c830 b2bf 35ae 8f3e
000002e0: dcd3 0dc0 b703 1d3f df58 82bf 9623 873f
000002f0: 03b7 fbbd 374f c1be 1c7f 873d bc4c 983f
00000300: c005 023f 31d3 6d3f b814 2cbf 5c0e aebd
00000310: 4ad3 a2be 080c 333f cfe9 81bf 7941 4d3e
00000320: de4f fbbd 6b37 f2bf b3dc fd3d 60c8 e7be
00000330: 462a 00bd c2e7 623d 6928 353f a2c4 d93e
00000340: ea31 003f 9e09 ebbf 7e26 88bf 4f2c 863f
00000350: cfc6 273d 8933 c4c0 2ab4 19bf 941e 4b40
00000360: f4c7 e53f a3c0 84bf e578 1240 e995 a63f
00000370: 3797 ca3e 35ac 1cbf f959 c5bf 4587 2bbe
00000380: 7b47 e8be 7e14 7ebf f87f 0440 539f 28bf
00000390: 5d1a b43f 1c10 8fc0 d140 88be 2c97 d6be
000003a0: 4853 4940 a8cd eb3e ffdf 7c40 799c 2e40
000003b0: 9a37 b03f 2765 1040 3466 9a40 b99e d33e
000003c0: 6a5e d9bf eda9 5a3f a6af 49bf 69c8 4a3e
000003d0: d197 eabb 674d b23d eb56 49bf f85b 86bf
000003e0: 0d5b 90bd 2724 633f b1c1 68be f9df c93e
000003f0: 41d6 48c0 1938 c4bf 86e2 b43e 9258 debf
