sparrow/data/networks/adf/adf_sanborn_min_network_v1.pt (torch, 23243 bytes, 17 tensors)

lstm.weight_ih_l0 f4 [40, 20]
000000 8b 99 5d 3e 7e 91 ff 3f bb d6 6e 3f 1d 98 b1 3f
       0.21640603 1.9966276 0.932964 1.3874546
000010 80 98 89 c0 fa 0d f0 be b6 9d cb 3e 7e 6d 8f bf
       -4.2998657 -0.46885663 0.3976876 -1.1205289
000020 f9 1f 0a bf f0 b9 4c bf 52 3c cd 3e c0 cb a3 be
       -0.53955036 -0.7997122 0.40085083 -0.31991386
000030 8e 47 17 3e ce 96 78 3f 7e 72 a9 3e ca 5c e2 bf
       0.1477339 0.9710511 0.33095163 -1.7684567
000040 b3 92 2e 3e 43 95 88 3f 7a 91 b6 be a5 43 0d 3f
       0.17048149 1.0670551 -0.35657865 0.5518134
000050 d1 0f 28 3d 27 b3 28 bf ac 0c c8 3f 64 10 74 bf
       0.04103071 -0.65898365 1.5628867 -0.9533751
000060 72 3e c6 3f c0 cb ba 3f 48 8d 04 3f 6c c1 58 bd
       1.5487807 1.459343 0.5177808 -0.052918836
000070 42 95 fd c0 88 96 a5 3e aa 78 80 3e d6 59 9b 3d
       -7.92447 0.3234141 0.2509206 0.07585494
000080 ea cf c0 bf 3b 12 1b c1 38 07 a1 3f c3 4b d4 bf
       -1.506345 -9.691951 1.2580328 -1.6585621
000090 8e ca 65 c0 12 f1 81 bf a8 94 04 3f c5 f2 ac c0
       -3.590488 -1.0151694 0.5178933 -5.404635
0000a0 35 27 d7 3e 93 46 2d 3e 48 f8 62 bf df 43 c3 bf
       0.420221 0.16921453 -0.886601 -1.5255088
0000b0 c9 e3 93 bc 8c fc cc 3e a7 d2 68 3f ac 06 48 be
       -0.018052952 0.40036428 0.9094643 -0.19533795
0000c0 bf b5 3c 3f 61 0f b6 3e 25 90 a9 be ae dc 43 be
       0.7371482 0.35558608 -0.33117786 -0.19127151
0000d0 9a e6 8d 3d 71 21 08 bf db 6e 8a 3f 96 41 47 bf
       0.069287494 -0.5317603 1.081508 -0.7783445
0000e0 c3 da 4d 3f 6a 48 5e be ab 82 df 3e 70 aa 31 3e
       0.8041193 -0.21707311 0.4365438 0.17350173
0000f0 cd 87 93 3f cc 30 7a c0 ce cf 06 3e c5 31 ae bf
       1.1525818 -3.9092283 0.13165209 -1.3608938
000100 d2 73 a2 3f 45 cd 63 3e 71 bd 60 3f 4f 34 79 bf
       1.2691596 0.22246273 0.87789065 -0.9734544
000110 01 50 ea 3e af 87 b6 3e 9d 6a 2a bf 7b 36 87 3f
       0.45764163 0.35650393 -0.6656893 1.0563501
000120 0b 17 86 3f f0 38 53 bf f3 99 63 3f 15 3e d4 be
       1.0475782 -0.82508755 0.8890678 -0.41453615
000130 f3 8b 10 3f 69 41 88 c0 56 7f dc 3e 04 20 67 3e
       0.56463546 -4.2579846 0.430659 0.22570807
000140 80 6f 09 be 97 e2 29 c0 31 8b ef 3e 3d 07 f6 3d
       -0.1342144 -2.654455 0.46785882 0.12013099
000150 d8 88 40 3f ef 82 42 bf 50 65 9b 3e 7b 72 82 bf
       0.75208807 -0.7598104 0.30350733 -1.0191187
000160 f0 29 e2 3f 2e 76 28 c0 ec d8 b0 be b8 b8 24 bf
       1.7669048 -2.632213 -0.34540498 -0.6434436
000170 c9 84 1b bf c5 44 f7 bf f0 24 bb 3f 35 bc 58 c0
       -0.6074949 -1.9317862 1.4620647 -3.3864872
000180 38 b0 8e bf bb 67 9a bd 5f 84 09 3f 67 2e 99 be
       -1.1147528 -0.07539316 0.5371761 -0.29918215
000190 2e 20 16 c0 cb d8 90 bf 19 3a bc 3f 73 9c 8f 3f
       -2.345714 -1.131616 1.470523 1.121962
0001a0 f6 ca ac bf 94 28 0b bf 39 46 e8 bf bd de 35 bf
       -1.3499439 -0.5435879 -1.814643 -0.71042997
0001b0 c9 1b ac 3f 4c 54 bb bf 2d 89 e5 bf b5 25 f9 bf
       1.3445979 -1.46351 -1.7932488 -1.9464632
0001c0 23 2f ce bf 9d 5b 43 bf 2f b5 31 3f 17 ec ea bf
       -1.6108135 -0.76311666 0.6941709 -1.8353299
0001d0 d8 73 b5 be 4a d7 5b be f9 0b e0 be 0d 03 4e be
       -0.35439944 -0.21468845 -0.43759134 -0.20118351
0001e0 d6 c1 0d bf b6 bb 4a bd 3e 63 84 3e 20 1f e8 3e
       -0.55373895 -0.04949542 0.25856966 0.45336246
0001f0 fd e6 c0 3e 01 48 72 bf 5f 0c 1c bf 22 d1 22 3e
       0.3767623 -0.9464112 -0.60956377 0.1590009
000200 c9 ff 98 3f cf 1d be 3e 83 ce e0 be 50 e6 74 bf
       1.195306 0.37132117 -0.43907556 -0.9566393
000210 d5 c0 9c bf 97 cd 81 bd 4b fa 7c 3f 7a 02 5b bf
       -1.2246348 -0.06338041 0.98819417 -0.85550654
000220 91 2a ac be 4e e2 2d 3f 42 88 a9 3f 7d 69 ab be
       -0.33626226 0.6792344 1.3244708 -0.3347892
000230 ea 57 34 bf 82 ca 14 3d 97 f5 1b 3f da 58 8d bf
       -0.70446646 0.03632594 0.60921615 -1.104274
000240 a6 57 4c 3f b0 90 cc be ad a6 15 c0 51 d3 9b be
       0.7982124 -0.39954138 -2.338298 -0.3043466
000250 1f c1 3f 3f c7 ba 00 c0 0f 0d d5 3e c8 d4 56 bf
       0.74904054 -2.0114 0.41611525 -0.8391843
000260 2e 80 83 bf 0a 11 1b be 66 3b 82 3f 92 0a 81 bf
       -1.0273492 -0.15143219 1.0174377 -1.0081351
000270 37 cc a7 be e0 c8 2e c0 06 ac 9a bf e9 97 49 be
       -0.3277299 -2.7310104 -1.2083747 -0.19686855
000280 95 d1 8d bf 2c 45 a1 3e 6e 7f 39 3d 12 c6 1d bf
       -1.1079584 0.31498086 0.045287542 -0.61630356
000290 4f fc fc 3e 26 77 a4 be c1 13 9e bc 8f c8 06 c0
       0.49411246 -0.32122153 -0.019296529 -2.1059911
0002a0 89 10 35 3f ee 22 2c bf 12 f8 0b bd 78 2d fc be
       0.70728356 -0.672408 -0.034172125 -0.4925344
0002b0 87 a4 1a bf 12 67 af bf 6c dd 30 3f 96 0b 57 bf
       -0.604073 -1.370333 0.6908786 -0.84002054
0002c0 fe e2 36 bf b4 2a 8f bf 9e 83 ac 3f 02 18 4a 3e
       -0.7144011 -1.1184907 1.3477666 0.19735721
0002d0 10 fe 04 c0 26 76 34 bf e1 7d 45 3f aa c4 fa 3d
       -2.0780067 -0.7049278 0.771452 0.12244542
0002e0 c5 30 cc be 63 46 2c bb 92 36 a9 be d0 74 58 3d
       -0.39880958 -0.002628707 -0.33049446 0.052845776
0002f0 d1 15 ca bf 0f 43 f3 b9 79 6a c4 c0 02 da e7 be
       -1.5787908 -0.00046398534 -6.137997 -0.45283514
000300 31 df 8f 3d 94 5d 5d bf 0a ec 34 3e 96 e6 c6 be
       0.07024992 -0.86470914 0.17668167 -0.38847798
000310 48 5a c9 c0 4e 8e 2e 3e 76 b4 e8 be 57 bc 19 be
       -6.2922707 0.17046472 -0.4545018 -0.15013252
000320 7e 46 10 40 f8 1b 0f 40 82 16 42 41 9c d0 82 be
       2.2543025 2.236082 12.130495 -0.2554978
000330 ff 89 4c bd d7 d1 fd 40 81 7a 27 40 bd c9 5a bf
       -0.04993629 7.931865 2.616852 -0.8546408
000340 81 54 55 41 f1 48 65 3f e4 3b 6e 41 88 3e 28 41
       13.333131 0.89564425 14.889622 10.515266
000350 f6 80 b1 3e 9f 40 2c bd 7b f1 64 41 14 62 97 3d
       0.34668702 -0.042053815 14.308955 0.07391754
000360 22 86 98 40 01 bc d9 40 da 9e dc bf 36 a9 5d bf
       4.7663736 6.8041997 -1.7235978 -0.8658632
000370 73 4e 3b 41 90 24 c3 3f a1 6e 69 41 92 49 00 be
       11.706653 1.5245533 14.589509 -0.12528065
000380 67 03 4d 41 75 90 e8 40 70 0d 3e 3e 3c 96 bc 3f
       12.813331 7.267634 0.18559813 1.4733348
000390 be db 74 bf 76 ae 64 41 5b b7 00 3e d1 fc dd be
       -0.956478 14.292593 0.12569945 -0.43356946
0003a0 9b fe e0 40 1b b9 2c be d3 9f 86 40 35 92 59 bf
       7.03108 -0.16867487 4.20701 -0.8498872
0003b0 b7 ee 94 3f ee 46 85 3f d7 75 7d bf 54 3e 63 be
       1.163535 1.0412271 -0.99007934 -0.22191745
0003c0 2f 34 97 3f bb ec 57 41 91 e9 94 bf 12 e9 2d bf
       1.18128 13.495296 -1.1633779 -0.6793376
0003d0 87 4c a5 40 63 49 4b 3f 74 20 32 40 13 b0 71 40
       5.1655917 0.79408854 2.7832308 3.7763717
0003e0 17 e2 76 41 ac 57 5b 3f 2a ca 30 41 73 ba 10 41
       15.430198 0.8568065 11.049356 9.04552
0003f0 3c 99 62 bd 18 56 05 bf f7 44 20 41 5f fa b1 3f
       -0.055321917 -0.52084494 10.016837 1.3904532

lstm.weight_hh_l0 f4 [40, 10]
000000 ea c8 f4 3f 33 e6 b0 be 8d f2 f2 be 47 2f 9d 3f
       1.9123814 -0.34550628 -0.47450677 1.2280053
000010 b5 ec c6 be da b3 f7 3e b4 6e 55 3f 60 a5 2c bf
       -0.38852468 0.48379403 0.83372045 -0.6743984
000020 5f 96 b7 bd b2 0a 34 be 98 d0 69 bf eb 47 32 40
       -0.08964228 -0.17582205 -0.91333914 2.7856395
000030 1e 16 04 bf 42 41 a4 bf b0 ac 0a c0 7d ca b9 be
       -0.5159625 -1.2832415 -2.16679 -0.362873
000040 97 ba a5 be 4c a1 39 3f d4 56 bf be dd 4d 07 bf
       -0.3236892 0.72511744 -0.37370932 -0.52853185
000050 bc b5 91 3e 49 64 01 3f 14 58 fa bf 80 55 a0 be
       0.28458965 0.5054365 -1.9558129 -0.3131523
000060 c0 e7 b4 3d 83 13 56 3e 07 30 5d c0 f7 9f c0 3d
       0.08833265 0.2090588 -3.4560564 0.09405511
000070 9d e7 84 3e 52 ac 69 be b2 86 3a 3f 55 6e 5a c0
       0.25957957 -0.22819641 0.7286178 -3.4129841
000080 81 72 3c bf fe c0 22 3f ac aa 10 bf 3d 56 52 bf
       -0.7361222 0.6357573 -0.56510425 -0.8216284
000090 98 14 af bf 6a 0d 4a bf 6c 81 8b 3f 57 ab 02 3f
       -1.367816 -0.7892672 1.0898871 0.51042694
0000a0 32 30 a0 3e 43 9b c0 3f a3 0e 91 be aa 6c ee bd
       0.3128677 1.5047382 -0.2833148 -0.1164182
0000b0 f7 35 ad 3e c7 17 d9 be 22 59 ac 3e be da 06 3e
       0.33830234 -0.42400953 0.33661753 0.13169381
0000c0 b7 3a a2 3e eb 3b 3e 3e f6 73 36 be 17 35 69 3d
       0.3168542 0.18577544 -0.17817673 0.056935396
0000d0 e7 dc c7 3f 5b f4 0d bf 8b 4a 72 bc 71 e1 04 bf
       1.5614289 -0.5545098 -0.01478828 -0.51906496
0000e0 f4 75 fe 3e 7a d3 30 3e ee 37 84 be 87 bc d1 3d
       0.49699366 0.17268172 -0.2582392 0.10241037
0000f0 44 2f 2a 3e 33 b4 e9 bd 3f e3 a8 3d 91 fa 6f bd
       0.16619593 -0.114113234 0.08246469 -0.058588568
000100 7b 68 12 be b1 6b 26 3f 56 3b 8b be 5a ff 89 be
       -0.14297669 0.65008074 -0.27193707 -0.2695263
000110 25 36 5e be 3f 4c b6 bc 7d 46 af 3f b0 66 09 3f
       -0.21700342 -0.022253154 1.3693386 0.53672314
000120 0a 68 c4 3e a3 67 22 bf 32 56 61 3f 8e 38 80 bd
       0.38360626 -0.6343939 0.8802215 -0.06260787
000130 ba ff 61 3e 81 2f 05 bf 8b db 19 bf 06 c7 1a 3f
       0.22070208 -0.5202561 -0.6010062 0.60459936
000140 1b 0a 13 bf 13 d2 24 c0 fc 28 7a 3e b4 68 f4 bf
       -0.57437295 -2.575322 0.24429697 -1.9094453
000150 d9 2a bd 3d 3b e0 a9 bd de fd 9e be 06 3a c2 3e
       0.09236688 -0.08294722 -0.3105306 0.37934893
000160 47 35 b6 be e6 01 10 3f 60 55 e4 3d 0b c4 7c 3f
       -0.35587522 0.56252897 0.111490965 0.9873664
000170 8e 30 b5 3c e2 6f a3 3d cb 85 80 3d 47 fe 4f 3e
       0.02211788 0.07980324 0.06275519 0.20311843
000180 61 79 5d be bd b1 cf bf f6 f4 3b bf cc be 9a 3e
       -0.21628334 -1.6226116 -0.73420656 0.3022369
000190 5a 11 57 be be c0 04 40 9c ba ec 3f 44 55 f6 3d
       -0.21002713 2.074264 1.8494449 0.12027982
0001a0 3d 75 7f 40 df 86 a9 bf 4a a7 78 40 cc 7a 2c 40
       3.9915307 -1.3244284 3.8852105 2.694995
0001b0 17 6f fa 3f 53 16 c4 3e fb 29 7b 3e f5 f3 da be
       1.9565152 0.38298282 0.24527733 -0.4276425
0001c0 de 50 41 3f ee fe 82 c0 d0 61 f0 3f 4a 46 6c 3f
       0.7551402 -4.0936193 1.877985 0.9229475
0001d0 70 26 bd be 7b 7f 98 bf 3e e1 02 c1 59 5b 14 3e
       -0.36943388 -1.1913904 -8.179991 0.14487971
0001e0 a1 d0 68 bf ad 3c 84 3e d4 30 44 bf d7 56 ad be
       -0.9094334 0.25827542 -0.76637006 -0.33855316
0001f0 6d 2b 87 3e fa 7d 07 c0 1b 96 81 c0 18 93 81 bd
       0.2640032 -2.117064 -4.0495734 -0.06326884
000200 ff be d5 3e a8 6a 05 3f 03 0f 33 40 8a ed 0b 3f
       0.4174728 0.5211587 2.7977912 0.5465933
000210 c6 ac 35 bf 29 95 1c 3f 73 2a 1e 3f 07 29 9e 3e
       -0.70966756 0.611651 0.6178352 0.30890676
000220 81 d2 85 bf 1f f8 3c be 76 2e 89 be 02 fc 12 bf
       -1.0454866 -0.18454026 -0.2679326 -0.57415783
000230 ea 33 db be 9d 4a 47 3f bf 3f e0 3e b4 6f 31 c0
       -0.42813045 0.77848226 0.43798634 -2.7724428
000240 37 1d 32 3e 9c ef 54 3e 8c fc b6 3e 29 cc cf 3d
       0.17393957 0.20794529 0.35739553 0.10146362
000250 2b 31 d8 be 76 29 82 be 7b 5a 0a c0 33 69 d5 3e
       -0.42225012 -0.25422257 -2.1617725 0.41681823
000260 a0 93 f7 bf d5 86 4e bf 20 fe cd 3d 3e ef 6a 3f
       -1.9341927 -0.8067449 0.10058236 0.91771305
000270 46 f4 3f 40 94 f2 3a 3b bd 39 ba 3e 1f 15 13 be
       2.9992843 0.0028525935 0.36372176 -0.14363526
000280 12 af 24 3f 58 5c fb bd 5b 13 8f bf 97 ab 40 bf
       0.64329636 -0.122734725 -1.1177782 -0.75261825
000290 5e c0 c1 be 96 23 69 3f 99 ac 5a bf 2d af 23 3f
       -0.37842077 0.91069925 -0.85419613 0.6393917
0002a0 ad 64 05 be 8b 10 06 be 97 ec fc bf 78 73 92 40
       -0.13026686 -0.13092248 -1.9759701 4.5765953
0002b0 94 2a eb 3f 79 fc 9f c0 7d ba 49 3e 03 e7 5f 3f
       1.8372369 -4.9995694 0.19700046 0.8746187
0002c0 1c c0 c2 40 cb 4f 56 bf 68 1e 29 3f af 0f db bf
       6.085951 -0.83715504 0.6606202 -1.7114161
0002d0 78 93 98 3e dc ed b0 bf f5 e4 7b bf b3 b2 53 c0
       0.2980001 -1.3822589 -0.98396236 -3.307782
0002e0 89 da 34 bf e5 de 2d bd 68 d6 5d bf b2 08 24 bf
       -0.7064596 -0.042448897 -0.8665528 -0.6407577
0002f0 35 05 bb bf 74 48 f4 bd d0 04 26 40 32 62 a4 3f
       -1.4610964 -0.11927882 2.5940437 1.2842467
000300 70 07 50 c0 cd bf 11 c0 97 1b 52 40 c3 b4 ab bf
       -3.250454 -2.2773316 3.282934 -1.3414539
000310 f6 50 b1 3f f6 c2 9e c0 78 fb 0e 40 74 2a bb 3f
       1.3852832 -4.961299 2.2340984 1.4622331
000320 b4 30 ee 3f f9 7d 41 bf 99 a3 df 3f 73 63 1c c0
       1.8608613 -0.75582844 1.7471801 -2.44357
000330 85 44 0f 3f ca 1f e0 bc fc e3 86 40 ae 0e 31 c0
       0.5596393 -0.027358908 4.21533 -2.766521
000340 2e 47 3e c0 df 6b 13 c0 2f d7 0b bf c5 61 d4 3f
       -2.9730945 -2.303459 -0.5462522 1.6592337
000350 a5 06 20 c0 30 88 b2 be c7 c2 fa bf 99 00 83 3f
       -2.5004056 -0.34869528 -1.9590691 1.0234557
000360 0e a7 f2 be 85 32 da 3f c5 5b 1b c0 f5 41 81 3f
       -0.47393078 1.7046667 -2.4274762 1.0098253
000370 4d 6a de be 4a 83 99 3f cf 33 8d c0 58 19 37 40
       -0.43440476 1.1993191 -4.4125743 2.8609219
000380 a7 4c 0d bf 83 0b 9c bf c9 e2 55 c0 22 91 60 bf
       -0.5519509 -1.2191013 -3.3419669 -0.87721455
000390 e3 70 93 3f 55 86 bd 3f bb e5 41 40 cc 53 b8 3e
       1.1518825 1.480662 3.0296466 0.36001432
0003a0 3a 8d 68 c0 c1 9e 27 c0 a0 3d f4 3e cc bc 28 bf
       -3.6336198 -2.6190646 0.47703266 -0.6591308
0003b0 63 60 82 c0 9f 14 db be 44 46 23 c0 50 e2 a0 3f
       -4.074266 -0.4278917 -2.5511637 1.2569065
0003c0 fd ab a7 bf a8 45 04 c0 10 19 f8 bf 95 ac 6e 3f
       -1.3099362 -2.0667515 -1.9382648 0.9323209
0003d0 36 e6 80 40 35 c0 b1 be 0e 1c 07 c0 1f d6 e4 bf
       4.028102 -0.34716955 -2.1110873 -1.7877845
0003e0 2e 56 14 40 a7 8e bb be 79 57 4a c0 38 bd c8 3d
       2.31776 -0.36632273 -3.161589 0.098017156
0003f0 c3 a0 08 c0 c7 60 23 bf 04 e4 73 be c2 d3 1a 40
       -2.134812 -0.63819546 -0.2381745 2.4191747

lstm.bias_ih_l0 f4 [40]
000000 87 b5 b8 bf 59 4d 95 bf 77 75 c5 bf 97 27 48 bf
       -1.4430398 -1.166423 -1.5426472 -0.7818541
000010 44 4a 2a bf 9a a6 b7 bf 1b 84 de bf 39 3b c4 bf
       -0.6651957 -1.4347718 -1.7384065 -1.5330573
000020 df 96 8d bf 4b 65 a7 bf 75 5a bf 3f 21 01 93 3f
       -1.1061667 -1.3077787 1.494948 1.148472
000030 4b e2 c1 3f 27 46 8d 3f 10 eb a5 3f 27 5b ab 3f
       1.5147184 1.1037034 1.296236 1.3387192
000040 f9 2f b0 3f a8 3c cf 3f ad 43 bd 3f a5 69 33 40
       1.376464 1.6190386 1.4786278 2.803323
000050 73 2b 9b be 66 49 0f 3e 2b 55 92 3f 80 ea 89 3e
       -0.30306587 0.13992843 1.1432241 0.26936722
000060 ce e4 3f 3f 56 46 ad bd e6 d1 54 bc d9 46 26 bf
       0.74958503 -0.08460681 -0.012989497 -0.64951855
000070 b1 00 85 3e c1 a8 17 3e f8 07 6e bf 47 8e 4b bf
       0.2597709 0.14810468 -0.9298091 -0.79513973
000080 48 f4 82 3f 77 8a 4f bf f0 e3 50 bf d7 b7 2b 3f
       1.0230799 -0.81070656 -0.81597805 0.6707739
000090 bd 28 ce be 51 5a b5 3e 81 d3 90 b8 52 44 d2 3e
       -0.40265456 0.35420468 -6.905851e-05 0.4106775

lstm.bias_hh_l0 f4 [40]
000000 2a 2a 75 bf 43 f0 87 bf d9 b7 c2 bf de 76 2e bf
       -0.9576746 -1.0620197 -1.5212356 -0.68150127
000010 a2 98 22 bf eb e9 9d bf 8b 53 a8 bf 2d fc d5 bf
       -0.6351415 -1.2337011 -1.3150495 -1.6717583
000020 ac 3d 9c bf bd ef c1 bf 4e 80 9f 3f 73 59 64 3f
       -1.2206321 -1.5151287 1.246103 0.8919899
000030 5f 65 ac 3f 38 f9 20 3f 31 5c 89 3f aa 55 ab 3f
       1.3468436 0.6288028 1.073126 1.3385518
000040 17 40 92 3f 81 28 96 3f 72 be d1 3f 56 14 2c 40
       1.1425809 1.1731111 1.6386244 2.6887412
000050 f4 c3 87 be 21 3f f7 3d bf ae 5d 3f 46 e0 dd 3e
       -0.26516688 0.12072588 0.86594766 0.4333517
000060 ff c7 67 3f 19 28 0d be cb 6a 90 be a8 ca 3e bf
       0.90539545 -0.13784827 -0.28206477 -0.7452798
000070 0a aa d6 3d 09 80 f1 3e 41 71 53 bf 5a 62 a2 bf
       0.10481651 0.47167996 -0.82594687 -1.2686265
000080 a5 37 5d 3f c5 ed f6 be 2f 08 15 bf dd 0d 2b 3f
       0.8641303 -0.4822828 -0.5821561 0.6681803
000090 d4 68 a6 be f1 38 c0 3e 03 73 30 bc fc 5e 4e 3e
       -0.32501853 0.37543443 -0.010769608 0.20153421

lstm.weight_ih_l0_reverse f4 [40, 20]
000000 34 56 4b 3e 11 40 3f 3f 2b 0f b9 3f 40 fc 86 3d
       0.19857103 0.7470713 1.4457754 0.065910816
000010 2e 57 10 be 11 cd 1d 3f 1c 08 0a 3f c0 49 ce 3e
       -0.14095756 0.6164103 0.53918624 0.40290642
000020 c2 9c a0 3f d6 57 8f bf d8 ca 8b 3e 4a 5c 7b bd
       1.2547839 -1.119868 0.27303195 -0.06136731
000030 af d6 9d bf e9 f3 2d be 4e 70 5a 3f aa 45 c9 3e
       -1.2331141 -0.16987576 0.85327613 0.39310962
000040 54 28 5e bf d4 81 53 3f 87 d7 41 bf aa 82 17 c0
       -0.86780286 0.82619977 -0.75719494 -2.36735
000050 09 21 97 bf 4f 2a 7c 3f 2b ac f4 be 91 a5 71 be
       -1.1806957 0.9850206 -0.47787604 -0.23598315
000060 50 f7 4c 3f 0c bc c1 bf c7 f4 31 bf b5 d5 a4 3e
       0.8006487 -1.5135512 -0.69514126 0.32194296
000070 e8 83 ec 3e 4e 15 27 be ab 64 a8 bf e4 f5 43 bf
       0.46194386 -0.16316721 -1.3155721 -0.76547074
000080 b3 e8 42 be 6a ec 09 be 5a eb 88 3f 79 30 85 bf
       -0.1903408 -0.13469091 1.0696824 -1.0405418
000090 cd f8 26 be a1 1f 1b bf d6 a7 18 40 44 07 91 3f
       -0.16305847 -0.60595137 2.385244 1.1330342
0000a0 c9 76 44 c0 ab 2d 4d bd 40 f0 06 3f 65 67 44 3f
       -3.06975 -0.05009238 0.5271034 0.7672027
0000b0 16 4d 0d 3f 73 4d 2c bf 79 10 36 bf 65 95 f2 be
       0.5519575 -0.6730568 -0.71118885 -0.47379604
0000c0 17 a2 62 3e 46 5f 2e bf ff 34 e4 be 00 84 02 bf
       0.22132145 -0.68114126 -0.44571683 -0.50982666
0000d0 83 43 46 c0 9f 38 e3 bf 9d ad 65 3f d6 93 46 bf
       -3.0978706 -1.7751654 0.8971804 -0.7756933
0000e0 c0 56 c9 bc d3 3a 6a bd cb 83 64 3f 8a df 65 c0
       -0.024577498 -0.057185005 0.892636 -3.5917687
0000f0 a7 f3 33 be da 81 a6 be 73 ec c6 be 90 06 d3 bd
       -0.17573415 -0.32520944 -0.3885227 -0.10303986
000100 7c 07 70 3f f4 7e 49 be 94 17 0d 3f 62 4f 52 3f
       0.9376142 -0.19677335 0.551141 0.8215238
000110 0e b1 a2 bf 49 8f 33 3f ea 14 34 bf 72 9a cd be
       -1.2710283 0.7014051 -0.7034441 -0.40156895
000120 53 96 18 be 1c ac 0e bf 5b a1 f8 3e 78 da 0e bf
       -0.14901094 -0.5573137 0.48560604 -0.55802107
000130 2c 21 29 bf 30 70 3b 3d 5e be 9e 3f 00 b4 45 bf
       -0.6606624 0.045761287 1.2401845 -0.77227783
000140 d5 fa 8c 3d 7d f5 8e 3f 1f 30 6d bf 45 e7 9a 3e
       0.0688378 1.1168667 -0.9265155 0.3025457
000150 18 8f 68 3f 5a ff 1e be 7b 5f 50 bf e9 55 27 bf
       0.90843344 -0.15527096 -0.8139569 -0.65365463
000160 dd cb 28 bf b8 04 e3 3d f9 28 85 3f e5 11 fb be
       -0.6593607 0.110848844 1.0403129 -0.4903709
000170 ac 17 b6 be 6e 48 7a bf 46 78 5c 3e 34 57 57 bf
       -0.35564935 -0.9776677 0.21530256 -0.84117436
000180 aa 1f 88 be 39 bc 95 3e 5f 91 fd 3f 4d 37 00 40
       -0.26586658 0.29245165 1.9809989 2.0033753
000190 f1 5a 6b bd 1a 95 4d bf 29 ca bb 3f 43 29 08 3f
       -0.057459775 -0.80305636 1.4671069 0.5318796
0001a0 69 3f ab 3e 1f d0 24 bf 4e c4 76 3f 0a 5e 57 3f
       0.33446816 -0.6438007 0.9639329 0.8412787
0001b0 b0 b9 84 3f 83 74 29 bf 09 e4 58 bf 3b 09 7b 3f
       1.0369167 -0.6619341 -0.84722954 0.9806096
0001c0 9f a9 61 bd 4f cf bd 3f a1 0f 53 c0 3c b1 18 3f
       -0.055093404 1.482889 -3.297829 0.5964544
0001d0 38 7a a1 bf 91 a8 07 c0 eb 6a 3f 40 4e 89 85 c0
       -1.2615423 -2.1196635 2.9909008 -4.173011
0001e0 6b a8 8f 3d bb 5e 35 c1 ce b7 c1 3e 94 ce 3c be
       0.07014545 -11.335628 0.37835544 -0.18438178
0001f0 7e 18 ca 3e 3c 47 f5 bf 07 ba 35 3f 28 a4 ce bf
       0.3947181 -1.9162364 0.7098698 -1.6143847
000200 02 3d a7 3f 85 c9 61 bf cb 16 cf bf ba bb 35 c0
       1.3065493 -0.8819812 -1.6178831 -2.839583
000210 61 14 47 bf 0b 06 a8 3d f0 15 74 3f e9 be 43 bf
       -0.7776547 0.082042776 0.95345974 -0.7646318
000220 94 17 e5 c0 37 f3 40 3f 71 06 4e 3f 9f f4 0d bf
       -7.159128 0.75371116 0.8047858 -0.5545139
000230 9c 8e ea 3e f5 d7 08 c0 1d 6b 98 be aa 15 87 bf
       0.45811927 -2.138181 -0.2976922 -1.0553486
000240 54 eb 95 3f 32 fe 01 bf c7 31 97 be f7 4b a6 3e
       1.1712441 -0.50778496 -0.29530165 0.32479832
000250 36 76 02 3f b5 2f d5 be cf f6 08 3f 96 e1 35 be
       0.50961626 -0.4163796 0.535016 -0.17761835
000260 04 69 1f bf f8 44 83 3c 57 98 b2 3f 9c e6 dc be
       -0.62269616 0.016024098 1.395274 -0.4314469
000270 62 4d c7 3e 84 a4 a4 3f bc a6 8a bf 35 7e d2 be
       0.38926226 1.2862706 -1.0832133 -0.41111913
000280 18 ae 1e c0 9f fa 82 bf 1a 27 11 3f d2 ef bb be
       -2.4793758 -1.0232733 0.5670029 -0.36706406
000290 05 b2 d0 3d 33 01 3d bf e2 f8 c4 bf d3 8b 79 be
       0.101902045 -0.73829955 -1.5388453 -0.24369745
0002a0 0d 8d 0b c1 13 56 96 be 66 e5 b9 bf 6a 70 49 bf
       -8.721936 -0.29362544 -1.4523132 -0.78687155
0002b0 fe df c0 be 66 a5 a2 bf 7b 62 55 bf 8f f1 90 bf
       -0.37670892 -1.2706726 -0.83353394 -1.1323718
0002c0 fc b4 d2 bf 60 b2 64 bf df da 0a 3e 18 b9 0b bf
       -1.6461482 -0.8933468 0.13560055 -0.54579306
0002d0 9e 68 47 3f c6 e3 1c bf f9 0c 22 3e ba b2 83 3d
       0.7789401 -0.61285055 0.15825261 0.06430574
0002e0 d8 f1 0d 40 16 21 2e bd ca 90 98 3e 86 4d 3a 3f
       2.217886 -0.042512022 0.29797965 0.7277454
0002f0 0e c6 cc 3e ac f0 a7 3f 37 f7 91 3f c3 78 54 bf
       0.39994854 1.3120322 1.1403569 -0.8299677
000300 11 ea cb 3e 0c f8 25 c1 d5 86 b5 3f ff b0 02 3e
       0.39827016 -10.373058 1.4181772 0.12762831
000310 08 39 e1 3d bd 4c 64 3f 49 08 d0 c0 7c 27 b5 3f
       0.10997206 0.89179593 -6.5010114 1.4152675
000320 94 83 61 41 f5 18 ae bf 8e e4 b6 bf 42 c0 5e bf
       14.094624 -1.3601366 -1.4288499 -0.8701211
000330 a3 93 f7 be 2c 55 6b bf 01 e1 07 3f 40 df cb 40
       -0.48354825 -0.91926837 0.53077704 6.371002
000340 cd cf ba 40 27 b8 b3 bf cb 54 a0 3f 3b 8e a1 bf
       5.8378663 -1.4040574 1.2525877 -1.262153
000350 0f f7 e3 3e 7c 4a c0 be 12 00 16 3f 4e 95 61 bf
       0.44524428 -0.37556827 0.5859386 -0.88118446
000360 99 ce e2 be 81 c7 08 41 0d 1b b0 3e f2 1f 70 bf
       -0.44298247 8.548707 0.34395638 -0.93798745
000370 bf 6c a7 be 00 57 d7 bf 69 86 8a 3f e5 2a 06 40
       -0.32700154 -1.6823425 1.0822269 2.096368
000380 bb bf e2 3d a2 fb c9 be 9a 12 aa 3f a0 35 55 3f
       0.11071726 -0.39449793 1.3286927 0.8328495
000390 7f 0e bd be ec 0b 52 bf 79 66 b9 3e 80 79 dd 3f
       -0.36925122 -0.8204944 0.36210993 1.7302704
0003a0 8f d9 31 3d 40 e9 5a 3f c9 88 3e be 7a 4e d5 3e
       0.04342037 0.8551216 -0.18606867 0.41661435
0003b0 a2 c6 d1 3f d1 4f 9d 3f a9 df a2 bf 03 74 c0 bf
       1.6388743 1.2289983 -1.2724506 -1.5035404
0003c0 f1 52 07 41 12 cb 6d 41 a5 d2 52 41 26 17 1e 41
       8.457749 14.862078 13.176427 9.880651
0003d0 d2 3f fa be f2 f7 85 3f 78 88 5c be 3d 1a 7c 3d
       -0.48876816 1.0466292 -0.21536434 0.06154846
0003e0 89 ad 20 40 65 ae 56 41 c9 f4 bc be 7f 62 5b 40
       2.5105917 13.417577 -0.36905506 3.4278867
0003f0 d3 f5 6e bf 59 11 76 be 60 9a 66 41 c8 58 7b 41
       -0.9334385 -0.24030055 14.412689 15.709175

lstm.weight_hh_l0_reverse f4 [40, 10]
000000 7d 07 46 be e7 7f 8d be 3b 89 96 bc fb 34 42 bf
       -0.19338794 -0.27636644 -0.018375983 -0.7586209
000010 62 84 29 3e 76 1e 57 bd 3b ec 8b c0 6e 2b dd bc
       0.16554406 -0.052519284 -4.3725867 -0.026998248
000020 93 18 9b 3d 6f f1 0e c0 ce 08 e4 bd c4 60 4f be
       0.075730465 -2.233486 -0.11134492 -0.20251757
000030 b7 8f d4 bb 6f d3 f8 3d 09 d4 1e bf d0 55 98 be
       -0.0064868587 0.12149703 -0.6204229 -0.2975297
000040 03 a2 b4 bd 15 28 9a 3e 6f f8 9e 3e c2 3c af 3e
       -0.08819964 0.30108705 0.31048915 0.34226042
000050 9c 1b fc 3e a5 6d 11 3e 68 46 6b 40 a6 19 20 40
       0.49239814 0.14201982 3.6761723 2.5015655
000060 62 3e 78 bf a5 34 3c bf 10 4f c9 be fd c4 2b bf
       -0.9697019 -0.7351783 -0.39318132 -0.67097455
000070 46 fc e9 3f 98 5f a6 bf 78 ab 49 bd 44 dc f3 3e
       1.8280113 -1.2997923 -0.04923579 0.47628987
000080 26 35 31 3d 71 41 19 3f 51 65 61 bf 2a 84 6f 3d
       0.043263577 0.5986548 -0.8804522 0.05847565
000090 e7 e1 34 3f da 3f f5 bc 80 84 23 3f c2 16 36 3e
       0.706572 -0.029937673 0.63874054 0.17782119
0000a0 4a 3b ba 3c 0f dd 7a be 4b 7b a2 3e ae 79 c2 bf
       0.02273335 -0.2449839 0.3173469 -1.5193384
0000b0 50 cd c6 bf af ab c6 bf d3 a9 0b 3f 8e 5f 78 bd
       -1.5531406 -1.5521144 0.54556006 -0.060638003
0000c0 29 da b2 3e 81 d9 7e bf 5b ff 0b bf ff 48 52 c0
       0.34932068 -0.99550635 -0.54686517 -3.2857053
0000d0 d1 9a aa 3c 7d da 3b c0 d7 bb 1d 40 ce c9 4b 3f
       0.020825775 -2.9352105 2.4645898 0.79604805
0000e0 f8 f1 35 bf 67 b2 26 c0 59 07 24 be b1 8e a6 bf
       -0.7107234 -2.6046388 -0.16018428 -1.3012296
0000f0 83 c9 9b bd 5c 83 39 be 47 8a 91 3e d3 9e e9 3e
       -0.07606795 -0.18116516 0.2842581 0.45628986
000100 00 bd 76 3e 1b bc fd be 56 de c0 3f d5 74 32 be
       0.24095535 -0.49557576 1.5067852 -0.1742738
000110 61 a7 9d 3e 76 b2 6a bd b3 f4 c8 be fb 0f 7d be
       0.30791762 -0.0572991 -0.3924919 -0.24713127
000120 c5 aa c0 be 6b 6f cd 3c 47 87 8e 3f 3f ea 7f bf
       -0.37630287 0.025077542 1.1135033 -0.99966806
000130 e3 e8 9e 3e 05 72 95 be 23 20 6e 3e 97 45 8e bc
       0.31037053 -0.29188552 0.23254447 -0.017367167
000140 5d 3f 00 be 26 28 93 3e 6b 41 b6 3e 83 19 b9 3f
       -0.12524171 0.28741568 0.35596785 1.446091
000150 db e2 1a bf db b0 42 be ef f3 9e bf 9d dc a3 be
       -0.60502404 -0.19012778 -1.2418193 -0.32004252
000160 cb 86 91 be 2c 19 3d bf 05 63 77 c0 79 b6 33 bf
       -0.2842315 -0.73866534 -3.8654187 -0.70200306
000170 df c1 5d 40 9c 24 12 bf aa cc 18 c0 ff 76 4f bf
       3.464958 -0.5708711 -2.3874917 -0.8104095
000180 68 37 10 c0 92 a8 bf bf 31 a9 80 bf be d6 00 40
       -2.2533817 -1.4973319 -1.0051633 2.0131068
000190 be 11 01 c0 67 58 45 bf c4 c8 67 bf 8b f0 f4 3f
       -2.016708 -0.77088016 -0.9054072 1.9135908
0001a0 fd 1c 42 be ac 19 7a bf 81 2d be 3f a4 c3 02 3f
       -0.1895637 -0.9769542 1.4857637 0.51079774
0001b0 5a c2 c2 bf 96 f7 08 c0 61 73 f7 3e 7e 1b 28 bf
       -1.5215561 -2.1401114 0.48330215 -0.6566695
0001c0 19 d9 d7 3d 2c 6e b2 be 64 60 45 40 16 c0 90 3e
       0.10539455 -0.3484968 3.0840082 0.2827155
0001d0 97 2e 01 3d 82 c9 f5 be ba 3a 4a 3f 88 5e ba be
       0.031538572 -0.480053 0.7899586 -0.36400247
0001e0 d0 a7 18 3e 4b b7 07 3f 77 87 10 c0 93 8c f3 3f
       0.14907765 0.5301406 -2.258268 1.9027275
0001f0 d2 d8 f1 3f 43 2b f7 3f 5c 84 58 bf b3 02 8f 3e
       1.8894293 1.9310077 -0.84576964 0.27931747
000200 a6 7e 14 40 3c 8c 91 c0 c9 39 44 bf 7f 78 49 3f
       2.32023 -4.5483685 -0.76650673 0.7869949
000210 61 dd 04 3f 07 56 c1 bf 3f 1d 8a bf f8 ca 96 40
       0.519003 -1.5104378 -1.0790175 4.7122765
000220 9f f6 4e be ca 87 dd bf a1 18 87 bf 21 6b 7f 3f
       -0.20211266 -1.7307065 -1.0554391 0.9977284
000230 3c dd de 3e 75 db 68 be 29 8c ae 3d 7d e8 32 3f
       0.43528163 -0.22739966 0.08522827 0.69886
000240 59 15 aa 3f b7 7f 56 bf 07 3c e6 bd b4 31 9a be
       1.3287765 -0.8378863 -0.11241918 -0.30116045
000250 19 f6 29 3f 54 d3 0a bf c8 13 86 3e 80 70 49 be
       0.6639114 -0.5422871 0.26186967 -0.19671822
000260 df e8 dd 3e d4 0c 9e 3f 15 60 e7 3f f0 15 36 40
       0.4334173 1.2347665 1.8076197 2.845089
000270 c4 30 ca bf ff f7 21 c0 f9 cf 1c bf 0a c6 b2 3f
       -1.5796132 -2.5307615 -0.6125484 1.3966687
000280 31 79 56 bf c7 5c f1 bf 61 a4 b2 40 fa 29 93 40
       -0.83778673 -1.8856438 5.582566 4.598874
000290 38 db f1 3e e4 b5 a0 be a9 81 87 40 4d c3 e1 bf
       0.47237563 -0.31388772 4.2345777 -1.7637726
0002a0 37 c8 27 c0 e4 4c 3a 40 ab 17 10 bf 95 13 9d 3f
       -2.6215951 2.910943 -0.56286114 1.2271601
0002b0 a5 aa 1f be f2 0b 24 40 23 99 6c 3f 98 29 26 40
       -0.1559244 2.563229 0.9242117 2.5962887
0002c0 14 81 f0 be ac 1d 91 3e bd e9 1f bf e1 04 17 3f
       -0.4697348 0.2834295 -0.6246603 0.5899182
0002d0 8a f2 b0 bd 37 af 54 bf 52 ba 82 3f 32 3c e6 3f
       -0.08640011 -0.83079857 1.021311 1.798712
0002e0 f8 54 96 3f 35 ab 10 bf e2 ab e4 3e 39 ec 8c be
       1.174468 -0.5651124 0.44662386 -0.27523974
0002f0 ee 7d aa c0 59 c9 dc 3f c8 3e b9 be 03 22 4b bf
       -5.3278723 1.7248946 -0.3618071 -0.7934877
000300 b0 f9 9e bf 39 92 73 bf 1b 8a e5 3f 5f 83 fd bf
       -1.2419949 -0.95144993 1.7932771 -1.9805716
000310 f7 51 a0 c0 84 0a 49 3f c5 90 5b bf ff ce 92 c0
       -5.0100055 0.7853167 -0.85767776 -4.587768
000320 d1 13 19 40 41 ff 22 3f 4b 61 1b c0 70 b8 e8 3e
       2.3918345 0.63670737 -2.4278133 0.45453215
000330 25 ad 9d be 5b 8d 40 3f e4 5e 84 bf 72 88 94 3e
       -0.3079616 0.7521569 -1.0341458 0.2901035
000340 7c 09 b8 3f f5 9b 3b c0 63 e7 bc 3b 93 48 7a 3f
       1.4377894 -2.9313939 0.005764888 0.9776699
000350 2a 7d 59 3e b8 78 00 c0 1e 30 d3 3f 7b 72 53 c0
       0.21239153 -2.007368 1.6499059 -3.3038623
000360 09 d5 b5 3e 7b 4e 6c 3f 7f a7 c8 3d 1c 53 b1 be
       0.35514095 0.9230725 0.09797572 -0.3463372
000370 48 76 34 bf fe 3e fc be 99 8c 7c 40 6c 30 bd bf
       -0.7049298 -0.4926681 3.9460814 -1.4780402
000380 08 d5 07 be da 70 57 bf 39 dd 9b 40 d2 83 4f 3e
       -0.13264859 -0.8415657 4.8707547 0.20265129
000390 40 94 21 c0 ae 77 66 40 6a 8f 20 bf 7d 99 41 3f
       -2.5246735 3.6010547 -0.6271883 0.7562483
0003a0 b4 85 37 bc 31 de 1b c0 db 5b b8 bf cf f2 03 40
       -0.011201311 -2.4354365 -1.4403032 2.0616949
0003b0 29 2a 8c 3e 44 37 c6 3f 78 25 f9 bf 8f bf 48 bf
       0.27375916 1.5485616 -1.946456 -0.78417295
0003c0 e6 ba bc bf 42 cd 67 bf 92 57 da be 6b 45 22 40
       -1.4744537 -0.90547574 -0.42644936 2.535487
0003d0 14 0e 50 be 85 09 2f be e6 b3 91 3e a6 65 a1 3f
       -0.2031787 -0.17093475 0.28457564 1.2609146
0003e0 54 65 e4 3f c7 45 a0 3e 9a f5 87 bf 0f 5d 80 c0
       1.7843423 0.31303236 -1.0621827 -4.0113597
0003f0 c6 8c b0 3e 2c 8a b7 bc 07 4a f9 3f 67 60 34 c0
       0.34482402 -0.022404753 1.9475716 -2.818384

lstm.bias_ih_l0_reverse f4 [40]
000000 03 b4 ff be 0a 45 4b bf cf 58 bb bf d9 cf 50 bf
       -0.49942026 -0.7940222 -1.4636477 -0.8156715
000010 6d 5e 76 bf 1d 4c eb be b6 09 23 c0 ca 51 05 bf
       -0.9623783 -0.45956507 -2.5474677 -0.52077925
000020 8a b7 6e bf 0c 28 e3 be 49 1a b7 3f 64 92 b3 3f
       -0.9324881 -0.4436649 1.4304897 1.402905
000030 40 a3 c1 3f 10 4b 83 3f 01 50 77 3f 14 04 7d 3f
       1.5127945 1.0257282 0.9660645 0.9883435
000040 f3 fd 24 40 af 64 5c 3f d2 b7 cb 3f 8a 77 d0 3f
       2.5779998 0.8609113 1.5915473 1.628648
000050 c2 a1 2f be 96 23 34 bd 9c ef b0 3e ed 01 ba 3e
       -0.1715155 -0.04397925 0.34557807 0.36329594
000060 5d 75 89 be 76 f5 64 be e8 38 e0 3d b8 77 f2 be
       -0.26847354 -0.22359261 0.10948354 -0.47356963
000070 46 01 09 be e2 1d 2d 3e ad 02 61 bf cb d2 b2 3e
       -0.13379392 0.1690593 -0.8789471 0.34926447
000080 5c b8 00 bf 50 83 89 be 2d 78 61 bf 38 3b 41 bf
       -0.5028131 -0.26857996 -0.88074 -0.75480986
000090 a8 ac 59 3f e4 37 fe be 8c 54 3a 3e fc da 97 bf
       0.8502908 -0.49652016 0.18196315 -1.1863704

lstm.bias_hh_l0_reverse f4 [40]
000000 8d 6d 3d bf 72 2b 8d bf bc 40 c9 bf 6e aa 7a bf
       -0.73995286 -1.1028883 -1.572288 -0.97916305
000010 36 7a 09 bf 3c 0d 33 bf 54 d7 0e c0 f1 e5 46 bf
       -0.53702104 -0.6994207 -2.2318926 -0.7769461
000020 1e 7a 3f bf b9 42 75 bf 98 a8 a7 3f 84 8c ac 3f
       -0.7479571 -0.95804936 1.3098326 1.3480382
000030 fa e4 d2 3f eb 26 b3 3f a8 ae c7 3e 68 c6 50 3f
       1.6476128 1.3996252 0.3900044 0.81552744
000040 9c 4a 26 40 62 4e 35 3f 30 45 b9 3f f8 c3 ac 3f
       2.5983038 0.7082273 1.4474239 1.3497305
000050 75 d5 05 3e e2 22 13 be a0 30 95 bd 4b 01 fb 3e
       0.13069709 -0.14368775 -0.07284665 0.49024424
000060 8f 6c a1 be 33 4e c3 bd a0 39 f2 bd 57 a9 d3 3d
       -0.31528136 -0.095364 -0.11827397 0.103350334
000070 67 06 83 bc c1 06 04 3f 1d 68 6f bf ac d5 02 3f
       -0.015994264 0.51572806 -0.9351824 0.5110729
000080 88 45 13 bf 3a 2d 11 be 21 65 66 bf 73 89 77 bf
       -0.5752797 -0.14177409 -0.8999806 -0.96694106
000090 b6 1e 9a 3f e0 8c d3 be 38 7d c9 3e 22 a8 6b bf
       1.2040622 -0.41318417 0.39353347 -0.92053425

lstm.weight_ih_l1 f4 [40, 20]
000000 86 c3 15 c0 2a 73 7a 3f 68 ba 06 c0 4f f8 64 be
       -2.3400588 0.97831976 -2.1051273 -0.22360347
000010 41 a7 44 40 5b a7 2e 40 b7 93 28 bf 95 f9 92 bf
       3.0727084 2.7289646 -0.65850395 -1.1482416
000020 fb 6d e3 c0 a6 8a 4b c0 bb 05 1d 40 64 79 06 c0
       -7.1071754 -3.1803374 2.4534748 -2.101159
000030 cd 34 50 bf e0 12 2d 3e 64 c7 17 3f ad 65 ba c0
       -0.8133057 0.16901731 0.5928862 -5.8249116
000040 6f 9f 33 c0 54 64 97 40 3f ad b8 c0 e4 56 cd 3f
       -2.806606 4.730997 -5.771148 1.6042142
000050 14 ec 8f 3e 3b 95 2f c0 c0 4d bf c0 38 15 94 bf
       0.281098 -2.7434833 -5.978241 -1.1568975
000060 b2 1c bb bf 09 b0 10 c0 8c 83 d8 3f 3c 77 19 c0
       -1.4618132 -2.2607443 1.6915145 -2.3979025
000070 af f4 1c bf f6 22 e6 40 1f 15 8f bf 5a f1 43 bf
       -0.6131086 7.1917677 -1.1178321 -0.7654015
000080 83 49 9c bf a7 74 dc 3e fc 61 c6 3f 06 87 32 c0
       -1.2209934 0.4305775 1.5498652 -2.7894912
000090 81 1d 8d 3f de be 61 3f 98 0b 90 bf 64 83 ab be
       1.1024629 0.88181865 -1.1253538 -0.3349868
0000a0 46 20 b1 3f c8 01 9a bf 83 4c c6 bf 09 70 52 3e
       1.3837974 -1.2031794 -1.54921 0.2055055
0000b0 68 10 21 c0 ba 0c cc bd 2e 37 27 40 a8 18 56 3f
       -2.5166264 -0.09963365 2.612743 0.8363137
0000c0 32 ee a9 3c 90 4e 93 be 80 9f b8 3f 9c 47 0e bf
       0.020743463 -0.28770876 1.4423676 -0.5557802
0000d0 d5 2d 21 c0 69 83 03 c0 b4 f7 9b 3f 77 5c 57 bf
       -2.5184224 -2.0548956 1.2184968 -0.84125465
0000e0 b3 7a 97 be 35 4c b9 3f ab 1e be bf a6 07 b0 3f
       -0.295858 1.4476382 -1.4853109 1.3752334
0000f0 67 3d 5d 3f e6 64 16 be 95 bd ec bf 7a 00 00 c0
       0.8642182 -0.14686927 -1.8495356 -2.000029
000100 2c 6c ff bf be 39 71 40 be 15 c9 bf af 5a f0 3f
       -1.9954886 3.7691493 -1.570976 1.8777674
000110 29 a6 9e 3f a6 5d 06 3e 78 63 9b bf 8e 5f af 3e
       1.2394458 0.13121662 -1.213973 0.3425259
000120 2a 0c 52 c0 0b ab 87 40 3b 67 e1 bf 26 30 f8 3f
       -3.2819924 4.2396293 -1.7609628 1.9389694
000130 74 9e 00 c1 21 af 30 40 38 1d ad 40 69 c5 8f be
       -8.038685 2.760689 5.4098167 -0.280803
000140 5c b0 0f 3e b7 cc 07 c0 d1 64 5c 3f 35 c3 81 3f
       0.1403212 -2.1218698 0.86091334 1.0137697
000150 1c e0 0a c0 65 2f c7 bc 45 f2 c1 3e 1b 95 3e c0
       -2.1699286 -0.024314592 0.3788015 -2.9778507
000160 3c 78 7c bf fd 19 6b 40 01 64 1e 3f f5 66 b0 be
       -0.98620963 3.6734612 0.61871344 -0.3445355
000170 b9 1e 07 40 f4 a5 c4 3f 58 8b 58 c0 2d a1 e1 bf
       2.1112502 1.5363145 -3.3835049 -1.7627312
000180 ce e4 82 40 03 17 37 bf 5f 4b b1 bf af bc cf 3f
       4.0904303 -0.7151949 -1.3851126 1.6229457
000190 c5 64 42 be 38 7f fd 3f b6 35 bb bf b0 75 06 40
       -0.18983753 1.9804449 -1.4625766 2.100933
0001a0 de 7e ed bf e7 5b 12 40 14 3d b7 3f 06 70 6d 40
       -1.8554342 2.2868593 1.4315515 3.7099624
0001b0 6e fd bb bf 55 eb 89 bf b2 9b c7 be fb 8b 89 bf
       -1.4686716 -1.0774943 -0.38985974 -1.0745844
0001c0 57 5b 64 3e 0b f6 8e 3e f2 ca 57 c0 98 28 65 c0
       0.22300468 0.2792209 -3.3717618 -3.5806026
0001d0 c9 2b 77 c0 d3 4d 73 bd e4 86 3e bd d5 24 3a 3d
       -3.8620474 -0.05940039 -0.04651536 0.045445282
0001e0 ef ec 25 40 4b fb a1 bf 96 d2 13 c0 6a 7f 78 be
       2.5925863 -1.2654814 -2.3097281 -0.24267355
0001f0 e3 6c 1a bf 47 77 45 3c 83 e2 56 bd dc d6 01 40
       -0.603224 0.012052364 -0.052462112 2.028739
000200 d2 b3 17 3e b6 0b 19 3f 53 b4 85 3f a6 41 33 3f
       0.1481469 0.59783494 1.0445656 0.70022047
000210 e3 32 2b be 9b bd c1 3f b7 ec 5c 40 9f b8 c1 bd
       -0.1671863 1.5135988 3.451948 -0.09459042
000220 5a e2 24 c0 e9 8a 04 3f d6 ae c5 3e bc 33 ae 40
       -2.5763154 0.5177446 0.38609952 5.443815
000230 2d c7 45 40 26 95 90 c0 4a c6 f3 c0 2a 08 75 bf
       3.0902817 -4.5182066 -7.617955 -0.9571558
000240 e6 fa 0c c0 b2 3f ae bf 8f 46 5d 3f f2 4a ca c0
       -2.2028136 -1.3613188 0.8643579 -6.3216486
000250 82 56 42 40 24 84 38 40 98 4c a0 40 6d a6 bf bf
       3.03653 2.8830652 5.00935 -1.4972664
000260 33 a1 80 bd ff 2f 99 3f 37 44 9e 40 90 0c 14 c0
       -0.06280746 1.1967772 4.945827 -2.3132668
000270 23 6c 50 c0 b9 30 02 3f 37 43 c5 3f d6 b7 af c0
       -3.2566001 0.50855595 1.5411137 -5.491191
000280 25 ec 48 40 90 c9 34 3f 1f da 94 3d 08 3e 55 40
       3.139413 0.7062006 0.07268166 3.331911
000290 6f 30 dd be d1 d3 86 bf 09 6f 52 40 16 ce 98 be
       -0.43201014 -1.0533391 3.288027 -0.2984473
0002a0 7e 68 26 3e 1e 99 f4 3f 7f 1c cd 3e cd 2d 33 3e
       0.16250798 1.9109228 0.40060803 0.1749794
0002b0 87 d2 c9 40 49 62 23 3f a5 d6 c4 3f 65 95 a7 bd
       6.306949 0.63821846 1.5378004 -0.081827916
0002c0 19 50 8b 3e 23 d1 c0 3d 69 33 37 c0 29 2c 09 c0
       0.27209547 0.0941489 -2.8625128 -2.1433203
0002d0 b1 57 5a 3f 84 c5 ee 3e f7 bf 97 c0 e1 79 22 40
       0.85290056 0.46635067 -4.742183 2.538689
0002e0 7c e6 81 bf 63 4a ec be be be 8e be 82 a1 84 3f
       -1.0148463 -0.46150503 -0.278799 1.0361788
0002f0 d6 6d ab 3e a9 83 a1 40 9a 27 00 3d aa 18 5e 3f
       0.33482236 5.047322 0.031287767 0.86756384
000300 d9 41 23 bf 3c a8 23 40 dd 21 d6 3f dc 2f 24 3f
       -0.6377235 2.5571432 1.6729084 0.6413553
000310 90 b3 63 be b4 c9 ff 3f d3 03 83 3f 13 2a e5 bd
       -0.22236466 1.998343 1.0235542 -0.11189666
000320 29 67 4e bf 34 77 43 40 e0 7a 2f 3f d5 9e 3e 40
       -0.8062616 3.0541506 0.6854687 2.9784443
000330 9d 19 34 40 c1 65 18 40 29 c2 07 c0 f4 85 f3 3e
       2.8140633 2.3812106 -2.1212256 0.47563136
000340 cb b9 08 c1 9c 0c 15 c0 fe 72 ff 3e c5 f5 1c 3f
       -8.54536 -2.3288946 0.4989242 0.61312515
000350 c0 68 9d bf 00 a9 c0 3d 4e dc 4a 3f 0b 78 54 c0
       -1.2297592 0.09407234 0.7924241 -3.3198268
000360 1f c8 c3 c0 65 df ea 3f d1 3a d2 3e db 09 3f bf
       -6.118179 1.8349425 0.41060498 -0.74624413
000370 c7 9f cd bf 71 cf 32 3e c7 c9 cd be bd 73 0a 40
       -1.6064385 0.17461945 -0.40193006 2.163314
000380 79 83 47 3f f1 b1 8c be b6 0d 5b bf 90 a0 6d 3f
       0.77934986 -0.2747951 -0.85567796 0.92823124
000390 ff 82 95 bf 1b 54 53 3f 0a b1 59 40 42 4b d7 3e
       -1.1680602 0.8255021 3.4014306 0.42049605
0003a0 d9 19 ae bf 8f 2e 23 bf 0c f9 07 3d c3 ad 11 40
       -1.3601638 -0.6374292 0.033196494 2.2762306
0003b0 41 7e 94 bf 20 79 6d 3f fb 41 18 40 8f 51 ac 40
       -1.160103 0.9276295 2.3790271 5.384956
0003c0 8b 20 90 3f 77 e2 9a be f5 bd 31 3e 5b c2 00 c0
       1.1259931 -0.30250904 0.17357619 -2.0118625
0003d0 7a 80 0f c0 39 12 b8 3e 4d 30 8c bf 10 69 cc 3d
       -2.2422166 0.35951403 -1.095224 0.099809766
0003e0 70 0d 1e c0 b2 4b 0f bf ff 98 8a 3f c2 92 a7 be
       -2.4695702 -0.55974877 1.0827941 -0.32729155
0003f0 93 35 35 3f 11 d3 2f be f1 ee b6 3f a3 62 4a 3f
       0.7078487 -0.17170359 1.4291669 0.7905676

lstm.weight_hh_l1 f4 [40, 10]
000000 da 3c ca bd 75 b9 f5 c0 f7 b0 d5 3f 1e c4 77 40
       -0.09874888 -7.678889 1.669463 3.871345
000010 21 38 ec c0 3f 8c b3 c0 d3 c8 bb c0 ea 10 12 40
       -7.3818517 -5.61087 -5.8682647 2.2822824
000020 19 6a e2 40 50 3f e4 40 2e c1 17 c0 96 eb 0a c0
       7.0754514 7.1327286 -2.3711658 -2.170629
000030 83 07 a3 3f 80 89 29 3f 8b c0 6d 40 6e ce 46 c0
       1.2736667 0.66225433 3.714877 -3.1063495
000040 c6 2a d1 bf 36 d7 d1 3f bf 90 62 40 65 36 eb be
       -1.6341178 1.6393802 3.5400846 -0.45939937
000050 48 47 bd bd 3a 4a d2 bf b0 e1 0d 3f bc 34 06 c0
       -0.092421114 -1.6428902 0.55422497 -2.0969687
000060 7d 5e ae be 5e f2 95 bc 00 6e 60 c0 dc 6c 18 c0
       -0.34056464 -0.018304046 -3.5067139 -2.3816442
000070 fc 3d 81 40 7e f3 dc 3f 15 f7 e2 bf 0d 62 5d c0
       4.0388165 1.7261808 -1.7731653 -3.4591095
000080 03 2f db 3f f7 48 16 41 eb a8 89 40 2a 66 7f 40
       1.7123722 9.392814 4.30187 3.9906106
000090 e2 d3 83 40 af db 44 40 17 9a e1 c0 15 9f dd 40
       4.1196146 3.0759084 -7.05006 6.925669
0000a0 1d 3c a5 bf 3b 5e 18 40 50 4b 0e 3f 20 bc a8 3f
       -1.290897 2.3807514 0.5558367 1.3182411
0000b0 ba 76 61 be f9 0b 87 c0 8c fb 61 bd cb b4 a8 3f
       -0.22017947 -4.2202115 -0.055171534 1.3180174
0000c0 8b 31 83 3e 41 b4 2c 40 20 64 bc c0 53 b0 bd bf
       0.25623736 2.6985018 -5.8872223 -1.4819435
0000d0 c1 6f 9b bf bb 6d 78 be d8 0d 6d be 5b 13 c6 bf
       -1.214348 -0.24260609 -0.23149812 -1.5474657
0000e0 b4 17 a0 c0 c5 49 e0 be b6 55 ef 40 55 f8 bd 3f
       -5.0028934 -0.43806282 7.4792128 1.484141
0000f0 a6 89 44 bf 4f b5 bc bf 35 61 00 40 07 d5 f5 bf
       -0.76772535 -1.4742831 2.005933 -1.9205636
000100 25 e5 71 c0 d8 23 71 3f 62 d6 1c c0 67 90 bb bf
       -3.7796109 0.9419532 -2.450585 -1.4653443
000110 ff 59 bb 40 42 72 d1 40 95 1e 40 bc ba f1 51 bf
       5.854736 6.5451975 -0.011726041 -0.8200947
000120 a7 38 20 40 a9 e2 1b c0 bc 5f be 40 3f 80 12 40
       2.5034578 -2.4357092 5.9491863 2.2890775
000130 6d e9 c4 3f 29 c8 a0 bf 38 84 70 40 aa 0b ae 40
       1.5383736 -1.2561084 3.75807 5.438924
000140 6a e4 15 c0 62 98 29 c0 c3 95 a5 3e 3b bf ce c0
       -2.3420663 -2.6499257 0.32340822 -6.4608436
000150 1e a4 5e bf ee aa c0 3f af 3f 72 3f 0b 71 dc 3e
       -0.8696917 1.5052164 0.94628423 0.43054995
000160 b4 0b bb 40 7b 0d a4 c0 fe 89 11 40 c0 95 e0 c0
       5.8451786 -5.1266456 2.2740474 -7.01828
000170 6f c8 38 40 75 39 73 bd dc e4 24 40 8d 1d 8b 40
       2.8872335 -0.059380967 2.5764685 4.3473573
000180 15 9f 76 40 7f 3c 33 c0 16 36 9a c0 8e 54 b2 40
       3.8534596 -2.8005674 -4.8191023 5.5728216
000190 c2 19 f5 3c cc ec 8e c0 f2 dd de 3f 5d 7b 0d c0
       0.029919509 -4.466406 1.7411482 -2.2106545
0001a0 7e c6 a5 bf 7d 0a 10 41 6c 29 01 c0 33 f3 cc 40
       -1.29512 9.002561 -2.0181532 6.4046874
0001b0 fb 3a ee 40 f2 5c 23 41 9f 86 10 3e 01 63 87 bf
       7.4447 10.210192 0.14113854 -1.0577089
0001c0 f9 81 c4 c0 83 ae fe 3e 63 41 c4 c0 be c8 ab 40
       -6.140866 0.49742517 -6.132982 5.3682547
0001d0 4e fc 68 3f 35 f4 9b c0 97 39 ee c0 39 f0 8d 3e
       0.91009986 -4.8735604 -7.44453 0.27722338
0001e0 62 38 8a 3e 61 2a 59 3d e2 4f 99 be 05 41 f7 bf
       0.26996142 0.05301893 -0.29943758 -1.9316717
0001f0 94 b9 9b 3f 96 0e f1 be e3 b3 24 bf 61 34 ad c0
       1.2166009 -0.4708144 -0.64336985 -5.412644
000200 65 3a 45 3f 37 eb 80 bd a3 a8 74 40 25 9a c8 be
       0.7704223 -0.06294864 3.8227928 -0.39180103
000210 07 8e 11 40 8a 92 2c 40 8a a2 b6 be 1f 46 49 c1
       2.2742937 2.696444 -0.35670882 -12.579619
000220 5b a3 21 40 c2 2f fb bf 51 b3 d8 c0 5a ef 92 3f
       2.5255954 -1.962395 -6.771889 1.1479294
000230 03 3a 89 40 76 d3 90 3e 92 85 8b 3e 0c 87 49 c0
       4.2883315 0.28286332 0.27250344 -3.1488676
000240 77 75 b9 3f f6 0a 9a c0 58 eb 28 40 43 0f ab 40
       1.4488972 -4.813838 2.6393642 5.345613
000250 4a b8 87 40 d3 6f 2a bf 28 eb bf 40 c6 d1 ba 3e
       4.241246 -0.6657688 5.9974556 0.3648817
000260 e2 27 d7 be 22 da 14 c0 65 b6 ab bf ee f3 af bf
       -0.42022616 -2.3258138 -1.3415037 -1.3746316
000270 e0 8b 4b c0 75 8a 87 3f a4 57 6a 3f d6 d4 1f 40
       -3.1804123 1.0589129 0.9153998 2.4973655
000280 31 c0 ce c0 e0 63 c8 be 3b 94 61 bf 72 c2 af c0
       -6.460961 -0.391387 -0.88116807 -5.492486
000290 6a 86 e9 bf b9 36 77 bf f8 15 7c 40 d6 73 8e 3f
       -1.8244145 -0.96567875 3.9388409 1.11291
0002a0 fb ef 0c 3f 1a 83 0e 41 2f 9d b7 bf a8 d2 b0 3f
       0.5505368 8.907007 -1.4344844 1.3814287
0002b0 ea 0d 9c be 62 77 a6 c0 d9 ac 07 c0 f3 57 11 40
       -0.30479366 -5.202073 -2.1199248 2.270993
0002c0 7b 0f e9 be 29 86 aa 3f 51 bc 0c 40 df cc 95 40
       -0.45519623 1.3322192 2.198994 4.6812587
0002d0 2a b3 e4 40 eb ce 84 bc 47 4a aa bf 4a 90 5d c0
       7.1468706 -0.016211947 -1.3303918 -3.4619317
0002e0 f1 15 88 3f 47 2a 1a c1 a5 3f e0 c0 4b ba 18 40
       1.0631696 -9.635322 -7.007769 2.3863704
0002f0 b8 9b ed 40 e5 27 40 40 1b ec a1 3f 8a ef 7d 40
       7.4252586 3.002435 1.2650179 3.9677453
000300 87 34 2e c0 6f 70 29 c1 54 06 dd 3f a9 c0 a9 c0
       -2.721956 -10.58995 1.7267556 -5.304768
000310 d9 18 e7 c0 51 3f 80 40 ce 3c c8 40 52 36 dd c0
       -7.221783 4.007729 6.2574224 -6.912881
000320 36 12 ed bf bd 6f 39 be 0a a9 29 bf 47 f9 f7 3f
       -1.8521183 -0.18109031 -0.6627356 1.9372948
000330 fe 28 23 bf 80 2f 35 3f 48 09 89 bf 18 39 e7 bf
       -0.63734424 0.70775604 -1.0705957 -1.8064299
000340 d9 67 e3 c0 af 3b de c0 00 70 99 40 13 04 85 c0
       -7.1064267 -6.9447856 4.794922 -4.1567473
000350 51 c2 ad 3e 5d fa ea be 22 97 64 3f b6 d0 5a bf
       0.33937314 -0.45894137 0.8929311 -0.8547472
000360 6c a0 2c 40 44 d8 80 bf e5 e9 76 c0 6e a6 4b be
       2.6972914 -1.0065999 -3.8580258 -0.19887707
000370 91 ab 66 40 f1 63 86 bc b2 1c 9b bf d7 0a 85 40
       3.6042216 -0.016405078 -1.2118132 4.157573
000380 8c 96 14 40 da 13 04 c1 77 39 6a be 2b bd 2b bf
       2.3216887 -8.254847 -0.22873484 -0.6708552
000390 e3 51 fd bf 65 16 0c c0 aa 5f 72 3f 81 7b b0 3f
       -1.9790615 -2.1888669 0.9467722 1.378769
0003a0 74 ab da bf ce 15 44 c0 fe ff 9e 3e 52 4f 0d 3f
       -1.7083573 -3.0638309 0.31054682 0.5519916
0003b0 ce 3d 82 be 5e 44 1f 3f 76 3b be c0 b7 1c cf 40
       -0.25437778 0.62213695 -5.9447584 6.472255
0003c0 d5 bb f4 bf ba ef 0e 3e 14 4a 41 3f ae 97 93 3f
       -1.9119822 0.13958636 0.7550366 1.1530664
0003d0 bc ea b7 bf 81 b8 a4 bf 34 f5 1a 40 c5 a1 24 3f
       -1.436851 -1.2868806 2.421216 0.6430934
0003e0 a2 c0 2b 3f 40 17 ad bf 9d b2 02 3f c5 fe 3f 40
       0.6709081 -1.352272 0.5105379 2.999925
0003f0 e1 cd 1a 3e 43 af 8a c0 64 04 54 3e ed 14 1d c0
       0.15117599 -4.3338943 0.207048 -2.4544022

lstm.bias_ih_l1 f4 [40]
000000 b6 44 62 bf d5 1f 0d bf d6 d9 02 bf 24 c3 b2 be
       -0.88386095 -0.55126697 -0.5111364 -0.34914505
000010 14 e3 bb bf 07 69 d4 bf 22 97 93 bf 98 8f 72 3c
       -1.4678674 -1.6594552 -1.1530497 0.014804743
000020 38 8c 97 bf 4a a1 91 bf 1e 5b 21 bf fb b6 06 40
       -1.1839666 -1.1377347 -0.6302966 2.1049182
000030 5a f1 4c 3f 10 d8 0b bd 56 e5 56 bf 41 91 46 3e
       0.80055773 -0.0341416 -0.8394369 0.19391347
000040 d5 ca 50 3f 2a 81 55 3f 37 95 82 40 31 0b 43 40
       0.815595 0.83400214 4.0807147 3.047558
000050 3d e4 29 be 48 a5 98 3f d4 4b 9d bf 30 f3 96 bd
       -0.16590972 1.192544 -1.2288766 -0.07370603
000060 59 b1 59 3c 92 1e 37 3d a8 7d 98 be 0b b3 5a 3e
       0.013286912 0.04470689 -0.29783368 0.21357362
000070 4d 45 f3 bd 03 37 70 be 34 37 ee be 47 92 06 be
       -0.118784525 -0.23458485 -0.46526492 -0.13141738
000080 94 b9 44 bf ef 2b 79 bf 2d 03 98 bf 1e 59 78 bf
       -0.7684567 -0.9733266 -1.1875969 -0.9701098
000090 bf b1 a5 bf bb bc 67 bf 18 24 1e bf c5 e0 98 be
       -1.2944869 -0.90522355 -0.61773825 -0.29858986

lstm.bias_hh_l1 f4 [40]
000000 8a e4 c9 be 6a f7 1a bf a8 e1 03 bf 23 3d a4 be
       -0.39432174 -0.60533774 -0.515162 -0.32077894
000010 1d e1 c4 bf 8f 4e a0 bf 75 fb 5d bf 86 ab 13 be
       -1.5381199 -1.2523974 -0.8671182 -0.144209
000020 10 a7 db bf f4 44 82 bf 74 48 d6 be 42 26 02 40
       -1.7160358 -1.0177293 -0.41852152 2.033585
000030 61 bf 48 3f a1 99 a6 be 3a c1 62 bf f5 f5 92 be
       0.7841702 -0.32539085 -0.8857609 -0.28703275
000040 4c 77 42 3f c6 c3 67 3f 9e 92 68 40 3f 3a 43 40
       0.7596328 0.905331 3.6339488 3.05043
000050 b4 2d 20 bf 8c bd 34 3f 01 6b 65 bf b1 59 3b be
       -0.6256974 0.70601726 -0.896164 -0.18295933
000060 04 e5 9d 3c 12 a6 1b be 25 5e e6 be 1f cb 20 3f
       0.019274242 -0.1520007 -0.44993702 0.6280994
000070 85 ef 47 be 5c b1 00 3e 5e 41 2b bf 07 70 64 bc
       -0.19524963 0.12567657 -0.6689662 -0.013942725
000080 9d 01 13 bf a4 bc 9a bf b9 0c 6d bf cb 66 23 bf
       -0.57424337 -1.2088819 -0.9259754 -0.63828725
000090 df 84 5a bf 4b d7 53 bf e2 50 09 bf 32 3c 54 be
       -0.85358995 -0.82750386 -0.5363904 -0.20726088
