sparrow/data/networks/adf/adf_sanborn_mean_network_v1.pt (torch, 23248 bytes, 17 tensors)

lstm.weight_ih_l0 f4 [40, 20]
000000 99 c4 15 3f 8b 0a 1a 3f 24 8a 2f be 80 c1 53 c0
       0.5850311 0.6017234 -0.1714254 -3.3086853
000010 68 b0 6f 3f 70 99 c4 3e b2 20 3c bc 59 77 56 bf
       0.9362855 0.38398314 -0.011482405 -0.8377586
000020 53 d7 da 3e 93 12 b5 3e 55 68 25 3f 52 66 b1 be
       0.42742404 0.35365734 0.64612323 -0.34648377
000030 56 e8 a9 be ea a2 8a bf e2 d9 55 3e f3 a1 27 c0
       -0.3318507 -1.0830967 0.20883897 -2.6192596
000040 d2 64 89 be f2 2f 19 bf b5 fa 99 3f 4b 90 5e bc
       -0.26834732 -0.59838784 1.2029635 -0.013584207
000050 f0 e0 66 bf 38 e1 50 3f 0f f8 97 bd 2f 49 60 bf
       -0.9018698 0.81593657 -0.0742036 -0.8761167
000060 73 b3 bc 3c 11 26 17 bf f3 21 42 bf a5 fc 28 3f
       0.023034787 -0.5904246 -0.7583305 0.66010505
000070 c7 ee f8 3e 28 8c cc 3e 08 e4 f8 3c 5f ad 1b bf
       0.48619673 0.3995068 0.030382171 -0.6081142
000080 bd 67 e7 be d3 e7 84 be 81 90 15 3f b2 ad d1 3b
       -0.45196334 -0.25958118 0.5842362 0.00639888
000090 f4 61 2c be be 93 e9 3e 8b 83 9e be 4e 0a aa 3c
       -0.16834241 0.4562053 -0.30959734 0.020756867
0000a0 52 9c 0e bf 4c e0 f4 3e ea dc 35 3f 8c b4 88 3e
       -0.55707276 0.47827375 0.71040213 0.26700246
0000b0 5e fd dd bc 15 b2 e1 3e dd fd 7b bf 2e dc 8f be
       -0.027098354 0.44081178 -0.9843424 -0.2809767
0000c0 e0 62 fb be 11 eb 7b bf 92 25 df be 7b d1 d7 3d
       -0.49098873 -0.9840556 -0.4358335 0.10538002
0000d0 d3 db ff be dd f0 96 3d 8c f1 b7 be a0 f7 80 3e
       -0.499724 0.0737016 -0.35926473 0.25188923
0000e0 7a a3 e1 3d b7 a2 4c 3e 1c fe 93 3d 33 4e 3e bf
       0.11017509 0.19983946 0.07226202 -0.7433807
0000f0 18 3c e1 bf d7 a5 84 bf 2e d8 13 3f 3f 73 c8 3e
       -1.7596464 -1.036311 0.5775174 0.39150426
000100 5d a4 55 3f fb 9a 57 bf 53 88 11 be 57 08 e2 bf
       0.83453923 -0.84220856 -0.1421216 -1.7658795
000110 d7 56 66 3f 22 e8 a6 be d5 c9 a1 be ad bd 33 bf
       0.8997626 -0.32598978 -0.31599298 -0.702113
000120 96 d9 98 be 11 d1 11 c0 20 e9 80 3f 0f 24 f0 bf
       -0.29853505 -2.2783854 1.0071144 -1.8761004
000130 08 97 a4 bf fa 81 35 c0 87 c4 7c 3f ff 0e 23 bf
       -1.2858591 -2.8360581 0.98737377 -0.6369476
000140 fc 26 98 3e 9b 2e 80 3d 7c 91 47 3f ac aa d8 3d
       0.29717243 0.06258889 0.77956367 0.10579428
000150 4b 80 71 be f5 41 0e bf 5f f6 04 bf 95 87 83 be
       -0.23584096 -0.5556939 -0.5193843 -0.25689378
000160 76 3d 79 bf f4 f2 89 bf ba 8f f8 be b2 b9 84 c0
       -0.97359407 -1.0777268 -0.48547155 -4.147668
000170 4e 86 21 bf 2c 6e ae bf 6b a6 90 bf 6a 2f b1 bf
       -0.6309556 -1.3627372 -1.1300787 -1.3842595
000180 a8 3d 2e bf c8 53 23 bf f6 c5 8d 3f 05 e8 81 3f
       -0.6806283 -0.63799715 1.1076038 1.0148932
000190 fb b1 75 be cf c6 e2 bf 22 86 89 3f b0 18 c3 bd
       -0.23993675 -1.7716922 1.0744059 -0.09526193
0001a0 e0 cb c6 bf 3b dd 6c 3e 06 61 b5 3e 17 90 84 3f
       -1.5530968 0.23131268 0.35425586 1.0356473
0001b0 ad 29 8e 3e 48 2d df 3e 0a bb c9 bf ef 67 bd 3e
       0.2776617 0.43589234 -1.5760205 0.36993358
0001c0 d8 d2 87 3f 7c d8 27 bf 3d e6 ee 3e fa db ca bf
       1.061122 -0.65564704 0.46660033 -1.5848382
0001d0 5f 6b 1d bf 3b fc aa 3f 2e 8e 2f 3e 40 86 1a 3f
       -0.6149196 1.3358225 0.17144081 0.603611
0001e0 8b bb 5f bf 9b e6 03 3e a4 8b a0 3f 51 68 12 3f
       -0.8739554 0.12880938 1.2542615 0.57190424
0001f0 ba f3 e7 3e aa b8 f7 3e d9 5b bf bf 6b 73 ac 3e
       0.45303136 0.48383075 -1.4949905 0.33681807
000200 09 31 05 c0 bd 6b 96 3e 54 a0 8d be de 37 64 bc
       -2.0811179 0.29379073 -0.27661383 -0.013929335
000210 31 e4 9e 3e 2c a8 b0 bf 04 5e 75 3e bc 02 3e bc
       0.3103347 -1.3801322 0.23961645 -0.011597332
000220 91 59 c5 bf 8a 68 13 bf 18 8a 17 3f 55 d2 0d bf
       -1.5417958 -0.5758139 0.5919509 -0.55399066
000230 6e d9 22 bf f5 47 4d c0 d6 a7 94 3f c4 97 b8 3e
       -0.6361302 -3.207517 1.161372 0.36053288
000240 62 41 ed be c0 e2 c0 bf 6d 4b 5b bf 06 5b 08 3e
       -0.46338946 -1.5069199 -0.85661966 0.13315973
000250 09 db 05 3f ca 6d 48 bf 32 32 57 bf bb 9e 4f c0
       0.52287346 -0.78292525 -0.84060967 -3.2440631
000260 47 3d c9 bf 43 b0 91 bf 92 fa 2f 3f f1 70 64 bf
       -1.5721825 -1.1381916 0.68741715 -0.89234835
000270 17 f7 02 bf c3 b7 38 bf 6f bc e0 be 78 ba a1 c0
       -0.5115828 -0.721554 -0.43893763 -5.0540123
000280 71 73 fe 3b df 00 0f bf ed b7 84 bf 05 47 0c 3f
       0.0077652265 -0.55860704 -1.036863 0.5479587
000290 eb fd a7 3f bd 26 8e bf 54 13 49 3f 6f f9 4c 3f
       1.3124365 -1.1105572 0.7854512 0.80068105
0002a0 74 20 dd bf 47 4d 54 3f b5 d6 6a be 6b d9 2b bf
       -1.7275529 0.82930416 -0.22933467 -0.6712863
0002b0 23 5c ec bc dc 80 f5 3e 22 34 02 c0 86 17 df be
       -0.028852528 0.47949874 -2.034432 -0.43572634
0002c0 ec 35 a3 3d 2c 62 81 3f 63 70 41 3f 98 41 46 bd
       0.07969269 1.0108085 0.75562114 -0.0484024
0002d0 0b a4 4c bf 9b 71 30 bf 1d 61 7c 3f f8 cc 0a 3f
       -0.7993781 -0.6892335 0.98585683 0.5421901
0002e0 61 f4 c9 3e 10 7e 67 bf 14 0e fc bf 1d a9 90 bf
       0.3944426 -0.9042673 -1.9691796 -1.1301609
0002f0 a7 99 70 3f 1e 0c bb bf 6e 12 03 bf 6b e3 04 bf
       0.93984455 -1.4613073 -0.51199996 -0.5190951
000300 7a 21 9e bf 9f b3 9b be 2c 90 37 3f cb ec 23 c0
       -1.2353966 -0.30410478 0.71704364 -2.5613277
000310 b4 07 eb bf 89 c6 bc bf 0a 96 43 bd 56 6c b5 3e
       -1.8361726 -1.4748088 -0.04775051 0.35434216
000320 6b 70 ae be 23 55 41 40 ee 9a 03 40 57 0f f9 bd
       -0.34070143 3.0208213 2.0563312 -0.12161129
000330 a7 57 92 3f 6e ae 8e bc 98 b5 81 3e 98 fa e4 3d
       1.1432999 -0.017417159 0.25333858 0.111806095
000340 57 1a d2 bc bf ce 88 3f f0 cb bd 3f 30 fb 67 3f
       -0.025647325 1.0688094 1.4827862 0.90617657
000350 1e 38 ec 3f 51 91 3a 3d 9f f1 ac be 6c b2 ea 3e
       1.8454626 0.04554874 -0.33778092 0.4583925
000360 cf ee 9b 3f 90 91 36 be 68 7f 1a be 38 4d c1 be
       1.2182254 -0.17828965 -0.15087664 -0.37754226
000370 ab 8f 63 41 be 9b 57 3f 8e e8 aa 3f f4 8f 52 3f
       14.222575 0.8422202 1.335222 0.82250905
000380 df 29 05 41 1f ad 1e 3e bd c8 f2 bd c3 3a ed 3f
       8.322722 0.15495728 -0.11854694 1.8533558
000390 1e 0b 65 41 7c 3a fd 3f 8e f1 fd 3f 10 c1 d5 3f
       14.315214 1.9783473 1.9839342 1.6699543
0003a0 ff 29 a1 3e 3a a6 3b 3f 13 06 6c 3e fb e0 ca 40
       0.31477353 0.73300517 0.23049192 6.3399634
0003b0 95 22 b8 40 39 90 7c 3e 47 af b2 3f a0 0c a0 3f
       5.7542214 0.24664392 1.395974 1.2503853
0003c0 e3 1a 31 3e ce 43 43 3e 02 b2 8c be 9f 28 67 3c
       0.17295413 0.19068834 -0.2747956 0.014108806
0003d0 5d f1 5b be 59 89 6a 41 df a2 8b bf 25 be 12 bf
       -0.21478792 14.658532 -1.0909079 -0.5732139
0003e0 de eb 46 bf 56 97 b3 3f d8 ab 54 bf c4 5d 73 3f
       -0.77703655 1.4030559 -0.8307471 0.9506495
0003f0 7c a7 1a 40 90 e2 c3 3e fb 62 b3 be 87 f0 28 40
       2.4164724 0.3825879 -0.35036454 2.6396806

lstm.weight_hh_l0 f4 [40, 10]
000000 1d 48 d8 3e 40 cd 16 bf 9b 08 76 bd 95 4d af 3d
       0.42242518 -0.58906937 -0.0600668 0.085597195
000010 b6 69 a2 be bf d1 f6 bc 65 11 2e be ca f0 c7 bd
       -0.31721276 -0.030129312 -0.16998823 -0.09762724
000020 97 0a 0b bf 06 d8 15 bf f9 3e d3 3e 96 e1 b4 40
       -0.54313034 -0.5853275 0.41258982 5.6525373
000030 5f e2 6b 40 f8 dd 1a 3c e8 b3 00 c0 a1 0e 64 c0
       3.6856916 0.009452336 -2.0109806 -3.5633929
000040 88 cb dc 40 22 3d 98 3f c8 aa 51 bf d6 ec 64 be
       6.899845 1.1893656 -0.81901217 -0.2235597
000050 46 98 87 bf bd 97 49 3f 9e 15 ea 3f 8a aa 13 bf
       -1.0593345 0.7874716 1.8287847 -0.57682097
000060 55 fb 4f 3f b2 b7 d2 3e f9 db 53 bf c3 3e a0 bf
       0.8124288 0.41155773 -0.82757527 -1.2519153
000070 b7 d0 03 40 d1 46 83 3e a7 9a da 3e c5 4c 24 be
       2.059614 0.25639966 0.42696115 -0.1604491
000080 a4 f7 c4 3e 78 29 a0 3d a3 cc 7c 3d 09 bb 33 3e
       0.38470185 0.078204095 0.061718594 0.17551817
000090 ce 2c 30 bc d1 a2 18 3f f1 33 94 3e f8 00 15 3e
       -0.01075287 0.5962344 0.28945878 0.14551151
0000a0 34 77 f2 3e 79 fa d3 3f 63 e8 ea 3e 26 bb e1 3c
       0.4735657 1.6560813 0.45880422 0.02755506
0000b0 c9 01 52 3f 31 a6 76 3f ea 16 c9 be ce 3f ca 3e
       0.82033974 0.9634734 -0.39275295 0.39501804
0000c0 a0 b6 63 3f f7 39 a7 bf fb 84 ce 3e e8 0b 7c bf
       0.8895054 -1.3064564 0.4033583 -0.9845567
0000d0 0d 9e 6d 3e ef 99 75 3e da 2a 89 3f a6 b2 1b c0
       0.23204823 0.23984502 1.0716202 -2.4327788
0000e0 52 8c 1f 3e 15 b6 3a bf e9 d5 87 3e 3b 87 0c bf
       0.15580872 -0.72934085 0.26530388 -0.54893845
0000f0 d2 ce d9 3f 0d 74 ed 3e 11 a4 21 c0 45 3a d7 be
       1.7016242 0.46377602 -2.5256388 -0.42036644
000100 1f 04 69 3f 51 76 2a c0 fd 03 f0 be 31 ae e3 bf
       0.91021913 -2.6634715 -0.46878043 -1.7787534
000110 91 35 20 3f 9f 2f 4d 3f 45 73 4e bf 3f f9 53 3f
       0.62581736 0.8015079 -0.8064464 0.82802194
000120 40 c2 5e 3f 73 c5 d2 be 69 e5 56 3e ce 6c c6 be
       0.8701515 -0.41166267 0.2098595 -0.38754886
000130 a7 ce e1 3c 6d 02 4b 3f ae ff 65 3f 23 e6 b2 be
       0.02756436 0.79300576 0.8984326 -0.34941205
000140 23 48 bf be c2 38 a3 bf bd 27 3c bf 59 4e c1 3e
       -0.37359723 -1.2751696 -0.73498136 0.37755087
000150 eb ee df 3e db 75 5a 3e dc a6 82 3e 40 72 08 40
       0.43736967 0.21334021 0.2551793 2.1319733
000160 ee c3 bd 3e 37 3c 79 3e f5 a5 50 3f b6 7d 2c be
       0.37063545 0.24339376 0.8150323 -0.1684483
000170 c1 a5 4b bc 53 64 d9 be e4 47 ce 3c 28 54 90 be
       -0.0124296555 -0.42459354 0.025180764 -0.28189206
000180 df 62 ef be e0 c6 d4 3e f0 81 0e 3e 83 bf 92 3f
       -0.4675512 0.4155798 0.13916755 1.1464695
000190 73 af 84 bf e6 d2 49 3e 57 0e a1 3e a9 1b ad bd
       -1.0366043 0.19709358 0.31456253 -0.084525414
0001a0 1c ee 84 3f 45 59 70 bc 37 12 08 be 86 60 53 bc
       1.0385165 -0.014669721 -0.13288198 -0.012901431
0001b0 da 65 10 3f 76 69 8c be cb 70 75 c0 b8 58 2b 3f
       0.56405413 -0.2742421 -3.8350093 0.6693225
0001c0 0a 6a de 3f b9 58 27 3f 06 73 a0 3e ee 19 e6 40
       1.737611 0.65369755 0.31337756 7.1906652
0001d0 37 39 91 3f a9 4e 67 bf 7b 4a a4 bf b8 39 19 3f
       1.1345586 -0.903544 -1.283523 0.59853697
0001e0 7c 7e 48 3f c2 59 ae bf 41 dd 2c 3f 4d 7e 66 3f
       0.78318 -1.3621142 0.67525107 0.9003647
0001f0 21 3e 90 bf 47 7a 8a bd b3 69 eb bf 88 67 ae 3f
       -1.126896 -0.06761604 -1.8391632 1.3625345
000200 e6 86 cf be 25 09 e7 bf 42 f6 db 3f 22 d8 fc 3e
       -0.40532607 -1.8049666 1.7184527 0.49383646
000210 27 80 98 3d e4 07 f3 bd 81 c6 40 3f 54 14 2a 3f
       0.07446318 -0.118667394 0.7530289 0.6643727
000220 b2 4f 43 3d 96 c3 a7 bf 15 d9 23 3d 3d 02 cf bd
       0.047683425 -1.3106563 0.040001947 -0.10107849
000230 80 ae 00 3e ef 98 8c 3e 47 8a 15 3f ab 0b 0a 3e
       0.12566566 0.2746043 0.5841412 0.13481013
000240 15 69 b3 bf 31 35 80 bf b2 2f 7c 3d 4b 4c 08 40
       -1.4016443 -1.0016233 0.061568923 2.1296566
000250 95 c1 06 3f ad c0 29 bf 21 46 84 bf a7 62 15 40
       0.5263913 -0.66309625 -1.0333902 2.3341463
000260 76 e4 8c 3f 84 3a bc be ad 6c 41 3e f0 aa ef be
       1.1007221 -0.36763394 0.18889113 -0.46810102
000270 75 e5 3a 40 32 7c 47 c0 b0 5f a3 bf 55 b0 ea 3d
       2.920255 -3.1169553 -1.2763577 0.11459414
000280 8c 33 0d bf 0c 61 43 3f 4d ab 7c bd 3b a3 60 3f
       -0.5515678 0.76319957 -0.061686803 0.8774907
000290 be b8 74 bf ff 7e a5 bf 05 64 11 40 aa 2e 27 40
       -0.95594394 -1.2929381 2.2717297 2.6122231
0002a0 5c 89 df 3f 8a 8b 4d bf fd 36 57 3e 00 cf 0b 3d
       1.7463794 -0.80291045 0.2101707 0.034132957
0002b0 a4 07 5f 3f 1c a3 78 be a4 9b d2 be 0a 84 1c 3f
       0.87121034 -0.24280971 -0.4113437 0.61138976
0002c0 c7 e9 20 be ab 90 0a bf e3 24 3b be 5f 23 69 3e
       -0.15714179 -0.54126996 -0.1827579 0.22767399
0002d0 01 60 24 3f 3d 83 0f 3f 84 84 a2 3e a7 66 1b be
       0.6420899 0.5605963 0.31741726 -0.15175878
0002e0 0e 85 1e c0 dc ba 01 c0 71 2a c6 3f f0 4c 7d be
       -2.476871 -2.02703 1.5481702 -0.2473638
0002f0 fe 48 19 c0 06 29 10 bf c4 17 f1 3f 91 e8 95 be
       -2.39508 -0.56312597 1.8835378 -0.29278997
000300 e7 8a 85 bf 63 d2 e4 3e ce eb 84 be 9a b7 64 bf
       -1.0433015 0.44691762 -0.25961155 -0.89342654
000310 7a a3 b4 be bc 46 98 bd 0a ae 45 3f 7a 8a 49 c0
       -0.35280973 -0.074353665 0.7721869 -3.149077
000320 6d b3 89 c0 40 4e 43 be 95 12 cb 3e bd 43 a3 3f
       -4.3031526 -0.19072819 0.39662614 1.2755047
000330 80 5f 04 3e 6a 6d ce be 06 53 56 3e a1 fa 9e 3f
       0.12927055 -0.4031785 0.20930108 1.2420236
000340 3c 4b f3 be 14 be 48 40 0e f9 40 bf 2d 42 74 bf
       -0.47518337 3.1366014 -0.7538003 -0.95413476
000350 d4 da 9f c0 90 35 7f be 8b e3 84 3d 7b 0a e1 3f
       -4.9954624 -0.24922776 0.06488713 1.7581323
000360 a7 94 23 c0 17 f8 91 3f 2e 64 e3 bc 91 fc 0e bf
       -2.555948 1.1403836 -0.02775773 -0.55854136
000370 0b b2 c3 bf e3 cb 60 bf be e2 c5 bf f8 05 09 3f
       -1.5288709 -0.87811106 -1.5459821 0.5352473
000380 06 40 83 3f ee 73 c7 bd 1c 70 72 3f 8a 8a 3e c0
       1.0253913 -0.09738909 0.94702315 -2.9772058
000390 5e 25 62 40 97 0d af 3e 8a 07 b3 bf 73 6e 29 3f
       3.5335307 0.34190056 -1.3986676 0.6618416
0003a0 41 81 e3 3f 79 0d 0f c0 2f be d7 3e 5f 46 ac be
       1.777382 -2.2351973 0.42137286 -0.3364744
0003b0 8e 13 b1 3d f8 45 42 c0 54 c2 13 3f 46 b0 bf bf
       0.08646308 -3.0355206 0.57718396 -1.4975669
0003c0 73 25 15 40 b2 25 18 c0 36 ab 1d c0 0a 01 79 40
       2.3304107 -2.3773007 -2.463575 3.8906884
0003d0 14 54 41 c0 a4 09 29 c0 ec 44 6d c0 6b ba c0 bf
       -3.0207567 -2.6412134 -3.7073317 -1.505689
0003e0 14 5e d0 be 29 3b a6 3e d9 ff ac c0 44 cb cf 3e
       -0.40696776 0.3246701 -5.4062314 0.40584767
0003f0 89 47 7e bf 7a 4b 8a bf c4 31 21 c0 39 c2 32 bf
       -0.99327904 -1.0804284 -2.5186625 -0.6982761

lstm.bias_ih_l0 f4 [40]
000000 4f f2 da bf 25 66 b0 bf 6f 8b d3 bf 66 82 b8 bf
       -1.7105197 -1.3781172 -1.6526927 -1.4414794
000010 38 a6 ac bf 1e 36 ef bf 2a 42 a6 bf 55 22 89 bf
       -1.3488226 -1.868839 -1.2988942 -1.0713602
000020 a1 7f 90 bf 9e b6 4f bf 57 a6 02 3f 58 c1 1b 40
       -1.1288949 -0.81138027 0.51035064 2.4336758
000030 bc 4e e6 3f ee d8 93 3f bf a3 5f 3f 33 cc e1 3f
       1.7992778 1.1550577 0.8735923 1.7640442
000040 3b fb e9 3f 22 55 56 3f 3b c1 96 3f 35 e3 99 3f
       1.8279794 0.8372365 1.1777719 1.2022463
000050 3f 82 72 3e 69 c6 27 bf 7a 75 1d bf b4 19 f8 3d
       0.23682497 -0.65537125 -0.6150738 0.121142775
000060 f3 db 3e be 36 3a 1e 3e 0a 8d c0 be 45 26 f1 3e
       -0.18638591 0.15451893 -0.37607604 0.4709951
000070 bf 90 4a 3f 0a d5 09 3f 50 d8 33 3e 6e e8 bc 3f
       0.79127115 0.53840697 0.17562985 1.4758432
000080 f0 56 b5 bd 6d a9 c1 be 66 54 13 3e 0d 9d da 3d
       -0.08854473 -0.37824574 0.14387664 0.10674486
000090 66 f1 fd 3c a2 90 05 be a3 76 ec be b1 d5 dc be
       0.030998897 -0.13043454 -0.46184263 -0.43131784

lstm.bias_hh_l0 f4 [40]
000000 06 1b c5 bf ec 24 d2 bf 73 9b df bf 38 10 85 bf
       -1.5398872 -1.6417518 -1.7469314 -1.0395575
000010 0e f3 9f bf f5 ae 08 c0 26 78 90 bf 30 37 9f bf
       -1.249605 -2.1356785 -1.1286666 -1.2438717
000020 97 9a b9 bf 40 6c 66 bf 4a 02 3d 3f 1a 0c 23 40
       -1.4500302 -0.90008926 0.7383162 2.5476136
000030 9d ad bb 3f 94 72 86 3f dd af 9b 3f fe ca a4 3f
       1.4662358 1.0503716 1.2163044 1.2874448
000040 c7 6a e5 3f 76 75 2e 3f 86 7c a8 3f 9f 99 6a 3f
       1.7923211 0.6814798 1.3163002 0.9164066
000050 e0 0a 71 3e 1d 30 61 bf d6 00 34 bf d8 a2 b0 3e
       0.23539305 -0.8796404 -0.70313776 0.3449924
000060 9f 29 63 3d 0d 28 b2 3e ca a1 d8 be 07 c4 02 3f
       0.055459615 0.3479618 -0.42310935 0.51080364
000070 e8 3f e0 3e f3 75 c8 3e 6b 53 c7 3e 53 ea 9e 3f
       0.43798757 0.39152488 0.3893083 1.241526
000080 52 cf 23 be c6 0d 2b be 1e 89 f4 bd 80 63 86 3e
       -0.15997055 -0.16704473 -0.119402155 0.26247787
000090 73 bb b9 3c 6b 9c ca be 5f a3 d2 be 82 49 2c bf
       0.02267239 -0.39572462 -0.41140267 -0.67299664

lstm.weight_ih_l0_reverse f4 [40, 20]
000000 b7 b9 e4 bf 8c ca 72 3e 7f ad 16 3f d8 79 39 3f
       -1.7869176 0.23710078 0.58858484 0.72451544
000010 2b 58 98 3e e6 af 8e bf 74 85 33 bf f5 ea 9e be
       0.29754767 -1.114743 -0.7012551 -0.31038633
000020 8c 4f a2 3e 87 e0 12 be 19 9f 7b bf e9 98 4b bf
       0.31701314 -0.14343463 -0.9828964 -0.795302
000030 3e 30 4c bf a2 e3 ae bf 57 09 4e 3f 67 bc a3 bf
       -0.7976111 -1.3663218 0.80483 -1.2791871
000040 b8 7d a4 be 6d cd 05 bf 9b 6b e6 3d 41 7b a8 bf
       -0.32127166 -0.5226658 0.11250993 -1.3162614
000050 54 93 b4 bf 4c f5 f3 be 46 2e b2 3e 43 e8 42 bd
       -1.4107461 -0.47648084 0.3480093 -0.047584783
000060 f1 ae 9b 3f 05 a0 83 bf d5 3f dd 3e e4 28 a7 bf
       1.2162763 -1.0283209 0.43212762 -1.3059354
000070 ca 3e 35 3f 48 56 40 be 4e f0 41 bf 43 d0 00 c0
       0.70798934 -0.18782914 -0.757573 -2.0127113
000080 e2 37 ec be f8 9f c7 bc 0a 4c 72 3f 97 90 bd bf
       -0.46136385 -0.024368271 0.94647276 -1.480975
000090 a6 f4 de bf f5 c6 d8 be e2 2b 8e 3f 31 89 b1 3d
       -1.7418411 -0.42339292 1.1107142 0.08668745
0000a0 94 f5 02 bf ae 45 bc bd 01 3f 8f c1 98 78 01 c1
       -0.5115597 -0.09192978 -17.905764 -8.091942
0000b0 bc c0 d0 3d 96 b2 02 3f 07 ee 2b 3d 8f d0 02 3f
       0.10193011 0.5105375 0.041975047 0.51099485
0000c0 54 d2 59 3f b9 f8 0e bf a8 e0 0b 3f c5 da d6 3d
       0.8508656 -0.5584827 0.54639673 0.10490946
0000d0 ab 9c 97 3e 69 8e a5 be 88 3d 4a 3e 0d 51 fb 3c
       0.29611716 -0.32335213 0.19750035 0.030678296
0000e0 c0 db be bd 70 b4 c8 c0 02 6a 89 3f 6d 6e 5f bd
       -0.09319258 -6.272026 1.0735476 -0.05454867
0000f0 cd 05 8a bf 46 ce e7 3c 6e 28 80 3d 80 ea b4 bf
       -1.078302 0.028296601 0.06257711 -1.4134064
000100 87 f2 10 bf d6 a0 3a be 61 f8 85 3e 7c c2 af bf
       -0.5662007 -0.18225417 0.2616606 -1.3731227
000110 14 e8 83 3f 5b bf 5d bd 92 36 fc bf 2a 54 85 bf
       1.03052 -0.05413757 -1.9704154 -1.041631
000120 e3 22 d7 bf 11 70 b1 bf f1 04 d7 3e 1e d3 d8 bf
       -1.6807522 -1.3862325 0.41995957 -1.6939428
000130 77 a5 a5 bf 9f f5 ba bd 35 83 bb bd c9 f4 d5 bf
       -1.2941121 -0.0912888 -0.09155885 -1.6715328
000140 4d 31 31 bd 62 d0 15 3e e4 f5 83 3e 59 16 2b 3f
       -0.043259908 0.14630273 0.25773537 0.66830975
000150 08 b5 d6 bf c9 aa ea be 91 22 eb 3d 16 15 9c bf
       -1.6773996 -0.45833424 0.114812024 -1.2193935
000160 07 b7 c8 3e 35 ca 3d 3e 73 a2 fc be af de 95 be
       0.3920214 0.18534167 -0.4934269 -0.29271457
000170 97 a6 03 bf 5d 26 85 bf 27 3c 06 3f fb c7 12 bf
       -0.5142607 -1.0402333 0.52435535 -0.57336396
000180 f2 5f 3c be fa ba f3 bf 1c b9 6c 3e c2 08 60 bf
       -0.18395975 -1.9041436 0.23117489 -0.87513363
000190 6a 1c c7 3e 83 71 b7 3e 08 6f 10 bf 73 75 1b c0
       0.38888866 0.3582879 -0.5641942 -2.4290435
0001a0 9c 19 26 bf 79 5d 5a 3f 75 a0 3d be cf aa de bd
       -0.64882827 0.8529888 -0.18518241 -0.10872423
0001b0 b2 7c c1 3e 0c f2 e3 bb b1 05 f7 3c ce e8 c1 bf
       0.37790447 -0.0069563445 0.030154081 -1.5149171
0001c0 55 80 e4 3d 08 03 08 bf 2c b1 70 3f 34 4c 5e be
       0.1115729 -0.53129625 0.9402034 -0.21708757
0001d0 82 47 11 bf c0 98 fc bf 92 1a 9c 3f da ab c7 bc
       -0.5674974 -1.9734116 1.2195609 -0.024373937
0001e0 32 7e 5a bd ae e5 1e bf ff 90 49 3e 02 b0 29 bd
       -0.053343005 -0.62069213 0.19684218 -0.04142762
0001f0 d8 43 11 3f c2 38 f3 bf 99 e6 8f 3d 50 5b 9a be
       0.56744146 -1.9001696 0.07026405 -0.3014779
000200 45 5e 8a 3f e9 16 86 3d f8 7b 83 c0 aa d7 eb bd
       1.0810019 0.065473385 -4.108883 -0.11515744
000210 18 bf 52 bf 11 b2 0d bf 1c e0 b2 3e 4f 36 61 bf
       -0.82322836 -0.5534983 0.34936607 -0.87973493
000220 e2 cb 57 bf 14 ee 38 bf d8 98 c3 3f 16 71 81 3f
       -0.84295475 -0.7223828 1.5281019 1.0112636
000230 d8 75 97 be 1a f0 93 3e 50 94 9e be b6 78 19 3d
       -0.29582095 0.2889412 -0.30972528 0.037468635
000240 82 04 35 3f 08 2a 00 c0 a2 72 23 bf c4 32 01 3f
       0.70710003 -2.0025654 -0.6384679 0.5046809
000250 1e 23 95 3e 24 c7 6f 3f 6e c9 08 3f f7 1d 83 bf
       0.29128355 0.9366324 0.5343236 -1.024352
000260 c5 69 21 be dd 1a 57 bf 7e 95 70 c1 c5 9e 14 bf
       -0.15763004 -0.84025365 -15.036497 -0.58054763
000270 57 41 3e 3e 8d 9c 2a 3f fe c5 0e bf 9d 28 12 c0
       0.18579613 0.6664513 -0.5577086 -2.2837288
000280 56 4d 8c bf 76 6e d2 bf f4 85 8b 3f b1 7f db 3e
       -1.0961101 -1.643996 1.0900254 0.42870858
000290 7f bb 6b c0 a1 1e 42 bf a4 64 46 bd 54 2b 22 c0
       -3.6833189 -0.75827986 -0.048435822 -2.5338945
0002a0 e7 79 ea bd c5 d0 a0 bf d9 65 a0 be 04 2b 13 bd
       -0.11449032 -1.2563711 -0.31327704 -0.035929695
0002b0 0e b8 99 3e 55 01 20 3d 37 23 7f 3f a6 39 2a 3e
       0.30023235 0.03906377 0.9966311 0.16623554
0002c0 94 8a 09 be 59 46 46 be 5c 7a 8c bf ae d3 15 bf
       -0.1343177 -0.19362773 -1.0974841 -0.5852612
0002d0 86 73 fe bf 4a 1b 78 3f 41 c7 a8 be 97 a7 73 bd
       -1.9879005 0.9691664 -0.3296452 -0.059485998
0002e0 da 64 65 3f 15 83 a4 bf 29 ff 54 bd 35 76 f8 3e
       0.8960701 -1.2852503 -0.052001152 0.48527685
0002f0 87 52 09 3f 93 fb 14 3e f8 b1 a3 bf c5 c3 15 bf
       0.5364155 0.14549093 -1.2788687 -0.58501846
000300 32 3e 0c 3d 3b 25 57 be e8 a1 42 3f d1 c5 a1 bf
       0.034239 -0.21010296 0.760283 -1.2638494
000310 ed b4 e2 be 0f 49 87 bf 55 1e 7a 40 9a d4 8b 3f
       -0.4427866 -1.0569171 3.9081013 1.0924256
000320 d1 bf 36 3f 20 3a 59 41 ac 05 4f bf d4 87 5e 41
       0.7138644 13.576691 -0.8086803 13.908161
000330 48 fe ee 3f 62 10 86 be 69 68 19 bf 7c 11 39 bf
       1.867135 -0.26184374 -0.5992494 -0.72292304
000340 f1 ee bc 3f 99 ee 73 40 50 4c 98 bd 8c 02 87 3e
       1.4760419 3.8114378 -0.074364305 0.2636913
000350 cd 1f 94 bf 86 64 39 bf ae eb 2a 3f b3 6a 8a 3f
       -1.1572205 -0.7241901 0.6676587 1.0813812
000360 df b8 4a 3f b0 ed f9 3e c1 dc 54 bf 8c bd d4 3e
       0.7918834 0.48814154 -0.83149344 0.41550863
000370 35 09 43 bf da d0 70 bf 0f 9b 1e be b1 0d ba be
       -0.76185924 -0.9406868 -0.15488838 -0.3633857
000380 ee 69 6a bd 30 17 b7 be 26 f1 4c 3d 29 cb 23 be
       -0.05722993 -0.35759878 0.050034665 -0.15995468
000390 3e 21 3f 3f 10 1e 41 3f 30 51 35 3e d7 0e 94 be
       0.746601 0.75436497 0.17706752 -0.28917572
0003a0 0e 47 6b 3c a7 aa 9f 3f 88 a4 fe 3f 43 4e 09 bd
       0.0143602025 1.2473954 1.9893961 -0.0335219
0003b0 7a 5e 5b be 1e 1a 8c be 4b 7c cd bf 46 4a f9 40
       -0.21422759 -0.27363676 -1.6053556 7.7903166
0003c0 3f a8 6f 41 e4 b5 38 41 82 79 10 3f f0 3e 63 3f
       14.978576 11.544407 0.56435406 0.8876791
0003d0 19 7b fe 3f 9a 7a f0 be d7 88 b0 be 6f aa 13 39
       1.9881316 -0.46968538 -0.344794 0.00014082504
0003e0 5f e7 fc 3e 77 b9 c3 3e 9f 09 0d 41 2c 68 11 be
       0.49395272 0.38227436 8.814849 -0.14199895
0003f0 7d 25 c0 3e 12 ac 09 be ce 7b 10 bc 1c 60 68 41
       0.375286 -0.13444546 -0.00881858 14.523464

lstm.weight_hh_l0_reverse f4 [40, 10]
000000 fb 41 36 3e de a9 6b bd 8d 4f 76 3e b6 c9 ff be
       0.17798607 -0.057535045 0.24053784 -0.4995858
000010 8f 9c 94 bf 7b 63 f2 be c1 31 13 3f 59 ba 01 c0
       -1.1610278 -0.47341523 0.57497793 -2.0269988
000020 af 48 c3 3e 71 01 8b bd 6f bd 8e 3e fc 04 c3 be
       0.3814139 -0.06787384 0.278789 -0.3808974
000030 55 9f 0b 3f cb c8 d3 3e e0 1e 28 bd 42 df 16 3f
       0.54539996 0.4136413 -0.04104507 0.58934414
000040 d8 ec c9 bf f5 9c e9 bf 26 a7 0a 3f 53 99 63 bb
       -1.5775404 -1.8251024 0.541613 -0.003472884
000050 55 55 06 bf 9a 59 4a 3f da a3 9c 3d e0 da 09 3d
       -0.52473956 0.7904297 0.0764844 0.033656
000060 24 97 a5 3f 17 37 00 bd dc e0 73 be d9 35 aa bf
       1.293675 -0.031302538 -0.23816246 -1.3297683
000070 24 42 ec 3d 90 4d 12 3f 6a 61 3d 3e 5c a0 93 3f
       0.11536053 0.571496 0.18494192 1.1533313
000080 8c a5 8b 3e a7 80 ac be f1 14 08 3f eb c0 8d 3f
       0.2727474 -0.33691904 0.53156954 1.1074499
000090 f0 58 bf 3f d6 2e 0d c0 ba 51 0c 3f 48 59 72 be
       1.4949017 -2.2059836 0.54812205 -0.2366687
0000a0 bd 98 d4 be 57 b2 b2 bf 1f a5 cb bd 43 72 2a 3e
       -0.4152278 -1.3960675 -0.09943604 0.1664515
0000b0 3d 3c 28 40 07 97 09 be 60 27 80 be 74 e8 91 bf
       2.6286767 -0.13436519 -0.2503004 -1.1399064
0000c0 bc f9 c0 3e b5 db ca be 03 9c 47 3e 71 6f c3 be
       0.37690532 -0.39620748 0.19493107 -0.3817096
0000d0 6c 85 07 3f d4 d0 0b 3f 49 62 db 3f 51 49 2e 3f
       0.5293796 0.5461552 1.7139369 0.6808062
0000e0 12 e2 44 3f 27 54 af 3d 69 ca 7f bf ac d1 26 bd
       0.76907456 0.08560973 -0.9991823 -0.040727302
0000f0 6f 4e 1a be c7 8b 22 3e fd 65 b7 bf 77 57 fe 3e
       -0.15068983 0.15873633 -1.4327999 0.49676105
000100 23 d7 96 3f c2 b4 de 3f 5f aa 91 3e cc 93 cc be
       1.1784405 1.7398913 0.28450295 -0.3995651
000110 23 f2 25 3d 8f 25 38 be b4 50 53 be a9 03 9d 3e
       0.040514123 -0.17983077 -0.20636255 0.30666855
000120 e8 59 4c 3f 32 2b 5e 3f 91 e4 07 be 24 b8 53 bf
       0.79824686 0.8678466 -0.13270785 -0.8270285
000130 7a 95 b9 bd d4 85 33 c0 77 8c 09 bf 2e 80 1d 3f
       -0.090617135 -2.8050432 -0.5372996 0.6152371
000140 a2 5a 56 3e c0 2f ce be 9f cd 50 40 19 16 72 3f
       0.20933011 -0.40270805 3.26255 0.9456497
000150 7c 72 89 bf 1f 44 be be 09 d1 d9 3e 36 45 31 3f
       -1.0738063 -0.37161347 0.42542294 0.6924623
000160 44 60 83 c0 95 87 33 40 1d 9b 99 3b 47 5a 1e 3e
       -4.105501 2.8051503 0.0046876804 0.15464126
000170 2b 0b 0b bf b1 cd 13 3d ec c1 c6 bb e2 91 a7 3e
       -0.54313916 0.036084834 -0.0060655978 0.32728487
000180 3e 43 30 bd e4 1d 4d 3d d2 20 b0 3e ea 93 1d 40
       -0.043032877 0.050077334 0.3440004 2.462153
000190 84 90 28 3f 19 99 59 c0 d3 87 68 3f 1c 57 f5 bf
       0.65845513 -3.3999693 0.9083225 -1.9167209
0001a0 94 45 5d c0 e3 18 c3 bf 58 ca 4e be d7 ae 18 bf
       -3.4573717 -1.524197 -0.20194376 -0.59641784
0001b0 d0 ee 34 3f b8 a8 15 bf e5 98 a1 bd 80 bd 46 bf
       0.706769 -0.5846057 -0.078904904 -0.77632904
0001c0 ff 55 64 bf 7e 53 28 be 59 2b bc bf 45 e8 98 3d
       -0.8919372 -0.164381 -1.4700729 0.07466177
0001d0 cd ec a0 be b7 42 1f 3e c1 fd e9 3e db b6 84 bf
       -0.31430665 0.15552793 0.4570141 -1.0368303
0001e0 cc 6e f8 3e 01 82 c6 be e8 4d 18 40 5d 66 12 bf
       0.4852203 -0.3877106 2.379755 -0.57187444
0001f0 28 54 fc bf 3c f2 be be 4c 94 54 bf f8 04 b9 3f
       -1.9713182 -0.37294185 -0.83038783 1.4454641
000200 92 62 b2 bf 06 b0 32 3f 42 d9 a5 3f 4f 07 e8 be
       -1.3936331 0.6979984 1.2956927 -0.45318076
000210 96 82 b1 3e 44 f7 b1 3f df a6 b3 bf ac 15 0a c0
       0.34669942 1.3903584 -1.40353 -2.1575727
000220 68 1b 56 c0 81 8c 69 40 a5 8f 5a 3e 83 f1 f4 3e
       -3.3454227 3.6492007 0.21343859 0.4784051
000230 e1 04 46 40 ef db 7c bf fe b4 fe 40 18 40 43 c0
       3.0940478 -0.9877309 7.959594 -3.050787
000240 e0 24 46 40 5a 44 0a 40 ca de 01 bf 23 44 50 40
       3.0960007 2.1604218 -0.50730574 3.2541587
000250 9a a0 f8 3f e1 72 7d 40 a4 73 29 3e 4e 7e 4f 3e
       1.9424012 3.9601367 0.1654802 0.20263025
000260 d5 58 ae bf b5 a7 ff be 3a 71 85 3e 78 60 01 bf
       -1.3620859 -0.49932638 0.26062948 -0.50537825
000270 ea 15 65 bf e9 38 ee bd 9f 39 53 3f a0 8e 98 bf
       -0.89486563 -0.116319485 0.825098 -1.1918526
000280 eb 50 b6 3e 46 b0 35 bf 80 84 7a 3f ba e9 9f bf
       0.3560861 -0.70972097 0.9785843 -1.2493203
000290 ed b3 83 c0 7c 72 e6 bf b2 b5 6f c0 cc 96 01 c0
       -4.1157136 -1.8003688 -3.7454648 -2.024829
0002a0 00 62 e3 3f dc 8c bb be 91 fb 8f be 7d d9 56 3f
       1.7764282 -0.36630905 -0.28121617 0.8392561
0002b0 a1 16 8d bf 87 21 0d bf 22 31 34 3e dd 18 e6 bf
       -1.1022531 -0.55129284 0.17596868 -1.7976338
0002c0 ef f0 41 bf a8 3d ed 3f a9 5b 4a bf 76 bd 4c 3f
       -0.7575826 1.8534441 -0.7904611 0.79976594
0002d0 a5 21 cc be 60 50 bb bf 8b 3d 87 3f 62 77 23 3f
       -0.3986942 -1.4633904 1.0565656 0.6385404
0002e0 0c 03 d5 bd f3 f4 d5 be cb 6c ee be 3a e1 c6 bf
       -0.10400972 -0.41788444 -0.46567377 -1.5537484
0002f0 8b 5e 23 c0 97 9e 8f 3f c9 bb bc bc 44 a0 5b 3e
       -2.5526454 1.1220273 -0.023038762 0.21447855
000300 c5 05 09 3f 01 f9 90 bf 7f c0 1c 3e c2 8d ec 3d
       0.5352443 -1.132599 0.15307806 0.11550476
000310 5a 40 f4 be ff db 49 3f 96 57 b1 3f 4e 99 eb 3f
       -0.47705346 0.7885131 1.3854854 1.840616
000320 9e 12 02 c0 0d 4c b2 40 fb fa 1c c0 71 88 4d 3f
       -2.0323863 5.5717835 -2.4528186 0.8028632
000330 e2 0b d6 3f 2a 1b a2 3f bd d9 96 bf 8d d9 80 3f
       1.6722376 1.266454 -1.1785198 1.0066391
000340 28 9c 20 bf d5 e7 87 3f 7b a1 8b bf 3c 7b 94 bf
       -0.62738276 1.0617625 -1.0908655 -1.1600108
000350 47 1f c1 3f 9a 03 f3 3f 0c 80 ab c0 6f 11 91 3f
       1.508767 1.8985474 -5.3593807 1.1333445
000360 4c 60 ef bf 1d a5 7f bf b3 97 97 bf 3a 16 bd 3f
       -1.8701262 -0.9986132 -1.184317 1.4772408
000370 93 45 a2 c0 32 21 9e 3e 05 b2 12 41 a4 be 44 3f
       -5.070993 0.308847 9.168462 0.76853395
000380 ab 9c 0f bf 85 04 08 3e 27 7d 04 bf 41 ed c6 3f
       -0.5609843 0.13282974 -0.5175347 1.5541154
000390 ff 42 db 3f 73 5a 14 bf 55 4b e6 3e 35 38 11 c0
       1.712982 -0.57950515 0.4497935 -2.2690556
0003a0 23 a8 78 40 fa 0f 0b be 1f 77 d4 c0 09 36 10 40
       3.8852623 -0.13580313 -6.639541 2.253298
0003b0 99 b3 bc 3f 8a 84 7b 3e 4c 45 16 40 23 9e 50 3d
       1.4742309 0.24562278 2.3479795 0.05093206
0003c0 b3 c5 8d 3f 4f a6 ec 3e f7 33 2b 3f 0e 0b 7a c0
       1.1075958 0.46220633 0.6687617 -3.9069247
0003d0 1b 76 aa 40 59 db 35 bf 25 70 e8 3f 0a 82 1d c0
       5.326917 -0.7103782 1.8159224 -2.461062
0003e0 ae 93 62 be 1e 79 f7 3e 70 38 cb 3f c6 24 aa 3e
       -0.22126648 0.48334593 1.5876598 0.3323118
0003f0 a2 29 93 c0 e0 45 1d 40 3a 42 11 bf d6 ce 43 be
       -4.598832 2.4573898 -0.5674168 -0.1912187

lstm.bias_ih_l0_reverse f4 [40]
000000 4b a4 b6 bf bf c6 be bf 37 e0 0b c0 b1 14 9b bf
       -1.4268888 -1.4904402 -2.18556 -1.211569
000010 e8 f0 20 c0 80 cd d8 bf d7 a3 d0 bf de ba c2 bf
       -2.5147038 -1.6937714 -1.63 -1.5213277
000020 03 46 79 bf 78 34 18 bf f5 4f 96 3f c2 2b 6b 3f
       -0.97372454 -0.5945506 1.1743151 0.91863644
000030 54 d7 a2 3f cb 66 cd 3f 43 94 1e 40 4c 1e 8d 3f
       1.2721963 1.6046995 2.4777992 1.1024871
000040 51 72 90 3f a7 2b 9a 3f c8 cb 9e 3f fd a0 9d 3f
       1.1284887 1.2044572 1.2405939 1.2314755
000050 77 cb 10 3f 3d 22 ed 3d 34 32 7b be 48 5b 39 bf
       0.5656046 0.11578796 -0.2453087 -0.7240491
000060 19 af a5 bc a0 45 cf 3d 02 a0 44 be 1b 37 97 be
       -0.020225095 0.10120702 -0.19201663 -0.2953423
000070 16 96 e2 3e 30 a6 db 3d 7a f9 15 be e8 54 37 3f
       0.4425513 0.10725057 -0.14645949 0.7161393
000080 a4 5d 98 3f 3d ed b7 bd a6 b8 5c 3e 7a 64 67 3f
       1.1903577 -0.089807965 0.21554813 0.9038769
000090 e6 80 46 3e b0 25 a6 3e 39 08 38 bf 35 14 3a bf
       0.19385108 0.32450628 -0.71887547 -0.72687083

lstm.bias_hh_l0_reverse f4 [40]
000000 97 ed ae bf 10 27 d6 bf 0b 0e 10 c0 ea 8a b6 bf
       -1.3666257 -1.6730671 -2.250857 -1.4261143
000010 dd 20 0a c0 e7 1d 00 c0 34 88 eb bf e2 8c d9 bf
       -2.1582558 -2.001825 -1.8400941 -1.6996119
000020 7f 20 3d bf b4 a1 5d bf da 03 9c 3f 2b 20 18 3f
       -0.7387771 -0.86574864 1.2188675 0.59424084
000030 b7 9a 8f 3f a0 0f 02 40 17 3d 0b 40 b2 f4 87 3f
       1.121909 2.0322037 2.1756036 1.062155
000040 52 05 3c 3f 1e 97 a1 3f da 41 c2 3f 82 48 8c 3f
       0.7344562 1.2624242 1.5176346 1.0959628
000050 be 2d 68 3d bc 08 51 3e 9e ce b8 3a d5 35 d5 be
       0.05668425 0.20413488 0.0014099663 -0.41642633
000060 b1 79 14 bf 57 0d 9e bd ae 21 8b be b7 71 03 bf
       -0.57998186 -0.07717388 -0.27174133 -0.5134539
000070 8d 4b f5 3e 1a f7 03 3e e3 85 27 bc ba 39 ce 3e
       0.47909203 0.1288723 -0.010224792 0.40278417
000080 6a f1 62 3f 43 39 9a 3d f5 13 7c 3e 61 7f 27 3f
       0.8864962 0.07530453 0.24616988 0.6542874
000090 8e ad 49 bd 09 94 85 3e 0b 70 b6 be f2 6e 47 bf
       -0.04923778 0.26089504 -0.35632357 -0.77903664

lstm.weight_ih_l1 f4 [40, 20]
000000 15 44 df bd 11 f0 e3 3f 05 aa fa 3f 45 b9 77 c0
       -0.109016575 1.7807637 1.9583136 -3.870683
000010 19 53 a1 bf 7b 01 88 c0 05 63 d7 3f 8c 60 96 3f
       -1.2603484 -4.2501807 1.6827093 1.1748214
000020 1f f6 49 c0 71 41 39 bf 24 5a 10 c0 a0 92 bb bf
       -3.155647 -0.7236548 -2.2555017 -1.4654121
000030 0f b6 1c c0 11 8f 47 40 47 67 49 3c 62 1a 65 40
       -2.448612 3.118107 0.01229269 3.5797353
000040 98 96 31 bf 53 0c ff 3f 26 61 1e c0 73 be d7 3e
       -0.6937041 1.9925636 -2.4746795 0.4213749
000050 38 e8 46 bf 45 f7 ce bf 19 ff ef 3f 09 67 31 40
       -0.7769809 -1.6169211 1.8749725 2.7719138
000060 94 02 07 3f 2b 71 8d c0 61 42 11 40 fe 61 d0 3f
       0.5273831 -4.4200644 2.2696764 1.6279905
000070 c1 dd bf 3d 67 ea f7 bf ea f5 43 3f ea fe 4c 3f
       0.09368468 -1.9368409 0.7654711 0.8007647
000080 6c 38 4a c0 8f ee 39 c0 8f 49 3e 40 d4 02 c3 3e
       -3.1596937 -2.9051855 2.9732397 0.38088095
000090 58 a5 08 c0 f5 da 5d c0 8b 8e 28 c0 22 83 a2 be
       -2.1350918 -3.466489 -2.6337001 -0.3174067
0000a0 be ee 39 c0 4c 63 7b 40 58 02 31 3e 04 96 8c bf
       -2.9051967 3.9279356 0.1728605 -1.0983281
0000b0 8c 83 f2 3f 47 71 49 be db e8 87 bf e4 6f f2 bf
       1.8946395 -0.19672118 -1.0617937 -1.8940396
0000c0 fd c8 9d bf 95 84 26 c0 d5 1b b1 bf c0 b8 0a c0
       -1.2326962 -2.6018422 -1.3836619 -2.1675262
0000d0 5d 9a ab be 14 51 62 c0 a4 99 90 bf 0e 57 22 bf
       -0.33516207 -3.5361986 -1.1296887 -0.63414085
0000e0 ed 26 ad c0 2d 60 06 40 77 45 ab be bb 73 3e bf
       -5.4110017 2.09962 -0.33451435 -0.7439534
0000f0 15 ac a1 bf 67 68 a3 3f a8 7f db 3f 1f 6f a0 bf
       -1.263064 1.2766236 1.7148333 -1.2533911
000100 72 0e e5 bf c1 b5 3e bf cb 28 e8 3f 23 35 6c 3e
       -1.7895033 -0.74496084 1.8137449 0.23067145
000110 b5 f6 e9 bf aa a1 d7 3f fb 4c 6e 3f 0a 83 ff 3f
       -1.8278414 1.6846211 0.9308621 1.9961865
000120 54 21 12 3f 09 95 fc 3f a5 e7 c5 be aa 27 dd 3f
       0.57082105 1.9732982 -0.38653293 1.727773
000130 e0 31 2c 40 fc 61 7a bf 8b 9a 17 c0 71 d5 66 3e
       2.6905441 -0.9780576 -2.3688076 0.22542359
000140 af bf c7 3f e0 6d 59 40 10 f3 db be 22 8a e9 bf
       1.5605372 3.3973312 -0.4295888 -1.824528
000150 ed 09 a0 3f ae ee 9a bf e1 c7 cd be 41 25 c2 3e
       1.2503029 -1.2104089 -0.40191558 0.37919047
000160 86 7e 50 3f 9d 72 25 bf ab c7 ec be b0 7b 27 c0
       0.8144306 -0.6462801 -0.46246085 -2.6169243
000170 8b c0 58 3f e3 4f ae 3f a1 9d 48 40 7f 6e f8 bf
       0.846688 1.361813 3.134621 -1.9408721
000180 b6 75 4b bc a4 3c a0 40 81 ec 0f c0 97 2d 98 3d
       -0.012418201 5.0074024 -2.24881 0.074305706
000190 20 f6 3a 40 a2 c2 73 40 d9 ea 91 3f 03 23 da bf
       2.9212723 3.8087544 1.1399795 -1.7041935
0001a0 30 21 20 c0 3a 44 04 c0 45 3c 0d c0 4b e8 95 3e
       -2.5020256 -2.0666642 -2.2068036 0.29278788
0001b0 4c 78 df bf 06 6d 8d bf 4e be b6 3f 81 a9 34 40
       -1.7458587 -1.1048896 1.4276826 2.8228457
0001c0 cc a4 d1 3f 7f 78 81 3f 7d 3f 9b bf 87 6f ec bf
       1.6378417 1.0114897 -1.212875 -1.8471535
0001d0 32 ec bf 3f b3 0c 26 40 bb db 8e be 0c 22 67 bf
       1.4993956 2.594525 -0.27902016 -0.90286326
0001e0 86 19 e2 be 2a 9a c8 bd 6a f8 08 3f ee 45 65 bf
       -0.44160098 -0.097950295 0.5350405 -0.8955983
0001f0 dc 14 95 bf 6a f3 a0 bd 42 c6 9a 3f 1c 52 10 bf
       -1.1646991 -0.078589275 1.2091753 -0.5637529
000200 07 1d 8b bf 25 13 34 3f 37 af 4d bf cf 28 ba 3e
       -1.0868233 0.7034171 -0.8034548 0.3635926
000210 3a 36 6c 40 a2 02 d9 bf 3f a1 a0 3c 16 e2 eb bf
       3.6908097 -1.6953928 0.019608138 -1.8428371
000220 83 d5 b2 3f b4 8f 80 bf 9d 0d 1e bf 3b b5 27 3e
       1.3971409 -1.0043855 -0.6173952 0.16377728
000230 1e fb 7a 40 64 b8 69 3f 32 4f 47 3f 33 0f 6f be
       3.921577 0.9129698 0.7785522 -0.23345642
000240 ab f3 b3 3f 31 96 49 3e c8 6c d8 40 9b 32 ea bf
       1.4058737 0.196862 6.763279 -1.8296694
000250 68 7d 3b 3f 8e 4a f2 3f 77 30 d5 bf 0b 18 95 40
       0.7323823 1.8929002 -1.6655415 4.659185
000260 fd 8b b7 40 e5 71 36 3f d6 9c 84 3e de 06 75 c0
       5.7358384 0.7126754 0.25900906 -3.8285441
000270 f3 38 0f 40 b1 a7 3c 40 53 8a 55 3e 46 14 1e 40
       2.237851 2.947735 0.20853548 2.4699874
000280 b0 57 09 bf 48 eb b7 3f 0c 38 a0 3f 32 36 ac 3f
       -0.53649426 1.4368677 1.2517104 1.3454039
000290 b1 e9 79 3f e3 86 9b bf be a8 bb be 34 88 d4 3e
       0.9762221 -1.2150539 -0.36652178 0.41510165
0002a0 fa 85 50 3e 09 34 63 bf 39 ad a5 3d 6c 52 a7 bf
       0.20363608 -0.88751274 0.0808968 -1.3072028
0002b0 86 33 f4 3c fe dc 2a 40 aa 1d d6 be 30 08 85 40
       0.029809725 2.6697383 -0.41819507 4.1572495
0002c0 6f 97 dd bf 04 a9 48 3f b0 31 70 bf 02 ac cc 3e
       -1.7311839 0.783829 -0.9382582 0.39974982
0002d0 9a f2 36 40 91 48 6c bf 95 e8 bb 3e 00 cc 92 bf
       2.8585572 -0.9229823 0.36700884 -1.1468506
0002e0 d0 17 14 3f 4f aa 11 c0 30 03 f8 bd 49 6d af be
       0.57848835 -2.2760198 -0.12109983 -0.34263065
0002f0 f1 53 0f bf 9b b1 27 3f 14 d4 08 3f fe c9 45 bd
       -0.5598746 0.6550538 0.53448606 -0.048288338
000300 eb 52 df bf 35 1b 96 3e 7a a0 eb 3e 75 c4 16 c0
       -1.744718 0.29317632 0.4602087 -2.3557408
000310 fa ae 61 40 83 fb 0b c0 ab 18 26 40 78 7e f0 bf
       3.5263047 -2.187226 2.5952556 -1.8788595
000320 b6 c2 9d 3f 49 e7 90 3f b2 c9 ab 3e e7 2c 98 3f
       1.2325046 1.1320583 0.3355232 1.1888703
000330 a7 c0 eb c0 53 0e 88 c0 ec 2e 06 c0 63 2b 51 40
       -7.367267 -4.2517486 -2.096614 3.268273
000340 90 06 82 3f 5f f8 df 3e 1c 2c 85 3f ee 2a 0b 40
       1.0158253 0.4374418 1.0404086 2.1744952
000350 51 53 83 40 a0 25 db 3f 67 60 1a 40 fc ba 60 bf
       4.1039205 1.7120857 2.412134 -0.87785316
000360 0d 20 65 c0 c2 05 17 c0 f3 01 f4 bd 69 97 48 3f
       -3.5800812 -2.3597264 -0.11914434 0.78356034
000370 56 3f 1c bd 62 b7 4a 40 ee de d0 be c1 d6 4b c0
       -0.03814634 3.1674428 -0.40795082 -3.1849825
000380 cf 91 91 bf c2 35 37 40 c3 52 41 3f 53 e8 ea bd
       -1.1372622 2.862656 0.7551691 -0.114700936
000390 2a be b6 bf bc e6 60 3e d0 98 92 be 75 78 50 c0
       -1.4276783 0.21963018 -0.28632212 -3.257352
0003a0 da 4c a1 3f 4d 74 07 40 04 36 85 40 5c 3e 84 c0
       1.2601578 2.1164734 4.1628437 -4.132612
0003b0 38 3e 62 40 dd 31 00 bf 18 e6 8b 40 8a ec e5 bf
       3.5350475 -0.50076085 4.3718376 -1.7962811
0003c0 e0 9f 92 40 a5 35 ba bc 25 3e 8a 3f a8 4b c7 bf
       4.582016 -0.022730658 1.0800215 -1.5569963
0003d0 96 d2 03 40 4c de 26 3f fe 31 a4 bf f0 51 49 40
       2.0597281 0.6518295 -1.2827756 3.145626
0003e0 7e fc b5 3e 44 88 00 c0 54 58 25 40 49 54 9e 3e
       0.355442 -2.008317 2.5835161 0.3092368
0003f0 30 26 3a 40 98 7f 6b c0 73 9d 87 40 8b 80 0d 40
       2.9085808 -3.6796627 4.23797 2.2109706

lstm.weight_hh_l1 f4 [40, 10]
000000 8f 26 aa 40 52 f4 d6 bf 6a e3 3a 40 4c 1c 08 40
       5.317207 -1.6793311 2.9201303 2.126727
000010 64 12 82 bf f5 4c 0a 40 fa 8f 21 3f e1 0b 85 c0
       -1.0161862 2.160947 0.63110316 -4.1577
000020 48 c5 73 40 d8 77 0b 40 ec 1b 16 3e 3b 26 00 c0
       3.808916 2.1791897 0.14659089 -2.0023334
000030 ef 42 2b bf bb 80 8b bd 8c 24 6d be 2c f9 a0 3e
       -0.6689901 -0.06811663 -0.23158473 0.31440103
000040 43 9d bb bf 41 0d c5 40 54 8d 15 40 b7 9a 43 40
       -1.4657367 6.157868 2.336751 3.056318
000050 43 f0 2a bf b7 df f9 bf 6d 82 42 3b 28 f5 b6 40
       -0.6677286 -1.9521397 0.002967979 5.7174263
000060 b7 46 5d 3f 62 0a b7 40 a6 73 a8 3f 05 6f 00 c0
       0.8643603 5.7200174 1.3160293 -2.006776
000070 7e f2 53 3f 0d 76 51 c0 15 1a 17 c1 10 51 a5 bf
       0.8279189 -3.2728302 -9.443868 -1.2915363
000080 91 20 4f bf e7 0b b1 3f fd 68 55 bf a3 6c 06 bf
       -0.8090907 1.3831757 -0.83363324 -0.52509516
000090 b1 d6 96 40 4a e9 db be cf 1d b3 3f 1b 79 c1 c0
       4.7137074 -0.42951423 1.3993472 -6.0460334
0000a0 08 5b 2f c0 da 47 ad bf 69 e2 81 bf da 99 0a c1
       -2.739931 -1.3537552 -1.014722 -8.662561
0000b0 43 1b 17 c0 d3 94 6e c0 75 7f c4 3f 85 88 1d c0
       -2.361039 -3.7278335 1.5351397 -2.4614575
0000c0 5a 68 26 40 6d 70 60 c0 73 04 50 bf 0b 29 2d bf
       2.600119 -3.506862 -0.8125679 -0.6764075
0000d0 a6 b6 08 3f 07 f4 e2 bf 21 b9 74 bf b0 a1 b5 3e
       0.534037 -1.7730721 -0.95594984 0.3547492
0000e0 a0 68 04 40 eb 19 28 be bb c7 4b 41 63 2a 86 bf
       2.0688858 -0.16416137 12.736262 -1.0481685
0000f0 7a 45 73 c0 2b 99 1a bf e5 f4 81 c0 50 11 76 40
       -3.8011155 -0.60389966 -4.0611444 3.8448067
000100 09 06 33 bd 66 e8 3b 40 50 40 21 40 5f 26 a3 3f
       -0.043706927 2.9360595 2.5195503 1.2746085
000110 2a a4 6f 3e f4 f9 5f be 68 a1 48 3e 6e cf 87 40
       0.23402467 -0.21872693 0.19592822 4.244071
000120 39 a1 7f 3d 2f 70 e7 bf b1 ac 31 bf e5 81 86 3f
       0.062409613 -1.8081111 -0.6940413 1.0508391
000130 cb 59 8b 40 ea ea 7e 40 08 40 33 c0 ea 2a c7 3f
       4.354711 3.983088 -2.8007832 1.5559971
000140 9b e4 d2 3f 51 83 ab bf 80 a8 75 40 7c c0 a1 bf
       1.6476015 -1.339945 3.8384094 -1.2636867
000150 57 d9 06 40 62 8a 60 3f 1b e7 8c 40 99 7a 97 3d
       2.1070154 0.87711155 4.403211 0.073964305
000160 14 2c d1 be c7 10 38 40 a5 1a 48 bf 39 7d 34 3f
       -0.4085394 2.876024 -0.78165656 0.70503575
000170 0b 2f 1e c0 f8 25 ce 3f 7d cb 55 bf 1b e2 03 40
       -2.4716213 1.6105337 -0.83513623 2.0606754
000180 c1 99 fc 3e cf c6 23 c0 73 a9 c9 3e 60 55 81 3f
       0.49336055 -2.5590093 0.39387092 1.0104179
000190 ea c5 c9 3f 86 f5 17 40 2d 3a b3 bf ba 52 18 c0
       1.5763524 2.3743606 -1.4002129 -2.3800492
0001a0 96 d4 05 bf 9b 70 82 3e 34 1e c0 c0 d9 5f 66 3f
       -0.52277505 0.25476536 -6.003687 0.8999
0001b0 49 06 3c 40 32 59 f3 3f d6 df 0b c0 63 bc 09 3f
       2.9378836 1.9011595 -2.1855369 0.5380308
0001c0 f0 67 4e 3d 87 df 57 40 15 1b 34 c0 11 8b 8a c0
       0.05039209 3.373018 -2.814153 -4.329476
0001d0 f7 45 1e 3f 16 9e 2c 40 44 16 a5 c0 36 32 51 40
       0.6182551 2.6971488 -5.158968 3.2686896
0001e0 5f 51 4a be e9 1c 00 c0 7d 97 2e 40 2a cc 9c 40
       -0.19757603 -2.0017645 2.727996 4.8999224
0001f0 fc 5e 07 3f e6 14 dd 3f 6d 54 c9 3e 44 c8 ca 3f
       0.5287931 1.7272003 0.39322224 1.5842366
000200 e0 a6 9e 40 94 49 37 c0 eb c2 b0 3f 90 bc ac 3e
       4.9578705 -2.8638659 1.3809484 0.33737612
000210 c0 31 91 c0 57 c2 6c c0 a4 cf 98 bf 31 4f 29 c0
       -4.537323 -3.6993616 -1.1938367 -2.6454585
000220 4b 0d 45 40 38 04 98 40 f4 8f 06 41 9d 13 c9 bf
       3.0789363 4.750515 8.410145 -1.570911
000230 74 37 9e c0 9f 37 a4 3f c3 3c 58 c0 ea 53 8a bf
       -4.944269 1.2829474 -3.3787086 -1.0806859
000240 0c d6 24 bf a2 e0 3c bf 90 f6 92 3f 0f 26 f6 3f
       -0.6438911 -0.7378026 1.1481495 1.9230365
000250 d7 40 85 40 db d6 29 c0 2a 0b a3 3e 48 66 79 3e
       4.164165 -2.6537387 0.31844455 0.24355423
000260 87 57 6e 40 0c 68 dc bf ab ce 46 3f 1c ee 5d c0
       3.7240922 -1.7219253 0.776591 -3.467658
000270 6f f3 18 41 6c 02 f7 bf c2 0a 61 41 22 91 52 bf
       9.559432 -1.9297614 14.065126 -0.82252705
000280 76 8e d1 40 7d 09 94 3f f0 44 1e 3f df 51 b9 c0
       6.5486403 1.1565396 0.6182394 -5.791244
000290 a1 98 42 40 c8 c8 14 c0 5a 47 f0 40 98 1a 25 c0
       3.0405657 -2.3247547 7.50871 -2.5797482
0002a0 72 3b d1 bf 5a af 35 bf 66 80 0b 41 04 c4 30 3d
       -1.6346266 -0.7097069 8.718847 0.043155685
0002b0 20 bf e5 c0 62 1f 00 c0 ac ad d4 bf 93 a6 99 bf
       -7.1795807 -2.0019155 -1.66155 -1.200396
0002c0 20 a6 84 40 1e d9 97 3e d6 28 95 40 de ef 38 40
       4.145279 0.29657835 4.661235 2.8896403
0002d0 97 8d 59 3f 58 df 16 c0 63 78 4d c0 f2 f8 9f 3f
       0.84981674 -2.3573818 -3.2104728 1.2497847
0002e0 ad d4 a5 40 fa 3b ca bf d9 9d 6c c0 fc 22 e5 3f
       5.1822114 -1.5799553 -3.6971343 1.7901301
0002f0 6a 4d 87 bf 83 bc bb 40 34 21 45 40 6f f4 1b bf
       -1.05705 5.8667617 3.0801516 -0.6091985
000300 d9 a2 af 3f 7d 00 27 c0 3f 8a 08 3f 26 94 6d bf
       1.3721572 -2.6094048 0.53335947 -0.9280418
000310 02 93 32 40 42 5b 82 bf 59 e7 38 40 39 d5 ae c0
       2.7902226 -1.01841 2.8891203 -5.463528
000320 bb 70 b1 40 69 82 12 c0 06 fa 93 bf e7 d2 80 40
       5.545011 -2.2892096 -1.1560676 4.025745
000330 85 00 94 bf c7 56 41 bf 08 94 1f 3f 9c c3 9d c0
       -1.1562659 -0.75523037 0.6233525 -4.930128
000340 b6 3e 4e bf 57 f1 81 be 1d b6 94 40 4c 6e 6c c0
       -0.8056444 -0.2537944 4.6472306 -3.694232
000350 62 54 be 3f 75 69 dd c0 da ca d3 be bf 2f d4 c0
       1.4869502 -6.919123 -0.413657 -6.6308284
000360 ea d5 67 bf 9e 3e 8f 3e 29 ec 54 c0 6a 3f 18 40
       -0.9056078 0.2797746 -3.326914 2.3788705
000370 db 4a 42 c0 d1 b5 52 c0 56 b8 cc c0 30 af 97 3f
       -3.0358188 -3.2923472 -6.397502 1.1850338
000380 7a 4a bc bf 04 ee 0d 40 9c 5f 5b bf 3b c0 48 c0
       -1.4710228 2.2176523 -0.85692763 -3.1367328
000390 e4 3d 1b 40 b0 40 23 40 30 25 d3 40 63 bb c3 3e
       2.4256525 2.5508232 6.5982895 0.38228902
0003a0 ab 52 9e 3e c7 6f 01 3f 72 bd 17 3f c3 b6 ce 40
       0.30922446 0.50561184 0.59273446 6.45981
0003b0 c2 6d 8e c0 c1 19 3e 3f b1 7b 3f c0 36 1c 82 40
       -4.450898 0.7425805 -2.9919245 4.0659437
0003c0 c8 e2 47 c0 80 bf 79 40 7f 5e c5 3e c9 04 a5 c0
       -3.1232166 3.9023132 0.38548657 -5.156834
0003d0 9d 44 23 40 70 13 03 c1 a7 92 63 40 de 0f d2 3e
       2.5510628 -8.1922455 3.555826 0.4102773
0003e0 fb 57 8f 3f bd 52 99 c0 d1 25 f6 bf fc ef ff bf
       1.1198725 -4.79135 -1.9230291 -1.9995112
0003f0 22 e9 6a 3e da 9b 2c bf cb 5e 43 3f 89 0e 7d c0
       0.22940496 -0.6742531 0.7631652 -3.9540122

lstm.bias_ih_l1 f4 [40]
000000 a9 b3 2f bf 3e ca 04 bf 01 e5 68 bf 65 67 78 bf
       -0.68633515 -0.518711 -0.9097443 -0.9703277
000010 5d 22 bb be 71 51 a3 bf a8 1f 6e bf 7e d7 82 bf
       -0.36549655 -1.2759229 -0.93017054 -1.0222013
000020 e0 fb 9d bf aa ee d5 bf f4 e5 cb 3f 67 13 ce 3e
       -1.2342491 -1.671346 1.5929551 0.40249178
000030 82 b5 92 3e 9c 0a 04 3f 06 da 29 3f d2 ae 54 3f
       0.28654104 0.5157869 0.663483 0.83079255
000040 76 26 f6 3e eb 73 5f bf bd d9 a5 3f 51 6f f6 3f
       0.48076218 -0.8728625 1.2957073 1.9252721
000050 86 b5 32 bf 13 df 99 3f 3f 15 f3 be af 98 86 be
       -0.6980823 1.2021202 -0.47477147 -0.26288363
000060 4c 2d 12 3f 91 5f 7f bf 12 bf 32 be 06 a0 0d 3f
       0.5710037 -0.997552 -0.174557 0.553223
000070 a6 48 6f 3e 5d bf 2c 3f db 04 3d bd 56 93 72 bf
       0.23367557 0.674795 -0.04614721 -0.94756067
000080 00 b4 42 be 53 01 a8 be c4 e3 83 be 89 57 c1 be
       -0.19013977 -0.3281351 -0.2575971 -0.37762097
000090 5f 49 92 bf f3 d0 fe be cb 40 99 bf 88 c4 92 bf
       -1.1428641 -0.4976879 -1.1972898 -1.1466227

lstm.bias_hh_l1 f4 [40]
000000 4f ae 76 bf 6a 5c 17 bf 0d 7f 38 bf 9e f5 46 bf
       -0.96359724 -0.5912539 -0.72068864 -0.7771853
000010 59 36 74 be 7b bd ed bf 31 b6 64 bf 1f 52 18 bf
       -0.23848857 -1.857345 -0.893405 -0.59500307
000020 37 1b 93 bf 39 33 bc bf ef dc a4 3f 99 29 76 3f
       -1.149268 -1.4703132 1.2879924 0.96157223
000030 d8 06 c0 bc 85 8a 6b 3f 39 85 89 3e 58 52 0f 3f
       -0.023440763 0.9200824 0.26859453 0.5598502
000040 ad 51 43 3f 20 e9 3c bf cd ba cc 3f c8 81 fe 3f
       0.762965 -0.7379322 1.5994507 1.9883356
000050 95 9d 46 bf 87 52 b7 3f 15 1e e3 be 47 57 2a bf
       -0.775842 1.432206 -0.44358888 -0.66539425
000060 77 ce d6 3e 99 61 7f bf 53 50 4e be 86 0a 43 3f
       0.41954395 -0.997583 -0.20147829 0.7618793
000070 2b 2f f5 3e d7 68 a4 3e a8 f0 8b 3e bf 34 90 bf
       0.4788755 0.32111236 0.27332044 -1.1266097
000080 2a 71 99 be 97 33 19 be ba 36 d2 be f3 20 07 bf
       -0.2996915 -0.14961086 -0.41057378 -0.5278465
000090 be c6 77 bf d9 82 9c be d8 2b 58 bf 2b 18 59 bf
       -0.9678763 -0.3056858 -0.844419 -0.848025
