sparrow/data/networks/adf/adf_sanborn_max_network_v1.pt (torch, 23243 bytes, 17 tensors)

lstm.weight_ih_l0 f4 [40, 20]
000000 2c 1e 93 3f 83 1d 8f 3e bb 1b c1 3e 39 a3 56 3f
       1.1493583 0.27952203 0.3771647 0.8384281
000010 1c ba 6a bf 83 6a 12 3f 93 d2 ea bf 21 2f ea be
       -0.9169023 0.57193774 -1.8345512 -0.45739082
000020 d9 11 90 3f 8c e3 f6 be dd ca d5 be 52 5d f7 3e
       1.1255447 -0.4822048 -0.41756335 0.48313385
000030 a9 ae 02 3e 4d 51 4d be 68 97 10 3e ff e3 e0 be
       0.1276194 -0.20050545 0.14120257 -0.43923947
000040 a1 eb 1d 3f 27 9f 7c 3e e1 96 b0 3e 16 e8 8d 3f
       0.61687666 0.24670087 0.3449011 1.1086452
000050 76 fc 43 3f b2 29 e7 3d 68 83 83 3f 63 9d 53 3f
       0.765571 0.112872496 1.0274477 0.8266203
000060 52 28 8f 3f 61 54 92 3f bf b9 79 bf 04 1a 30 3f
       1.118418 1.1432 -0.9754905 0.68789697
000070 9c 67 ed 3e 49 fe 92 3f 49 fb 89 c1 fd b4 73 3f
       0.4636811 1.1483852 -17.247698 0.9519804
000080 03 78 7b 3f f4 67 08 3d 44 60 c9 3e 9b d2 b5 3e
       0.9823 0.033302262 0.39331257 0.35512242
000090 89 6e 58 3f c5 1e 9c 3f 16 1b ce 3f ef d0 98 3f
       0.84543663 1.219689 1.6102016 1.1938761
0000a0 92 4f 3a 3f f9 d8 8a 3f 40 d9 54 3f d0 30 2b 3f
       0.72777665 1.0847465 0.83144 0.66871357
0000b0 3d a5 80 3f 54 c5 86 be 2b 42 c0 3e 94 8e 69 3f
       1.0050427 -0.26322424 0.37550482 0.9123318
0000c0 e9 8a 72 3e c8 88 97 3f a0 0f 34 3f f6 3b 57 3f
       0.23685803 1.1838617 0.7033634 0.8407587
0000d0 2b 6e 91 bd 90 b5 5b 3f 07 8c 43 bf 7d 96 e2 3e
       -0.07101091 0.8582392 -0.7638554 0.44255438
0000e0 b5 2e 10 3f a0 9f 73 3f a4 1f 90 3f 64 be 58 3f
       0.5632127 0.95165443 1.1259656 0.84665513
0000f0 17 07 0b bd ab 7d 75 3f 08 88 83 3f 79 1c 23 3f
       -0.03394231 0.9589488 1.0275888 0.6371532
000100 8c 82 89 3f 38 13 b3 3e 37 9b dc bc 59 5b 48 3f
       1.0742965 0.349756 -0.026929481 0.78264385
000110 b5 ae 28 3f a3 a0 5a 3e 69 14 1e bf a4 bf 34 be
       0.6589158 0.2135034 -0.61749893 -0.1765123
000120 ec 4c 79 bf ad da 28 3f ef 40 02 3f c2 5f 43 bd
       -0.97383 0.6595867 0.5088033 -0.047698744
000130 6b 96 f9 be 92 8c d2 be 4b eb 8e 3f 42 c3 90 3f
       -0.48747572 -0.41122872 1.1165556 1.1309588
000140 41 73 ca be 11 6b 00 3e 08 f4 24 3f 33 2e 9a bd
       -0.39541057 0.12540843 0.6443486 -0.07528343
000150 0f a8 7c 3f a1 0c 35 be eb ba fa 3e 1d a0 4a be
       0.9869394 -0.17680599 0.48970732 -0.19787641
000160 02 0c aa 3f 62 cc 4a bf 97 92 93 3d ad 84 f9 bf
       1.3284914 -0.79218113 0.07205694 -1.9493614
000170 86 42 5e bf 72 80 9e c1 98 7c ad 3f 68 d7 ab bf
       -0.86820257 -19.812717 1.3553648 -1.3425112
000180 ba b3 da be f3 86 e0 3e 83 23 96 3f 28 af a1 c1
       -0.42715245 0.43852958 1.1729587 -20.210526
000190 09 b6 37 c0 95 05 87 bf bb 85 d3 3f e8 64 ae 3f
       -2.8704855 -1.0548579 1.6525186 1.3624544
0001a0 fe de 9c 3e 56 1f 0c c1 df 2b 8c bd d7 f4 aa bf
       0.3063888 -8.75765 -0.06844305 -1.3355969
0001b0 3c 67 99 3f 77 4c 98 be be df 2a 3f dc a1 d4 bd
       1.198463 -0.29745838 0.66747653 -0.10382435
0001c0 e5 5e 81 bd 38 30 36 bd 47 7a 9b 3f ae 34 a2 be
       -0.06316928 -0.04447958 1.2146691 -0.31680816
0001d0 5d 84 3a bf d5 6c cf be de cd 87 bf 41 79 c6 3e
       -0.7285822 -0.4051272 -1.0609701 0.38764384
0001e0 5d ed 2b 3f 19 06 01 3f fa ae 82 3e 5c 8a 47 bf
       0.6715906 0.5039993 0.25524122 -0.77945495
0001f0 c3 b1 fc 3f a8 1f f9 3d 39 28 9f 3e ec a9 3c 3e
       1.9741749 0.12164241 0.31085375 0.18424195
000200 09 d4 8a 3f d5 17 87 3f 59 c8 5a 3f bd 73 e0 be
       1.0845958 1.0554148 0.85461956 -0.438383
000210 69 b4 1b bf bd f2 87 bf 34 b3 91 3f 2b 5f 29 3f
       -0.6082216 -1.0620953 1.1382813 0.6616084
000220 d8 f9 09 3f 4b 63 19 be 68 7c d4 3f 7f 68 ee 3e
       0.53896856 -0.14979284 1.6600466 0.465641
000230 1b 68 82 3f 5d 4e cc 3f bf 07 03 40 ad e6 92 3f
       1.018802 1.5961415 2.0473478 1.1476647
000240 a6 5e 0e 40 b5 04 0a be d3 f5 5b 3e 98 c5 06 3e
       2.224527 -0.13478358 0.21480493 0.13161314
000250 9b 39 1a 40 04 bf 56 bf 5b 1f 07 40 3b b8 03 be
       2.409766 -0.83885217 2.1112888 -0.12863247
000260 ed 3c 87 3f 86 97 c2 bd 88 c4 0e 40 13 59 41 3f
       1.0565468 -0.09501557 2.2307453 0.7552654
000270 b2 23 a1 bf d4 5b 08 bf e6 6b 17 40 6e 58 01 be
       -1.2589018 -0.5326512 2.3659606 -0.1263139
000280 7d ad a9 3e 3f a2 0a bf 68 45 8b 3f b8 af b1 3e
       0.33140174 -0.5415382 1.0880556 0.34704375
000290 6c 3e 58 3f b6 ac c2 bf a5 92 36 bf d2 ae da bf
       0.8447025 -1.5208957 -0.7131751 -1.7084601
0002a0 f6 5f 93 3f f4 be ed bf ad f4 9f 3e 1e e8 32 bf
       1.151366 -1.8573899 0.3124136 -0.6988543
0002b0 1b 51 7b be b9 3f e3 bc f5 2f 53 3f cf 65 f5 bf
       -0.24542658 -0.027740346 0.8249505 -1.9171695
0002c0 ce 52 2e bf de 9c 99 bf e9 d5 57 3f 1f 32 c9 be
       -0.680951 -1.2000997 0.84310776 -0.39296052
0002d0 67 4a 0c 3f 73 05 30 c0 ca 8c 82 be 84 99 63 be
       0.5480103 -2.7503326 -0.2549804 -0.2222653
0002e0 5d e4 3d 3f cf c2 1a bf 6b 3e af 3f 3c 0c 6c bf
       0.7417658 -0.60453504 1.3690923 -0.9220617
0002f0 6e b4 ff 3f 45 ba a5 bc 8b 5a e0 be 55 2e 83 3d
       1.9976938 -0.020230422 -0.4381908 0.064053215
000300 1d f0 dd bc 95 22 8c bf 1a e1 bf 3f 63 16 34 bf
       -0.027092034 -1.0948054 1.499057 -0.7034666
000310 c4 cf 63 3e 4c 15 01 bf 95 3f 75 3f 2e b6 fd 3c
       0.22247225 -0.5042312 0.95800143 0.03097066
000320 06 b3 30 3e 22 16 99 be 1f 79 e8 40 3d f0 bd 3f
       0.17255792 -0.29899698 7.2647853 1.483894
000330 e0 3c 50 be f1 95 ea be 8a d2 61 be 04 d0 84 bd
       -0.20335722 -0.4581752 -0.2205297 -0.06484988
000340 74 af 16 bf 82 ca 18 bf d0 b3 3d 3f 17 ce 6f be
       -0.5886147 -0.59684 0.741025 -0.23418461
000350 ba 7a af 3e d7 5a ba bd 68 90 a4 3c 3f ef 6a be
       0.3427332 -0.090993576 0.02008839 -0.22942828
000360 b7 dc 7b 3d 49 12 17 3e 8e 0b 93 3d d0 87 4b 41
       0.061489787 0.14753069 0.07179938 12.720657
000370 76 f4 14 bf 31 df a9 be be dd e9 be 08 e0 a0 bf
       -0.5818552 -0.33178094 -0.45676988 -1.2568369
000380 29 8b c8 be 8a 2a 67 bf 44 2c 01 c0 f2 f9 6f 41
       -0.3916867 -0.90299284 -2.0183268 14.998522
000390 c8 56 e7 bf fe cf 01 bf 89 24 69 3e 2a 6c b9 bf
       -1.8073359 -0.50707996 0.22767843 -1.4486134
0003a0 ca 91 4e 3f 14 87 49 bf b1 6d a1 bf b1 8d 92 3e
       0.80691206 -0.7872174 -1.26116 0.28623727
0003b0 27 bc 6d 3f df 9a 0c bf cc c5 29 bf 62 8a 62 bf
       0.9286522 -0.54923815 -0.6631744 -0.88492405
0003c0 2e 2d 94 3d d9 92 82 bf fa 16 70 41 36 53 26 3f
       0.0723518 -1.0201064 15.0056095 0.6497072
0003d0 83 98 ef 3f 11 b1 46 bf 7d 9e 4d 3d 89 c4 e9 be
       1.8718418 -0.7761393 0.050199974 -0.45657757
0003e0 d6 8f 35 3e 8a c7 14 3e ab db 36 3f 3f 6d 81 3f
       0.1773065 0.14529243 0.71428937 1.0111464
0003f0 e7 d5 6e 3f 85 55 15 3f 18 32 a1 be 23 47 52 3f
       0.9329514 0.5833362 -0.3148353 0.82139796

lstm.weight_hh_l0 f4 [40, 10]
000000 ce a1 b2 bf 8a d5 83 3f 17 72 9f bf c4 f5 5d 40
       -1.3955629 1.0299542 -1.2456692 3.4681253
000010 2a 33 0a bf 74 78 94 40 9a 86 00 bf 82 c3 06 bf
       -0.5398432 4.6397038 -0.50205386 -0.5264207
000020 6e 07 c4 be b4 ba 92 3f 55 c4 92 be 3a 1e 57 bf
       -0.38286918 1.1463227 -0.28665414 -0.840305
000030 81 84 05 c0 b4 08 9c 3e a8 10 b4 3f 75 2b 42 bf
       -2.0862124 0.3047539 1.4067583 -0.7584756
000040 55 89 23 be c0 0e cd 3e a5 2a 91 bf d1 47 0f be
       -0.15970357 0.40050316 -1.1341139 -0.1399224
000050 56 d8 7d 3e 63 5e ab be e8 9d 37 40 a0 94 56 bf
       0.24789557 -0.3347045 2.8690128 -0.83820534
000060 bc 4c 10 40 45 37 7d 3e bb 99 d8 be be b4 6a bf
       2.2546835 0.24728115 -0.42304787 -0.9168204
000070 1f 8a c4 3f 0a 94 e8 be 77 5f 0c 3f 5e 7d 8b 3d
       1.5354651 -0.45425445 0.5483317 0.06811021
000080 b5 1b 92 bf 44 cb ae 3f fb 3e 3d 3f ee aa 03 3e
       -1.1414706 1.3655782 0.73924226 0.12858173
000090 c5 ce e6 3e 2c b9 f5 be 58 04 c6 bf 2e bc 04 bf
       0.45079628 -0.47992837 -1.5470076 -0.5184964
0000a0 79 15 e1 3d 60 50 4d 3e cd 6b 82 c0 8a 2a 7f 3d
       0.10990424 0.20050192 -4.0756593 0.062296428
0000b0 f0 86 1a bf ca 55 65 be 6b 8f 94 3e d3 44 4e 3e
       -0.6036215 -0.22396007 0.2901567 0.20143442
0000c0 b5 15 04 bf 43 0a 79 3f b1 05 0c 3f 8a 22 70 be
       -0.5159562 0.97281283 0.54696184 -0.23450676
0000d0 30 2a 82 bf 99 ad a6 bf 63 46 88 3e 0b 40 0d bf
       -1.0169125 -1.3021728 0.266162 -0.55175847
0000e0 08 93 a3 be 0a 97 04 3f 28 c7 8a be fa 32 58 3f
       -0.31948113 0.5179297 -0.2710507 0.84452784
0000f0 63 30 07 be 93 3b cf be 65 d5 87 c0 eb 31 d8 bf
       -0.13202052 -0.4047514 -4.244799 -1.6890234
000100 3a bc 50 bf 6c e4 65 3f e4 98 af bf b9 7c 98 3e
       -0.8153721 0.8980167 -1.3718534 0.29782656
000110 05 3a 55 bf 5e 5d e7 3d 82 f9 84 3f 55 80 f7 3d
       -0.83291656 0.11297105 1.0388644 0.12085024
000120 4d 5e e8 bd 2b 21 24 3e 56 0d e2 3c 92 4a 53 3f
       -0.113461114 0.16028278 0.02759425 0.8253566
000130 22 1d 05 bf c4 d1 38 3f 0f 6a 91 3f 12 2c 88 bf
       -0.5199758 0.72195077 1.1360492 -1.0638449
000140 a2 22 37 3e 37 40 36 be 79 35 96 be 11 90 21 3f
       0.17884305 -0.17797934 -0.2933767 0.6311045
000150 1d 30 0b bf 4e 73 60 3f 06 56 26 3e 63 b3 be be
       -0.5437029 0.8767594 0.16243753 -0.37246236
000160 c6 1e f4 3e 81 8c 4b be f8 15 a3 bf a6 08 16 c0
       0.47679728 -0.19877817 -1.2741079 -2.3442779
000170 89 ae 44 bf b7 1f 50 3f e7 45 47 3f 3b 5a 36 bf
       -0.7682882 0.81298393 0.7784104 -0.7123143
000180 19 82 9a bc 29 ed 92 40 22 0d 5b 3e 35 c0 f5 3f
       -0.018860864 4.59145 0.21391729 1.9199282
000190 7a bc c3 3f 2a 4c 3a bf 2e 54 99 3f 63 e7 25 3f
       1.5291893 -0.7277247 1.1978815 0.64806193
0001a0 74 ad 76 bf 85 7d 6c bf 9f 14 eb 3e c6 92 a8 bf
       -0.9635842 -0.9237903 0.4591417 -1.3169792
0001b0 c0 a3 d3 bf d8 0f 2a bf ea 7c d2 be 43 a8 9b bf
       -1.6534348 -0.66430426 -0.41110927 -1.2160724
0001c0 96 df 29 bf 6e 54 89 bf e7 db 36 40 a6 c9 f7 3e
       -0.6635679 -1.0728891 2.8571718 0.48396033
0001d0 d1 55 9b bf 66 54 51 bf a3 37 2d 40 42 3c a9 bf
       -1.2135564 -0.81769407 2.7065208 -1.3221514
0001e0 f5 ae 99 be dc 0b d7 3e 24 06 bc 3f 67 4b ef be
       -0.30016294 0.42001235 1.4689374 -0.46737215
0001f0 1e d9 0c 40 26 b8 75 3f 20 02 60 bf c9 59 ca 3f
       2.2007518 0.95984113 -0.8750324 1.580865
000200 1d 83 0e c0 e7 ca a4 be 56 d8 39 40 d7 02 b6 bf
       -2.2267525 -0.32186052 2.903829 -1.4219617
000210 37 b4 dc be d3 7b 10 40 98 15 9a bf 99 28 23 bf
       -0.43106243 2.2575576 -1.203784 -0.6373382
000220 29 73 c9 3e 24 05 40 bf 3f 5f 3d c0 32 97 29 be
       0.39345673 -0.75007844 -2.9589384 -0.16561583
000230 0b 7b 64 3f 26 14 e6 3d e7 93 0c 3d ad 7c 10 bf
       0.8925025 0.11234312 0.03432074 -0.5644024
000240 4d 7f 76 3f 0e 88 d7 bd ac f9 78 3f cc c1 32 bf
       0.96287996 -0.10523997 0.9725597 -0.6982696
000250 9a f4 8e bf d0 cc 91 bf d3 d7 86 3f ce 19 18 be
       -1.1168396 -1.1390629 1.0534614 -0.14853594
000260 8e ab bd 3c 83 37 85 40 b2 4b c6 3c a7 2d 60 bf
       0.023153093 4.1630263 0.024206016 -0.8756966
000270 2e 64 0c be 07 f5 24 3f be 6d da bf 9c 91 27 bf
       -0.1371009 0.6443638 -1.7064741 -0.6545656
000280 37 29 53 3f 0a 08 97 3d f8 36 35 40 d1 2f 58 3f
       0.82484764 0.0737458 2.83148 0.8444796
000290 ff 1a c7 bf 5a 48 6e 3f 76 68 66 3f e1 d7 dd 3f
       -1.5555114 0.9307915 0.90003145 1.7331506
0002a0 59 82 05 c0 f8 f0 f9 be a6 57 90 3f b7 f1 3e 40
       -2.0860808 -0.48816657 1.1276748 2.983503
0002b0 ab 54 aa be 42 1e 08 3f 65 b6 75 be a1 ad da bd
       -0.33267722 0.5317117 -0.23995359 -0.10677648
0002c0 b9 fd 80 3e 59 fd dd c0 94 e0 86 3f 67 8b 7f 40
       0.25193575 -6.937176 1.0537286 3.9928834
0002d0 e1 91 72 be 0f dd c4 bd 3b e1 18 3f 20 80 b2 3f
       -0.23688461 -0.09612476 0.59718674 1.3945351
0002e0 30 aa a2 bf 9a 55 a9 3e 5e 0f a3 3e 36 92 98 be
       -1.2708187 0.3307312 0.31847662 -0.2979905
0002f0 84 54 a0 3f 38 4f cb be 54 49 34 bf 5b 3e cb be
       1.2525792 -0.39708877 -0.7042439 -0.3969601
000300 f0 1e 40 3d 29 cb 3d 3f 5e 01 b1 3f 40 2c 80 be
       0.046904504 0.7413812 1.3828542 -0.2503376
000310 1e da d9 bd ef 53 83 c0 97 cb aa 3e 74 8c f7 bf
       -0.10637306 -4.103996 0.33358452 -1.9339738
000320 21 8c 9b be f0 6b 9e 3f 14 06 34 40 b5 c4 a3 be
       -0.30380347 1.237669 2.812871 -0.31986013
000330 d4 02 a7 bf 7d 45 58 bf d3 56 8f 3e e2 fe 05 3e
       -1.3047738 -0.8448103 0.2799593 0.13085511
000340 0b 0e ea 3d a1 ae e2 be f0 2d 33 3d 41 55 0b 3e
       0.1142846 -0.44273856 0.04374498 0.1360674
000350 4f 04 15 3f 25 fb a0 bd 76 ed dc be ea a8 29 3e
       0.582097 -0.07860402 -0.43149918 0.16568342
000360 cc 7b 11 3f d1 25 28 c0 6d d7 42 bf 98 a5 b5 c0
       0.56829524 -2.6273081 -0.76109964 -5.676464
000370 ef f5 da 3f 8f 1e df 3f 4c da b4 c0 20 b8 3f 40
       1.7106303 1.7431201 -5.6516476 2.995613
000380 85 df 96 c0 b0 26 2f 40 8f 5c 9a 40 5f 94 5c bf
       -4.714785 2.7367363 4.8237987 -0.86163896
000390 c6 2c 17 3f 3b cf df be 83 a2 e7 bf 1e 0f 8b be
       0.59052694 -0.43712792 -1.809647 -0.2715997
0003a0 74 5f 0d 40 0f 8c bc be 74 b6 5f bf 04 09 2a 40
       2.208951 -0.36825606 -0.87387776 2.6568003
0003b0 d4 13 1a 3f 08 75 c2 be a0 41 fe bf d3 a3 60 bf
       0.60186505 -0.37979913 -1.9863777 -0.87749976
0003c0 35 35 95 40 29 62 15 c0 26 bd 39 3e 7f ca 68 c0
       4.662745 -2.3341162 0.1813856 -3.6373594
0003d0 4d 99 f8 bf 5b 13 84 40 1f fe 34 40 7c 3c a0 3f
       -1.9421784 4.1273627 2.8280103 1.2518458
0003e0 93 34 13 40 02 fc 31 c0 ef 0e b6 bf a6 6c a8 3f
       2.3000839 -2.7810063 -1.4223307 1.3158157
0003f0 bd 02 cd be 19 ce d2 3f 5f bf e9 3e 36 1a 27 40
       -0.40041152 1.6469146 0.45653817 2.6109748

lstm.bias_ih_l0 f4 [40]
000000 49 0b d1 bf f8 20 ad bf 50 3c f9 bf fe 23 b8 bf
       -1.6331569 -1.3525686 -1.9471531 -1.4385984
000010 c9 a1 ab bf 2f 3e a9 bf c9 db 07 c0 29 df f0 bf
       -1.3408748 -1.3222102 -2.1227896 -1.8818103
000020 ba 63 e3 bf 89 65 b0 bf 1e 88 55 3f 07 85 bb 3f
       -1.7764809 -1.3780986 0.83410823 1.4649972
000030 d4 b7 91 3f c9 5c 81 3f 73 ea e5 3f 43 13 4a 3f
       1.1384225 1.0106441 1.7962173 0.7893564
000040 a6 2c ce 3f 45 a0 bd 3f 3b 12 42 3f c7 e5 d5 3f
       1.6107376 1.4814535 0.7580907 1.6710747
000050 30 45 85 3d e1 a1 a8 3e 70 46 71 bf 42 d4 21 3d
       0.06507337 0.32936004 -0.94248104 0.039509065
000060 f4 2b b7 bd 75 11 82 be c2 a2 d2 be e4 c4 49 3e
       -0.0894393 -0.25403944 -0.411398 0.19704014
000070 cd 3b fa 3e 37 3c f7 3e 9a 59 9f 3d 87 66 b9 bd
       0.4887375 0.48288128 0.07780762 -0.09052759
000080 6a d2 f5 3f 8f 33 bb 3c 7d ac e7 be 1a 72 b5 be
       1.9204838 0.022851733 -0.45248786 -0.35438615
000090 53 d6 cf 3e 13 27 cc be 45 e6 03 3f 48 63 b4 be
       0.40593204 -0.3987356 0.5152324 -0.35231996

lstm.bias_hh_l0 f4 [40]
000000 07 fc c6 bf ac 8e ae bf 99 0d fa bf c5 9a c6 bf
       -1.5545663 -1.363729 -1.95354 -1.5515982
000010 fd 63 c0 bf bc d7 de bf d5 da 04 c0 1f 4c cc bf
       -1.5030514 -1.7409587 -2.0758564 -1.596073
000020 7a 99 db bf 1b dc 9f bf bf d9 57 3f bc 37 a0 3f
       -1.7156212 -1.2489046 0.8431663 1.2517009
000030 29 af 73 3f a7 14 98 3f bc f5 b4 3f 5e e1 66 3f
       0.9518915 1.1881303 1.4137492 0.90187633
000040 7b 43 9f 3f 9c b5 c2 3f 64 37 1d 3f 0a d6 db 3f
       1.2442468 1.5211673 0.61412644 1.7174695
000050 51 5c 9d be 51 e3 19 3f 04 77 a9 bf 8b 1f a0 be
       -0.30734494 0.6011248 -1.3239446 -0.31274065
000060 0e bb ee 3e 4f 6b 20 bf 2d 03 1d bf fe 1c 06 be
       0.46627086 -0.6266374 -0.6133297 -0.13096997
000070 3e a5 a2 3b 18 39 f2 3e 6b f3 93 3e 45 05 96 bd
       0.004963546 0.47309184 0.2889665 -0.07325224
000080 64 6f df 3f 9f d9 cb be 8b 0e 21 bf 18 41 11 bf
       1.7455869 -0.3981447 -0.62912816 -0.5673995
000090 58 f9 d5 3e c8 bb c6 be dd 3b 7b 3f 94 73 35 bf
       0.41791797 -0.3881514 0.9813822 -0.70879483

lstm.weight_ih_l0_reverse f4 [40, 20]
000000 f8 4c 81 bf 5d 64 bd 3d e3 49 7a 3f 26 54 5d 3e
       -1.0101614 0.092476584 0.9776899 0.21614131
000010 6a c4 69 be 5d a7 14 bf 1c 88 b1 bf 09 2a 32 be
       -0.22828832 -0.58067876 -1.3869662 -0.17398848
000020 6c 29 9b 3e ea 55 09 be f4 66 be be c9 b3 e9 be
       0.3030504 -0.1341168 -0.37187922 -0.45644978
000030 41 e3 b2 bf b1 5f ef bf f3 6a d1 3e f3 f1 bf be
       -1.3975602 -1.8701078 0.40901908 -0.3748928
000040 79 9a 98 be 9b 16 f1 bf 89 e4 e2 be 00 40 11 bf
       -0.29805353 -1.8835024 -0.44314983 -0.5673828
000050 88 09 2d 3f 6e 2c 57 bc f2 05 e7 3e 44 f4 00 bf
       0.6759267 -0.013133151 0.45121723 -0.5037272
000060 68 47 c9 3f 80 dc a1 3f bc ed 88 3c 89 aa bd 3f
       1.5724916 1.2645416 0.016714923 1.4817668
000070 1f c9 df 3e 61 83 a9 3f 9c ea 9c 3f a5 37 6d 3d
       0.4370813 1.3243219 1.2259097 0.057914395
000080 76 96 97 3f 19 2d 20 3f ec 68 20 3f e7 9e 6d 3e
       1.1842792 0.62568814 0.626601 0.23205148
000090 07 c6 6a 3f ee 01 ba 3f ce 66 05 bf 07 e5 11 c0
       0.91708416 1.4531839 -0.5210999 -2.2796037
0000a0 c3 6b 62 bc 20 58 66 3f 10 74 57 3f d8 12 5e be
       -0.013819638 0.8997822 0.8416147 -0.21686876
0000b0 eb a7 87 c1 83 18 7e 3e c6 36 49 3e 60 38 29 3e
       -16.956991 0.24814038 0.196498 0.16525412
0000c0 ec 50 8c 3f 41 dc 3c c0 f4 af 78 3e b8 0c 16 bf
       1.0962195 -2.9509432 0.24285871 -0.5861316
0000d0 3c 6a 6b be eb c6 e6 be a9 8c 70 3f 7f 8e 50 3e
       -0.22989744 -0.45073637 0.9396463 0.20366858
0000e0 d9 28 56 bf 6e 4b fa 3d ec 93 83 bf 61 f2 26 c0
       -0.8365608 0.12221418 -1.0279517 -2.6085436
0000f0 bc 86 bb bf 1a 0e 83 3e 4e 07 ce 3f c7 45 f2 3f
       -1.4650493 0.25596696 1.6095979 1.8927544
000100 4e cc 57 3f 85 3a 18 bf 29 17 93 3d 08 08 45 3f
       0.8429612 -0.59464294 0.07182152 0.7696538
000110 59 ae 15 3f 74 6c 74 be 02 35 a2 be bd 4c ec bf
       0.5846916 -0.23869497 -0.31681067 -1.8460919
000120 7c ac 45 3e 80 af e6 3e 40 4b e8 3f 9a 02 6a bf
       0.19304079 0.4505577 1.8147964 -0.9141022
000130 9a db 63 be 7e d8 0a bf e2 2f 93 3f d4 3a a7 bf
       -0.2225174 -0.5423659 1.1498988 -1.3064828
000140 73 71 08 3f 91 d6 ca 3f a1 f7 66 3e cb 96 8e bd
       0.5329811 1.584673 0.225554 -0.06962355
000150 27 e7 2f 3e b9 b2 02 c0 11 42 35 3f 0d 04 b6 3e
       0.17178021 -2.0421584 0.70803934 0.35549966
000160 d4 83 3d bf dc b5 2b 3f e2 89 7f be ac 0e ed 3e
       -0.7402928 0.6707437 -0.24954942 0.46300256
000170 44 5d 44 3e fa 79 31 3f b2 6b be bf 49 34 8e be
       0.19176203 0.69326746 -1.4876616 -0.27774265
000180 87 74 23 3f 6e 37 a9 bf 3b 25 35 bf b8 40 80 bf
       0.6384968 -1.3220041 -0.70759934 -1.001975
000190 50 d3 47 c1 e4 a3 8f 3f f7 22 b0 3f 64 db 85 3f
       -12.48909 1.122189 1.376067 1.0457578
0001a0 11 ef c3 3f 48 e3 3f 3f 47 c8 62 bf 11 85 8e 3f
       1.5307332 0.7495618 -0.8858685 1.1134359
0001b0 23 9b 1c c0 b5 6f 86 3f 77 2d 82 3f 62 cc b1 3e
       -2.4469688 1.050284 1.0170125 0.34726244
0001c0 a9 54 37 3f 8c d0 d7 be 0b 22 c5 3f b6 22 c2 3e
       0.71613556 -0.42151296 1.5401014 0.37917107
0001d0 0c 87 2f bd 7d d5 0d bd 77 97 d3 3f 96 5e b6 3e
       -0.0428534 -0.034627426 1.6530598 0.35619038
0001e0 13 66 3c 3e cb a1 fc bb dd 58 97 3f f7 2e fd 3e
       0.18398313 -0.007709717 1.1823994 0.49449894
0001f0 53 ed bc 3f 0e 21 b9 3e 4f 38 99 3e 1d ab 99 3f
       1.4759926 0.3615803 0.29925773 1.2005345
000200 c5 0a 1b 3f 15 b3 1e c0 08 40 5f c0 b6 a1 1d bd
       0.6056331 -2.4796803 -3.4882832 -0.038484298
000210 65 5b 47 3e 99 8f 8d 3e 8b e8 07 bf 13 18 68 3e
       0.19468458 0.2764862 -0.5308921 0.22665434
000220 17 3a 9c bc b0 dd c7 3f 93 16 62 3f 81 02 9f 3e
       -0.019070668 1.5614529 0.88315696 0.31056598
000230 35 0c d4 bd b6 a1 46 bf 90 48 97 c1 fd 7f 3b 3f
       -0.10353891 -0.775905 -18.91043 0.7324217
000240 e0 16 95 3f be 02 9a c1 82 52 0e bf 0c bf 58 3f
       1.1647606 -19.251339 -0.55594647 0.84666514
000250 52 5f a0 3d 59 70 9c 3f e2 84 00 be e4 0a 43 bf
       0.07830681 1.2221786 -0.12550691 -0.7618849
000260 c4 08 18 3f 7c 69 a3 3e 8b 9a b0 be 1f be b4 3e
       0.59388375 0.31916416 -0.34492907 0.353013
000270 d8 f6 0c bf 95 4c 88 3f 7f 1b 7c 3f dc ad a1 3f
       -0.55064154 1.0648371 0.98479456 1.2631183
000280 26 4d 2f 3d 2b b2 45 3f eb 1d fd 3f 1a 24 17 3f
       0.042798184 0.7722499 1.9774755 0.5903946
000290 13 8e dc 3e 91 09 d8 3e af 91 bb bd c0 d0 6d 3f
       0.43077144 0.421948 -0.09158646 0.9289665
0002a0 4a 89 26 bd 64 14 3c 3f b2 91 00 c0 18 52 3f 3f
       -0.040658273 0.73468614 -2.0088925 0.7473464
0002b0 9c 1d 2f 3f 40 40 3f bf 05 8d 4d bf 4b dd f0 3c
       0.68404555 -0.7470741 -0.80293304 0.029402396
0002c0 66 8e f9 3c 05 01 83 3f b9 89 ab 3f d2 d2 dc bf
       0.030463409 1.0234686 1.3401405 -1.7251837
0002d0 c6 e2 00 3f ce 56 2c 3f a5 81 9b 3e 7f f9 1e 3f
       0.5034603 0.67319953 0.30372348 0.6209945
0002e0 65 f8 01 be 2b c7 2c bf d7 1e 2a 3f 7f 5b 04 3f
       -0.12692411 -0.67491406 0.6645331 0.5170211
0002f0 8d 71 c1 bb 56 b1 df 3e d9 5b 5c 3f ad bb 56 3e
       -0.005903429 0.43689984 0.8607765 0.2097003
000300 c6 ed 3e 3f 4e 99 6f 3f 54 2f 90 3d de 5e be 3e
       0.74581563 0.935933 0.07040277 0.37181753
000310 4e cf 6f 3f 77 2b bc 3d 7f d3 60 3f c0 a6 26 3f
       0.93675697 0.09187978 0.8782272 0.6509819
000320 cc 70 6b 41 59 50 15 bf f5 5e 8c 3e 47 fa 65 41
       14.715038 -0.58325726 0.27416196 14.373603
000330 3b 36 e6 3e 17 bc bd be a0 3a 37 40 c1 6c 41 be
       0.4496325 -0.37057564 2.8629532 -0.18889143
000340 85 cb 68 41 3b 5e ea be 84 1b 67 41 5d 12 de be
       14.549687 -0.45775017 14.444218 -0.43373385
000350 6a c8 56 3f f9 5a 0e 40 dc 23 1b 40 76 bc 30 3e
       0.8389956 2.2243025 2.4240637 0.17259392
000360 f3 11 2e bf 47 4a a7 3f 97 7f 83 be da ad 10 bf
       -0.6799614 1.3069543 -0.2568328 -0.56515276
000370 c2 2c 72 41 6e 22 11 c0 73 f1 9d 3f 3b c0 6d 41
       15.135927 -2.2677264 1.233931 14.859431
000380 41 a8 7d bf 7c 9f d7 3f e1 bf 8b 3f 08 2d 16 bf
       -0.9908486 1.6845546 1.0917932 -0.5866246
000390 bd 86 61 bf 68 68 da be 13 9a 98 bf 0a db 15 40
       -0.8809622 -0.4265778 -1.192202 2.341494
0003a0 9c c8 50 40 f7 12 e5 3f fa 54 39 41 68 4b a3 3e
       3.2622442 1.7896413 11.583246 0.31893468
0003b0 ad 34 c0 3e 8c e1 76 41 50 13 d3 bf bb 63 b6 bf
       0.37540188 15.430065 -1.6490269 -1.4249185
0003c0 e1 4e e6 3f 6f 57 f7 bf c0 2c c3 be 85 61 89 be
       1.7992822 -1.9323558 -0.3812008 -0.26832214
0003d0 4d 16 7c 41 d0 0a f1 bd 47 b7 2d 40 16 ee c8 3f
       15.755445 -0.117696404 2.7143114 1.5697658
0003e0 0d b3 24 41 ba 60 7f 3c 85 9b 90 3f d0 48 d1 be
       10.293714 0.015587026 1.1297461 -0.40875864
0003f0 6a 6b 8b be bb bc 9b 3f 62 5a 45 3f 23 2b ae be
       -0.27230388 1.2166971 0.7709104 -0.34017286

lstm.weight_hh_l0_reverse f4 [40, 10]
000000 25 3a d8 3f 8e bb 1e bf cb 80 33 be 75 9e 3a be
       1.6892744 -0.62004936 -0.175296 -0.18224509
000010 63 d8 cc 3f a2 a7 52 be 14 c0 d1 be 7e 5f 4f 3f
       1.6003536 -0.2057176 -0.40966856 0.81005085
000020 58 aa 55 3e 37 12 81 3f 67 c7 9e 3e 12 0d fd 3f
       0.20865762 1.0083684 0.31011507 1.9769614
000030 fb 07 18 bf eb 43 bc bf d9 43 17 3f 7c 50 ba 3e
       -0.5938718 -1.4708227 0.590879 0.3638953
000040 c8 4b 8b bf 5f 3f d9 be 6d 16 b7 bf 62 27 24 40
       -1.0882502 -0.4243116 -1.4303719 2.5649037
000050 f5 eb 8f be f5 5b db bd 10 3b 4d bf a2 65 93 be
       -0.28109708 -0.10710899 -0.8016825 -0.28788477
000060 5e a8 1c 3e e9 fd aa 3e a0 b2 63 3f d0 ce 34 3f
       0.15298602 0.33396843 0.88944435 0.7062807
000070 5a 50 27 bf 64 72 de 3c 3e 77 9b be 25 7f 27 c0
       -0.6535698 0.027154155 -0.30364412 -2.6171353
000080 2f cb 7f bf c6 90 38 40 f4 40 d0 be 0f 28 40 3f
       -0.9991941 2.8838363 -0.40674555 0.75061125
000090 ba ca a3 bf c2 2b f9 3f be 47 18 c0 26 0e 2e 40
       -1.2796242 1.9466479 -2.3793788 2.7196136
0000a0 27 6e 4c 3f 5a 40 4a be 10 b7 70 c0 3f 65 af 3f
       0.7985558 -0.1975111 -3.7611732 1.3702773
0000b0 1d a7 32 be 6d 18 11 bf 4a 2f f8 be f6 26 0a c0
       -0.17446561 -0.56677896 -0.4847358 -2.158628
0000c0 df 8e 69 be 68 95 8c bf 3e 60 05 3b e0 2c b4 bd
       -0.22808407 -1.0983095 0.0020351554 -0.08797622
0000d0 28 ff 71 3e 38 df 32 be 59 c2 1e bd 74 50 29 40
       0.2363249 -0.17467964 -0.038759563 2.6455355
0000e0 b9 b7 fc 3d 29 19 52 bf 7a 24 87 3d aa 0c 06 bf
       0.1233973 -0.8206964 0.06598754 -0.52363074
0000f0 5f 54 c3 3e 5d 6f 46 bf 88 54 70 be 88 30 e2 be
       0.38150308 -0.77513677 -0.23469746 -0.4417765
000100 ed bb e0 3e be cc 17 be 71 38 22 40 dd b3 1f 3f
       0.43893376 -0.14824197 2.534695 0.62383825
000110 c8 ea 1e 3e db 66 a5 bf 6e a2 6b 3f 80 8f 65 3e
       0.1551925 -1.2922014 0.92044723 0.22418022
000120 5f 6a dd 3d 1b 5c 4b 3f c5 f3 04 3e f9 c5 2c bf
       0.10811304 0.79437417 0.12983616 -0.6748958
000130 b9 00 3c be 80 03 a0 c0 6c 3e ca 3e 9d 35 39 bf
       -0.1835965 -5.0004272 0.3950075 -0.7234743
000140 72 54 d6 bd d6 8a f9 3d e1 cf fe bd de 9a 97 be
       -0.104653254 0.12184684 -0.124419935 -0.29610342
000150 5a f3 e2 be 0c b0 11 bf 12 5a 98 bd 23 bd 62 3f
       -0.44326288 -0.5690925 -0.074390545 0.8856985
000160 2b 4a 36 40 38 e4 3e be 9b 88 0d 3f 97 75 39 3f
       2.8482769 -0.18641746 0.5528657 0.7244505
000170 47 15 e9 3f f9 2f 06 41 5a 77 24 bf f8 ff e8 bf
       1.8209618 8.386712 -0.64244616 -1.8203115
000180 2b df 15 40 8c ff 67 c0 70 c8 1c 40 4c 43 e2 3e
       2.341746 -3.6249723 2.4497337 0.44191968
000190 3a 4d a3 bf 74 20 60 3f 16 0d 52 bf 16 24 4b be
       -1.2757943 0.8754952 -0.8205122 -0.19837984
0001a0 e8 61 d5 bf b5 c9 cd be 58 91 17 be e6 4d ef be
       -1.6670504 -0.40192953 -0.14801538 -0.4673912
0001b0 75 b5 35 be 04 7d 37 be a6 97 cd 3f 05 6e 16 40
       -0.17745002 -0.17918783 1.6061904 2.350465
0001c0 cc 24 5b c0 b3 55 49 c0 43 ed 93 40 7a df 51 bf
       -3.424121 -3.1458557 4.6227126 -0.81981623
0001d0 1f d7 b6 bf a8 d0 c5 bd 45 eb 14 bf 12 e1 2c c0
       -1.42844 -0.09658939 -0.5817149 -2.7012372
0001e0 5d 2f cb 3d f1 93 56 3f e0 c3 0d 40 3c 4d a6 be
       0.09921143 0.8381949 2.2150803 -0.324808
0001f0 2d ee 65 3e 6e b8 8e be 4f 43 53 40 e2 ea 13 bf
       0.22454138 -0.27875084 3.3009832 -0.5778028
000200 94 66 09 40 7a 7a f3 3e d2 65 29 bb b2 2e dd be
       2.1468859 0.4755438 -0.0025848043 -0.43199688
000210 27 f3 10 bf b2 71 a2 3e 76 16 91 bf a8 b0 ce be
       -0.5662102 0.31727368 -1.133498 -0.40369153
000220 f3 27 88 be 2b c1 18 40 86 a1 2b bf 85 a5 a8 bf
       -0.2659298 2.38679 -0.6704334 -1.3175513
000230 21 c8 d2 bf 78 9a 67 3c 91 12 4c bf a5 b5 26 40
       -1.6467324 0.014135949 -0.7971583 2.6048367
000240 6a c5 a3 40 df 6c f9 3f 96 ef cf bf 27 ef bd bf
       5.1178484 1.948635 -1.6244991 -1.4838609
000250 0d 1d 50 40 4f e2 f9 3f 58 b6 ef be 26 45 b0 3e
       3.251773 1.9522189 -0.46818805 0.34427756
000260 65 8f c1 3f d1 67 96 be 10 8f 1b bf b6 62 fe 3e
       1.5121886 -0.2937608 -0.6076517 0.49684685
000270 67 63 da 3f 86 4b 39 40 b9 d4 6d 3f 2d 6d be 3c
       1.7061585 2.8952346 0.92902714 0.023245418
000280 f7 f7 18 bf 1a 9e 0f 3f 5f f1 b6 40 bb 24 95 3e
       -0.59753364 0.5610062 5.7169642 0.29129586
000290 36 81 ee 3e 88 fa aa bf ab 38 90 40 ba dc 24 bf
       0.46582955 -1.3357706 4.5069175 -0.643993
0002a0 60 19 ca 3e d2 38 c0 3d 42 0f a3 3f 28 1b 22 3f
       0.39472485 0.093858376 1.2739031 0.6332269
0002b0 da a7 b5 3e 93 71 5c 3e f0 db 97 bd c2 f4 86 40
       0.35479623 0.215277 -0.074149966 4.2173777
0002c0 a8 c5 3d 3e e1 5f 53 3f 80 91 47 40 5d ee 2a 40
       0.18532431 0.82568175 3.1182556 2.6707985
0002d0 69 8b ea be 07 3e 66 be 40 0b e1 bd c7 bf 2b 3e
       -0.45809487 -0.22484599 -0.10988474 0.16772376
0002e0 e5 57 68 3e 24 bd d2 3f ce e4 63 3d 69 09 37 3c
       0.22689779 1.6463971 0.055638127 0.011171677
0002f0 5b ed bf 40 92 12 c9 be a5 5f ac 3f e7 c8 88 c0
       5.997724 -0.3927198 1.3466688 -4.274524
000300 50 39 a5 c0 b4 86 f1 c0 9e f0 29 3e da 90 22 3c
       -5.163246 -7.5476933 0.16595694 0.009922231
000310 01 5f 90 c0 81 62 83 40 e9 4e 05 c0 06 e5 16 c0
       -4.511597 4.1057744 -2.0829413 -2.3577285
000320 84 67 28 40 e8 13 06 bf 6d 3a 00 3e 3d 19 e9 3d
       2.631318 -0.52374125 0.12522288 0.11381767
000330 bd e8 15 40 90 68 88 be fa b3 4e bd 71 78 3b 3f
       2.3423302 -0.26642275 -0.050464608 0.73230654
000340 58 d8 89 bc 19 2e a0 3e a5 d3 92 bf b5 c5 18 40
       -0.016826794 0.3128517 -1.1470839 2.387067
000350 8e 3c c1 bf 93 d6 4c 3f 88 5c 9f bf 8b c6 08 3f
       -1.5096605 0.80014914 -1.2450113 0.5342795
000360 41 e5 81 3d 0c 7c 65 bf cb f4 37 bf 0c 85 05 3f
       0.06342555 -0.89642406 -0.718579 0.5215614
000370 ca 5c 5c bf 46 da a5 bf b0 fd 6a bf 41 0c 13 c0
       -0.86079085 -1.2957237 -0.91793346 -2.297623
000380 6a b4 5c bc 5e 13 60 3f 8b 9b 84 c0 aa 99 9c bd
       -0.013470748 0.8752955 -4.143987 -0.076464966
000390 32 2c c5 bf 1f e2 e0 3f 2f 9d cf 3d b8 68 b4 bf
       -1.5404112 1.7569007 0.10137402 -1.4094458
0003a0 16 05 b7 bc ec 6a 35 40 37 7f a1 c0 5a 51 dc 3e
       -0.022341292 2.834651 -5.046779 0.43030816
0003b0 56 84 de 3d 26 d2 eb 3f 43 49 5d bf f2 51 44 3f
       0.10865085 1.8423507 -0.86439914 0.7668754
0003c0 48 fb 72 40 0e bc 24 bf 88 51 53 40 94 bb 4a 3f
       3.796587 -0.6434945 3.3018513 0.7919247
0003d0 0e 49 ab c0 52 33 58 bd 62 85 5b 40 a4 2c 80 c0
       -5.352668 -0.052783318 3.430016 -4.0054493
0003e0 9d 69 95 40 95 47 8b c0 11 07 0b 3f e3 06 f5 3e
       4.6691422 -4.352488 0.5430766 0.47856817
0003f0 ec ac 94 bf 9b 58 b4 bf 18 b3 1c c0 31 20 2d 40
       -1.1615272 -1.408954 -2.448431 2.7050898

lstm.bias_ih_l0_reverse f4 [40]
000000 34 c3 a1 bf 14 75 02 c0 9f 53 e5 bf 5a a8 d9 bf
       -1.2637696 -2.038396 -1.7916144 -1.7004502
000010 e0 bf 70 bf dc 8f aa bf 25 52 79 bf f6 3b c6 bf
       -0.9404278 -1.3325152 -0.9739097 -1.5487049
000020 e1 37 3f bf 74 16 f3 bf 61 67 99 3f 58 f6 10 40
       -0.7469464 -1.8991227 1.1984674 2.2650356
000030 4e a7 e5 3f af 88 8b 3f 67 40 4c 3f a8 be ac 3e
       1.7941682 1.0901088 0.7978577 0.3373921
000040 76 9c f7 3f 87 26 8a 3f ad 97 a6 3f bd 2d 81 3f
       1.9344623 1.0793008 1.3015038 1.0092083
000050 61 f8 25 bd 89 3f a0 be c4 67 b5 bd 8b 25 52 bf
       -0.040520076 -0.31298473 -0.08857682 -0.82088536
000060 8d 68 34 3e d2 1c 35 bf d4 b1 04 bf 60 7d 7c 3e
       0.17618008 -0.707471 -0.51833844 0.24657202
000070 91 7f 08 bf 03 51 20 bd a0 b6 3e 3f d8 40 94 be
       -0.5331965 -0.03913976 0.74497414 -0.28955722
000080 f7 36 dc 3f 5a f1 b8 bf 2d 0a b9 bf c5 b9 1f bf
       1.7204274 -1.4448655 -1.445623 -0.62392837
000090 ab 57 c1 be d6 ce 0c 3e c8 c4 6a bf 57 f1 dd 3d
       -0.37762198 0.13750777 -0.91706514 0.108370475

lstm.bias_hh_l0_reverse f4 [40]
000000 6c 7b ae bf 96 76 f1 bf 62 d8 ca bf 6b f3 9d bf
       -1.3631415 -1.8864315 -1.5847285 -1.233991
000010 d2 ac f2 be 71 e3 d4 bf f3 4d 73 bf 07 c7 ae bf
       -0.47397476 -1.663191 -0.95040816 -1.3654488
000020 7b 34 a0 bf 48 e8 15 c0 32 32 b9 3f 27 9a 0c 40
       -1.2516016 -2.3423023 1.4468443 2.1969087
000030 fc fa c7 3f 8e 7e 3d 3f 18 15 07 3f 9a 7f 5e 3f
       1.5623469 0.7402123 0.5276656 0.86913455
000040 4f 86 0c 40 a7 5c 80 3f d4 7e a3 3f 9a 8d 2c 3f
       2.1956975 1.0028275 1.277308 0.67403567
000050 54 a1 a1 be a2 a2 64 be 8a 5f 37 be 46 73 30 bf
       -0.31568396 -0.22327664 -0.17907539 -0.68925893
000060 1f 3d 07 3f dc 9b 68 bf a1 9b 67 bf a9 82 d3 3d
       0.5282764 -0.9086282 -0.90471846 0.10327656
000070 01 55 36 bf 23 ff 11 3e 66 43 56 3f ba 86 98 be
       -0.71223456 0.14257483 0.8369659 -0.29790288
000080 3d 4a ce 3f bc 74 ce bf fa 9a 8c bf 32 e7 e6 be
       1.6116406 -1.6129375 -1.0984795 -0.45098263
000090 7c 0d 53 bd bb 40 b1 3d 0d 0f 0c bf 4c 6d a6 3d
       -0.05152653 0.086549245 -0.54710466 0.081263155

lstm.weight_ih_l1 f4 [40, 20]
000000 1a cc 31 be 60 c9 b4 be 8d cb 99 40 3d 9c 04 be
       -0.17363015 -0.35309887 4.8060975 -0.12950225
000010 e1 aa d1 bf f7 3f bf be 26 79 07 c1 5d af db bf
       -1.6380273 -0.3735349 -8.467077 -1.7162892
000020 87 b3 2f c0 49 ce d2 3f be b5 73 3f e3 8b f9 bd
       -2.7453325 1.6469203 0.9519919 -0.121848844
000030 5d c9 25 c0 d7 5e 7a 3f db d9 54 bf 26 d8 11 c0
       -2.5904152 0.97800964 -0.8314492 -2.2788177
000040 c4 f7 69 bf 8b 56 8d be 6a bc 3f 40 69 ca 38 c0
       -0.91393685 -0.2760509 2.995875 -2.8873541
000050 33 dd 20 bf 70 f6 e7 3f ca 7d c1 bd 0b 3e 15 40
       -0.62837523 1.8122082 -0.094478205 2.3319118
000060 2f dd 80 c0 59 01 34 40 57 fc 12 40 06 a4 0a 3f
       -4.027 2.8125823 2.2966516 0.5415653
000070 86 bc 4a c0 0d 3f e7 bf 3e a7 46 3f 46 ec 42 40
       -3.1677566 -1.8066117 0.7759894 3.045671
000080 9c f3 0e 40 e9 55 4d bf d3 46 60 c0 91 cb cd be
       2.2336187 -0.80209213 -3.5043228 -0.4019437
000090 57 f5 1c 40 95 d6 c2 3f db ba a8 bf a5 e6 f7 bd
       2.4524744 1.5221735 -1.3182024 -0.12104539
0000a0 6d a7 09 41 88 8d ac 3e e3 53 03 41 cd db 0f 40
       8.603375 0.3370173 8.20798 2.2477906
0000b0 ef 1c 77 bf 68 66 93 bf 51 69 3c 41 d2 bb 20 bf
       -0.96528524 -1.1515627 11.775712 -0.6278659
0000c0 74 ab 18 40 f8 9a 75 c0 c2 10 80 bf ab 9e 5e 3f
       2.3854647 -3.8375835 -1.0005114 0.8696086
0000d0 55 c1 4a 40 5c 93 44 40 7c 2d 1d c0 4e f9 90 3f
       3.16805 3.071494 -2.4559011 1.1326082
0000e0 b3 5a 21 c0 2f f4 0f be 23 62 8e 3e 54 68 cf 3f
       -2.5211608 -0.14057992 0.27809247 1.6203713
0000f0 3f 56 33 c0 3f 06 2b 3f 46 cf d4 be df 5f e9 bd
       -2.802139 0.66806406 -0.41564387 -0.11395239
000100 17 51 a9 40 62 d9 5f be 76 33 60 3d d7 d3 46 3f
       5.2911487 -0.21860269 0.054736577 0.7766699
000110 73 08 a3 bd 00 03 3b c0 55 4a e1 bf a9 21 81 be
       -0.07960596 -2.922058 -1.7600809 -0.25220993
000120 f8 83 73 3f 68 62 f3 3f 63 96 63 bf dc 04 4d c0
       0.95123243 1.9014406 -0.88901347 -3.2034216
000130 e4 51 70 3f df 13 59 be c5 f6 1e 40 70 1a 4f 40
       0.93874955 -0.21198986 2.4838116 3.2359886
000140 54 d6 64 3f d3 ad a2 3f 49 1e 84 40 43 9c 84 3f
       0.8938954 1.2709297 4.128697 1.0360187
000150 75 75 9a bf 97 78 1f 3f fb 6e 81 40 bc f3 a1 3f
       -1.2067095 0.6229338 4.0447974 1.2652507
000160 f3 36 3e c0 f8 73 a2 c0 2c c8 ae bd 67 0c f9 40
       -2.9721038 -5.0766563 -0.085342735 7.782764
000170 8b c2 fc 40 cb 27 39 40 5c a5 23 40 ef e7 72 bf
       7.898748 2.8930538 2.5569677 -0.9488515
000180 91 bb 2a 40 41 70 79 c0 98 6b 92 40 1b cb 50 3d
       2.6676981 -3.8974764 4.575634 0.050974946
000190 f9 2b d2 bf a9 77 e1 3e ee 33 13 c0 6c 96 d2 bf
       -1.6419669 0.44036606 -2.3000445 -1.6452155
0001a0 5c 38 70 40 e4 29 ec 3f b5 55 77 c0 c3 80 09 bf
       3.75344 1.8450284 -3.8646061 -0.537121
0001b0 04 56 a1 be 5b 94 97 be f4 b1 82 3d 01 74 2e bf
       -0.31510937 -0.29605374 0.06381598 -0.6814576
0001c0 00 e2 56 bf 46 b5 89 be 9f 1d fe 3f 0b 16 eb 3e
       -0.839386 -0.26896113 1.985279 0.45915255
0001d0 9d e3 be 3f 9a eb a0 bf 14 14 f9 3e e3 88 57 40
       1.4913212 -1.25719 0.4864813 3.36773
0001e0 50 f3 2a 40 d0 fe a1 3f 6b 46 95 3f b0 3d cf 3f
       2.6711006 1.2655888 1.1662115 1.61907
0001f0 36 7e 94 c0 88 df 1b 40 e7 6c 6e 40 1d dc 33 3f
       -4.6404066 2.4355183 3.7253969 0.7025774
000200 35 a7 8e 40 d0 90 1a c0 5c a8 dc 3f 67 ec 5e bd
       4.457911 -2.4150887 1.7238879 -0.05442467
000210 94 b5 63 3e 2f 7e fe 3e e3 d1 32 bf 83 46 f3 3f
       0.22237235 0.49705645 -0.6985151 1.9005893
000220 fd 58 5c 3f 9e 12 0a 40 25 f8 9a 3f 6f db 94 be
       0.86073285 2.1573863 1.2106978 -0.29073665
000230 3f 7a 40 c0 23 bc 2a 40 41 13 72 40 cb 85 72 be
       -3.0074613 2.667733 3.7824252 -0.2368385
000240 83 6b 1a 41 aa bb f6 bf 77 43 e8 c0 e7 f0 6c 40
       9.651248 -1.927602 -7.2582355 3.7022035
000250 ec 2c a6 40 c2 11 8c c0 12 69 e1 c0 08 bc 8d 3e
       5.1929836 -4.3771677 -7.044076 0.2768252
000260 07 3f ee 3f c6 7e d5 40 05 ab f6 bf 17 82 e2 c0
       1.8612984 6.6717253 -1.9270941 -7.07838
000270 d6 1c 93 40 ce f2 11 bf f7 83 d7 3f dd 47 22 c1
       4.59727 -0.57011116 1.6837147 -10.142545
000280 93 7f 43 be 8e 9b 02 be 77 6d da be d0 a9 9c be
       -0.19091634 -0.12754652 -0.4266164 -0.30598307
000290 28 fa 04 c0 42 60 8a 3f 5e 7e 25 3f de d3 af 3f
       -2.0777683 1.0810626 0.64645946 1.3736532
0002a0 c1 80 1a bf 41 d7 a3 be 3e 08 55 3e e7 f5 1c 40
       -0.6035271 -0.32000163 0.20803925 2.4525087
0002b0 45 38 1e 40 ca 17 5a 3f 79 5a c5 bf 30 20 13 3e
       2.4721844 0.8519255 -1.5418235 0.14367747
0002c0 cc 3f fd 3f f3 17 56 bf bc c1 d9 3f 98 a6 c2 bf
       1.9785094 -0.83630294 1.7012248 -1.520709
0002d0 47 2e 0e c0 26 e4 5d 3f 43 54 58 bf 4d 35 f7 3f
       -2.2215745 0.8667625 -0.84503573 1.9313141
0002e0 75 ce 4c c0 2e 1f a3 3f 2b 36 14 40 97 36 24 3e
       -3.2001011 1.274389 2.3158062 0.1603645
0002f0 00 84 0b 3f ee 4b 87 bf 6e 43 8d 3e 3f ca 2e 40
       0.5449829 -1.0570047 0.27590507 2.7310941
000300 15 bd 81 3f 97 ea 93 bf 57 df 8d be b2 55 7b 3f
       1.0135828 -1.1555966 -0.27709457 0.98177636
000310 b4 87 61 3d 9f f2 74 3f bb 7c f6 bf 88 95 a8 40
       0.055061057 0.9568271 -1.9256815 5.2682533
000320 96 a5 57 3f 74 bf 74 3f 0c 35 b0 bf f7 8e 7a bf
       0.8423704 0.95604634 -1.3766189 -0.978744
000330 f1 de 13 40 ba 8c 8e bf 3f 27 0e 41 b6 b8 74 be
       2.3104823 -1.1136696 8.884582 -0.23898587
000340 8a dd 39 40 cf 6d ab bf 0d 99 50 3f d2 22 2d 3c
       2.9041467 -1.3392886 0.81483537 0.010567384
000350 ae a7 18 40 9f 4d 53 c0 aa 70 c2 40 e5 ce 65 bf
       2.3852344 -3.3016126 6.076253 -0.8976882
000360 6c e5 09 40 76 15 ae 40 3a 15 d7 c0 31 ca b0 c0
       2.1546278 5.4401197 -6.721341 -5.5246816
000370 c3 a9 88 be ff 76 05 bc a0 20 52 bf 2c 58 85 be
       -0.26692018 -0.008146047 -0.8208103 -0.26043832
000380 1b 09 35 bf 1a 92 e8 3c 42 8e ac 3e 5e d2 8f bf
       -0.7071702 0.02838998 0.33702284 -1.1236074
000390 9b 28 69 be 9a 57 c4 3e c4 53 cb be 95 de a9 3e
       -0.22769396 0.38348085 -0.39712346 0.3317763
0003a0 7b 90 6f bf 0e fa f6 bf 29 4d 86 be 9f ba d8 3f
       -0.93579835 -1.9295061 -0.26230744 1.6931952
0003b0 9e ab 96 bf 52 5c 59 3f 3c 5a 95 bf f6 93 c2 3f
       -1.1771123 0.84906495 -1.1668162 1.5201404
0003c0 6a 62 9b be 10 f5 5e 3d 80 cb fe bf ff c9 01 bf
       -0.3034852 0.05443293 -1.9905853 -0.50698847
0003d0 f8 cc 32 bf d4 86 12 3f 79 85 13 40 fa e3 af 3e
       -0.6984401 0.5723698 2.3050215 0.3435362
0003e0 9c 8d 22 c0 4f 82 25 3f 12 c5 fa bd e8 f0 07 c0
       -2.5398932 0.6465196 -0.122446194 -2.1240788
0003f0 97 48 18 c0 cf b9 00 c1 bf e1 9f 40 3a 5c 97 be
       -2.3794305 -8.045363 4.996307 -0.2956255

lstm.weight_hh_l1 f4 [40, 10]
000000 3a 15 e6 3d 55 e8 20 bf b7 d2 d0 bf 25 e0 65 c0
       0.112345174 -0.6285451 -1.6314305 -3.5918057
000010 14 34 8f bf 95 3b d4 3f 3d 6d c0 be a3 9e 77 40
       -1.1187768 1.6580683 -0.37583342 3.8690574
000020 b6 d1 0a bf 3a ab 3c c1 7d b7 31 c0 68 cb 0f 3f
       -0.54226243 -11.791803 -2.7768242 0.5616975
000030 be 63 c7 c0 f9 da 9b be db e3 2f c0 76 56 10 c0
       -6.2309256 -0.304405 -2.7482822 -2.2552772
000040 30 32 2e 40 20 9e a6 40 ed c7 4b 3f 57 a9 e9 3f
       2.7218132 5.2068024 0.7960194 1.8254803
000050 7b b5 fd 40 47 b9 a1 3f 3c 76 c5 3c 16 ab 20 41
       7.9284034 1.2634667 0.02410423 10.041769
000060 b1 af 28 40 bd 50 37 c1 69 8b 9b be 67 52 38 bf
       2.6357234 -11.4572115 -0.303798 -0.72000736
000070 53 b7 03 40 3d a4 40 40 5e 24 59 bf dc e6 07 bf
       2.0580642 3.0100243 -0.84821117 -0.5308664
000080 86 e0 c9 40 9b da 0b 3e d5 6c e7 3f a0 d0 3a 40
       6.3086576 0.1365761 1.8080088 2.9189835
000090 98 81 ed 3f 19 f3 31 3d 39 91 b0 3f be 63 07 be
       1.8555174 0.043444727 1.3794318 -0.13221642
0000a0 c7 58 19 c0 fb c7 92 3f 9e 31 94 3c 30 ac 86 c0
       -2.3960435 1.1467279 0.018090066 -4.208519
0000b0 a5 7a ec 3d 2c 7e f7 c0 e7 e8 e6 bd ec c2 1f 40
       0.1154683 -7.734152 -0.11274891 2.496272
0000c0 e5 3a 10 c0 9f ac 8d be f6 c9 42 c0 11 74 25 bf
       -2.2535946 -0.27670762 -3.0435767 -0.6463023
0000d0 9b 69 27 bd 19 04 30 40 6a d6 a4 3f ab c2 27 c0
       -0.040872198 2.75025 1.2877934 -2.6212566
0000e0 c7 5d 9b bf 89 73 ca bf bc 0d 93 3e b1 21 80 3f
       -1.2137994 -1.5816509 0.28721416 1.0010282
0000f0 f1 85 e5 40 00 7e 22 40 6e 3e e0 be f6 a0 f4 3f
       7.1726003 2.5389404 -0.4379763 1.9111621
000100 1b 63 16 c0 a3 2e 14 c1 9b ac 60 bf 93 20 29 41
       -2.349799 -9.261386 -0.87763375 10.570453
000110 ad 63 21 41 a0 6e af c0 d9 8a 81 40 19 e5 37 40
       10.086835 -5.482254 4.048199 2.873358
000120 80 89 9c bf 6f d8 9b c0 de b5 fd 3f ec 75 4f 41
       -1.2229462 -4.87017 1.9821126 12.9662895
000130 eb 44 0d c0 8c c3 7d c0 e1 a0 9a bf 4e 39 12 41
       -2.2073314 -3.9650602 -1.2080346 9.13899
000140 7c c1 9d be 7f cc bf 3f 6e d3 c0 3f 99 b5 58 3e
       -0.3081168 1.4984282 1.5064523 0.21163024
000150 d2 58 c0 bf 9a 71 6a 3d 2d dc a9 3f dd b3 66 40
       -1.5027106 0.057237245 1.3270317 3.604728
000160 8e e2 fd bf ce f5 d2 bf ba ce 49 be 1f cc 14 3f
       -1.9834764 -1.6481264 -0.19707766 0.58123964
000170 6a 5a 9e 40 d9 62 8d 3f a1 da 38 c0 3b 47 07 bd
       4.948537 1.1045791 -2.888344 -0.033026915
000180 19 d2 56 40 bd 6d 0f c0 f2 a7 8e 3f 76 8a a5 40
       3.3565733 -2.241073 1.1145003 5.173152
000190 8c 7a 13 c1 ff 88 87 be 51 62 aa c0 25 cf 03 40
       -9.217419 -0.26471707 -5.3245015 2.059518
0001a0 88 d0 1f c0 b4 f5 24 c0 ab d3 17 41 9d 9b 0a c0
       -2.4971027 -2.5774965 9.489177 -2.165748
0001b0 21 07 dc 3e b6 b8 c3 40 1c 9c a5 bf ae 3e 21 3f
       0.4297419 6.1162977 -1.2938266 0.62986267
0001c0 1a a3 c4 bf 47 8a d8 bf 77 1b 54 3e c4 80 50 be
       -1.5362275 -1.6917199 0.20713602 -0.2036162
0001d0 27 eb 7c be 2c 48 ef be 53 e1 2d 3d 4d 73 83 bf
       -0.24699079 -0.4673475 0.042451214 -1.0269562
0001e0 5a 20 ba be 2e 54 24 bf 1f a4 35 c0 14 94 73 3f
       -0.36352807 -0.6419095 -2.8381422 0.95147824
0001f0 6c 73 c2 bf 60 80 07 3f d3 6e 03 c0 b2 1e ad bf
       -1.5191474 0.5293026 -2.0536392 -1.3524992
000200 57 6d e5 3e d7 b7 e8 3f 73 32 e5 3f f0 28 ed 3f
       0.44809982 1.8181103 1.7906021 1.8528118
000210 7a a5 c1 c0 4b e0 4b 40 9b 77 13 c1 bf 18 b0 3f
       -6.05145 3.1855648 -9.216701 1.3757552
000220 9a d5 0e 41 20 f5 dd bf 3c fe c6 bf d2 f4 9a c0
       8.927149 -1.7340431 -1.5546336 -4.8423853
000230 a2 27 c8 3f 6a 76 87 be 22 c2 0c c1 cc 8b 81 c0
       1.5637095 -0.2645753 -8.797396 -4.048315
000240 fe 42 7c 40 c0 08 f4 c0 57 53 8d 40 41 1a 2b 41
       3.9415889 -7.626068 4.4164233 10.69391
000250 e2 1e 11 3d db fb 7f 40 cc 94 39 40 98 d9 3f bf
       0.035429843 3.999747 2.8997068 -0.74941397
000260 e1 91 87 3f 9f 3f 81 3f a1 48 6a be 6f c9 05 bf
       1.0591394 1.0097541 -0.22879268 -0.5226049
000270 a4 f2 b8 bf d6 cb e5 3f 43 7b 19 3e ba f4 7c 3f
       -1.4449048 1.7952831 0.14988427 0.98810923
000280 55 f2 f4 c0 30 55 b6 bf 2c 70 80 40 75 d6 27 40
       -7.6545815 -1.4244747 4.013693 2.6224644
000290 be 24 db bf 66 7f 92 3f eb 67 b0 c0 0e 3f 6d c0
       -1.7120588 1.1445129 -5.5126853 -3.7069736
0002a0 19 6d 95 3d e0 3a 6d 3f 79 3b 99 40 66 93 0f 40
       0.07296199 0.9266796 4.78851 2.2433715
0002b0 5e db 7a 41 10 87 1d 3f c2 99 6a 3e e6 42 bb 3f
       15.678556 0.61534214 0.22910216 1.4629791
0002c0 5d 74 50 c0 6d 7d 39 bf 8f 8c 0c 40 c0 a2 b8 40
       -3.2571023 -0.7245701 2.196079 5.769867
0002d0 ca 10 9a be 56 13 09 bd bc 1d f8 bf 33 cc 67 3e
       -0.30090934 -0.033465706 -1.9384074 0.2263649
0002e0 bf 57 80 3e 2d 9a d3 bf 4e 27 1d bf 8f 31 a3 3e
       0.25066945 -1.6531426 -0.613881 0.31873748
0002f0 cd 8e 16 3f 51 ab 9c be 09 1e 8b c0 2f 2c cc 3f
       0.58811647 -0.30599454 -4.3474164 1.5950984
000300 9f 8c 99 40 47 20 2c c0 48 e4 c6 40 a3 b2 7a 3f
       4.7984157 -2.68947 6.2153664 0.9792883
000310 f3 5c 25 40 1e 23 12 40 c0 c2 9b 3e 4d ba f1 3f
       2.5837982 2.2833934 0.3042202 1.888498
000320 0f a3 1f 3f 3c 91 31 bf d5 18 f8 40 1c 6d 15 bf
       0.6235818 -0.69362235 7.7530313 -0.5836961
000330 ef be 0b bf 7c 24 78 c0 2e e9 55 3d 72 04 34 c0
       -0.54588217 -3.8772268 0.05222433 -2.8127713
000340 be 3d 91 3e 1e cb 04 bf a8 5d 1e 40 d0 35 25 be
       0.28367418 -0.5187243 2.4744663 -0.16133809
000350 ae de e1 40 21 d3 19 3f 24 b9 63 40 12 09 a8 be
       7.0584326 0.6008778 3.558175 -0.3281942
000360 a7 c2 9d bf 08 ea 8e c0 37 03 ef bd 5c 46 b9 bf
       -1.2325028 -4.4660683 -0.11670535 -1.4474597
000370 b9 d2 e8 40 04 b0 b6 3f 6e db d9 40 03 28 2f c0
       7.275723 1.4272466 6.808036 -2.7368171
000380 17 29 91 bf 0b 40 79 3f 17 3a bf 3f d1 38 54 be
       -1.1340665 0.97363347 1.4939603 -0.20724799
000390 c9 f8 88 bd 46 82 88 c0 54 2b bd 3f 6e 91 43 3f
       -0.06688077 -4.2659025 1.4778848 0.76393783
0003a0 87 ae 06 c0 ef b0 25 c0 6b b7 8a 3f 81 12 15 bf
       -2.1044023 -2.5889242 1.0837225 -0.5823136
0003b0 ff 9d 0a bf b9 d1 02 c0 22 fd 05 c0 91 60 70 c0
       -0.5414733 -2.0440505 -2.093575 -3.755894
0003c0 ba a4 80 bf 21 5d 21 bf 8d 29 0d 41 e0 8c 51 be
       -1.005027 -0.6303273 8.822644 -0.20463896
0003d0 3c 1c fa bf d4 5f 99 40 db c2 dc 3f 53 96 f5 be
       -1.9539866 4.792948 1.7246965 -0.4796625
0003e0 77 15 ea 3f ac 68 cc bf 87 8a a9 3e 0c 2a e9 3f
       1.82878 -1.5969443 0.331135 1.8215957
0003f0 af a6 a8 3d 55 80 9c be e4 5d fe 3e ba 09 ed bf
       0.08234917 -0.3056666 0.49681008 -1.8518593

lstm.bias_ih_l1 f4 [40]
000000 68 95 fc bf 0d 98 86 3e cd c3 fc be 71 07 5f bf
       -1.9733095 0.2628788 -0.49368134 -0.8712073
000010 ce 46 63 bd 9f c8 a8 bf b7 40 d7 be 88 5b 4d 40
       -0.055487446 -1.3186225 -0.4204156 3.2087116
000020 a2 61 39 bf f3 41 9a bf 46 40 dc 3f da 15 c9 3e
       -0.724146 -1.2051376 1.7207115 0.39274484
000030 cc d4 e1 3e a6 55 43 3f c6 56 ec 3f 98 90 09 bf
       0.44107664 0.76302564 1.8463981 -0.5373626
000040 88 6a 41 40 10 57 06 3e c8 f2 4e 3f 01 d1 bb 3e
       3.0221272 0.13119149 0.80839205 0.36682895
000050 c1 5b 8b bf be 5e 8b bf b6 68 46 bf d1 55 4c be
       -1.0887376 -1.0888288 -0.77503526 -0.19954611
000060 2b aa b8 bf 9a 4e 7a 3f e9 ed 36 3e 31 4a 9c bf
       -1.4426931 0.97776186 0.17864193 -1.2210141
000070 21 df 3c c0 1f 6a 8d bf d2 9b b5 bf 5e e3 00 3e
       -2.9511187 -1.104801 -1.4188178 0.12586734
000080 fb db 83 be 25 b0 61 bf 37 33 a0 3f d1 81 99 bd
       -0.2575377 -0.881594 1.251563 -0.07495464
000090 04 65 bc 3f a5 20 03 c0 9d 05 75 3d f4 58 47 3e
       1.4718328 -2.0488675 0.059819806 0.19467527

lstm.bias_hh_l1 f4 [40]
000000 da ce f5 bf 45 fd b9 bc 45 0c fc be 39 e7 9f bf
       -1.9203751 -0.022703776 -0.4922811 -1.2492439
000010 23 f7 63 bd 11 26 b0 bf 87 4a 54 bf 9d 88 5a 40
       -0.05565561 -1.3761617 -0.8292622 3.4145882
000020 f9 3b e4 be 66 15 60 bf 54 79 01 40 e7 26 ca 3e
       -0.44577006 -0.8753265 2.0230303 0.39482805
000030 aa 51 e7 3e 75 f2 5e 3f cb 1d e0 3f 91 eb 82 be
       0.45179492 0.8708871 1.7509092 -0.25570348
000040 1e 76 4d 40 97 f4 79 3e 45 ae 5d 3f 5e 9c 2f 3f
       3.2103343 0.2440971 0.8659404 0.6859797
000050 8d 91 56 bf 6b 07 7b bf e3 2a cc be 07 45 1e bf
       -0.8381584 -0.98058194 -0.3987647 -0.6182408
000060 7e 17 e8 bf b0 51 8d 3f 81 22 00 3e 2e 1a 98 bf
       -1.8132169 1.1040554 0.12513162 -1.188299
000070 78 d4 1f c0 ad c8 a5 bf dd 83 f9 bf 76 c1 d2 3e
       -2.497343 -1.2951866 -1.9493366 0.41163224
000080 ec 00 3a bf 6e c5 6a bf 9d 4a b4 3f 68 27 09 bf
       -0.72657657 -0.91707504 1.408527 -0.53575754
000090 ca 1b c7 3f 18 4d de bf 76 c9 84 3e c1 de 25 bd
       1.5555356 -1.7367277 0.25934952 -0.040495638
