sparrow/data/networks/scaled_re/scaled_re_network_v1.pt (torch, 98787 bytes, 9 tensors)

lstm.weight_ih_l0 f4 [180, 20]
1.0646018 -0.13566394 -0.00075824675 0.4776158 -0.1788471 0.35731253 0.02598994 -0.34359455
-1.0042439 0.4657234 0.43862984 -0.35140678 0.17101583 0.19477573 0.47547707 -0.14310676
0.47219637 -0.5360799 0.31796852 -0.29972145 -0.24708383 -0.1245769 -0.45596948 -0.27113426
-0.31294215 -0.40380332 0.26315823 0.09712688 0.6253198 -0.49239117 0.89756775 -0.6029067
0.34935945 -0.7476023 -0.37385204 0.3015358 -0.5076439 -0.3478765 -0.87366295 0.66796225
0.47224885 -0.25911593 0.24403684 -0.40986115 -0.5159555 0.15310216 0.16508333 0.014329005
-0.5925504 0.5737438 0.13085921 -1.2473528 0.50281674 -0.033888236 0.31058243 -0.03156346
0.3183237 -0.72343165 0.7977392 -0.27168775 0.6050903 0.33829302 -0.2614588 0.2808478
-0.6193486 0.0361079 -0.053462546 0.6799628 0.691349 -0.5486589 0.05780158 0.3214993
-1.1770377 -0.78062946 -0.16149907 0.88862646 0.12908155 -0.22343147 -0.18498963 0.324149
0.040046375 -0.3479297 -0.20655617 -0.020045701 -0.8975804 -0.24355413 -1.0233247 -0.17522241
-0.102668725 0.6771555 0.03405544 -0.02282429 -1.2610594 -0.83139664 -0.33270976 0.14331034
0.034886725 -0.6596661 1.0333154 -0.17559868 0.72527903 -0.023330787 0.3844173 -0.23860268
-0.02916609 -0.06880105 0.78123 0.09899821 0.4478495 -0.17519236 -0.26982024 -0.45936796
0.033739306 -1.2454127 -1.4451491 1.1550624 0.6411784 0.344502 -0.100635715 0.5788935
-0.115199156 -0.5138544 -0.072607435 -0.03481253 -0.67905873 -0.062874615 -0.74226993 -0.15492666
-0.35378996 0.6025121 -0.04506657 -0.55333483 -0.38215962 -0.4121621 -0.3741912 0.15342176
-0.13682273 -0.25372833 1.3992872 -0.39358193 1.1461811 0.6853126 -1.7023666 -0.90376854
-0.93090236 -0.5922544 0.52096087 0.6434488 0.50269276 0.5200954 0.61904025 -1.2841182
0.19733874 -0.49131495 -0.088911414 0.3884518 1.2366406 1.7730484 1.5077975 -0.88695943
-0.019373715 0.03974359 0.015885694 0.074789666 -0.3985891 -0.16237444 0.0319738 -0.058633342
0.34938034 0.8361184 -0.37083992 0.17444628 0.1023127 -0.37178698 -0.2686334 -0.17576703
0.045014784 -0.6291353 -0.477229 0.114074886 0.19920777 -0.3135202 -0.19652154 -0.04243575
-0.62561697 0.25680068 -0.3886061 -0.30893728 -0.35429975 0.48788258 0.31785166 -1.3786715
0.82319313 -0.049909133 -0.056555457 -0.03092767 -0.6751599 -0.5518633 1.267306 -0.16948321
0.85293645 -0.3658203 0.1362721 0.35052523 -0.3332714 0.3017352 -0.28116748 -0.40551543
-0.18883595 0.3714761 0.24406949 -0.32593623 0.61538285 -0.43053174 0.028620735 -0.019601695
-0.2797157 -0.37288478 0.71208626 -0.040475097 0.5439154 -0.30836704 0.48476964 0.23592031
-0.3089235 0.35754645 -0.23181686 -0.27438307 -0.29268444 0.3566383 0.39048117 -0.8572382
0.2778826 0.22153084 -0.18015362 -0.15531361 0.053474586 -0.89440536 1.0579568 -0.167704
0.098485276 -0.3188639 -0.25548446 -0.20095393 -1.0754135 -0.10124052 -0.2955515 -0.40087187
-0.09625777 0.83231837 0.7255944 -1.221885 0.4987768 -0.06695759 0.88445383 0.18678808
00000000: df44 883f 7deb 0abe 14c5 46ba 0f8a f43e
00000010: b223 37be abf1 b63e dbe8 d43c a0eb afbe
00000020: 108b 80bf 4c73 ee3e 1794 e03e 97eb b3be
00000030: c61e 2f3e 4a73 473e bb71 f33e 948a 12be
00000040: b9c3 f13e 883c 09bf c5cc a23e 1775 99be
00000050: 8b03 7dbe 2c22 ffbd d574 e9be 1cd2 8abe
00000060: f439 a0be 4fbf cebe adbc 863e 75ea c63d
00000070: f514 203f b21a fcbe 00c7 653f 1858 1abf
00000080: 3edf b23e dd62 3fbf 8969 bfbe e662 9a3e
00000090: f3f4 01bf de1c b2be 60a8 5fbf 93ff 2a3f
000000a0: 9aca f13e d8aa 84be cbe4 793e 52d9 d1be
000000b0: a915 04bf d0c6 1c3e 9b0b 293e 34c4 6a3c
000000c0: 62b1 17bf e0e0 123f f5ff 053e 42a9 9fbf
000000d0: 99b8 003f 64ce 0abd a904 9f3e b048 01bd
000000e0: 53fb a23e d132 39bf a338 4c3f a81a 8bbe
000000f0: 33e7 1a3f be34 ad3e eedd 85be 48cb 8f3e
00000100: a18d 1ebf e1e5 133d 8bfb 5abd 0b12 2e3f
00000110: 40fc 303f e974 0cbf 59c1 6c3d 8e9b a43e
00000120: 2ca9 96bf 55d7 47bf 0360 25be 067d 633f
00000130: f42d 043e 38cb 64be ec6d 3dbe dcf6 a53e
00000140: ab07 243d d723 b2be 7683 53be e236 a4bc
00000150: d4c7 65bf 4166 79be 4efc 82bf 816d 33be
00000160: fb43 d2bd 105a 2d3f b87d 0b3d 01fa babc
00000170: 656a a1bf 69d6 54bf ef58 aabe f2bf 123e
00000180: 62e5 0e3d e1df 28bf ae43 843f 24d0 33be
00000190: e3ab 393f 3520 bfbc 58d2 c43e 4354 74be
000001a0: b9ed eebc 91e7 8cbd b0fe 473f 93bf ca3d
000001b0: 884c e53e a065 33be e125 8abe 4732 ebbe
000001c0: 3a32 0a3d af69 9fbf a5fa b8bf 16d9 933f
000001d0: 4524 243f 9162 b03e 191a cebd 5d32 143f
000001e0: 89ed ebbd f68b 03bf 35b3 94bd 9597 0ebd
000001f0: cbd6 2dbf 68c4 80bd 6705 3ebf 18a5 1ebe
00000200: f523 b5be 3c3e 1a3f b997 38bd 5aa7 0dbf
00000210: 6daa c3be e906 d3be fd95 bfbe 981a 1d3e
00000220: 421b 0cbe aee8 81be d81b b33f 9283 c9be
00000230: 10b6 923f a670 2f3f 26e7 d9bf 605d 67bf
00000240: 9e4f 6ebf fc9d 17bf b15d 053f 10b9 243f
00000250: 79b0 003f f924 053f 6c79 1e3f fc5d a4bf
00000260: 2b13 4a3e a28d fbbe 3017 b6bd 28e3 c63e
00000270: 3d4a 9e3f 40f3 e23f 82ff c03f c60f 63bf
00000280: a0b5 9ebc 2dca 223d b722 823c 532b 993d
00000290: df13 ccbe 7c45 26be f6f6 023d 8429 70bd
000002a0: fbe1 b23e db0b 563f bbde bdbe 0ca2 323e
000002b0: 5289 d13d dd5a bebe 518a 89be 46fc 33be
000002c0: 6c61 383d 030f 21bf 5c57 f4be 18a0 e93d
000002d0: 1ffd 4b3e b885 a0be f13c 49be 1cd1 2dbd
000002e0: 6f28 20bf 617b 833e 61f7 c6be 072d 9ebe
000002f0: c766 b5be bfcb f93e 74bd a23e 4f78 b0bf
00000300: c9bc 523f 856d 4cbd b2a6 67bd 065c fdbc
00000310: 47d7 2cbf ea46 0dbf 1537 a23f 028d 2dbe
00000320: 0b5a 5a3f cc4c bbbe ea8a 0b3e 0b78 b33e
00000330: 8da2 aabe 097d 9a3e 2ff5 8fbe b89f cfbe
00000340: 365e 41be 1e32 be3e 5aed 793e 1de1 a6be
00000350: bb89 1d3f a86e dcbe 0876 ea3c bc93 a0bc
00000360: e536 8fbe c1ea bebe 494b 363f 37c9 25bd
00000370: 0a3e 0b3f 49e2 9dbe ba33 f83e 1895 713e
00000380: 392b 9ebe 5410 b73e 6661 6dbe f07b 8cbe
00000390: bcda 95be 4c99 b63e 26ed c73e f673 5bbf
000003a0: a146 8e3e fbd8 623e 317a 38be 880a 1fbe
000003b0: 2b08 5b3d c0f7 64bf 216b 873f 99ba 2bbe
000003c0: a6b2 c93d 2142 a3be dcce 82be dec6 4dbe
000003d0: 26a7 89bf 3157 cfbd 8752 97be 143f cdbe
000003e0: cb22 c5bd d112 553f 8ec0 393f ba66 9cbf
000003f0: ac5f ff3e 1021 89bd 916b 623f 6045 3f3e

lstm.weight_hh_l0 f4 [180, 45]
-0.22113201 0.21701153 0.24036068 0.08305095 -0.013269398 0.35046762 -0.33214658 0.59257126
-0.06526684 0.13458143 -0.2833568 -0.25096658 0.22563112 -0.29129213 -0.12282397 0.02581358
-0.17864825 -0.042944558 -0.24364875 0.123490945 -0.29938316 0.29197297 -0.04611535 0.61769164
0.05250922 -0.35457918 0.06136801 0.12627783 0.08948721 -0.0019560184 -0.12517096 0.03156219
-0.039020278 -0.2770225 0.14907447 0.64027333 -0.28242415 -0.103193104 -0.31417334 0.08874025
-0.26345423 0.12802386 0.2610019 0.23437797 0.71594036 0.48732215 -0.12663509 0.2163204
-0.5729374 -0.5907772 0.0060790973 0.5113203 0.6476386 -0.17173815 -0.8030188 -0.2551459
-0.12548484 0.054231692 0.35449108 0.41981232 -0.4336685 0.17685571 -0.15099578 0.51398116
-0.36953822 -0.18727817 -0.43621093 -0.27397668 0.29386982 0.2630468 -0.59186643 0.078726634
-0.2409292 -0.40618518 -0.17147167 0.028955866 -0.021411605 -0.18144359 0.19748378 0.6737165
-0.09557759 -0.35099214 -0.41853154 0.4782138 -0.3651681 0.29105783 -0.29419875 0.398439
-0.35515985 0.17925844 0.50848824 0.013795277 -0.47183883 -0.36758858 -0.5558156 0.4237039
-0.26987118 0.86644804 -0.075551994 0.34674564 -0.029775145 0.36426103 0.045285437 0.40402046
0.44497555 -0.2380198 0.2974763 0.103663154 -0.012499536 -0.3470921 0.32567903 -0.31632784
0.13444845 -0.09243421 0.25139108 -0.2814399 0.102891535 -0.4475837 -0.23775494 -0.59900934
0.41989574 -0.15808918 -0.35167587 -0.19145045 -0.3163642 -0.13544863 -0.18948703 -0.68881446
-0.0136408 -0.14485675 0.31648514 -0.58730954 0.61168396 -0.37056908 0.07849236 -0.13414763
0.20150991 0.2332493 -0.41935977 -0.21769367 0.43954247 0.4139568 -0.22359017 -0.40106758
-0.2051306 0.075930305 -0.15292619 0.25347927 -0.10364614 0.10953361 -0.2383347 -0.27020738
-0.1943081 0.1261746 0.41205028 -0.1079407 0.05850107 0.18444294 0.31671748 0.22189392
-0.17454107 0.07598623 -0.12652569 -0.27271935 0.34212217 -0.078585826 -0.3448535 -0.073623165
0.5079948 0.1210091 0.5495853 -0.50298715 -0.3201 0.17415659 -0.19469854 0.28987935
-0.20825674 0.501987 -0.020565001 0.3276747 -0.37516412 0.43417448 0.16569778 -0.29698512
-0.3863628 0.29877293 0.3526823 -0.391114 -0.31463557 -0.4209702 -0.19921806 -0.3813443
0.18492371 -0.3722853 0.2438998 0.22900823 0.28103897 -0.15271728 0.1508555 0.15216221
-0.2823375 0.2543428 0.071866676 0.3183756 0.3134378 0.24149661 -0.12807085 0.16293105
-0.0009082058 0.5788518 -0.2635522 -0.0662496 0.1704776 0.52915514 0.26820886 0.3502083
-0.045485254 -0.5478572 0.2952068 -0.1126214 0.117479764 -0.12231542 0.034644477 -0.081170134
0.32681787 0.8359737 -0.25385073 -0.8083581 0.036088303 -0.120069556 0.044550497 -0.369102
-0.25899154 -0.18300545 0.41806164 0.61072063 0.79498744 -1.2311319 0.7329114 0.28449738
0.30902362 0.53016096 0.008448199 -0.024203537 -0.7259987 0.8783127 -0.6646582 0.092074364
-1.0041956 -0.68186843 0.1441692 -0.23484223 0.10576 -0.13662429 0.083408885 0.79067683
00000000: 6e70 62be 4538 5e3e 1c21 763e 9e16 aa3d
00000010: e467 59bc 7e70 b33e 1e0f aabe c0b2 173f
00000020: 9faa 85bd b7cf 093e 2414 91be b17e 80be
00000030: d80b 673e 3e24 95be 228b fbbd 0077 d33c
00000040: 91ef 36be a2e6 2fbd 0f7f 79be d2e8 fc3d
00000050: c048 99be 7b7d 953e 73e3 3cbd 0a21 1e3f
00000060: e813 573d 678b b5be 065d 7b3d fa4e 013e
00000070: 1245 b73d 8b30 00bb d12c 00be 5b47 013d
00000080: bad3 1fbd e5d5 8dbe faa6 183e f4e8 233f
00000090: e699 90be e856 d3bd 54db a0be 73bd b53d
000000a0: 79e3 86be b018 033e 0ba2 853e c700 703e
000000b0: de47 373f 4a82 f93e a1ac 01be 1883 5d3e
000000c0: 07ac 12bf 2d3d 17bf 2a33 c73b e3e5 023f
000000d0: a5cb 253f 20dc 2fbe a492 4dbf 7ca2 82be
000000e0: 197f 00be 0d22 5e3d db7f b53e a4f1 d63e
000000f0: cc09 debe aa19 353e a39e 1abe 4594 033f
00000100: 1d34 bdbe d9c5 3fbe 0a57 dfbe ac46 8cbe
00000110: 1b76 963e 12ae 863e 8f84 17bf 6e3b a13d
00000120: 25b6 76be 81f7 cfbe 4596 2fbe da34 ed3c
00000130: 6467 afbc 59cc 39be 3039 4a3e af78 2c3f
00000140: 2fbe c3bd 3eb5 b3be c449 d6be 70d8 f43e
00000150: 50f7 babe 8805 953e 38a1 96be 3200 cc3e
00000160: 83d7 b5be 868f 373e 492c 023f 9605 623c
00000170: dc94 f1be 9234 bcbe ee49 0ebf b8ef d83e
00000180: 8e2c 8abe 8acf 5d3f 01bb 9abd a588 b13e
00000190: 01eb f3bc 6c80 ba3e 397d 393d c5db ce3e
000001a0: d6d3 e33e 76bb 73be d04e 983e 594d d43d
000001b0: dbca 4cbc 0eb6 b1be 67bf a63e b9f5 a1be
000001c0: dbac 093e 264e bdbd 55b6 803e e418 90be
000001d0: ccb8 d23d b129 e5be 0876 73be ad58 19bf
000001e0: 93fc d63e 21e2 21be dc0e b4be 960b 44be
000001f0: 7dfa a1be 0cb3 0abe e308 42be 2556 30bf
00000200: a97d 5fbc 5455 14be 570a a23e eb59 16bf
00000210: 5297 1c3f 3bbb bdbe 9ac0 a03d ff5d 09be
00000220: 9d58 4e3e e8d8 6e3e 53b6 d6be 17eb 5ebe
00000230: b60b e13e 25f2 d33e d2f4 64be bb58 cdbe
00000240: c20d 52be 5981 9b3d af98 1cbe 09c8 813e
00000250: 6d44 d4bd 2853 e03d 030e 74be 9f58 8abe
00000260: b4f8 46be ea33 013e 41f8 d23e 0410 ddbd
00000270: d19e 6f3d 9cde 3c3e cb28 a23e 2938 633e
00000280: e5ba 32be ab9e 9b3d f38f 01be dfa1 8bbe
00000290: a32a af3e 9bf1 a0bd a390 b0be bec7 96bd
000002a0: f20b 023f 9ed3 f73d 9fb1 0c3f c4c3 00bf
000002b0: 26e4 a3be 1b56 323e 0e5f 47be 116b 943e
000002c0: 4141 55be 3882 003f ef77 a8bc fac4 a73e
000002d0: 8315 c0be 1e4c de3e aeac 293e 6f0e 98be
000002e0: 58d1 c5be c4f8 983e c692 b43e 1840 c8be
000002f0: ea17 a1be 6889 d7be d2ff 4bbe 8f3f c3be
00000300: a45c 3d3e 2e9c bebe dfc0 793e 2281 6a3e
00000310: 57e4 8f3e eb61 1cbe dd79 1a3e 69d0 1b3e
00000320: 8a8e 90be 3839 823e d62e 933d 2002 a33e
00000330: eb7a a03e e34a 773e 0125 03be 66d7 263e
00000340: a914 6eba a22f 143f 50f0 86be dfad 87bd
00000350: ae91 2e3e b676 073f ac52 893e 814e b33e
00000360: bf4e 3abd 5f40 0cbf 5825 973e 0ca6 e6bd
00000370: 3b99 f03d 8280 fabd 5ee7 0d3d 873c a6bd
00000380: ac54 a73e 5f02 563f b9f8 81be 8ef0 4ebf
00000390: 54d1 133d 07e7 f5bd 957a 363d f0fa bcbe
000003a0: 8a9a 84be c865 3bbe 2d0c d63e 3058 1c3f
000003b0: 4c84 4b3f bb95 9dbf 15a0 3b3f a4a9 913e
000003c0: 5838 9e3e a1b8 073f 516a 0a3c 7f46 c6bc
000003d0: 0ddb 39bf 1ad9 603f 0a27 2abf 7c91 bc3d
000003e0: 7b89 80bf ee8e 2ebf 17a1 133e 7b7a 70be
000003f0: b398 d83d 3de7 0bbe 47d2 aa3d cc69 4a3f

lstm.bias_ih_l0 f4 [180]
0.070140444 -1.110647 -0.6170059 0.19304283 -0.2219571 -0.46063596 -0.7586173 0.22573774
-0.57224876 -0.29973894 -0.5193497 0.03802757 -0.10586877 -0.098170795 0.45071205 -0.32044894
0.19028954 -0.2918327 -0.5829626 0.2249282 -0.5956225 0.30197603 -0.49385133 -0.3035956
-0.3142044 -0.5664251 -0.24540292 0.13112885 0.2255222 -0.023920935 -0.017366687 -0.57394326
0.3384936 -0.43581155 -0.3278138 0.10052611 -0.49593028 -0.4483814 -0.6178469 -0.33185166
0.20348558 0.1943745 -0.24452929 0.12283726 -0.20602478 0.12645355 0.021708967 -0.2771834
0.071486 0.0008252255 -0.011633136 -0.34803906 0.079249136 0.05459071 -0.004765401 -0.11063359
0.152047 0.47292334 0.06458954 0.19746824 -0.06568014 0.174043 0.091130085 -0.37519202
0.22765261 -0.1883377 0.42850348 -0.26117492 -0.12222781 -0.04335676 -0.39855996 0.033290304
-0.073663235 0.1560089 -0.69701755 -0.08578488 -0.12605871 0.3149491 -0.2796396 -0.19232959
0.4932366 -0.33881527 -0.07573729 -0.054312054 -0.17620149 0.32016712 0.1404679 -0.08987965
0.008753939 0.3770577 -0.1540336 -0.2852737 -0.10740564 0.37892172 0.23167191 -0.39878488
-0.10937511 0.24740238 0.09539989 0.016555954 -0.0656337 -0.114535116 -0.099789806 -0.12476
-0.9966578 -0.017643623 -0.96562445 -0.09647628 -0.1333263 -0.2115661 -0.09329326 0.22806095
-0.39916372 -0.073242515 -0.07510077 -0.094681315 -0.07641232 0.73964334 0.96096265 0.4712635
-0.028062122 0.042328104 0.71946144 -0.2635678 -0.09914534 0.012335125 -0.10758405 -0.07555301
-0.078830704 0.059883494 -0.94400924 0.9428232 -0.08887952 0.85230047 0.796529 -0.03582534
-0.8813423 -0.35415238 0.5871408 0.51837397 -0.19038859 -0.38581717 1.0234114 -0.30120668
-0.38896096 -0.4934019 0.23458233 0.1815768 -0.075445816 0.5013367 -0.027951524 1.1431036
-0.35146388 -0.08473852 0.25004086 -0.1709996 0.19113883 -0.008814856 0.47484306 -0.5856583
-0.21125749 -0.61099035 0.44166896 0.59879357 0.050155453 0.10057262 -0.5997362 0.5430453
-0.49417263 -0.33176115 0.28463358 -0.26130253 0.1949761 -0.51318663 -0.27963987 1.1750511
0.40532634 0.1178893 1.2567759 0.5183707
00000000: cba5 8f3d ae29 8ebf 19f4 1dbf 05ad 453e
00000010: b948 63be 7ad8 ebbe be34 42bf cb27 673e
00000020: e57e 12bf 6277 99be 1af4 04bf ccc2 1b3d
00000030: bad1 d8bd c50d c9bd bbc3 e63e e211 a4be
00000040: 43db 423e 186b 95be 093d 15bf 9453 663e
00000050: b77a 18bf 9a9c 9a3e 15da fcbe e270 9bbe
00000060: 66df a0be 3c01 11bf e74a 7bbe a446 063e
00000070: 4bef 663e d6f5 c3bc 9544 8ebc f2ed 12bf
00000080: 084f ad3e b122 dfbe 36d7 a7be a2e0 cd3d
00000090: 93ea fdbe 3f92 e5be 372b 1ebf 76e8 a9be
000000a0: 865e 503e 1c0a 473e e365 7abe 1a92 fb3d
000000b0: 29f8 52be 0a7d 013e 01d7 b13c fcea 8dbe
000000c0: 4167 923d f253 583a e998 3ebc 2d32 b2be
000000d0: 5f4d a23d 829a 5f3d 1527 9cbb dd93 e2bd
000000e0: 35b2 1b3e 0223 f23e 8547 843d 1d35 4a3e
000000f0: 4f83 86bd 5438 323e 69a2 ba3d 2b19 c0be
00000100: c41d 693e 99db 40be cf64 db3e b8b8 85be
00000110: 9352 fabd dc96 31bd 0d10 ccbe 6a5b 083d
00000120: c0dc 96bd ccc0 1f3e be6f 32bf fcaf afbd
00000130: 8915 01be 0241 a13e ec2c 8fbe 0cf2 44be
00000140: 8289 fc3e 3279 adbe 271c 9bbd 5176 5ebd
00000150: 2a6e 34be f2ec a33e d1d6 0f3e d212 b8bd
00000160: ae6c 0f3c b50d c13e fcba 1dbe 650f 92be
00000170: 7df7 dbbd 0702 c23e 673b 6d3e 882d ccbe
00000180: 0f00 e0bd 0d57 7d3e 0461 c33d 5aa0 873c
00000190: f66a 86bd 6391 eabd 995e ccbd 2c82 ffbd
000001a0: f724 7fbf 5c89 90bc 2a33 77bf 5b95 c5bd
000001b0: b186 08be c9a4 58be 8910 bfbd cf88 693e
000001c0: 305f ccbe 2c00 96bd 6fce 99bd 47e8 c1bd
000001d0: 107e 9cbd 4459 3d3f a601 763f 7349 f13e
000001e0: 89e2 e5bc 3c60 2d3d a02e 383f 5cf2 86be
000001f0: b60c cbbd 4419 4a3c 0755 dcbd 89bb 9abd
00000200: fe71 a1bd 6548 753d 97aa 71bf dc5c 713f
00000210: 7706 b6bd 5d30 5a3f 53e9 4b3f 97bd 12bd
00000220: a69f 61bf 7653 b5be dc4e 163f 28b4 043f
00000230: 3af5 42be d489 c5be 25ff 823f c337 9abe
00000240: e425 c7be 2d9f fcbe 5a36 703e 45ef 393e
00000250: 5683 9abd 9a57 003f 98fa e4bc 3851 923f
00000260: 13f3 b3be 648b adbd 5b05 803e 851a 2fbe
00000270: e6b9 433e 306c 10bc a11e f33e b4ed 15bf
00000280: e253 58be dd69 1cbf 6f22 e23e 894a 193f
00000290: ce6f 4d3d 05f9 cd3d 5088 19bf 0405 0b3f
000002a0: 3204 fdbe 99dc a9be 7ebb 913e 72c9 85be
000002b0: d1a7 473e 3360 03bf f52c 8fbe 1368 963f
000002c0: ef86 cf3e f26f f13d 08de a03f f1b3 043f

lstm.bias_hh_l0 f4 [180]
-0.019954432 -0.9182311 -0.3714534 -0.023533264 -0.281981 -0.44208547 -0.76357454 0.42960948
-0.35507482 -0.31375122 -0.47729304 0.21092664 -0.21702929 0.05098218 0.3431575 -0.21801682
0.41187188 -0.30839002 -0.67195225 0.25299415 -0.4842238 0.09990819 -0.292665 -0.44316086
-0.5112868 -0.48410827 -0.23245321 0.106840186 0.122790255 0.21388407 -0.19662935 -0.40207452
0.16988914 -0.44679907 -0.33205718 0.12102472 -0.64042956 -0.3045737 -0.36375263 -0.47831148
0.40386888 0.46431032 -0.18609893 -0.029465288 -0.02148779 0.07873509 -0.0006535082 -0.46929187
0.10665101 -0.06314854 -0.15834993 -0.30631527 0.17100307 0.10122935 -0.16776514 -0.13333546
0.15469833 0.49861398 0.13396801 0.25018278 -0.06789584 0.26355654 -0.099671654 -0.20873243
0.21242821 -0.2473687 0.4526017 -0.21132399 0.017391961 -0.1335831 -0.29579264 0.092412144
0.007364536 0.26016715 -0.69725686 0.014048609 -0.10861362 0.22954938 -0.20860194 -0.042801484
0.384441 -0.24485269 -0.09716148 -0.051021725 -0.37314782 0.13298151 0.39808428 -0.10555299
-0.022138441 0.37373686 -0.23681581 -0.03054236 0.043031294 0.17959826 0.078097835 -0.29409224
-0.004656653 0.13345519 0.13379912 -0.007901133 0.025508622 -0.15579978 0.010210756 0.15482262
-0.83290714 -0.05911735 -0.970607 0.0032450734 -0.09669357 -0.14380054 -0.028196013 0.06699295
-0.3455943 0.014416532 0.14880042 -0.119253434 -0.08375127 0.83618605 0.7783899 0.36829337
0.04728164 0.111408696 0.6320907 -0.17092948 -0.046125144 -0.011970506 -0.18414962 -0.09575947
0.17585862 -0.14965668 -0.9901004 0.9727298 0.05448926 0.88413894 0.7564733 0.09002494
-0.7946584 -0.3712982 0.3746851 0.35976407 -0.11709018 -0.40802073 0.8092147 -0.2497035
-0.42722857 -0.40445128 0.10563567 0.20987907 -0.05413732 0.36305922 -0.008055711 1.1560518
-0.20964979 -0.2418417 0.22985466 -0.29113632 0.18104842 0.026280493 0.49524304 -0.43625322
-0.33305252 -0.43631506 0.4468704 0.50164455 0.3176341 0.14764443 -0.499532 0.5171995
-0.2738137 -0.34658155 0.36879632 -0.117810614 0.3177636 -0.36252245 -0.46368057 1.0128627
0.50026983 0.14364515 1.3036042 0.4561265
00000000: 7a77 a3bc 3211 6bbf 242f bebe d5c8 c0bc
00000010: d05f 90be 0759 e2be 9f79 43bf c6f5 db3e
00000020: 5ecc b5be 00a4 a0be c15f f4be 27fd 573e
00000030: ed3c 5ebe b1d2 503d 57b2 af3e cd3f 5fbe
00000040: dfe0 d23e 4ce5 9dbe 1005 2cbf 7388 813e
00000050: 2fec f7be aa9c cc3d 30d8 95be fbe5 e2be
00000060: b1e3 02bf 0add f7be 3708 6ebe 07cf da3d
00000070: 7579 fb3d 6d04 5b3e 3459 49be b6dc cdbe
00000080: 6bf7 2d3e d9c2 e4be 6603 aabe cfdb f73d
00000090: 31f3 23bf 16f1 9bbe c93d babe 3ee5 f4be
000000a0: e7c7 ce3e 15ba ed3e b890 3ebe 3061 f1bc
000000b0: 2907 b0bc dd3f a13d 3150 2bba 0647 f0be
000000c0: d86b da3d 0654 81bd 7c26 22be 5bd5 9cbe
000000d0: 6e1b 2f3e 5551 cf3d a0ca 2bbe 1789 08be
000000e0: 3d69 1e3e 554a ff3e e92e 093e f517 803e
000000f0: f90c 8bbd e2f0 863e a720 ccbd f4bd 55be
00000100: c886 593e 384e 7dbe 69bb e73e 5165 58be
00000110: 9679 8e3c 02ca 08be 2272 97be 9442 bd3d
00000120: 3552 f13b a134 853e 6d7f 32bf 232c 663c
00000130: d170 debd fe0e 6b3e bf9b 55be 9c50 2fbd
00000140: 73d5 c43e aaba 7abe 99fc c6bd 28fc 50bd
00000150: 3b0d bfbe 4e2c 083e b4d1 cb3e 2b2c d8bd
00000160: ad5b b5bc 705a bf3e d87f 72be f933 fabc
00000170: 9541 303d 9be8 373e c2f1 9f3d 4293 96be
00000180: d696 98bb 7aa8 083e a302 093e c173 01bc
00000190: 75f7 d03c fa89 1fbe 044b 273c d289 1e3e
000001a0: 6739 55bf 0925 72bd b379 78bf 4cab 543b
000001b0: 4707 c6bd 7340 13be 53fb e6bc 9a33 893d
000001c0: bcf1 b0be 5133 6c3c 235f 183e 253b f4bd
000001d0: c985 abbd 4a10 563f 8f44 473f f390 bc3e
000001e0: 65aa 413d 3e2a e43d b2d0 213f 2308 2fbe
000001f0: b8ed 3cbd f11f 44bc b891 3cbe 8a1d c4bd
00000200: 4814 343e 9a3f 19be 3877 7dbf d204 793f
00000210: 2130 5f3d ee56 623f 3ca8 413f ff5e b83d
00000220: bc6e 4bbf cc1a bebe bad6 bf3e ff32 b83e
00000230: facc efbd 18e8 d0be b228 4f3f 46b2 7fbe
00000240: b4bd dabe 3d14 cfbe 8457 d83d 8aea 563e
00000250: 18bf 5dbd e6e2 b93e 1afc 03bc 81f9 933f
00000260: 6fae 56be 5aa5 77be 055f 6b3e d20f 95be
00000270: c264 393e 304a d73c 7f90 fd3e 955c dfbe
00000280: dc85 aabe b064 dfbe 32cc e43e c76b 003f
00000290: f0a0 a23e 1a30 173e a9c2 ffbe 3067 043f
000002a0: 4f31 8cbe 2373 b1be dfd2 bc3e b146 f1bd
000002b0: e9b1 a23e 8b9c b9be 8a67 edbe 7ca5 813f
000002c0: af11 003f b717 133e 81dc a63f 6a89 e93e

lstm.weight_ih_l0_reverse f4 [180, 20]
-0.026372554 -2.1579895 -1.7552128 -0.9661721 -1.4235402 -0.67540246 -1.0605284 -0.3723159
1.05809 -0.2872389 -0.33915088 -0.65280616 0.16075078 -0.6912519 -0.7047518 -0.2924001
-0.15291505 0.5016905 0.62430906 -0.90742844 0.6974387 -1.9209133 -1.2993746 -0.7909497
0.010297664 0.4515935 1.3566934 1.0402206 1.4212642 1.3802859 0.55482864 -0.33899683
3.0698423 -1.0458817 -0.34200543 0.458663 0.50534195 1.0686159 -0.9447746 -2.164945
-0.4627125 -0.92132455 0.064036176 0.040630076 -1.4829179 0.026300682 0.95848316 0.37011945
-2.075558 -0.7266369 -2.1971016 -1.9645958 -0.31898415 -1.6384559 1.0673885 -0.58825475
-0.39065182 -1.7382871 -1.1012976 -0.6545661 -2.9067738 -1.4054369 -1.2550958 -0.73635626
-2.3152363 -1.7937038 -0.42713767 -1.0381727 0.61735064 -2.0410538 -1.6403185 -2.5044346
-0.52750343 -2.0711713 0.22560835 -2.8815653 -1.5621946 -0.9770301 -0.4884336 -0.8286017
-1.3133392 -0.07735584 0.1913851 -0.43551257 -0.023966312 -1.639724 -0.8666956 0.33823
0.86426497 -0.20623477 0.054036934 -1.4072964 1.369261 -3.4122584 -0.7457429 -0.93568516
1.4232447 0.50993 -0.1620653 -0.29957867 0.45132333 0.8291606 4.124427 1.888059
-0.6062078 1.282138 -0.28991374 0.78811204 -2.7397282 0.51894546 0.8911198 0.38831437
0.5332781 -0.43249452 -1.7995443 0.7068038 -0.16963927 2.6163158 -0.95663035 0.5821513
-2.8081825 0.51916176 0.18424852 -0.17459172 0.30065036 -2.9225879 -1.8195962 -0.553612
-0.31825873 -2.427928 -0.706453 -1.8755448 -2.4845984 -1.5974134 0.5313649 -2.9908392
-2.6256602 -0.48678532 0.5139596 -0.10383613 -2.09644 -0.4344406 -0.4345216 -0.4930277
0.37637988 -3.0323963 -0.71435374 -1.203614 0.24580356 -1.237951 -1.396334 -1.0096756
0.2666549 -1.1015524 0.20347361 -2.0154922 -3.2977982 -1.3091621 0.9577157 0.47309294
-1.3827664 -0.322186 0.63892186 0.92485726 -1.3933476 -0.58357775 -1.5854266 1.2449547
-1.8734053 -0.20984109 -0.5906736 -1.8753428 -1.9595138 -2.572691 -0.63016516 -1.3467666
-1.7245073 0.6879453 0.42500988 -1.2343882 0.14959264 2.0369732 -0.9284176 -1.3908861
0.43780625 -0.54308754 0.41968 0.33376956 -0.6612589 -0.079196714 0.823208 -0.10402943
-0.7733951 0.4262608 0.07568 0.2930318 -0.57093203 1.2107943 0.07003926 0.77877986
1.6055561 0.024426833 0.53182966 0.8950827 1.6808203 0.0697557 -0.10358012 2.6903572
0.76946586 1.160973 0.7769366 0.2241551 1.0079684 0.39669415 -1.5271844 1.3638712
0.2501251 1.999312 0.9716314 0.41697058 0.23864356 1.6827685 0.31196558 0.49413282
-1.2519909 0.4144968 -0.39259467 0.0353623 0.3649983 0.6352437 0.18986027 0.4668041
-0.5297408 0.29540008 0.62019265 -0.2870889 -0.09770158 0.59911835 -0.010853813 -0.60760504
-0.34740978 0.6118803 -0.121295944 0.051816285 0.45828053 -1.5631306 -1.0200382 -0.31170973
-0.0005458545 -1.4337225 1.4428177 0.046218343 -0.6285872 -0.63589936 -1.030217 -0.5254979
00000000: 410b d8bc 801c 0ac0 d0aa e0bf 0e57 77bf
00000010: 9136 b6bf 2de7 2cbf 65bf 87bf 31a0 bebe
00000020: 7e6f 873f fa10 93be 2fa5 adbe 4e1e 27bf
00000030: da9b 243e e2f5 30bf 9d6a 34bf 77b5 95be
00000040: c395 1cbe ca6e 003f b8d2 1f3f 3b4d 68bf
00000050: 588b 323f 7de0 f5bf e851 a6bf ae7b 4abf
00000060: 89b7 283c 4337 e73e 21a8 ad3f f325 853f
00000070: fceb b53f 35ad b03f 4009 0e3f fe90 adbe
00000080: 4c78 4440 74df 85bf 561b afbe e0d5 ea3e
00000090: 175e 013f 68c8 883f c0dc 71bf 758e 0ac0
000000a0: a7e8 ecbe eddb 6bbf 6625 833d b96b 263d
000000b0: 41d0 bdbf 8774 d73c 275f 753f 4c80 bd3e
000000c0: f1d5 04c0 e004 3abf 509d 0cc0 e077 fbbf
000000d0: e451 a3be ecb8 d1bf 30a0 883f dd97 16bf
000000e0: 8403 c8be 3180 debf 52f7 8cbf a591 27bf
000000f0: 9508 3ac0 5be5 b3bf fba6 a0bf d881 3cbf
00000100: d52c 14c0 1698 e5bf cab1 dabe d8e2 84bf
00000110: b10a 1e3f a0a0 02c0 f5f5 d1bf a848 20c0
00000120: 770a 07bf 128e 04c0 e005 673e 916b 38c0
00000130: fef5 c7bf a51e 7abf f813 fabe 3e1f 54bf
00000140: 801b a8bf bd6c 9ebd 75fa 433e 81fb debe
00000150: 0055 c4bc 7ae2 d1bf c3df 5dbf 7c2c ad3e
00000160: 7840 5d3f 352f 53be d555 5d3d 4a22 b4bf
00000170: f243 af3f 7162 5ac0 02e9 3ebf 1089 6fbf
00000180: e22c b63f c68a 023f 72f4 25be 6062 99be
00000190: da13 e73e de43 543f 4efb 8340 ebab f13f
000001a0: 6f30 1bbf 191d a43f 936f 94be b6c1 493f
000001b0: b557 2fc0 9cd9 043f 6d20 643f 24d1 c63e
000001c0: ea84 083f ec6f ddbe 7857 e6bf 18f1 343f
000001d0: ebb5 2dbe b871 2740 bae5 74bf de07 153f
000001e0: 43b9 33c0 c9e7 043f a5ab 3c3e 2cc8 32be
000001f0: d8ee 993e ae0b 3bc0 87e8 e8bf 84b9 0dbf
00000200: cff2 a2be 2c63 1bc0 1bda 34bf da11 f0bf
00000210: a903 1fc0 0b78 ccbf 8807 083f e969 3fc0
00000220: d10a 28c0 ed3b f9be db92 033f 09a8 d4bd
00000230: 132c 06c0 006f debe 9d79 debe 206e fcbe
00000240: ddb4 c03e c812 42c0 e3df 36bf 0610 9abf
00000250: eeb3 7b3e 2e75 9ebf 13bb b2bf 0d3d 81bf
00000260: fe86 883e abff 8cbf 635b 503e d3fd 00c0
00000270: 200f 53c0 a092 a7bf db2c 753f 3d39 f23e
00000280: 7dfe b0bf 90f5 a4be 6290 233f 72c3 6c3f
00000290: 3759 b2bf 5a65 15bf 42ef cabf ad5a 9f3f
000002a0: bfcb efbf 95e0 56be 6336 17bf 3c0b f0bf
000002b0: 59d1 fabf f8a6 24c0 8152 21bf d962 acbf
000002c0: a8bc dcbf 2f1d 303f e59a d93e 6f00 9ebf
000002d0: d02e 193e c55d 0240 c7ac 6dbf 8e08 b2bf
000002e0: 2428 e03e c907 0bbf 4ce0 d63e d8e3 aa3e
000002f0: 4348 29bf e331 a2bd c2bd 523f 620d d5bd
00000300: 39fd 45bf db3e da3e 1efe 9a3d 4408 963e
00000310: 9a28 12bf 4ffb 9a3f be70 8f3d 1e5e 473f
00000320: dd82 cd3f c81a c83c fd25 083f 2424 653f
00000330: 1f25 d73f 14dc 8e3d d021 d4bd d02e 2c40
00000340: b7fb 443f c39a 943f 51e5 463f ea88 653e
00000350: 1c05 813f 7f1b cb3e c77a c3bf 5593 ae3f
00000360: 6610 803e 75e9 ff3f d6bc 783f 2b7d d53e
00000370: fa5e 743e f564 d73f f4b9 9f3e fafe fc3e
00000380: 3d41 a0bf ed38 d43e 2b02 c9be 0fd8 103d
00000390: 0fe1 ba3e 559f 223f bb6a 423e f200 ef3e
000003a0: 189d 07bf ae3e 973e f2c4 1e3f 51fd 92be
000003b0: c417 c8bd d25f 193f 31d4 31bc 018c 1bbf
000003c0: b2df b1be 30a4 1c3f 026a f8bd 503d 543d
000003d0: bfa3 ea3e aa14 c8bf 9d90 82bf 6b98 9fbe
000003e0: ad17 0fba 3884 b7bf 40ae b83f 724f 3d3d
000003f0: 17eb 20bf 4dca 22bf 27de 83bf 0887 06bf

lstm.weight_hh_l0_reverse f4 [180, 45]
-0.69309646 0.82742923 0.73028916 0.3387748 1.2867268 -0.69217074 -0.5361852 -0.113489956
-0.9333924 0.66802657 0.3906445 0.7341575 0.024608407 -0.41565195 0.48949924 -0.5774668
0.102038816 -0.44436306 0.5978619 0.7906852 0.6165908 0.6715437 0.74341697 0.204569
-0.41276774 0.27173004 0.36087412 -0.3291784 0.83439034 -0.008084439 -0.5746916 -0.6697726
-0.8386069 -0.9998079 0.42042434 -0.012833644 -0.6392349 0.052694306 0.053938776 0.54284483
-0.870636 -0.82878137 -0.8438288 -0.10918567 1.2830114 0.54873294 -0.14679115 -0.035656612
0.86091137 -0.3228839 -0.4638891 0.33360112 0.21943945 -0.031206774 -0.10771139 0.25603426
1.6826998 -0.36837927 -0.31425324 -0.5106427 -0.1448601 0.5379087 -0.1351421 -0.31375396
0.368775 0.5117146 0.36160362 -0.12740016 0.822299 -1.187982 0.17467228 0.4937219
-0.5296581 0.71003276 -0.3003981 0.23741454 0.021885518 0.059129007 -0.039339405 0.9078085
0.5633265 0.27211416 -0.21582875 -0.16863117 0.08042034 -0.24180523 0.99787587 0.22595835
0.567605 -0.4437243 -0.43725795 0.3150576 -0.1901095 0.8541 0.5805912 -0.56859547
-0.008401551 -0.3095827 0.17257977 -0.10427188 0.23865826 0.9088015 -0.42748526 -0.7348063
0.6511383 -0.47987026 -0.84767175 -0.32254568 0.58554 0.863494 0.6424577 0.7522402
-0.3397121 0.7737407 0.36592203 0.8168085 0.25199804 -0.27182782 0.03997887 -0.6939219
0.013574242 -0.61021733 0.5028853 -0.36122477 0.8928399 -0.9613801 -0.047281522 0.5782284
0.6127384 -0.04243972 -0.43394473 0.22512677 0.109912515 -0.1371904 0.2185997 -0.58130693
0.42529458 -0.039612602 -0.041762095 -0.593726 -0.70250744 -0.14467691 0.19090407 -0.04965021
0.71996874 0.722755 0.14603332 -0.17861581 -0.4815381 -0.27279252 -0.25789148 0.3814056
-0.79113823 0.39733195 0.43013108 0.26260412 0.33596793 0.2783413 0.09211624 -0.5840887
0.2142195 0.42360836 -1.3737402 1.5863997 -0.069354 -0.7359638 -0.7338896 -0.39069983
-0.9547309 0.109984964 0.20776066 -0.9198724 0.10931673 0.2858888 0.1729803 -0.6549564
-0.12707089 -0.16326569 0.86890304 0.227095 0.4590225 1.0187126 -1.3643786 0.7097785
-0.4959498 -0.3543756 1.221059 0.8066269 0.8240368 0.46230134 -0.08658022 1.1570932
-1.1128559 0.5548396 -0.8219957 -0.3840455 -0.0061472356 -0.3790765 0.91429424 0.46905798
0.85427886 0.8869538 -0.07695132 -0.044399764 0.563718 0.59338665 0.5922091 0.5339856
-0.42089814 -0.7534172 -0.58929265 -0.70112115 0.4435376 -0.9838252 -0.29405534 -0.092189156
-0.37750742 -0.5929954 -0.4821493 -1.0767697 0.9300444 -0.81980664 1.2676213 -0.7482988
0.5500393 -0.31317765 0.6834278 0.29167554 -0.17809366 0.03558737 -0.3308411 -0.24154173
0.81849974 0.21916012 0.0034921158 0.6908636 0.9173572 0.0076499903 0.07736603 -0.8056939
-0.34583893 0.24530259 -0.16870072 0.2008381 0.3313765 0.23382908 -0.18151645 -0.24411787
-0.18248932 -0.36177737 0.5968326 0.3812924 -0.085950665 0.41001505 0.13868204 -0.2907781
00000000: c56e 31bf 67d2 533f 3bf4 3a3f e473 ad3e
00000010: 77b3 a43f 1a32 31bf 6f43 09bf 6c6d e8bd
00000020: cef2 6ebf ca03 2b3f 8e02 c83e bff1 3b3f
00000030: 9297 c93c 55d0 d4be a59f fa3e ddd4 13bf
00000040: baf9 d03d 8e83 e3be 7a0d 193f 586a 4a3f
00000050: e5d8 1d3f 4aea 2b3f 9350 3e3f 897a 513e
00000060: 4b56 d3be 3320 8b3e 7ec4 b83e 128a a8be
00000070: 9b9a 553f 9874 04bc fd1e 13bf 3876 2bbf
00000080: f1ae 56bf 69f3 7fbf dc41 d73e 3444 52bc
00000090: e6a4 23bf fcd5 573d e8ee 5c3d e1f7 0a3f
000000a0: 00e2 5ebf 042b 54bf 2a05 58bf bd9c dfbd
000000b0: b839 a43f c379 0c3f 6b50 16be ab0c 12bd
000000c0: b064 5c3f 0a51 a5be df82 edbe c4cd aa3e
000000d0: bcb4 603e 59a5 ffbc ca97 dcbd ec16 833e
000000e0: b562 d73f 359c bcbe cde5 a0be 7bb9 02bf
000000f0: 3556 14be 62b4 093f b162 0abe 5ca4 a0be
00000100: 14d0 bc3e baff 023f 1c24 b93e 3075 02be
00000110: 3082 523f cb0f 98bf 4add 323e 1ec9 fc3e
00000120: ac97 07bf b5c4 353f c8cd 99be cc1c 733e
00000130: 4249 b33c 4231 723d 5b22 21bd 2366 683f
00000140: 2a36 103f 8c52 8b3e 3602 5dbe a6ad 2cbe
00000150: 6bb3 a43d ca9b 77be cb74 7f3f a061 673e
00000160: 904e 113f d52f e3be 46e0 dfbe 3b4f a13e
00000170: 11ac 42be 4ca6 5a3f a0a1 143f 798f 11bf
00000180: a9a6 09bc a081 9ebe c0b8 303e 7f8c d5bd
00000190: d562 743e 37a7 683f 59df dabe 441c 3cbf
000001a0: 00b1 263f 8eb1 f5be 0401 59bf b524 a5be
000001b0: f3e5 153f f10d 5d3f 1c78 243f d092 403f
000001c0: bfee adbe df13 463f 225a bb3e 5d1a 513f
000001d0: e305 813e 042d 8bbe e2c0 233d dea4 31bf
000001e0: 7f66 5e3c 3437 1cbf 17bd 003f 74f2 b8be
000001f0: 2891 643f 021d 76bf 45aa 41bd c706 143f
00000200: 6cdc 1c3f 46d5 2dbd 012e debe a287 663e
00000210: d019 e13d a47b 0cbe 9ad8 5f3e 88d0 14bf
00000220: 36c0 d93e d340 22bd bb0e 2bbd 6dfe 17bf
00000230: 87d7 33bf 2f26 14be 5b7c 433e 055e 4bbd
00000240: df4f 383f 7906 393f c289 153e 10e7 36be
00000250: 298c f6be 76ab 8bbe 5a0a 84be 9847 c33e
00000260: 0988 4abf 186f cb3e 243a dc3e 0c74 863e
00000270: fd03 ac3e c082 8e3e 70a7 bc3d d686 15bf
00000280: 5b5c 5b3e 32e3 d83e b8d6 afbf 250f cb3f
00000290: 7809 8ebd 2068 3cbf 30e0 3bbf cf09 c8be
000002a0: 3f69 74bf cc3f e13d 36bf 543e c27c 6bbf
000002b0: 73e1 df3d 0460 923e bf21 313e 39ab 27bf
000002c0: df1e 02be 1f2f 27be 6e70 5e3f 978b 683e
000002d0: ff04 eb3e 2d65 823f f5a3 aebf 0bb4 353f
000002e0: 22ed fdbe b870 b5be a94b 9c3f 1a7f 4e3f
000002f0: 13f4 523f c3b2 ec3e f850 b1bd a11b 943f
00000300: 1072 8ebf f809 0e3f 4f6e 52bf 9da1 c4be
00000310: c06e c9bb 5116 c2be 300f 6a3f 5e28 f03e
00000320: 05b2 5a3f 670f 633f a798 9dbd 87dc 35bd
00000330: d34f 103f 30e8 173f 049b 173f 48b3 083f
00000340: f67f d7be f3df 40bf e2db 16bf ad7c 33bf
00000350: 5c17 e33e f8db 7bbf 6c8e 96be abcd bcbd
00000360: a748 c1be 8cce 17bf 46dc f6be 97d3 89bf
00000370: 6417 6e3f d9de 51bf 6a41 a23f 8390 3fbf
00000380: 60cf 0c3f d258 a0be 20f5 2e3f 7f56 953e
00000390: 2f5e 36be 10c4 113d 0164 a9be b756 77be
000003a0: 3389 513f 836b 603e fbdb 643b 70dc 303f
000003b0: ecd7 6a3f c5ac fa3b 1572 9e3d f541 4ebf
000003c0: cd11 b1be 9a30 7b3e e2bf 2cbe 81a8 4d3e
000003d0: 2eaa a93e e470 6f3e 73df 39be 09fa 79be
000003e0: 7bde 3abe e23a b9be 05ca 183f c238 c33e
000003f0: e706 b0bd 7eed d13e aa02 0e3e dee0 94be

lstm.bias_ih_l0_reverse f4 [180]
-0.5977641 0.20446473 -0.4432902 -0.931191 -0.08287967 0.14088383 -0.8902304 -1.0141952
-0.5898508 -0.19875896 -0.3947706 0.07937262 -0.80506355 -0.20220163 -0.29024288 -0.74377507
-0.4053529 -0.6105447 -0.39575985 -0.24331728 -0.38481838 -0.39346403 -0.6168347 -0.9265496
-0.7697814 -0.40301755 -0.4346329 -0.77038276 -1.2455767 -0.31562653 -0.79561883 -0.64417267
-1.1206174 -0.655789 -0.9692146 -0.6919696 -0.6866408 -0.98275876 -0.92259246 -0.6670871
-0.6720006 -0.39328846 0.073490635 -0.65137964 -0.19566822 0.5464609 0.20959334 0.6471073
0.71010417 -0.1533663 0.38076174 0.22134085 0.52401304 0.294134 0.1380227 0.6002097
0.4491629 -0.029443083 0.1326932 0.12823564 0.49468386 0.11381138 0.7239574 0.4737783
0.40828922 0.72888786 0.041649453 0.06954465 0.8474128 0.21633343 0.2749465 0.6752049
0.463646 -0.08356298 0.29309055 0.574192 0.1206647 0.8672965 0.45237836 0.5961596
0.43660885 0.67608285 0.71675843 0.71511465 0.08655817 -0.11329762 0.24718623 -0.25614414
0.17536561 -0.00028240887 -0.12764122 0.57431316 0.11266334 -0.089566015 0.5996874 -0.606718
-0.09684784 -0.21800132 -0.23027334 -0.0019738537 0.4245994 -0.80786794 0.35822335 0.33233273
-0.022245588 -8.074241e-05 0.21216123 -0.100525 -0.020294935 0.2740632 0.073179506 -0.10171951
0.043667447 0.09134866 0.33671182 0.067354865 -0.065649405 0.097594224 -0.09771658 0.15368663
0.06478966 0.035266943 -0.12528175 0.07649111 -0.41146666 -0.18447761 -0.2421914 0.0949445
0.36114714 0.27112007 -0.05620729 0.03565268 -0.5256436 0.13430072 0.37386307 -0.02831908
-0.18267338 -0.2371227 0.1255674 0.17788047 -0.04361644 -0.06725577 0.09330149 0.06720815
-0.04789692 -0.1313795 0.1611465 0.12643072 0.28631538 -0.3848306 -0.4857744 0.08389051
0.26374286 0.053946808 -0.036901876 -0.16945328 -0.3312345 -0.19674721 0.30549815 -0.11983364
-0.2304886 -0.49896854 -0.16327053 -0.56968766 -0.122797675 -0.023905123 0.2624499 0.4212899
0.19863793 -0.081255585 -0.10857773 0.16929577 0.3180382 0.26917678 -0.31775084 -0.3373628
-0.37308994 0.16635667 -0.32974935 -0.2735134
00000000: 1107 19bf 345f 513e eff6 e2be 8962 6ebf
00000010: d1bc a9bd da43 103e 24e6 63bf 26d1 81bf
00000020: 7600 17bf 7887 4bbe 5f1f cabe 1d8e a23d
00000030: a518 4ebf f20d 4fbe b79a 94be 0b68 3ebf
00000040: 6a8a cfbe a84c 1cbf 09a1 cabe 2a28 79be
00000050: ea06 c5be 1e74 c9be e1e8 1dbf 5b32 6dbf
00000060: 6510 45bf 5158 cebe 3488 debe ce37 45bf
00000070: 0f6f 9fbf cd99 a1be adad 4bbf 80e8 24bf
00000080: 6470 8fbf cae1 27bf 731e 78bf eb24 31bf
00000090: b1c7 2fbf 1496 7bbf 052f 6cbf 38c6 2abf
000000a0: 3b08 2cbf 1b5d c9be 4282 963d d1c0 26bf
000000b0: 405d 48be dde4 0b3f a39f 563e d3a8 253f
000000c0: 63c9 353f 0e0c 1dbe 34f3 c23e 2da7 623e
000000d0: b825 063f bb98 963e d355 0d3e 58a7 193f
000000e0: aef8 e53e 9f32 f1bc bae0 073e 3450 033e
000000f0: 3447 fd3e f115 e93d 4655 393f 1293 f23e
00000100: 490b d13e 6598 3a3f 9e98 2a3d 6d6d 8e3d
00000110: 0cf0 583f 8386 5d3e cac5 8c3e 3ada 2c3f
00000120: 0263 ed3e 1123 abbd f70f 963e 3ffe 123f
00000130: 0e1f f73d 2507 5e3f 239e e73e ea9d 183f
00000140: 328b df3e c413 2d3f 7b7d 373f c111 373f
00000150: 6945 b13d 9508 e8bd 631e 7d3e 5325 83be
00000160: 0b93 333e 4710 94b9 61b4 02be 3006 133f
00000170: 0abc e63d 636e b7bd 1d85 193f df51 1bbf
00000180: 2958 c6bd bd3b 5fbe c6cc 6bbe c55b 01bb
00000190: 1865 d93e 6fd0 4ebf 0d69 b73e 8427 aa3e
000001a0: 613c b6bc 4054 a9b8 cb40 593e 0de0 cdbd
000001b0: 9041 a6bc 0352 8c3e 23df 953d 5252 d0bd
000001c0: a3dc 323d 0215 bb3d 7e65 ac3e 59f1 893d
000001d0: 3273 86bd 7bdf c73d a11f c8bd 0760 1d3e
000001e0: 71b0 843d 1274 103d dc49 00be 5fa7 9c3d
000001f0: c2ab d2be b3e7 3cbe 0601 78be 4372 c23d
00000200: 47e8 b83e 40d0 8a3e 9e39 66bd 8b08 123d
00000210: 9490 06bf 2186 093e fb6a bf3e 6afd e7bc
00000220: bb0e 3bbe 4bd0 72be be94 003e 4c26 363e
00000230: 27a7 32bd 65bd 89bd da14 bf3d 6da4 893d
00000240: 902f 44bd 5988 06be 9703 253e 0e77 013e
00000250: ee97 923e 8408 c5be 6cb7 f8be cace ab3d
00000260: 4e09 873e 54f7 5c3d 6c26 17bd 2985 2dbe
00000270: 9297 a9be 1a78 49be 416a 9c3e 576b f5bd
00000280: 3405 6cbe ce78 ffbe 6430 27be 0dd7 11bf
00000290: 597d fbbd add4 c3bc d55f 863e 4fb3 d73e
000002a0: be67 4b3e 5469 a6bd 005e debd df5b 2d3e
000002b0: e7d5 a23e 8ad1 893e 3db0 a2be d1ba acbe
000002c0: a505 bfbe 6759 2a3e e8d4 a8be f309 8cbe

lstm.bias_hh_l0_reverse f4 [180]
-0.74549836 -0.038122553 -0.57885075 -0.9515999 -0.00779945 0.0047722436 -0.78027606 -1.0271704
-0.60266364 -0.3537261 -0.32508373 0.09306976 -0.79833287 -0.24782349 -0.5314245 -0.95757174
-0.6018598 -0.7473951 -0.5727492 -0.2972017 -0.1897941 -0.35713404 -0.7915997 -1.0730338
-0.876713 -0.4187644 -0.3935898 -0.78367287 -0.99997616 -0.5456444 -0.84093976 -0.4372708
-1.1978909 -0.66268986 -0.7683667 -0.79663944 -0.71493727 -0.7897075 -0.74354315 -0.6706745
-0.8467862 -0.28705224 -0.12780127 -0.60332286 -0.13226475 0.59559447 0.25377947 0.63332695
0.54492176 -0.11795713 0.26284912 0.41463733 0.42606923 0.25148878 0.2510063 0.6493699
0.32887772 -0.10712403 0.18803348 0.14284967 0.58298635 0.25265294 0.9021893 0.55315524
0.39745682 0.7215807 -0.08371372 -0.010596292 0.74356157 0.14207618 0.19572927 0.5386331
0.4793727 0.009353588 0.36690006 0.6047575 0.25825343 0.8192575 0.51588356 0.6233135
0.631816 0.63789785 0.7782245 0.7681328 0.018354906 -0.057878867 0.24376339 -0.19158399
-0.044264715 -0.018105559 -0.15264216 0.67635757 0.02368374 -0.018200481 0.45310798 -0.40653205
0.04216746 -0.19252819 -0.050021056 0.12033694 0.14165607 -0.7617744 0.27646667 0.24920376
0.09281462 -0.17305863 0.04939063 -0.09225308 -0.09138441 0.31380308 -0.06330637 -0.09074469
-0.08511202 -0.070715375 0.16661622 0.03414146 0.0059045902 0.033047277 -0.30912626 0.31691518
0.021873955 0.008160464 -0.16473514 0.050550766 -0.3917615 -0.19300447 -0.21302192 0.19426471
0.21793528 0.28932706 0.014532594 0.14055236 -0.5521565 0.24012099 0.35838914 0.21307562
-0.28574485 -0.14760865 0.013195476 0.06748806 0.102028236 -0.052871153 0.059705973 -0.008674544
-0.1842781 -0.11418113 0.16087382 0.05388235 0.4187226 -0.3269443 -0.43563384 0.087769166
0.22572665 0.1803749 -0.010468317 -0.20546792 -0.45575085 -0.37037188 0.21948601 -0.38794097
-0.07117026 -0.37615028 -0.13684744 -0.44569513 -0.10409438 0.07033026 0.2656863 0.40035298
0.14600918 0.20760632 -0.18532988 0.17124006 0.20209429 0.29483518 -0.20986632 -0.34415537
-0.46921992 0.072910465 -0.20657362 -0.15027092
00000000: fbd8 3ebf 6526 1cbd 902f 14bf 0d9c 73bf
00000010: 8792 ffbb 7b60 9c3b 2cc0 47bf 527a 83bf
00000020: 2a48 1abf 961b b5be 6071 a6be 5c9b be3d
00000030: 8b5f 4cbf 71c5 7dbe 700b 08bf 6c23 75bf
00000040: 7c13 1abf 4955 3fbf b19f 12bf d22a 98be
00000050: 6259 42be 46da b6be 47a6 4abf 2c59 89bf
00000060: 4370 60bf 4a68 d6be 9a84 c9be c99e 48bf
00000070: 70fe 7fbf 5aaf 0bbf d447 57bf f5e1 dfbe
00000080: 7d54 99bf 0ba6 29bf aeb3 44bf 90f0 4bbf
00000090: 2106 37bf 452a 4abf d858 3ebf 53b1 2bbf
000000a0: fbc6 58bf 83f8 92be 56de 02be 5e73 1abf
000000b0: 6970 07be e178 183f 62ef 813e b721 223f
000000c0: fe7f 0b3f 8293 f1bd 2994 863e 584b d43e
000000d0: bf25 da3e 23c3 803e e683 803e 1b3d 263f
000000e0: a962 a83e d863 dbbd d98b 403e 2f47 123e
000000f0: 983e 153f ba5b 813e e1f5 663f 959b 0d3f
00000100: 767f cb3e 83b9 383f 1972 abbd 129c 2dbc
00000110: 0d5a 3e3f 6b7c 113e 416d 483e dce3 093f
00000120: 5770 f53e cb3f 193c 53da bb3e 63d1 1a3f
00000130: cb39 843e dcba 513f f210 043f 7991 1f3f
00000140: b2be 213f 464d 233f b939 473f 5aa4 443f
00000150: 075d 963c 6412 6dbd 1c9d 793e 982e 44be
00000160: eb4e 35bd 1c52 94bc 3a4e 1cbe c525 2d3f
00000170: 6704 c23c 2d19 95bc c5fd e73e f824 d0be
00000180: c9b7 2c3d 1c26 45be e1e2 4cbd 3773 f63d
00000190: 4a0e 113e a603 43bf 0a8d 8d3e 452f 7f3e
000001a0: 9715 be3d 4836 31be d44d 4a3d 2fef bcbd
000001b0: c027 bbbd ccaa a03e c5a6 81bd 5ad8 b9bd
000001c0: 364f aebd 39d3 90bd 719d 2a3e ead7 0b3d
000001d0: 4b7b c13b 955c 073d cc45 9ebe b542 a23e
000001e0: 0231 b33c 78b3 053c 54b0 28be 520e 4f3d
000001f0: f794 c8be f7a2 45be 6b22 5abe 54ed 463e
00000200: 6d2a 5f3e ad22 943e 1e1a 6e3c f5ec 0f3e
00000210: 215a 0dbf 47e2 753e c87e b73e 7f30 5a3e
00000220: 264d 92be b926 17be d631 583c 2e37 8a3d
00000230: 2ef4 d03d 6c8f 58bd 408e 743d ad1f 0ebc
00000240: 66b3 3cbe ccd7 e9bd 1bbc 243e bdb3 5c3d
00000250: cf62 d63e 3e65 a7be 660b dfbe 52c0 b33d
00000260: e324 673e 33b4 383e 4e83 2bbc 2f66 52be
00000270: 2d58 e9be 62a1 bdbe f1c0 603e 33a0 c6be
00000280: b7c1 91bd c596 c0be bc21 0cbe 2732 e4be
00000290: 6f2f d5bd 5009 903d 0908 883e 11fb cc3e
000002a0: 6e83 153e c096 543e 1ec7 3dbe 8e59 2f3e
000002b0: cef1 4e3e a3f4 963e 32e7 56be 2235 b0be
000002c0: 983d f0be 1552 953d 0988 53be 9fe0 19be

fc.weight f4 [1, 90]
-0.249629 -0.013081004 0.049638238 -0.20934287 -0.071945794 -0.19094548 0.23831797 -0.012411592
-0.16885594 -0.27731135 -0.11803387 -0.2125247 0.14540087 -0.18440016 -0.51027775 -0.23810895
-0.3779835 0.17059365 0.09993799 0.21845815 -0.04711723 0.2582973 -0.051079467 0.16625676
0.13944684 0.0028434035 0.25523964 0.5771852 0.51971096 0.19940473 -0.24317275 -0.16390084
0.49859798 0.189935 0.33435014 0.12359229 -0.0730896 -0.025765445 0.1689408 -0.037558272
-0.472188 0.22715805 0.028654799 0.33194336 0.27739072 0.41205916 -0.0047556413 0.12889656
-1.1316144 -0.111057 0.17083266 -1.003424 1.3219442 -0.5310591 -0.9638677 -0.19019717
0.32127464 0.6358725 0.20090443 -0.1313539 0.24922249 -0.07037617 0.12142728 -0.12978986
-0.28758132 -0.29201227 -0.39692628 0.3770029 -0.78994524 -0.4619297 0.22618409 -0.28216183
0.75076205 0.49950704 0.5638195 -0.06460313 0.31508067 -0.18975179 0.123411 0.9054844
0.22968698 0.046050668 0.69366574 -1.2347345 0.3136819 -0.21518408 0.025850873 -0.41819954
0.62712497 -0.418052
00000000: bf9e 7fbe b551 56bc 7751 4b3d fa5d 56be
00000010: 5158 93bd 3687 43be a009 743e fd59 4bbc
00000020: 92e8 2cbe c1fb 8dbe bebb f1bd 13a0 59be
00000030: f7e3 143e 65d3 3cbe 90a1 02bf d5d2 73be
00000040: 0e87 c1be 1ab0 2e3e 4aac cc3d 7eb3 5f3e
00000050: fffd 40bd 8b3f 843e b438 51bd 363f 2a3e
00000060: 27cb 0e3e 6558 3a3b c5ae 823e 69c2 133f
00000070: c70b 053f c130 4c3e 4702 79be 9fd5 27be
00000080: 3c48 ff3e 527e 423e f12f ab3e f41d fd3d
00000090: 00b0 95bd 0e12 d3bc d1fe 2c3e b4d6 19bd
000000a0: a0c2 f1be 1f9c 683e 78bd ea3c 7bf4 a93e
000000b0: 2806 8e3e 6bf9 d23e 36d5 9bbb 76fd 033e
000000c0: bed8 90bf da71 e3bd c2ee 2e3e 3370 80bf
000000d0: 7835 a93f 7df3 07bf 09c0 76bf 0cc3 42be
000000e0: 1c7e a43e 8ac8 223f e4b9 4d3e a381 06be
000000f0: 2e34 7f3e 6221 90bd deae f83d a2e7 04be
00000100: dc3d 93be a282 95be ec39 cbbe 8606 c13e
00000110: da39 4abf 0d82 ecbe cd9c 673e 8477 90be
00000120: f131 403f 63bf ff3e 7a56 103f a54e 84bd
00000130: 4152 a13e 4b4e 42be e8be fc3d d3cd 673f
00000140: 1033 6b3e a09f 3c3d 1494 313f c80b 9ebf
00000150: ea9a a03e 3759 5cbe 36c5 d33c 401e d6be
00000160: 438b 203f e90a d6be
