sparrow/data/networks/scaled_re/scaled_re_network_v2.pt (torch, 137891 bytes, 9 tensors)

lstm.weight_ih_l0 f4 [220, 20]
0.0379506 0.07834747 -0.112989426 -0.082826175 0.011088945 0.032085594 0.0029530853 0.0036336086
-0.044451755 -0.11316366 -0.075252295 0.077777624 -0.10177639 0.0069949734 -0.038307678 -0.033532023
0.11285286 0.0029283492 0.10259354 -0.053402126 -0.3950189 0.111138284 -0.46143433 -0.28248918
0.03797239 0.018301459 -0.036119733 -0.060053315 0.11540495 -0.0036578332 -0.091416866 0.05173035
0.12473303 0.07376567 0.07285993 -0.14352222 -0.06709821 -0.05210061 -0.10982054 0.06488938
-0.034551226 0.027883446 0.2076632 0.18980111 -0.0123028 0.24924153 -0.122975595 -0.05344314
-0.033536855 -0.016816827 -0.030053109 0.112503216 0.0338288 -0.041629154 -0.08993937 -0.050319575
-0.12355893 0.02296446 0.0059717586 -0.058779508 0.09036469 0.14427394 -0.008447669 0.15402593
-0.12256839 -0.09082405 -0.008381425 -0.07801245 0.1133938 -0.034628168 0.08269327 -0.019590944
0.02627878 0.07444367 -0.0042874045 0.0152300345 -0.08936024 -0.057896882 -0.07455301 0.059870087
-0.300806 0.14241675 -0.65588176 -0.54897815 0.1735081 -0.09151991 -0.03627003 0.27210474
0.44951975 0.025443206 0.34856316 0.062447924 -0.20865847 -0.14200826 0.28251764 -0.20652054
0.05904055 0.3599884 -0.14739639 0.21680366 -0.07848434 0.09030972 0.08088044 -0.069550425
0.04152568 0.008630577 0.04643082 -0.065507255 0.1580363 -0.052021775 0.058109548 -0.06590668
0.056072365 0.12193984 0.12930892 0.102597505 0.1601726 0.10696093 -0.05841353 -0.07571459
-0.0076584034 0.36678642 0.39945224 -0.12522595 -0.009925772 0.42968127 0.06735859 -0.023438826
-0.16905385 0.17931612 -0.035881292 0.040585026 0.08265979 0.028628832 -0.111311704 0.03537586
0.049894344 0.30371204 0.013284191 0.07057434 0.04999397 0.06271469 -0.041285407 0.057384532
-0.060972765 0.13992144 -0.05025209 0.021476176 0.07749469 0.04953805 0.065849595 0.056225747
-0.042711396 0.12232563 0.05570794 0.066915564 0.15271349 -0.060436085 -0.11191964 -0.08261909
-0.08396325 0.036240578 -0.013331658 0.061246 0.0026674843 -0.0076196627 0.046277583 -0.09757978
0.14909542 0.0098986095 -0.047087226 -0.0174471 -0.05866708 0.074387014 -0.030258143 0.09710727
0.07403163 0.14272606 0.10867076 0.084653795 -0.4667939 0.19108965 -1.0423121 -0.94162124
0.5413273 -0.524987 -0.25620425 0.47966877 0.24940173 0.20650779 0.013113761 -0.45359924
-0.23894891 -0.4566697 0.60532254 -0.21424915 -0.31349188 0.4716734 -0.17819467 0.33265957
-0.25605378 -0.0070943944 -0.38903263 -0.2560088 0.072065264 -0.059641838 -0.15516846 0.13754128
0.049114544 0.15781936 0.06912374 -0.12760493 0.07681496 -0.07040572 0.11155825 0.045047767
-0.077483565 0.18567254 -0.012412015 0.015305663 -0.6042544 -0.007251133 -0.94715834 -1.0878258
0.21845698 -0.6629569 -0.42032713 0.6900952 0.23517025 0.49105293 0.10791044 -0.80284554
-0.3485817 -0.69882286 0.0058656503 -0.40325361 -0.46523353 0.70902926 -0.45630002 0.13092898
-0.41777423 0.18550394 -1.0301521 -0.9107046 0.35842088 -0.34754127 0.27000594 0.23302135
0.19104582 0.10971684 0.012082808 -0.37848976 -0.33551082 -0.25563386 1.1919075 -0.1015811
00000000: 1772 1b3d a374 a03d 0067 e7bd c5a0 a9bd
00000010: 68ae 353c 2f6c 033d 8d88 413b d621 6e3b
00000020: 0b13 36bd 59c2 e7bd e01d 9abd e049 9f3d
00000030: 2470 d0bd 1736 e53b 83e8 1cbd e058 09bd
00000040: 661f e73d 8ce9 3f3b 901c d23d 30bc 5abd
00000050: eb3f cabe 789c e33d 1f41 ecbe 6ca2 90be
00000060: f088 1b3d f1ec 953c 49f2 13bd 77fa 75bd
00000070: 6e59 ec3d 42b8 6fbb c438 bbbd 34e3 533d
00000080: 0874 ff3d 7512 973d 9637 953d 7df7 12be
00000090: c96a 89bd 7367 55bd 97e9 e0bd b9e4 843d
000000a0: 9685 0dbd d36b e43c a9a5 543e 395b 423e
000000b0: af91 49bc 2c39 7f3e a1da fbbd 32e7 5abd
000000c0: f15d 09bd 71c3 89bc f031 f6bc 1668 e63d
000000d0: 1190 0a3d 5583 2abd 2232 b8bd e61b 4ebd
000000e0: 770c fdbd f71f bc3c beae c33b c8c2 70bd
000000f0: 1f11 b93d 8cbc 133e 1868 0abc f9b8 1d3e
00000100: 2305 fbbd f601 babd 3f52 09bc fec4 9fbd
00000110: 023b e83d 44d6 0dbd 175b a93d 307d a0bc
00000120: 9946 d73c ec75 983d 5b7d 8cbb 6587 793c
00000130: 8002 b7bd 4825 6dbd 40af 98bd 563a 753d
00000140: 3e03 9abe b2d5 113e dee7 27bf d589 0cbf
00000150: 1bac 313e ca6e bbbd e28f 14bd 5051 8b3e
00000160: 7427 e63e 456e d03c df76 b23e 65c9 7f3d
00000170: 91aa 55be 9d6a 11be 27a6 903e 1f7a 53be
00000180: 81d4 713d 6650 b83e 14ef 16be c701 5e3e
00000190: 66bc a0bd 4df4 b83d a5a4 a53d 7470 8ebd
000001a0: d516 2a3d 4367 0d3c 3e2e 3e3d ab28 86bd
000001b0: 45d4 213e c914 55bd 4704 6e3d 15fa 86bd
000001c0: 23ac 653d 98bb f93d 8f69 043e a41e d23d
000001d0: 4904 243e 550e db3d 0743 6fbd 4010 9bbd
000001e0: 58f3 fabb 6ecb bb3e 0185 cc3e 3b3b 00be
000001f0: b59f 22bc 2fff db3e 4df3 893d c802 c0bc
00000200: 741c 2dbe a59e 373e 43f8 12bd 7c3c 263d
00000210: 8949 a93d 0387 ea3c 64f7 e3bd 47e6 103d
00000220: 035e 4c3d 2580 9b3e efa5 593c 4889 903d
00000230: 7ac6 4c3d 8f70 803d e31a 29bd 0b0c 6b3d
00000240: 94be 79bd 9147 0f3e 23d5 4dbd ceee af3c
00000250: 89b5 9e3d 69e8 4a3d 27dc 863d f84c 663d
00000260: 25f2 2ebd dc85 fa3d 022e 643d 070b 893d
00000270: ed60 1c3e d48b 77bd 2036 e5bd 3334 a9bd
00000280: edf4 abbd 0071 143d 076d 5abc 16dd 7a3d
00000290: f6d0 2e3b 5dae f9bb 908d 3d3d e8d7 c7bd
000002a0: 78ac 183e c72d 223c 89de 40bd 38ed 8ebc
000002b0: e44c 70bd 3858 983d eddf f7bc 2de0 c63d
000002c0: e59d 973d c826 123e c78e de3d f85e ad3d
000002d0: 9cff eebe 01ad 433e 7c6a 85bf 170e 71bf
000002e0: 6d94 0a3f 8c65 06bf 342d 83be 2597 f53e
000002f0: 2b63 7f3e c776 533e 1adb 563c 293e e8be
00000300: 06af 74be 9cd0 e9be 6bf6 1a3f 2164 5bbe
00000310: 0282 a0be 2d7f f13e aa78 36be 5b52 aa3e
00000320: 7b19 83be 1878 e8bb 492f c7be 9613 83be
00000330: f496 933d 004b 74bd 7be4 1ebe 9fd7 0c3e
00000340: 552c 493d 669b 213e bf90 8d3d deaa 02be
00000350: 2951 9d3d e030 90bd a778 e43d 0284 383d
00000360: b4af 9ebd f120 3e3e c45b 4bbc 9bc4 7a3c
00000370: 6bb0 1abf ea9a edbb f878 72bf e03d 8bbf
00000380: 30b3 5f3e 8bb7 29bf 1e35 d7be 14aa 303f
00000390: 78d0 703e 4a6b fb3e 2600 dd3d 4987 4dbf
000003a0: 4d79 b2be 0ee6 32bf a434 c03b 4277 cebe
000003b0: 1733 eebe f182 353f 28a0 e9be 3f12 063e
000003c0: 81e6 d5be bff4 3d3e 06dc 83bf f023 69bf
000003d0: f182 b73e eef0 b1be 383e 8a3e 269d 6e3e
000003e0: 84a1 433e 39b3 e03d f8f6 453c 69c9 c1be
000003f0: 13c8 abbe 71e2 82be 6d90 983f c009 d0bd

lstm.weight_hh_l0 f4 [220, 55]
-0.05326534 0.00068804924 -0.14769301 -0.028923152 0.1566425 0.17760713 -0.008060767 -0.11148746
-0.13859439 -0.08763384 -0.048808545 0.07165137 0.06974607 0.092263736 0.15602854 0.04999416
0.039080247 0.091669485 -0.0028507074 -0.06345233 -0.117894724 0.014498206 0.088358924 0.011991145
-0.033094622 0.08907127 0.079694584 -0.044096816 -0.066515416 0.0124647515 0.034075633 -0.09649665
0.02602221 0.093082316 -0.08718826 0.05054744 -0.11801987 -0.075318955 -0.08374543 -0.16074505
-0.15447053 -0.057570994 0.003015177 -0.000264507 -0.16050911 0.015165719 0.11655162 0.116034344
0.09535901 -0.02805484 0.12570815 0.035318073 0.04678108 0.058959913 0.09195061 -0.011682281
0.062210098 -0.063585185 0.15488538 0.053162307 0.1141581 -0.015951108 -0.22911292 -0.23649293
-0.21366958 -0.18423629 0.054682817 0.104984336 -0.23344865 0.19213514 -0.20283592 0.010650486
0.08520934 0.14206886 -0.19423792 0.010625263 -0.17537454 0.07708426 -0.091526374 -0.032517526
0.1298813 0.1975882 -0.14028935 0.018254656 0.027504314 0.06371853 0.07621997 0.067565024
0.21106979 0.01264463 -0.17323442 -0.23789503 0.10699785 0.06908378 -0.01721191 0.037573114
0.07473233 -0.11033691 0.05818133 -0.08332506 -0.032345466 0.17036101 0.18463357 -0.05028152
-0.052658103 0.068607174 -0.092946835 0.052215904 0.16873302 0.00043769967 0.19753584 -0.24889958
-0.0363798 -0.2271526 0.0006644163 -0.24187931 0.14192641 0.11811229 0.30558157 0.1442495
0.298328 0.053152952 -0.12636311 0.24220707 -0.15534912 0.19722575 -0.14154099 -0.13361122
-0.31293762 0.31559306 0.32818687 0.09620119 -0.1479029 0.23019704 0.31626213 -0.1276594
-0.28943047 0.06550383 0.12063333 0.24074975 -0.35675195 -0.19808042 -0.0721557 -0.26373097
0.16973686 0.0019110965 0.17989303 -0.12277447 0.032606114 0.16790202 0.26289022 -0.13502294
0.074333675 -0.31534684 0.33703107 0.23089649 0.004143804 -0.14625646 0.08508841 -0.08059818
-0.18646447 0.15535909 -0.19094218 -0.13133314 -0.014783291 -0.0014297012 -0.074619696 -0.07435053
0.035456825 -0.057433352 0.17926049 0.013852126 -0.031551115 0.041071467 -0.007423734 0.043443732
0.062209398 0.11278723 -0.023414403 -0.012639576 -0.030026529 0.045752645 -0.06362654 -0.06594864
0.0108808195 -0.09715753 -0.043966495 0.051623955 0.06474329 -0.15092431 -0.112605676 0.08853957
0.02632035 -0.021114903 -0.0522492 0.05406808 0.09846606 0.12054072 0.116126746 -0.08534768
-0.13006136 0.04319964 -0.0799989 0.018631214 0.030153554 0.10046242 -0.0093380185 -0.039906096
0.047319055 -0.11972584 0.05426141 0.11814051 -0.0018996107 -0.12272446 -0.12706503 -0.03235843
-0.029507995 -0.024340725 0.14630817 0.057595223 0.36233708 -0.32540736 -0.06753454 -0.20094332
0.0992145 -0.19220926 -0.11686015 0.22177765 0.27445713 0.041198783 0.37235606 -0.4533673
0.01954586 0.2841889 -0.30540258 0.42707232 -0.29580808 -0.21870068 -0.3235613 0.24476025
0.22052023 0.251195 -0.33488682 0.23208007 0.2167039 0.014927613 -0.3342393 -0.10797087
0.34992114 0.3422995 -0.35973093 0.101326786 -0.057206493 -0.39122468 0.28037304 -0.085611366
00000000: c22c 5abd 345e 343a d63c 17be 3ff0 ecbc
00000010: e466 203e a5de 353e 4f11 04bc 8a53 e4bd
00000020: b0eb 0dbe 5f79 b3bd 78eb 47bd f4bd 923d
00000030: 07d7 8e3d c5f4 bc3d f2c5 1f3e adc6 4c3d
00000040: 9c12 203d 36bd bb3d efd2 3abb 4cf3 81bd
00000050: ca72 f1bd e289 6d3c 86f5 b43d 8276 443c
00000060: 3a8e 07bd ff6a b63d ea36 a33d dd9e 34bd
00000070: 3c39 88bd f538 4c3c e492 0b3d 09a0 c5bd
00000080: 882c d53c f1a1 be3d c28f b2bd d50a 4f3d
00000090: 67b4 f1bd d340 9abd b982 abbd 5a9a 24be
000000a0: 862d 1ebe 90cf 6bbd 479a 453b 87ad 8ab9
000000b0: 805c 24be a379 783c 9eb2 ee3d 6aa3 ed3d
000000c0: 964b c33d 44d3 e5bc a3b9 003e afa9 103d
000000d0: 859d 3f3d f37f 713d 9a50 bc3d 0a67 3fbc
000000e0: 04d0 7e3d f338 82bd 469a 1e3e b8c0 593d
000000f0: b9cb e93d e6ab 82bc 949c 6abe 342b 72be
00000100: 33cc 5abe 70a8 3cbe 17fb 5f3d 0702 d73d
00000110: 2a0d 6fbe 13bf 443e 38b4 4fbe 607f 2e3c
00000120: 3c82 ae3d 807a 113e 4ee6 46be 9515 2e3c
00000130: 6295 33be 5ade 9d3d 2e72 bbbd 1931 05bd
00000140: 9aff 043e 9054 4a3e 03a8 0fbe ca8a 953c
00000150: ba50 e13c dc7e 823d 3719 9c3d 885f 8a3d
00000160: ae22 583e 6c2b 4f3c 5d64 31be c19a 73be
00000170: b021 db3d cc7b 8d3d feff 8cbc 44e6 193d
00000180: 440d 993d 51f8 e1bd 8c4f 6e3d 54a6 aabd
00000190: ae7c 04bd 1e73 2e3e 9510 3d3e fff3 4dbd
000001a0: 06b0 57bd eb81 8c3d e95a bebd 58e0 553d
000001b0: 59c8 2c3e 0e7b e539 d646 4a3e 88df 7ebe
000001c0: fc02 15bd b19a 68be 392c 2e3a 36af 77be
000001d0: 2855 113e dbe4 f13d 3075 9c3e 24b6 133e
000001e0: 73be 983e e9b6 593d 5565 01be 2105 783e
000001f0: d713 1fbe 8cf5 493e 1ff0 10be 61d1 08be
00000200: 5c39 a0be 6a95 a13e 1c08 a83e 2105 c53d
00000210: dc73 17be c6b8 6b3e 1ced a13e 25b9 02be
00000220: 3b30 94be df26 863d 9b0e f73d 1a87 763e
00000230: 31a8 b6be 98d5 4abe 5ec6 93bd bf07 87be
00000240: 80cf 2d3e c27d fa3a e135 383e 2e71 fbbd
00000250: fd8d 053d 82ee 2b3e 8c99 863e 7443 0abe
00000260: 413c 983d 2475 a1be 568f ac3e 2170 6c3e
00000270: bfc8 873b 41c4 15be d542 ae3d a910 a5bd
00000280: 8bf0 3ebe 7416 1f3e 5986 43be 327c 06be
00000290: 9e35 72bc d064 bbba 36d2 98bd 1745 98bd
000002a0: 2d3b 113d 3c3f 6bbd 1090 373e 07f4 623c
000002b0: be3b 01bd 8e3a 283d cb42 f3bb 0ef2 313d
000002c0: 48cf 7e3d fefc e63d 90cf bfbc 3916 4fbc
000002d0: 32fa f5bc 2067 3b3d a24e 82bd 1510 87bd
000002e0: 7745 323c 87fa c6bd 3616 34bd a473 533d
000002f0: 2198 843d e78b 1abe ce9d e6bd 3c54 b53d
00000300: c69d d73c 29f9 acbc 4203 56bd 7e76 5d3d
00000310: 93a8 c93d 0ede f63d dcd3 ed3d c4ca aebd
00000320: ce2e 05be 1bf2 303d 77d6 a3bd 7da0 983c
00000330: 9604 f73c 3ebf cd3d 7dfe 18bc 9374 23bd
00000340: a0d1 413d d232 f5bd 3641 5e3d a7f3 f13d
00000350: 5cfc f8ba f656 fbbd 561d 02be 468a 04bd
00000360: c0ba f1bc 3366 c7bc cfd1 153e f8e8 6b3d
00000370: 3f84 b93e cb9b a6be 8d4f 8abd 16c4 4dbe
00000380: f930 cb3d 81d2 44be 6054 efbd ae19 633e
00000390: a585 8c3e 0ec0 283d 74a5 be3e c21f e8be
000003a0: a41e a03c 3581 913e ba5d 9cbe 39a9 da3e
000003b0: 2874 97be 12f3 5fbe d4a9 a5be 6ea2 7a3e
000003c0: 0ed0 613e a29c 803e 4976 abbe 66a6 6d3e
000003d0: a1e7 5d3e f292 743c 6a21 abbe d51f ddbd
000003e0: dd28 b33e e141 af3e a72e b8be 6b84 cf3d
000003f0: 5b51 6abd 9a4e c8be 0e8d 8f3e 0355 afbd

lstm.bias_ih_l0 f4 [220]
-0.076287754 0.0011725128 -0.13319318 0.11923028 -0.20508964 0.011606552 -0.26821363 0.1277357
0.13090126 -0.32573792 0.10692018 0.16658583 -0.3316042 -0.01949494 -0.016422864 0.16287987
0.015396557 0.41169918 0.098246895 -0.002728844 0.118493475 -0.041094977 0.06470582 0.16017422
0.11534984 -0.12488295 0.19693024 -0.22857255 0.19278274 0.066410825 -0.0056273686 -0.2546156
-0.14531066 -0.03429037 -0.045176093 -0.21559758 0.10660158 0.18854374 -0.11434551 0.15199621
0.011237124 -0.026642775 0.1479409 0.17044055 -0.030501101 -0.07472552 0.054047644 0.23226066
-0.1434213 -0.13236259 0.14552599 0.087967925 0.07659397 0.12489898 -0.29378954 0.16366729
0.0029936975 0.0076133814 0.1419464 -0.043900665 0.06247936 -0.25408387 0.12253787 0.11242945
-0.15825747 0.13504405 0.14012787 0.048454106 0.1834773 0.095052846 0.044365227 0.14199251
-0.48618743 0.029284565 0.059290722 0.05694126 -0.045415256 -0.07368997 0.16811645 0.10436619
-0.12551051 0.15042506 -0.055700798 0.099252105 -0.028321583 0.038425703 -0.17180145 -0.14127658
-0.0042108153 0.00051769643 -0.06050169 -0.039888807 0.16762011 0.06351463 0.19716227 0.10297459
0.13447532 -0.01976839 0.07086311 0.1406027 0.107359275 0.07714353 0.11869128 0.05559595
-0.033865586 0.20168926 0.028080227 0.1064593 0.089831024 -0.18088348 0.07634957 0.18280406
-0.09720841 -0.01507261 0.08592975 0.17428629 -0.044744883 -0.13064726 -0.11592442 -0.0753129
-0.16230214 -0.006866049 0.06393905 0.050306816 0.24879745 -0.1733752 0.037529875 0.068924814
0.16864102 -0.101361655 -0.14158818 -0.17593578 -0.06978652 -0.17311653 -0.17649703 0.007140787
0.08388433 -0.012432956 -0.16782108 -0.0676211 0.19522794 0.055773873 0.07167273 0.13735802
-0.033949573 -0.12210481 -0.025265226 0.09012558 0.017951932 -0.15289395 -0.154455 0.039652962
-0.1346237 0.17123795 -0.09732636 -0.16150603 -0.004463995 0.20696044 0.06534083 -0.059658658
0.16231392 0.058834076 -0.0054708957 -0.027193032 0.13222796 0.35357255 0.37187624 -0.043429572
0.30601066 -0.08897439 0.36270624 -0.2392066 0.2624879 0.2163085 0.08585978 0.27388173
-0.5256828 -0.07244125 0.33649614 0.3212217 0.40391424 0.4446729 0.1007602 0.4180264
0.502795 0.40184656 0.44474164 0.37191325 0.25731844 0.2976396 -0.21936408 0.2879376
-0.20278081 0.39925057 0.45628566 0.40253845 -0.17702143 -0.17466593 0.30351448 0.24214959
-0.2984145 0.20063365 0.30435577 -0.28165168 0.29317927 0.10237653 0.44403586 0.47895974
0.4054872 0.39959913 0.37304154 -0.5097939 0.45704177 -0.13397053 -0.26920408 0.48225337
0.4876728 0.3517583 0.40973166 -0.28405178
00000000: c13c 9cbd 00af 993a cb63 08be 012f f43d
00000010: 0503 52be 6829 3e3c 4c53 89be 26cd 023e
00000020: fb0a 063e 1fc7 a6be f8f8 da3d 7a95 2a3e
00000030: 07c8 a9be dab3 9fbc 3e89 86bc fbc9 263e
00000040: d741 7c3c 3cca d23e ab35 c93d 68d6 32bb
00000050: b5ac f23d 3553 28bd 7c84 843d b604 243e
00000060: 893c ec3d a2c2 ffbd 15a8 493e ec0e 6abe
00000070: d768 453e 6602 883d ca65 b8bb fa5c 82be
00000080: 51cc 14be 0f74 0cbd 910a 39bd 9dc5 5cbe
00000090: ee51 da3d 9c11 413e fb2d eabd e5a4 1b3e
000000a0: ea1b 383c f341 dabc d27d 173e f887 2e3e
000000b0: 72dd f9bc b209 99bd 1061 5d3d bdd5 6d3e
000000c0: 09dd 12be 0f8a 07be c404 153e 8728 b43d
000000d0: 4ddd 9c3d 09cb ff3d 956b 96be 6698 273e
000000e0: e931 443b ac79 f93b 665a 113e 2fd1 33bd
000000f0: 5bea 7f3d 4817 82be 23f5 fa3d 6941 e63d
00000100: 3f0e 22be fd48 0a3e ae7d 0f3e d077 463d
00000110: 79e1 3b3e 11ab c23d 50b8 353d 7c66 113e
00000120: 8fed f8be 2fe6 ef3c d4da 723d 3d3b 693d
00000130: 5905 3abd c4ea 96bd b826 2c3e f1bd d53d
00000140: d485 00be 0709 1a3e 8526 64bd b044 cb3d
00000150: aa02 e8bc 4564 1d3d b8ec 2fbe cfaa 10be
00000160: e1fa 89bb 05b6 073a 9fd0 77bd 7262 23bd
00000170: 9ba4 2b3e f513 823d e8e4 493e 58e4 d23d
00000180: e6b3 093e 52f1 a1bc ae20 913d 27fa 0f3e
00000190: 2edf db3d 6dfd 9d3d 6a14 f33d 94b8 633d
000001a0: a4b6 0abd a187 4e3e 8108 e63c 5507 da3d
000001b0: 54f9 b73d 8539 39be 2a5d 9c3d fd30 3b3e
000001c0: 3415 c7bd 1cf3 76bc f0fb af3d 1b78 323e
000001d0: 6946 37bd 65c8 05be c869 edbd a63d 9abd
000001e0: 8832 26be 98fc e0bb 7af2 823d 850e 4e3d
000001f0: c2c4 7e3e 4589 31be edb8 193d 7428 8d3d
00000200: 3bb0 2c3e b396 cfbd 7efc 10be 8228 34be
00000210: 3cec 8ebd 7645 31be a3bb 34be 43fd e93b
00000220: 8ccb ab3d 99b3 4bbc 4ad9 2bbe ee7c 8abd
00000230: d5e9 473e 2573 643d 27c9 923d 95a7 0c3e
00000240: b50e 0bbd 1612 fabd 05f9 cebc c393 b83d
00000250: ee0f 933c 3b90 1cbe 7429 1ebe 256b 223d
00000260: ccda 09be 0059 2f3e 0b53 c7bd d661 25be
00000270: b446 92bb 70ed 533e 6ad1 853d a35c 74bd
00000280: 9f35 263e 00fc 703d 3345 b3bb ecc3 debc
00000290: c466 073e 7607 b53e 9066 be3e 35e3 31bd
000002a0: 6ead 9c3e 3438 b6bd a2b4 b93e 93f2 74be
000002b0: d064 863e fa7f 5d3e 41d7 af3d 3a3a 8c3e
000002c0: 2693 06bf 145c 94bd 3949 ac3e 2c77 a43e
000002d0: d9cd ce3e 2bac e33e 5d5b ce3d 8e07 d63e
000002e0: 2cb7 003f d5be cd3e 2db5 e33e 6a6b be3e
000002f0: 3ebf 833e 3864 983e faa0 60be 8f6c 933e
00000300: c6a5 4fbe 926a cc3e 469e e93e 8519 ce3e
00000310: 1b45 35be a0db 32be 4066 9b3e 10f6 773e
00000320: c9c9 98be e872 4d3e 85d4 9b3e a634 90be
00000330: 981b 963e c9aa d13d ab58 e33e 363a f53e
00000340: 059c cf3e 4298 cc3e 4dff be3e da81 02bf
00000350: 6101 ea3e 922f 09be 1ed5 89be eae9 f63e
00000360: 40b0 f93e aa19 b43e 59c8 d13e 3c6f 91be

lstm.bias_hh_l0 f4 [220]
0.1125148 0.13432398 -0.20690316 -0.040921114 -0.26931083 0.015329441 -0.17015886 0.062711045
-0.076027006 -0.29515338 0.05586648 0.11702151 -0.22016388 0.10770215 -0.06295262 -0.01868877
-0.08906889 0.29118454 -0.04181871 -0.031259947 -0.056898877 0.080350325 -0.08408347 0.044898022
0.049129996 -0.27767015 0.20500244 -0.24311931 0.014690885 0.0020624509 0.17560062 -0.37702382
-0.16790587 0.070217244 -0.0202807 -0.34347686 -0.04640767 0.05262094 -0.13099597 -0.06739082
0.04790185 -0.010872859 0.07828318 0.095609106 0.12585479 -0.017532833 0.018105024 0.1305131
-0.15576541 -0.28103492 0.19487861 0.1631704 0.03848083 0.080563776 -0.2007869 0.12745035
-0.02243783 -0.020344593 0.12180486 -0.04285687 -0.05200106 -0.11144085 0.17345977 0.20167114
0.05415287 0.00415819 0.116297625 0.012339589 -0.053926755 0.12701538 0.18974026 0.04459494
-0.54162884 0.17172062 0.14945951 0.1319312 -0.018734947 -0.04747287 0.0598824 0.13117631
0.012827473 0.15326782 0.03633181 0.18035686 0.12093303 0.15378445 -0.13268821 -0.0014231004
0.08105116 0.18971173 -0.018272042 0.12315755 0.04528446 -0.05134579 0.19341806 0.1181118
0.22894439 0.12723099 0.0054081525 0.025962232 0.13596508 -0.028916199 0.10219226 -0.08493979
-0.029243495 0.11781267 0.0809619 0.15621156 0.09640458 -0.11703659 -0.17597426 0.10445811
-0.072957836 0.12102231 0.017540142 0.08113824 -0.09079053 -0.14778687 0.027111052 -0.034593306
0.07013457 -0.07682077 0.0229749 -0.0857111 0.068049386 0.022252347 0.03726399 0.28329986
0.008205414 -0.11363595 -0.0058457893 -0.086905636 0.102229446 -0.190164 -0.16232808 -0.08004029
0.105344 -0.080373704 0.00469432 -0.072600715 0.09916077 -0.0014748834 0.040979333 0.15203835
-0.14079803 -0.040075973 -0.14249742 0.11512002 -0.08200662 -0.019315688 0.08355499 0.13558926
-0.15030181 -0.08394135 -0.16482125 -0.17630087 -0.10097948 0.26496965 0.07994786 -0.07580769
0.10550943 -0.15560392 0.15686087 0.08361418 0.08379116 0.46768048 0.3225798 -0.085937
0.4227537 -0.085963205 0.34565398 -0.29917273 0.24959308 0.17268692 -0.12544422 0.31370714
-0.4291107 -0.18109024 0.47294942 0.334305 0.2999208 0.39676917 0.2245461 0.50278974
0.36409953 0.47156733 0.45663297 0.4191429 0.33036977 0.3595294 -0.16584599 0.25900257
-0.28732526 0.42921153 0.34142083 0.25945118 -0.21998075 -0.13406274 0.24084511 0.28300285
-0.2446391 0.24837448 0.47918427 -0.116192415 0.26110542 0.012249583 0.45444494 0.29485705
0.34667438 0.3269691 0.28434554 -0.4830566 0.25094488 -0.32590696 -0.13112687 0.47058
0.26319095 0.27017048 0.3494487 -0.26672003
00000000: 296e e63d 3a8c 093e 6cde 53be e69c 27bd
00000010: 1ce3 89be 5628 7b3c 203e 2ebe a66e 803d
00000020: 0cb4 9bbd 581e 97be 40d4 643d f9a8 ef3d
00000030: a472 61be f292 dc3d 4eed 80bd 3119 99bc
00000040: c069 b6bd 2416 953e 184a 2bbd 6e0a 00bd
00000050: cc0e 69bd b68e a43d f433 acbd fde6 373d
00000060: 893c 493d c82a 8ebe 29ec 513e 45f4 78be
00000070: 0ab2 703c 2f2a 073b a6d0 333e 4409 c1be
00000080: 84ef 2bbe 0fce 8f3d b623 a6bc 33dc afbe
00000090: f815 3ebd 0e89 573d cf23 06be 3304 8abd
000000a0: bb34 443d 1324 32bc ef52 a03d b5ce c33d
000000b0: 14e0 003e 04a1 8fbc fd50 943c 3aa5 053e
000000c0: f880 1fbe cfe3 8fbe 428e 473e 2416 273e
000000d0: 139e 1d3d 9ffe a43d 159b 4dbe 5882 023e
000000e0: 8acf b7bc b4a9 a6bc d474 f93d af8a 2fbd
000000f0: 10ff 54bd 1a3b e4bd 709f 313e e182 4e3e
00000100: 66cf 5d3d 6d41 883b 732d ee3d fd2b 4a3c
00000110: 4de2 5cbd 5210 023e 454b 423e 2fa9 363d
00000120: 30a8 0abf 88d7 2f3e ea0b 193e f918 073e
00000130: 087a 99bc ea72 42bd 3f47 753d 1553 063e
00000140: 522a 523c 3df2 1c3e aad0 143d 78af 383e
00000150: bdab f73d ac79 1d3e 6bdf 07be 5387 baba
00000160: 27fe a53d cb43 423e 40af 95bc 073a fc3d
00000170: 337c 393d f74f 52bd 620f 463e 99e4 f13d
00000180: 6670 6a3e d748 023e df36 b13b bfae d43c
00000190: 6e3a 0b3e aae1 ecbc 2d4a d13d eaf4 adbd
000001a0: 0e90 efbc c547 f13d 5acf a53d ecf5 1f3e
000001b0: c46f c53d e1b0 efbd 9932 34be 22ee d53d
000001c0: eb6a 95bd 8bda f73d 58b0 8f3c ce2b a63d
000001d0: 63f0 b9bd 7155 17be ff17 de3c b6b1 0dbd
000001e0: b7a2 8f3d 3554 9dbd dc35 bc3c 4d89 afbd
000001f0: 7a5d 8b3d 8e4a b63c 20a2 183d ae0c 913e
00000200: 0070 063c f7b9 e8bd 098e bfbb 95fb b1bd
00000210: ac5d d13d 5aba 42be 5539 26be 2aec a3bd
00000220: 98be d73d f89a a4bd cfd2 993b afaf 94bd
00000230: cd14 cb3d e050 c1ba f2d9 273d f1af 1b3e
00000240: 5c2d 10be b426 24bd d8ea 11be 0cc4 eb3d
00000250: 16f3 a7bd ef3b 9ebc e11e ab3d e9d7 0a3e
00000260: b8e8 19be 71e9 abbd e7c6 28be 3788 34be
00000270: 54ce cebd 1aaa 873e b4bb a33d 1041 9bbd
00000280: 5415 d83d a256 1fbe 23a0 203e e93d ab3d
00000290: b39a ab3d d173 ef3e 2e29 a53e bdff afbd
000002a0: 2c73 d83e 7a0d b0bd 8ff9 b03e 2b2d 99be
000002b0: 5495 7f3e d7d4 303e 7374 00be 399e a03e
000002c0: 66b4 dbbe b86f 39be 6d26 f23e 062a ab3e
000002d0: 388f 993e 5425 cb3e 6aef 653e d4b6 003f
000002e0: 416b ba3e 4671 f13e cccb e93e e699 d63e
000002f0: 3a26 a93e 3d14 b83e 88d3 29be fc9b 843e
00000300: 4c1c 93be 9dc1 db3e b6ce ae3e c9d6 843e
00000310: a242 61be be47 09be 1aa0 763e c0e5 903e
00000320: ac82 7abe e155 7e3e a457 f53e 4af6 edbd
00000330: 9caf 853e 7ab2 483c 02ad e83e 81f7 963e
00000340: 4e7f b13e 7e68 a73e bd95 913e 3253 f7be
00000350: d97b 803e 47dd a6be 1f46 06be ddef f03e
00000360: f7c0 863e c953 8a3e f1ea b23e 878f 88be

lstm.weight_ih_l0_reverse f4 [220, 20]
-0.52511865 -0.14874072 -0.20203938 -0.2848147 -0.22921441 -0.0141533315 -0.30130354 0.14217487
-1.3224792 -1.0535364 0.051391885 -0.33637223 0.58318096 -0.6602366 -0.81277674 -0.13584271
-0.9535955 -0.9137422 0.26380673 0.2781367 -0.4106314 -1.3561773 0.72328675 0.24215235
-1.7963383 0.068602584 -0.64662266 0.85853577 -0.16261312 0.62253743 -0.089680664 -0.9689241
-0.08865549 -1.1215132 -0.1082525 -0.9298464 -0.13567519 0.8201191 0.992369 0.41155478
0.018644862 -1.1434216 0.25187358 -0.8906307 -0.072430365 0.057753317 0.31702167 -0.23892725
-0.3364448 -0.9324834 -0.62631035 -0.15292639 0.6286251 -0.1272324 -0.27169573 0.020994265
-0.80529594 -1.1859584 0.7468512 0.8128748 -0.9177943 -0.5995618 -0.50248945 -0.5977935
-0.87712353 -2.2190752 -0.9447261 -2.2890046 -0.3382203 -1.7105247 -0.53508 -1.0055623
1.1845797 -1.1806121 -0.62322026 -0.9157053 -0.6695426 -1.968033 -0.51057345 -1.3761132
-2.0343556 -1.321844 0.636086 0.77761716 -0.17389734 -1.8592956 -0.7006659 -1.8154888
-0.37337944 -1.6473244 -2.6349692 -1.6506193 -2.241669 -1.4132572 0.022639358 -1.8597647
-2.1818764 -2.1596937 0.04795195 0.6977111 -0.4111301 -0.86786205 -1.5905874 -0.56738865
-0.8152197 -0.60697645 0.7569814 0.8166307 -0.92088616 0.6880269 0.051490333 -1.4347178
1.2423431 -0.37174973 -0.9728707 -0.14450808 -0.22701493 0.3934741 0.1824848 0.6325242
-0.48628572 -0.5821129 -1.807496 -0.9056766 0.21664613 -1.6173242 0.32070956 -0.36338812
1.7676039 0.18677723 -0.6563161 -1.3093377 -0.39629063 -0.90575176 1.1663082 -0.8426249
-0.5050634 -0.9707811 0.1126471 -1.2777914 -0.1698095 -0.09302465 -0.06131477 -0.1536513
-0.09059223 0.26825354 -0.43081662 -1.0616784 0.2906743 -1.713042 -0.37873954 0.29777673
0.34297818 -0.51735985 0.715018 -0.041479494 0.071012035 -1.0311359 -0.5810443 0.2441975
0.2022685 1.5800269 -0.42059663 0.19074842 0.5878444 0.8087508 -1.0337555 1.1620171
-1.8657169 -0.34506744 0.71988225 -0.87821037 0.4668395 -0.76173985 -0.15653548 0.2775328
-0.34329775 0.19187051 1.4940751 -0.1624918 0.63722783 0.13751902 0.55027884 -0.32174167
-0.8404968 0.9239875 0.55456376 -1.6867146 -1.5187438 -1.0749801 -1.2480552 -0.09529273
-1.057396 -0.25588912 -1.2472606 0.45237547 0.04544727 -0.75824016 -0.43989462 -0.55675596
-1.9365258 -0.5089593 -0.3030396 0.69826317 0.4655373 -0.42642084 -1.8291104 -1.5058931
0.08152727 -0.44351888 -0.4731146 -1.2725549 1.662858 -0.872408 -0.6430461 -1.8073274
-0.7750539 -1.722892 0.86970395 -0.37614006 0.39898318 -0.5671779 -1.3378621 -3.30709
1.2056806 0.09729989 0.49246132 -0.2397361 0.13059752 -0.91730344 -0.32896882 -2.027382
-3.4733357 -0.95401275 0.64864534 -0.052131332 -0.59223425 -0.1143668 2.4755983 1.6756756
-0.462035 -0.5251609 0.9075264 0.71085125 -1.7117169 -0.29221055 -1.9180949 -0.052604936
-0.7763997 0.96817374 -0.29310617 -0.6951403 -0.45797816 -0.37485862 -1.1329423 0.41129804
00000000: 2d6e 06bf 7d4f 18be 69e3 4ebe 3bd3 91be
00000010: 2fb7 6abe 60e3 67bc 7544 9abe 4a96 113e
00000020: 0047 a9bf 48da 86bf 4c80 523d fb38 acbe
00000030: 594b 153f 4405 29bf 2312 50bf 5a1a 0bbe
00000040: d61e 74bf 02eb 69bf ad11 873e ef67 8e3e
00000050: 473e d2be 3897 adbf 5229 393f c9f6 773e
00000060: 6aee e5bf 837f 8c3d 1089 25bf 00c9 5b3f
00000070: 0e84 26be 9d5e 1f3f 7faa b7bd 690b 78bf
00000080: 0291 b5bd bf8d 8fbf 7db3 ddbd 6a0a 6ebf
00000090: 70ee 0abe 53f3 513f e50b 7e3f 4fb7 d23e
000000a0: 1cbd 983c a45b 92bf 93f5 803e 6000 64bf
000000b0: 5f56 94bd be8e 6c3d aa50 a23e 58a9 74be
000000c0: 7e42 acbe 3bb7 6ebf e055 20bf bc98 1cbe
000000d0: 93ed 203f 3649 02be b41b 8bbe 2afc ab3c
000000e0: e027 4ebf 7ccd 97bf a431 3f3f 9018 503f
000000f0: 91f4 6abf e27c 19bf 26a3 00bf ff08 19bf
00000100: 2b8b 60bf 5405 0ec0 92d9 71bf 0d7f 12c0
00000110: 362b adbe 79f2 dabf 01fb 08bf 44b6 80bf
00000120: 4fa0 973f 4c1e 97bf 5d8b 1fbf aa6b 6abf
00000130: 2567 2bbf 81e8 fbbf f1b4 02bf 7a24 b0bf
00000140: e232 02c0 2f32 a9bf 88d6 223f eb11 473f
00000150: 2512 32be 66fd edbf d75e 33bf f061 e8bf
00000160: 972b bfbe 87db d2bf 56a3 28c0 7e47 d3bf
00000170: 8177 0fc0 9de5 b4bf 2d76 b93c c50c eebf
00000180: dda3 0bc0 6c38 0ac0 4469 443d 329d 323f
00000190: a57f d2be 352c 5ebf 5e98 cbbf 6240 11bf
000001a0: 3db2 50bf cf62 1bbf 88c9 413f b60e 513f
000001b0: 32bf 6bbf 8822 303f 87e7 523d d5a4 b7bf
000001c0: 1905 9f3f fb55 bebe 0e0e 79bf edf9 13be
000001d0: 9a76 68be 7075 c93e 4cdd 3a3e 1bed 213f
000001e0: 71fa f8be 5a05 15bf 075c e7bf 6cda 67bf
000001f0: 7cd8 5d3e 7b04 cfbf 0b34 a43e 020e babe
00000200: d840 e23f 8842 3f3e 5504 28bf 6198 a7bf
00000210: 9be6 cabe 59df 67bf 9649 953f 44b6 57bf
00000220: d64b 01bf 1c85 78bf 86b3 e63d ab8e a3bf
00000230: 8be2 2dbe b583 bebd 3225 7bbd c456 1dbe
00000240: 6b88 b9bd 8758 893e ff93 dcbe 14e5 87bf
00000250: 43d3 943e f644 dbbf 26ea c1be 3176 983e
00000260: d69a af3e b271 04bf 6b0b 373f 67e6 29bd
00000270: c26e 913d 43fc 83bf 52bf 14bf e90e 7a3e
00000280: 791f 4f3e 523e ca3f 7158 d7be 8e53 433e
00000290: f87c 163f 4b0a 4f3f 1a52 84bf fabc 943f
000002a0: d0cf eebf aeac b0be 344a 383f 65d2 60bf
000002b0: 9605 ef3e 6201 43bf d64a 20be c718 8e3e
000002c0: b9c4 afbe b479 443e da3d bf3f 4064 26be
000002d0: 5d21 233f c9d1 0c3e 13df 0c3f 53bb a4be
000002e0: cc2a 57bf 728a 6c3f e4f7 0d3f 44e6 d7bf
000002f0: 3266 c2bf f398 89bf 46c0 9fbf d628 c3bd
00000300: c158 87bf e603 83be 3ca6 9fbf c29d e73e
00000310: eb26 3a3d 071c 42bf de39 e1be 8f87 0ebf
00000320: 14e0 f7bf 284b 02bf 0228 9bbe 60c1 323f
00000330: e85a ee3e d553 dabe 4a20 eabf 1bc1 c0bf
00000340: c5f7 a63d e814 e3be 143c f2be 14e3 a2bf
00000350: 88d8 d43f 2156 5fbf ab9e 24bf 8156 e7bf
00000360: ef69 46bf ba87 dcbf eba4 5e3f 6e95 c0be
00000370: 8647 cc3e 9232 11bf 113f abbf 5da7 53c0
00000380: be53 9a3f 2a45 c73d e423 fc3e 617d 75be
00000390: 5bbb 053e 66d4 6abf 9a6e a8be a0c0 01c0
000003a0: 224b 5ec0 2e3a 74bf 9f0d 263f aa87 55bd
000003b0: aa9c 17bf 2439 eabd 3470 1e40 8a7c d63f
000003c0: da8f ecbe f270 06bf a653 683f 59fa 353f
000003d0: 8a19 dbbf 9f9c 95be 2284 f5bf 4678 57bd
000003e0: 21c2 46bf 3cda 773f 0312 96be b7f4 31bf
000003f0: 1d7c eabe 78ed bfbe 4104 91bf a895 d23e

lstm.weight_hh_l0_reverse f4 [220, 55]
0.19340123 0.8877723 -0.4832033 0.32498586 -1.0487291 -0.95581186 -0.30751282 0.2236491
0.42201018 -0.6591352 -0.46203464 -0.02646761 0.103088945 0.2949452 -0.37746215 -0.7235753
0.09516319 0.26737177 0.20276608 -0.36999026 -0.5153857 0.20990507 -0.11275299 -0.40885407
0.6560012 -0.39280668 -0.7026374 -0.4418906 0.3268823 0.773622 0.51353014 0.2626018
-1.0304669 0.529981 -0.5940754 -0.23841217 1.114888 0.39935717 -0.5967827 0.22929989
-0.93344593 0.8022574 0.32755688 0.93602425 -0.19931017 -0.20873375 -0.13978513 1.1176411
0.98811215 -0.62929684 0.5251495 0.07041391 -1.2742387 0.45025954 0.47150946 0.21895878
-0.5265365 -0.3483476 -0.08437261 -0.5150205 -0.355158 -0.39865595 0.596007 -0.7105214
-0.5166629 -0.70767933 -0.7548666 -1.1512848 -1.4055976 -0.86527646 -0.49004185 -0.41662413
-0.7162388 0.4336149 -0.26084548 -0.24454102 0.7845582 0.940475 0.6386705 0.099007465
-0.12496375 0.18308575 -0.000107690474 0.0432462 -0.35882893 0.350019 0.1836628 -0.6864648
-0.5420157 -0.9403257 0.45200825 0.9282922 -0.68775874 0.335356 0.0139778545 0.15738617
0.12302121 -0.005409067 0.5344284 -0.48737356 0.24390845 1.0107018 0.3898874 -0.3754075
0.06735245 -0.025939729 0.692139 0.11385008 -0.2542968 0.9402476 0.33322093 -0.06837437
-0.66391766 -0.91140985 0.2557301 0.85271037 -0.4607686 0.41923067 -1.1021799 -0.5903345
-0.6703507 0.002995691 0.2770524 -0.49251777 0.029014012 0.013134877 0.3573012 0.69433695
-0.22648251 -0.11078141 -0.011176036 0.6321619 0.55474347 -0.36027044 -0.16842799 0.124733455
0.111467935 0.304432 0.6425363 -0.1108664 0.1559766 -0.025375364 0.5498304 -0.33547196
0.046895478 0.89339644 0.39566314 0.6382835 -0.24446763 -0.5169781 -0.11833926 0.12322457
-0.34357345 0.07673051 -0.9858211 0.66211194 0.30279925 0.5878881 -0.09417155 0.006078623
0.23782304 0.017672136 -0.89141315 0.41778085 -0.1443354 0.65134734 0.26226592 -0.6131232
0.21840334 -0.40566108 -1.0134413 -0.38360596 0.2292536 0.5460395 -0.77364075 -0.5670807
0.11180102 -0.42788073 0.12128155 -0.30145717 0.25940403 -0.80660266 0.36901137 0.3805763
-0.67279404 -0.4188558 0.5364265 -0.3525154 -0.50509167 0.31750098 -0.4978239 0.26534224
-0.0020504773 -0.14551622 0.6451283 0.594233 0.502344 -0.7379836 0.6136508 -0.18506722
-0.12735063 1.106798 0.35002837 -0.9380742 -0.043742202 -0.61825526 0.45627892 0.5087949
1.1032295 0.095431894 -0.4202374 -0.5815371 0.5537367 0.013343871 -0.63415205 0.43214774
-0.15238132 -1.1395595 0.46179384 0.44225422 -0.08118368 0.1006588 -0.51727 -0.6216289
-0.4411598 -0.32300913 -0.7103458 0.74608684 0.29248777 -0.7227872 0.25355828 -1.050627
-0.12975104 -0.41517 -0.3436499 0.38208622 0.40384468 0.7358872 0.66706103 -0.5958195
-0.2541569 0.13252085 -0.35895205 -0.3250679 0.6139852 -0.29923448 -0.09757354 -0.42141077
0.5077137 -0.12085935 0.42713237 0.6149635 -0.38340595 0.16515464 -0.66271806 0.01819308
00000000: f90a 463e 0c45 633f 6c66 f7be 8c64 a63e
00000010: c13c 86bf 16b0 74bf 5272 9dbe 4504 653e
00000020: b811 d83e 16bd 28bf ce8f ecbe 9ad2 d8bc
00000030: 4c20 d33d 0f03 973e b842 c1be 3b3c 39bf
00000040: ebe4 c23d f4e4 883e e9a1 4f3e 5d6f bdbe
00000050: 51f0 03bf 5bf1 563e 0aeb e6bd 5255 d1be
00000060: b2ef 273f f51d c9be 0be0 33bf 7c3f e2be
00000070: 1e5d a73e 170c 463f b676 033f be73 863e
00000080: 57e6 83bf d6ac 073f 5315 18bf 5222 74be
00000090: a6b4 8e3f 8b78 cc3e c0c6 18bf 97cd 6a3e
000000a0: 50f6 6ebf be60 4d3f 89b5 a73e 499f 6f3f
000000b0: f717 4cbe 4dbe 55be d523 0fbe dd0e 8f3f
000000c0: ebf4 7c3f 9919 21bf 3370 063f 2b35 903d
000000d0: 411a a3bf 6b88 e63e b069 f13e bb36 603e
000000e0: 19cb 06bf 9e5a b2be 8ccb acbd 62d8 03bf
000000f0: 45d7 b5be a21c ccbe ea93 183f bbe4 35bf
00000100: 0544 04bf 792a 35bf f03e 41bf 4d5d 93bf
00000110: 9fea b3bf c282 5dbf c4e6 fabe c24f d5be
00000120: 6d5b 37bf c602 de3e 8a8d 85be f668 7abe
00000130: ced8 483f f8c2 703f e97f 233f 6dc4 ca3d
00000140: ffec ffbd d57a 3b3e e2d7 e1b8 ed22 313d
00000150: 6db8 b7be b135 b33e 1a12 3c3e 28bc 2fbf
00000160: 8ac1 0abf 2fb9 70bf a06d e73e 8fa4 6d3f
00000170: f510 30bf c8b3 ab3e 5f03 653c d729 213e
00000180: 8bf2 fb3d 8b3e b1bb 4dd0 083f 0789 f9be
00000190: 23c3 793e ad5e 813f 529f c73e 6935 c0be
000001a0: 15f0 893d 8e7f d4bc 0630 313f 3b2a e93d
000001b0: 3133 82be 11b4 703f ef9b aa3e dd07 8cbd
000001c0: 82f6 29bf 2852 69bf 0eef 823e 3a4b 5a3f
000001d0: dde9 ebbe 67a5 d63e 3b14 8dbf 2920 17bf
000001e0: 1a9c 2bbf 5b53 443b d0d9 8d3e 4a2b fcbe
000001f0: cbae ed3c ab33 573c 2ff0 b63e 11c0 313f
00000200: 08eb 67be 5de1 e2bd b11b 37bc 5dd5 213f
00000210: ab03 0e3f 5e75 b8be 6378 2cbe 4174 ff3d
00000220: 4d49 e43d 83de 9b3e 427d 243f ec0d e3bd
00000230: 54b8 1f3e ffdf cfbc afc1 0c3f fbc2 abbe
00000240: 7915 403d a1b5 643f 5c94 ca3e 8c66 233f
00000250: b955 7abe ad58 04bf db5b f2bd 2a5d fc3d
00000260: dce8 afbe e324 9d3d c65e 7cbf 2b80 293f
00000270: 8108 9b3e d67f 163f 03dd c0bd 2f2f c73b
00000280: e287 733e 28c5 903c a733 64bf 5fe7 d53e
00000290: a9cc 13be b3be 263f b847 863e a4f5 1cbf
000002a0: 20a5 5f3e cfb2 cfbe 72b8 81bf 0068 c4be
000002b0: 75c1 6a3e 3fc9 0b3f 520d 46bf 332c 11bf
000002c0: eff7 e43d 2f13 dbbe 7662 f83d 9858 9abe
000002d0: 9bd0 843e 837d 4ebf 0fef bc3e e6da c23e
000002e0: 3b3c 2cbf 4474 d6be 3f53 093f e67c b4be
000002f0: b04d 01bf 7d8f a23e c6e2 febe f0da 873e
00000300: 4d61 06bb 3402 15be 2127 253f a71f 183f
00000310: 9e99 003f 7eec 3cbf 3818 1d3f 4382 3dbe
00000320: 3468 02be 8fab 8d3f eb36 b33e a125 70bf
00000330: 062b 33bd fa45 1ebf 649d e93e 6240 023f
00000340: a036 8d3f cc71 c33d 5b29 d7be 9edf 14bf
00000350: b0c1 0d3f 40a0 5a3c ca57 22bf 7842 dd3e
00000360: d909 1cbe 16dd 91bf 3e70 ec3e 256f e23e
00000370: a143 a6bd 3326 ce3d cf6b 04bf 1223 1fbf
00000380: b3df e1be 7461 a5be 39d9 35bf 8cff 3e3f
00000390: f5c0 953e 9508 39bf 64d2 813e f27a 86bf
000003a0: 75dd 04be 2a91 d4be e1f2 afbe cea0 c33e
000003b0: bbc4 ce3e 1b63 3c3f 83c4 2a3f a087 18bf
000003c0: da20 82be 8cb3 073e 90c8 b7be 4d6f a6be
000003d0: 222e 1d3f 4335 99be a3d4 c7bd 27c3 d7be
000003e0: 86f9 013f 1b85 f7bd 18b1 da3e 3f6e 1d3f
000003f0: c94d c4be 4c1e 293e e4a7 29bf a709 953c

lstm.bias_ih_l0_reverse f4 [220]
-0.6140364 -0.112430826 -0.17493233 -0.6441974 -0.6514053 -0.35713652 -0.5283089 -0.5080137
-0.35517022 -0.20132029 -0.29818377 -0.51896584 -0.47371325 -0.60940045 -0.65870196 -0.92375106
-0.45292953 0.005057315 -0.4902969 -0.52796185 -0.19917764 -0.45683601 -0.24666312 -0.46059325
-0.2054986 0.49568462 -0.9667295 -0.8887195 -0.5542846 -0.13129011 -0.12813716 -0.52424777
-0.35872355 0.41999206 0.007516645 -0.8151552 -0.26603264 0.023667278 -0.5699248 -0.5129493
0.6061031 0.42399278 -0.25982517 -0.51918364 -0.61446506 0.20470159 -0.5721128 -0.31437385
-0.36305168 -0.17674668 2.0712588 -0.60763234 -0.9453353 -0.07511595 -0.6393388 0.45078495
0.037091374 0.43112367 0.4964031 0.018056436 0.3316935 0.5101809 0.24987136 -0.09341167
0.40968823 -0.23552899 -0.005410496 -0.04453822 0.26913965 0.31287134 0.34327444 0.3000502
-0.065187484 0.48320135 0.43084484 -0.019873653 0.21823949 0.2462356 0.45051008 0.13132952
0.727683 0.28115463 0.8317834 0.12901576 -0.168459 0.10809528 0.4539149 0.39595366
0.2917696 0.3452894 0.40838966 0.29418603 -0.24964178 0.51838744 0.5173733 0.89795953
0.66677 0.36133757 0.7659336 0.5287389 0.19598837 0.2324808 0.29409647 0.124200605
-0.10965764 0.892474 0.42093843 0.09754105 -0.107837625 0.7669519 0.124281086 -0.36734608
0.08050405 0.38817528 0.3889697 0.21566726 0.123941645 0.116046466 -0.020183211 0.1890226
-0.20764995 -0.17089947 0.19922999 -0.094386905 0.39734247 0.0466036 -0.077987716 -0.576469
0.032020714 0.23529112 0.03427083 -0.17767496 0.062883735 -0.20879976 -0.08206996 -0.2551791
-0.005751638 0.09113398 0.17101908 -0.24045141 0.005443162 -0.017588101 0.106587596 -0.30524313
-0.14221315 0.0109036025 -0.23689783 0.07761675 -0.16588098 -0.07168166 -0.16696802 0.0005563153
-0.034848765 0.15706742 -0.1984601 -0.095071495 0.14201485 -0.09012792 0.010506956 0.09673471
-1.1232997 -0.06328185 0.067197986 -0.27438387 0.0699045 0.29269633 -0.08554238 0.19629243
0.07297897 0.06432193 -0.009126465 0.00410164 -0.1114085 0.064988546 0.33838984 -0.17190115
0.0278463 -0.18598962 -0.04518076 0.022042869 -0.22955218 0.13630639 -0.02589974 -0.060571257
-0.07355719 -0.05114223 0.2502611 -0.225099 0.36056438 -0.20374437 -0.38595402 0.04328338
0.49013525 -0.2038806 -0.09827591 0.00024871025 -0.23577878 -0.21711092 -0.13801411 0.056000035
0.11947073 -0.2260177 0.02032426 0.051888477 0.49024406 -0.16781728 -0.022093646 0.010504276
-0.01013137 -0.15482245 -0.08410331 -0.27600333 0.06424218 -0.0968992 -0.1762198 -0.26754576
0.12620628 -0.3206575 -0.19949387 0.42781577
00000000: 7d31 1dbf 2242 e6bd 7621 33be 1fea 24bf
00000010: 7fc2 26bf 99da b6be 413f 07bf 300d 02bf
00000020: dfd8 b5be e826 4ebe 8bab 98be f2da 04bf
00000030: 8b8a f2be ab01 1cbf b1a0 28bf f37a 6cbf
00000040: 61e6 e7be d5b7 a53b 3208 fbbe 8228 07bf
00000050: 39f5 4bbe 69e6 e9be 4295 7cbe e1d2 ebbe
00000060: 3a6e 52be 60ca fd3e 967b 77bf 1f83 63bf
00000070: 98e5 0dbf ea70 06be 6336 03be 1a35 06bf
00000080: 9daa b7be 3309 d73e 304e f63b 03ae 50bf
00000090: 6e35 88be e1e1 c13c 97e6 11bf a550 03bf
000000a0: 9329 1b3f 9515 d93e ce07 85be 38e9 04bf
000000b0: 954d 1dbf 4b9d 513e fc75 12bf 9cf5 a0be
000000c0: e9e1 b9be 15fd 34be 818f 0440 cb8d 1bbf
000000d0: 7f01 72bf 64d6 99bd b5ab 23bf 49cd e63e
000000e0: 20ed 173d 3ebc dc3e 8c28 fe3e 17eb 933c
000000f0: bbd3 a93e 379b 023f 47de 7f3e 9e4e bfbd
00000100: a8c2 d13e 832e 71be 884a b1bb b56d 36bd
00000110: accc 893e ac30 a03e abc1 af3e 2ea0 993e
00000120: 0481 85bd 2b66 f73e b297 dc3e 12ce a2bc
00000130: 2c7a 5f3e 2f25 7c3e 42a9 e63e 3f7b 063e
00000140: 6f49 3a3f 80f3 8f3e c2ef 543f b51c 043e
00000150: 8480 2cbe 0f61 dd3d 8967 e83e 70ba ca3e
00000160: d362 953e c6c9 b03e 7318 d13e 8d9f 963e
00000170: 18a2 7fbe 0ab5 043f 9472 043f ade0 653f
00000180: 70b1 2a3f 3d01 b93e 3914 443f 6f5b 073f
00000190: 2db1 483e 720f 6e3e d093 963e e35c fe3d
000001a0: 2f94 e0bd 2d79 643f 3e85 d73e 9ac3 c73d
000001b0: f9d9 dcbd f656 443f 1587 fe3d c914 bcbe
000001c0: 4fdf a43d e9be c63e 0927 c73e e1d7 5c3e
000001d0: 1ed5 fd3d c5a9 ed3d 4357 a5bc 248f 413e
000001e0: 30a2 54be 4500 2fbe f202 4c3e ec4d c1bd
000001f0: 7970 cb3e 6be3 3e3d 06b8 9fbd 7993 13bf
00000200: 2728 033d 28f0 703e 925f 0c3d 6df0 35be
00000210: 30c9 803d 9bcf 55be 4c14 a8bd d6a6 82be
00000220: 3d78 bcbb 74a4 ba3d a01f 2f3e e538 76be
00000230: 8d5c b23b ec14 90bc 994a da3d d448 9cbe
00000240: 53a0 11be 06a5 323c 5895 72be 88f5 9e3d
00000250: b4dc 29be d6cd 92bd aaf9 2abe b0d5 113a
00000260: 94bd 0ebd 48d6 203e 2039 4bbe d8b4 c2bd
00000270: 576c 113e fd94 b8bd 5e25 2c3c d91c c63d
00000280: 49c8 8fbf ea99 81bd 199f 893d 0b7c 8cbe
00000290: 172a 8f3d 4bdc 953e d830 afbd e200 493e
000002a0: 0076 953d 37bb 833d 2b87 15bc 0d67 863b
000002b0: 242a e4bd b718 853d 6f41 ad3e db06 30be
000002c0: ec1d e43c 1074 3ebe 760f 39bd 3f93 b43c
000002d0: ba0f 6bbe e793 0b3e b12b d4bc 9119 78bd
000002e0: 27a5 96bd 847a 51bd 3922 803e 5a80 66be
000002f0: e59b b83e 5da2 50be c49b c5be ea49 313d
00000300: 02f3 fa3e 13c6 50be e144 c9bd 5365 8239
00000310: fe6f 71be 5352 5ebe 9253 0dbe 4b60 653d
00000320: 12ad f43d 2f71 67be 107f a63c 0389 543d
00000330: 4501 fb3e 4bd8 2bbe bcfd b4bc 201a 2c3c
00000340: 0cfe 25bc c789 1ebe 5b3e acbd 4f50 8dbe
00000350: 6791 833d 1673 c6bd f772 34be c2fb 88be
00000360: 383c 013e 382d a4be 1f48 4cbe ab0a db3e

lstm.bias_hh_l0_reverse f4 [220]
-0.68181705 -0.14751628 -0.2970823 -0.740866 -0.7813932 -0.3742042 -0.62096816 -0.4536731
-0.20797016 -0.04723073 -0.5005627 -0.39129287 -0.47292703 -0.70706135 -0.56712854 -0.89619756
-0.55173016 -0.033514768 -0.42738757 -0.66593343 -0.22727717 -0.3688532 -0.46982288 -0.5161111
-0.22018339 0.56011003 -0.85311925 -0.7840062 -0.4556571 0.0401692 0.0044767093 -0.36030364
-0.1368428 0.3755635 -0.055224933 -0.83343136 -0.30273795 0.103798054 -0.70840836 -0.617326
0.6444027 0.60676813 -0.100420155 -0.36342484 -0.6572406 0.23532274 -0.817745 -0.23250341
-0.4311908 -0.061894104 2.2564301 -0.6923022 -0.9000261 -0.0048853024 -0.72185403 0.26159403
0.09046986 0.22545393 0.47492036 0.15092637 0.35723737 0.5098672 0.23389831 0.096556336
0.46948385 -0.011246103 -0.03893926 0.014435381 0.25892502 0.44566026 0.3961337 0.3299241
0.016721833 0.44660008 0.4734289 0.03477723 0.37055704 0.30516985 0.67065716 0.29926002
0.67934495 0.26791906 0.63500583 0.2181204 -0.1369894 0.1319872 0.2620622 0.22378354
0.13095573 0.44775057 0.30607405 0.07075972 -0.3042421 0.45990247 0.43097702 1.1107347
0.69781554 0.19886878 0.6702169 0.3051947 0.27210212 0.29777342 0.15776803 0.14346099
-0.024219375 0.709887 0.42029953 -0.06800572 -0.109548144 0.69492614 0.0829807 -0.2871788
0.15496378 0.238073 0.5637065 0.30319577 -0.09240412 -0.027942643 -0.102064684 0.25035638
-0.26917413 -0.03859548 0.1564331 -0.09172341 0.41400093 0.072080776 0.083508596 -0.4731616
-0.04390466 0.0829335 -0.10935777 -0.14688098 0.18845835 -0.314739 0.042076867 -0.34261435
-0.03251991 0.033241253 0.17122816 -0.15681025 0.076385245 -0.14796132 0.30805886 -0.2574732
0.028479263 -0.076222844 -0.4394419 -0.111813195 -0.30767888 -0.016078882 -0.26122847 -0.09963012
-0.07758105 0.01619661 -0.14602898 -0.22372296 0.02242288 -0.14451936 -0.16538416 0.0122320475
-1.079751 0.10772915 0.03134953 -0.30007112 -0.11709706 0.10833187 -0.20655295 0.26278433
0.043038666 0.13613445 -0.037461378 -0.06706612 0.018755067 -0.068436176 0.20695081 -0.26036796
-0.1283924 -0.13641384 0.042536013 0.117765 -0.036908496 -0.054870695 0.1598867 0.09702883
-0.09289334 0.028153976 0.29549468 -0.14127478 0.3826027 -0.053147692 -0.15158832 -0.15031281
0.5499269 -0.37357494 0.0031567535 0.07476626 -0.14944038 -0.15316215 -0.11019449 0.001112453
0.09693971 -0.11351628 0.17759538 -0.052252617 0.32889637 -0.23666891 0.1226697 -0.03524406
-0.12906434 -0.28353038 -0.280572 -0.023579745 -0.17080393 -0.21144561 -0.33084813 -0.17256998
0.0818651 -0.27756363 -0.049678616 0.56451607
00000000: 908b 2ebf 820e 17be 2c1b 98be 65a9 3dbf
00000010: 6209 48bf b197 bfbe c5f7 1ebf d747 e8be
00000020: 21f6 54be 0375 41bd e124 00bf 8a57 c8be
00000030: 7e23 f2be f901 35bf 562f 11bf 346d 65bf
00000040: 303e 0dbf c846 09bd 8bd2 dabe 9d7a 2abf
00000050: 59bb 68be 54da bcbe a08c f0be db1f 04bf
00000060: c177 61be 5f63 0f3f 0666 5abf a1b4 48bf
00000070: e34b e9be 7688 243d 5cb1 923b b879 b8be
00000080: 8520 0cbe dc49 c03e 8a33 62bd c25b 55bf
00000090: 7800 9bbe 1394 d43d 405a 35bf 1409 1ebf
000000a0: 93f7 243f 2855 1b3f 15a9 cdbd d212 babe
000000b0: ec40 28bf 72f8 703e bc57 51bf 6015 6ebe
000000c0: 0ac5 dcbe ac84 7dbd 5a69 1040 b83a 31bf
000000d0: 1c68 66bf e314 a0bb 6dcb 38bf a7ef 853e
000000e0: 4348 b93d 65dd 663e c328 f33e 718c 1a3e
000000f0: d1e7 b63e a886 023f 0a83 6f3e 54bf c53d
00000100: 3060 f03e 9341 38bc c67e 1fbd 6082 6c3c
00000110: d291 843e 952d e43e 09d2 ca3e d0eb a83e
00000120: 3afc 883c c4a8 e43e 4665 f23e 9272 0e3d
00000130: a7b9 bd3e 393f 9c3e 30b0 2b3f 9c38 993e
00000140: 8de9 2d3f b02c 893e be8f 223f f45a 5f3e
00000150: f346 0cbe a727 073e 042d 863e 8327 653e
00000160: 4219 063e 903f e53e bdb5 9c3e 79ea 903d
00000170: 9fc5 9bbe 5678 eb3e 05a9 dc3e 8e2c 8e3f
00000180: 0aa4 323f 42a4 4b3e 5693 2b3f 7b42 9c3e
00000190: f850 8b3e c275 983e f18d 213e 70e7 123e
000001a0: b667 c6bc 28bb 353f 8031 d73e 9546 8bbd
000001b0: c75a e0bd aee6 313f c9f1 a93d 1a09 93be
000001c0: d3ae 1e3e 69c9 733e 124f 103f 7a3c 9b3e
000001d0: 5f3e bdbd f8e7 e4bc 4a07 d1bd b62e 803e
000001e0: 31d1 89be 4b16 1ebd 0030 203e 7cd9 bbbd
000001f0: eef7 d33e 169f 933d 8e06 ab3d 3d42 f2be
00000200: 5fd5 33bd 0ad9 a93d f7f6 dfbd f867 16be
00000210: 3afb 403e 7825 a1be cb58 2c3d 266b afbe
00000220: 9933 05bd fb27 083d 6f56 2f3e de92 20be
00000230: de6f 9c3d 2c83 17be e4b9 9d3e 87d3 83be
00000240: 584d e93c b91a 9cbd 87fe e0be 51fe e4bd
00000250: 1688 9dbe dcb7 83bc bdbf 85be e00a ccbd
00000260: d0e2 9ebd c1ae 843c 9f88 15be a217 65be
00000270: 30b0 b73c e2fc 13be 775a 29be ed68 483c
00000280: 4835 8abf 1aa1 dc3d 5d68 003d eca2 99be
00000290: 95d0 efbd 19dd dd3d 9e82 53be ab8b 863e
000002a0: 5049 303d d466 0b3e 1a71 19bd f659 89bd
000002b0: 3aa4 993c 4428 8cbd eaea 533e f34e 85be
000002c0: 4c79 03be 12b0 0bbe 3e3a 2e3d c72e f13d
000002d0: 5d2d 17bd 18c0 60bd 57b9 233e 0db7 c63d
000002e0: dd3e bebd 2ba3 e63c 144b 973e 56aa 10be
000002f0: 80e4 c33e 65b1 59bd f839 1bbe 9aeb 19be
00000300: 02c8 0c3f 3745 bfbe 89e1 4e3b 0e1f 993d
00000310: e606 19be 8ad6 1cbe a6ad e1bd bbcf 913a
00000320: 5488 c63d 397b e8bd 90db 353e d706 56bd
00000330: 1b65 a83e 5659 72be 403a fb3d 135c 10bd
00000340: 7129 04be e52a 91be 22a7 8fbe 4f2a c1bc
00000350: 3ae7 2ebe 3385 58be ed64 a9be 2fb6 30be
00000360: e4a8 a73d d21c 8ebe ce7b 4bbd 2084 103f

fc.weight f4 [1, 110]
-0.15369892 0.166384 0.0005460957 0.12309779 -0.0026686909 0.17160863 -0.015016815 -0.123242795
-0.08827592 -0.0007867516 -0.17927638 -0.09609198 0.113315836 -0.14867494 0.1230015 -0.10620091
0.109893546 0.0952474 0.16203326 -0.110883206 -0.18707035 -0.18519647 0.17479673 -0.13196224
-0.10100279 0.0001698824 0.09711759 0.0010342594 -0.10866987 -0.15565619 0.14489174 -0.0013443185
0.0008260504 0.11016421 -0.11827925 -0.0011611457 -0.15777802 0.14800604 -0.0018656381 -0.16709599
-0.0968652 0.1647917 -0.17694992 0.1668374 -0.17158106 -0.15672322 -0.0009072088 0.1318782
-0.0010218184 -0.0032857857 0.12555687 -0.13426913 0.14692183 0.1335382 -0.0028094416 -0.056022022
-0.15413204 0.2987135 -0.3609653 -0.47061986 -0.6016939 0.19933268 -0.3395151 -0.0763314
-0.01596152 -0.38731125 0.15108652 -0.041265223 0.555119 -0.5697042 -1.1270531 0.05603785
-0.26686403 -0.40082365 0.12216583 0.106052354 -0.6737866 0.057181545 0.53947264 -0.025792059
-0.011983101 -1.2746909 0.9091237 -0.18467064 -0.07377725 -0.20922744 -0.33374652 0.14817362
-0.15213001 0.19435704 1.0209936 0.028165648 -0.06157259 -0.41040117 -0.9892851 0.10524076
-0.11134669 0.16365412 -0.13094085 -0.071058474 0.09969275 -0.5694725 -0.13951308 -0.100445464
0.23350894 -0.019831479 -1.3719395 -0.88052326 -0.4095436 0.27759525
00000000: 4063 1dbe 9160 2a3e dd27 0f3a b21a fc3d
00000010: 34e5 2ebb 2cba 2f3e 1609 76bc b866 fcbd
00000020: 01ca b4bd 023e 4eba 3a94 37be dfcb c4bd
00000030: 2212 e83d 3e3e 18be 36e8 fb3d dd7f d9bd
00000040: de0f e13d 1211 c33d 0cec 253e bc16 e3bd
00000050: 5f8f 3fbe 25a4 3dbe eafd 323e 1c21 07be
00000060: 8dda cebd 7622 3239 96e5 c63d fd8f 873a
00000070: 4f8e debd 5664 1fbe 805e 143e d833 b0ba
00000080: 4e8b 583a c69d e13d 643c f2bd 9631 98ba
00000090: 9090 21be e58e 173e 6d88 f4ba 361b 2bbe
000000a0: 4361 c6bd 28bf 283e 5c32 35be 6cd7 2a3e
000000b0: f2b2 2fbe 0d7c 20be c1d1 6dba 140b 073e
000000c0: 89ee 85ba 5656 57bb fb91 003e d97d 09be
000000d0: ad72 163e 3dbe 083e 9c1e 38bb 5977 65bd
000000e0: cad4 1dbe faf0 983e 72d0 b8be 16f5 f0be
000000f0: 9d08 1abf de1d 4c3e ecd4 adbe a353 9cbd
00000100: bcc1 82bc a94d c6be 6db6 1a3e b905 29bd
00000110: 471c 0e3f 22d8 11bf 4743 90bf f287 653d
00000120: 67a2 88be c238 cdbe 1432 fa3d fa31 d93d
00000130: 477d 2cbf 3237 6a3d e11a 0a3f de49 d3bc
00000140: c554 44bc 1229 a3bf 55bc 683f 4d1a 3dbe
00000150: 8718 97bd b83f 56be d3e0 aabe d3ba 173e
00000160: f8c7 1bbe 8805 473e ebaf 823f a5bb e63c
00000170: 8a33 7cbd 1a20 d2be ca41 7dbf 7888 d73d
00000180: bc09 e4bd f294 273e 5c15 06be 1b87 91bd
00000190: b62b cc3d f3c8 11bf 84dc 0ebe 5ab6 cdbd
000001a0: f81c 6f3e a075 a2bc b79b afbf f969 61bf
000001b0: b3af d1be f720 8e3e
