sparrow/data/networks/transactivation_domains/tad_predictor_network_v1.pt (torch, 23690 bytes, 18 tensors)

lstm.weight_ih_l0 f4 [40, 20]
000000 58 9a ed 3e 9e be 07 be 4b 28 fb bd 0f 7d e7 be
       0.46406817 -0.13256308 -0.12263545 -0.452126
000010 3a 98 a7 3e a0 97 80 be 2f 5f 18 be 76 30 70 3f
       0.32733327 -0.2511568 -0.1488006 0.93823946
000020 b6 ec 7f be 4e 0c 55 3f 6b 81 cd 3d aa 3a b4 be
       -0.24992642 0.832219 0.1003445 -0.35201007
000030 76 02 4e 3e 7d df 30 bf f3 ad 47 bf e6 ea 0c 3c
       0.20118126 -0.69091016 -0.779998 0.008600926
000040 0e 01 d4 be 8e c5 85 3e 4b ac 37 bf 19 53 22 3e
       -0.41407055 0.26127285 -0.71747273 0.15852012
000050 8b e3 5a 3d b3 ca 3e 3e 02 58 1f bf 2e 6f a3 be
       0.053439658 0.18632011 -0.62243664 -0.3192076
000060 b8 d6 59 3f c8 53 2d be c3 f9 be be 5d 3d 5a 3e
       0.8509326 -0.16926491 -0.37299928 0.2131247
000070 9f 45 18 bf 08 f7 45 be 12 3a 13 be d4 a7 9e be
       -0.59481233 -0.19332516 -0.14377621 -0.30987418
000080 d0 82 ce 3e ff b8 9f be 65 ad 64 bf ad 67 c6 3c
       0.40334177 -0.31195828 -0.8932708 0.024219358
000090 60 66 5e be a2 45 9e 3e 78 f2 18 3f f1 33 bc 3d
       -0.2171874 0.309125 0.5974498 0.091895945
0000a0 92 af c4 be 2a 0c 5c be b8 05 4d bf 26 09 50 be
       -0.384152 -0.21489015 -0.8008685 -0.2031599
0000b0 4d b2 e8 3e 34 ea 83 be 04 71 ea bc 32 2c 04 3f
       0.45448533 -0.2576462 -0.028618343 0.51629937
0000c0 87 a5 9d be 07 68 62 3f 43 ef 75 be 27 64 dc 3e
       -0.3079035 0.88439983 -0.24017052 0.4304516
0000d0 a1 dc 8d 3e 7a 9c 17 3c 90 60 b4 be 36 c8 9a be
       0.2770739 0.0092536155 -0.3522992 -0.30230874
0000e0 e2 cc 85 bf de 9b 1f 3f a5 1d ab 3f 33 a4 39 bd
       -1.045315 0.6234721 1.3368422 -0.04532261
0000f0 12 13 94 3c 98 08 b4 3e 23 7f 82 be 73 e9 64 bf
       0.0180755 0.35162807 -0.25487623 -0.89418715
000100 f8 18 be bc df 33 f8 bd 3d 1c 5f bd 60 07 f7 bd
       -0.023205265 -0.121192686 -0.05447029 -0.120619535
000110 06 1d 8a bd ab 12 1f be 17 bb a6 be f3 10 35 3e
       -0.06743817 -0.15534465 -0.32564613 0.17682247
000120 48 ae 2b 3f c6 22 ef bd 0e 9e 9c bd 0d 99 0c bf
       0.6706281 -0.116765544 -0.07647334 -0.54921037
000130 5c cf 2b 3e 54 75 93 3e 36 06 e8 be 81 98 1a be
       0.1677832 0.28800452 -0.4531724 -0.15097238
000140 da 3a bb be 4d 53 1e 3f 5d 54 09 be de f9 18 3f
       -0.36568338 0.61845857 -0.13411088 0.5975627
000150 cf 9f c6 be 68 71 28 bf f0 9e b2 3e 42 93 19 3f
       -0.387938 -0.65798044 0.34886885 0.5999032
000160 ed 29 02 3f 3f 7f ff be 3f de 9a 3e a6 e5 11 3f
       0.50845224 -0.4990177 0.30247685 0.5699104
000170 e0 55 72 3f 9c 34 39 3f ca fd b5 3e 1e b7 f3 3d
       0.94662285 0.723459 0.35545188 0.11900161
000180 f4 a5 04 be 70 14 39 3e e4 88 e0 3e 96 a4 17 3e
       -0.12953931 0.18074203 0.4385444 0.14808878
000190 80 ec 16 bf b3 53 93 3e b0 04 0d 3e 4b 4a d3 3e
       -0.5895462 0.28774795 0.1377132 0.4126762
0001a0 fc ed 04 bf 43 3b 01 3e 99 45 43 be 40 15 c0 3e
       -0.51925635 0.12620263 -0.19069518 0.37516212
0001b0 21 b9 88 3f e7 81 cc 3c 06 99 c7 3d 5a c5 4b 3e
       1.0681497 0.024964286 0.09745984 0.19899502
0001c0 c3 42 a0 bf ee 1e 2c be 9e 86 49 3f 14 eb 4e 3e
       -1.2520374 -0.16808674 0.78721035 0.20206863
0001d0 39 c4 d0 be 0c 52 be be cc 83 18 bf a3 02 39 3b
       -0.40774706 -0.37171972 -0.59576106 0.0028230331
0001e0 19 93 ec 3e 2c 84 33 3f d3 f1 06 be 29 3a 88 3f
       0.46205977 0.70123553 -0.13178186 1.0642749
0001f0 90 8c bd be 4e 89 01 be 34 97 ad bc 1d 43 92 3e
       -0.37021303 -0.12650034 -0.021190263 0.28566828
000200 27 1c 64 3f 24 e1 66 be 0a 70 ba bc 02 37 8c 3e
       0.8910546 -0.22546822 -0.022758503 0.27385718
000210 f7 f2 55 bc d8 a9 d5 3e 9a 49 b8 3e 38 62 d6 be
       -0.013058416 0.41731143 0.35993654 -0.4187181
000220 47 19 56 3e b4 29 48 3e b3 ba da bb 3f 85 87 3f
       0.2090808 0.19547158 -0.0066750883 1.0587538
000230 32 57 0f 3e 50 1e f6 be c9 73 87 3e 69 23 2d bd
       0.13998106 -0.48070002 0.26455525 -0.042270098
000240 ea ae 08 3e 86 42 71 3e bf 17 6a be c6 e7 85 be
       0.13347974 0.23560533 -0.22860621 -0.26153392
000250 5a b0 b5 3e d8 1f 80 3d 16 e9 77 3e 12 54 c6 3e
       0.35486108 0.06256074 0.24210009 0.38736016
000260 71 b9 c7 be 21 55 40 be db f2 0c 3f cb 93 a6 3e
       -0.39008668 -0.18782474 0.5505807 0.32534632
000270 57 2d b1 3c 24 e4 ac be d5 b8 d4 bd 22 47 c0 be
       0.021628065 -0.33767807 -0.103868164 -0.3755427
000280 a0 54 14 3f 96 c0 9d bc 32 95 d8 3e 05 bb f8 3e
       0.5794163 -0.019256871 0.42301327 0.48580185
000290 b2 1d ea 3d 29 db 2d bf 14 da e5 be 38 b9 e5 3e
       0.11431445 -0.67912537 -0.44892943 0.44867873
0002a0 02 a2 fe be 72 fd 96 3e 08 68 64 3f e1 64 4a bf
       -0.49732977 0.29490238 0.8922124 -0.7906018
0002b0 f3 b2 f9 be 79 60 8c 3e d6 f1 65 3e 1e 9d d0 3d
       -0.4876934 0.27417353 0.22455534 0.10186218
0002c0 2d de 3a 3f b4 36 bf 3e 6e 0a a0 3e b4 3f 58 bd
       0.72995263 0.37346423 0.31257957 -0.052795127
0002d0 10 9b 8d 3e c5 20 cf bd de 7c 05 3f 3f ed b3 3d
       0.27657366 -0.10113672 0.5214366 0.087854855
0002e0 b5 52 10 bf d3 64 74 be 59 91 67 3e 68 cd 22 3d
       -0.563762 -0.23866586 0.2261404 0.039746672
0002f0 f0 2e 24 3f 10 d3 1f be 9e e5 6d bf e4 b5 ae 3e
       0.6413412 -0.15607858 -0.92928493 0.34123147
000300 80 20 6c 3e 21 97 c6 3e 0c 5e 80 3e 94 b8 26 3e
       0.23059273 0.38787177 0.25071752 0.16281348
000310 27 72 11 3e 4a 25 db be 10 73 c4 bd 69 fa 77 be
       0.14203702 -0.42801887 -0.09592259 -0.24216618
000320 18 11 0a 3e 1c a5 eb 3e 57 57 23 3f 05 d6 dc bd
       0.13483083 0.46024406 0.63805145 -0.107830085
000330 ae cb e8 3e d7 2b 90 3e a4 42 fb bd 58 60 18 3b
       0.45467895 0.28158447 -0.1226857 0.0023250785
000340 65 50 90 be 60 49 58 bf eb 12 bd be 77 b3 da bd
       -0.28186336 -0.8448696 -0.36928496 -0.106787615
000350 88 68 f5 3d 44 f3 1a bd 7b 34 0f 3e 8c b5 b2 bc
       0.119828284 -0.037829652 0.13984863 -0.021815084
000360 19 81 61 3f 24 ee d1 3d 55 b9 5b bd ef e2 92 bd
       0.8808761 0.102505 -0.053643543 -0.071721904
000370 d8 b3 c7 3e 54 6d 2e bf 9e 9d f6 be ff de 8a 3e
       0.39004397 -0.6813557 -0.48167127 0.27123258
000380 b3 f7 eb be 02 a0 fa be 19 1f 1e be 12 67 a0 3e
       -0.46087417 -0.489502 -0.1544155 0.31328636
000390 bc 05 5f 3f f0 1e 23 3f a0 37 7d 3f 7a ab ea 3d
       0.87118125 0.6371908 0.98913 0.11458488
0003a0 1e 9f 04 c0 f2 de 9d bd a1 9d 72 3f e8 67 bb bc
       -2.0722117 -0.07708539 0.9477177 -0.022876695
0003b0 84 3a ab bd ed 23 3b 3f 5f e6 c2 be a4 43 cf be
       -0.0836077 0.73101693 -0.38066384 -0.40481293
0003c0 af d4 97 3d c1 f7 01 3e e4 a7 de 3d 46 65 d3 be
       0.07413613 0.12692167 0.10871866 -0.41288203
0003d0 c5 b4 af bd c2 a7 af 3e 82 0d f9 3c 24 2d 22 bd
       -0.08579401 0.34307677 0.030401949 -0.03959383
0003e0 5a ef 33 40 9c 59 03 3e 43 76 27 3e 09 28 69 3f
       2.8114839 0.12827152 0.16353707 0.91076714
0003f0 d7 cb 95 3d fe 93 8b be 25 3d 8d 3f 40 e8 90 be
       0.0731427 -0.27261347 1.1034285 -0.28302193

lstm.weight_hh_l0 f4 [40, 10]
000000 50 f3 92 bc ca 21 42 3e 30 51 a9 3e ef 33 75 bd
       -0.017938286 0.18958202 0.33069754 -0.05986398
000010 28 fc 94 3e c7 a3 15 bf 0b a7 e9 3c b6 1b a5 3e
       0.2909863 -0.5845303 0.028522035 0.32247704
000020 1f 09 5b bd 15 67 48 bc fa cc c0 bc 95 6c f6 3e
       -0.053475495 -0.012231608 -0.02353524 0.48129717
000030 a3 ea 3e bf c4 df c1 3d 6d fd d9 3e 7d cf 16 bf
       -0.7457678 0.09466508 0.4257616 -0.5891035
000040 ef 58 19 3f 4d 95 b4 3d af 89 39 bf 85 0f 19 bf
       0.59901327 0.08817539 -0.72475713 -0.59789306
000050 c9 5c 85 3e 0f 81 8d be 12 ad 5b bc 6c 9a 60 3e
       0.26047352 -0.27637526 -0.013407962 0.21933907
000060 a8 11 0f 3d d0 23 7e bf 56 29 c6 bd 8e b1 e4 be
       0.034928948 -0.99273396 -0.09675853 -0.44666713
000070 6d ad 92 be 95 60 90 be 72 d3 bf 3d 8d d2 17 3f
       -0.28647938 -0.28198686 0.09366502 0.5930565
000080 cf 2d b7 bb 6e 6e 22 bf d4 68 3c 3e 31 3f fb be
       -0.0055901776 -0.6344975 0.18399364 -0.4907165
000090 69 b5 1c 3e e6 af 48 bb 23 f9 e4 be e5 19 a8 bd
       0.15303577 -0.0030622422 -0.44721326 -0.08208064
0000a0 8c 64 83 be 65 6f 92 be 52 f5 1b be 87 f1 34 be
       -0.2566265 -0.28600612 -0.15230301 -0.1767026
0000b0 fc 7b dc 3e 96 cd ae bf dd d8 33 3f ff fc 8a 3e
       0.43063343 -1.365649 0.7025278 0.27146146
0000c0 ff 7a 7e 3d 94 0d 36 3f f7 d9 67 be 9a f4 c2 be
       0.062129017 0.7111447 -0.2264174 -0.3807724
0000d0 4a 23 92 3e 68 e1 b6 bc 49 2e f1 bd 92 cf 0f bf
       0.28542548 -0.022324279 -0.11776406 -0.561761
0000e0 5b 87 8e bc 75 b8 f9 be 9e 2b 04 bf 73 e1 4c 3e
       -0.017398527 -0.48773542 -0.51629055 0.20007877
0000f0 12 0b f2 be 00 67 13 3f cf 0e 07 bf e6 97 94 3e
       -0.4727407 0.5757904 -0.5275697 0.2902214
000100 bf 11 1f 3e 6e 4d b1 be 06 2a d1 3e 4b 4d 4f 3e
       0.15534113 -0.34629387 0.40852374 0.20244329
000110 63 37 2d bf dc a8 91 3e 68 da e0 be 00 6b ec 3d
       -0.6766264 0.28449142 -0.4391663 0.11543846
000120 84 9a c2 be 9c 3c ad be ab 09 a1 3e bd 7b 43 be
       -0.3800851 -0.33835304 0.3145269 -0.19090171
000130 34 1b 56 3e b4 86 b8 bd e5 53 c2 be 23 54 43 be
       0.20908815 -0.090100676 -0.3795463 -0.19075064
000140 28 36 17 3e ee 18 92 3d 51 22 71 bf a7 9c 30 bf
       0.14766753 0.07133661 -0.9419299 -0.6898903
000150 ec 20 84 3e 16 9a e7 bc 1a 3c 1b 3f 88 31 fe 3e
       0.25806367 -0.028271716 0.6063858 0.49647164
000160 ee fe 77 be 8c 43 21 3d b6 4d 16 3f f4 5f c4 3d
       -0.24218342 0.03937106 0.5871233 0.09588614
000170 75 5d 82 3e ac 9f 89 3e be a8 81 3e 79 92 d0 be
       0.25461927 0.26879632 0.25324053 -0.4073675
000180 32 28 58 3e 5f 55 a1 3e 2b 71 9f 3e f3 62 8e bd
       0.21109083 0.31510445 0.31141028 -0.06952467
000190 ba db 2b bd dc 59 3e 3e 9b 54 2b 3e 80 ff 27 bf
       -0.041957594 0.18588966 0.16731493 -0.6562424
0001a0 83 59 c4 be 94 33 38 bf 21 c0 e8 3d d5 67 cc 3e
       -0.38349542 -0.719537 0.11364771 0.39922968
0001b0 49 ec e7 3d d5 c8 c8 bd 9e c8 c4 3e 93 08 f6 3e
       0.11324365 -0.09803931 0.3843431 0.48053417
0001c0 bc 6f 23 bc 4c ed 5b be a7 22 70 3d 6f aa 46 bd
       -0.00997537 -0.2147724 0.058626797 -0.048502382
0001d0 5f 9d 8c 3e c1 70 72 3d 1c 2d 21 bf d2 2a af 3d
       0.27463815 0.05918956 -0.62959456 0.08553089
0001e0 51 bc 97 3e 0a e5 8d 3e f3 57 02 3d 4a ea 28 bd
       0.29635862 0.27713805 0.031822156 -0.04123906
0001f0 56 f6 3e bc 98 5f 94 3d 49 30 17 bc b2 a1 b1 3d
       -0.011655411 0.072447956 -0.009227821 0.08673419
000200 21 64 dd 3b 78 23 b9 3e f0 32 81 3e 1f 9d 79 3e
       0.006756321 0.36159873 0.25234175 0.24376343
000210 41 7b d4 3e c7 93 95 3d 31 54 e5 be 9f a1 b5 3d
       0.41500285 0.07303577 -0.44790795 0.088687174
000220 c8 d2 2b 3d ea ae b2 bd d5 ec 11 be 3b 3d dc 3d
       0.041949064 -0.087247685 -0.142505 0.10753866
000230 73 99 17 3f 04 3e d3 3e d6 ed df be db 7e 99 3e
       0.5921852 0.41258252 -0.43736142 0.29979596
000240 d6 84 c4 bb e1 d9 41 bf 19 f6 e7 be 91 16 70 3d
       -0.0059972806 -0.7572308 -0.45304945 0.05861527
000250 d5 58 e7 3e 13 40 99 bd 1c e2 58 bf 3a 24 19 be
       0.4518496 -0.07482924 -0.84720016 -0.14955226
000260 60 d3 0a bd 61 99 89 3d b9 cb 5c be b2 0a 8e be
       -0.03389299 0.06718708 -0.21562089 -0.27742535
000270 9b 14 63 3d 26 42 b1 3d ba a1 b3 3e 67 fb 58 be
       0.055439573 0.08655195 0.35084325 -0.21189652
000280 c0 03 3e 3e e6 9a c6 bd 24 77 6c 3e af bf 0d be
       0.18556118 -0.09697513 0.23092324 -0.13842653
000290 e1 e2 5a be a2 c7 d6 be 12 15 26 be 12 3f 0c 3f
       -0.2137561 -0.41949183 -0.16218975 0.5478374
0002a0 cc 90 bd bd 1f 48 90 be cd f5 7b be 9b 45 97 bd
       -0.092561334 -0.28180024 -0.24605484 -0.07386323
0002b0 0e 2d fc 3d a7 67 6f be 9c 2e 43 3d 3c c7 af be
       0.12313281 -0.23379384 0.047651872 -0.3433169
0002c0 a5 ab 94 3e 3b 17 8a 3e db 49 0c bf 6b ff d8 3e
       0.29037204 0.26970848 -0.54800195 0.42382368
0002d0 74 71 bd 3e 1b c2 89 3c 85 ad 6d 3e e3 b0 21 bf
       0.3700062 0.01681619 0.23210724 -0.6316053
0002e0 2b 3b 3c 3e c5 2a 03 be a3 ec da 3d 66 70 3c bd
       0.18381946 -0.12809284 0.10689666 -0.04600563
0002f0 54 02 fa be 3d fb 22 3e e3 16 10 be 83 75 12 be
       -0.488299 0.15916152 -0.1407123 -0.1430264
000300 45 43 45 be f7 46 c1 3d 5b 9d 38 be 5f ab e2 be
       -0.19263943 0.094373636 -0.18028776 -0.4427137
000310 b7 c9 8f bd ec dc b3 3d 76 6e c0 bd db 2a ae 3c
       -0.07020896 0.08782372 -0.09396069 0.02126067
000320 f6 9d 06 be e8 e8 c3 3e a4 2b 9d 3d 83 35 9f be
       -0.13146195 0.3826363 0.076743394 -0.31095514
000330 e5 ed 81 3e 0b 78 9f be 75 05 c7 3e 5f 55 5e be
       0.25376812 -0.31146273 0.3887135 -0.21712254
000340 9d 65 11 bf 5c 56 e7 3d 5a 94 4f 3e dc fa 33 3e
       -0.56795675 0.112957686 0.20271435 0.17576164
000350 28 39 13 3e 39 e1 e7 be 28 c3 15 3e 5e a0 e6 3e
       0.14377272 -0.4528902 0.14625227 0.45044225
000360 9d 6a ad 3e e7 d2 81 be 8f f5 d4 be 79 4a c3 bd
       0.33870402 -0.25356218 -0.41593596 -0.09535689
000370 7b 4d 03 bd 10 0a 98 3e 8e eb 66 3e 3a 05 c0 bd
       -0.032056313 0.29695177 0.22550794 -0.09375997
000380 4c 4e 9a 3e 44 68 df 3c 79 b0 58 3e 8e 86 19 be
       0.3013786 0.027271397 0.21161069 -0.14992735
000390 10 53 48 bf 54 c0 1f 3e 68 7b 58 3e 28 f4 89 3c
       -0.78251743 0.15600711 0.21140826 0.016840056
0003a0 c9 e3 b5 be df b9 73 3c 0a 09 6c bb fe 16 d2 3d
       -0.3552535 0.014875858 -0.003601613 0.10258292
0003b0 cd 6c 9b be a1 b6 7d 3e ae 09 ab bc da e0 e1 bd
       -0.30356446 0.24776699 -0.02087864 -0.11029215
0003c0 7b 70 2e be 4c 03 ef 3e 2e 4e 57 be d6 93 e6 bd
       -0.17035095 0.46682203 -0.21025917 -0.11258666
0003d0 ff d3 2f bf 72 25 d8 b9 f7 45 31 3e df 74 26 bf
       -0.68682855 -0.0004122663 0.17311846 -0.6502208
0003e0 33 8b 8f be aa 8a 53 be f2 53 6b 3e 8a d4 74 3e
       -0.28035888 -0.20658365 0.22981241 0.23909202
0003f0 4b 26 a4 bc d2 45 cb 3d 96 e1 a0 3d c1 2e cc 3e
       -0.02003779 0.099254265 0.07855527 0.3987942

lstm.bias_ih_l0 f4 [40]
000000 37 85 8b 3e b0 7f 0f 3d 53 1c 1a 3e 01 57 7c 3e
       0.27250072 0.03503388 0.15049867 0.24642564
000010 b1 ea 46 3f 97 43 75 3e f4 5a 00 3f 22 52 45 be
       0.7770186 0.23951565 0.50138783 -0.19269612
000020 d8 98 9f 3e 7b 27 aa bd b0 60 30 3e 56 c7 8a 3e
       0.31171298 -0.083083116 0.17224383 0.27105206
000030 8d 61 9b 3e 69 be 68 bd 2d 31 ae be b0 3f a0 3e
       0.30347863 -0.056822214 -0.34021893 0.3129859
000040 f0 de 0f 3e 80 18 a8 3d 72 69 94 bd ea 88 37 be
       0.14049888 0.08207798 -0.072466746 -0.17923322
000050 59 9a 8a be 4b bb 8d be 4d f6 92 bd 5b 32 85 3e
       -0.27070883 -0.27681956 -0.071758844 0.2601498
000060 62 3b b7 3d 6b e4 15 3c 4c 5e 3a 3e eb d0 04 3e
       0.08946873 0.009148697 0.18200034 0.12970321
000070 2e fc 38 be e2 a1 23 3e c2 4a 07 be 40 47 04 3a
       -0.18064949 0.15979722 -0.13212112 0.00050460175
000080 cf 2d ab 3e 2e cc 22 bd 28 36 4a 3f 9a eb 1c bd
       0.33433387 -0.039745502 0.78988886 -0.038310625
000090 52 2e b9 3e b4 fb 97 3e 74 11 83 3e f9 47 c5 3e
       0.36168152 0.29684222 0.25599253 0.38531473

lstm.bias_hh_l0 f4 [40]
000000 6a e5 ac 3e 21 0a 63 be c3 89 b0 3d 71 2c 5f 3d
       0.3376878 -0.22171833 0.08620026 0.054485742
000010 f3 83 49 3f 4c b3 b0 3e 42 c1 9e 3d cf 69 27 bc
       0.78716964 0.34511793 0.07751705 -0.010218098
000020 c7 b5 c1 3e 66 7e 5d 3d e1 f5 9e 3e c0 df 5c bd
       0.37833998 0.05407562 0.31046966 -0.053924322
000030 5e 74 55 bd d2 01 b8 3e 64 45 61 be 7c 16 b8 3c
       -0.05211293 0.3593889 -0.21999127 0.022471659
000040 a1 76 a6 3d 8d 0c 89 3e 7f 92 fd 3d 34 5c 66 3e
       0.081280954 0.26767388 0.123814575 0.2249611
000050 13 ad d9 3d d6 c4 27 3e 0c 1c ed 3d 34 e0 7c be
       0.106287144 0.1638368 0.11577615 -0.24694902
000060 b3 72 2c 3e c8 e9 c4 bc 7d 3c 21 3d f9 88 61 be
       0.1684063 -0.024037257 0.039364327 -0.22024907
000070 fc 54 17 3d 08 40 7a 3e 6c e7 a7 bc 39 9d 77 3e
       0.03694628 0.24438488 -0.020496093 0.2418107
000080 9c 1f ca 3d f3 5f 11 be 9b f8 ed 3e fc 9b 9c 3d
       0.0986931 -0.14196758 0.46478733 0.07646939
000090 8d 33 28 3e bf 70 bf 3e 6b 52 1c 3f a0 66 df 3e
       0.16425915 0.37390706 0.6106326 0.43632984

lstm.weight_ih_l0_reverse f4 [40, 20]
000000 4f d9 ce bc c8 68 58 bf a9 c8 f3 3e f3 72 c9 bb
       -0.025250105 -0.84534883 0.4761403 -0.006147736
000010 c4 40 ef be 6c 4b 80 bd e7 bb 44 3e 77 4b a7 3b
       -0.467291 -0.062643856 0.19212304 0.0051054317
000020 5a e0 82 3e 62 01 fd 3e 6f e8 79 be d0 da 57 be
       0.25561792 0.49415118 -0.24405073 -0.21079564
000030 3a 7f cc be 0d 04 95 3d 26 f5 2b 3d 89 93 49 be
       -0.39940816 0.07276163 0.04198184 -0.19685186
000040 91 cf c5 3e 5b ee d9 be ea c0 18 3d 55 f1 e2 be
       0.38634923 -0.42564663 0.037293352 -0.44324747
000050 d5 fb 4d be 42 6f 88 be 73 54 37 3e 53 f9 8d be
       -0.20115598 -0.26647383 0.17903309 -0.27729282
000060 62 27 1e 3f 43 e4 d9 be 3b 34 cb 3e 9d 96 ba be
       0.61778843 -0.42556962 0.39688286 -0.36443034
000070 47 33 fc bd 7a 66 a1 be cc 74 1a be 4a 18 ae be
       -0.12314468 -0.31523496 -0.15083617 -0.34002906
000080 c2 ee ea be 46 6f ac bd cf 13 06 3f 82 d5 a5 ba
       -0.45885283 -0.08419661 0.52373976 -0.0012652131
000090 b1 08 3a be 60 9c 3e bf e5 d8 94 3e 58 d2 80 bd
       -0.18167378 -0.7445736 0.29071727 -0.0629012
0000a0 a5 b3 a7 3d 58 f6 a3 be 96 a5 06 bf b7 e6 c3 3d
       0.08188561 -0.32023883 -0.52596414 0.0956549
0000b0 4a e0 6e bd 68 7a 2f bf 59 5a b4 3e a6 4b c9 bd
       -0.058319367 -0.6854615 0.3522518 -0.09828882
0000c0 f6 c7 2d 3f 15 2c dc 3c a5 14 10 bc 47 1c a9 bc
       0.6788324 0.026876489 -0.008793985 -0.020643367
0000d0 2b 12 c7 3e 6d f4 d1 3e fd cc da 3e 9e 42 8d 3e
       0.3888105 0.41006795 0.4273452 0.27589887
0000e0 51 86 e0 3b ef 51 f4 3c b1 3c 9b be a2 e5 19 bf
       0.0068519493 0.029824225 -0.3031974 -0.60116017
0000f0 92 7f 38 be 93 31 f6 3d 69 e8 d8 be 12 60 d2 be
       -0.18017414 0.12021174 -0.42364815 -0.4108892
000100 16 66 8a 3d f4 3f fc be a1 f7 b6 3d f8 f4 44 3e
       0.067577526 -0.49267542 0.0893395 0.19234073
000110 95 a6 c6 be 45 b1 c5 3d 20 ab d3 3d 35 bc f9 be
       -0.38798967 0.09652952 0.10335374 -0.48776403
000120 c7 9e d1 3e cc c6 3c be b1 32 d9 bd 32 82 a9 be
       0.4094145 -0.1843521 -0.10605372 -0.33107144
000130 51 a1 a3 3e cd 5e 4d 3e 56 bb 1e 3f 20 52 8e bd
       0.31959012 0.20055695 0.620046 -0.06949258
000140 ed 0a d3 bd e7 da d6 3e 33 7d b3 3e 62 98 16 3e
       -0.10304818 0.41963884 0.35056457 0.14706567
000150 11 c7 20 3d 2e 06 7e be 40 b9 06 3e 6b e1 e7 bd
       0.039252345 -0.24807045 0.13156605 -0.11322292
000160 0c c8 9b 3e ff c9 8c be 4c 9a 75 3e 50 79 19 3e
       0.3042606 -0.2749786 0.23984641 0.14987683
000170 4f 5d 87 3e b9 52 14 bc 48 82 0a 3e d2 52 7b be
       0.26438376 -0.009052926 0.13526261 -0.24543312
000180 36 4e 75 3e bb 18 bc be 97 b9 c4 be ae 3d a3 3e
       0.23955616 -0.36737618 -0.38422844 0.31882995
000190 b3 fe 5f bf a5 69 bd 3e 77 06 0a bf 5e ad bc 3e
       -0.87498015 0.36994663 -0.53916115 0.3685102
0001a0 1a 15 c1 3e 99 f5 be 3d 32 18 29 3e a7 4a ac bc
       0.37711412 0.09324188 0.16513136 -0.02103169
0001b0 d0 00 03 bf 15 0b 1a bb 67 8a 6a 3f ad 7b 3a bf
       -0.51173115 -0.002350514 0.91617435 -0.72844964
0001c0 e6 4b 0a 3f b8 ac ac be 6c e1 88 3e 38 8b 31 3c
       0.5402206 -0.33725524 0.26734483 0.010836415
0001d0 6d 56 9b be 64 fe 99 bd 76 25 cb 3e 43 21 ea 3e
       -0.30339375 -0.07519224 0.39677018 0.45728502
0001e0 bf 57 9d 3a 2f ba 6f be 75 4a 20 be 17 bc 09 bf
       0.00120043 -0.23410867 -0.15653403 -0.5380263
0001f0 49 dc d3 3e d8 3b 2a bf 93 3c 25 be af dc cd 3e
       0.41379002 -0.66497564 -0.16136388 0.4020743
000200 5e a7 5a be 4f 7c 04 3e 56 b5 b7 3e 11 13 ba be
       -0.21352908 0.12938045 0.35880536 -0.36342672
000210 05 2d de be f6 0d 85 be 19 fc a6 3d 2b 14 0b be
       -0.43393722 -0.25987214 0.081535526 -0.13581912
000220 a3 aa 52 be 66 17 46 bd 7d 6c 5c 3e 0d 92 90 3e
       -0.20572905 -0.04836216 0.2152576 0.28236428
000230 fe 7d 8b be 0d 1e 0e bf 1a 9e f9 3d a9 c9 31 3c
       -0.27244562 -0.55514604 0.121883586 0.010851302
000240 e6 7b a0 3d c8 66 bd 3e 80 f9 fc bd 18 11 fd bd
       0.07836132 0.36992478 -0.12352276 -0.12356776
000250 35 63 6a bc 13 51 9c be 6c 26 25 3d 4a 5e 8b 3e
       -0.014305879 -0.30530605 0.040319845 0.27220374
000260 cd 3b 9a 3e ee 00 18 3e e4 d3 9a 3e 9b 3a 1d bf
       0.3012375 0.14844105 0.30239785 -0.6141755
000270 83 30 72 bd 50 63 51 3d dd 13 0e 3f e2 b3 11 3c
       -0.059128296 0.051120102 0.5549906 0.008892985
000280 1d 8d e5 3e 78 ce 19 3f 0d 50 85 bf e2 d6 4d be
       0.44834223 0.6008067 -1.0415055 -0.20101503
000290 a4 a3 07 3f e5 60 56 3e 1e 22 ac be 4b 87 a4 3e
       0.5298407 0.209354 -0.3361978 0.3213447
0002a0 3c c9 06 3e dc fd 62 3e a8 1c 2e bf 07 42 69 be
       0.13162702 0.22167152 -0.68012476 -0.22779094
0002b0 aa 47 fb bd 3b 66 d9 be 3b be 3e 3b 1b 4b d4 be
       -0.12269528 -0.42460808 0.0029105085 -0.4146355
0002c0 77 b6 35 3e f5 a7 82 3d 93 2d c3 3e 9e 7c c5 3e
       0.17745386 0.063796915 0.38120708 0.38571638
0002d0 13 b4 01 bf 8f 61 0e 3e e8 4f 43 3f ca af 53 3e
       -0.50665396 0.13904403 0.762938 0.20672527
0002e0 f6 a1 2b bf 20 c3 9c 3d 68 8e 5f 3f ed 79 79 3e
       -0.6704401 0.07654405 0.8732667 0.24362917
0002f0 99 df c2 bd de 77 86 be 10 2f 18 bf 69 67 28 3d
       -0.09515304 -0.26263326 -0.5944681 0.041114245
000300 b1 68 98 3e 88 31 a7 3e f2 0b d2 be 7d 9c d6 3e
       0.29767373 0.32654977 -0.4102474 0.41916266
000310 19 5e bc 3e 1e 3f 66 bd 0f f0 14 be 86 4a 7d 3e
       0.3679054 -0.056212537 -0.145447 0.2473546
000320 d4 47 22 be 91 f8 03 bd a0 78 5c be 48 07 53 bd
       -0.15847713 -0.032219473 -0.2153039 -0.051520616
000330 db 06 03 3e 20 c6 e2 3e ed 1f 86 3e 9d 55 4c be
       0.12795584 0.44291782 0.26196232 -0.19954534
000340 93 ae 5f 3c 5e 47 8b 3e d4 c0 d8 be 54 a5 b5 be
       0.013652462 0.27202886 -0.42334616 -0.35477698
000350 cc cf 84 3e 2c dd 39 be 82 8d 1f 3f 8e 3b 09 be
       0.25939786 -0.18150777 0.623253 -0.13401625
000360 bc 48 e7 3d fa c8 18 3e 67 e5 5b 3f 6c 8a 1d 3d
       0.1129317 0.14920416 0.85896915 0.038462088
000370 de 6d e8 bd 74 4d 8d 3e 5a 50 f8 bc a5 a3 22 be
       -0.113490805 0.27598155 -0.030311752 -0.15882738
000380 7f c1 8a 3e 54 f0 9b be a8 48 ba 3e 24 9e 01 3f
       0.2710075 -0.30456793 0.36383557 0.5063193
000390 89 83 d8 be ec da 10 bd 92 2c d2 bd cb 9f 8d be
       -0.42287853 -0.03536503 -0.10262407 -0.27660975
0003a0 d3 6b de 3e 02 7b b7 be d9 0d 09 be 9a cf e7 3c
       0.43441638 -0.35836035 -0.13384189 0.028297234
0003b0 dc 2d 10 3d 20 1b 14 3c 82 32 76 3e e4 b8 2b 3e
       0.035199985 0.00903967 0.24042705 0.16769749
0003c0 05 a5 f6 bc ea 03 4f bf fd ef ed 3d ae 89 81 be
       -0.030107984 -0.8086535 0.1161804 -0.25300354
0003d0 77 bf 74 be 93 6d 2c be f7 68 1d 3f 2f 98 13 3e
       -0.23901163 -0.16838674 0.6148829 0.14413522
0003e0 6d bd 26 be 44 98 1b 3f de 6f 87 3e e5 0a f5 3e
       -0.16283198 0.60779214 0.26452535 0.47859874
0003f0 f9 4a 10 3f 7c fa c0 bd ac 9f fc 3e 3c 97 53 3e
       0.563644 -0.09422776 0.4934057 0.2066316

lstm.weight_hh_l0_reverse f4 [40, 10]
000000 7e 22 94 bd 5b 17 1f 3e 1d 5c b3 3e e5 46 07 3f
       -0.07233141 0.15536253 0.35031214 0.5284255
000010 fc cf 37 bf 3b 33 29 3f 3f e0 3b bd e9 96 86 be
       -0.71801734 0.66093796 -0.045868155 -0.2628701
000020 4c 5a 00 be 1c 93 26 3f 86 c9 d3 3b 41 7a ec 3d
       -0.12534446 0.6506822 0.0064632325 0.115467556
000030 2d 8e 45 bd 55 d2 51 3b 61 d6 b5 3c 26 b6 72 3e
       -0.048231293 0.0032016237 0.02219695 0.23702297
000040 04 aa 8e 3e 2d 2b 87 3e 1e c0 06 3e 38 33 d7 be
       0.27864087 0.26400128 0.13159224 -0.42031264
000050 eb 10 0f be 68 8d 3b be c5 01 28 3e 69 11 9e 3d
       -0.13971297 -0.18315661 0.16406925 0.077181645
000060 7b fc a6 bd 29 8b 18 3f 23 39 d5 bb 3e 6c 88 be
       -0.081536256 0.5958734 -0.0065070554 -0.26645082
000070 4f 8b ed 3e c8 5a 7e 3e 12 70 c6 3e 74 cc 18 3e
       0.46395347 0.24839318 0.38757378 0.14921743
000080 d1 a7 33 3c 7c 4a 9e 3d cc 10 63 3e 78 6d 74 3e
       0.0109653035 0.077290505 0.22174376 0.23869884
000090 13 76 f4 3e 15 01 f4 bd cc de a5 3d 54 2f 02 be
       0.47746333 -0.11914269 0.08099136 -0.12713367
0000a0 89 99 fb bd 54 4c 01 3e 54 f8 ab be 2d f6 0d 3f
       -0.12285144 0.12626773 -0.33587897 0.5545376
0000b0 18 b6 d5 bd 91 b2 88 3b 06 b8 9e 3e ed de be be
       -0.10435122 0.0041716774 0.30999774 -0.37279454
0000c0 ee 25 8e bd 8f af c2 bd a5 3f a3 3d 0c bc a4 bd
       -0.06940828 -0.095061414 0.079711236 -0.080436796
0000d0 a6 fa 09 bf 42 3a 93 3e 51 76 95 be f4 92 2b bf
       -0.53898084 0.28755385 -0.2919183 -0.6702111
0000e0 72 a4 02 3f 17 b7 e1 3e 2a c6 10 bf da 32 15 3f
       0.51032174 0.44085 -0.56552374 0.5828072
0000f0 b0 90 70 be 2d 95 52 3e cc 22 85 be 04 98 8a 3e
       -0.23492694 0.20564719 -0.2600311 0.27069104
000100 80 1e 04 3f 41 1d 60 3e 58 da 9f bd fb f7 09 bf
       0.5160904 0.2188616 -0.07805318 -0.53894013
000110 6c 82 c4 bd 56 72 95 3e c5 02 11 bf aa 03 01 3f
       -0.095951885 0.29188794 -0.5664485 0.50396216
000120 a5 d2 ce be 3e 06 d6 3e 2f a5 b1 bd 4a 72 7f 3e
       -0.40395084 0.41801637 -0.086740844 0.24945942
000130 8a 93 a1 3e 29 14 c6 be 96 c3 b7 3d 2c 81 a9 bd
       0.31557876 -0.38687256 0.08972852 -0.08276591
000140 1f 76 f0 3d 73 4d aa 3d 56 81 b3 bc a0 4f 09 3f
       0.1174128 0.083155535 -0.021912258 0.53637123
000150 76 c8 47 bf f4 7c 94 bf 0a 32 0a 3f 20 f2 df be
       -0.78040254 -1.1600633 0.53982604 -0.43739414
000160 4b 8f b9 3e 9f 95 d7 3e 38 82 1e 3d af 47 4c 3f
       0.36242136 0.4210634 0.038698405 0.7979688
000170 15 08 15 bd a9 ed 19 be f7 59 01 3e f4 9c 8e 3e
       -0.03638466 -0.15032066 0.12631975 0.2785412
000180 11 f0 fa 3e e0 5a b0 3d cc 6d 3d 3f 97 94 d1 3d
       0.4901128 0.08611083 0.7399566 0.102334194
000190 62 b6 69 3e e9 b9 c4 3e 87 c2 c0 3d ec 43 31 3b
       0.2282348 0.38423088 0.09412103 0.0027048541
0001a0 37 3e 36 bf 29 e9 80 3e 72 98 78 3e 64 78 c5 bc
       -0.7118868 0.25177887 0.24276903 -0.024105258
0001b0 0b 71 58 be 7a 86 0c 3f a1 a4 f4 be 6d 3c 9b 3e
       -0.21136872 0.54892695 -0.47781852 0.3031954
0001c0 e1 c3 17 3f 8b c9 98 3e 3b c7 2b 3f d1 06 c3 3e
       0.5928326 0.29841265 0.67100877 0.38091138
0001d0 1f 0e be 3e 0d 6c 4f 3e 57 6b e1 3d 56 60 87 be
       0.3712015 0.20256062 0.110068016 -0.26440686
0001e0 1c 00 65 3d 38 e6 f2 3e cd d2 e4 be e5 4e 86 3e
       0.055908307 0.47441268 -0.44692078 0.26232067
0001f0 d3 4a 45 be 69 ee a8 3e 84 f2 96 bd 67 d3 80 be
       -0.19266824 0.32994393 -0.07370475 -0.25161287
000200 c3 83 52 3e 22 9a d4 3d 6b 99 00 3e 72 d6 7d 3e
       0.20558076 0.10380961 0.12558524 0.24788836
000210 3a 2e d2 bd e6 3b 13 3d 2a 0f 14 3e 0a 9f 9b bd
       -0.10262723 0.035945795 0.1445891 -0.07598694
000220 f6 14 07 3f 03 f5 ea 3e a7 58 92 be 4e 5e cd 3e
       0.5276636 0.45890054 -0.2858326 0.4011101
000230 72 29 0c 3e 97 36 dd 3e 2c 44 a2 be 8a 1b e6 3e
       0.13687685 0.4320571 -0.31692636 0.44942886
000240 bf 93 88 bb 1e ef b1 3d 0b bf c0 3e ba d7 d8 3d
       -0.0041680033 0.08688186 0.37645754 0.105880216
000250 b6 48 e6 3d 3a 1a 56 3d ee 1b f2 3d 4d 10 11 3d
       0.11244337 0.052271105 0.118217334 0.035415936
000260 21 cb 16 bf 40 64 7e 3e f5 92 11 be 94 f6 65 bd
       -0.589037 0.2484293 -0.14216216 -0.05614336
000270 71 3a 83 3e fc d7 b3 be 52 1f a9 bd 4a b0 06 3f
       0.25630525 -0.3512572 -0.08257927 0.52612746
000280 ee c2 0c be 2a 70 93 3e ac 94 c0 3d f4 14 bc 3e
       -0.13746235 0.28796512 0.09403357 0.36734736
000290 1e 0c 80 3e ab 8f 35 be b0 a2 3d 3c 68 a6 fe 3e
       0.25009245 -0.17730586 0.011574432 0.49736333
0002a0 17 ee 9e be da 7b 87 be ae d3 02 3f e1 78 0f 3f
       -0.31041023 -0.2646168 0.5110425 0.5604382
0002b0 16 49 8e be d9 ad a4 3e f3 aa 81 3e 68 76 5f 3d
       -0.27790135 0.32163885 0.25325736 0.05455628
0002c0 5c 63 b8 3d 7d a3 55 be 62 dc 30 3e 7a 7e b6 ba
       0.09003326 -0.20863147 0.1727157 -0.0013923191
0002d0 20 dc 9c 3e 44 89 d8 bd 80 61 4c 3e 52 19 10 be
       0.30636692 -0.10573056 0.19959068 -0.14072159
0002e0 79 27 1c be 06 ac b4 3d f3 7b b6 bc 03 3d d9 3d
       -0.15249433 0.08821873 -0.0222759 0.1060734
0002f0 f0 e6 d2 be 10 93 aa 3e 51 94 a7 3e 3d f9 2d 3f
       -0.41191816 0.33315325 0.32730344 0.6795843
000300 03 09 ae be 11 1d d2 3e 17 b8 b7 bc 63 2b a4 3d
       -0.3399125 0.410378 -0.022426648 0.08016088
000310 e5 3e 9a 3e 31 93 c9 3c 8f 87 34 3e 7d 37 0c be
       0.3012611 0.02460632 0.17629836 -0.13693042
000320 f9 5a 98 3d 2f bb 01 3e 47 9e 9a be fb b2 cf ba
       0.07439227 0.12669061 -0.3019888 -0.0015846187
000330 b2 62 e8 bd 05 fe b5 3c 16 ff de be 40 6c b4 3b
       -0.1134695 0.022215853 -0.4355399 0.0055060685
000340 be 83 8d bc db d8 ac be d0 d5 36 be 49 13 33 be
       -0.017274734 -0.33759198 -0.17855 -0.17487825
000350 cd 43 be bd ea 89 80 3e ed f0 67 3e 9e 57 18 be
       -0.09290276 0.2510522 0.226505 -0.14877173
000360 61 99 b3 3e b7 d5 c3 bc 18 f3 16 3e 8d b8 a3 be
       0.35077956 -0.023905618 0.1474117 -0.3197674
000370 bc a7 af be 93 93 a7 3e 91 ed 85 3e 5a 0a 4c be
       -0.3430766 0.32729778 0.2615781 -0.19925824
000380 a1 a5 b4 3e a6 f9 b3 be 8b fd 18 3e a4 aa bc 3e
       0.35282615 -0.35151404 0.14940469 0.36848938
000390 52 8b a9 be 06 f3 fb bd ec 4a 7f be 5f d9 93 3e
       -0.33114105 -0.123022124 -0.24930924 0.28876778
0003a0 7d ef 86 be 31 78 b4 3c 89 c2 d3 3e 20 da 39 3e
       -0.2635459 0.022029968 0.41359356 0.18149614
0003b0 9f d1 d2 3e fe 9b d1 3d 4d ce b5 be 01 3f 19 be
       0.41175553 0.10234831 -0.35508958 -0.1496544
0003c0 56 b2 80 3e 9e 79 51 be 74 9a 4c bd 87 30 a6 3e
       0.2513606 -0.2045655 -0.049951985 0.32458898
0003d0 e4 a1 2d 3e 6d e1 60 bd 2f c9 c3 3e 7b 65 ca 3e
       0.16956288 -0.054902483 0.38239428 0.39530548
0003e0 31 a8 ca bd 13 8d 45 be 0a 2e 99 3e a0 0f 7f be
       -0.09895361 -0.19292097 0.29917938 -0.24908304
0003f0 5e 30 51 3e db 4e 25 3e 3a 21 9b bd 89 3d ef bd
       0.20428607 0.16143362 -0.07574697 -0.11681659

lstm.bias_ih_l0_reverse f4 [40]
000000 f2 86 03 3c 24 b2 99 3e fe 86 dc 3d be 4b 03 3e
       0.008027779 0.30018723 0.10767935 0.12821862
000010 d3 cc 2b be d5 82 85 bd 04 d3 3e 3e 58 30 3f bd
       -0.16777353 -0.06519095 0.18635184 -0.046676964
000020 af 30 1f 3f 6d 4f 0e 3d f2 e2 4f 3e c8 62 10 3e
       0.6218366 0.034743715 0.20301417 0.14100182
000030 2e e1 59 3e 6d b8 a1 3d 08 42 56 3e ec 5a 17 3e
       0.21277305 0.078965046 0.20923626 0.14780778
000040 c2 78 07 3e a8 07 8d 3d 8e 67 30 bc 61 43 a9 3e
       0.13229659 0.06886226 -0.010766877 0.3305922
000050 34 8c 08 3d a6 7a 0b 3c f3 e9 c3 bc eb 1a 54 3e
       0.033336833 0.008513128 -0.023915267 0.20713393
000060 da d6 39 be e4 8e 26 be b8 3e bb 3d e1 e4 a3 3d
       -0.18148366 -0.16265446 0.09142822 0.080026396
000070 bc ae a0 3d bd cf 85 3d 47 8b 69 3e 16 25 ca bd
       0.07845828 0.065337636 0.22807036 -0.09870355
000080 7e b7 b7 3e 72 ba 39 3e ff 50 9c 3d d7 03 95 3e
       0.3588218 0.1813753 0.07632636 0.29104492
000090 2a 7b 89 3e 9c 7c 8e 3e 5c ad 06 3f 6c ef 80 3e
       0.2685178 0.27829444 0.52608275 0.25182664

lstm.bias_hh_l0_reverse f4 [40]
000000 5a 18 94 be 84 d6 e3 3d 58 76 5c 3d 00 5d 28 bc
       -0.2892483 0.111249 0.0538238 -0.010276079
000010 0d ca ba 3d 8a 7e b7 3e 91 e1 cf 3c 00 1e 4b be
       0.091205694 0.3583873 0.025376113 -0.19835663
000020 0f c9 11 3f b3 76 38 be e7 91 a4 3e dc 59 ed 3d
       0.56947416 -0.1801403 0.32142565 0.11589405
000030 7e ce ca bd 59 ef a4 bd 69 4e 65 bd e1 44 a2 3d
       -0.099026665 -0.080534644 -0.05598298 0.07923294
000040 8f f2 e2 3e e6 63 ad 3e ca 6f 9c 3e 4a 37 b4 3e
       0.44325683 0.3386528 0.30554038 0.35198432
000050 f4 70 03 3e 38 5d ca 3c b5 48 50 be 08 2c 06 bd
       0.12836057 0.024702653 -0.20340236 -0.032756835
000060 82 17 ef 3d 55 44 8f 3d 11 4d 25 3e e5 30 78 3d
       0.11674406 0.06995455 0.1614268 0.060593504
000070 68 64 22 bd aa f4 2d 3e 20 f9 8d 3e ad d1 1a bd
       -0.039646536 0.16987863 0.2772913 -0.03779762
000080 9b e7 ac 3e ca 50 43 be 9d 84 d4 3e 21 12 17 3e
       0.3377045 -0.19073787 0.41507426 0.1475301
000090 1c c8 56 be fb ed 0e bd bb 86 25 3f 4e 8a ac 3e
       -0.20974773 -0.034894925 0.6465871 0.33699268

lstm.weight_ih_l1 f4 [40, 20]
000000 7f c9 82 be 8e 60 ad bd 0d 8b 79 be a8 0a c5 3e
       -0.25544354 -0.08465682 -0.2436945 0.38484693
000010 f7 0e 01 3e 49 d8 de be d0 08 91 3d bf af a8 3e
       0.12603365 -0.43524387 0.07081759 0.32946584
000020 51 0f 8f bf 51 52 ad be 39 ff 09 bf 65 66 86 3e
       -1.1176549 -0.33851865 -0.53905064 0.26249996
000030 70 20 0d 3e 3e 4c a8 3e b4 41 ea 3e b3 a1 2d be
       0.13781905 0.32870668 0.45753253 -0.16956215
000040 5c 4d 32 bd 78 e2 0c 3d 60 42 2c be 69 eb da 3e
       -0.043530807 0.034395665 -0.16822195 0.4275773
000050 43 e6 03 3e 8f 96 24 bf c6 ca b1 be 1e 12 31 3e
       0.12880807 -0.64292234 -0.34725016 0.17292067
000060 90 48 0f 3d 66 95 03 bd 68 d5 51 be cb fd af 3e
       0.03498131 -0.0321249 -0.20491564 0.34373316
000070 7c 01 3b 3b 34 9e 9d 3e a0 62 48 3d 45 fb f0 3e
       0.002853482 0.30784762 0.04892218 0.47066703
000080 ef 97 80 be 2d 40 b2 3e f1 e9 f6 3e 41 2c b5 3d
       -0.25115916 0.34814587 0.48225358 0.088463314
000090 fb ce d0 3e f9 4b 93 be da a2 a9 be 85 2b 85 3e
       0.40782914 -0.287689 -0.33132058 0.26009765
0000a0 3d 78 2d be 5f 93 32 3f 18 1f 85 3f 46 0c da be
       -0.16940399 0.6975612 1.0400114 -0.4258749
0000b0 2f 2f 94 3e 5f 13 9a be 89 5a f5 3d 11 5d 06 bc
       0.28942248 -0.30092904 0.11980159 -0.0082009
0000c0 b7 8a 67 bf 36 49 aa 3d 98 2c af 3e 12 8c b2 3d
       -0.9044604 0.08314745 0.3421371 0.087181225
0000d0 f6 e4 82 3d 77 e8 da 3e cd 25 6e 3d 8b b2 94 be
       0.06391327 0.42755482 0.05814152 -0.29042467
0000e0 24 9a 69 3c ac e9 55 3e 7a 58 7b 3f be 8a f8 be
       0.014257941 0.2088992 0.9818188 -0.48543352
0000f0 a8 9f 18 bd f2 15 94 3e 03 8a 27 3f c1 ba 00 3d
       -0.037261635 0.28922993 0.65444964 0.031428102
000100 8b 30 8b 3e cc b3 80 3d 9a d8 6c be 71 25 cd 3c
       0.27185473 0.062842935 -0.23129502 0.025042268
000110 00 74 e0 be 72 0f ef bd ac 82 bd bd 89 fd 67 3e
       -0.438385 -0.11672868 -0.09253439 0.2265531
000120 23 66 f4 3d 9c 00 9e 3e 22 aa 40 3f d8 1e a5 be
       0.119335435 0.3085984 0.752596 -0.32250094
000130 19 92 f3 bd bf 93 14 bf cb 41 37 bf 67 b3 89 3e
       -0.118931 -0.5803794 -0.7158477 0.26894686
000140 f0 34 29 3e 62 1d 87 bf d5 ff 88 3e a9 5d 09 3f
       0.165241 -1.0555842 0.26757684 0.5365854
000150 98 fe 58 3d f4 a7 4f bf b1 dd 00 bf a5 70 13 3f
       0.052977175 -0.8111565 -0.50338274 0.57593757
000160 b7 e6 84 be 17 4a ac bd 41 68 aa bd 8d 45 95 3e
       -0.2595727 -0.08412569 -0.08320666 0.29154626
000170 ff b8 c9 3e 40 d3 b5 bd 07 1e cc 3c 28 b2 4f be
       0.39398953 -0.08878183 0.024916662 -0.20282805
000180 15 a1 0f 3e 58 4b 4a be 48 2c ff 3e 7a 9e 9a 3e
       0.14026292 -0.19755304 0.4983847 0.30199033
000190 5f b0 90 be 27 17 49 be 93 db f6 3e d1 e0 05 bd
       -0.2825956 -0.19637738 0.48214397 -0.032685105
0001a0 28 57 2e 3e 25 a6 15 bb a1 92 01 3f 9f 6b 58 bc
       0.17025435 -0.0022834626 0.5061436 -0.013209253
0001b0 8d 9d bd bc 03 a7 86 bd 4b 29 d7 be 4e 28 5d 3f
       -0.023146415 -0.06574824 -0.42023692 0.86389625
0001c0 da 73 1e 3f ed a1 29 3f 9b 3f 30 3f 7d 04 9a be
       0.61895525 0.66262704 0.68847054 -0.3008155
0001d0 ee bd e0 3e ac 28 c3 3e 59 58 ba be 62 ee b6 3d
       0.43894905 0.38116968 -0.3639553 0.08932187
0001e0 35 b0 bc 3e 66 29 44 3c 55 6e 12 3e 71 ce b3 3e
       0.36853185 0.011972761 0.14299901 0.3511844
0001f0 c0 97 94 3e ce fd 1a 3e d7 71 35 3e 32 be 2f 3e
       0.29022026 0.15135881 0.17719208 0.17162398
000200 9b 78 62 be 38 6b d4 3e 94 f3 87 be 7e 5a 45 3f
       -0.2211632 0.4148805 -0.26553023 0.77091205
000210 90 c6 38 3f 68 59 1d 3e 7d 90 aa 3f 9e 24 48 3e
       0.7217798 0.15366137 1.3325344 0.19545218
000220 20 39 a8 3e 8d 53 d7 be 7a 40 8f bf f8 eb 16 bf
       0.32856083 -0.42055932 -1.1191552 -0.5895381
000230 70 c8 b5 3e 57 89 b1 be 97 78 48 3f 08 1a 83 be
       0.35504484 -0.34675094 0.78309005 -0.25605798
000240 b4 af e2 be 8f 58 e7 3d e6 10 66 3e df 57 3f bf
       -0.44274676 0.11296188 0.22467384 -0.74743456
000250 3c 71 ca be 5c dc 17 be b6 49 5b bd 4e 02 9f bd
       -0.39539516 -0.14830154 -0.053537093 -0.077641115
000260 0b 43 ec be 01 0b ec 3e 5d 71 d5 3e 76 f7 17 be
       -0.461449 0.46102145 0.41688052 -0.14840493
000270 b6 a4 a4 3d e3 60 3c be 04 de b5 3e 1c 30 93 3b
       0.080392286 -0.18396334 0.35520947 0.004491819
000280 d9 e2 b6 3f f8 62 ee be d0 b1 51 bc 77 24 6d 3e
       1.4287978 -0.46559882 -0.012798741 0.23158441
000290 54 e4 c4 3e 46 df 04 bf 87 74 95 bf 0f 34 18 bf
       0.3845545 -0.5190319 -1.1676186 -0.59454435
0002a0 40 24 ea be 2e ed 7a be 4d 89 d7 3c 16 6e ca be
       -0.45730782 -0.2450454 0.026310587 -0.39537114
0002b0 dc be 46 be 7e 9f 57 be 34 a6 6f bd cb a5 1f 3d
       -0.19408745 -0.21056935 -0.058508113 0.038976472
0002c0 81 df 0a be 9a 7e d0 be 5e 3a 82 be fc 82 a8 3e
       -0.13561822 -0.4072159 -0.25435156 0.32912433
0002d0 80 aa c6 3f 15 3a 22 3f 38 58 d4 3e 3d 89 b3 be
       1.5520782 0.63369876 0.41473556 -0.35065642
0002e0 57 20 34 3f 22 ad 0b 3d 81 b4 cd be 9a e7 44 bf
       0.70361847 0.03410066 -0.40176776 -0.76915896
0002f0 ad cb be bf 5d a3 1a be 21 e5 0e 3f 28 7a 80 bc
       -1.4905907 -0.1510138 0.5581837 -0.015683249
000300 b2 95 b4 be dc 3c dd bd f8 8c 70 be 5c 29 94 be
       -0.35270458 -0.10802624 -0.23491275 -0.28937805
000310 12 75 96 3e d1 b0 08 3f 75 92 78 bf 8a 57 7b 3d
       0.29386193 0.533948 -0.97098476 0.06136278
000320 d4 a5 d9 be c3 42 17 3e 08 f5 87 3e 51 ca bc bd
       -0.4250933 0.14771561 0.26554132 -0.09218276
000330 ab 48 c5 3e 49 17 0f bf ef e3 e9 bc 9e 94 a7 3e
       0.38532004 -0.55894905 -0.02855107 0.32730573
000340 6a 7c af be e4 f7 74 3e 02 64 77 bd 19 f9 96 bd
       -0.34274608 0.23922688 -0.06039811 -0.0737173
000350 72 3f 16 bf e5 d7 80 bd db c2 88 be de 48 99 3e
       -0.5869056 -0.062911786 -0.26711163 0.29938406
000360 8c 85 bd 3e 84 0b 7e be 09 af 09 3f 22 81 74 3e
       0.3701595 -0.2480908 0.5378271 0.23877385
000370 bc bd a6 3b b1 27 24 bf 1c ea 87 3e f8 9d 12 3f
       0.005088536 -0.64123064 0.265458 0.5727229
000380 41 96 0a 3e 94 7a 21 bd f4 11 f4 be 99 56 2f 3f
       0.1353388 -0.03942354 -0.47669947 0.6849151
000390 22 00 2b be ca d5 dd bd 68 1b 5f 3e 7c 7c 1d 3f
       -0.1669927 -0.10831793 0.21787798 0.61518073
0003a0 8a ad 04 3e 61 e6 23 3e 36 af 9c 3e 4f 89 a6 3e
       0.12956825 0.16005851 0.30602425 0.32526633
0003b0 37 bb 3a bd 9b 92 4e be 92 46 18 be 8b 9e c9 be
       -0.0455887 -0.20173113 -0.1487067 -0.3937877
0003c0 3b d5 27 be 78 03 4e bc 4b 86 f5 3e ad 28 0d bf
       -0.16389935 -0.012574069 0.4795402 -0.5514019
0003d0 c8 0a ad 3d 6e 76 cb bd f2 29 95 bd 39 72 bb 3d
       0.08449322 -0.09934698 -0.07283391 0.091526456
0003e0 43 27 49 bd 24 59 be be 73 9d f6 be e3 cc c3 3e
       -0.04910971 -0.37177384 -0.48167 0.38242254
0003f0 2b 59 f4 3d e2 f6 18 bd 0b 7a ed 3e 6c b9 af bc
       0.1193107 -0.03734482 0.46382174 -0.02145072

lstm.weight_hh_l1 f4 [40, 10]
000000 c5 46 72 be a0 f9 80 3e 0c 13 3d bd a3 8f fb 3e
       -0.23659809 0.2519045 -0.046160743 0.49133024
000010 e0 52 ca 3e 78 0b b2 bd bc 2f 48 be b2 28 a2 3e
       0.39516354 -0.08693594 -0.19549459 0.31671673
000020 e7 69 0a 3f c0 b4 84 bd 2e 5a 23 3c 53 4e f3 3d
       0.54067844 -0.06479788 0.009970231 0.118801735
000030 fe 15 72 3f fa ca 67 bd 3d 5d 31 3e ae 61 02 bf
       0.9456481 -0.056590058 0.17320724 -0.509303
000040 0f 4c d8 3d 41 ef 40 3f 57 f3 a1 be 43 9e 88 be
       0.10561382 0.7536507 -0.31630966 -0.26683244
000050 8a 4a 34 3e 03 4d d6 be 08 98 94 3e 15 3e 7c 3e
       0.1760656 -0.4185563 0.2902224 0.24633057
000060 f4 4f 8d 3e 2a 15 0c be 97 cb f0 be 98 a5 67 bd
       0.27600062 -0.13679948 -0.47030327 -0.056554407
000070 69 52 f2 3e fa 44 3f 3c b6 ab 08 be 42 d8 97 3e
       0.473285 0.01167416 -0.13346753 0.2965718
000080 9b cd b6 3c dc 1a 5f bc 4b c3 30 3e c6 ce e5 3d
       0.022314837 -0.013617244 0.17261998 0.112210795
000090 73 5b 85 bb e8 57 cc bd 4b b0 c3 3d d4 33 b7 be
       -0.0040697395 -0.09977704 0.095551096 -0.3578173
0000a0 79 a8 7b be 0c ef ac bc ce ed da 3d 04 22 45 3d
       -0.24575986 -0.02111008 0.10689889 0.048128143
0000b0 d4 5f 0a be 07 1e 79 be 6a d9 7a 3e 3e c6 f2 3e
       -0.13513118 -0.24327861 0.24497 0.47416872
0000c0 9d da 67 3e f6 c6 33 bd 48 5b 80 3d 32 3d 03 3f
       0.22641988 -0.043890916 0.062674105 0.5126525
0000d0 bb c8 a1 3e 69 00 1d 3e a1 74 2c 3f 92 f8 2e be
       0.31598458 0.15332188 0.6736546 -0.1708701
0000e0 97 7e ab 3d 09 83 c7 bd 64 c6 da 3e b0 d4 80 be
       0.083737545 -0.0974179 0.42729485 -0.25162268
0000f0 fe 7f 45 3e 35 1a 78 3e 3b c6 bc 3e 04 2b d7 3d
       0.19287106 0.24228747 0.36869988 0.105062515
000100 c7 7d c9 3e fa ec 99 be 3c 1c 98 3e 25 ea d0 3e
       0.39353773 -0.3006361 0.2970904 0.40803638
000110 4f c5 57 3e 32 4e ea bd c1 19 a3 be f9 d6 fd bc
       0.21071361 -0.11440696 -0.31855586 -0.030986296
000120 76 eb 8a be 4d 0f 84 be 09 69 db bc 26 11 72 3e
       -0.27132767 -0.25792924 -0.026783483 0.23639354
000130 a6 a3 3f 3e 30 22 a6 3d 2e 11 67 3f a0 5e a4 bd
       0.1871477 0.081119895 0.9026059 -0.08025861
000140 b0 17 3d 3e 14 50 2b bd 0a 6c ce 3d a5 bd 06 3e
       0.18466067 -0.041824415 0.100792006 0.13158281
000150 36 17 b4 bd b1 1f ca 3e 75 95 33 bd 24 2f e9 3e
       -0.0879349 0.39477304 -0.043843705 0.45543778
000160 a9 05 13 be 47 c6 32 be 11 30 a2 3e a9 32 f9 3e
       -0.14357628 -0.1745845 0.31677297 0.48671463
000170 16 a5 94 3e cf a7 90 be 2e 8c 75 be a7 44 86 3e
       0.290322 -0.28253028 -0.23979256 0.26224253
000180 c3 6c 82 3e ee 2c ca 3e fa 07 09 bf fd 94 d4 be
       0.25473604 0.39487404 -0.53527796 -0.4151992
000190 7e 4a 22 bf ce f1 d2 bd 96 70 fa 3e 3a 43 e1 3e
       -0.63394916 -0.10300027 0.4891402 0.43996602
0001a0 e2 e6 c4 3e 1f c1 6b be e6 4e 2f be 01 2c ba 3e
       0.384574 -0.23022889 -0.17119941 0.36361697
0001b0 ab cf bd 3e 3c 1a 08 be bf ad e1 bd bb e0 ee 3e
       0.370725 -0.13291258 -0.110194676 0.4665583
0001c0 07 8d d2 3e 68 eb 93 3d d5 68 f9 bc 95 ea b7 be
       0.4112322 0.072226346 -0.030445496 -0.3592116
0001d0 64 d8 3b 3f 12 9c e2 3d 32 bb 0e bf 26 37 d3 be
       0.7337706 0.11064924 -0.5575439 -0.41253012
0001e0 80 1f 3b 3d 98 c7 0d bf ec 87 99 3e 43 4e b2 3e
       0.045684338 -0.5538268 0.29986513 0.34825334
0001f0 d3 40 ad 3e 46 bf 7f 3e 66 a6 d4 bb 8d b7 0b bd
       0.3383852 0.24975309 -0.006489563 -0.034110595
000200 d3 df 27 3f 18 39 97 3e 91 44 2d be 96 18 1a 3f
       0.65575904 0.29535747 -0.16920687 0.60193765
000210 d8 47 04 3e c3 75 19 3e 01 29 df bd 7e 0e eb bd
       0.12918031 0.14986329 -0.10896493 -0.114773735
000220 38 52 85 be 76 cb aa 3d be d0 9a 3e 03 4b c9 3d
       -0.2603929 0.08339588 0.30237383 0.098287605
000230 5f 8a ac be 77 d1 25 3f 6e 25 ec 3e 40 43 a6 3e
       -0.3369932 0.64772743 0.46122307 0.32473183
000240 ae c5 0a 3e 31 f3 bb be b1 c7 bf be 09 25 8d 3e
       0.13551971 -0.36708978 -0.3745704 0.27567318
000250 d5 ea 52 be da 9e 50 be 62 c2 f0 bd 6c f9 98 3e
       -0.20597394 -0.20373097 -0.117558256 0.29877794
000260 d4 51 8c 3e 69 6f e1 3e 50 81 52 3e ce ad 8a be
       0.2740618 0.44030312 0.20557141 -0.27085727
000270 5e 10 b8 3c 3f eb ca bd 3c 25 c8 3c 00 fb e4 bd
       0.022468742 -0.09908151 0.024431817 -0.11180687
000280 97 dc 54 be e5 5a 69 3e 10 8b 88 3d 2e f8 84 3e
       -0.20787273 0.2278858 0.06667149 0.25970596
000290 f8 de cc 3e f7 8d da 3d 37 78 e1 3e 89 3f a6 3e
       0.40013862 0.10671609 0.4403703 0.32470348
0002a0 27 03 4f 3d b5 47 ef bd 74 4a c0 be 1f c0 05 3e
       0.050540116 -0.11683599 -0.37556803 0.1306157
0002b0 f3 13 9c bd ce 2b 06 3f 98 29 e5 3e 24 82 0e 3c
       -0.076209925 0.5241059 0.44758296 0.00869802
0002c0 b2 14 e1 3e b3 6b 85 3e cd 45 0a 3f 52 21 03 3e
       0.43961102 0.2605873 0.5401276 0.1280568
0002d0 65 aa 87 be 8b dd 5b 3e e9 85 e5 3e 8d a0 df 3e
       -0.26497188 0.2147123 0.44828728 0.43677178
0002e0 4d 0e ea bd bf c9 19 bf 7d 0a f0 be 96 75 d0 3e
       -0.11428509 -0.60073465 -0.46883002 0.4071471
0002f0 68 26 39 3d a6 d4 cd be 1e 91 03 bf 19 91 a6 3e
       0.045202643 -0.402013 -0.51393306 0.32532576
000300 73 71 bf bd 22 5d 81 be a8 be 15 bf 11 b8 11 bf
       -0.093478106 -0.25266367 -0.58494043 -0.5692149
000310 13 f0 36 3e 26 25 93 3e 9c 1c ba be 75 e8 52 be
       0.17865019 0.2873928 -0.36349952 -0.20596488
000320 c1 9b a8 3d 5d c9 a5 bd 6b f7 97 3e 4e bd 6a 3e
       0.08232833 -0.080950476 0.29680952 0.22923777
000330 0d c0 f4 be e6 9e 4d 3e fd ea 2e be 13 7b 84 3e
       -0.47802773 0.20080146 -0.17081828 0.25875148
000340 56 39 f2 bd a7 84 9b 3e f0 f4 44 3e 04 dd 98 bd
       -0.11827342 0.30374643 0.19234061 -0.074640304
000350 d9 e3 52 3e ff 1e 06 bf af f3 c9 3c b2 f6 8f bd
       0.2059473 -0.52391046 0.02465233 -0.07029475
000360 a2 cb ac 3e de 27 a2 be 6a 75 8f be b2 f1 8c be
       0.3374911 -0.3167104 -0.28019267 -0.2752815
000370 da c7 a1 be 79 01 06 be 50 59 65 be af 71 a4 3c
       -0.31597787 -0.130865 -0.22397351 0.02007374
000380 f7 a6 ba 3e 7c 91 a6 3d 29 b0 93 3d 8f 9d ad 3e
       0.3645551 0.08133218 0.07211334 0.3390927
000390 e2 23 41 b9 2e 46 13 3f 6d b7 7a bd 4f 85 80 3e
       -0.00018419282 0.5752896 -0.061210085 0.25101706
0003a0 9a c1 3f 3d c0 b2 a5 3d 6b ca 9f 3e c3 b6 ac 3e
       0.046815492 0.080907345 0.3120912 0.33733186
0003b0 51 b5 17 b8 18 98 43 3e 0e e6 f0 3a 98 58 c9 3e
       -3.617007e-05 0.19100988 0.0018379109 0.39325404
0003c0 03 80 d7 be 18 8e cf bd 72 41 c3 3e a4 75 33 3e
       -0.42089853 -0.10134524 0.38135868 0.17525345
0003d0 b1 c9 8b 39 41 8a c6 be 4f b5 a9 be 69 dd 0a 3e
       0.00026662418 -0.38777354 -0.3314614 0.13561024
0003e0 a9 1e 9d 3e f5 6e 06 be ca a2 ee 3c fa 46 4b 3e
       0.30687454 -0.13128264 0.029130358 0.19851294
0003f0 fc b7 86 3d e3 10 03 bf 6a a1 67 be 5b 20 df 3d
       0.06578061 -0.5119764 -0.22620168 0.10894843

lstm.bias_ih_l1 f4 [40]
000000 f0 70 d3 bd 30 1d 42 3e 20 98 6f 3e 07 3e 2e 3e
       -0.103242755 0.18956447 0.23397875 0.17015849
000010 d1 0b 3d be c3 1e 0c ba 8a d0 4e 3e 9c 5d ed 3d
       -0.18461539 -0.000534516 0.20196739 0.1159012
000020 bf a4 25 3d a9 bd d2 3e 54 a7 b6 3e cb 13 fb bd
       0.040440317 0.41160324 0.35674536 -0.122596346
000030 e0 eb 75 3e ae 81 a2 3e b7 5b 0c 3e af c0 c6 3c
       0.2401576 0.31739563 0.13706861 0.0242618
000040 e7 34 70 3e 30 4f 91 3e 73 aa a0 3e 22 5a 39 3f
       0.2345768 0.28380728 0.31380042 0.72403157
000050 2a 9c 81 be 62 12 b4 3e 5c 24 fa 3d 65 5c 46 3c
       -0.25314456 0.35170275 0.12213966 0.0121069895
000060 a3 e0 8c be 32 c6 d5 bd 40 e1 92 be 44 3d f4 bd
       -0.27515134 -0.104381934 -0.28687477 -0.11925748
000070 d6 8a 6d be a1 80 ee bb 1e 6e 2d be d1 18 2a 3e
       -0.23197493 -0.0072785174 -0.16936538 0.16611029
000080 f5 46 e2 3e ad 83 c3 3d a7 19 90 3e 01 12 ee 3d
       0.4419476 0.095465995 0.2814457 0.11624528
000090 ef 2e eb 3e 7c b6 65 3e 32 ab 35 3e 85 a6 e7 3e
       0.45934245 0.22432894 0.17741087 0.45244232

lstm.bias_hh_l1 f4 [40]
000000 60 d8 59 bd e2 d4 cd 3e 63 ce 0a be 9a c1 3f 3e
       -0.053184867 0.4020148 -0.13555293 0.18726197
000010 93 19 65 3e 3d 11 9c 3d 22 1c 8b bd 9e c5 25 be
       0.22373037 0.076204754 -0.06792475 -0.16188666
000020 67 62 57 3d ea bf b4 3d 71 e5 5e 3e 57 58 b0 3e
       0.05258408 0.08825667 0.21767212 0.34442398
000030 3d 55 0e bc b5 c1 14 3e de 90 66 3c c0 6f 9c bd
       -0.008687315 0.14527018 0.014072625 -0.07638502
000040 73 9b c2 bd de 49 f5 3d 42 8d c4 3e cb 94 b7 3e
       -0.09502306 0.1197698 0.3838902 0.35855708
000050 18 58 2c be ad 70 0a 3e 2a 8f 94 bd b9 6a 13 3e
       -0.1683048 0.13519545 -0.07253869 0.1439618
000060 3b 60 05 3e 68 c3 26 be 8b 9d 6e 3c a2 8c 18 3d
       0.1302499 -0.16285479 0.014563928 0.037243493
000070 e8 67 da bc 6e e7 5c be 38 fd a8 3e 00 b2 10 3e
       -0.026660874 -0.21572658 0.3300569 0.14130402
000080 61 0b ad 3e ad 95 2c 3e 60 1b 62 3d 28 13 93 3e
       0.33797744 0.16853972 0.055201888 0.28725553
000090 67 a2 e1 3e a3 12 1c bd 02 bc e2 bd 02 fa e0 3d
       0.44069216 -0.03810371 -0.11071016 0.10985185
