sparrow/data/networks/transmembrane/transmembrane_predictor_network_v1.pt (torch, 13255 bytes, 10 tensors)

lstm.weight_ih_l0 f4 [40, 20]
0.14827664 -1.1920168 0.44305202 0.2720232 -0.13180196 -0.681519 0.20688368 -0.058975052
0.53702396 -0.37933373 -1.033531 0.7198051 -0.49341598 -0.28880617 0.92624295 -0.21649829
0.66379905 0.053318013 -0.3462951 0.9844409 -0.33559546 -0.34284884 -0.30532175 0.09451489
-0.4692301 0.13430421 -0.09745186 0.42250016 0.16339809 0.29021192 0.8642719 0.018977791
-0.3983933 0.44048136 0.19586988 0.26294392 0.11254907 -0.30901083 0.33717042 -0.44298452
-0.2776124 0.50300545 -0.7067796 -0.14827953 0.4979025 -0.4508011 -0.9249082 0.25653476
-0.88650095 -0.06320055 -0.6677561 -0.1478917 -0.8207178 -0.89851433 -0.3806627 0.2424674
0.20856702 0.09072788 0.808948 -0.39295265 -0.19804074 -0.50884485 0.036620256 0.22063212
-0.38701868 -0.022179144 0.5262676 0.054500196 0.13861628 -0.107566826 0.3317653 -0.41017124
0.06653285 -0.21874453 -0.15101449 -0.23884432 -0.4834467 -0.29193816 -0.25059772 0.2571636
-0.013736658 -0.6192367 -0.8651694 -1.4357153 0.03519727 0.1887533 -1.3269429 0.11650731
-1.1532285 0.18129817 0.28643188 0.07743048 -0.29830593 -0.6255026 -0.046138324 0.18401048
0.40031776 0.05570541 -0.268446 0.20680903 0.18980636 0.88308823 0.66641015 -0.7742875
-0.23305488 0.045747694 0.07792042 -0.48646048 0.44382837 -0.16502193 2.5457966 -0.24209623
-0.02606159 0.4685747 0.3399303 0.38290423 -0.47229898 -0.27275607 1.0863172 -0.03853494
0.58573943 -2.2052658 -0.26926735 0.6714831 -1.2629042 -0.5124396 1.1563866 -0.29764014
0.39343873 -0.04154701 -0.68646693 0.6487798 0.04546914 -0.60612607 1.0488132 -0.71082014
0.7264527 0.1815977 0.45291921 1.0306284 0.30431226 0.50265056 1.4983425 -0.6995776
0.4982056 0.35193482 -1.13301 0.20051986 0.8718408 0.30210894 1.3844228 0.64586395
0.42450157 -0.38776478 1.569686 0.03799127 2.6028767 0.31981498 0.44370562 -0.31403098
-0.21441253 -0.5611903 -0.06761715 -0.091866344 -0.042352896 -0.43873355 -0.5934547 -0.054070253
0.44938526 0.077832736 0.6328312 0.011348666 -0.06949305 0.08879901 -0.18639308 -0.49954242
-0.30709141 -0.31518188 0.7395178 0.14028966 0.46053073 0.45502478 -1.3460872 -0.4239943
0.7287464 -0.046878 0.13605486 -0.11705882 -0.057123527 0.6096414 0.5229391 0.2097137
-0.63029265 0.04944711 0.04765952 -0.26304948 0.11105282 0.06953904 0.8055567 0.49872312
-0.4383886 0.1628132 0.77247965 0.63776624 -0.5620857 0.049679592 -0.090209596 -0.45396104
-0.04474944 -0.16979425 0.35211402 -0.29830322 0.600324 0.06690969 -0.98971 0.2000081
-0.0017127788 -0.24182531 -0.743097 -0.336743 0.22972485 0.34025767 0.7770304 -0.24487641
-0.46220618 0.6415163 0.24421792 -0.785341 0.08491157 -0.2328947 -1.4440207 1.1007367
-1.1497096 -0.17171186 -0.12588412 0.30581987 -0.13113256 -0.4541428 -0.46722212 0.24517092
-0.05877813 -0.11283336 -1.1479393 -0.6857355 0.11664989 0.026439441 -0.5786122 0.28310126
-1.2235278 0.16771618 0.8130092 -0.3944987 -0.7259078 -0.46136183 -0.559255 -0.3711143
00000000: d5d5 173e 0294 98bf b7d7 e23e a046 8b3e
00000010: 18f7 06be 0778 2ebf 51d9 533e d38f 71bd
00000020: 677a 093f 0838 c2be be4a 84bf 2645 383f
00000030: 05a1 fcbe 67de 93be 421e 6d3f bab1 5dbe
00000040: bcee 293f fd63 5a3d 974d b1be 5204 7c3f
00000050: 2bd3 abbe e289 afbe 2253 9cbe 0691 c13d
00000060: ed3e f0be 0b87 093e d794 c7bd f151 d83e
00000070: d451 273e a896 943e ec40 5d3f 5077 9b3c
00000080: 35fa cbbe c686 e13e 1d92 483e 96a0 863e
00000090: 2080 e63d ab36 9ebe 9aa1 ac3e dece e2be
000000a0: 3623 8ebe f7c4 003f 82ef 34bf 97d6 17be
000000b0: 14ed fe3e 67cf e6be c9c6 6cbf 8658 833e
000000c0: baf1 62bf 4a6f 81bd 10f2 2abf ec70 17be
000000d0: 901a 52bf 0905 66bf 39e6 c2be 6049 783e
000000e0: 9892 553e 8acf b93d 3717 4f3f 1731 c9be
000000f0: 31cb 4abe a843 02bf 1fff 153d 63ed 613e
00000100: 5027 c6be 09b1 b5bc 79b9 063f 993b 5f3d
00000110: 6df1 0d3e ff4b dcbd 24dd a93e f701 d2be
00000120: 6042 883d 91fe 5fbe 8ba3 1abe 9b93 74be
00000130: 5386 f7be eb78 95be 584e 80be f3aa 833e
00000140: b80f 61bc 4c86 1ebf be7b 5dbf 85c5 b7bf
00000150: 032b 103d 8c48 413e 44d9 a9bf 629b ee3d
00000160: fe9c 93bf 3aa6 393e 33a7 923e df93 9e3d
00000170: 8ebb 98be f020 20bf 8afb 3cbd 3e6d 3c3e
00000180: 73f6 cc3e 5b2b 643d c171 89be bfc5 533e
00000190: 995c 423e 1212 623f db99 2a3f b537 46bf
000001a0: f0a5 6ebe ef61 3b3d be94 9f3d 5911 f9be
000001b0: 793d e33e 82fb 28be 55ee 2240 13e8 77be
000001c0: 1e7f d5bc 06e9 ef3e 580b ae3e 060c c43e
000001d0: 2cd1 f1be afa6 8bbe 710c 8b3f d0d6 1dbd
000001e0: 05f3 153f 1323 0dc0 69dd 89be 51e6 2b3f
000001f0: d8a6 a1bf 3e2f 03bf 7a04 943f 4a64 98be
00000200: cd70 c93e 332d 2abd 4cbc 2fbf 6f16 263f
00000210: d93d 3a3d 142b 1bbf 833f 863f 4ff8 35bf
00000220: cef8 393f bff4 393e 07e5 e73e a2eb 833f
00000230: d1ce 9b3e b5ad 003f b0c9 bf3f 8517 33bf
00000240: ce14 ff3e cd30 b43e 7906 91bf 1455 4d3e
00000250: f530 5f3f 06ae 9a3e c434 b13f 5757 253f
00000260: 4558 d93e 1b89 c6be 79eb c83f bc9c 1b3d
00000270: 8895 2640 cabe a33e 622d e33e abc8 a0be
00000280: f58e 5bbe 2baa 0fbf dc7a 8abd 6c24 bcbd
00000290: 3b7a 2dbd afa1 e0be a6ec 17bf c578 5dbd
000002a0: d315 e63e c566 9f3d 3a01 223f c1ef 393c
000002b0: 5f52 8ebd 41dc b53d d4dd 3ebe 06c4 ffbe
000002c0: 163b 9dbe 855f a1be 0a51 3d3f 18a8 0f3e
000002d0: afca eb3e 02f9 e83e 964c acbf c815 d9be
000002e0: 208f 3a3f 2503 40bd f751 0b3e 89bc efbd
000002f0: 5cfa 69bd 7511 1c3f 56df 053f 30bf 563e
00000300: dc5a 21bf 0e89 4a3d a136 433d 6cae 86be
00000310: a96f e33d 7c6a 8e3d f738 4e3f a358 ff3e
00000320: 7874 e0be 81b8 263e 3ac1 453f a644 233f
00000330: d9e4 0fbf d47c 4b3d cfbf b8bd 956d e8be
00000340: 304b 37bd 8bde 2dbe 4a48 b43e 33bb 98be
00000350: d5ae 193f f307 893d a25d 7dbf ecce 4c3e
00000360: 527f e0ba 0ea1 77be 9b3b 3ebf 9469 acbe
00000370: fe3c 6b3e 4136 ae3e 77eb 463f e2c0 7abe
00000380: 4aa6 ecbe 6a3a 243f 4314 7a3e 1c0c 49bf
00000390: 1ee6 ad3d f37b 6ebe acd5 b8bf f1e4 8c3f
000003a0: af29 93bf 3cd5 2fbe c4e7 00be 6c94 9c3e
000003b0: 9d47 06be 6885 e8be bd37 efbe 160e 7b3e
000003c0: 56c1 70bd 2d15 e7bd adef 92bf 5d8c 2fbf
000003d0: 23e6 ee3d 8797 d83c ee1f 14bf a6f2 903e
000003e0: 8f9c 9cbf cabd 2b3e 5f21 503f bcfb c9be
000003f0: 18d5 39bf 9e37 ecbe 562b 0fbf b202 bebe

lstm.weight_hh_l0 f4 [40, 10]
0.1224082 -0.48763135 -0.16898227 0.092953585 0.13033298 -0.85037905 0.012973763 -0.11109352
0.22184001 -0.24308155 -0.11504131 -0.28775054 0.2666757 -0.19032148 -0.030312093 0.09767595
0.32909852 0.3535909 0.11212453 -0.08077955 0.33785397 -0.2198297 0.60778517 0.3078926
0.082833 -0.09107167 0.6059504 -0.5185053 0.2660995 -0.44641358 -0.32804036 -0.29355988
0.0022926817 -0.037616298 0.049092785 -0.42600206 -0.39896128 -0.26715127 -0.09911482 -0.2124263
0.29389697 -0.22435354 -0.05986992 -0.19228104 0.40814355 -0.5101494 -0.21179953 -0.117175266
0.6305125 0.098384224 -0.22764826 -0.59536415 0.13670674 0.012509227 -0.2018882 0.070554204
0.06451989 0.31861123 0.15290843 -0.08147973 -0.22587451 -0.16112463 -0.2943533 -0.48017955
-0.13328117 -0.17443532 -0.068513446 -0.2844746 0.7700923 -0.31491482 -0.48041332 0.09140339
-0.46141014 -0.49870142 0.63914 0.01636374 -0.27839646 0.24123287 1.4785663 -0.071782425
-0.066705234 -0.073305085 0.35108453 -0.37178165 0.36854097 0.20102547 -0.3636622 0.41323122
0.47125074 -0.06718822 0.7026593 0.10977703 0.38602892 0.14381039 -0.06813553 -0.16392589
0.29209128 -0.42646378 -0.23474926 0.0072712908 0.5507204 0.28559974 -0.0033858172 0.49147415
-1.21826 -0.6033852 0.273424 -0.06422333 0.2878147 -0.079754874 -0.10784713 -0.34645998
-0.15002844 -0.26857358 -0.06919164 -0.65987414 -0.32099894 -0.0041680434 0.07553116 -0.07294162
0.043823794 0.10188891 0.11579828 0.32875514 -0.26591024 -0.4065015 0.5824074 -0.2527913
0.04536541 -0.15102781 0.048207056 0.09934363 0.24735995 0.40711647 0.36763182 -0.13582185
-0.62941337 0.097938746 -0.08530366 -0.4197969 0.5324369 0.15712558 0.51349264 -0.23270719
-0.579781 -0.58989507 -0.3536249 -0.29929963 0.38894296 -0.55366856 0.12973502 -0.45638543
-0.3122828 -0.20980297 -0.14262031 -0.07354009 0.1112155 0.17588285 0.43383518 -0.7053994
-0.51819015 -0.39556366 0.2374433 0.42244235 0.16221642 -0.28302735 -0.18843703 -0.054198686
-0.4169143 -0.69459116 -0.040470425 0.20220421 -0.44422224 -0.27856922 -0.7222071 0.026070163
-0.2982309 0.7858137 0.011279243 -0.35192445 -0.1543518 -0.38656268 0.21117008 -0.10350878
-0.21586333 -0.26171026 -0.65594923 0.32636037 0.2126482 -0.48266315 -0.13317345 -0.13702269
0.6457018 0.16606621 -0.40304708 -0.026211787 -0.07989817 -0.2650371 -0.57997036 -0.65461916
0.25239465 0.32854888 0.13867086 -0.38743228 -0.44004047 0.11265279 -0.14526835 -3.3483648e-06
-0.40776825 0.1443314 0.053185347 0.09756371 0.46327043 -0.04102755 -0.46760404 -0.12098693
0.05903991 -0.0014066858 0.10607481 -0.14619218 0.22791527 -0.02273105 0.07812441 0.34205237
-0.23106682 0.2673756 -0.2852506 -0.04208012 -0.24315035 -0.051206984 0.2784538 0.021256147
0.3880896 0.2129825 -0.18320335 -0.028528009 -0.061408933 -0.08040719 -0.57244796 -0.11456602
0.08864072 -0.10205127 0.109444834 -0.1295784 0.29700086 0.43024886 0.15016666 -0.42908826
0.4803194 0.029336719 -0.47428778 0.48809576 0.19474201 0.27546272 -0.4994219 0.5027341
00000000: 26b1 fa3d d1aa f9be b009 2dbe 735e be3d
00000010: 0276 053e 71b2 59bf e88f 543c 0085 e3bd
00000020: 072a 633e 5fea 78be c79a ebbd 0a54 93be
00000030: b889 883e a2e3 42be 1151 f8bc 540a c83d
00000040: 9a7f a83e de09 b53e 8ca1 e53d c06f a5bd
00000050: 32fb ac3e 091b 61be cf97 1b3f 19a4 9d3e
00000060: 59a4 a93d c983 babd 911f 1b3f c3bc 04bf
00000070: 323e 883e 5290 e4be e8f4 a7be 7b4d 96be
00000080: d140 163b 8c13 1abd 8415 493d f11c dabe
00000090: a744 ccbe 0dc8 88be b6fc cabd 4886 59be
000000a0: aa79 963e efbc 65be 293a 75bd 52e5 44be
000000b0: 31f8 d03e 2799 02bf fae1 58be 96f9 efbd
000000c0: 4469 213f ab7d c93d a01c 69be c969 18bf
000000d0: dafc 0b3e 80f3 4c3c c8bb 4ebe b97e 903d
000000e0: 0123 843d 0321 a33e 0794 1c3e d8de a6bd
000000f0: a64b 67be dbfd 24be 7ab5 96be 18da f5be
00000100: dc7a 08be 2c9f 32be c750 8cbd a8a6 91be
00000110: c524 453f 843c a1be bcf8 f5be b331 bb3d
00000120: f33d ecbe cb55 ffbe ae9e 233f 400d 863c
00000130: fb89 8ebe c005 773e a941 bd3f aa02 93bd
00000140: c19c 88bd fa20 96bd 5ac1 b33e 2a5a bebe
00000150: 67b1 bc3e 9fd9 4d3e ef31 babe 0b93 d33e
00000160: c747 f13e fa99 89bd 7be1 333f c8d2 e03d
00000170: 95a5 c53e 0843 133e a48a 8bbd 30dc 27be
00000180: fd8c 953e 7659 dabe 1c62 70be 0244 ee3b
00000190: 03fc 0c3f 213a 923e 96e4 5dbb 80a2 fb3e
000001a0: f2ef 9bbf 7477 1abf 3bfe 8b3e 8587 83bd
000001b0: 735c 933e 8656 a3bd f5de dcbd 3463 b1be
000001c0: 0ea1 19be 7a82 89be 59b4 8dbd 83ed 28bf
000001d0: f959 a4be 1594 88bb 15b0 9a3d 6b62 95bd
000001e0: 9480 333d 22ab d03d a627 ed3d 9852 a83e
000001f0: 6325 88be f720 d0be a718 153f dc6d 81be
00000200: 15d1 393d 09a7 1abe c374 453d ac74 cb3d
00000210: ed4b 7d3e 9271 d03e 3d3a bc3e e214 0bbe
00000220: 3c21 21bf 1c94 c83d afb3 aebd 9fef d6be
00000230: c94d 083f 87e5 203e 4174 033f cb4a 6ebe
00000240: 876c 14bf 5d03 17bf 530e b5be cd3d 99be
00000250: 8823 c73e 39bd 0dbf 42d9 043e 5aab e9be
00000260: 88e3 9fbe 97d6 56be 0f0b 12be 309c 96bd
00000270: f4c4 e33d a21a 343e a51f de3e 0e95 34bf
00000280: 1ca8 04bf 5287 cabe 5624 733e 5d4a d83e
00000290: 101c 263e f6e8 90be a3f5 40be 71ff 5dbd
000002a0: cb75 d5be bad0 31bf 51c4 25bd 9f0e 4f3e
000002b0: 1971 e3be a0a0 8ebe 91e2 38bf 1891 d53c
000002c0: b8b1 98be 162b 493f 93cc 383c 712f b4be
000002d0: 660e 1ebe 8beb c5be f83c 583e 69fc d3bd
000002e0: 470b 5dbe e3fe 85be 4aec 27bf b518 a73e
000002f0: 73c0 593e a01f f7be 9f5e 08be ad4f 0cbe
00000300: b74c 253f 430d 2a3e 305c cebe 1aba d6bc
00000310: a7a1 a3bd f1b2 87be f078 14bf 1f95 27bf
00000320: df39 813e 8f37 a83e bcff 0d3e 865d c6be
00000330: fc4c e1be 82b6 e63d 3ac1 14be 78b4 60b6
00000340: 00c7 d0be 9ccb 133e e1d8 593d 7bcf c73d
00000350: c831 ed3e 810c 28bd cc69 efbe ffc7 f7bd
00000360: d5d3 713d 8b60 b8ba c03d d93d 67b3 15be
00000370: 9f62 693e 7836 babc b1ff 9f3d 7d21 af3e
00000380: c89c 6cbe 74e5 883e 5e0c 92be 345c 2cbd
00000390: 68fc 78be 6abe 51bd 7f91 8e3e 5f21 ae3c
000003a0: aeb3 c63e 1618 5a3e a999 3bbe 92b3 e9bc
000003b0: ef87 7bbd 86ac a4bd f38b 12bf 97a1 eabd
000003c0: 4489 b53d 4200 d1bd 9d24 e03d 33b0 04be
000003d0: 7f10 983e 9449 dc3e 4ac5 193e 75b1 dbbe
000003e0: 6dec f53e 8f53 f03c d9d5 f2be b0e7 f93e
000003f0: 736a 473e 7309 8d3e 3ab4 ffbe 2fb3 003f

lstm.bias_ih_l0 f4 [40]
0.16235386 0.05172158 0.2487103 -0.0200961 0.1807858 0.24749342 0.3912209 0.85381913
0.24419585 -0.17640889 0.2794277 0.18634747 0.029204343 -0.15489598 0.38443217 0.16024983
0.322922 0.15709251 0.21684058 0.17603007 -0.10966032 -0.19661088 0.11977887 -0.19948709
0.4036124 -0.13502452 -0.2772266 0.22049509 0.23863952 -0.1373045 0.3218409 0.39511323
0.36892107 0.23904005 0.50295013 0.4547929 -0.034152973 0.24074303 0.39397472 0.41318586
00000000: 1740 263e 02da 533d eaad 7e3e 94a0 a4bc
00000010: ea1f 393e ea6e 7d3e 1b4e c83e e493 5a3f
00000020: 7a0e 7a3e 88a4 34be 2611 8f3e dfd1 3e3e
00000030: f23d ef3c 0d9d 1ebe 4bd4 c43e 8818 243e
00000040: 0856 a53e dcdc 203e 750b 5e3e 3a41 343e
00000050: 9795 e0bd 5d54 49be a04e f53d 5846 4cbe
00000060: 49a6 ce3e de43 0abe a5f0 8dbe 77c9 613e
00000070: eb5d 743e 8d99 0cbe 55c8 a43e 484c ca3e
00000080: 39e3 bc3e eac6 743e 57c1 003f 9dda e83e
00000090: fde3 0bbd 5785 763e 0eb7 c93e 198d d33e

lstm.bias_hh_l0 f4 [40]
0.23290128 0.36104083 0.09287492 0.08181846 -0.03148026 0.47747478 0.15640341 0.7032644
0.0418201 0.11576644 0.07422753 -0.06614529 -0.11290939 0.32984483 0.38334382 0.22266366
0.577691 0.39144823 0.45081702 0.103976734 -0.13552077 -0.35512814 -0.31981552 -0.069815114
-0.011390636 -0.37575713 -0.10194081 0.48157102 0.23661272 -0.114918485 0.6665895 0.28370392
0.5460838 0.37252504 0.2653306 0.1433858 0.40044895 0.68084586 0.5933008 0.280167
00000000: ac7d 6e3e 58da b83e 3535 be3d 7090 a73d
00000010: 72f1 00bd 9377 f43e 3728 203e 2309 343f
00000020: 8e4b 2b3d f516 ed3d 9a04 983d 2f77 87bd
00000030: 0a3d e7bd 6ce1 a83e a445 c43e f101 643e
00000040: 8fe3 133f e76b c83e 7dd1 e63e c1f1 d43d
00000050: f5c5 0abe 5bd3 b5be dcbe a3be 3afb 8ebd
00000060: ca9f 3abc 3d63 c0be 58c6 d0bd 7a90 f63e
00000070: 9b4a 723e 625a ebbd 9ca5 2a3f a441 913e
00000080: 26cc 0b3f 9abb be3e 6ad9 873e bad3 123e
00000090: a507 cd3e ea4b 2e3f 90e2 173f 0d72 8f3e

lstm.weight_ih_l0_reverse f4 [40, 20]
-0.33367434 -0.6900501 -0.01865402 -0.2918881 -0.34963456 -0.8112063 -0.56776714 -0.25742146
0.16711123 -0.45987365 -0.30808255 -0.16471022 -0.45869508 0.058333274 0.45984876 -0.24027224
0.030611493 -0.6655558 -0.038168598 -0.53429765 0.21903273 0.47472265 -0.21836884 -0.23842368
0.14158018 -0.0099507915 -0.39334926 0.07777177 -0.1417757 0.29395434 0.24689837 -0.2527145
0.61348635 -0.023093453 0.26965204 -0.144704 0.13846968 0.42907822 0.13993225 -0.15579958
-0.18202299 -0.6375642 0.070756495 0.68739057 -0.14392374 0.4740884 0.5663341 -0.22454208
1.3530926 -0.07117851 -0.36376253 0.38744074 0.56543297 0.12840647 0.51142603 0.1902547
-0.2227872 -0.3421577 1.0971746 -0.48953676 0.4218706 0.28635174 -0.3737468 -0.2806972
-0.09158192 0.20673065 0.20855021 0.06360894 0.5934287 -0.04019184 0.8351361 -0.41605753
-1.314805 0.5095698 1.3283758 0.4632144 -0.04571265 0.46260154 0.545947 0.9939612
0.18049112 0.31152087 0.232842 0.6036918 0.16546106 0.09338277 0.7160595 -0.29203725
0.0121372 -0.47891578 -0.266734 0.20705332 -0.3864005 -0.6094244 0.44213483 -0.07410901
-0.38131776 -0.5920026 -0.55904776 -0.9817786 0.6182093 0.5888294 2.7930188 0.5172557
-1.0254077 0.42826518 0.4703019 -1.7421825 2.4448004 -0.7651809 1.3860708 2.2504463
1.3681235 2.4124577 1.7660121 1.1694136 1.9400482 -0.5865578 0.49978647 2.6878965
-0.8650382 -0.26056576 0.22597145 0.30052614 0.42419556 -0.45670754 0.06317862 0.32521105
0.56360084 -0.123166636 -0.00398667 1.1623708 -0.3102538 0.20013265 1.4688311 0.0033374235
0.22428766 0.3270719 0.4015405 -0.109975606 -0.4129839 0.05739776 -0.36184782 0.01672716
0.7595255 0.018559083 -0.46861756 0.27728 0.14293295 -0.08041979 0.5613303 0.2621918
-0.38520646 0.012544604 0.63434106 0.21583566 -0.03154844 0.3337081 1.0680857 0.79657406
-0.20188278 1.2811978 0.11479047 0.5933893 0.021042064 -1.0466845 -0.25279397 0.4886655
-0.12863375 -0.03391661 -0.25642967 -0.030329136 0.14286312 -0.9979445 0.55389327 -0.14032008
0.7178872 0.72004306 1.2292393 1.124174 0.04589107 0.9530124 0.23903976 0.19894662
-0.21000287 -0.62751245 -0.5693388 -0.23370579 -0.22463463 0.059242 0.43681657 -0.08262161
0.1036964 -0.35020486 -0.6426737 0.17226426 -0.015522732 -0.24688591 -0.23889033 -0.3884372
-0.107505135 -0.2618076 0.26629108 0.23595817 -0.29317355 0.04739027 0.1411777 -0.1426052
-0.05038291 0.08051697 -0.4108332 -0.5300097 0.14955471 0.2456702 -0.13947642 -0.21096888
-0.5348059 0.24185671 -0.060909025 -0.5436835 -0.1562459 0.14589104 -0.58362204 -0.015302707
-0.06584934 -0.08291189 -0.04703618 -0.2333027 -0.060698476 -0.050822925 0.8953221 0.45185372
-0.16445188 0.5047305 0.28236392 0.27303454 0.0043583214 -0.25603566 -0.33006588 0.3865782
0.30510882 -0.3326387 -1.0605503 -0.35354006 0.37847933 -0.13986106 0.5730315 0.74958533
0.2921435 0.36196113 0.7807854 -0.39421356 -0.15367523 0.004313471 0.58385056 0.110787466
00000000: 5dd7 aabe 20a7 30bf 51d0 98bc 5b72 95be
00000010: 4d03 b3be 37ab 4fbf 3059 11bf bfcc 83be
00000020: 351f 2b3e 8f74 ebbe ffbc 9dbe cca9 28be
00000030: 15da eabe dfee 6e3d 4c71 eb3e ed09 76be
00000040: f4c4 fa3c dd61 2abf ad56 1cbd bbc7 08bf
00000050: 1e4a 603e d90e f33e 159c 5fbe 5625 74be
00000060: 65fa 103e a508 23bc 1365 c9be ce46 9f3d
00000070: a62d 11be 2f81 963e edd2 7c3e cc63 81be
00000080: 710d 1d3f 7b2e bdbc d50f 8a3e 492d 14be
00000090: ffca 0d3e 24b0 db3e 664a 0f3e ed89 1fbe
000000a0: 3c64 3abe 6837 23bf c8e8 903d d4f8 2f3f
000000b0: bf60 13be b7bb f23e 46fb 103f 5cee 65be
000000c0: 2332 ad3f 0ac6 91bd 153f babe a25e c63e
000000d0: 37c0 103f fc7c 033e d1ec 023f 21d2 423e
000000e0: 5422 64be 4b2f afbe 3870 8c3f 90a4 fabe
000000f0: 6cff d73e b29c 923e be5b bfbe 8bb7 8fbe
00000100: 4d8f bbbd 33b1 533e 308e 553e 6745 823d
00000110: f1ea 173f 33a0 24bd 7bcb 553f 7e05 d5be
00000120: 884b a8bf 2b73 023f 3808 aa3f 702a ed3e
00000130: 303d 3bbd 1cda ec3e 2fc3 0b3f 3e74 7e3f
00000140: aad2 383e aa7f 9f3e 226e 6e3e 8c8b 1a3f
00000150: a06e 293e 773f bf3d ad4f 373f e885 95be
00000160: 1bdb 463c 7334 f5be 5c91 88be c905 543e
00000170: 49d6 c5be 3d03 1cbf 7f5f e23e 77c6 97bd
00000180: 153c c3be 7b8d 17bf c11d 0fbf d855 7bbf
00000190: f742 1e3f 86bd 163f d2c0 3240 df6a 043f
000001a0: 8f40 83bf 9345 db3e 69cb f03e d6ff debf
000001b0: 9c77 1c40 e5e2 43bf c56a b13f 5007 1040
000001c0: ac1e af3f b565 1a40 af0c e23f 58af 953f
000001d0: 8053 f83f a728 16bf 03e4 ff3e 7f06 2c40
000001e0: 2573 5dbf e068 85be 0f65 673e 90de 993e
000001f0: 2930 d93e 92d5 e9be cb63 813d 1082 a63e
00000200: 2548 103f ca3e fcbd 9da2 82bb 91c8 943f
00000210: 96d9 9ebe 93ef 4c3e a802 bc3f adb8 5a3b
00000220: aaab 653e f875 a73e b796 cd3e e43a e1bd
00000230: a072 d3be ea19 6b3d 1e44 b9be 6607 893c
00000240: 4370 423f 3809 983c a4ee efbe a5f7 8d3e
00000250: 045d 123e 22b3 a4bd 58b3 0f3f 013e 863e
00000260: c839 c5be e287 4d3c 2d64 223f 0604 5d3e
00000270: f038 01bd cadb aa3e 08b7 883f 47ec 4b3f
00000280: 5cba 4ebe 4afe a33f 4417 eb3d 5ce8 173f
00000290: 6860 ac3c c2f9 85bf 366e 81be 5d32 fa3e
000002a0: 91b8 03be 25ec 0abd c04a 83be cf74 f8bc
000002b0: b64a 123e 4a79 7fbf f3cb 0d3f 11b0 0fbe
000002c0: 75c7 373f be54 383f b757 9d3f efe4 8f3f
000002d0: 46f8 3b3d 9ff8 733f d7c6 743e aab8 4b3e
000002e0: fe0a 57be a8a4 20bf 30c0 11bf 9250 6fbe
000002f0: 9f06 66be bda7 723d 6ca6 df3e 8535 a9bd
00000300: c75e d43d 0d4e b3be 4386 24bf 0b66 303e
00000310: 0f53 7ebc a9cf 7cbe ab9f 74be 3ee1 c6be
00000320: a72b dcbd a50b 86be 4e57 883e 059f 713e
00000330: d81a 96be 4d1c 423d e390 103e 1907 12be
00000340: 4f5e 4ebd 15e6 a43d bb58 d2be b7ae 07bf
00000350: df24 193e f890 7b3e e8d2 0ebe 3a08 58be
00000360: 0ae9 08bf 49a9 773e be7b 79bd d82e 0bbf
00000370: edfe 1fbe 7664 153e 4168 15bf 35b8 7abc
00000380: 05dc 86bd b5cd a9bd 02a9 40bd e7e6 6ebe
00000390: f79e 78bd b32b 50bd d433 653f 5f59 e73e
000003a0: 1366 28be 0536 013f 0192 903e 2fcb 8b3e
000003b0: 40d0 8e3b 1b17 83be 65fe a8be 94ed c53e
000003c0: 3937 9c3e 9f4f aabe 1dc0 87bf 3403 b5be
000003d0: 0bc8 c13e bd37 0fbe 31b2 123f d3e4 3f3f
000003e0: d593 953e f852 b93e 8de1 473f 5cd6 c9be
000003f0: 0a5d 1dbe 0458 8d3b 3b77 153f 8ae4 e23d

lstm.weight_hh_l0_reverse f4 [40, 10]
0.015433911 0.27039087 0.47683463 -0.2385785 -0.2346115 -0.36329478 -0.35922384 0.6287041
0.048577428 0.066033676 0.16251141 -0.5031853 0.20888482 0.06548411 -0.5841191 -0.71361315
-0.57299095 0.027454408 0.11964901 0.6172801 0.3273559 -0.48725906 0.2568199 -0.29375583
0.03427142 0.1546797 0.45184812 0.3736783 0.091712035 -0.34218404 -0.105075404 -0.7334244
0.28312725 -0.5083173 -0.31357476 -0.3028376 -0.3824254 0.138364 0.27563184 0.112650536
-0.09337694 -0.253514 0.03802519 0.21256043 0.024989458 -0.34403715 -1.2521102 0.61007947
-0.2554442 -0.61031973 0.19444382 0.60166335 1.1575027 0.68749976 -0.24567094 -0.3340154
-0.25289327 0.19487211 -0.0567571 -0.43715298 -0.5113647 -1.3171927 0.009039525 0.052751992
-0.25323305 0.7600408 -0.032643758 -0.013435697 0.23985814 1.061941 -0.13969775 -0.022225548
0.18529135 0.24105507 0.018334817 0.17091773 -0.99239033 -0.1759594 -0.2805058 0.19493549
0.2422929 0.778389 0.13412824 -0.538523 0.5703035 -0.05071969 0.5600096 -0.1866526
0.56564033 -0.11237395 0.28389695 -0.17337196 -0.2912805 -0.16643244 0.59067816 -0.11259251
-0.12330928 0.41497263 0.51864165 -0.15212852 -0.23818141 0.5650476 0.48624364 0.38042498
-0.058853555 0.5027941 -0.018485604 0.33613646 0.24292888 0.14092013 0.1170277 0.41419408
0.8011969 0.59444445 -0.07589498 0.19820909 0.39142972 0.61956173 -0.06253924 -0.24362129
0.18726581 0.30068484 -0.029371696 -0.26250815 0.7764089 -0.06964717 1.2283045 0.5357505
0.22564799 -0.49605548 -0.005930451 0.32008198 0.07914163 0.014234055 0.27530518 0.37330973
-0.4937535 -0.0068969647 0.03569257 -0.1281596 0.0071662744 0.7156992 0.06159417 0.48212376
-0.16270132 0.22173034 -0.115291275 0.60840577 0.087268785 -0.10340551 0.30693212 0.20358065
0.39662948 0.8294416 -0.44392216 0.3274459 -0.082705885 0.49886504 0.118328564 0.18415311
0.18152627 0.2337751 0.34759638 0.47491065 0.30927646 0.45321798 0.76123565 0.38817093
0.02892926 0.107902065 0.103796385 0.24839884 0.23042074 -0.010537752 0.18361683 0.03881601
-0.27485356 0.0004085919 0.2983449 -0.3077645 -0.9957599 0.42399472 0.09855608 0.31506255
-0.18475008 -0.012984651 -0.22166054 0.10128939 0.2704848 0.18033321 -0.5351071 1.5344961
0.3048312 0.46858042 -0.10070512 0.19750643 -0.32791123 0.25868848 0.57143617 0.31421614
0.32493526 0.30894515 0.19644557 -0.21398352 0.077715464 0.13372673 0.58107966 -0.18770133
-0.09434427 -0.137732 0.37616158 0.069178395 -0.3600578 0.26379913 -0.12110194 0.13027589
0.41205817 -0.38140342 0.20455712 0.44243705 0.062061384 0.3194778 -0.11516714 -0.20435841
0.015449514 0.025245665 0.51636857 0.22864561 0.19492583 0.053690232 0.37299442 -0.5225987
-0.24384291 0.21649604 -0.5756848 0.19689107 -0.17125198 -0.3828698 0.15940149 0.11906
0.20492093 0.67381084 -0.057241216 -0.28424284 0.3098939 0.2598763 0.018189238 0.27413324
0.019846575 -0.37247846 -0.8224708 -0.83667916 -0.10758726 0.20053044 -0.15612827 0.47602051
00000000: 84de 7c3c ac70 8a3e ab23 f43e ec4d 74be
00000010: ff3d 70be c601 babe 30ec b7be c0f2 203f
00000020: 20f9 463d aa3c 873d 6469 263e c0d0 00bf
00000030: e7e5 553e 881c 863d d488 15bf 5aaf 36bf
00000040: 89af 12bf 11e8 e03c 8a0a f53d 1206 1e3f
00000050: 319b a73e 057a f9be e67d 833e 2a67 96be
00000060: 3060 0c3d 5b64 1e3e a358 e73e c352 bf3e
00000070: 85d3 bb3d bf32 afbe c631 d7bd b4c1 3bbf
00000080: 0ef6 903e 1521 02bf df8c a0be 880d 9bbe
00000090: 43cd c3be 4baf 0d3e 9e1f 8d3e 53b5 e63d
000000a0: 693c bfbd 96cc 81be 4dc0 1b3d 71a9 593e
000000b0: b1b6 cc3c a325 b0be 2645 a0bf 2b2e 1c3f
000000c0: 95c9 82be ea3d 1cbf 481c 473e 9c06 1a3f
000000d0: 0c29 943f fcff 2f3f 2a91 7bbe 1104 abbe
000000e0: 3a7b 81be 8e8c 473e 227a 68bd 84d2 dfbe
000000f0: cce8 02bf c599 a8bf 841a 143c 7912 583d
00000100: c3a7 81be 0992 423f 76b5 05bd 6621 5cbc
00000110: 5f9d 753e afed 873f ed0c 0fbe 5a12 b6bc
00000120: 04bd 3d3e 24d7 763e e632 963c 0f05 2f3e
00000130: 4b0d 7ebf b32e 34be 759e 8fbe 2b9d 473e
00000140: a11b 783e 8044 473f ea58 093e a5dc 09bf
00000150: 69ff 113f 73bf 4fbd ca5c 0f3f dc21 3fbe
00000160: cecd 103f 5024 e6bd f15a 913e 6b88 31be
00000170: b822 95be 446d 2abe af36 173f e796 e6bd
00000180: 9389 fcbd 4b77 d43e b3c5 043f 94c7 1bbe
00000190: d4e5 73be f6a6 103f edf4 f83e 10c7 c23e
000001a0: 6d10 71bd 1db7 003f 1f6f 97bc 141a ac3e
000001b0: 59c2 783e 5e4d 103e 38ac ef3d 3f11 d43e
000001c0: 3d1b 4d3f 832d 183f d46e 9bbd 53f7 4a3e
000001d0: 7a69 c83e 999b 1e3f 9314 80bd dc77 79be
000001e0: 9cc2 3f3e 5df3 993e e99c f0bc 7867 86be
000001f0: bcc2 463f 2da3 8ebd 1539 9d3f f226 093f
00000200: 4410 673e fcfa fdbe 3b54 c2bb c9e1 a33e
00000210: 0215 a23d f435 693c cdf4 8c3e 7422 bf3e
00000220: 42cd fcbe efff e1bb 5f32 123d 453c 03be
00000230: 11d3 ea3b 1038 373f 2b4a 7c3d edd8 f63e
00000240: 2d9b 26be 470d 633e d51d ecbd 7bc0 1b3f
00000250: fab9 b23d 45c6 d3bd 3526 9d3e 7277 503e
00000260: 0513 cb3e 4956 543f c449 e3be fda6 a73e
00000270: b461 a9bd 3d6b ff3e 3f56 f23d a292 3c3e
00000280: 06e2 393e bd62 6f3e 27f8 b13e 7d27 f33e
00000290: 7c59 9e3e 300c e83e 57e0 423f 57be c63e
000002a0: 0efd ec3c c2fb dc3d 3393 d43d 445c 7e3e
000002b0: 6af3 6b3e 89a6 2cbc 0d06 3c3e 89fd 1e3d
000002c0: 9bb9 8cbe 4738 d639 aac0 983e 4f93 9dbe
000002d0: 1fea 7ebf d615 d93e c5d7 c93d e14f a13e
000002e0: 202f 3dbe 93bd 54bc fbfa 62be d070 cf3d
000002f0: fc7c 8a3e 45a9 383e c7fc 08bf 5e6a c43f
00000300: d612 9c3e c6e9 ef3e 7c3e cebd 203f 4a3e
00000310: fbe3 a7be d172 843e a449 123f f0e0 a03e
00000320: ea5d a63e 0f2e 9e3e 0729 493e 7f1e 5bbe
00000330: 4929 9f3d a9ef 083e a3c1 143f c734 40be
00000340: 9237 c1bd 9e09 0dbe 4098 c03e 67ad 8d3d
00000350: 7f59 b8be ae10 873e 4b04 f8bd 0b67 053e
00000360: 4af9 d23e 4f47 c3be 6c77 513e 1c87 e23e
00000370: 1434 7e3d 9892 a33e c0dc ebbd 5543 51be
00000380: f51f 7d3c ffcf ce3c bb30 043f 1322 6a3e
00000390: a39a 473e 4aea 5b3d 20f9 be3e 07c9 05bf
000003a0: f5b1 79be 23b1 5d3e 1460 13bf d09d 493e
000003b0: ae5c 2fbe 8307 c4be 253a 233e bbd5 f33d
000003c0: cbd6 513e de7e 2c3f c475 6abd 4788 91be
000003d0: 6aaa 9e3e 820e 853e 9901 953c 315b 8c3e
000003e0: 4995 a23c 7fb5 bebe 728d 52bf 9b30 56bf
000003f0: b656 dcbd da57 4d3e 17e0 1fbe f6b8 f33e

lstm.bias_ih_l0_reverse f4 [40]
0.24007612 0.1641708 -0.021069301 0.28170797 0.06610836 0.05466368 0.47145104 0.26023278
-0.35510778 0.041931335 0.33709708 0.3865025 0.32776886 0.5573435 -0.017022947 0.035416353
0.038545236 0.23211807 0.6110863 0.5101005 -0.28926486 0.16701254 0.39613146 0.32273713
-0.22723074 0.35966116 -0.049508616 0.32864985 -0.006116485 0.33811015 0.12561108 0.5148968
-0.11421466 0.10789203 0.47936916 0.53899395 0.9952708 0.34774107 -0.0059466558 0.26976317
00000000: 84d6 753e 641c 283e 8799 acbc 073c 903e
00000010: d263 873d 06e7 5f3d 0862 f13e 3b3d 853e
00000020: b0d0 b5be 31c0 2b3d fd97 ac3e a8e3 c53e
00000030: 52d1 a73e 10ae 0e3f b573 8bbc bd10 113d
00000040: 9ce1 1d3d 5cb0 6d3e 2770 1c3f f295 023f
00000050: 861a 94be 5605 2b3e bed1 ca3e cd3d a53e
00000060: 2daf 68be 8225 b83e 8cc9 4abd cb44 a83e
00000070: cc6c c8bb c61c ad3e 31a0 003e 47d0 033f
00000080: 60e9 e9bd 7ff6 dc3d e06f f53e 82fb 093f
00000090: 11ca 7e3f 1e0b b23e 2adc c2bb 661e 8a3e

lstm.bias_hh_l0_reverse f4 [40]
-0.28351647 0.15624608 -0.07867873 0.20484339 -0.06689481 0.47261167 0.29201588 -0.16233099
-0.18523963 0.09985704 -0.1186313 0.50529003 0.26531857 0.59352064 -0.03793063 0.44121355
0.21242504 0.1888932 0.02487165 0.43525064 -0.06824149 -0.35646147 0.06682378 0.18940835
-0.24538618 0.26731777 -0.23742682 0.20208228 0.22486767 -0.25459212 0.3293104 0.25863075
-0.21482784 0.040440373 0.49783412 0.6638699 0.5077743 0.1376022 -0.06636495 0.2082383
00000000: 1229 91be f9fe 1f3e 5022 a1bd 77c2 513e
00000010: 2500 89bd 28fa f13e 1b83 953e 183a 26be
00000020: 75af 3dbe d981 cc3d f8f4 f2bd b05a 013f
00000030: d6d7 873e f8f0 173f 265d 1bbd bee6 e13e
00000040: f385 593e 386d 413e a1bf cb3c 2cd9 de3e
00000050: 32c2 8bbd 1e82 b6be e8da 883d 43f4 413e
00000060: 8446 7bbe e0dd 883e 0420 73be a8ee 4e3e
00000070: b643 663e e659 82be 5f9b a83e 406b 843e
00000080: d4fb 5bbe cea4 253d 1de4 fe3e 61f3 293f
00000090: 7ffd 013f 97e7 0c3e 59ea 87bd 6c3c 553e

fc.weight f4 [2, 20]
-0.8328008 -0.5917831 -0.56155664 0.022508813 0.6562192 -0.98394156 0.31904086 0.6673374
0.58077174 0.39244524 -0.19412775 -0.7932214 -0.5861041 0.5944928 -0.4860048 0.84018433
-0.6739398 0.04336009 0.030800773 0.97972786 0.8745905 0.6015849 0.5417419 -0.01425905
-0.6397211 1.0764395 0.082062475 -0.8341708 -0.6690861 -0.34155527 0.50303465 0.6395868
0.49858928 -0.9676257 0.23627552 -0.6484146 0.8296232 -0.08161518 0.29466975 -0.89897937
00000000: 6f32 55bf 197f 17bf 2dc2 0fbf 6764 b83c
00000010: fbfd 273f 98e3 7bbf 5359 a33e a0d6 2a3f
00000020: 75ad 143f 95ee c83e 6dc9 46be 8f10 4bbf
00000030: eb0a 16bf ae30 183f 9fd5 f8be 5216 573f
00000040: 5287 2cbf 5a9a 313d e751 fc3c 72cf 7a3f
00000050: 2ae5 5f3f 7801 1a3f 99af 0a3f ca9e 69bc
00000060: c3c4 23bf c5c8 893f 5f10 a83d 388c 55bf
00000070: 3a49 2bbf 55e0 aebe e1c6 003f f6bb 233f
00000080: 1847 ff3e 51b6 77bf 36f2 713e 80fe 25bf
00000090: 3062 543f dc25 a7bd f4de 963e 8323 66bf

fc.bias f4 [2]
0.056355864 -0.071117654
00000000: 68d5 663d 22a6 91bd
