sparrow/data/networks/scaled_rg/scaled_rg_network_v2.pt (torch, 137891 bytes, 9 tensors)

lstm.weight_ih_l0 f4 [220, 20]
00000000: e24b 0dbe f712 2b3d cd06 91bd 045f 0b3d
00000010: 7026 94bd a653 e8bc 54c2 0c3e 4c68 983e
00000020: 3c86 90be 1fa6 dd3e dacc 61bd 6f89 a5be
00000030: e3c5 0dbe 023a c23c 13d8 3ebe 41e7 513e
00000040: 4dc3 a13d 53e1 a03e 75bd 29bd 0c6f 113e
00000050: ddb7 06be d42f 383e 81b4 4ebf 7b6d 10bf
00000060: 95ad b1bd 942b 73be c8ba c4be 9d77 5a3f
00000070: 8133 39be e5e2 2f3f 9d70 b43d 5e84 6dbf
00000080: 8ba8 86be 1b7a 8ebf 163d 07bf 5a3d d93c
00000090: 6be7 89bc e750 3b3f 08d3 c1be b30a 3cbe
000000a0: 2cb1 ac3b 715e ce3c 2679 973c a016 843e
000000b0: 2156 263e baf2 96bd bed1 bc3d cf19 db3c
000000c0: d6df c9be fdfc 323e da23 5bbc 45a2 a8bd
000000d0: 9123 50be 249e 5dbe 21b5 67be 8b0b 813d
000000e0: 7be8 b4bd 17d7 a13e bdc0 7ebd d3bd 5b3e
000000f0: 3a36 58be 42c9 6e3d 9015 40bb 1c40 4abc
00000100: 58f0 a53d 9b68 78bd 80e4 bfbd 1dce b83e
00000110: 83cc a7be f37a 2f3e df68 1d3e d358 bebd
00000120: e281 09be 52f3 69be a7af 4ebe 3e68 b33d
00000130: c142 10bd 7786 af3e 5f0f acbd 5531 383e
00000140: e756 7dbe dce2 efbd a55e ddbe e300 b5be
00000150: 4f3d c7bd 61e3 57be 721d 833c a7bd ab3e
00000160: be4c c5bd 8e62 b63e a527 53bd 57a9 80be
00000170: 6a62 a2be 620b 68be 7e09 bbbd dd6c 593d
00000180: ee5d fabd d38d a13e d5a7 e7bd 533b c43d
00000190: 951d 833f d460 cb3f 45dd 453f 5a46 473f
000001a0: fe42 fd3e 75c5 633f f583 aebe 9512 09bf
000001b0: b318 b83f b327 0d40 ee75 0940 1006 e63e
000001c0: 02c2 aa3f a426 7b3f f5ba 6bbe 4d60 ab3f
000001d0: e1bd e03f 0443 c83f 0b71 b73f 8063 7abe
000001e0: 0149 e6be e58a 9b3d 2afe 6bbf 896d 17bf
000001f0: 127d fa3d 1915 14bf 50c3 bebe 7ad8 673f
00000200: 7a27 d03e f121 ed3e 2d20 6b3e 287f 5ebf
00000210: 24e5 dbbe 8d1b 56bf 16dd 033f 0d6f 32be
00000220: 8a84 70be 94c3 173f e457 4cbe 1411 86be
00000230: f139 7ebd e1fd 253f f771 1ebf 3153 29bf
00000240: bf9f 3b3d be66 863e 3666 52be 2a6e 363e
00000250: d76d e13c 016f cf3e 3dec 2f3f 2c8a 90be
00000260: 6666 6dbd da58 b8be ebd3 9c3e 533f 933e
00000270: e1c1 0cbd 5177 3b3f e93b 20bd 00ce 153d
00000280: 332f d43e ebad 0f3f e53b 993e 21fd ba3d
00000290: f1e0 eabd 23d0 be3e a16c 893c d4cd bb3e
000002a0: 6e19 ccbe 4c00 903f f837 6d3f b2ab 6bbe
000002b0: cf00 253f 55ac 3f3d 8cc4 2ebf cebb 0a3d
000002c0: 66a2 763e d261 5e3f 3987 19be 7ed0 b0bd
000002d0: aab3 90be 5c03 5b3e 4796 4abf 1c49 18bf
000002e0: b12c 743e 3b4b d1be be65 1cbe 5004 3d3f
000002f0: d81d d9bd cfb4 df3e 959b 963e e4b0 3dbf
00000300: 4e96 adbe f3f1 40bf 41b4 57bd 9d3b 043c
00000310: 1388 84be 9af1 1c3f 76cb 5abe 85be 653e
00000320: e78f a93e 3f35 8e3e 552d 673f a079 c73d
00000330: d386 98be a9d6 933e c19f 023d ad6a 1a3d
00000340: 392b 19be ac1b ac3e 1e4d 833e 0a13 1ebe
00000350: 9a37 b1bd 1fb5 29bd 4f1b c93d b8c7 a43e
00000360: 896c 6fbe 8a30 b33e f4c3 d23e 58ac e5bd
00000370: f573 113e cd2d 5b3d 0dcf 54bd b6a2 3c3e
00000380: 7f3d 69bd fb6b 59bc 3d96 f93c f12d 923e
00000390: e862 bfbe c270 b73d 1f58 373d 6deb 94bd
000003a0: feba b03d 841a 14bc 127b 3abe e47f da3d
000003b0: e9dd 403e 8b4a 273e 8f2d d1bc 1a2b 033e
000003c0: 148a 90bd 6d0f 75bd 2541 43bd 5543 bebd
000003d0: 49c4 9dbd 9fae 3c3e af85 363e 510c 233e
000003e0: 5cc0 66bb e782 653d 4a1f c73c 2462 afbd
000003f0: daf7 1b3e 6ed6 75bb 5ee4 aa3d 50ea f13d
-0.13798478 0.041766133 -0.07081375 0.03402616 -0.07233894 -0.0283602 0.13746005 0.29767072
-0.28227413 0.43290803 -0.055127002 -0.32331416 -0.13845019 0.0237093 -0.18637113 0.20498373
0.07898579 0.3142191 -0.041440446 0.14202517 -0.13156076 0.17986995 -0.8074418 -0.56417054
-0.08675686 -0.23747092 -0.38423753 0.85338765 -0.18086053 0.6870559 0.08810542 -0.927801
-0.26300463 -1.1131014 -0.52827585 0.026518513 -0.016833981 0.7317032 -0.37856317 -0.18363456
0.005270144 0.025191518 0.018490385 0.25798512 0.16243793 -0.07370515 0.09219693 0.026745705
-0.39428586 0.1747932 -0.013375247 -0.082340755 -0.20326068 -0.21642357 -0.22627689 0.0630103
-0.08833405 0.31609413 -0.06219553 0.21459131 -0.21114436 0.058297403 -0.0029309727 -0.012344386
0.081024826 -0.060646635 -0.09369755 0.36094752 -0.32773218 0.17136745 0.15372036 -0.092942856
-0.13428453 -0.22846726 -0.20184194 0.08760117 -0.03521991 0.34282276 -0.08401369 0.17987569
-0.24740182 -0.11713192 -0.4323627 -0.3535224 -0.097284906 -0.21082832 0.016005252 0.3354313
-0.09633778 0.35622066 -0.05155148 -0.25129196 -0.3171571 -0.22660592 -0.0913267 0.053082336
-0.12224947 0.31553516 -0.11311308 0.09581628 1.0243403 1.5888925 0.77290756 0.7784172
0.49465173 0.8897317 -0.3408505 -0.5354398 1.4382538 2.205548 2.1478229 0.449265
1.3340456 0.98105836 -0.23020537 1.3388764 1.7557946 1.5645452 1.4331373 -0.24452019
-0.44977573 0.075948514 -0.921847 -0.5915151 0.122308865 -0.5784469 -0.37258387 0.9056469
0.40655118 0.46314958 0.22961493 -0.86912775 -0.42948258 -0.8363579 0.51509225 -0.17425175
-0.2348806 0.59282804 -0.19955403 -0.26184905 -0.062066976 0.64840513 -0.61892647 -0.66142565
0.045806643 0.2625026 -0.20546803 0.17815462 0.027518196 0.40514377 0.68719846 -0.28230417
-0.057958983 -0.36005288 0.3063043 0.2875925 -0.034364585 0.7322894 -0.039119635 0.03657341
0.4144226 0.5612475 0.29928508 0.09130312 -0.114686854 0.3726817 0.016775431 0.36680472
-0.3986315 1.1250091 0.92663527 -0.23014715 0.6445436 0.046795208 -0.68268657 0.03387051
0.24085388 0.8686801 -0.1499299 -0.08633517 -0.28262073 0.21388 -0.79135555 -0.59486556
0.23845173 -0.4087771 -0.15273187 0.73834705 -0.10601395 0.43692634 0.29415575 -0.7409804
-0.33903736 -0.75369185 -0.052662138 0.008070854 -0.25885066 0.61306155 -0.21366677 0.22435959
0.331176 0.27775 0.90303546 0.09739995 -0.29790363 0.2887471 0.031890634 0.03769939
-0.14957894 0.33614862 0.25644773 -0.1543695 -0.08653183 -0.041432496 0.09819662 0.32183623
-0.23381247 0.3499797 0.41165125 -0.112145126 0.1420439 0.053510476 -0.05195527 0.18421444
-0.056943413 -0.013270373 0.030467147 0.28550676 -0.37380147 0.08957054 0.044761773 -0.072714664
0.08629416 -0.009039525 -0.1821101 0.106689245 0.18834652 0.1633703 -0.02553442 0.1280941
-0.07057586 -0.059829164 -0.04766955 -0.09290186 -0.07703454 0.18425988 0.17824434 0.15922667
-0.003520987 0.05603304 0.024306912 -0.08563641 0.15231267 -0.0037511843 0.08344339 0.1181227

lstm.weight_hh_l0 f4 [220, 55]
00000000: 1ee3 92be b51c 3037 55a7 523e 1fed 3b3e
00000010: 1fbc 093e b26c 9a3d 50b4 9bbb 16a5 23bc
00000020: c8cc f5bc 3051 1b3d b323 1c3e a9b1 0abd
00000030: 3c35 593e a8af a9bd 0781 713d a082 663c
00000040: 121a 3dbe ef5d 45be f0a0 65bd d295 443e
00000050: 66d1 e4bd a9f7 ddbc 5879 663e cf94 d6ba
00000060: 84af df3b 792a c8bd cfa2 643d 1d4f 293e
00000070: ea9b 333e 569e 1abe e642 83bd c5bb 93ba
00000080: 5aa3 0e3e 9d19 e5bd f560 0dbd 6e99 0ebd
00000090: 7008 22bd 9f4a 1f3e 79d8 3cba e59f c2bc
000000a0: b45a 713e f1d1 823d c7ba 4dbe d4ff 443d
000000b0: ae1c 453e 1bad 773a c5a5 1ebe 6cd8 8cbc
000000c0: 4f99 e83d 25a9 633e 134f a8bd 7ad4 29be
000000d0: 279d e2bc f887 34be 19f5 18bc e40e e33d
000000e0: 01fa d83d c477 e73d 85f9 fcbd 3ab8 b63d
000000f0: 6201 dcbd b039 98bd 7d65 d83d 5375 e93d
00000100: 2ae0 84bd 5b18 61be d07c 8d3d b64f 053d
00000110: c6f4 13bd 2d11 d0bd a2ca e3bd f092 223e
00000120: 3cda fcbd 6af2 a6bd 5336 0dbe 925d 223d
00000130: c170 503d 4bfd 203e 9d94 26be 07ce 0bbd
00000140: 1c82 dd3d 6642 24bd 6c85 733a abcf 1fbd
00000150: 5004 19bd c9c0 56be 9348 54bc 70a5 103d
00000160: 1069 08be aed4 c73e 242a 35be 1243 a23d
00000170: fb11 fe3c bb6b 0a3e 7d23 ec3c a17c 973d
00000180: 1718 7abe d5bc d43c cbb4 f63d 6391 acbd
00000190: 507e 863d 2818 cdbb eda0 42bc ee1f 94bd
000001a0: 5879 5abd 7fd6 1d3e 5e97 93bd 2c65 d4bd
000001b0: ca31 563b a9ae ab3d 2b1f b1bd a20a 24bc
000001c0: 871a 723e d78e 633e 86ce 7c3e ecaf 173c
000001d0: 0b69 f6bd ed03 f3bd 3bf8 3abd d752 6e3e
000001e0: 9c1d efbc 6122 cbbc 33c0 7b3e 215a 4abd
000001f0: 88ac 4a3e 4862 e73d f856 70be e8cc dcbd
00000200: 0bf0 41be 778c 3a3b b5f8 2cbe d18a 3bbd
00000210: 69a5 dd3d 3797 82bc 9dee acbd e7d7 88be
00000220: 238f 1e3e 8585 043e f101 163e f4c6 b03c
00000230: f234 c83d 859c 843e 14fd a93c b93f 50be
00000240: db51 ccbd 8d76 fc3c 3640 17be a157 893d
00000250: 9d42 5cbd 3d4d 6d3c b331 303e f1b6 683d
00000260: c748 03be e51d 293e 968a 603e 2f0f 59bb
00000270: 4352 d83b cc68 013e 8dd6 49bd e479 2e3e
00000280: e3ca 86be 313e 23bd 6847 13be 726d 6abd
00000290: 05a7 cc3d 5820 26be ab78 c9bd 14da 0c3e
000002a0: c764 3e3d 21c0 853e 7631 063e d77d 723d
000002b0: a0d3 06be 6b7e c93d 786f 393e bf26 53bd
000002c0: 57c4 70bd 4f89 913e 9bea 0bbe f4f9 d73d
000002d0: 14bb 6dbd 67e9 b0bd b89d 21be 4f78 13be
000002e0: 6418 2d3d 0cfc f5bd 73f3 4cbe 2074 493e
000002f0: 8cd6 a5bd 9335 253e 4093 a3bd 8a6a 363e
00000300: 65b0 643d cccc d43d 7223 9abd ff31 003e
00000310: 6ef9 2e3d 0180 9dbd a6cd 0dbe 45d4 8c3c
00000320: 12bb 79bd 4860 173d 6aa6 4b3e 8da1 2dbe
00000330: dd84 4f3e 57fd e83d 6442 a53d 9d73 ebbd
00000340: 99b5 fe3d f545 5c3e 0797 f83c 255a 793d
00000350: 2ff3 973d dfa2 313e 82bb 453e 502b 62be
00000360: b51e 18be 29fe 87bd 82a9 5bbd 9993 7abd
00000370: cc3c 2cbe 979e 1dbd 5ad8 403e 6ee8 d43d
00000380: 31af 2e3d 2fa6 dc3c 9fb5 16be 35d5 a2ba
00000390: 6fdc 013e 64fc f03d 6c6e ca3c b657 04bd
000003a0: d660 1a3e a60a eebd 75af 3b3e 6f86 243e
000003b0: 71db dabc 3915 03be 476f a1bd 1ab5 4e3d
000003c0: f929 29bb 277d 0abe 3719 153e 0c96 1c3d
000003d0: c6e6 8c3d b822 623d ff92 a73d 0067 0a3e
000003e0: 6b1b 633e e825 853d a124 5fbd 6601 d13d
000003f0: d518 0d3e e305 b1b9 945e f23c d629 4fbe
-0.28688902 1.0497101e-05 0.20571645 0.18352173 0.13450669 0.07540263 -0.0047517195 -0.00998809
-0.030004874 0.037919223 0.15247993 -0.033860836 0.21211714 -0.08285457 0.05896094 0.014069229
-0.18466976 -0.19274114 -0.056061685 0.19197777 -0.11172752 -0.027095633 0.22507226 -0.0016371253
0.006826343 -0.09773726 0.05581933 0.16534086 0.17539945 -0.15099463 -0.06409244 -0.001127117
0.13929501 -0.11186526 -0.034516294 -0.03481429 -0.039558828 0.1555581 -0.0007203888 -0.023757884
0.23569757 0.063876994 -0.20090781 0.04809554 0.19249222 0.0009448097 -0.15492924 -0.017193042
0.11357366 0.22232492 -0.08218207 -0.1658496 -0.027662827 -0.17629993 -0.00933578 0.110868245
0.105945595 0.1130214 -0.123522796 0.08921857 -0.10742451 -0.07432878 0.10566232 0.11399331
-0.064880684 -0.21981947 0.06908572 0.03254672 -0.036122106 -0.10159526 -0.111226335 0.15876365
-0.123463124 -0.081517056 -0.13790254 0.039640017 0.05088878 0.15721624 -0.16267629 -0.03413203
0.10815832 -0.040102385 0.0009289596 -0.039016407 -0.03735763 -0.20971979 -0.012956756 0.035314023
-0.13321328 0.3902945 -0.17691857 0.07922949 0.031014433 0.13517658 0.028825516 0.07396818
-0.24423252 0.025968948 0.12046202 -0.08426168 0.06567061 -0.006258983 -0.011879188 -0.072326526
-0.05333838 0.15413855 -0.072066054 -0.103708595 0.0032683485 0.08382923 -0.08648523 -0.010012301
0.23642932 0.22222458 0.24688157 0.009258252 -0.12031754 -0.11865983 -0.045646887 0.23273788
-0.029188924 -0.024796667 0.24585037 -0.04940236 0.19792378 0.112980425 -0.23470676 -0.1078127
-0.18939225 0.0028465071 -0.16891749 -0.045786683 0.10822565 -0.015941245 -0.08443949 -0.2672722
0.1548429 0.12941559 0.14649178 0.021579243 0.097757235 0.25900665 0.02075056 -0.20336808
-0.0997655 0.030818248 -0.14770588 0.06706167 -0.053774465 0.014483747 0.17206459 0.05681509
-0.12820731 0.1651531 0.21927866 -0.0033120622 0.0066016032 0.12637633 -0.049276877 0.17038685
-0.26326665 -0.039854232 -0.14382708 -0.05723328 0.09992794 -0.16223276 -0.09837469 0.13755065
0.046482828 0.26123145 0.13104805 0.05920204 -0.13166666 0.098385654 0.18108928 -0.051550623
-0.058780994 0.2842507 -0.13663714 0.10545722 -0.05803974 -0.08638268 -0.15782821 -0.14401363
0.04225959 -0.12010965 -0.20014744 0.19673204 -0.08097562 0.16133718 -0.0798707 0.17814079
0.055832285 0.103906244 -0.07526292 0.12519072 0.042718343 -0.076904304 -0.1384798 0.017191062
-0.06096942 0.036957055 0.198877 -0.16956158 0.20265527 0.11376446 0.08069304 -0.11496661
0.12436981 0.21511061 0.030345453 0.060876984 0.074194305 0.17347287 0.1930981 -0.22086835
-0.14855464 -0.06640274 -0.053628452 -0.061175916 -0.16820067 -0.03848132 0.18832532 0.10395895
0.042647544 0.026934711 -0.1471772 -0.001242316 0.12681745 0.1176689 0.024710856 -0.03231021
0.15076002 -0.11623125 0.1832865 0.16066907 -0.026715966 -0.12801065 -0.078825526 0.05046568
-0.0025812371 -0.13524304 0.145604 0.038229033 0.06879954 0.05520889 0.08182334 0.13515854
0.22178428 0.06501371 -0.05447829 0.10205345 0.13779004 -0.00033764457 0.029586114 -0.20230803

lstm.bias_ih_l0 f4 [220]
00000000: cd12 7c3d 41c5 94bd 33c2 9d3d 9030 723d
00000010: f5f8 013e 82f9 793a 96b9 0a3e 6b70 01bf
00000020: 7fa4 a6be f1e7 303b 4929 d0be 4ca8 2a3e
00000030: f7c3 843e 7297 dabe 3451 673d eaf7 f3be
00000040: 8c1d 173e 667b c43c e5c8 f23d 97bc c3be
00000050: 0d0e 1fbf 168f 653e 21e9 873e 9052 80be
00000060: df23 94be 1d90 f5be 4ee8 de3d 9b5e a33d
00000070: 1a64 843e 0267 bfbe 1ff6 1d3e 9e80 ab3c
00000080: 9611 a1be 7752 783e 2ec3 24bf 14c3 87be
00000090: feb9 863d 7222 743e 76b7 e3be 4995 9bbe
000000a0: 00a9 413e 6ee2 10bf ba95 363e 8991 7f3e
000000b0: 0f0a 3e3e c670 0fbf 05a9 89be 7b60 98be
000000c0: 39cf d2be 7144 6f3e ca03 2d3e d861 8e3e
000000d0: aa62 733e 69fd dabe 9e90 173d 933a 593e
000000e0: 58a1 a03d b06f 8e3e 071e 3b3d 2616 083e
000000f0: cc77 d53d e01b 833e 375f 14be 0e93 55bd
00000100: 207f 663e 9ae6 00be 6310 483e f8f8 213e
00000110: fcb1 88bd e06a 573e 8426 83be 2ea8 123e
00000120: 94c8 423e b269 273e 41e4 8d3b 96e4 c6be
00000130: 288e 713e d8b8 803d fa42 983d 9c3e 9fbe
00000140: 2c8d e0bd be7b 373e 4361 a13d 42aa bb3d
00000150: 442c 71be 683d 4b3e fb21 263d 5137 83be
00000160: 7204 653e fb05 66be 508c fdbd 4350 043e
00000170: d803 953e 4aa7 64bd 144a 6dbb 4686 df3d
00000180: 8daa 7a3c 9282 913e f2ff 3d3e 59bf 913d
00000190: eceb debd 3cec 6abe 62fa 42be c1ca 44be
000001a0: 9f33 bf3d cb95 ae3d dbac e23d 9dae fd3d
000001b0: b6c7 2cbe 768f 893e 6c59 59bd 57a8 8d3d
000001c0: bb24 8c3d 2fa0 373e 8a53 813e 37b2 ba3c
000001d0: 8822 1cbe 6317 e2bd 7efc 6b3d cb58 773e
000001e0: 616c 333d 3e0e 59be bb7a 763e fc30 2ebe
000001f0: cef0 663e 8963 18be 860b 01bd 7051 12be
00000200: d6f2 9fbe 1389 09bd 8dc3 07be 313c 59bd
00000210: 8df9 923e 0f38 31bd ef4d 1e3c 17f5 80bc
00000220: 82b2 353e 1aaf a73d 7ac6 613e 28e4 5c3d
00000230: 1611 b33d 5009 7e3e 536b 2b3e 4a1a 3ebe
00000240: a117 443d c719 1dbe 9416 c23b 9999 8d3d
00000250: 2bc2 7ebd fef0 86bd 9f51 6b3e 9b6a 02be
00000260: 0f78 34be 6403 973d 6e36 863e a499 dabd
00000270: 7854 a03d 4475 c5bd 848f 04be bff0 443e
00000280: 7209 4bbe ee5e bcbc 1e3a 1cbe 9e42 f83d
00000290: c165 e0b9 b12c 5ebf 6fd1 6cbf 3753 d23e
000002a0: e4e1 67bf 7fc7 153f 2882 c73d 6c82 353f
000002b0: 4ad1 05bf 646f ecbe c7ec e03e 1e5f a2be
000002c0: cfdc 77bf d7ae 4f3e 5589 bdbe bd66 fb3e
000002d0: 74c8 d7be 66d8 75bf 7056 51bf 3b8c 2f3f
000002e0: 083f 80be 31ce bdbe 4bdb 873e 2d14 3a3f
000002f0: c63b 95be c514 07bf 2cf2 c4be c0c6 a53e
00000300: c25f 353f 2204 533f 50b2 b5be a8d9 5cbf
00000310: a59e 083f ef02 0dbf 49d7 3a3f 08bd 12bf
00000320: 5e5a f1be e560 60bf ca82 1f3f ade4 b3be
00000330: ad16 b5be 428c 49bf 551a c4be ae76 e7be
00000340: c36d b83e 99a7 77bf 9121 01bf 3362 e6be
00000350: ffb7 babe 6870 dfbe 7e20 81bf 677f 47bf
00000360: f3be 353f acb4 493f 0890 97be 3d5b 57bf
0.061541367 -0.07264186 0.07703056 0.059128344 0.12692626 0.0009535776 0.13547358 -0.5056216
-0.32547376 0.0026993717 -0.40656498 0.16665763 0.2593076 -0.4269367 0.056473926 -0.4765008
0.14757365 0.023984622 0.11854724 -0.3822982 -0.62130815 0.22417864 0.2654505 -0.2506299
-0.28933617 -0.47961512 0.10884152 0.07977029 0.2585762 -0.37383276 0.15425919 0.020935353
-0.3145873 0.24250208 -0.6436032 -0.2651602 0.06578444 0.23841265 -0.44475907 -0.30387333
0.18912125 -0.56595504 0.17830554 0.24957861 0.18558525 -0.56031454 -0.26886764 -0.2976111
-0.41173723 0.23365952 0.16895977 0.27809024 0.23768106 -0.42771462 0.037003152 0.2121375
0.07843274 0.27819586 0.045682933 0.13289699 0.1042324 0.25607204 -0.14489447 -0.052142195
0.22509432 -0.12587968 0.19537501 0.1581763 -0.06674573 0.21036863 -0.25615323 0.14321968
0.19021827 0.16348913 0.0043301885 -0.38846272 0.23589385 0.06285256 0.0743465 -0.31102455
-0.109644264 0.17918298 0.07879879 0.091633335 -0.23552042 0.19847643 0.04055975 -0.2562814
0.22364977 -0.22463219 -0.12380278 0.12921242 0.29104495 -0.0558236 -0.0036207484 0.109142825
0.015299452 0.2841993 0.18554667 0.07116575 -0.10884842 -0.22941679 -0.19040826 -0.1921797
0.09336018 0.085246645 0.11068126 0.123868205 -0.16873059 0.26867265 -0.053063795 0.06916874
0.06842943 0.17932199 0.25259048 0.022790058 -0.15247548 -0.11039617 0.057613842 0.24154966
0.04380453 -0.21196839 0.24070255 -0.17010874 0.22552797 -0.1488172 -0.03150513 -0.14288878
-0.31239957 -0.03357799 -0.1325819 -0.05303592 0.28706017 -0.043266352 0.0096621355 -0.015741868
0.17743877 0.08187695 0.22048369 0.053928524 0.08743493 0.2480824 0.1674016 -0.18564716
0.047874097 -0.15341865 0.0059231017 0.06914062 -0.06219689 -0.06588934 0.22980355 -0.1273598
-0.17623924 0.073736936 0.26213402 -0.10673836 0.07828611 -0.09641507 -0.12945372 0.19232462
-0.19827822 -0.022994485 -0.15256545 0.12122081 -0.00042800422 -0.86786944 -0.9250707 0.41079113
-0.90579057 0.5850753 0.09741622 0.70902133 -0.52272475 -0.46178734 0.43930647 -0.31713194
-0.968213 0.2028154 -0.3701884 0.4910182 -0.4214512 -0.9603332 -0.8177252 0.6857335
-0.2504809 -0.37071374 0.26534495 0.72687036 -0.29147166 -0.52766067 -0.38466012 0.32378197
0.7084924 0.8242818 -0.35487604 -0.8626962 0.5336707 -0.550826 0.7298475 -0.5731969
-0.47139257 -0.8764785 0.62308943 -0.35135403 -0.35368863 -0.7872964 -0.3830134 -0.45207733
0.36021242 -0.9674011 -0.50441843 -0.44996795 -0.36468503 -0.43640447 -1.0088041 -0.77928776
0.7099449 0.7879131 -0.29602075 -0.84123594

lstm.bias_hh_l0 f4 [220]
00000000: 8e2e 3e3e 2d24 39bd 3fb4 453d 694b 133e
00000010: 1366 713e 9410 03be 6022 02bd f344 babe
00000020: e501 01bf 41a8 40bd 4546 1bbf 4b06 9e3d
00000030: 798d 783e f09b b3be 17b7 4a3e 8b15 02bf
00000040: 8cb5 813d 3789 d73d b121 fd3d 723e 80be
00000050: 88c3 04bf 5eb5 b13b 9ad3 683e 11f8 80be
00000060: f10e 97be 510a d9be 0e33 533d d488 01bb
00000070: 802a 813e b613 dabe f57e 58bc 8b78 8d3b
00000080: d8b3 f5be fea9 9f3b 4254 17bf 7cea 92be
00000090: 1b84 603e 2e3b 8c3d b306 f1be 81bd 8dbe
000000a0: e58a 3e3e b6db d9be 7a23 953d a649 593e
000000b0: 2eeb 3fbd 8f5b c2be 1f75 ebbe 0e85 cabe
000000c0: 4ca5 96be c6c2 6e3e c8da 6dbc d837 ff3d
000000d0: 1458 7a3e 1277 c2be 3387 833d 1eb1 583e
000000e0: 8b47 f13d 7d17 253e 6155 203e 434c fa3c
000000f0: 6937 473c 1545 563e 7aae 56be 0fa9 fcbd
00000100: bac5 943e e4dc f3bc f634 df3c d343 0d3e
00000110: 5ac3 4abe e685 3c3e 51ad b4be 4d6d 6c3c
00000120: d0f3 a03d 0435 9f3d 6556 83bd 45b0 9dbe
00000130: 12ec f53d 6687 493d 3c5c fe3d 86d1 3dbe
00000140: 1ff7 abbd 8e5e 843d 72d2 4f3e fe62 723e
00000150: 9a4e 83be 3bb5 903e 361f 183e 0ec2 6cbe
00000160: ae05 983d 4d19 92be 2f02 e1bd a887 4a3e
00000170: 3b3c 803d 7c94 6dbe 5281 46be cb64 783e
00000180: 1705 5dbd b9f6 593e c08d 8c3e 4dbc 7b3d
00000190: 818c 16be f886 39be 307e b9bd 62f2 1fbe
000001a0: 0141 243e 121d 7d3d 3742 b33d c1dc 903e
000001b0: 5b17 06bc 9b62 6d3e 29b9 3bbe a397 ef3c
000001c0: 41dd 803e 4298 583e 7c4f 5e3e 3272 2abc
000001d0: 4d53 80bd e366 37bd f9ec 083e 2156 6d3e
000001e0: 6b36 f4bc 7dfc 72be c7c3 153e 61f9 f6bc
000001f0: c75a 663e 2a4c f33b 2476 38be 4efc 3abe
00000200: 4d50 2ebe 3af1 ce3d 7638 0bbe 3d54 17be
00000210: 93d2 813d c404 bbbd be24 16bd 10e9 9dbd
00000220: 0a89 2b3d d15f 3e3e c37b 953e 9607 363b
00000230: 2a3e 87bd e0bb 893e 67cb 5abd c374 4ebe
00000240: 0c00 a3bb 6eb2 e13c 0ffc 87bd 3071 183e
00000250: 093b a03d eeb5 efbd f2d2 933e feea c3bd
00000260: 9e19 6bbd 52ae 0a3e d8b1 3e3e 8580 293d
00000270: fa2d 19be 43ef 263d 6f97 2f3c d4cb 493d
00000280: 3579 febd 45ce 5cbe afa2 86be 890f eebd
00000290: 49fc 84bd 72bc 80bf e9cf 6fbf 3932 ea3e
000002a0: e3a9 7cbf 830d 1a3f 6855 03be 0e60 2e3f
000002b0: a780 09bf b3da 95be 8ade 023f 57c6 0abf
000002c0: 2207 6abf 3a24 8d3d b929 cbbe 823e 1e3f
000002d0: 380d d1be b157 82bf 146e 72bf 077a 133f
000002e0: f56c b8be 8f24 04bf 9bf0 013f f3f2 133f
000002f0: 14c6 43be fe74 d1be 8377 e4be e2b6 ee3e
00000300: ab29 423f 69cb 4c3f c7da d1be b693 68bf
00000310: 9448 003f 251d 9abe 30c4 213f 5520 2cbf
00000320: c036 a1be 8246 6fbf 4393 2b3f 52b4 d4be
00000330: 3729 ccbe 545a 7abf 9777 bcbe fdff 90be
00000340: 1e6d 063f 441b 7cbf 43db c8be 116b e2be
00000350: a782 d8be aeb0 aebe 459b 80bf 87f0 7fbf
00000360: b12c 543f bad6 363f 55f6 dfbe c6ad 52bf
0.18572447 -0.045200516 0.0482676 0.14384235 0.23574094 -0.12799293 -0.031771064 -0.3638073
-0.50393516 -0.04703546 -0.606541 0.07716044 0.24272718 -0.35079908 0.19796406 -0.5081412
0.063334554 0.105242185 0.12359942 -0.25047642 -0.51860857 0.005423232 0.2273697 -0.2518926
-0.29503587 -0.42390683 0.05156236 -0.0019765394 0.25227737 -0.42593163 -0.013213863 0.0043173484
-0.47988772 0.0048725596 -0.5911294 -0.28694522 0.21925394 0.06847225 -0.47075424 -0.27683643
0.18607672 -0.4255044 0.07282157 0.21219501 -0.046855144 -0.3796048 -0.45987794 -0.39554638
-0.29422987 0.23316488 -0.014517494 0.12461823 0.24447662 -0.37981468 0.064222716 0.21161315
0.11781224 0.16122241 0.1565757 0.030553943 0.012159207 0.2092479 -0.20964995 -0.12336933
0.29057103 -0.029768415 0.027246933 0.13795404 -0.19801083 0.18410453 -0.3528848 0.014430356
0.078590035 0.07773784 -0.06412963 -0.30798545 0.120079175 0.04920139 0.12419936 -0.18536958
-0.08396744 0.064633474 0.20295122 0.23670575 -0.25645906 0.28263268 0.14855656 -0.23120901
0.07422958 -0.28534928 -0.109867446 0.19778311 0.06261488 -0.23201174 -0.1938527 0.242572
-0.053959932 0.21285523 0.27451897 0.061458874 -0.14702035 -0.18117893 -0.090572715 -0.15619805
0.16040422 0.0617953 0.08752864 0.28293422 -0.008184279 0.23182146 -0.18332352 0.02924711
0.25168803 0.21151832 0.21710008 -0.010403203 -0.06265888 -0.044775855 0.13371648 0.23177387
-0.029811105 -0.23729129 0.14625464 -0.03014821 0.22495566 0.007424851 -0.18013817 -0.18260309
-0.1702282 0.10104604 -0.13595757 -0.14778228 0.06338992 -0.09131768 -0.036656134 -0.07710469
0.041878738 0.18591239 0.29195985 0.0027775518 -0.06603654 0.2690115 -0.053416636 -0.20161729
-0.004974371 0.027550902 -0.06639873 0.14886928 0.0782376 -0.11704622 0.28871876 -0.095663056
-0.057397477 0.1354306 0.1862253 0.04138233 -0.14958945 0.04075552 0.010717257 0.04926665
-0.12425462 -0.2156306 -0.26295993 -0.11624057 -0.06493432 -1.0057509 -0.9367662 0.45741442
-0.98696727 0.6017687 -0.12825549 0.6811532 -0.5371193 -0.29268417 0.5112082 -0.5420889
-0.91417134 0.06891675 -0.3968027 0.6181413 -0.40830398 -1.0183011 -0.94699216 0.57608074
-0.36020628 -0.51618284 0.5075776 0.57792586 -0.1911853 -0.4090957 -0.4462243 0.46623904
0.7584483 0.7999788 -0.40987226 -0.9085039 0.50110745 -0.3010036 0.63189983 -0.67236835
-0.31487083 -0.9346696 0.6702158 -0.41543823 -0.39875194 -0.9779408 -0.3680999 -0.28320304
0.5251025 -0.98479104 -0.39229783 -0.4422231 -0.4228718 -0.3411917 -1.0047385 -0.9997639
0.82880694 0.71421397 -0.43742624 -0.8229641

lstm.weight_ih_l0_reverse f4 [220, 20]
00000000: 8ec3 3dc0 d566 a1bf a226 9bbf 737a 81bf
00000010: e946 96bc dfa4 08c0 fe94 cdbe 1d7a 0dbe
00000020: 15b4 a23e 2e10 55bf aedb aebf 4c4f 94be
00000030: 02c1 953e 4921 553e 10d5 a03e 4db0 85c0
00000040: 8e3f 17c0 16fd 0cc0 1e37 51bf a2d9 e5bc
00000050: d631 00bf 9b27 35bf 74aa 663e cd72 2b3f
00000060: 41f2 8abf 9d6a f4be 7430 98bf acef bf3e
00000070: 940e 53bd fce7 0bbd 00bf dc3e 77a2 edbe
00000080: c68e 553f c23a a1bf b899 1bc0 11e7 00be
00000090: bc71 45be 6a9f 47bd af99 823f 227e 39bf
000000a0: 58f4 9abf 3bfb 8fbf 3769 0d3f c304 133f
000000b0: d295 90bf 237f aabf 8d89 07bf 4b16 a7bf
000000c0: 0a51 4b3d 6be5 39c0 a89e a2bf af46 1dbf
000000d0: 3aa2 bbbe f02a 85be 3bf2 10bf 15e7 39c0
000000e0: 8da0 bcbf 9a20 0dc0 0cc0 dfbd 5678 71bf
000000f0: 2738 6bbf 96dd 4abf 4fcc 22bf fd09 13bf
00000100: 66f5 d63e 040e 44c0 2c8b 083f 0716 22bf
00000110: 1fdf aabe a9be 1ebf 0598 2fbf f852 c6bf
00000120: 2862 85bd 2ca5 96bf 9e98 47bc a68f 9fbf
00000130: ecf5 34bf 73a1 3dbf 3eb6 9c3f e17f 123f
00000140: 0af5 9fc0 3f48 23c0 f36b a7be e3de bebe
00000150: af9c d2be 0fa3 10c0 89ef 20bf fb38 05c0
00000160: e4be 82be fa1d 96bf fdc6 3fc0 b8cf e4be
00000170: 193a 3cc0 934b 93be 195d 7cbe 43ea 5bc0
00000180: eee7 a6c0 6649 94bf 614b 123f 6983 9f3d
00000190: b0f5 4cbf 1b96 45bf bcc0 6bbe 32e0 6fbe
000001a0: abe4 d4be 0626 9fbf 0fa7 77bf 7fce c2be
000001b0: a14c 99bf c2a6 86be 68de 83be 129a 67bf
000001c0: 7693 e23e 0342 e3be f914 57bf e635 64bf
000001d0: c920 2fbf 3bd5 b6be a324 6f3e 307d 8cbd
000001e0: 2f74 00c0 938b cabf 7769 aabf 7d11 f0bf
000001f0: c8b6 fe3c e694 82bf 4b91 65be dbea e9be
00000200: a696 a23f 457a 05c0 c1fe 98bf eea1 01c0
00000210: b8d6 88bf 92b6 8abf 80db 8e3f 9f54 54bf
00000220: b872 09bf ebd2 cbbd ed63 8cbf d7ba d23e
00000230: 5a1a 6cbf 3b64 2dbe 7cbd 3e3e 34cc 6f3e
00000240: e684 3cbf 4d6d 24be b0c1 9ebd 9994 91bf
00000250: d369 64bf fd5d 60bf 64dc 3ebf dca0 02bf
00000260: 25bb 0b3f 0b18 37bf a0f8 053f 164f e73d
00000270: 196f 9fbe 5d73 c2bf 1d49 5e3f f56d b9be
00000280: 1a89 03bf 52d6 7bbf b889 e53e 8211 063e
00000290: f226 c3bf f77f 08be 6950 803f 8af9 ec3e
000002a0: e214 463c 8243 9f3f 2b11 ff3b 22be 95bf
000002b0: 2774 9ebf 7677 d5bf 0d18 53be 91ec 14bf
000002c0: c4c3 b9bf 49b4 433f 3c56 adbf 1cc5 f53e
000002d0: b265 5abe 3371 63bf 69d7 133f 93d5 073f
000002e0: efde d2bf 6cc1 acbe 870c cdbf 42bb 24bf
000002f0: 5bbf 613e b66c 4cbf e65b cebf 5b69 c0be
00000300: ee5a 82bf 116a 9dbe 7678 b43e 155a f0bf
00000310: 20f7 6dbf f89e 7ebf c738 95bf d483 e0be
00000320: 2f04 a03f 3f08 1d3e 0389 603f 0324 59bf
00000330: 052e 8d3f b135 b43f fad4 e33d b1d4 2a3f
00000340: 914b f8be 8a1b 993f cc49 4c3f 287e 5dbe
00000350: 6480 0b40 c8cc 4bbf 7c50 d1bd 3a54 9c3f
00000360: ccef 3540 2e9e eb3e 8e73 83be c7c7 933e
00000370: cb56 b6bf 5d07 9ebf 28a9 b6bd 24a8 f3bc
00000380: fc64 5abf 6eea 82bf ad64 77bf 3d0f 00bf
00000390: 51bb fb3e 99cf d7bf 7e4e bdbf f3f4 b6bf
000003a0: 9824 1cbf 6b42 c4bf 1fab 083f 1526 a5bf
000003b0: 6c57 f4bf b234 9abf 1dec 9abe af0a 28bf
000003c0: 28a9 4ebf 4c22 173f 9da1 083e 66c3 433e
000003d0: 6b54 89bf 8b6a bbbf a493 b5bc 9eac 0d3f
000003e0: 00a9 143f f984 ba3e e2a3 a63e 3ca2 2dbf
000003f0: c9fe a03f 81fb 06bf f1a8 b73e 85e6 12c0
-2.9650607 -1.2609507 -1.2121165 -1.0115494 -0.01834436 -2.135063 -0.40152735 -0.13816114
0.31778017 -0.83227813 -1.3660791 -0.2896675 0.29248816 0.20813479 0.31412554 -4.177771
-2.363254 -2.2029471 -0.8172473 -0.028057877 -0.50076044 -0.7076356 0.2252596 0.6697205
-1.085518 -0.4773759 -1.1889787 0.37487543 -0.051527575 -0.034156784 0.4311447 -0.46413013
0.8342098 -1.2596056 -2.4312572 -0.12588145 -0.19281667 -0.048736013 1.020315 -0.7245809
-1.2105818 -1.1248544 0.5523867 0.5742914 -1.1295722 -1.3320049 -0.5294426 -1.3053678
0.04963783 -2.9046276 -1.2704668 -0.6143598 -0.36647207 -0.2600932 -0.56619614 -2.9047291
-1.4736496 -2.2051148 -0.10925302 -0.94324243 -0.91882557 -0.79244363 -0.63593 -0.57437116
0.419841 -3.0633554 0.5333736 -0.6331486 -0.33373353 -0.62009674 -0.6859134 -1.549407
-0.065128624 -1.1769156 -0.012182383 -1.2465713 -0.70687747 -0.74074477 1.2243116 0.5722638
-4.998662 -2.5512846 -0.32699546 -0.37279424 -0.41135165 -2.2599523 -0.628655 -2.0816028
-0.25536263 -1.1727898 -2.9965203 -0.44689727 -2.941046 -0.28768596 -0.24644889 -3.4361732
-5.2158117 -1.15849 0.5714627 0.077887364 -0.8006239 -0.7718217 -0.23022741 -0.23425367
-0.4158071 -1.2433479 -0.96739286 -0.3804817 -1.197651 -0.262991 -0.2575562 -0.9046947
0.4425313 -0.443863 -0.84016377 -0.8914474 -0.684094 -0.35709557 0.2335382 -0.06859815
-2.0070913 -1.5823845 -1.3313435 -1.8755337 0.031093016 -1.020169 -0.22418706 -0.45686993
1.2702224 -2.0855877 -1.1952745 -2.0255084 -1.0690527 -1.0836966 1.1160736 -0.8294162
-0.5369067 -0.09952339 -1.0967995 0.41158172 -0.9222771 -0.16932766 0.1862697 0.23417741
-0.73640287 -0.1605732 -0.07751787 -1.1373473 -0.89223975 -0.87643415 -0.7455504 -0.510267
0.54582435 -0.7152106 0.52332497 0.11294381 -0.31139448 -1.5191456 0.8683031 -0.36216703
-0.51381075 -0.983739 0.44831634 0.13092616 -1.524626 -0.13330065 1.0024539 0.46284133
0.01208994 1.2442477 0.007784029 -1.1698649 -1.2379197 -1.6677082 -0.20614643 -0.5817347
-1.4512868 0.7644697 -1.3541942 0.48001945 -0.21327856 -0.88844603 0.57750565 0.53060263
-1.6474284 -0.3374132 -1.6019448 -0.6434823 0.22045653 -0.7985338 -1.6121795 -0.3758038
-1.0184 -0.30744985 0.35248154 -1.8777491 -0.9295521 -0.9946132 -1.1657952 -0.43850577
1.2501277 0.15335177 0.87709063 -0.84820575 1.1029669 1.4078885 0.111246064 0.6673079
-0.48495153 1.1961529 0.79800105 -0.21630156 2.1797113 -0.79609346 -0.10220429 1.2213204
2.842761 0.4601912 -0.256741 0.28863356 -1.4245237 -1.2345997 -0.08918983 -0.029743262
-0.8531034 -1.0227792 -0.96637994 -0.5002325 0.4916635 -1.6860229 -1.4789579 -1.4293503
-0.6099334 -1.5332769 0.5338611 -1.2902247 -1.9089179 -1.2047331 -0.30258265 -0.656413
-0.8072686 0.5903671 0.133429 0.19117507 -1.0728887 -1.4641889 -0.022165127 0.5534152
0.58070374 0.36429575 0.32546908 -0.67825675 1.2577754 -0.52727515 0.3587108 -2.2953198

lstm.weight_hh_l0_reverse f4 [220, 55]
00000000: 4721 fb3e 8e00 193f 4b01 383c ca26 5fbe
00000010: e960 953e cf84 21bf 561f 773e 5f76 ae3e
00000020: f757 dfbe e28e 34bf e6d0 25bf a4e7 f93e
00000030: 9dcf d5be 51f8 79be 8200 693f 94aa 7c3f
00000040: 7cbe 9b3e 8398 523f 7037 e1be cdb9 383f
00000050: 89f0 9a3d fb90 69bf 165b ffbe ea50 a5be
00000060: 92b7 8c3d 5e68 48bf f168 20bf 27fc 4b3f
00000070: 1b0a 02bf 5d81 8b3f 9839 673e f33d 473e
00000080: 3ec5 40bf a316 f43d c83a 403f 6e75 5bbe
00000090: b24a d9be eee8 48bf f7c2 0f3e 121f 9fbe
000000a0: 8483 eebe 608f c83f e8bc 143f 876a 4e3e
000000b0: d3f0 53be e111 ab3c 89ab 45bf 587e a63e
000000c0: a2b7 0fbe f631 bd3e 0f18 ebbe c543 09be
000000d0: 5fb8 34be a06e 0fbf b058 24bf bebb 38bf
000000e0: a32d 803e a575 c93f e94c 01bf a920 60bf
000000f0: 1085 c7be e9ba 353f 0be6 c33f 9561 0dbf
00000100: 1309 1c3e 1770 01bf e473 423f c80a f9be
00000110: e0a4 ffbe e12d d13e bce9 1fbf 46ec 5f3d
00000120: 1db3 a03f a840 94be cc11 d73e f2e0 a8be
00000130: 59e4 25bd 6fd4 dabe ecbf c03f 508c d1bf
00000140: 4e74 dcbe fba1 6dbe 38ee 3f3f fd90 33bf
00000150: 83ed 1fc0 2a83 05bf 6531 a7be 5273 a0be
00000160: a0ee 153f 7d27 243f be85 e6be 422d d93e
00000170: 09b7 bdbf f58b 0d3f 1a62 c13e 159f c9be
00000180: 535a a23f 108d cbbf 631b 2bbd b37a e3bf
00000190: dde9 8b3e 6870 92be 75fb 5cbf 038c 433f
000001a0: 042c 603d a620 2cbf b091 c4be 972a d13f
000001b0: e343 a63e 1f1e c3be 70b0 913f 58ea 393f
000001c0: f6fb d93e 82b1 c5be 1535 353f bc5f 5cbe
000001d0: 752e 2c3e b865 713f 5e91 713d a2a8 3dbf
000001e0: 9197 d13e b415 1a3f 6d21 3dbf 9fdc 353e
000001f0: 5f43 a93e 9b9a 73bc d866 dbbe c91a 2f3c
00000200: 20d6 6cbf 0a4a 56bd 76bf bb3e e069 46bf
00000210: 76a8 6a3b cb19 50bf fefe 883e 010d 1abf
00000220: 7fde 78be 4239 243f d9c7 963d 09d2 4b3f
00000230: 32ea a23e cbd8 0ebd 0c5a babe e6ba 0ebe
00000240: eeff 1a3c ec7a 1b3f 2079 59bf 0a78 b43e
00000250: d4dd 08be b845 2c3e 20b9 cf3e d14d 103f
00000260: 86e3 a63e 872c ccbe 9038 7d3c a1d4 8cbe
00000270: f424 07bf bfe5 903e b959 33be 3c5b 13be
00000280: b92a c5be 5b72 103f a384 44bf 6807 8bbb
00000290: ba1f edbe 451d de3e 6195 d13e 79e9 243e
000002a0: df27 f0be c528 38bc e40d a5be 0043 d83e
000002b0: eea1 aabe 584a 3cbf fa86 9fbd 7c1f 0bbf
000002c0: 41e4 22bf ffc2 28bf 7e4f 073f 7289 b73e
000002d0: a610 803d cad5 13be 4a70 d63e 1e61 05bc
000002e0: a0dd 513e 492d c73e 9b42 09bf 5be0 7abe
000002f0: 521c 29be 466a 1d3f 7a0a babe efb5 84be
00000300: 6f87 5d3e c6e1 2bbf c5c6 52bd 624d b0be
00000310: f3fc 643e bbe9 26bf 6594 3e3f c520 e33e
00000320: 785d 0fbf e3a9 a0be d27e 833e e299 85be
00000330: 8708 dd3e fb96 0cbf 5185 813f e10b 70be
00000340: 960f aa3e bc89 74be 2944 28bf 7845 e0be
00000350: 9184 ad3e 3cb6 24be e1f2 df3e 17c9 2cbf
00000360: 602f aa3e 821c a53e 6e0d 0dbf d971 e9be
00000370: 8ab7 3a3d 6a49 813e b541 fa3d 86fb 2cbe
00000380: 03e2 a43e ebb6 9dbe 4941 863e 6d80 353f
00000390: 3587 abbe 4fce 403d e760 c9be a56a 2fbe
000003a0: 280c febd e99f 263d 5a1a 163f b906 ba3d
000003b0: 07c7 51be 9f53 453f bf41 82be 2768 983e
000003c0: 1fb1 9e3e 7be5 b0be 5b5c e73e 705e c9bd
000003d0: 9fea 04bf 6dd3 5dbf 9131 0ebf 9e1a 123f
000003e0: 79f6 40bf eece 8d3e 71ee 6c3f 7b9c cb3d
000003f0: ad2c 0fbf 76de 6c3e 555e 283f 83b4 33bf
0.49048826 0.5976647 0.011230777 -0.2179214 0.291755 -0.63093275 0.24133047 0.34074685
-0.436218 -0.7053052 -0.6477188 0.4880954 -0.4175996 -0.24411131 0.910164 0.9869778
0.30418766 0.82263964 -0.43987608 0.7215851 0.0756541 -0.9123685 -0.4987418 -0.32288295
0.06870951 -0.7828425 -0.6266013 0.7968163 -0.5079667 1.0898854 0.22580564 0.19457226
-0.7530097 0.1191838 0.75089693 -0.21431515 -0.424398 -0.7848042 0.14039217 -0.31078392
-0.46584713 1.5668755 0.5810075 0.20157824 -0.20697336 0.020882549 -0.77214867 0.32518268
-0.14034894 0.3695218 -0.45916793 -0.13404758 -0.17648457 -0.56028175 -0.64197826 -0.7216147
0.25034818 1.5739027 -0.5050798 -0.87549835 -0.38968706 0.7098833 1.5304579 -0.55227023
0.15237837 -0.5056166 0.75958085 -0.48641038 -0.49930477 0.40855315 -0.62466025 0.054668687
1.2554661 -0.2895558 0.42005765 -0.3298412 -0.040500972 -0.427402 1.505857 -1.6370945
-0.43057483 -0.23206322 0.7497287 -0.7014311 -2.4988716 -0.52153265 -0.32654873 -0.31337982
0.5856724 0.64122754 -0.45023912 0.4241734 -1.4821483 0.5529168 0.37770158 -0.39379182
1.2683815 -1.5902424 -0.041774165 -1.777182 0.2732686 -0.28601384 -0.8632119 0.76385516
0.054729477 -0.6723732 -0.383924 1.6341122 0.32473668 -0.38108918 1.138197 0.72623205
0.42575043 -0.3861199 0.7078412 -0.21520895 0.16814597 0.94295835 0.058976524 -0.7408544
0.40935948 0.60189366 -0.7387913 0.17759942 0.33059213 -0.014868404 -0.428519 0.010687538
-0.9251423 -0.052316703 0.3666951 -0.775053 0.0035805977 -0.81289357 0.26757044 -0.6017609
-0.24303626 0.6414987 0.07362337 0.79617363 0.31819302 -0.03487472 -0.36396825 -0.13938484
0.009460432 0.6073444 -0.8495045 0.35247833 -0.1336587 0.1682347 0.40570927 0.5636874
0.32595462 -0.39877722 0.01545538 -0.27505973 -0.5279076 0.28300282 -0.17514695 -0.14390272
-0.38509157 0.5642449 -0.7676489 -0.0042428263 -0.46313268 0.43381706 0.4093428 0.16104688
-0.4690542 -0.011240189 -0.3223716 0.42238617 -0.33326668 -0.7355094 -0.077894166 -0.54344916
-0.6362954 -0.6592254 0.5285567 0.3584705 0.062531754 -0.14437023 0.41882545 -0.00814083
0.204947 0.38901737 -0.53617257 -0.24499647 -0.1651471 0.61490285 -0.36336118 -0.25920054
0.21633695 -0.6714138 -0.051459093 -0.34434038 0.22362117 -0.65200394 0.7444518 0.4436094
-0.56001997 -0.31379613 0.25682694 -0.26093966 0.43170568 -0.5491788 1.011881 -0.23442031
0.33215016 -0.23880666 -0.65729004 -0.43803 0.33890203 -0.16085142 0.4373999 -0.6749434
0.3323927 0.32248312 -0.5509862 -0.4559467 0.045585193 0.25251323 0.12219564 -0.16892824
0.32203683 -0.30803618 0.26221684 0.7089909 -0.33501592 0.04707175 -0.39331743 -0.17130525
-0.12404662 0.040679846 0.5863396 0.090833135 -0.20486079 0.7708072 -0.25440785 0.29766962
0.30994508 -0.3455008 0.4518765 -0.09832466 -0.51920503 -0.86650735 -0.5554438 0.57071865
-0.7537609 0.27696937 0.9255133 0.09941956 -0.55927545 0.23131737 0.6576894 -0.70197314

lstm.bias_ih_l0_reverse f4 [220]
00000000: 37df 75bf 7caf c6be 4d6c 81bf 08a7 81bf
00000010: 31be adbf 4862 49bf 308a f1be 1b5d 34be
00000020: 8f63 0ebe c69a 3abf 571c 493f f650 78bf
00000030: 24a8 12bf 54e4 8cbf 1324 18be f748 babe
00000040: 04ec 3abf 853b f8be aaad afbe 9499 64bf
00000050: 099e 05bf c221 eebe 1407 8cbe 7b44 f6bd
00000060: 1017 3dbf 841c a7bc cfa1 dcbe 633b 4abf
00000070: ca4c 1cbf 223b 39bf a47a 1dbf abe2 74bf
00000080: 04b4 12bf f504 a7be 5819 1bbf 0bcf 94be
00000090: 6717 b7be ebba 91be a542 36bf 8601 a7be
000000a0: de0c f9be a1db 00be 0d11 a0be 515b 23bf
000000b0: 9a95 8fbf 69f9 71bf 57b9 f4be f0b3 08bf
000000c0: b7c3 76bf 1f09 3ebf ee11 ff3e e962 99bc
000000d0: 3074 84bf 762f 0dbf 4e5c d53e ee8e df3e
000000e0: dc73 c33e d66f f53e 53d5 023f 11a6 dd3e
000000f0: 6e62 f33e 9330 683e c922 8fbd fb07 043f
00000100: 241e 2a3e 5a4e 4d3f d3a6 453f e34b a7bd
00000110: 1e07 e13e ce8c a93e f0da 653e 920b d03e
00000120: e426 4f3f f202 d73d 4f0f a03e 4394 c33d
00000130: b98a 5b3f de94 efbd 1483 7d3e 1a63 5d3e
00000140: 8a7e 083f 06a4 3e3f df21 723e 6246 2c3f
00000150: bf4e c73d ea8a 0d3f cf2f 063f f37a 323f
00000160: 6b40 803e 4649 e33e 4c53 8d3e aa03 463f
00000170: dd20 9f3e 8f91 333f 6ca1 093e e8b9 f43e
00000180: adca e43e e886 963e 7fbb 333e e37a 083f
00000190: 3742 9f3e e4ef 043f aad8 803e 5749 df3e
000001a0: cb13 d03e 90ae 4a3e 812f 6f3e bcff 093f
000001b0: 7bd4 c73e 29a6 f13e 3d38 84bc ed02 c2bd
000001c0: 0d83 ccbd 0ca9 843d 9c18 d33d a2c0 f63d
000001d0: b903 24be 42a2 3ebe 7e61 623e bcea 553d
000001e0: d706 0ebf 9ef3 843d 643a cfbd e672 983b
000001f0: 9e99 73be 5269 853e f75d 283d 2cea 7dbe
00000200: 558c 873d 145c 70bd 9fb9 1e3d e453 d43e
00000210: ab4d 523e e1e5 bd3c 3fdb 123e 3140 2a3d
00000220: d3bd d7bc 0e1d 443d c1c9 ac3e f01b e33d
00000230: ab35 1fbe f0b9 f5bd d9d2 7e3e d65c 3ebe
00000240: 7b12 9cbd dcd2 81bd bf52 af3e c71c 18bd
00000250: 472d 03bd 0569 0e3c 7f28 c53d 353d 22bf
00000260: fc78 9d3e 645f 953d 2dbb 083e 070c 4e3b
00000270: 2f57 aabd 57b0 9ebd 2c4b bf3c 6f79 10bd
00000280: f6b4 f2be 83f1 033d 86e5 163d 7511 703e
00000290: 11be c4bd b3ca 37be f350 ab37 aa3d 9ebe
000002a0: 84b5 ae3e 5f59 b8be 164b e33e afe3 a1be
000002b0: 95c7 2dbd 6e38 70be 6732 d1be e5ca 71be
000002c0: 9edf 28bd f65b 16bf ee54 ec3e 8643 04be
000002d0: bf78 c93c 4d7f 90be 34dc e6be 2355 c4be
000002e0: 85af 743e 7bba 22bf 03be e7be c062 37be
000002f0: e34a 4c3e f9c5 a0be eb35 63be 8c7c 803e
00000300: a4e8 6bbe 3e40 88be 8149 85be 778f 25bf
00000310: d9ff 2cbb 922c 143e 52eb 78be 9473 50be
00000320: 4aab 24bf 00df 8cbe 3eb5 333d 82a3 a93e
00000330: fa65 74bd 9f80 30be 444c e2bd de97 a0be
00000340: ab9e 23be 6bb0 573d a274 32be 772a 04be
00000350: d5c9 1ebd a664 903e 5dbb aabc 8656 53bd
00000360: a399 74be 230a 76be b9bf bfbe f1a8 8dbd
-0.96043724 -0.3880576 -1.0111176 -1.0129099 -1.3573667 -0.7866559 -0.4717574 -0.17613642
-0.13905166 -0.72892416 0.7855887 -0.96998537 -0.5728781 -1.100718 -0.14857511 -0.36383793
-0.7301638 -0.4848291 -0.34312183 -0.8929684 -0.5219427 -0.4651013 -0.2734915 -0.1202478
-0.73863316 -0.02039934 -0.430922 -0.78996867 -0.6105467 -0.72355855 -0.6151526 -0.9565837
-0.5730593 -0.3262097 -0.60585546 -0.2906421 -0.35760042 -0.2846292 -0.7119544 -0.3261835
-0.4864263 -0.12583782 -0.3126301 -0.6381121 -1.121753 -0.94521195 -0.47797653 -0.5339956
-0.9639239 -0.7423267 0.49818367 -0.018723922 -1.0347958 -0.55150545 0.41671985 0.43663734
0.3817433 0.47936887 0.51106757 0.4329076 0.47536033 0.2267478 -0.069890566 0.5157468
0.1661306 0.8019768 0.7720768 -0.08168771 0.43950742 0.33115238 0.224468 0.40633827
0.8091872 0.10498609 0.3126168 0.09549763 0.8575855 -0.11698316 0.24757034 0.21619835
0.53318083 0.7446903 0.23645733 0.67294896 0.097318165 0.5529009 0.524167 0.69718856
0.25049147 0.4439184 0.27602613 0.7734934 0.3107976 0.7014398 0.13440484 0.47798085
0.4468588 0.293998 0.17551993 0.5331251 0.31105205 0.51928544 0.25165302 0.4361064
0.406401 0.19793153 0.23357965 0.53905845 0.39029297 0.47197083 -0.016140098 -0.09473214
-0.099859335 0.06477556 0.10307428 0.120484605 -0.16017045 -0.18616584 0.22107503 0.052225813
-0.55479187 0.06491779 -0.10118559 0.004652369 -0.23789069 0.26056916 0.041105237 -0.2479636
0.06618563 -0.058681563 0.03875124 0.41470253 0.2053744 0.023180904 0.14341448 0.041565124
-0.026335632 0.04787927 0.33747676 0.11089313 -0.15547816 -0.119983554 0.2488512 -0.18590102
-0.07620712 -0.06339046 0.34242818 -0.03713682 -0.0320256 0.008692031 0.09626865 -0.63374645
0.30756366 0.07293585 0.13352652 0.0031440274 -0.0831741 -0.07748478 0.023351274 -0.035272058
-0.47403687 0.032212745 0.036839984 0.2344416 -0.09606565 -0.17948417 2.0422483e-05 -0.3090642
0.3412286 -0.36005685 0.44393224 -0.3161902 -0.042426664 -0.23459026 -0.40858766 -0.23612554
-0.041228883 -0.5873407 0.46158546 -0.12916383 0.024593709 -0.28222123 -0.45089877 -0.38346204
0.2389508 -0.63565797 -0.45262155 -0.17908764 0.19950442 -0.3140104 -0.22188537 0.25095022
-0.23037964 -0.26611513 -0.26032642 -0.64672035 -0.0026397614 0.14470127 -0.24308518 -0.2035659
-0.64323866 -0.27513885 0.043874018 0.3313256 -0.059667565 -0.17236565 -0.11049703 -0.31365865
-0.15978496 0.05265848 -0.17427304 -0.12906824 -0.0387667 0.2820179 -0.020841295 -0.051596187
-0.23886733 -0.24027304 -0.3745096 -0.06916989

lstm.bias_hh_l0_reverse f4 [220]
00000000: 32bd 8abf 182c 40be cbc7 4dbf 5736 6ebf
00000010: bca7 9dbf 73b6 62bf b529 0ebf 8de9 3fbe
00000020: c4c6 32bd 27bd 46bf 3f1b 1b3f cb6a 73bf
00000030: c3ac 35bf 2e91 83bf 433e a5be c947 7abe
00000040: 2217 36bf 08d6 9bbe 600b ddbe 05c5 6cbf
00000050: 5eaa 2cbf a477 17bf 8aa7 a1be faf5 22be
00000060: b470 3dbf 9aeb 80be 4236 1cbf 2e54 2bbf
00000070: cbce 37bf 30fb 31bf de76 d3be a69e 72bf
00000080: 7a85 2abf 2a3e b5be 7d2b 20bf 6efb 8ebe
00000090: 6c6c a2be 343a b2be 8bbe 62bf 5b0a 80be
000000a0: 792a dbbe 827c 04be ffdd b3be 1025 e2be
000000b0: 1beb 9bbf 7376 7bbf 84b2 e7be a04f 06bf
000000c0: 6e22 38bf fd69 0fbf 8898 063f 98b6 02be
000000d0: b8c2 85bf 6e24 19bf 5cec 5c3e ef02 d03e
000000e0: 2ade e43e cb61 093f f37d 303f 416c 923e
000000f0: bc93 f73e db4f 5b3e e976 eb3d 2c2b e83e
00000100: 6a18 f13d 67fc 363f 9c0e 4e3f ebf6 063e
00000110: db96 af3e 0c59 a73e 1f8e 573e 2b20 e03e
00000120: fa2d 5e3f a5bd fc3d e5b9 e13e 5083 f03d
00000130: 1edc 613f 6f01 d43d a581 913e 647e 1b3e
00000140: ad15 ba3e 3814 343f bb22 a13e 3d32 0a3f
00000150: 11de d53c 0c97 193f 23a3 c33e b40d 0b3f
00000160: d15b 0f3e aef7 e43e c0b1 913e 3a1b 433f
00000170: b764 9b3d 2b41 1d3f fd09 d93d 9473 0c3f
00000180: 8ffe 023f 9441 693e 677e 823d 63e9 023f
00000190: e874 0b3f 0f3e c63e 97aa 983e c49d 9c3e
000001a0: 584a a23e d8b7 363e 15c5 6d3e 01a9 143f
000001b0: 9a52 8e3e 314f d03e 211e ce3d d736 453d
000001c0: 6a54 ca3d 45b2 173b 46c2 4fbd 8e41 223e
000001d0: d6c5 3ebd 980d 63be 9d24 8a3e 4692 613d
000001e0: 3562 c2be 9ad6 24be a076 a53d cf32 eabd
000001f0: f25d cebd 9f51 a83e 9087 22bd d89f 5bbe
00000200: 81e3 23bd 9d84 f1bd 4b74 253e e0d8 c03e
00000210: cbd2 cdbb f7f1 a03d 886b de3d f693 7ebd
00000220: 96bf f1bd a73b 70bd 9a4e 7e3e ca4b 02bd
00000230: 4f34 ebbd 1a64 fabd 6807 453e 41cd 9abe
00000240: 5d02 f5bd fe24 af3c 4340 9a3e bab2 4abe
00000250: efdc 38be ba76 aabd 821c d73d bfac 0ebf
00000260: 30d1 d93e fe51 32bd 4629 193d ded4 223d
00000270: 84ea d43d 47cf 783c 756a b03d dbb0 3abe
00000280: ba53 bfbe 4364 263e 53d5 0cbe fcc6 793e
00000290: 082b cfbd 5af8 2bbb 2b3f 3d3b 2dc4 bbbe
000002a0: 42b2 423e 2c23 b4be 3e86 f43e 943a dabe
000002b0: aced 27bb d8a5 0abe d067 96be 9288 41be
000002c0: e929 15bd e4ef d8be 6b5f 043f c9a0 89bd
000002d0: 60b6 94bd 2f52 7fbe 460e c3be 7f43 b0be
000002e0: a940 0a3e b5bc 0dbf c2b1 cdbe 5925 43ba
000002f0: 8b38 153e 47fe 03bf 2b6a 63be b00b d63e
00000300: 4071 c0be 7a17 e6be 71a8 37be 01c0 15bf
00000310: 9657 0d3e d070 b83c 7c36 a1be 9604 aabe
00000320: 13e4 2bbf bd2c 38be ccee 1b3e d874 353e
00000330: 9948 86be 735b 87be ca8d 6c3d 0bc1 b8be
00000340: 2993 7cbe 4358 373e 212e 75be ae96 24be
00000350: 22fb d13d ffc0 f43d d520 b0bd aef6 7fbe
00000360: dce7 abbd ca89 5ebe 7cbf 40be e151 b23b
-1.0838988 -0.1876682 -0.80382985 -0.93051666 -1.2316813 -0.88559645 -0.5553239 -0.18741436
-0.04364659 -0.77632374 0.6058845 -0.9508483 -0.7096674 -1.027868 -0.32274064 -0.24441446
-0.7112905 -0.3043673 -0.4317274 -0.9248813 -0.6744746 -0.5916693 -0.31573135 -0.15914145
-0.74000096 -0.2517975 -0.6102029 -0.66925323 -0.71799916 -0.69523907 -0.41301626 -0.9477333
-0.6660992 -0.3539899 -0.6256636 -0.279262 -0.31723344 -0.3481003 -0.88571995 -0.250079
-0.42805842 -0.12938121 -0.35130307 -0.441689 -1.2181123 -0.98227614 -0.45253384 -0.5246525
-0.71927536 -0.560211 0.52576494 -0.12764966 -1.0450048 -0.5982121 0.21574539 0.40627238
0.44700748 0.53664845 0.68942183 0.28598216 0.483549 0.21417181 0.1149729 0.45345438
0.11772235 0.71478885 0.8049104 0.13180129 0.3429478 0.32685125 0.21050309 0.43774542
0.86788905 0.12340859 0.4408714 0.11743796 0.882265 0.10351836 0.28419223 0.15184933
0.36344662 0.7034335 0.3147181 0.5398291 0.026106866 0.59996104 0.382104 0.54317784
0.13999869 0.44720215 0.28455925 0.7621342 0.07587569 0.61427563 0.10597608 0.5486386
0.51169676 0.22778922 0.063717656 0.5113737 0.5447526 0.38719222 0.2981765 0.30589116
0.31697345 0.17843568 0.23219712 0.5807038 0.27797395 0.40685418 0.100643404 0.048148002
0.09879382 0.0023147028 -0.050722383 0.1584532 -0.04657539 -0.22173154 0.2698106 0.055071138
-0.3796555 -0.16097489 0.080792665 -0.11435472 -0.100765124 0.32874772 -0.039680064 -0.21447694
-0.040011887 -0.11792872 0.16157643 0.37665462 -0.006281232 0.07858651 0.10860354 -0.062152825
-0.1180412 -0.05865064 0.24834672 -0.03181056 -0.114845864 -0.12226124 0.19241107 -0.3023472
-0.119633414 0.021379944 0.30127153 -0.19794741 -0.1805303 -0.083234265 0.10503484 -0.5573234
0.4254241 -0.043535225 0.037392877 0.039753787 0.10396293 0.0151861375 0.08614055 -0.18231528
-0.37368566 0.16249184 -0.13753252 0.24392313 -0.101156294 -0.0026240558 0.0028876762 -0.36673108
0.19013312 -0.35183084 0.4775867 -0.42622817 -0.0025623841 -0.13539827 -0.29376078 -0.18899754
-0.03641692 -0.42370522 0.51708096 -0.067201205 -0.07261348 -0.24933694 -0.38096827 -0.34426495
0.13501228 -0.5536607 -0.4017468 -0.0007444225 0.1457235 -0.5155987 -0.22208469 0.41805792
-0.37586403 -0.44939786 -0.17935349 -0.584961 0.13802943 0.02251473 -0.3148688 -0.33206624
-0.6714489 -0.17985816 0.15227813 0.17720354 -0.26227263 -0.26436958 0.057752408 -0.3608478
-0.24665512 0.17904763 -0.23943378 -0.16073105 0.10252978 0.119508736 -0.08600012 -0.24996445
-0.08393833 -0.2173225 -0.18823045 0.0054418896

fc.weight f4 [1, 110]
00000000: 5737 82bd feae 923d 0677 bf3d f0f3 b43d
00000010: bc8f f93d 2580 0a3d 2bb3 06be 0a8c e43a
00000020: 9a9c 493d 14a5 c23d 2a19 783c cde2 cbbd
00000030: 19cc 313d ebcb c539 de2b de3d bbfe 393c
00000040: 05c0 7bbd 262a a9bd 81ec fcbd 4c69 ad3c
00000050: aa4a 16bd 3d85 b7bd a980 083e 64ed 1d3d
00000060: 65c9 67bb e0df a7bc e5ec aa3d 46f0 263e
00000070: 607c 0e3e d4df 883c d249 21bd cde2 c23d
00000080: 6187 313e f46b 1bbe 5a73 c5bc 6081 173c
00000090: 7211 21bd 0c1f 193e 3bd8 51bc 808f a8bc
000000a0: f3bb be3d 44fb d33c 06f6 5dbc 856a b63d
000000b0: 1a57 983d 7965 91bd 88c3 e5b9 baad 463b
000000c0: 7b80 37bc 5f54 8d3d d7b9 28bd d8f2 0fbe
000000d0: f135 18be 078c 9fbc 9ef1 70bd d9b3 0cbf
000000e0: 0898 52bd 2d49 bbbc e486 113f 9d8b 6dbf
000000f0: c50c f53e 32e3 09bd b0ca 40ba fad0 f93c
00000100: 80f0 e03d b494 183d 459d f1bc 7eb6 773c
00000110: 1188 0dbf 7c97 bebd cf8d b2b9 0479 fcba
00000120: 887f 96bc c783 6abb 5fc9 21bf 69e1 ac3a
00000130: b575 693d 9457 09bb 4620 e4bb 4b73 b5bb
00000140: 6def 5f3c e074 5c3e 88af 913c 026b cc3c
00000150: 342f 67be 71fb e8bb 9df3 0ebf f94e 293e
00000160: b01c 123d aef1 24bd 7df0 0ebd 40f8 493d
00000170: 6c05 4a3e 3415 703e ed85 dc3c 88cf c43c
00000180: 33f7 b2bc 4459 223c ee40 493c 7815 613e
00000190: 04a8 ad3d 2bd6 cebc dbc3 b6bd 4b47 0d3f
000001a0: 8476 81bd 2416 a8bb 05f5 e13c 2021 2a3e
000001b0: 76be 083e 5cc3 7d3b
-0.063582115 0.07162283 0.09348874 0.0883559 0.12185618 0.033813614 -0.13154285 0.0017436754
0.049221613 0.095041424 0.015142718 -0.09955368 0.043407533 0.000377267 0.10848211 0.011352236
-0.06146242 -0.08259992 -0.12349797 0.021168374 -0.0366923 -0.0896096 0.1333033 0.03855647
-0.0035367843 -0.020492494 0.08345965 0.16302595 0.13914633 0.016708292 -0.03937704 0.09515915
0.17336799 -0.151779 -0.024102855 0.009247154 -0.039323278 0.1495325 -0.012807901 -0.020576239
0.09313192 0.025876649 -0.013547426 0.08907036 0.07438488 -0.070994325 -0.00043823966 0.0030315951
-0.011200066 0.06900858 -0.041192856 -0.14057481 -0.14864327 -0.01947595 -0.058824174 -0.54961926
-0.05141452 -0.022862041 0.5684645 -0.9279116 0.47861305 -0.033663936 -0.00073544215 0.030495156
0.10983372 0.03725119 -0.029493937 0.015119193 -0.55285746 -0.09306237 -0.0003405646 -0.001926214
-0.018371359 -0.0035784112 -0.6319789 0.0013189736 0.05699702 -0.0020956742 -0.006961855 -0.0055374256
0.013667923 0.2152896 0.017783895 0.024953369 -0.225766 -0.0071100523 -0.55840474 0.16534032
0.03567189 -0.040269546 -0.034897316 0.049309015 0.19728631 0.23445588 0.02691933 0.02402474
-0.02184639 0.009908978 0.012283547 0.21980846 0.08479312 -0.025248608 -0.08924075 0.5518691
-0.06321433 -0.0051295925 0.027582655 0.16614199 0.13353905 0.003872118
