sparrow/data/networks/scaled_rg/scaled_rg_network_v1.pt (torch, 235363 bytes, 9 tensors)

lstm.weight_ih_l0 f4 [300, 20]
00000000: 20d5 21bf 5e2d ca3e efac 79be 01ca f73d
00000010: a460 5fbe 93fe 1ebf 5a3f 97bd b522 d2be
00000020: 5c06 08bf 680d 3fbc 38f0 713e e921 bcbc
00000030: 4bca 91bd 9853 8abe 2621 7939 0635 b3bd
00000040: 1e3f 0c3f 6b99 d63d a236 943e 7598 6bbe
00000050: 9ab3 b53e 58ea 8a3c 5d04 4c3f 7579 8c3e
00000060: ebf6 1dbf d6b2 40bf ab4c 073e 02ff 2bbe
00000070: c40d d5be 4b6f 043f e533 243e 81cf 8d3e
00000080: a55e b53e 2d60 4abf 7ae2 2fbd e0f1 4cbd
00000090: 7685 123f b5ba 8d3e 199d bfbe 1c80 00bf
000000a0: 31b3 7dbf dabe a63e bdca b73d 7205 fcbd
000000b0: f5c5 86bb dadd 62bf 5ab0 9fbd 40fe 01be
000000c0: 67e1 a63e ed0e d4be 9b25 953c 5e74 c83d
000000d0: 67fe 56be de97 bdbd 594d 3d3d b40a 52bf
000000e0: e4f2 bbbd 6b3a b23c 0401 143d 37d0 4d3d
000000f0: 8098 ce3e 725f a1be 8319 4fbe 4493 fc3e
00000100: d3f6 13be 8957 733e dc10 aebd 5c85 18bd
00000110: 09bf 2bbf ec9c 143f 39ae b1be 5fb9 08bf
00000120: b0ae 3dbe d285 48bf a87e 2fbf 8162 f2be
00000130: 103c 82be 8eda 853e edcd 30bf 9451 97be
00000140: 580c 1ebe 8414 71bc ab82 9d3e 70c7 ba3d
00000150: 4e66 01bf 304a 00bf 15dd 75be 28f8 013e
00000160: ffd1 86ba 1f4a 323f 5349 2e3e e7f8 813d
00000170: 6696 2f3e be39 6dbf 3af2 ed3d fe11 0bbd
00000180: 48d3 a2bc e90d ba3d 58af 0dbf 202f 21bf
00000190: 9abc 87bf c4c8 523e 2e04 193f aa36 11bf
000001a0: 9317 e13e ae80 04bf af94 c4be 8a78 2e3e
000001b0: 7647 253f 41d8 373e 8957 53be 80d5 05be
000001c0: 1d43 20be 06b0 8c3d 1a9e 00bd 2db5 363e
000001d0: 0979 53bd 70e9 b13e 59b6 8a3f d2b0 bf3f
000001e0: 2dd4 98be 77bf 43be 961a cbbe 4d82 c1be
000001f0: 98bc ef3e 7b18 33bf 01c6 edbe c837 17be
00000200: 1aa7 753d d4c1 e63d ef3c e6bd 0298 cb3c
00000210: c279 b63e 9a13 4b3f e090 d13e eae6 70bf
00000220: 8e71 983e 657d 3b3e 6a64 a33e 878a c03e
00000230: 7d20 d4bb bed9 0cbf b39c 453e 31c7 b63e
00000240: 779e 0a3d 7c16 063f 12a6 f4be 6163 05be
00000250: 9f48 0bbe f09d f03e ec22 e2be 1fa0 8fbe
00000260: 96d7 4ebf bd4b cb3d c3d6 04bf f22f fcbb
00000270: 8de1 f1be 6c72 73be 7570 8bbf 9250 19bf
00000280: 14d5 52bf 3f31 d3bd ac85 84bd 4731 eb3c
00000290: b961 dbbe c4ca 8bbe 3523 733e 740d babd
000002a0: fc94 94be 8ff7 b93e 8895 3b3e 17fa 2cbe
000002b0: b946 c2bd 3f13 6cbf 3ee1 90be 860b 3dbe
000002c0: 4ad6 833f ad4e e93d 4a36 da3e 724a 15be
000002d0: bc3c 47bf 569d 83be 35c5 343e b3d1 cbbe
000002e0: 5b82 d6bd 7854 4abf a54a 54be 2db1 aebd
000002f0: 0b58 fb3d 5c58 f93d d6aa 033f 0fe8 943d
00000300: 75fd 01bd 1a56 ff3e cf65 8a3e 5157 82be
00000310: b9a9 c7be a6d3 e33d 0ce4 0a3f 7334 dd3c
00000320: dadc 063f 3c2a 00bf 71fb 5fbd df8d 033f
00000330: 5bde f23c 3afc f73e a546 e53c 5679 9e3e
00000340: b080 52bd a3e5 203f b914 01bf c79e 27be
00000350: 9ec3 22bf 6749 353f b660 58bd e386 babd
00000360: 651c 6dbf c575 263d 2026 edbe 0bdc bc3d
00000370: 6b0e e13d c6bd 1cbb 49fe 03bf f703 033e
00000380: 3921 87be 57b9 eebc c3f2 e13b 9246 c33d
00000390: ff14 0dbf 48a6 703e eaa3 b23c e23b c9be
000003a0: f121 41bd a644 22bf e24e b7be 6846 a7be
000003b0: 6cf7 42be 889f 2a3e 3d83 f0be 635f c0be
000003c0: 6f78 123e 8845 95be e6c3 1abf 848c f43e
000003d0: e7d5 0cbf 1553 fb3e 38d2 1d3e 7c91 b13e
000003e0: 2c23 0d3f 0543 f83e 69c6 aebe 01e2 84bf
000003f0: 77af d2be 21fc 98bf f1ce 823e b5e9 a43e
-0.6321583 0.39487737 -0.24382375 0.12099076 -0.21814209 -0.621072 -0.0738513 -0.41042104
-0.53134704 -0.011660911 0.23626792 -0.022965388 -0.071186624 -0.27016902 0.00023758839 -0.08750348
0.5478381 0.10478481 0.28947932 -0.23007376 0.35488588 0.016957447 0.7969416 0.27436414
-0.6170489 -0.7527288 0.1321284 -0.16796497 -0.41612065 0.5173232 0.16035421 0.27697375
0.3542377 -0.79053 -0.042940594 -0.050035357 0.57234895 0.2768151 -0.37424543 -0.5019548
-0.9910155 0.32567483 0.08974216 -0.12305726 -0.004112954 -0.8861977 -0.07797308 -0.12694645
0.32593843 -0.41417637 0.018206408 0.0978782 -0.20995484 -0.09257482 0.046216343 -0.8204758
-0.09177187 0.021756371 0.03613378 0.050247397 0.40350723 -0.31518131 -0.20224576 0.49331105
-0.14449625 0.23763861 -0.084993094 -0.037236556 -0.6708837 0.58051944 -0.34703234 -0.53407854
-0.18523669 -0.78329194 -0.6855264 -0.47340778 -0.2543645 0.26143306 -0.6906422 -0.29554427
-0.15434396 -0.014714364 0.30763754 0.09120071 -0.5054673 -0.501132 -0.24010117 0.1269232
-0.0010285972 0.6964435 0.17020158 0.063463025 0.17147216 -0.9266623 0.11618467 -0.033952706
-0.019876137 0.090846844 -0.5534568 -0.6296253 -1.0604432 0.20584399 0.59772 -0.56724036
0.43963298 -0.5175885 -0.38394687 0.1703817 0.64562166 0.17953588 -0.20638861 -0.13069725
-0.15650602 0.06869511 -0.031400777 0.1784255 -0.0516291 0.3474841 1.0836898 1.4975836
-0.29849377 -0.19116007 -0.3966872 -0.37794724 0.46823573 -0.6995923 -0.46440127 -0.14767373
0.059973814 0.112674385 -0.11242091 0.024852756 0.3563977 0.79326785 0.40930843 -0.94102347
0.29774135 0.18309553 0.31912547 0.37605688 -0.0064735995 -0.5501975 0.19298057 0.35698846
0.03384253 0.5237806 -0.47782952 -0.13026191 -0.13601921 0.46995497 -0.44167268 -0.2805185
-0.8079771 0.09926555 -0.518902 -0.007696145 -0.47242394 -0.23774117 -1.0893694 -0.59888566
-0.8235638 -0.10312127 -0.064708084 0.02871002 -0.42847994 -0.27303135 0.23743899 -0.09084597
-0.29019916 0.36321685 0.1831876 -0.16892277 -0.094861455 -0.9221687 -0.28296846 -0.18461427
1.0299771 0.11391959 0.42619544 -0.1457918 -0.7782705 -0.25705975 0.17653354 -0.39808425
-0.10474082 -0.7903514 -0.207316 -0.08529887 0.12272652 0.12175056 0.5143255 0.07270824
-0.031735856 0.49870378 0.270308 -0.25457242 -0.38996676 0.11124353 0.5425422 0.027002549
0.5268074 -0.50064445 -0.054683153 0.51388353 0.029647043 0.4843462 0.027987788 0.30951947
-0.051392257 0.628504 -0.50422245 -0.16369162 -0.6357974 0.7081513 -0.052826606 -0.09107759
-0.9262145 0.040639658 -0.4631815 0.09221657 0.10989078 -0.0023916825 -0.51559883 0.12794481
-0.26392534 -0.029141111 0.0068953945 0.095349446 -0.5511016 0.23500931 0.021806676 -0.393035
-0.04715151 -0.63386 -0.3580237 -0.32670903 -0.19039696 0.16662419 -0.46975127 -0.37572774
0.14303754 -0.2915461 -0.6045517 0.47763455 -0.5501389 0.49086824 0.15412223 0.34681308
0.55131793 0.48488632 -0.3413575 -1.0381471 -0.41149494 -1.1951944 0.2554851 0.32209554

lstm.weight_hh_l0 f4 [300, 75]
00000000: cd94 fa3d c957 c3bc ee69 133e ab96 3abe
00000010: 2838 02bd 381c 053e 63bb 1a3e bb4e 49bf
00000020: 3cc1 7bbe c682 c6bd f2bf 813f 5395 bb3e
00000030: f6fc 63bf 2baa 7e3f c51b 7c3f daa3 58be
00000040: b372 983e 187c 5e3d c445 403f e72b 923e
00000050: 6010 10be bcfd 843e 0960 ac3d 2783 fbbe
00000060: afdb 7ebf cdc8 0d3e 688f 853e 3d5f 74be
00000070: 220d 01bf 1af4 ce3e bacd 0d3d 8601 083f
00000080: 4dae 2bbd 3846 0bbe a0d9 66be 68fa ae3d
00000090: ccbd b63d a9ce 8dbe 7f93 633f bea8 163e
000000a0: 8e30 e33e 49b7 633f 148e bf3e 7cca 72be
000000b0: 9494 85be 348f 903f 4116 183f 96a4 8ebe
000000c0: 8024 79bd 3e1b 70be 9ac2 bb3e 62f6 1d3f
000000d0: 9828 303e 54b9 50bb 3302 993e 4a80 903e
000000e0: e9ae 77be 4c3c bb3e 9f9f 1abf 0cb6 5bbf
000000f0: 6b8e 603f 7605 e23c 0c99 113e bc40 e23d
00000100: 0ce3 bb3e a115 663e 8c7e 7dbe c43d 08be
00000110: d587 d2bd 47c2 67be 5e91 bd39 4427 94bd
00000120: c6e6 763f 6ffb 51bf d22a 73bf 8b3e 013f
00000130: ff4b 9a3e b98a f83e 288e 1cbe b8cb cc3d
00000140: ae9e cb3e a26a 82be c557 b63d a2da e9be
00000150: 4520 aa3e 62be 74bd 4b05 65be 3912 233d
00000160: 19cd be3c 9e58 953d 17c0 83be c6ad a4bd
00000170: 342a c33b 5f0d 3dbc c71d 283f e6c5 77bd
00000180: 495d c53e 2084 103f f979 d33b ebf8 753e
00000190: bc28 94be f70b b6be 90ab d2be 0715 9d3e
000001a0: cf0c debe b7f3 4fbe db47 1e3e 68af 9e3e
000001b0: 687e 1b3f a6f3 04bf 468e aabd 9cc8 25bf
000001c0: 01f2 a5be d2a9 c63c 7059 f1be ebb2 abbd
000001d0: c922 75bd c230 4ebe da09 0f3f 1eea 373f
000001e0: d8d3 db3d 37a1 843a ad4c 693e 8f4c 32bd
000001f0: 186c 313e a3f6 1dbf 0b2f 36be 38f3 803e
00000200: 4fbb a73d 82ce ec3e 3302 c83e 6bb0 fe3e
00000210: 2cc4 f53e 3577 3a3e 345a 463e 7f98 8cbe
00000220: 9fed 9d3e 75f4 973e fa8e ba3e ee74 3abe
00000230: 8b08 753c ff17 4e3e 69be 0b3e 3b10 e6be
00000240: ba3c 963e 5326 7b3d 6abd e23e 1eff 10be
00000250: 8aff dcbb 620a 233d 22de 363e 8c2f 20be
00000260: 2cd1 e1bc 09b4 73be 7fa6 24be 4622 883e
00000270: 47be 2dbe e017 63bf 5965 40be 1ae7 0b3e
00000280: 5507 a33f f157 b93e 914e 66bf 6503 8e3f
00000290: 4212 a13f c3fa 143e fe83 b7bc fcbc d83d
000002a0: 515c 9c3f c399 2bba 71f2 9ebe 89cd 9f3d
000002b0: a4e7 183e 7f26 a9be 4cd8 5dbf 4b47 083f
000002c0: 5eaa cd3d 9c29 67be a594 06bf 2965 293f
000002d0: 6326 303e 95db 963e 504d 133c 254d 36bd
000002e0: 5095 d5be 5468 0e3d 0c52 03be fa73 3abe
000002f0: 8db9 ac3f 60e2 e93e f26c db3e e89d 4b3f
00000300: 88a9 e33e 0cdf a9bd a367 c0bc 3d49 7e3f
00000310: a1f2 133f a7e9 d0be fba0 6ebe adc7 a0bb
00000320: 4bdb ab3d febd 313f 5b04 0c3e f2d3 fbbd
00000330: 2d77 503e d7dd 043f a616 62be 7c33 403e
00000340: caaf 33bf ce94 82bf 2869 5e3f 6300 a53d
00000350: 591e 293e 060c 16bd cc0b c63e be75 a93e
00000360: 4f2b 6bbe 5193 8d3d 2681 213e 5974 93be
00000370: a15f 0c3e 5585 aebe e3a7 4d3f 1ce4 69bf
00000380: df41 97bf 5034 923e 87b9 0d3e 5b08 323e
00000390: 8057 073e 18eb c03a cf01 c6bd 0878 d2bd
000003a0: 6799 87bf 5617 eebe d100 733d d8e4 173f
000003b0: 592b adbe e200 043f 01b6 533e 473e f13e
000003c0: af11 0dbd 5a2b ad3e d4b8 87be 958b 3d3f
000003d0: 4664 8f3e f41c 93be 8b5c 1a3f 3205 2b3d
000003e0: a6a4 843e d5ac 353d df4d 713e 2674 dd3c
000003f0: 0d46 bbbe e71c c43c 5782 02bf a2ca 0f3d
0.12235413 -0.02384557 0.14395878 -0.18221538 -0.031791836 0.12999046 0.15110545 -0.7863576
-0.24585432 -0.09692912 1.0136702 0.36637363 -0.8905786 0.99478406 0.9847987 -0.21156254
0.2977501 0.054317564 0.75106454 0.2854912 -0.14068747 0.25974834 0.08416755 -0.491235
-0.9955396 0.1384613 0.26085973 -0.23864456 -0.50410664 0.4042061 0.034620024 0.53127325
-0.041914273 -0.13601005 -0.22543955 0.08543855 0.0892292 -0.27696732 0.88896936 0.14712808
0.44372982 0.88951546 0.37413085 -0.23710054 -0.2608992 1.1293702 0.59408957 -0.27859944
-0.060825825 -0.23447892 0.36671907 0.61704075 0.17202985 -0.0031848745 0.2988449 0.28222877
-0.24187817 0.3656944 -0.6039981 -0.85824656 0.8771731 0.027590495 0.14218539 0.11047503
0.3669666 0.22469188 -0.24755305 -0.13304812 -0.10279814 -0.22632705 0.00036157196 -0.07234052
0.9644588 -0.8202428 -0.94987214 0.5048606 0.30136105 0.48543337 -0.15288603 0.09999794
0.397695 -0.2547198 0.089034595 -0.45674616 0.33227745 -0.059751876 -0.223653 0.0398123
0.023291158 0.07292293 -0.2573249 -0.08040957 0.0059559587 -0.011538832 0.65670437 -0.060491465
0.38547733 0.56451607 0.0064537493 0.24020736 -0.28937328 -0.35556003 -0.41146517 0.30680105
-0.43369147 -0.20307814 0.15457098 0.309932 0.60739756 -0.5193428 -0.08327918 -0.6475923
-0.32411197 0.024250899 -0.47138548 -0.08383735 -0.059847627 -0.20135787 0.5587441 0.7184161
0.10733765 0.0010118847 0.22783156 -0.043530043 0.1732639 -0.6170446 -0.17791383 0.2518556
0.08190023 0.46251303 0.39064178 0.4974397 0.4800123 0.18209536 0.19370347 -0.27460095
0.30845353 0.29678693 0.36437207 -0.18208668 0.01495565 0.20126341 0.13646854 -0.44934258
0.29343206 0.061315846 0.44285136 -0.1415982 -0.00674433 0.039804824 0.17858174 -0.15643138
-0.027565561 -0.23799147 -0.16079138 0.2658865 -0.16967116 -0.88708305 -0.18788661 0.13662377
1.2736613 0.36199906 -0.8996363 1.1094786 1.2583697 0.14548783 -0.022401806 0.10582921
1.2215673 -0.00065460446 -0.31044343 0.078028746 0.14932114 -0.33037183 -0.8665817 0.53233784
0.100422606 -0.22574466 -0.52570564 0.66169983 0.17202143 0.29464403 0.008990601 -0.044507165
-0.4171548 0.034767464 -0.12824267 -0.18208304 1.3494126 0.45680523 0.42856556 0.7953782
0.4446528 -0.08294496 -0.023486918 0.993305 0.577921 -0.40803263 -0.23303597 -0.0049066157
0.08391436 0.6943053 0.13673536 -0.12296285 0.20357962 0.51901 -0.22078952 0.1876964
-0.7019011 -1.0201662 0.86879206 0.080567144 0.16515483 -0.03663256 0.38680875 0.33097643
-0.2296574 0.06912864 0.15771922 -0.28799704 0.13708355 -0.340861 0.803343 -0.9136369
-1.1816977 0.28555536 0.13840304 0.17386 0.13216972 0.0014718501 -0.09668314 -0.102768004
-1.059369 -0.4650218 0.05932695 0.5933356 -0.33822134 0.5156385 0.20674898 0.47117826
-0.034440693 0.33822137 -0.265082 0.7404111 0.2800619 -0.28733027 0.6029746 0.041753
0.25906867 0.04435428 0.23564862 0.027032923 -0.36576882 0.023939563 -0.5098013 0.035105355

lstm.bias_ih_l0 f4 [300]
00000000: a9b6 f3be 2bba aebe afa0 eabe 2fff 87bc
00000010: f33c d0be 6917 50bf 4b46 0fbf 3c7f adbd
00000020: da58 f6be 73be aebf 84f5 ff3e 483e 6fbf
00000030: d6d9 0b3f 87d9 fd3e 8f0c 0f3f d447 8fbf
00000040: 9dfc 83bf 3e13 d6be c463 9b3e 009a 18bf
00000050: f8cd 64bf 0201 d4be 77dd dbbe 0da0 853e
00000060: b15c 8b3e 8fcc 5abe 9f91 0abe 4fe9 b5be
00000070: 5cbc 68be 2d2a 64bf d3e8 9bbf a536 35bf
00000080: 60c8 7abe ddef f1be 9913 0abe c95f a0bf
00000090: 5150 86bf 59d2 c7be 49b4 d63e 8410 7bbe
000000a0: a712 bb3a fab0 8bbd b203 9fbf 1b8d e8be
000000b0: 5d04 ecbe 56fe 0abd 3a56 5ebe a891 80bf
000000c0: 7888 2abf baa9 77bf 1dfc 5fbf 50d0 cdbc
000000d0: 7e5a a5bf 35ec 96bf 2f44 67bf c770 ecbe
000000e0: 86e2 1dbe f52f 47bf 145a 453e 7ad5 d6be
000000f0: 2cd6 cf3d 291e f13c 638f 98bf 44ba 05bf
00000100: 1cb6 67bf 709f 90bf 1f44 98bf 6007 84bf
00000110: ec90 02bf 512f bdbe d125 ddbe c03f 04bf
00000120: baec 663e 5003 a7bd 017a e73e 8b44 74be
00000130: ceab 153e 8cf4 0cbd 04c5 63be 04b8 c43d
00000140: 80c5 11bf 2dcb 2ebe 90c4 803e 15c2 203d
00000150: 9782 27bf 1652 433f 3821 babe 3085 943e
00000160: 4d8e 403f 98c9 2a3f bae4 fcbe 7bac dbbe
00000170: 274c 1bbf e6d0 bf3e 3ec7 363d 4a8b 2abf
00000180: 8fae 19bc ae99 923e b2dc 363e ae71 183f
00000190: c7ea 8fbf 2ea0 7a3e 32c4 243e d481 cd3e
000001a0: 798f 6cbe 060e 0fbf edea 4abf 2110 c73c
000001b0: 98eb 923d ef0f 753e 8fa2 30bf 9d83 19bf
000001c0: feb4 77be 2766 503f bf5d 953e 5703 ab3e
000001d0: ecce 023f d003 18bf 28c9 bb3d 7f89 7bbd
000001e0: a33c 163f 9b7a a53e 926a e9be d743 bfbe
000001f0: 565f 35bf cc0e d0be 4488 383d 3dd1 05bf
00000200: abab d13d b43c a7be f21e b93d 3546 423d
00000210: 6c98 76be a590 973e 91e0 e73e 05ab 203f
00000220: 2076 10bd d2af 0bbf 5551 0fbe a357 3c3c
00000230: 3e46 25bf c95f b2be 9855 14bf d293 403d
00000240: a0c2 31be 27b0 d6b8 70b4 80bd 7dc1 073f
00000250: 9352 4a3f ec24 453f 0e27 943d 6a88 8bbe
00000260: 1977 cc3d 8518 c03e 4333 9ebe be3f afbd
00000270: 9835 c9be c05f 923e b340 82bd 66bd dc3d
00000280: 096a d0be e478 153e 8a09 1d3f 8701 1dbf
00000290: 2f47 14bf 40dd b5bd 671a ecbe 3419 fa3c
000002a0: b391 8dbe 1333 7ebe 3258 bfbe 9181 3c3c
000002b0: 34ba e4bd 97ce f33e 5f20 333e 84f2 8c3c
000002c0: 24d7 aa3d 9878 ed3d c4b2 d43d 2cab 523d
000002d0: 5f21 a63e c4a6 0cbe 612d 163e c634 60be
000002e0: 5894 f73e 5311 9ebe ec0e dabe ee06 2a3e
000002f0: 5099 32bf d247 04be 3d69 a6bd 48b5 e5be
00000300: 9504 eabd 8518 f73d ee48 3d3e 32f7 ee3c
00000310: 53b5 87bd 793d d6be 1545 cc3d 86a3 ac3e
00000320: 77c3 52bc ebdd 5abd 8609 d7bc 3281 38be
00000330: 38a4 3e3e 037d 323d 6fc9 80be c55a 33be
00000340: f1ae 993e caf3 f03c 4642 9cbe 04d9 9abe
00000350: fe14 8b3e bc5f 183e fb2b 9dbd 5aa0 aa3e
00000360: a8a7 633e c0ce ad3e 0240 de3d 5a37 92be
00000370: 3d83 ec3d 4f61 88be 3458 e5be 82d6 2e3f
00000380: dba6 443f ce2c 8fbe b233 50bf 91ae c1bb
00000390: 321e 3bbf c3a7 98bf 6b65 4fbf 7bf3 7cbf
000003a0: ebe9 443f 54e1 6bbe b29b 9dbf 4f88 643f
000003b0: ee56 c0bf fa5d 50bd 9f86 8c3f eb1b c43e
000003c0: be58 c4bf c04d 7dbf 8e48 d4be 25d1 5a3f
000003d0: 9a93 5abe ac75 7dbf a484 9dbe d9ca dcbe
000003e0: ac51 0cbf 7538 24bf 1d13 cbbe 5e18 1abf
000003f0: 6f36 aebc 76af 9cbf 8caa e73c 5332 9ebf
-0.47600296 -0.3412641 -0.45825717 -0.016601173 -0.406715 -0.8128572 -0.55966634 -0.08471534
-0.48114663 -1.365187 0.49992 -0.9345441 0.54629266 0.49580023 0.5587854 -1.1193795
-1.0311466 -0.41811556 0.30349553 -0.59609985 -0.89376783 -0.4140702 -0.42942402 0.26098672
0.27219155 -0.21367095 -0.13532113 -0.35529563 -0.22728103 -0.89126855 -1.2180427 -0.70786506
-0.244905 -0.47253314 -0.13484038 -1.2529231 -1.0493261 -0.3902767 0.41934422 -0.24518019
0.0014272527 -0.06820865 -1.2423003 -0.45420155 -0.4609708 -0.03393396 -0.2171258 -1.0044451
-0.66614485 -0.9674336 -0.8749407 -0.025123745 -1.2918241 -1.1790835 -0.90338415 -0.46179792
-0.15418443 -0.7780755 0.19272643 -0.41959745 0.10148272 0.029433327 -1.1918758 -0.52237344
-0.9051225 -1.1298656 -1.1895789 -1.0314751 -0.51002383 -0.36950162 -0.43192914 -0.51659775
0.22551242 -0.08154929 0.4521027 -0.23854272 0.1461632 -0.034412906 -0.22243124 0.09605411
-0.56941986 -0.17069693 0.25149965 0.03924759 -0.6543364 0.7629713 -0.3635347 0.29007864
0.75217134 0.6671386 -0.49393255 -0.4290503 -0.60663074 0.37464064 0.044623606 -0.6661879
-0.009379997 0.28632873 0.17857626 0.5954846 -1.1243523 0.24475166 0.16090468 0.40138113
-0.23101605 -0.55880773 -0.7926472 0.024299683 0.07173842 0.2393186 -0.68998045 -0.5996645
-0.24190137 0.8140587 0.29173085 0.33400986 0.5109699 -0.5938082 0.09169227 -0.061410423
0.58686274 0.32320103 -0.4558912 -0.37356445 -0.70848596 -0.4063629 0.045051828 -0.522724
0.10237821 -0.326635 0.090391055 0.047430236 -0.24081582 0.29602543 0.45288518 0.62760955
-0.035268903 -0.54565156 -0.1399587 0.011495504 -0.64560306 -0.34838703 -0.57943106 0.047015972
-0.173594 -0.00010237126 -0.06284416 0.53029615 0.7903225 0.77009463 0.072340116 -0.27252513
0.099836536 0.37518707 -0.30898485 -0.0855708 -0.392987 0.28588676 -0.06359997 0.107783124
-0.40705898 0.14596897 0.6134268 -0.61330456 -0.5792112 -0.08880091 -0.46113893 0.030529596
-0.27650222 -0.24824171 -0.37371975 0.0115055 -0.11168328 0.47618553 0.17492817 0.017205484
0.08341816 0.11595267 0.10385659 0.051432773 0.32447335 -0.13735491 0.14665748 -0.21895131
0.48355365 -0.30872592 -0.4258951 0.16604206 -0.69765186 -0.12918022 -0.08125541 -0.4486487
-0.11426655 0.120652236 0.18484852 0.029170606 -0.06626382 -0.41843775 0.09974114 0.33718508
-0.012863985 -0.053434294 -0.026249658 -0.18018034 0.18617332 0.04357625 -0.25153682 -0.17515095
0.30016282 0.029413123 -0.30519313 -0.30243695 0.27164453 0.1488027 -0.07674404 0.33325464
0.22231925 0.339468 0.10852052 -0.28557855 0.11548469 -0.2663674 -0.44793856 0.6829606
0.768171 -0.2796387 -0.8132888 -0.0059107025 -0.7309295 -1.1926197 -0.81014127 -0.9880902
0.7691943 -0.23035175 -1.231314 0.8927049 -1.5026529 -0.050870873 1.0978583 0.3830255
-1.5339582 -0.9894676 -0.41461605 0.8547538 -0.21345368 -0.9900768 -0.3076526 -0.4312351
-0.5481212 -0.64148647 -0.3966302 -0.6019343 -0.02126619 -1.2241046 0.028279565 -1.2359108

lstm.bias_hh_l0 f4 [300]
00000000: c80d 05bf 1b46 8ebe 37f9 06bf 682e 12be
00000010: 2f2a dcbe 281a 5dbf cbde f2be 44c7 e1bd
00000020: ec6f b6be 6d4e b7bf fd1f b23e 4e07 78bf
00000030: 7fe2 033f 7366 fd3e 605c 033f 17a7 9dbf
00000040: 5e2e 86bf a9da ccbe 4f04 7d3e 2e77 01bf
00000050: 8e0f 7bbf 538d f1be 610d febe 0e5c 863e
00000060: 5540 c53d 7370 cebe 8ad7 00be 958a c7be
00000070: 1281 57be 1fdb 86bf 5c38 82bf bd6b 54bf
00000080: 549e c2be a463 20bf 054e 5ebe 22a3 9abf
00000090: 02c6 9cbf e8a5 c4be e0aa 1a3f 6c79 6ebe
000000a0: 75c3 2f3d b38d 1abd 581a 9ebf aa08 0bbf
000000b0: ab63 1bbf c17c 173e 211c bbbe 0893 74bf
000000c0: 9ead 0fbf fa8d 78bf 8f60 57bf 9c8b 393d
000000d0: 5cbc 95bf a8fa 96bf 1033 5bbf ec70 13bf
000000e0: df05 65be 0c94 42bf f87a 053e 9ab7 00bf
000000f0: 01bd ad3d 8807 84bd ae14 abbf 176f 31bf
00000100: a59e 5cbf ee67 86bf fe18 88bf f179 8dbf
00000110: f3aa 03bf 72b4 efbe e001 11bf b2fa cdbe
00000120: bcd1 283e 85fc b0bd 509c 003f 41c9 48be
00000130: a1f5 c13c f00f a4bd 240e 68be db0e 403e
00000140: b4c6 15bf 0ffc b4be 933b 7e3e d370 a73d
00000150: 7708 23bf 2464 3e3f ba2b a6be f61e 1d3e
00000160: bb57 443f 572a 403f c7e3 e4be 6c0c aebe
00000170: bce1 20bf d967 fe3e 1910 1e3d 36b2 0bbf
00000180: c2b7 04be d539 883e d5d1 593e 98b1 2f3f
00000190: 8e3a 93bf 317f 6c3e 85cc 473d c868 c23e
000001a0: 1eb2 92be 3f85 e5be ebfc 62bf ba34 423e
000001b0: 41c8 6d3d 4229 4d3e a533 2fbf b18e 14bf
000001c0: f634 8abe dc5f 3d3f 1aff 8b3e 96b0 b93e
000001d0: e3d2 f73e 6838 46bf 0879 6bbd 575c 83bd
000001e0: cbfc 0c3f 39bd 903e 6d0c 03bf 76b4 e8be
000001f0: a313 fbbe f566 ddbe 98b9 0ebd 4811 0abf
00000200: 9a5c 0bbd ca1e d6be 66f0 483e eb69 aa3d
00000210: 86f8 62be 2d9c cf3e dfcf de3e 94ad 293f
00000220: ce05 c7bc 5881 f2be bf7b edbd 3b33 313c
00000230: 205b 3abf 7b4d e7be e055 24bf 5fa7 0abe
00000240: 2d67 a1bd e103 f43d 4908 fabd 151d 023f
00000250: e764 3d3f 2837 5b3f c9fe f0bc 0af8 a1be
00000260: 69c7 053e 02d8 9f3e 391f 80be 608e e2bc
00000270: fb42 9ebe 26d5 5a3e 56b2 e03d 14f3 b93d
00000280: eb80 15bf 229a 323e 566b f43e 21be 1dbf
00000290: 6b27 16bf c4af 483d 6dfd d7be 06c8 2d3e
000002a0: 5f2e 84be d419 53be aa4b e1be 6932 dcbc
000002b0: df52 28bd cb4e f43e f13d 5a3e b9e9 1f3d
000002c0: 4748 293e 53a0 7ebd e699 333e 5410 9bbd
000002d0: 9125 ef3e 45b0 65be 28d9 673c c9d9 40be
000002e0: 7432 d93e 42ec 72be 26b5 82be 64b8 283e
000002f0: f948 18bf 58cc 9dbd 841d febd c0c2 cbbe
00000300: 0ec7 713c 357d 423e d484 8b3e 5ecd 88bd
00000310: eff6 2cbe f701 c0be 3f46 ec3d 5a8b b33e
00000320: d330 e83c c718 86bb 73e8 43be d6be 19be
00000330: c3a3 1d3e 221a cabd 5b29 98be 704c 51be
00000340: 4561 803e 62af c43c a27f 69be 85c9 77be
00000350: e157 b33e 153a e83d 1546 dbbc 9c06 c93e
00000360: 0b13 763e 19c4 e73e c0f6 0ebd e588 34be
00000370: 12cc 413e 1a0a 27be 9b89 7bbe d3a2 2a3f
00000380: 8484 3b3f bea1 27be 3ab8 82bf 5fd6 083b
00000390: d2f6 41bf f2ff a9bf 746b 54bf 5ab7 81bf
000003a0: 0ba5 583f 1e72 5cbe 5a94 a0bf 7859 613f
000003b0: 96ce c1bf 8872 cfbd dcb4 803f 46b5 d83e
000003c0: 2f5d b8bf 19c0 8bbf 979f 00bf 3e1f 563f
000003d0: e8fa 62be 2bdc 72bf 8072 7fbe 7fb7 9dbe
000003e0: 4d8a 0cbf b615 49bf 7207 c5be 755a 31bf
000003f0: bce2 8ebd dff0 97bf 6db6 e73d 0a9e 9abf
-0.51974154 -0.2778786 -0.5272402 -0.14275515 -0.43000934 -0.86368036 -0.47435603 -0.11024335
-0.35632265 -1.4320809 0.3479003 -0.96886146 0.5151748 0.49492225 0.5131283 -1.2316617
-1.04829 -0.40010574 0.24708675 -0.5057248 -0.9807061 -0.47178134 -0.49619582 0.26242107
0.09631411 -0.40320167 -0.12582222 -0.38972917 -0.2104533 -1.053562 -1.017345 -0.82976896
-0.3801142 -0.6265204 -0.2170945 -1.2081034 -1.2247927 -0.38407826 0.60416985 -0.23288506
0.04291101 -0.03773279 -1.235179 -0.54310095 -0.60698956 0.14793684 -0.36544898 -0.9553685
-0.56124294 -0.9709164 -0.8413171 0.045299158 -1.1698108 -1.1795244 -0.8562479 -0.5759418
-0.22365521 -0.7600715 0.1303519 -0.50280154 0.08483315 -0.06446749 -1.3365686 -0.69310135
-0.8617957 -1.0500467 -1.0632627 -1.1052839 -0.5143272 -0.46817356 -0.56643486 -0.40230328
0.16486257 -0.08641914 0.50238514 -0.19608022 0.023676695 -0.08010852 -0.22661644 0.18755667
-0.5850632 -0.35348555 0.24827413 0.081758164 -0.6368479 0.7437155 -0.32455236 0.15343842
0.76696366 0.75064605 -0.4470503 -0.33993852 -0.62844443 0.49688604 0.03858957 -0.54568803
-0.12960723 0.26606622 0.21271451 0.6863036 -1.1502244 0.23095395 0.04877903 0.37970567
-0.28651518 -0.4482822 -0.8866717 0.18965426 0.058052305 0.2003527 -0.6843818 -0.5803023
-0.2699353 0.73974395 0.27343065 0.36267537 0.4840308 -0.7742982 -0.05748847 -0.06414097
0.5507323 0.28269365 -0.51190835 -0.4545018 -0.4903842 -0.43242612 -0.034844965 -0.5393262
-0.03402386 -0.41820365 0.19622955 0.083209835 -0.22165117 0.4054884 0.43517968 0.66280484
-0.02429476 -0.47364306 -0.11595868 0.010815437 -0.72795296 -0.451763 -0.64193535 -0.1354041
-0.07881007 0.11914802 -0.122086115 0.50825626 0.7398209 0.85631037 -0.029418366 -0.3163455
0.1306435 0.31219488 -0.2502382 -0.02765578 -0.30910477 0.21370372 0.10971515 0.090795666
-0.5839984 0.1744161 0.4773814 -0.6161824 -0.586539 0.04899575 -0.42185536 0.16970834
-0.25816628 -0.20615321 -0.4400304 -0.026879506 -0.041094657 0.47716364 0.21312691 0.039041255
0.16531478 -0.062164616 0.17539176 -0.07571474 0.46708348 -0.22430523 0.014150895 -0.18833078
0.42421305 -0.23722938 -0.2552883 0.1647659 -0.5948635 -0.07704991 -0.124079734 -0.3979702
0.014756931 0.18993075 0.27249777 -0.06679796 -0.16891073 -0.375015 0.11536836 0.35067254
0.028343594 -0.004092309 -0.19131641 -0.15014204 0.15394501 -0.09868266 -0.29719052 -0.20439315
0.2507421 0.02400941 -0.22802594 -0.24197967 0.35027984 0.11339203 -0.026766816 0.39262855
0.24030702 0.45266798 -0.034903288 -0.17630346 0.18925503 -0.16312447 -0.24564211 0.666547
0.7324908 -0.16370293 -1.0212471 0.0020879728 -0.7576724 -1.3281233 -0.8297646 -1.013408
0.84626836 -0.21527907 -1.2545273 0.88027143 -1.514117 -0.10129267 1.0055194 0.423258
-1.4403437 -1.0917999 -0.50243515 0.8364142 -0.22166026 -0.948672 -0.24946022 -0.3080406
-0.5489853 -0.78548753 -0.38482243 -0.6927865 -0.0697684 -1.1870383 0.11314092 -1.207948

lstm.weight_ih_l0_reverse f4 [300, 20]
00000000: 2c8c 63bf 2262 74bf a853 31bf 6361 0cbf
00000010: 093a 043f 6eef 7ac0 4bdc 28bf 2442 26be
00000020: c384 1d3d bb91 09be 2e76 c7be 6a6b 93bf
00000030: cdd1 8abe 336f 3dbf 18a2 55bf ab76 a2bf
00000040: 300e 37bf 5953 93be 724b 9a3f 6da9 1c3f
00000050: 65b8 acbe f0fa 1e3f 9867 29c0 d0da 83bf
00000060: 9c0c aebf f55a 92be 6e55 34bf 6cd6 62bf
00000070: eea4 ebbf 2bf4 79bd cde1 28c0 12a4 c53e
00000080: b213 993f ad6e 38bf 1d05 a6bd 2a2c 20bf
00000090: 3d22 dfbe 4b91 1fc0 77b1 9f3f e1a8 463f
000000a0: eaf3 94c0 5fcf fdbf 04a0 b93d dc6e e03e
000000b0: 9178 a6bf e94b 153f 1f2b ce3d fe59 853f
000000c0: ed8d 143e da6e 93bf 37a3 29c0 6012 373e
000000d0: b87e 413e a906 35be 1d20 94be 4709 4abf
000000e0: acde 593f 5504 0a3e a8b1 e33e 21ba 8bbf
000000f0: 207c ba3c 8750 d83e cd39 b03f 6d97 40be
00000100: c3f1 09bd 9afa 5dbe c776 2c3f f30a 1e40
00000110: 7e1f febe eb68 b03f 1e6a 6fbf bd09 f5bd
00000120: e2bf e93f d2e6 233f d85b 81bf e82c aebe
00000130: 492d fdbf 58c4 f1be 3f0b fb3c 0727 04be
00000140: 0997 d2bc 4944 6b3e 488b 8dbe 7c48 d93d
00000150: 64e8 34be 3b48 053e 3dbd c7be 244c fd3f
00000160: 8e70 723f 3306 723f ca59 8e3f 6426 f83e
00000170: f017 d93d 5a5c 5e3f 55dc 15be 89af 88bd
00000180: 8715 83bf eb0b c13f e994 f93e 1b5d 9fbf
00000190: 3be7 b4bf 79f3 09c0 b967 84be 6acf 2bbf
000001a0: e8db c33f b79d 0bbf 05f3 c9be 5c92 693f
000001b0: e61d a3be cda7 99bf 7f19 21bf fd82 9fbf
000001c0: b4c4 033e 9a04 0bbf 9e6d a7bd a0fe debf
000001d0: bc2c debe 12a4 4fbf a2ce 933e 736d 7d3f
000001e0: d621 1cc0 8f23 02bf b833 b6be 4f22 bbbe
000001f0: 1aeb fbbd 8686 96bf 187d 77bf a990 16be
00000200: be88 02bf 9247 7ebf 7ac1 0ac0 1f8d e2bf
00000210: 286a 9cbd ee3d 08c0 b8a8 28be f84d 1ec0
00000220: 1b70 fbbf 977f e1bf cbb3 84bf b94a 17bd
00000230: 15fc 58bf 8341 bfbd 74cd 8c3f 0957 5dbe
00000240: e6bb 783f 7e5d 1fc0 65cb cbbd b39d 26bf
00000250: ac0c efbd 22be c23f d2e9 313f e977 4fbf
00000260: 0aac 38be 76c8 b73d 5a91 9cbf a03c f1be
00000270: b268 e3be b5b8 3ac0 8777 0cbf ef86 213e
00000280: d307 c73e 070e 9d3e c566 ca3f 175e c1bc
00000290: 4500 0dbf 7fdd 0b3f bc44 0abf ac5a 91be
000002a0: 7898 bebf 9291 9abf dfbc 0bbf c056 383f
000002b0: 9a40 76be 579c e13e 5e51 12c0 c910 3dbf
000002c0: d681 1bbe f77e 993e 3bb3 37bf 34eb fa3f
000002d0: 7b64 123f 55fd f3be 38bb 1bc0 627d c7bf
000002e0: e710 dcbe 9566 b43f d341 43bf b322 523f
000002f0: 1455 1fbf f507 c3bf 6f44 12c0 6b9d 2cbf
00000300: 923b ffbe 8438 69bf b85b 0ec0 7441 91be
00000310: b68f 1fbf b1df fabe ec3b 963f cafb 6cbe
00000320: 8196 21c0 04b8 af3f 33f1 12c0 bb95 04c0
00000330: dc0c ab3d c968 e2be 55e0 39bf 2758 b1bd
00000340: 0e4f cd3e e907 4abe 3b22 24bf 66f3 08c0
00000350: 23c0 c2bf a657 823e b48f 6f3f 7179 97be
00000360: 7f8c edbf 5a7f 583f af17 333c 20f3 82be
00000370: 351b 05c0 0f0b 6dbd 8f98 09bf d3b9 043f
00000380: a943 f63e 7e4d ecbf 2fb4 efbf 9d67 17bf
00000390: 90ab 04c0 bee0 23c0 0949 423e d599 0dc0
000003a0: a4b3 e5bf 33de 5bc0 8603 143f e68c 85c0
000003b0: d9ec 36c0 9aec ea3e 8e4a c43f 1517 da3e
000003c0: 88fc 01c0 141f b6be 6250 503f ac64 173f
000003d0: 3b43 8d3f 9018 fb3c 5a46 223f 39de 613f
000003e0: e7ad 03c0 13e5 e5be 0947 813f d73f 82bc
000003f0: bee1 18bb 3dfc 1c3e 5996 efbe c642 8dbe
-0.8888576 -0.9546224 -0.69268274 -0.548361 0.51651055 -3.9208636 -0.6596114 -0.16236168
0.03845669 -0.13434498 -0.3895735 -1.1517155 -0.2711319 -0.739978 -0.8345046 -1.2692465
-0.71506023 -0.28774527 1.2054274 0.61196023 -0.33734432 0.6210165 -2.6469479 -1.0301151
-1.3597598 -0.2858502 -0.70442855 -0.8860843 -1.8409708 -0.061023872 -2.6387818 0.38601738
1.1959136 -0.7204388 -0.08106444 -0.6256739 -0.4358081 -2.493243 1.2476033 0.7760144
-4.6547747 -1.982891 0.09063724 0.4383458 -1.3005544 0.58318955 0.100668184 1.0418088
0.14507265 -1.1518204 -2.6505868 0.17878103 0.18895996 -0.17678322 -0.2893075 -0.78920406
0.85105395 0.13478215 0.44471478 -1.0916177 0.022764266 0.42248937 1.3767639 -0.18807764
-0.033677828 -0.21677628 0.6736874 2.4694183 -0.49633402 1.3782018 -0.93521297 -0.11964748
1.8261683 0.6402408 -1.0106153 -0.34018636 -1.9779445 -0.4722011 0.030645011 -0.12905513
-0.025706785 0.22975267 -0.27645326 0.106095284 -0.17666775 0.13015835 -0.39011565 1.9788861
0.94702995 0.9454071 1.1121151 0.4846679 0.10600269 0.8685967 -0.14634831 -0.06674106
-1.0240945 1.5081762 0.48746422 -1.2450289 -1.4133066 -2.1554854 -0.25860384 -0.67113364
1.5301485 -0.5453753 -0.39443222 0.9123895 -0.31858748 -1.2004334 -0.6292953 -1.246185
0.12868005 -0.54303896 -0.08175205 -1.7421455 -0.43393505 -0.81109726 0.28868586 0.9899513
-2.4395652 -0.5083551 -0.35586333 -0.36549613 -0.123007014 -1.1759803 -0.9667525 -0.14703621
-0.509899 -0.9932796 -2.1680589 -1.7699317 -0.07637435 -2.12878 -0.16470611 -2.4735088
-1.9643587 -1.7617062 -1.0367368 -0.036936495 -0.84759647 -0.09338667 1.1000199 -0.21615233
0.9716171 -2.4900813 -0.09950904 -0.6508438 -0.11672339 1.5214274 0.69497406 -0.81042343
-0.18034378 0.08973782 -1.2231858 -0.47116566 -0.44415814 -2.9175236 -0.54869884 0.1577413
0.38873157 0.30674765 1.5812613 -0.023604436 -0.55078536 0.5463485 -0.5401113 -0.2838949
-1.489028 -1.2075675 -0.5458507 0.7200737 -0.24048081 0.4406459 -2.2862163 -0.7385374
-0.15186247 0.2997968 -0.7175786 1.9603028 0.5718457 -0.47654215 -2.433302 -1.5585139
-0.42981645 1.4093806 -0.76272315 0.82084197 -0.62239194 -1.5236803 -2.2854269 -0.674277
-0.49850136 -0.9110186 -2.224348 -0.2837025 -0.6232866 -0.48998788 1.1737037 -0.23142925
-2.524811 1.3728032 -2.2959716 -2.0716388 0.08352062 -0.4422057 -0.7260793 -0.08659392
0.40099376 -0.1972958 -0.6411473 -2.1398559 -1.5214885 0.25457495 0.9357865 -0.2958484
-1.8558501 0.84569323 0.01093094 -0.25576115 -2.0797856 -0.057871874 -0.5374841 0.51846045
0.48098496 -1.8461149 -1.8726863 -0.59142476 -2.0729713 -2.5605922 0.18973173 -2.2125142
-1.7945447 -3.435437 0.57817876 -4.1734495 -2.858206 0.45883638 1.5335252 0.42595735
-2.0310383 -0.35570586 0.81372654 0.5913799 1.1036142 0.03065136 0.633886 0.8822971
-2.0574892 -0.44901332 1.0099803 -0.015899582 -0.0023327912 0.15330596 -0.46794394 -0.27590007

lstm.weight_hh_l0_reverse f4 [300, 75]
00000000: 4799 31bf 6ff1 173f 90fe 5f3d b2ca 57bf
00000010: c45b 96be 46d1 3e3f 8ad3 87be f29a 3ebf
00000020: 2991 433f de20 10bf 5c1f f5be 656c 063f
00000030: bf98 a3be 416c 313f cf32 c73e 4546 11bf
00000040: c075 3b3f 7a7a 90be 52dd 1d3c 8746 463f
00000050: f183 613e a947 d5be 8060 42bf 4b0c 2cbf
00000060: 395a 7bbf ee28 14be 8d28 253f 1203 80bf
00000070: c778 5d3f 76d5 b2bf fe7b 23be 5a6b cebe
00000080: 8535 033f df5d ef3e cb78 723e b849 2fbf
00000090: 9058 153f 9e38 6bbf f158 293f 22e1 223e
000000a0: 89a4 92bf f321 633f 281e 613f 03f2 c83f
000000b0: fc79 f63d 8d82 9fbe 9664 8b3e 3bda 49bf
000000c0: 8bce 073f 8c5c 3fbf 3072 873e d78e 03bf
000000d0: 3e3c 773f 6573 27bf 574d 153f c1b0 83bf
000000e0: cd59 14bf 4af1 a73f fdb9 023f f2f9 4bbf
000000f0: b0d6 bb3c f897 783e 0cfd 8b3f 2066 5d3f
00000100: 492a 50bf f23e 543f 2bd8 08bf 89d8 91bf
00000110: ec7c 003f 5aaf 6b3f 38b0 55be a651 d33e
00000120: c584 3dc0 4daa d1be 126d a53e a029 0c40
00000130: 4eeb 083e 1e73 eebf 8c89 2ebf ca3a e43d
00000140: f8cb c43e e06f cb3e d3c4 3fbf b0f2 b63f
00000150: feaf a3be de5d fb3d feb2 b1bf 4921 9a3e
00000160: 7930 b03d d996 98be 69c7 7e3f da27 723e
00000170: dd39 8e3e 38a3 28bf 6a9b b53e f4c5 d6be
00000180: bca0 a1bf e18e 22bf eb5b 46be 2635 38bf
00000190: ef72 19bf 26ac 9abe 1456 883f dee4 b43f
000001a0: 4520 c6bf 19e6 c93e 8dc9 7dbf 1b6f 6c3f
000001b0: 0889 3f3f 7c51 e23d b354 8abf e649 093d
000001c0: 230a 7f3e a063 cc3e fc2a 0fc0 df27 88bf
000001d0: 80e4 f33f db21 4f3f 2590 113f 3f26 11bf
000001e0: 242c 62be 387e 09be 17d1 dc3d c546 753f
000001f0: 05e5 89bd 4942 5e3f 28bc b93d 468c 903f
00000200: 6042 44bf c66d e23e fb23 34bf 9145 bf3c
00000210: e5e3 c9be d3e3 16bf 3df7 46bf 64e0 50bf
00000220: d2a9 9b3e 9f8a cdbf 57b1 a33f 98cf 2b3f
00000230: 50d2 183f a480 b6bf 81b2 003f d732 873f
00000240: 2ce8 8dbf 4a6d 70be 4b32 0d3f 2345 a2be
00000250: 6e2c 13bf acd7 50bf 1747 42bf e5bc a83f
00000260: 31e0 0a3f 2bfe ce3d b1e2 56bd 7e50 6a3f
00000270: dc1c 24bf e7a1 adbf 4458 243f 3ff2 043f
00000280: 61ee efbe dc25 fcbf aedb e93d fd90 c2bf
00000290: 0d21 0840 e56e a0be 4df7 463f b22f b0be
000002a0: d8ae df3d b87c 193f 417a 13c0 2c46 163e
000002b0: cb47 bc3e ce79 aabe 0315 c43f 6cfd d9bf
000002c0: 099c 003f 730d 44bf 7593 a23d bdd0 5fbf
000002d0: bc30 09be cfae 173f 4bc2 083f 83fe 9bbf
000002e0: ec13 163f b9c4 6dbf f826 093f dc9f 94bf
000002f0: 9777 2e3f 6c75 a7bf baae 70bf d7ea 353d
00000300: 7280 283e 3599 7e3f fe8d 673f c1ff a2bf
00000310: bedd 963f 293a 563f 69a6 0e3e 5bc3 84bf
00000320: d962 e33d e667 013f d716 06bf fb98 90bf
00000330: 85f7 cdbe b686 8dbe 5717 6dbf 7164 f8bf
00000340: ed15 0f3f 3616 cabe d75a 853e 00d3 a43f
00000350: e3c3 103f d645 ae3d fa9c 1fbf 61af 603f
00000360: e10d 76bf 7ab5 0cbf 9ff5 413f 0dcb ca3e
00000370: f482 8ebf a59a 683e cf43 a43e bb7c 21bf
00000380: 637e bb3e a9be 083f 5e8c 3440 5333 1abf
00000390: f7bb c23f 4928 0fbf 2494 683f ce70 513d
000003a0: 5b0e 0540 db68 b23f e19e abbf f746 e6bf
000003b0: b578 353f 9e02 80bf 10b5 b03f 490c 88bf
000003c0: 0697 3b3f a798 443f 9e98 0cbe cbc0 d63e
000003d0: 08f8 4f3f 6dde c63e 26d9 81bf 4d88 45be
000003e0: 9090 81bf fb48 e3bd b5c3 573e 5130 823f
000003f0: 4b0f 45bf ce96 67be 7acd 90bc 7467 30bf
-0.6937451 0.59352773 0.05468613 -0.84293664 -0.29366887 0.74538076 -0.2652858 -0.7445518
0.7639337 -0.5630015 -0.47875488 0.52509147 -0.31952474 0.6930581 0.3890595 -0.5674785
0.7322655 -0.28218442 0.009635286 0.77451366 0.22022988 -0.41656235 -0.759285 -0.6720626
-0.98184544 -0.14468738 0.64515 -1.0000937 0.86512417 -1.3971393 -0.15965268 -0.40316278
0.5125354 0.46751305 0.23678891 -0.6847186 0.5833826 -0.91883266 0.6615134 0.15906194
-1.1456462 0.8872368 0.8793664 1.5698856 0.120349854 -0.3115429 0.27225178 -0.7884862
0.53049535 -0.7475059 0.26454306 -0.5138983 0.965763 -0.65410453 0.58321136 -1.0288316
-0.57949525 1.312051 0.51065046 -0.7967826 0.02292952 0.24276721 1.0936599 0.86483955
-0.8131452 0.82908547 -0.53454846 -1.1394206 0.50190616 0.9206444 -0.20868003 0.4127323
-2.9612286 -0.40950242 0.32309777 2.1900406 0.13371012 -1.8628881 -0.6817863 0.111440256
0.38436866 0.3973379 -0.74909705 1.4292812 -0.3197021 0.12273763 -1.3882749 0.3010352
0.086029954 -0.29802588 0.99523026 0.23648015 0.2777852 -0.6587405 0.35470134 -0.419479
-1.2627177 -0.63499266 -0.19371001 -0.719561 -0.59941 -0.30209464 1.0651269 1.4132345
-1.5478598 0.39433363 -0.9913567 0.92357033 0.7481847 0.11050698 -1.0807098 0.03351774
0.2490621 0.39919758 -2.2369986 -1.0637168 1.9054108 0.80911034 0.5686057 -0.56698984
-0.22087151 -0.13427055 0.10782068 0.9581111 -0.06733135 0.86819893 0.09069091 1.1292808
-0.7666378 0.44224375 -0.703674 0.023348602 -0.39431682 -0.5894138 -0.77721006 -0.8159239
0.30403 -1.6057929 1.2788495 0.6711364 0.5969591 -1.4258008 0.50272375 1.056239
-1.1086478 -0.2347919 0.55154866 -0.31693372 -0.5748967 -0.8157909 -0.75889724 1.3182646
0.5424834 0.101070724 -0.052462284 0.9152907 -0.64106536 -1.3565034 0.6419718 0.5193214
-0.46861556 -1.9699054 0.11418854 -1.5200497 2.1270173 -0.31334606 0.777211 -0.3441139
0.10922021 0.5995593 -2.3043368 0.14675206 0.36773524 -0.33296055 1.5318912 -1.7030463
0.5023809 -0.7658302 0.079382814 -0.87427884 -0.13397497 0.5925111 0.5342147 -1.2187046
0.5862415 -0.928783 0.53575087 -1.1611285 0.6815123 -1.3082709 -0.9401661 0.044413414
0.16455248 0.99452525 0.9045104 -1.27343 1.178642 0.83682495 0.13930668 -1.0372118
0.11102838 0.5054916 -0.523786 -1.1296686 -0.40227905 -0.2764184 -0.9261374 -1.9405652
0.5589283 -0.3947007 0.26045868 1.2876892 0.565489 0.08509414 -0.623489 0.87767607
-0.9611493 -0.5496441 0.75765413 0.3960804 -1.1133714 0.22715242 0.32082984 -0.6308095
0.36619863 0.53415924 2.8210673 -0.60234565 1.5213612 -0.55920845 0.90851045 0.05113297
2.0790012 1.3938249 -1.3407861 -1.7990407 0.7088731 -1.0000799 1.3805256 -1.0628749
0.7327732 0.7679543 -0.13730094 0.41943964 0.8123784 0.38841572 -1.0144393 -0.19290276
-1.0122242 -0.11097904 0.2107075 1.0170995 -0.7697646 -0.22616121 -0.017676104 -0.68907857

lstm.bias_ih_l0_reverse f4 [300]
00000000: 2548 cfbf a1db 08bf bc63 37be 3fd1 57bf
00000010: e7ff 4fbe c768 4abf 3220 b5bf 01a7 69be
00000020: c03c c8be c7a2 acbe 5010 47bf ea13 21bf
00000030: 3f28 34bf 6b1d 4ebf 3b25 9cbf 0fe7 5ebf
00000040: 1ea0 06bf c1fe f9be 7132 bdbf 538e 35bf
00000050: b98a 82bf 22c7 20bf 85ba 90be f826 a1be
00000060: a548 d1be 5abf 54bf e74d 66bf 31a1 85bf
00000070: 5cea f1bd 383f 92bf a11e 0dbf 69fb e1be
00000080: 11fe 1fbf dbcf 13bf 9b18 35bf 33bf 66be
00000090: dcef 1e3e 19ce e5be dddf 60bf 9023 07bf
000000a0: 9ee0 53bf f852 00bf 7749 1bbf d39f 00bf
000000b0: 9e81 1abf e560 a6bf a6bf 35bf 57f5 79bf
000000c0: 677e 65bf db81 82be 6444 2ebf 9c94 49bf
000000d0: fdee 51be 987a 9fbf 9036 9abf f409 18be
000000e0: d702 71bf bfb3 d3be b269 37bf d2fa 9cbe
000000f0: d6c2 69bf aad1 8abf fe14 06bf 1272 35bf
00000100: 9735 18bf 14ee 94be c404 40bf 3b10 dcbe
00000110: 1c2e 7abf 55e1 8ebe ab9c a9bf c4a2 67bf
00000120: e8a8 73bf 85f7 8dbf f773 42bf 8bfc a43f
00000130: 2cc9 f13d ca80 d5bd 33de 7b3f 9df4 febe
00000140: 3828 db3d a737 7f3f 3dd7 95bd aa25 073f
00000150: b3eb 26be 1607 f03e 427e 883e 32e2 ccbe
00000160: 0552 a53e 0485 08be db1c 693e 0f27 4ebf
00000170: de9e 1bbe 7498 cd3e c870 b13e 3d1b 4a3f
00000180: 26ca ca3d d506 f03d ca08 0cbf 6ab8 e03e
00000190: 68a2 773e c6c2 123f 3ba7 dd3e 13d1 703f
000001a0: f739 463e f3eb fc3e cac5 293d b42b b13e
000001b0: 28c0 e73e d931 09bb c9cb babe 3e46 01bf
000001c0: 9ba7 26bd a216 413f 6dec 043f 6f69 14bf
000001d0: 8f7b a73d 7cf2 2ebe 4a15 873e 0f90 a63e
000001e0: e5f7 5f3f 59b4 dc3e 9b58 abbe 3bbb 3a3f
000001f0: cd0b 02be 3de0 c7bc 7329 993e 4d77 4dbd
00000200: 8756 9e3f b897 ed3e 0652 463f 588d 773f
00000210: ddee 76be 8f20 b43e 8685 2c3f 31e5 683f
00000220: 5716 603f b92c 27bf b74c 423f 218b 583c
00000230: 65d9 ffbe f2f7 323f 2e68 84be 8d37 473f
00000240: 8e8d 68bf 19d8 913f 8011 be3e 24ac 8dbe
00000250: c280 a73f 77df 4ebe d2f5 bdbd a91f f9be
00000260: c7d0 c23d 8d18 ed3d aa38 923e 878f 9bbe
00000270: a0b0 2e3b 0c19 553e d0d4 8abe 7b8d 143f
00000280: 759c ba3c 1198 1cbe 3e7d df3d 10bf c2bd
00000290: 5bc5 0bbe c53b 24be 4a92 9dbe 5a37 843e
000002a0: 7a33 403e d2f9 3fbe cf84 ac3c 8ab5 113e
000002b0: a54d ac3d 1223 b93e 7ff6 a33e a18e 37bc
000002c0: d5c1 5a3e 05ba 083d 002b 2a3e 746e 4ebd
000002d0: aa66 1abe ec97 edbc 7159 c5bd 9f2c 7ebd
000002e0: e615 ff3d 22b7 853e cf4d 01bf 5bac a03c
000002f0: 3453 103e f18a 7cbd 7f16 c8bd fc25 263e
00000300: a3af 41be 09b9 f6be 22d1 1a3d 6484 8fbd
00000310: 9d09 dabd 56aa b33d ebbe 82bd 602b f03e
00000320: 199d 86be 973a 6f3e 57af 9ebe 5c00 d03c
00000330: 7037 83be c16e 8c3e 00dd 0f3e 8f40 96be
00000340: 9727 a33d 4ad8 abbd 15de 433d b31b 08be
00000350: c671 9bbf 5c48 a7be e022 793d aacb f7be
00000360: fa2f 0e3e b9ae 093f 7697 acba 9dfe 1cbf
00000370: 1c37 133e b518 073d 88a7 a63e b5e8 4e3e
00000380: 41b5 9dbe 3f6c 563f c0cc d8be 4fd3 3abf
00000390: 7201 32bf 4ba7 9abd 6c8a 82be c414 893d
000003a0: d4f5 20bf 195e 2abf 278e c0be 0d3d 23bf
000003b0: 0d7f 01bf 456f 2cbf 3a04 34bf 1f3a 10bf
000003c0: fafb babe f6fa afbe 10a8 0bbf 1c3a b33d
000003d0: acd3 f3be 8473 56be a0c1 cebe 771b 92be
000003e0: 86cf fcbe aea8 41bf 78e8 17bf 7817 d9be
000003f0: 9400 d7be a57f 6dbf 9c3f cbbe f51b 51bf
-1.6193892 -0.5346013 -0.1790914 -0.8430366 -0.20312463 -0.7906613 -1.415045 -0.22817613
-0.3910885 -0.3371794 -0.77759266 -0.6292101 -0.7037391 -0.8051364 -1.2198862 -0.8707132
-0.5258807 -0.48827174 -1.4781018 -0.70920295 -1.0198585 -0.6280385 -0.28267303 -0.31475043
-0.40875736 -0.8310448 -0.8996262 -1.0439817 -0.11812279 -1.1425543 -0.5512486 -0.44137123
-0.6249705 -0.5773904 -0.7074067 -0.22533874 0.15521187 -0.44883803 -0.8784159 -0.5278864
-0.82764614 -0.501266 -0.60658973 -0.5024387 -0.6035403 -1.299832 -0.7099556 -0.97639984
-0.89646 -0.25489697 -0.68073106 -0.78742385 -0.20501323 -1.2459288 -1.2047901 -0.14847547
-0.9414496 -0.41348073 -0.71645653 -0.3066011 -0.9131292 -1.0845234 -0.5237578 -0.7087718
-0.5945677 -0.2908789 -0.7500727 -0.42981133 -0.9772661 -0.2790629 -1.3250936 -0.90482736
-0.95179605 -1.1091162 -0.759582 1.288957 0.118059486 -0.10424955 0.98385924 -0.49796
0.107010305 0.99694294 -0.07316444 0.52791846 -0.1630085 0.46880406 0.26658827 -0.40016323
0.32289138 -0.13331991 0.22764914 -0.8052835 -0.15197322 0.40155375 0.34656358 0.7894781
0.09901838 0.11720053 -0.5470091 0.43890697 0.24183047 0.5732845 0.4329165 0.9406902
0.1935805 0.49398765 0.041448392 0.34603655 0.4526379 -0.0020934253 -0.364836 -0.50497806
-0.040687185 0.7542516 0.5192326 -0.5797338 0.08177864 -0.17084688 0.2638343 0.32531783
0.8748763 0.43106344 -0.33466038 0.7294194 -0.12699814 -0.024398917 0.29914436 -0.050162602
1.2370156 0.46404815 0.7746891 0.9670005 -0.24114557 0.3518109 0.6739124 0.9097472
0.8753409 -0.65302616 0.7589831 0.013216765 -0.49970546 0.69909585 -0.25860733 0.7781914
-0.90840995 1.1394073 0.37122726 -0.27670395 1.3086169 -0.20202433 -0.09275402 -0.48656967
0.09512477 0.11576948 0.28558856 -0.3038294 0.002665557 0.20810336 -0.27115488 0.5802838
0.022779683 -0.15292384 0.1091256 -0.095090985 -0.13649504 -0.16038425 -0.30775672 0.2582348
0.18769637 -0.18747643 0.021059422 0.14229408 0.08413247 0.3615957 0.32024 -0.011203439
0.21363004 0.033380527 0.16617966 -0.050398305 -0.15078226 -0.029003106 -0.096362 -0.062054273
0.12455349 0.26116282 -0.5050935 0.019613435 0.1409424 -0.061655942 -0.09769916 0.16225427
-0.18914656 -0.48188046 0.0377971 -0.070076734 -0.10646365 0.087727234 -0.06384071 0.46908092
-0.2629173 0.23362194 -0.3099315 0.025390796 -0.25628233 0.2742825 0.14049149 -0.2934613
0.079665355 -0.08390863 0.047819216 -0.13291816 -1.2144096 -0.32672393 0.060824275 -0.4839757
0.13885489 0.5378223 -0.0013167697 -0.6132601 0.14376491 0.032982547 0.3254969 0.20205958
-0.30802348 0.8375892 -0.42343712 -0.7297868 -0.69533455 -0.0755144 -0.25496233 0.06693414
-0.62875104 -0.6654983 -0.37608454 -0.6376503 -0.5058449 -0.67357284 -0.7031895 -0.56338686
-0.36520368 -0.34371156 -0.5455332 0.08751318 -0.4762243 -0.20942503 -0.403821 -0.2853658
-0.49377078 -0.7564801 -0.59339094 -0.42400718 -0.4199263 -0.92772895 -0.39696968 -0.81683284

lstm.bias_hh_l0_reverse f4 [300]
00000000: 3236 d6bf 307a cbbe 899b a4be cdfa 4abf
00000010: 786c 82bd fb9a 2cbf c8c6 b4bf 7ea7 cabe
00000020: 5326 04bf d847 d9be b9df 53bf b3bb 18bf
00000030: 1284 4cbf eaa8 44bf e964 acbf 11b1 53bf
00000040: f984 11bf af21 24bf 1636 c4bf 86ae 09bf
00000050: 8d00 57bf 30c0 45bf 5ab0 d9be 7c49 41be
00000060: be58 0dbf ce0b 64bf dd14 4dbf 9dcd 7fbf
00000070: cf75 61bd 4f36 87bf 82b1 2bbf 2120 21bf
00000080: 47fc 21bf e0d5 02bf a14c 19bf 3fae 7ebe
00000090: 8c94 cb3d 9742 05bf 01cd 73bf 95e2 1fbf
000000a0: 6285 69bf 8592 16bf cc70 26bf 6193 d4be
000000b0: fe89 00bf 48cf a2bf 731d 1ebf 2c7c 81bf
000000c0: 5d19 69bf 56f1 8cbe b344 29bf 5a9d 4fbf
000000d0: 4d8b 71be d471 9fbf 4991 94bf 5de2 85be
000000e0: bd35 45bf c46e d4be bd67 0dbf 4db5 60be
000000f0: 74eb 54bf d0d5 a3bf fa36 13bf 05c9 66bf
00000100: 1327 16bf 5f6b 82be 1fab 4ebf 7906 c9be
00000110: c02c 8dbf 4321 88be 7fad aebf c1ee 80bf
00000120: c343 88bf b609 82bf 2b86 44bf 2d75 b93f
00000130: a784 603d 9a13 4cbd 5646 753f 3fa8 20bf
00000140: 3153 f5bc cb0f 5e3f 0749 3fbe 7fe0 313f
00000150: e559 21be 5070 003f 3ae0 663e fda4 b6be
00000160: fa2d 313e 587f 573d f73d c93e 4261 3cbf
00000170: 8c86 e2bd 212b fd3e c75e 613e e503 523f
00000180: 6336 8b3e 5edb 8a3d bc5a c1be ab03 b63e
00000190: 6c1f a53e 1159 353f 4465 db3e 59f7 683f
000001a0: 0e1c 163e 089e 143f 05e2 463d 4579 e43e
000001b0: b965 163f 4a8b 5cbc e0a1 aabe 9517 e1be
000001c0: a30e e3bc d50f 1a3f 5406 cb3e 6bfd f7be
000001d0: a571 353d 7fc5 cbbc fe48 9a3e f7c2 893e
000001e0: 447b 503f d457 063f d4db 75be 3ec7 5c3f
000001f0: 345b 87bd cece 66be 452e 773e 16b8 45be
00000200: 1be9 9a3f d7a6 e73e d72e 213f 988e 493f
00000210: 1b7c b5be ef1d 663e 6d0f 623f 8969 683f
00000220: 14f5 473f e52d 0dbf f716 1c3f d155 423c
00000230: b99a 2cbf ed4b 163f 9f6a 8dbe cf0c 5c3f
00000240: 51c2 66bf 246e 913f cfcc a53e c2e1 20be
00000250: 0d57 aa3f 2614 65be 9e1a d73d 17ae debe
00000260: f81c d6bd 084c 38bc b9c7 693e ebff febd
00000270: 1e16 b73c ecc8 d53d 9beb a4be 0cdb 3d3f
00000280: 6e87 8e3d b086 81bd 39c6 aa3d 310b cfbd
00000290: 126c 6abe 158d 6cbd c92a 04bf a7d5 8f3e
000002a0: 67e7 b53e 1e9b 33be 86ab da3d 202b 843e
000002b0: 389e 553d 40ef ea3e aa7d b73e c93e 4ebe
000002c0: 06b3 333e 69be ac3c 03cd b43e 0250 c3bc
000002d0: c55e 6abe 8b19 bd3d 8262 06bd e344 b2bd
000002e0: 600a e83d a3c1 5c3e f2a4 25bf 1f80 4cbd
000002f0: 5219 bfbc 1341 393d 7fdf b2bd af25 dd3c
00000300: b938 56be d906 c5be 524b 27bd 5f3c 2dbe
00000310: a87a de3c 4f9a c1bd f9e4 fcbc 1b42 db3e
00000320: bcab 7abe f63d 953e 82f6 e6be 9d63 09bd
00000330: d470 9cbe 66ee ad3e 3d54 143e cc98 d1bd
00000340: cef2 1c3e 7aa5 f9bd 6841 81bd afdd 213d
00000350: 23fa 88bf 964a a8be 3d23 e73c 802f 20bf
00000360: 8b3e 363e 3604 f23e 7a02 4bbd 1a44 24bf
00000370: 0ee0 043d c966 14be 1cf8 613e b7c3 eb3d
00000380: efa7 6ebe 40eb 273f d061 ecbe a259 4fbf
00000390: 6e27 2abf d9f3 14be 798f e1be 1cb9 aabc
000003a0: fbb5 04bf a59f 14bf d6c8 62be 93ef 21bf
000003b0: 66b2 12bf 9edb 3ebf 5608 32bf 7b77 03bf
000003c0: 4891 f4be 2a63 5ebe 084e 19bf de84 a33c
000003d0: de44 18bf cd68 27be 06fb f6be 0d11 a0be
000003e0: 4011 c8be 94d9 4abf a6ed 06bf 722a e5be
000003f0: e8b0 f4be e0ee 47bf 3189 9abe de36 49bf
-1.6735289 -0.3974166 -0.32149914 -0.7928894 -0.06368345 -0.6742398 -1.4123163 -0.3958091
-0.5162098 -0.42437625 -0.8276325 -0.59661406 -0.79889023 -0.7682024 -1.3468295 -0.82692057
-0.56843525 -0.641139 -1.5329006 -0.53781927 -0.83985215 -0.7724638 -0.42517358 -0.18875688
-0.55213535 -0.8908051 -0.8010996 -0.99923116 -0.05504399 -1.0563449 -0.6706773 -0.6293965
-0.6327557 -0.511076 -0.5988255 -0.24871157 0.099404424 -0.52054733 -0.95234686 -0.6245511
-0.9121915 -0.5881732 -0.65015864 -0.4151869 -0.5021056 -1.2719507 -0.61763686 -1.0116019
-0.91054326 -0.27527875 -0.6612045 -0.81099474 -0.23588295 -1.2456613 -1.1606838 -0.26149264
-0.77035123 -0.41490757 -0.5523642 -0.21944161 -0.8317177 -1.2799625 -0.5750576 -0.9015048
-0.5865337 -0.25472543 -0.8072986 -0.3926275 -1.1029282 -0.26587877 -1.3646697 -1.0072862
-1.0645679 -1.0159214 -0.76767224 1.4488884 0.054814007 -0.04982338 0.9581045 -0.62756723
-0.029946895 0.8674285 -0.18680201 0.6948318 -0.15756948 0.50171375 0.22546473 -0.3567275
0.17302695 0.05261168 0.39305088 -0.73585904 -0.11060819 0.49446967 0.22008811 0.8203719
0.2718993 0.06780122 -0.37764537 0.35549673 0.32250535 0.7083903 0.42850697 0.9100242
0.1465914 0.58053637 0.048555393 0.4462377 0.58748966 -0.0134609435 -0.33326626 -0.43963304
-0.02771694 0.6018041 0.39653265 -0.4843553 0.044297833 -0.024874447 0.30133814 0.2690656
0.8143809 0.52477765 -0.24009639 0.8624152 -0.066091925 -0.22539827 0.24138744 -0.19308504
1.2102388 0.45244476 0.62962097 0.78733206 -0.35446247 0.22472356 0.8830479 0.90786034
0.78108335 -0.55148154 0.6097254 0.011861281 -0.6742359 0.58709604 -0.27620408 0.85957044
-0.90140253 1.1361737 0.3238282 -0.1571112 1.3307816 -0.22370967 0.10503124 -0.43492195
-0.10454744 -0.011248596 0.22830094 -0.12451156 0.022349413 0.104387134 -0.32211003 0.74162364
0.06959425 -0.06324518 0.08338589 -0.101095565 -0.22892788 -0.057751734 -0.51627785 0.2809269
0.35528108 -0.17539641 0.10677247 0.25814152 0.052152842 0.45885658 0.35838062 -0.20141138
0.17548761 0.021086888 0.35312662 -0.023841862 -0.22887714 0.092333876 -0.032808788 -0.08704545
0.11330104 0.21558242 -0.6470481 -0.049926873 -0.023327503 0.045228075 -0.08734035 0.026995508
-0.20920075 -0.38481787 -0.040843315 -0.16917561 0.027158096 -0.0945326 -0.030870901 0.42823872
-0.24479574 0.29148835 -0.45109946 -0.033542264 -0.3055483 0.33970946 0.1448526 -0.10234222
0.15326998 -0.12189765 -0.063113034 0.039518055 -1.0701336 -0.32869405 0.028215045 -0.6257248
0.17797296 0.47268838 -0.04956291 -0.64166415 0.032440238 -0.14492334 0.22067302 0.11511939
-0.23306249 0.6559334 -0.46168375 -0.80996144 -0.66466415 -0.14546145 -0.44054773 -0.02084022
-0.5184018 -0.580561 -0.22146925 -0.63256186 -0.57303464 -0.7455386 -0.6954397 -0.5135419
-0.4776709 -0.21717516 -0.5988469 0.019960817 -0.59480083 -0.16348572 -0.4823839 -0.3126301
-0.3907566 -0.7923825 -0.5270637 -0.44758946 -0.4779122 -0.7809887 -0.30182794 -0.78599346
