sparrow/data/networks/re/re_network_v2.pt (torch, 98787 bytes, 9 tensors)

lstm.weight_ih_l0 f4 [180, 20]
0	0x3dd95772	0.10612382
1	0x3e2cb63b	0.1686639
2	0x3d36c5ae	0.044622116
3	0x3e3c1271	0.1836641
4	0x3ddd378a	0.10801609
5	0x3dee0aa5	0.11623124
6	0x3e1f3589	0.15547766
7	0x3dd71166	0.10501365
8	0x3d8e66a9	0.069531746
9	0xbc3889e1	-0.011263342
10	0x3e12de25	0.14342554
11	0xbbd6496b	-0.006539514
12	0xbda538ec	-0.080674976
13	0x3df00a0a	0.11720665
14	0x3e0bb02e	0.13641426
15	0x3d3d64b1	0.046238605
16	0xbce6a60b	-0.028155347
17	0x3dd2dfe6	0.102966115
18	0xbdd8ae4a	-0.10580118
19	0xbb11a48d	-0.0022223324
20	0x3cfa4191	0.030548843
21	0xbdb79b55	-0.08965174
22	0x3d0246a0	0.031805634
23	0x3d97c0ea	0.07409842
24	0x3d9f2b3c	0.07771918
25	0x3d1a4a76	0.037668668
26	0xbd6c6ef2	-0.057722993
27	0x3bf67e48	0.007522378
28	0xbdb06656	-0.08613269
29	0x3e105316	0.14094195
30	0x3e1a17ed	0.1504819
31	0x3e363f51	0.17797591
32	0x3e109839	0.14120568
33	0x3e20ceb7	0.15703855
34	0x3e1c0f5c	0.15240234
35	0xbd72af49	-0.059249196
36	0x3d8c7c5f	0.068596594
37	0xbdc8efeb	-0.09811386
38	0x3dcfac3d	0.10140274
39	0xbe051d55	-0.1299947
40	0x3d8ae892	0.067826405
41	0xbd927c6f	-0.0715264
42	0x3d1677d2	0.036735363
43	0xbdc92e59	-0.09823293
44	0x3e19baac	0.15012616
45	0xbdd33f3d	-0.10314796
46	0x3e28e115	0.16492112
47	0x3e0d90ef	0.13824819
48	0x3df492fe	0.11942099
49	0xbc9f0dd1	-0.019415768
50	0x3e097142	0.1342211
51	0xbddecedc	-0.10879299
52	0x3d84d65d	0.06486199
53	0xbdbf7aff	-0.093496315
54	0xbcb26a45	-0.021779189
55	0x3c8d1017	0.017219586
56	0xbdff3bd0	-0.1246258
57	0xbd33ec8f	-0.04392677
58	0x3e24fdf6	0.16112503
59	0x3c2b777c	0.010465499
60	0x3e13dcf7	0.1443976
61	0x3d06900d	0.03285222
62	0x3caf3c24	0.021390982
63	0x3e3698c9	0.1783172
64	0x3b95cbbc	0.004571406
65	0xbb8e39dd	-0.004340394
66	0xbd886cf8	-0.06661409
67	0xbbebe455	-0.00719885
68	0xbd3ca586	-0.046056293
69	0xbd0eb76f	-0.034842905
70	0x3de58c00	0.112083435
71	0xbd8dedc9	-0.069301195
72	0x3d4d5aaa	0.050135292
73	0x3e5766ca	0.21035305
74	0xbc06d09c	-0.008228447
75	0x3dc2162d	0.09476886
76	0x3e353cea	0.17699018
77	0x3dc3f1dc	0.095676154
78	0xbe03a36c	-0.12855309
79	0x3e25076d	0.16116114
80	0x3e64dc3a	0.22349635
81	0xbd35bc89	-0.044369254
82	0xbe8af465	-0.27139583
83	0xbda683bf	-0.08130597
84	0x3d8d0179	0.068850465
85	0xbbef5698	-0.007304024
86	0x3e10df3a	0.14147654
87	0x3de453dd	0.11148808
88	0x3e71798b	0.23581521
89	0x3e387f40	0.18017292
90	0x3cfcf2d8	0.030877516
91	0xbdad86ac	-0.08472952
92	0xbdc37325	-0.095434465
93	0x3c5dda45	0.013540809
94	0x3e58b957	0.21164452
95	0x3d84d47f	0.06485843
96	0xbdb86606	-0.090038344
97	0x3d2014cf	0.039082345
98	0xbdac7f12	-0.08422674
99	0xbde83f81	-0.113402374
100	0x3da0333d	0.07822273
101	0xbdaf3c40	-0.08556414
102	0x3e3bd3b8	0.18342483
103	0x3d37c19d	0.04486238
104	0xba4b89d1	-0.00077643717
105	0x3c15555a	0.009114588
106	0x3e05387c	0.13009828
107	0xbbf85433	-0.0075783967
108	0x3c68dcf7	0.014212838
109	0xbd92097a	-0.07130714
110	0xbd944f97	-0.07241743
111	0x3e40bd9c	0.1882233
112	0xbd4a0be4	-0.049327746
113	0xbc9fafa5	-0.019492934
114	0x3d8445b0	0.06458604
115	0x3b8aa857	0.0042314935
116	0x3d8cddcf	0.06878244
117	0x3c5e2f3d	0.013561067
118	0x3d0e6f0c	0.03477387
119	0xbd2dcf81	-0.04243422
120	0x3d8cb71e	0.06870864
121	0x3d44f9a5	0.048089642
122	0x3e3582c3	0.17725663
123	0x3e23c564	0.15993267
124	0x3e0ced6f	0.13762449
125	0xbc9c91dd	-0.019112522
126	0x3df40824	0.11915615
127	0x3d4b606d	0.049652506
128	0x3e03ed8a	0.12883583
129	0x3c831644	0.016001828
130	0x3e1b5dd7	0.15172516
131	0x3d43b61a	0.047781087
132	0x3e43f3a2	0.19135907
133	0xbcd01308	-0.0253997
134	0x3e3da38e	0.18519422
135	0x3d1f500f	0.03889471
136	0x3c9b07d3	0.01892463
137	0xbd23d3e8	-0.03999701
138	0xbdec9d94	-0.11553493
139	0x3dbaa15d	0.09112809
140	0xbde20965	-0.11036948
141	0xbcea0c84	-0.028570421
142	0xbd38be94	-0.045103624
143	0xbdd9d2d3	-0.10635915
144	0xbd4f673c	-0.05063556
145	0x3c8fd9cd	0.01755991
146	0x3cc0f829	0.023555832
147	0x3ce17067	0.027519418
148	0x3df5b5b0	0.11997545
149	0xbdd47093	-0.10373034
150	0xbdc303b3	-0.0952219
151	0x3c5670c8	0.013088413
152	0x3dca06ad	0.098645546
153	0x3d93c13a	0.072145894
154	0x3d718b21	0.058970574
155	0x3e0cad53	0.13737993
156	0xbd3f2544	-0.0466664
157	0xbd3db013	-0.046310496
158	0x3daf09aa	0.08546765
159	0xbc63b43d	-0.013897953
160	0xbbcb3a23	-0.006201999
161	0xbd0530fa	-0.03251741
162	0x3e32163f	0.17391299
163	0x3d9e2df7	0.07723611
164	0xbdab24b7	-0.08356612
165	0x3d92e967	0.07173424
166	0x3d7bed1d	0.061505426
167	0xbd9dfadf	-0.077138655
168	0xbc9bd30f	-0.019021539
169	0x3de9493e	0.11390923
170	0x3d92ab7e	0.07161616
171	0xbcd495eb	-0.025950393
172	0x3d6a59d1	0.05721456
173	0xbc2d5a80	-0.010580659
174	0xbd2d92a2	-0.042376168
175	0x3d9b724c	0.0759016
176	0x3e278fa8	0.16363394
177	0xbc9c1ab3	-0.0190557
178	0x3beae0d3	0.0071679144
179	0x3def4d30	0.11684644
180	0x3c2017ef	0.009771331
181	0x3ce38026	0.027771067
182	0xbd1188c6	-0.035530828
183	0x3d4bc954	0.04975255
184	0x3b538be2	0.0032279422
185	0x3e1a6216	0.1507648
186	0x3d1dde22	0.03854192
187	0xbd823f13	-0.06359687
188	0x3decb23f	0.11557435
189	0x3db99c49	0.09063012
190	0x3da8ef3a	0.08248754
191	0xbd8842fe	-0.06653403
192	0x3c78cd3c	0.01518565
193	0x3e042dcf	0.129081
194	0x3e29f3ac	0.1659686
195	0x3e5d4b21	0.2161069
196	0x3dbbd183	0.091708206
197	0xbda89bce	-0.082328424
198	0xbd8ef3f8	-0.06980127
199	0x3e246593	0.16054372
200	0x3e182f03	0.14861684
201	0xbc565bf9	-0.013083451
202	0x3d75942d	0.059955765
203	0xbd98ffe7	-0.074706845
204	0xbdfacaee	-0.12245737
205	0xbdccf092	-0.10006823
206	0xbdea0e65	-0.11428527
207	0xbe0eaba9	-0.1393267
208	0xbd29cf4d	-0.041457463
209	0xbd21e5b0	-0.039525688
210	0x3e0dfdd5	0.1386636
211	0x3e2a7704	0.16646963
212	0x3d036879	0.032082055
213	0xbd977ec3	-0.07397225
214	0x3ca61ed5	0.020278374
215	0x3c58304d	0.01319511
216	0xbba377ef	-0.0049886624
217	0xbdc16a2a	-0.09444077
218	0xbd367d9d	-0.044553388
219	0x3e19003a	0.14941493
220	0xbd00e036	-0.031463824
221	0x3de15a8a	0.11003597
222	0x3d6a9eda	0.0572804
223	0x3d1a1d23	0.037625443
224	0x3e328bc9	0.17436136
225	0x3e4ddc96	0.20103678
226	0x3dcb39e1	0.09923149
227	0x3e18ddcf	0.14928363
228	0xbd393530	-0.04521674
229	0x3d6561a5	0.056001324
230	0x3d7560a9	0.059906635
231	0x3e2b465b	0.16726057
232	0x3dacb2f7	0.08432572
233	0x3c172571	0.009225235
234	0xbd9dd7f4	-0.077072054
235	0x3d8d81fe	0.0690956
236	0x3e4462be	0.19178292
237	0x3bead769	0.007166792
238	0x3e05ac8b	0.13054101
239	0xbd48d4fc	-0.049031243
240	0x3e531f25	0.2061735
241	0xbd8ebe75	-0.069699205
242	0x3e2a2a36	0.16617665
243	0xb9018a8c	-0.00012354011
244	0x3d744538	0.059636325
245	0xbb0a123b	-0.0021067995
246	0xbdb87669	-0.0900696
247	0xbdc45d34	-0.095880896
248	0x3dbd9017	0.092559986
249	0x3e635198	0.22199094
250	0x3da65dce	0.081233606
251	0x3e2824c5	0.16420276
252	0xbda9930e	-0.082800016
253	0x3e1e5b27	0.1546446
254	0xbdbf3ee5	-0.09338168
255	0x3e64037b	0.22266953

lstm.weight_hh_l0 f4 [180, 45]
0	0xbd4284f8	-0.04749009
1	0x3d78c0c5	0.060730714
2	0x3d781ad4	0.06057246
3	0x3d08ffb4	0.033446983
4	0x3d6023e1	0.054721717
5	0x3e074d31	0.1321304
6	0x3cd03431	0.025415512
7	0xbcba8719	-0.022769498
8	0x3b82402f	0.0039749364
9	0xbdf40d42	-0.11916591
10	0x3d3ec230	0.04657191
11	0x3c9a04c5	0.018801102
12	0xbdc60d75	-0.096705355
13	0x3d98c1d8	0.07458848
14	0xbd17da20	-0.037073255
15	0x3da01282	0.0781603
16	0xbcbb3bb4	-0.022855617
17	0x3e4afad0	0.1982224
18	0xbd301b6a	-0.042994894
19	0x3e59e991	0.21280505
20	0x3e1d2cac	0.15349072
21	0xbd2b770b	-0.041861575
22	0xbdfe0627	-0.12403517
23	0x3d187b61	0.03722704
24	0xbdd58c9d	-0.104272105
25	0x3a817660	0.0009877197
26	0xbd2e20f3	-0.04251189
27	0xbdbf2046	-0.093323275
28	0xbe12da3b	-0.14341061
29	0x3d7eb2b2	0.062182136
30	0xbcab6313	-0.020921266
31	0xbe30ea7f	-0.17276953
32	0xbd293eb7	-0.041319575
33	0xbd1d5746	-0.03841331
34	0xbd3a9bc4	-0.045558706
35	0x3dfa79b8	0.12230247
36	0x3cee4e33	0.029090023
37	0xbd7b004d	-0.061279584
38	0xbd2def4d	-0.042464543
39	0xbe12c9c3	-0.14334778
40	0x3da04ca4	0.07827118
41	0xbd683b38	-0.0566971
42	0xbd9731bf	-0.07382535
43	0x3d1a60a6	0.037689827
44	0xbe20998f	-0.15683578
45	0xbd7d939a	-0.061908342
46	0xbd552fe3	-0.05204762
47	0x3e39f6a8	0.18160498
48	0x3def386f	0.11680686
49	0x3d850d09	0.06496627
50	0x3cde1b17	0.027112527
51	0x3d2581aa	0.04040686
52	0xbdb35fd4	-0.08758512
53	0xbd9e3fec	-0.07727036
54	0x3cd13bdb	0.025541237
55	0x3ce33e3a	0.027739633
56	0x3e487630	0.19576335
57	0x3d628b1c	0.055308446
58	0x3da857c8	0.08219868
59	0xbd78b66b	-0.060720842
60	0x3c771a37	0.015081934
61	0xbd2d6fdd	-0.04234301
62	0x3e66ce49	0.22539629
63	0xbdc820c8	-0.097718775
64	0x3e2f526d	0.17121287
65	0x3e4b6235	0.19861682
66	0xbd7fd04b	-0.062454503
67	0xbd37efeb	-0.044906538
68	0x3e251866	0.16122589
69	0xbd8ac5a4	-0.06775978
70	0xbe0720ac	-0.13196057
71	0x3d62d12e	0.05537527
72	0x3df02f06	0.11727719
73	0xbe1f54ed	-0.1555974
74	0xbd34cfb7	-0.044143405
75	0xbe379486	-0.17927751
76	0xbd83ab00	-0.064291
77	0xbe65354f	-0.22383617
78	0xbbaa5f4d	-0.005199349
79	0x3e472ba7	0.19450246
80	0x3e0c7392	0.13715962
81	0xbd700e33	-0.05860729
82	0xbdf3cf2a	-0.11904748
83	0x3c260c4e	0.01013477
84	0x3c889e12	0.016676936
85	0xbe32d503	-0.1746407
86	0xbd342875	-0.043983895
87	0x3d8264ac	0.06366858
88	0xbd3366c4	-0.043799177
89	0xbe06233d	-0.1309938
90	0x3e310e47	0.17290603
91	0x3d8553ff	0.065101616
92	0x3dcf73de	0.10129522
93	0x3e233f4f	0.15942119
94	0xbc90e120	-0.017685473
95	0x3d953958	0.07286328
96	0x3d1b357e	0.03789281
97	0xbdb6f887	-0.089341216
98	0xbdf13bf6	-0.11779015
99	0x3ccd1555	0.025034586
100	0xbbad5b6b	-0.005290439
101	0xbaa6ec94	-0.0012735301
102	0xbda7fc25	-0.0820239
103	0x3e4a02ce	0.19727632
104	0xba8e0bfc	-0.0010837312
105	0xbe502f9e	-0.20330665
106	0xbd083b84	-0.033259884
107	0x3dbb89a2	0.09157111
108	0xbccf7639	-0.025324928
109	0x3e43e2db	0.19129507
110	0x3dd0ba08	0.10191733
111	0xbcb76fae	-0.02239212
112	0xbd84edb8	-0.06490654
113	0x3c201848	0.009771414
114	0xbc756fc2	-0.014980258
115	0x3dc4ef74	0.096159846
116	0xbdb210b6	-0.086945936
117	0xbdc97086	-0.09835915
118	0x3d3a897b	0.045541268
119	0xbcb6920e	-0.022286441
120	0xbe4d79f5	-0.20066054
121	0xbe15601a	-0.14587441
122	0xbd119095	-0.035538275
123	0xbdc0a8fe	-0.09407233
124	0x3d8f0b9c	0.06984636
125	0x3dac6336	0.084173605
126	0x391ff1ee	0.00015253547
127	0xbc9c6b71	-0.0190942
128	0xbc9c238c	-0.019059919
129	0xbd93f535	-0.07224504
130	0x39c6ebd6	0.00037941214
131	0xbe526b4e	-0.20548746
132	0xbde66fea	-0.11251815
133	0xbe0ec1ad	-0.13941069
134	0xbdd36a28	-0.10322982
135	0x3e2716b9	0.16317262
136	0x3e40e48c	0.18837184
137	0x3cb048a0	0.021519005
138	0x3df9dcc0	0.12200308
139	0xbdb8b946	-0.09019713
140	0x3e2db4ee	0.1696355
141	0x3c3462b5	0.011009862
142	0x3a75b776	0.0009373346
143	0xbd1c6941	-0.038186315
144	0xbca53aeb	-0.020169696
145	0x3c9849c7	0.018589867
146	0x3e2a48e2	0.16629365
147	0xbe146b0a	-0.14493957
148	0x3dd3b3bf	0.10337018
149	0x3e49885e	0.19680926
150	0xbddfe1aa	-0.10931714
151	0xbd3da975	-0.046304185
152	0xbd8b8f62	-0.068144575
153	0xbe41507d	-0.1887836
154	0xbac120b4	-0.0014734478
155	0x3e29b4ba	0.16572848
156	0xbe3a6a9a	-0.18204728
157	0x3dada200	0.08478165
158	0x3dcc3c5e	0.099724516
159	0x3d8c077d	0.06837366
160	0x3d3defd3	0.046371292
161	0x3e223318	0.15839803
162	0x3dfab550	0.12241614
163	0x3d4e861c	0.050420865
164	0xbe1b3212	-0.15155819
165	0xbdd15752	-0.10221733
166	0xbe3d7f80	-0.18505669
167	0x3d8da004	0.06915286
168	0xbdc80cb2	-0.097680464
169	0x3de88897	0.113541774
170	0x3cc76ceb	0.024343928
171	0x3e0e33e0	0.13886976
172	0xbdd0dfb6	-0.101989195
173	0xbdb4cd59	-0.088282295
174	0xbe0439e9	-0.12912716
175	0xbe15c8f8	-0.14627445
176	0xbe324fcb	-0.17413251
177	0x3dc27634	0.09495202
178	0xbda2c97d	-0.07948587
179	0x3d4a8a74	0.049448445
180	0x3c17eda6	0.009272968
181	0x3c0209e7	0.007936931
182	0xbbb332b7	-0.005468692
183	0x3e49a118	0.19690359
184	0x3ce5273b	0.027972808
185	0xbd530a05	-0.051523227
186	0xbe5ebb21	-0.21751072
187	0xbdd44a00	-0.10365677
188	0x3cc45693	0.023967063
189	0x3b9734d2	0.004614451
190	0x3c949896	0.018139165
191	0x3cc776cd	0.02434864
192	0xbd389b6a	-0.04507009
193	0x3d3832d5	0.044970352
194	0x3daf6dac	0.0856584
195	0x3d1416b3	0.03615446
196	0x3da7197c	0.08159158
197	0x3e1abc0a	0.15110794
198	0xbe38880e	-0.1802065
199	0xbd164a08	-0.036691695
200	0xbcfc7c34	-0.030820943
201	0xbd836832	-0.06416358
202	0xbe33ef9a	-0.1757187
203	0x3e0d9879	0.13827695
204	0x3d33f571	0.043935243
205	0x3def342f	0.11679875
206	0x3d19f8ea	0.0375909
207	0xbc2a57fa	-0.010396952
208	0xbdc5f16c	-0.09665188
209	0xbd64bb87	-0.055842903
210	0xbe513473	-0.20430164
211	0xbbf67cb5	-0.0075221905
212	0x3b89808f	0.0041962336
213	0x3cdf825d	0.027283842
214	0x3e15cc50	0.1462872
215	0x3d9ba89e	0.076005206
216	0x3e257e6f	0.16161512
217	0xbe44bc9c	-0.19212574
218	0xbe5bb18e	-0.2145445
219	0xbdf20833	-0.1181797
220	0xbe2e7e98	-0.17040479
221	0x3d69fa8a	0.0571237
222	0xbc6dda8a	-0.014517436
223	0xbe167292	-0.14692143
224	0xbe0816d7	-0.13289963
225	0xbd8ecc6e	-0.069725856
226	0x3d0edf59	0.03488097
227	0x3db724ae	0.08942543
228	0x3cf56590	0.029955655
229	0x3d80cc69	0.06288988
230	0x3e36a6f1	0.1783712
231	0xbe22a4df	-0.15883206
232	0x3c0b007a	0.008484
233	0xbd1692df	-0.03676116
234	0xbdd90d1c	-0.105982035
235	0xbcb02f78	-0.02150701
236	0xbd1ebfa6	-0.03875699
237	0xbdef52c1	-0.11685706
238	0x3d8bf42b	0.06833681
239	0x3e456240	0.1927576
240	0xbdd058be	-0.10173176
241	0x3cc50607	0.024050726
242	0x3de908a7	0.113786034
243	0xbe4784d3	-0.19484262
244	0x3e1714f0	0.14754081
245	0x3e18b242	0.1491175
246	0x3d1c3339	0.038134787
247	0xbda8fe0c	-0.082515806
248	0x3d4dc5ee	0.05023759
249	0x3c5cb568	0.013470985
250	0x3cdc3bf7	0.026884062
251	0x3de48f2f	0.111601226
252	0x3d1af7aa	0.037833847
253	0x3c2265d9	0.009911978
254	0x3ca98c46	0.02069677
255	0xbe177aed	-0.14792986

lstm.bias_ih_l0 f4 [180]
0	0x3c7f2f49	0.0155752385
1	0x3e212112	0.15735272
2	0x3e3d17f5	0.1846617
3	0xbd8f4c37	-0.06996959
4	0x3e572ba7	0.21012746
5	0xbdbbe9a2	-0.09175421
6	0x3d129622	0.03578771
7	0x3d3238b5	0.04351111
8	0x3e2da65b	0.16957991
9	0xbbe8a278	-0.007099446
10	0x3ce26bc8	0.027639285
11	0xbc2af032	-0.010433244
12	0x3df58eca	0.119901255
13	0x3e074c42	0.13212684
14	0xbc8a8b13	-0.016912019
15	0x3e47b100	0.19501114
16	0xbd88b8fd	-0.06675909
17	0xbc1a0020	-0.009399444
18	0x3e1e2191	0.15442492
19	0x3e132749	0.14370455
20	0x3da7bd26	0.08190374
21	0x3ce1b03e	0.02754986
22	0x3cdd4909	0.027012365
23	0x3e329c65	0.17442472
24	0xbd868d82	-0.06569959
25	0xbdc15672	-0.09440316
26	0x3e35dc0e	0.17759725
27	0x3c337af6	0.010954609
28	0x3e29535d	0.16535707
29	0x3bbd3b3e	0.0057748845
30	0x3e18e6a7	0.14931737
31	0x3d81f9de	0.063464865
32	0xbd9a30ca	-0.07528837
33	0x3e2bb5af	0.16768526
34	0xbc87c24e	-0.016572144
35	0x3ce45675	0.027873257
36	0x3d5cb072	0.05387921
37	0x3bdb3b90	0.00669045
38	0x3e4fb640	0.20284367
39	0x3d1c61f5	0.038179357
40	0x3dc2cbed	0.09511552
41	0xbcfe6acf	-0.03105679
42	0x3d97059d	0.073741175
43	0x3d536734	0.051612094
44	0x3de73944	0.112902194
45	0x3de87b4a	0.113516405
46	0x3c50cbea	0.012743929
47	0x3dd9e438	0.106392324
48	0x3dfed8ab	0.1244367
49	0x3e0dc21c	0.13843578
50	0x3dc86b08	0.097860396
51	0x3dbc7069	0.09201128
52	0x3e1294fd	0.14314647
53	0xbcdd8176	-0.02703927
54	0x3cf9f467	0.030512048
55	0xbc5fb083	-0.0136529235
56	0x3e08673c	0.13320631
57	0xbce74eec	-0.028235875
58	0xbd94606b	-0.07244953
59	0x3d90fcf4	0.07079497
60	0x3e698518	0.22804677
61	0xbd0c1653	-0.034200978
62	0xbd94d935	-0.072679915
63	0x3e1d0096	0.15332255
64	0x3d5a0066	0.053223036
65	0x3d959675	0.07304088
66	0x3d36c97f	0.044625755
67	0x3e15e8c1	0.1463957
68	0x3e24e732	0.16103819
69	0x3e15b8c0	0.14621258
70	0x3e115c4a	0.14195362
71	0x3e031a74	0.1280306
72	0x3d4cd423	0.050006997
73	0x3e04b983	0.12961392
74	0x3e0563dd	0.13026376
75	0xbd0005a6	-0.031255387
76	0x3dbdd006	0.09268193
77	0x3c0e04e1	0.008668155
78	0xbc17f577	-0.009274832
79	0x3e47041b	0.1943516
80	0x3e50ce31	0.20391156
81	0x3d80dca1	0.062920816
82	0x3e4096c7	0.18807517
83	0x3d8e1dff	0.06939315
84	0x3de5f4fd	0.112283684
85	0x3d3f9d02	0.046780594
86	0xbd4f734d	-0.05064707
87	0x3e21ebe6	0.15812644
88	0x3ce70121	0.02819878
89	0x3db30aff	0.08742332
90	0x3d9de2fa	0.07709308
91	0x3e4b07b3	0.19827156
92	0x3da44719	0.08021373
93	0x3e538670	0.20656753
94	0x3ca1905c	0.019722156
95	0x3d5cae21	0.053877
96	0x3ca6c315	0.020356694
97	0xbe1d3b8d	-0.15354748
98	0xbd940b9a	-0.07228775
99	0xbe1f92be	-0.15583321
100	0xbe54977d	-0.20760913
101	0x3e0ac06c	0.13549966
102	0xbe25dd97	-0.16197811
103	0xbc2ca9be	-0.010538517
104	0x3e084e8c	0.13311213
105	0xbcc5df08	-0.024154201
106	0x3e458c50	0.19291806
107	0x3e0a47e4	0.13503987
108	0xbe173ad5	-0.14768536
109	0x3dbd3103	0.09237864
110	0x3dd05fe0	0.10174537
111	0xbe2b7fc9	-0.16747965
112	0xbe43df89	-0.1912824
113	0xbdc1f066	-0.094696805
114	0xbdf94f92	-0.1217338
115	0xbdb5e80d	-0.08882151
116	0x3e378f86	0.17925844
117	0x3e18b46e	0.14912578
118	0xbe36268b	-0.1778814
119	0xbdf69770	-0.12040603
120	0xbe24169c	-0.1602425
121	0xbe0609d3	-0.13089685
122	0xbda72335	-0.08161012
123	0xbe4c8442	-0.19972327
124	0x3e2fa1e6	0.17151603
125	0x3e1cec6c	0.15324563
126	0x3a8aafef	0.0010580997
127	0xbd93360c	-0.07188043
128	0xbe031420	-0.12800646
129	0x3c1e6351	0.009667234
130	0xbdc5ff1e	-0.096678
131	0xbdbd57f7	-0.092452936
132	0xbe2ac106	-0.16675195
133	0xbdd82114	-0.10553184
134	0xbe16c31d	-0.14722867
135	0x3e1e627e	0.1546726
136	0x3e967c8b	0.29391894
137	0x3ea75dea	0.32688838
138	0x3ebd4f76	0.36974686
139	0x3e6f1660	0.23348379
140	0x3e9d9245	0.30775657
141	0x3e906f24	0.28209794
142	0x3ed065ff	0.40702817
143	0x3e7d435c	0.24732727
144	0x3e50f40d	0.20405598
145	0x3ed6127f	0.41810986
146	0x3ef45203	0.4771882
147	0x3e8277d6	0.25482053
148	0x3ebd3d02	0.36960608
149	0x3e40ffaa	0.18847528
150	0x3eb3621d	0.35035792
151	0x3ea47523	0.32120618
152	0x3eb6eb62	0.35726458
153	0x3eb42aef	0.35189006
154	0x3e554b5c	0.20829529
155	0x3e750e1a	0.2393116
156	0x3e32f1bf	0.17475031
157	0x3e55d43b	0.20881741
158	0x3ec077e5	0.37591472
159	0x3e17d352	0.14826706
160	0x3edd7814	0.43255675
161	0x3e8a8c38	0.27060103
162	0x3e885f53	0.26635227
163	0x3eefd7d2	0.46844345
164	0x3e8c66e1	0.2742224
165	0x3ea1ce03	0.31602487
166	0x3ea97322	0.33095652
167	0x3e969bd5	0.29415765
168	0x3e82c368	0.25539708
169	0x3e33a952	0.1754506
170	0x3e6d4b89	0.23173346
171	0x3eeb059e	0.45902723
172	0x3e1c4b73	0.15263157
173	0x3e93af64	0.2884475
174	0x3e990b19	0.2989128
175	0x3efd1e3c	0.4943713
176	0x3e4678b7	0.19381987
177	0x3ea720e9	0.32642296
178	0x3df2eae1	0.11861206
179	0x3ec31563	0.38102254

lstm.bias_hh_l0 f4 [180]
0	0xbd3830f1	-0.04496855
1	0x3e2e2df0	0.17009711
2	0x3e3a3211	0.18183161
3	0x3cd85e3f	0.026412128
4	0xbd72af10	-0.059248984
5	0x3da81a9b	0.082081996
6	0x3cf1a337	0.029496772
7	0x3e35b2de	0.17744014
8	0x3d9c6b02	0.076375976
9	0xbd08a68b	-0.033361953
10	0x3cadad55	0.021200815
11	0x3e13247b	0.14369385
12	0x3d7715cb	0.060323518
13	0x3e06e457	0.13173042
14	0x3e1d4677	0.15358911
15	0x3e259357	0.16169487
16	0x3e2c71dd	0.1684031
17	0x3c1dcc52	0.009631233
18	0x3e32210c	0.17395419
19	0x3c563d84	0.01307619
20	0x3e65aae6	0.22428474
21	0x3e128a27	0.14310513
22	0x3daba714	0.08381477
23	0xbdbb2be7	-0.09139233
24	0xbd073249	-0.03300694
25	0xbde5da3a	-0.11223264
26	0x3db61a62	0.08891751
27	0x3e12a80f	0.14321922
28	0x3d592ab2	0.053019233
29	0x3e59414a	0.21216312
30	0x3d188022	0.037231572
31	0x3c7690cc	0.015049171
32	0xbd54de6b	-0.051969927
33	0x3cc8a748	0.024493828
34	0xbcc439b6	-0.0239533
35	0xbd48b5ad	-0.049001385
36	0x3c7f56d3	0.015584665
37	0x3e1cc37f	0.15308951
38	0xbd125460	-0.035724998
39	0x3da37b4f	0.079825036
40	0xbc188735	-0.00930958
41	0xbd95a396	-0.07306592
42	0xbc6e19b9	-0.0145325
43	0x3dceda14	0.10100189
44	0xbda7051e	-0.08155273
45	0xbd74112f	-0.0595867
46	0x3d712a7a	0.0588784
47	0x3dffbfdc	0.12487766
48	0x3d4cc47a	0.049992062
49	0x3cfb190f	0.030651597
50	0xbc277cbd	-0.010222611
51	0x3cc4c016	0.024017375
52	0xbcc1b4f6	-0.02364586
53	0xba7247fd	-0.00092422945
54	0xbd463870	-0.048393667
55	0x38dbe381	0.0001048511
56	0x3e01bac8	0.12668908
57	0x3e274771	0.16335846
58	0x3d4999a1	0.049218778
59	0x3df00b86	0.11720948
60	0x3e64c370	0.22340178
61	0x3e16bdd4	0.14720851
62	0xbd6b2212	-0.05740554
63	0x3e5df74b	0.21676366
64	0x3d4f7c32	0.05065555
65	0x3e5c59d5	0.21518643
66	0x3e4fb104	0.2028237
67	0x3df28bd0	0.11843073
68	0x3d35cbe4	0.0443839
69	0x3e3b5338	0.18293464
70	0x3d4d542d	0.050129104
71	0x3dee7ef6	0.116453096
72	0x3e4275dd	0.18990274
73	0x3ce8a327	0.02839811
74	0x3e4e4b64	0.20145947
75	0xbdaaf894	-0.08348194
76	0x3dc329fd	0.09529493
77	0xbc58aa61	-0.013224215
78	0x3c7e919e	0.0155376475
79	0x3dcbb8c5	0.09947351
80	0xbb485513	-0.0030568286
81	0x3e2fc206	0.17163858
82	0x3cd94005	0.026519785
83	0x3e70cc74	0.23515493
84	0x3e4a47f7	0.19754015
85	0x3e378389	0.1792127
86	0x38d60d02	0.00010206738
87	0xbab7799d	-0.0013998036
88	0xbd87a527	-0.06623297
89	0xbd37f34e	-0.044909768
90	0x3becc746	0.0072259037
91	0x3df7e14e	0.1210352
92	0x3e59aa46	0.2125636
93	0xbd4374c7	-0.04771879
94	0xbddb24e3	-0.10700395
95	0x3e3534a7	0.17695867
96	0xbe1ba219	-0.15198554
97	0xbce5a79b	-0.028034022
98	0x3d2c353c	0.042042956
99	0xbe48d7fd	-0.19613643
100	0xbc52bc44	-0.012862269
101	0x3c6d73be	0.014492927
102	0xbe5973c2	-0.21235564
103	0x3debc567	0.11512261
104	0xbd0a14a1	-0.03371108
105	0xbdea9880	-0.11454868
106	0x3dd80012	0.105468884
107	0x3e11452b	0.14186542
108	0xbc2d5c92	-0.0105811525
109	0x3e337e12	0.17528561
110	0x3dcc1274	0.09964457
111	0xbdb82403	-0.08991244
112	0xbd5c406f	-0.053772386
113	0x3e4b8146	0.19873533
114	0xbd5b93c3	-0.053607713
115	0xbcbe9f26	-0.023269247
116	0xbdc06cd6	-0.09395759
117	0xbbfe235b	-0.0077556795
118	0xbe153dc6	-0.14574346
119	0xbe19b3d1	-0.15010001
120	0xbd920204	-0.07129291
121	0x3c059179	0.008152359
122	0xbe2d9cdf	-0.16954373
123	0x3d0b0fc7	0.033950593
124	0x3e4a8a77	0.19779383
125	0xbd9c26a9	-0.07624561
126	0x3e405d7d	0.18785663
127	0xbe3b6029	-0.18298401
128	0xbe1da506	-0.15394983
129	0xbddea94b	-0.10872134
130	0xbcfebf82	-0.031097177
131	0xbe0bb984	-0.13644987
132	0x3d7f7649	0.062368665
133	0xbe2e9c79	-0.17051877
134	0xbcf5e488	-0.030016199
135	0x3ebcdb07	0.36885855
136	0x3e91468f	0.28374144
137	0x3ec23435	0.37930456
138	0x3e9a0c28	0.300874
139	0x3ed146d7	0.4087436
140	0x3ee40d24	0.44541276
141	0x3e634b6f	0.22196744
142	0x3e8180e3	0.25293645
143	0x3ef28559	0.4736736
144	0x3ec37894	0.3817793
145	0x3e66f249	0.22553362
146	0x3e79cd35	0.24394687
147	0x3e55146e	0.20808575
148	0x3ee4b42a	0.44668704
149	0x3e6adf7b	0.22936814
150	0x3e815a02	0.25263983
151	0x3eb8fe77	0.3613164
152	0x3e81e50b	0.25370058
153	0x3ea01bcd	0.3127121
154	0x3e85affc	0.26110828
155	0x3ec2c696	0.38042134
156	0x3ea13e27	0.3149273
157	0x3e73e256	0.23816809
158	0x3e441a20	0.19150591
159	0x3ec81f0b	0.39086184
160	0x3ee2ed67	0.4432175
161	0x3ec8189c	0.39081275
162	0x3ea271db	0.3172749
163	0x3e41618e	0.1888487
164	0x3eb1486c	0.34625566
165	0x3e844df9	0.25840738
166	0x3ed9ada5	0.42515293
167	0x3eb5413c	0.35401332
168	0x3e9b333e	0.30312532
169	0x3e3a562a	0.18196931
170	0x3e1b5cfe	0.15172192
171	0x3ed98c36	0.42489785
172	0x3ebce078	0.36890006
173	0x3eac70e9	0.33679894
174	0x3ef38861	0.47564986
175	0x3e6a456c	0.22878045
176	0x3ed4c7f7	0.4155881
177	0x3ea899a8	0.3292973
178	0x3e9eb2cb	0.30995783
179	0x3e2789c0	0.16361141

lstm.weight_ih_l0_reverse f4 [180, 20]
0	0xbf25d353	-0.6477558
1	0xbe8b0bf9	-0.27157572
2	0xbe901ed3	-0.28148517
3	0xbe4d6a95	-0.20060189
4	0xbf9313d2	-1.1490424
5	0xbf9d2fb3	-1.2280182
6	0x3e7cbe63	0.24682002
7	0xbf3de688	-0.7417989
8	0x3e9c05c1	0.3047314
9	0xbf41a90a	-0.7564856
10	0xbe894aa2	-0.26814753
11	0xbfc4cc19	-1.5374786
12	0xbd8926b4	-0.06696835
13	0xbed9f0d3	-0.42566547
14	0x3e4a2f2d	0.19744559
15	0xbf2b6ba0	-0.669611
16	0xbec12a58	-0.37727618
17	0xbee09c5d	-0.43869296
18	0x3e312ae0	0.17301512
19	0xbf455834	-0.7708771
20	0x3fa1f0d2	1.2651618
21	0x3fecb9a8	1.8494158
22	0x3f096631	0.53671557
23	0x406e6b88	3.7253132
24	0x4027ae26	2.6200042
25	0xc0382c09	-2.8776877
26	0xbfe65743	-1.799538
27	0x3f6cd914	0.92518735
28	0xbe3cc305	-0.18433769
29	0xc04e12a0	-3.2198868
30	0x4047fa59	3.124655
31	0x3e49a8e3	0.19693331
32	0x3ee79d58	0.4523723
33	0xbed374e9	-0.41300133
34	0xbfd36657	-1.6515607
35	0x3f6f80d1	0.93555933
36	0xbf85aa3e	-1.0442579
37	0x40400845	3.0005047
38	0x40189e79	2.3846724
39	0x40172523	2.3616416
40	0x3f605994	0.87636685
41	0x3fcf8bcc	1.6214538
42	0x4000d63b	2.0130756
43	0xc00f56cf	-2.2396734
44	0xbf3f6818	-0.7476821
45	0x3e91dcac	0.28488672
46	0x3ee75426	0.45181388
47	0x40d986d0	6.7977066
48	0xbf85f825	-1.0466353
49	0x3fe3adfe	1.7787473
50	0x3efd3b5d	0.49459353
51	0x3f5645f2	0.8370048
52	0xbfdf67b3	-1.7453521
53	0xbefa8ea6	-0.48936957
54	0x3f424776	0.7589029
55	0x3fa85771	1.3151685
56	0x3ee3c2ac	0.4448446
57	0x40bd9748	5.924717
58	0xbf639371	-0.8889685
59	0x3f636d5b	0.8883874
60	0xbf72e348	-0.94878054
61	0x3e00e0c5	0.12585743
62	0xbd1ee96c	-0.038796827
63	0x3dcaefc8	0.09909016
64	0xc0043bc9	-2.066149
65	0xc102736e	-8.153181
66	0xbfda6f80	-1.7065277
67	0x3f2d92f1	0.6780234
68	0x3f885d2e	1.0653436
69	0x3e92ac54	0.286471
70	0xbe57574c	-0.21029395
71	0xc029beab	-2.6522624
72	0x3f95e516	1.1710536
73	0xc08132cf	-4.037452
74	0xbe9f7728	-0.31145597
75	0xc01b9967	-2.431238
76	0xbe0af444	-0.13569742
77	0xbef0a9fd	-0.4700469
78	0xc0d32373	-6.5980773
79	0xc0f7ad0e	-7.739875
80	0xbf3ec678	-0.7452159
81	0xbec2ac43	-0.3802205
82	0x3eb7720b	0.35829195
83	0x3ec21b66	0.37911528
84	0x3f4c4f32	0.7980834
85	0xbeb104ff	-0.34574124
86	0xbebba14c	-0.36646497
87	0xbf316f6d	-0.6931065
88	0xbdd16d68	-0.10225946
89	0xbec3a788	-0.38213754
90	0xbf2a6e29	-0.6657434
91	0xbfb3ea1f	-1.4055823
92	0xbe096d1e	-0.13420531
93	0xbf75f7f4	-0.9608147
94	0xbe89ccc6	-0.26914042
95	0xbf4ee226	-0.80813825
96	0xbef0f376	-0.47060746
97	0xbe590bbf	-0.21195887
98	0x3fe79675	1.8092791
99	0x3f8423b0	1.0323391
100	0xbe931e84	-0.2873422
101	0xbf388e7e	-0.72092426
102	0x3de69f30	0.11260831
103	0x3e1b91df	0.15192364
104	0xbf1e9eaf	-0.6196088
105	0xbf36c62f	-0.71396154
106	0x3eb84000	0.35986328
107	0xbf10c297	-0.5654692
108	0xbf15c13f	-0.58497995
109	0xbf468ba4	-0.77556825
110	0xbeffa626	-0.4993145
111	0xbee39890	-0.44452333
112	0xc035e0b1	-2.841839
113	0xbe8d42b4	-0.27589953
114	0x3e932c4b	0.2874473
115	0xbe8c44b9	-0.2739618
116	0xbf2cc23d	-0.67483884
117	0xbe53e62e	-0.20693275
118	0xbd9e41e0	-0.077274084
119	0x3e773664	0.24141842
120	0x3e8260a1	0.25464347
121	0xbf768827	-0.963015
122	0xbf0e342b	-0.5554835
123	0xbf2d2751	-0.6763812
124	0xbf44add3	-0.76827735
125	0xbfc25ef0	-1.5185223
126	0xbc849960	-0.016186416
127	0x3dbc80ff	0.092042916
128	0x3f5e4a2e	0.8683194
129	0x3f1b46b7	0.6065478
130	0x3efe84ac	0.49710596
131	0x3f0e0d3d	0.5548895
132	0xbe2c077d	-0.16799732
133	0x3f585aad	0.8451336
134	0x3e5a2635	0.21303637
135	0xbf37d6d4	-0.71812177
136	0xbe945404	-0.2897035
137	0xbf2d7cd3	-0.6776859
138	0xbfc9317f	-1.571823
139	0xc003217f	-2.0489194
140	0x3f754f50	0.95824146
141	0xbf909856	-1.1296489
142	0xc04a6f66	-3.1630492
143	0xc0810dec	-4.0329494
144	0xbf856309	-1.0420848
145	0xbf5b9aa0	-0.85782814
146	0x3fec810d	1.8476883
147	0x3f313b33	0.69230956
148	0x404f7120	3.2412796
149	0x3e0a2699	0.13491286
150	0xbe632481	-0.22181894
151	0xbfdd2795	-1.7277704
152	0x3fc61537	1.5475224
153	0xc032fb59	-2.796591
154	0x402b4803	2.6762702
155	0x3ebd1a8e	0.36934322
156	0x3deffd48	0.117182314
157	0x3e9c8a66	0.3057434
158	0xbf46b94a	-0.7762648
159	0xbfa09704	-1.2546086
160	0x3eed9400	0.46401978
161	0x3ed68204	0.4189607
162	0xbf13bcc4	-0.5770991
163	0xbe307637	-0.17232595
164	0x3f777a08	0.9667058
165	0xbf7e2da2	-0.9928838
166	0xbf0db662	-0.5535642
167	0xbef715c0	-0.4825878
168	0xbd28dfd7	-0.041229095
169	0xc00536f6	-2.0814795
170	0x3dc741c4	0.09729341
171	0xbfed3814	-1.8532739
172	0x3ec9a8ec	0.3938669
173	0xbfad8f48	-1.3559351
174	0x3f4eaf42	0.8073617
175	0xbe3c7264	-0.18403012
176	0xbfdc4e96	-1.7211483
177	0xbf089726	-0.53355634
178	0xbedbe757	-0.42949936
179	0xc0a7aff7	-5.24023
180	0xbebac521	-0.36478522
181	0xbf3c9397	-0.73662704
182	0xbf1359f7	-0.5755915
183	0xbeecfef7	-0.46288273
184	0x3e3c7429	0.18403687
185	0xbf88c45f	-1.0684928
186	0x3fd3316e	1.649946
187	0xbd8bc050	-0.0682379
188	0x3f123d49	0.57124764
189	0xbec9e704	-0.39434063
190	0xbf5b198c	-0.85585856
191	0xb9dcac30	-0.0004208996
192	0xbfe4c284	-1.7871861
193	0x3ed4cae0	0.4156103
194	0xbeeb4778	-0.45952964
195	0xbf67405d	-0.90332586
196	0xbefd8b00	-0.4952011
197	0xbf0f1af7	-0.5590052
198	0x3f169bf8	0.5883174
199	0x3de0156c	0.10941586
200	0xbfda69f0	-1.706358
201	0xbf8825ec	-1.0636573
202	0x3f81170f	1.0085162
203	0x40293c36	2.6443
204	0x3fb0b52e	1.3805292
205	0xbf639131	-0.8889342
206	0x3f02c7ff	0.5108642
207	0x3ff1f1df	1.8901938
208	0xbfa83577	-1.3141316
209	0xbf983cf0	-1.1893597
210	0xbe810b20	-0.252038
211	0xbefc614c	-0.49292982
212	0xbc77873b	-0.015107925
213	0x3e190031	0.1494148
214	0xbf6ffadc	-0.93742156
215	0x3ddc7837	0.10765117
216	0xbf7bd6ef	-0.9837484
217	0x3f06b620	0.5262165
218	0x3f2229a7	0.63344806
219	0x3c739d0e	0.014868988
220	0xbf6e0401	-0.9297486
221	0xbfde28ee	-1.7356241
222	0x3f465e05	0.7748721
223	0x3f8a541f	1.0806922
224	0xbfb654af	-1.4244593
225	0xbf6d5acc	-0.9271667
226	0xbe8302aa	-0.2558797
227	0x3f68e38d	0.90972215
228	0x3f3457c2	0.7044641
229	0x3ed2bb95	0.4115874
230	0x3fa8e594	1.3195062
231	0xbfbc5a13	-1.4714988
232	0xbf5b2571	-0.85604006
233	0xbfc8b027	-1.5678757
234	0x3f9c9c04	1.2235112
235	0xbeb223d0	-0.34792948
236	0xbee7580b	-0.4518436
237	0x3e8f2f8f	0.27965972
238	0x3fd5bc9e	1.6698186
239	0xbe356f1f	-0.1771817
240	0xbf4d7f43	-0.8027231
241	0xbf320374	-0.6953652
242	0xbef298ee	-0.473823
243	0xbe9d976b	-0.30779585
244	0x3d7508e7	0.059822943
245	0xc0250a50	-2.5787544
246	0xbea7ecae	-0.3279776
247	0xbf3802c6	-0.7187923
248	0xbf2cb541	-0.6746407
249	0xbf509594	-0.8147824
250	0xbef8b1ea	-0.48573238
251	0xbf1a262e	-0.6021451
252	0x3eceeecb	0.4041656
253	0xbf00a4da	-0.50251544
254	0xbf15c0f9	-0.5849758
255	0xbf7dc471	-0.9912787

lstm.weight_hh_l0_reverse f4 [180, 45]
0	0xbe296dfe	-0.16545865
1	0x3e0fe669	0.14052738
2	0xbeea7595	-0.45792833
3	0xbedfa496	-0.43680257
4	0xbe3ad388	-0.18244755
5	0x3ed5fac5	0.41792884
6	0x3eccadb7	0.39976284
7	0x3da66cc2	0.08126213
8	0x3f035d2a	0.5131403
9	0x3fa33264	1.2749753
10	0x3e98f1eb	0.2987207
11	0xbe192a5f	-0.1495757
12	0xbe3dcb2c	-0.18534535
13	0x3f00c80e	0.5030526
14	0x3e702b19	0.2345394
15	0x3e7fbb89	0.24973883
16	0x3e1cb588	0.15303624
17	0xbe86e618	-0.26347423
18	0xbed5c084	-0.4174844
19	0xbf01e90d	-0.5074623
20	0x3f5e118a	0.8674551
21	0xbe4dd77f	-0.20101736
22	0xbea6f01d	-0.32605067
23	0xbe64c7f5	-0.22341903
24	0x3f2250e2	0.6340467
25	0xbda69bf2	-0.08135213
26	0x3f38d698	0.72202444
27	0x3f2395ba	0.6390034
28	0x3f1a68c2	0.603161
29	0xbf22e980	-0.6363754
30	0x3f4a0f7c	0.7892988
31	0xbf1f5a3d	-0.6224707
32	0xbe6f5ccc	-0.23375243
33	0xbdaef60c	-0.085430235
34	0xbe7aed31	-0.24504544
35	0xbe1bef51	-0.1522801
36	0xbf1cce0d	-0.6125191
37	0xbee1d15c	-0.4410504
38	0xbdc2259e	-0.09479831
39	0x3e96e732	0.29473263
40	0x3dec9c8b	0.11553296
41	0x3c50ee32	0.012752103
42	0xbf75277c	-0.95763373
43	0xbd9f25ab	-0.077708565
44	0x3e5e0505	0.21681602
45	0xbf160673	-0.5860359
46	0xbf9f7ca5	-1.2459913
47	0x3f06d716	0.52671945
48	0x3e4d2058	0.2003187
49	0x3e9f03eb	0.31057677
50	0xbed23aaa	-0.41060382
51	0x3eb2e277	0.34938404
52	0xb9213034	-0.00015372114
53	0x3f03b8b4	0.5145371
54	0xbf0a10bc	-0.53931785
55	0xbf2f9f9c	-0.6860292
56	0x3ddbf413	0.10739913
57	0x3d63a7e9	0.055580053
58	0x3f1f1cc7	0.62153286
59	0xbf01bc45	-0.506779
60	0x3f9273a7	1.1441544
61	0x3dc9d43c	0.098549336
62	0xbf3b3ed9	-0.7314277
63	0x3f735212	0.95047104
64	0x3f0855f7	0.5325617
65	0x3dfd0d2b	0.12356027
66	0xbebacf15	-0.36486116
67	0xbe0ada0b	-0.1355974
68	0x3ed2abde	0.4114675
69	0xbd58ed16	-0.052960478
70	0x3fa2652c	1.2687125
71	0xbb2449c7	-0.0025068389
72	0xbdc5cbb4	-0.09657994
73	0x3ed3ce2a	0.41368228
74	0x3ec50df4	0.38487208
75	0xbee3d287	-0.44496557
76	0x3f0e22da	0.5552193
77	0x3f88a3ea	1.0675023
78	0x3e6619e6	0.22470817
79	0xbc188a8c	-0.009310376
80	0xbf36a1a4	-0.71340394
81	0xbe4614e4	-0.19343907
82	0x3f03f489	0.51545006
83	0x3ed6aa25	0.41926685
84	0xbee890ee	-0.45423073
85	0x3f8ac495	1.0841242
86	0x3e1645fc	0.14675134
87	0xbd291274	-0.041277364
88	0xbd4a5277	-0.04939505
89	0x3cebc597	0.028780742
90	0xbea96e69	-0.3309205
91	0x3eb43393	0.35195598
92	0x3f0ae952	0.5426227
93	0xbf2f4853	-0.68469733
94	0xbe829a0c	-0.25508153
95	0x3ee8cb98	0.4546783
96	0x3d0a7e10	0.03381163
97	0xbf609c03	-0.87738055
98	0xbe2232ff	-0.15839766
99	0xbf682442	-0.90680325
100	0xbe52fba4	-0.20603806
101	0xbe97e685	-0.2966806
102	0xbf610c38	-0.8790927
103	0x3e277b08	0.16355526
104	0x3f4e90f6	0.8068994
105	0x3f146f9a	0.5798279
106	0xbeb293c6	-0.34878367
107	0xbf81d8df	-1.0144309
108	0xbf6a99ba	-0.9164082
109	0xbebab5fd	-0.3646697
110	0x3f8e5940	1.1120987
111	0xbe130a9c	-0.14359516
112	0xbf7ef2c5	-0.99589187
113	0xbf6fb176	-0.9363016
114	0x3df82576	0.1211652
115	0xbde81fa4	-0.1133416
116	0xbf6b54f3	-0.919265
117	0xbe2ba782	-0.16763118
118	0xbecd5b9c	-0.40108955
119	0xbfc6fbfe	-1.5545652
120	0xbf044330	-0.5166502
121	0x3f3609ec	0.7110889
122	0xbed6d1b3	-0.41956863
123	0xbe97ede8	-0.29673696
124	0xbeeb22f2	-0.459251
125	0xbd6e7dd2	-0.05822546
126	0x3f1246ab	0.5713908
127	0xbd4f27cd	-0.050575066
128	0x3f66b676	0.90122163
129	0xbe43d6b1	-0.19124867
130	0x3f89ac48	1.0755701
131	0x3e889e8e	0.26683468
132	0xbff6dbba	-1.9285805
133	0x3da66c06	0.081260726
134	0x3e5c1697	0.21492992
135	0x3cb7fa93	0.02245835
136	0xbd5ce903	-0.053933155
137	0xbed8e186	-0.4235956
138	0x3fd619a7	1.6726578
139	0xbd9452c6	-0.0724235
140	0x3dca7999	0.09886474
141	0x3eb28adf	0.34871575
142	0xbd3f651c	-0.046727285
143	0x3fb7796f	1.4333934
144	0x3fa249e3	1.2678798
145	0xbcb71af6	-0.022351723
146	0xbf9a09d2	-1.2034247
147	0xbf367d6d	-0.71285135
148	0xbe214e46	-0.15752515
149	0x3d58046c	0.052738592
150	0xbdbe067f	-0.09278583
151	0xbe00848c	-0.12550563
152	0xbedf15fa	-0.43571454
153	0xbda09f14	-0.07842842
154	0x3f7fbebb	0.99900407
155	0x3e888588	0.26664376
156	0xbe19d334	-0.15021974
157	0xbed528d5	-0.41632715
158	0x3f0b16a6	0.54331434
159	0x3ec674e4	0.38761055
160	0x3f1bf9ae	0.60927856
161	0x3f085dcb	0.53268117
162	0x3e845124	0.25843155
163	0x3d07c975	0.03315111
164	0xbef6d53f	-0.4820957
165	0xbda2552b	-0.07926401
166	0xbe8d4a65	-0.2759582
167	0xbef99129	-0.4874356
168	0x3f30ae90	0.6901636
169	0xbd2501ce	-0.040284924
170	0x3e33f271	0.17572953
171	0x3f102c97	0.5631804
172	0xbe8b5efb	-0.27220902
173	0xbef6ae02	-0.48179632
174	0xbf2605d1	-0.64852625
175	0x3fa8ba97	1.3181943
176	0xbe550682	-0.20803264
177	0xbdab4cb1	-0.08364237
178	0xbf0243cf	-0.5088472
179	0xbda3058a	-0.07960041
180	0x3ec1a08e	0.37817806
181	0x3c678c82	0.014132621
182	0xbee11a41	-0.43965343
183	0xbde38130	-0.11108625
184	0xbe2f2ac7	-0.17106162
185	0x3ead764c	0.33879316
186	0xbd9383b9	-0.072028585
187	0x3f0444ad	0.5166729
188	0x3eb62747	0.3557684
189	0x3f0d3c01	0.55169684
190	0x3e89208c	0.26782644
191	0xbf807f87	-1.0038918
192	0xbe377f89	-0.17919745
193	0x3e66336a	0.2248055
194	0x3de815ee	0.11332308
195	0xbf0f5257	-0.55985016
196	0xbf11a0df	-0.56886095
197	0x3eb805c1	0.3594189
198	0xbe2e3458	-0.17012155
199	0x3e1349a0	0.14383554
200	0x3e03567a	0.12825957
201	0xbef6d781	-0.4821129
202	0xbf45f829	-0.7733179
203	0x3da0d05a	0.0785224
204	0xbdde0d5a	-0.1084239
205	0x3ea7029f	0.32619187
206	0xbee6f38c	-0.45107687
207	0x3f668bb5	0.90056926
208	0xbf661a2d	-0.8988369
209	0xbed05040	-0.40686226
210	0xbe8b05bb	-0.2715281
211	0x3f57d0ba	0.84302866
212	0xbf04d495	-0.51886874
213	0x3edff910	0.43744707
214	0x3cb960ca	0.02262916
215	0x3ea7c9b9	0.3277109
216	0xbca87bb1	-0.020566793
217	0xbeafc811	-0.34332326
218	0xbe9d3bda	-0.30709726
219	0xbeb19955	-0.34687296
220	0x3f7f128b	0.9963767
221	0x3e2c5987	0.16831027
222	0x3eb1b652	0.34709412
223	0xbe40537b	-0.18781845
224	0x3e9ed3f2	0.31021076
225	0x3f58fc44	0.84759927
226	0xbda9ac30	-0.08284795
227	0xbe2ca870	-0.16861129
228	0x3f0e3381	0.5554734
229	0x3db09f4a	0.08624132
230	0x3f092928	0.53578424
231	0x3f544892	0.82923234
232	0xbf14d0ec	-0.5813129
233	0x3f2edef0	0.68308926
234	0x3ea49394	0.32143843
235	0xbe09ed08	-0.13469326
236	0xbf8b4e47	-1.0883263
237	0xbaf7d722	-0.0018908719
238	0x3eafdfde	0.34350485
239	0xbe3716db	-0.17879812
240	0x3f2a3c8b	0.6649863
241	0x3e6be0bb	0.23034947
242	0x3f29f042	0.6638223
243	0xbeede269	-0.464618
244	0x3f73eae6	0.952803
245	0x3f2c7e4f	0.6738023
246	0xbdccf2e0	-0.10007262
247	0xbf38d2e7	-0.7219681
248	0xbe712255	-0.23548253
249	0x3e75d8a6	0.24008426
250	0x3f0063aa	0.50152075
251	0x3f3b1971	0.73085696
252	0x3f250b36	0.6447023
253	0x3f0aa859	0.5416313
254	0x3e0d0d5a	0.13774624
255	0xbf2e9d3a	-0.6820866

lstm.bias_ih_l0_reverse f4 [180]
0	0xbecd615a	-0.40113336
1	0xbd04e0fc	-0.032441124
2	0x3f424a6f	0.75894827
3	0xbef6f4b8	-0.4823358
4	0xbeac1a2b	-0.33613715
5	0xbd3e8961	-0.046517733
6	0xbe99efca	-0.30065757
7	0xbd2f29c4	-0.04276444
8	0xbf3d11bf	-0.73855203
9	0xbeb9e0a0	-0.36304188
10	0xbc6636cb	-0.01405115
11	0xbee931ff	-0.45545956
12	0xbe898032	-0.26855618
13	0xbe93cf83	-0.28869256
14	0xbf4a4108	-0.7900548
15	0xbec31429	-0.38101318
16	0xbf064260	-0.5244503
17	0xbe250088	-0.16113484
18	0x3d8d7d57	0.06908672
19	0xbf00522a	-0.5012537
20	0x3e6a318d	0.22870465
21	0x3f0485af	0.51766485
22	0x3f8c06a0	1.0939522
23	0xbb70bb8f	-0.0036732887
24	0xbecbeb6c	-0.3982805
25	0x3f24f796	0.64440286
26	0xbe890226	-0.26759452
27	0xbf3b0101	-0.73048407
28	0x3e3812c8	0.17975914
29	0xbf06cb0b	-0.5265357
30	0x3f1908ce	0.5977906
31	0x3d63bd6b	0.055600565
32	0x3f5fed76	0.8747171
33	0x3f70fdfd	0.94137555
34	0xbf329a66	-0.69766843
35	0x3dee7d03	0.11644938
36	0xbe831336	-0.25600594
37	0xbd0a3e2b	-0.033750694
38	0xbd4355ea	-0.047689356
39	0xbf2ccd44	-0.6750071
40	0x3d7a0008	0.061035186
41	0xbe32f869	-0.17477573
42	0xbf55f2ac	-0.8357341
43	0xbf396b67	-0.7242951
44	0x3eb3f591	0.3514829
45	0x3f29e09b	0.66358346
46	0x3ef0d197	0.47034904
47	0x3f1710ba	0.590099
48	0x3e9db2cc	0.30800474
49	0x3eb679cf	0.35639808
50	0x3ea24193	0.31690654
51	0x3f05b447	0.52228206
52	0x3e5c6f98	0.21526945
53	0x3e883ba4	0.26608002
54	0x3ed19224	0.4093181
55	0x3f86d52c	1.0533805
56	0x3e5e3b40	0.2170229
57	0x3f42d239	0.76102024
58	0x3ee5895e	0.44831365
59	0x3f01ee4a	0.50754225
60	0x3f077e9a	0.52927554
61	0x3dc49d0a	0.09600265
62	0x3f065241	0.5246926
63	0x3ef6845c	0.48147857
64	0x3e732537	0.23744665
65	0x3ede0cc4	0.43369114
66	0x3f308573	0.6895363
67	0x3f3299f5	0.6976617
68	0x3e689a3b	0.22715084
69	0x3ecaa199	0.39576414
70	0x3c14e4f3	0.009087789
71	0x3f0b8638	0.54501677
72	0x3e9d83d9	0.30764654
73	0x3edaf45d	0.4276456
74	0x3f0a18c1	0.5394402
75	0x3f3a6db0	0.7282362
76	0x3f5721c9	0.8403593
77	0x3ef8881a	0.48541337
78	0x3f4ce76a	0.8004061
79	0x3ef77229	0.48329285
80	0x3ef0fc71	0.47067598
81	0x3e99a391	0.30007604
82	0x3f788b20	0.9708729
83	0x3e994c6f	0.29941127
84	0x3f1877fb	0.59558076
85	0x3f4588f3	0.7716209
86	0xbdb242e1	-0.087041624
87	0x3f671f0c	0.9028175
88	0x3e704c97	0.23466717
89	0x3f29d121	0.6633473
90	0xbcfcc37e	-0.030854937
91	0x3e87c3db	0.26516613
92	0x3e245d06	0.1605111
93	0xbe91d6d5	-0.28484216
94	0x3eb805b1	0.35941842
95	0x3eb2bd34	0.34909976
96	0xbdbc499f	-0.091937296
97	0x3e37bb30	0.179425
98	0xbed05583	-0.4069024
99	0xbe38ec5b	-0.18058912
100	0x3d714662	0.058905013
101	0x3e2a86b9	0.16652955
102	0xbcd4d126	-0.025978636
103	0xbec3fa65	-0.38276973
104	0xbe0d0188	-0.13770115
105	0x3d9d947b	0.07694336
106	0x3e85c6a1	0.26128104
107	0x3eb20921	0.3477259
108	0xbea1a85c	-0.3157376
109	0x3e520b46	0.20512113
110	0x3f6e2da4	0.9303839
111	0x3e64828c	0.22315425
112	0xbf698e08	-0.9123235
113	0xbebb304c	-0.36560285
114	0xbded39d6	-0.11583297
115	0xbe5cabda	-0.21549931
116	0x3f494f90	0.7863703
117	0x3eb5e823	0.3552867
118	0xbf124576	-0.5713724
119	0x3db1211b	0.086488925
120	0xbf213155	-0.629659
121	0x3d52afc3	0.05143715
122	0xbed7e095	-0.4216353
123	0x3f1b7117	0.60719436
124	0x3c8e96dc	0.01740592
125	0x3ca84fec	0.020545922
126	0xbc822d09	-0.015890615
127	0x3e2d56af	0.16927598
128	0x3eaa7410	0.33291674
129	0xbef8eb3c	-0.4861697
130	0x3db82b52	0.08992638
131	0x3ece6264	0.4030944
132	0x3e2d9973	0.16953067
133	0xbcb8353a	-0.022486318
134	0x3eac2e76	0.33629197
135	0x3ef56220	0.47926426
136	0x3ee8d51e	0.45475096
137	0xb9dbb937	-0.0004190893
138	0x3edf6037	0.43628094
139	0x3e352613	0.17690305
140	0x3e9a59cb	0.30146632
141	0x3e9a7287	0.30165502
142	0x3db855da	0.0900075
143	0xbeb0d2fe	-0.34535974
144	0xbdd1a659	-0.102368064
145	0x3f1b17d8	0.6058326
146	0xbc0bc31b	-0.0085304035
147	0x3ef1ed0e	0.4725117
148	0x3e89ea43	0.2693654
149	0x3d9bcc5d	0.076073386
150	0xbec7ce2f	-0.39024493
151	0x3d90a60d	0.07062922
152	0x3f3e61a0	0.74367714
153	0xbe035ebd	-0.12829109
154	0x3ea03a15	0.31294313
155	0x3eadd6a3	0.33952817
156	0x3e066782	0.13125423
157	0x3e2b6c04	0.16740423
158	0x3f315089	0.6926351
159	0x3d81f94a	0.06346376
160	0x3db0d8bb	0.08635088
161	0x3eb57b86	0.35445803
162	0x3f039ec0	0.5141411
163	0x3e374d44	0.17900568
164	0x3b89a55b	0.00420062
165	0x3f718ba4	0.943537
166	0x3e642337	0.22279058
167	0x3f1ef41a	0.6209122
168	0x3db8061b	0.089855395
169	0xbe99c089	-0.30029705
170	0x3e17fe18	0.14843023
171	0xbeffe953	-0.499827
172	0x3e90293f	0.28156468
173	0x3d317016	0.043319784
174	0x3e876940	0.26447487
175	0xbda44373	-0.080206774
176	0x3f2b70d5	0.66969043
177	0x3df957ee	0.121749744
178	0xbe0be68c	-0.13662165
179	0xbe2b8415	-0.16749604

lstm.bias_hh_l0_reverse f4 [180]
0	0xbf0953fa	-0.53643763
1	0x3e278858	0.16360605
2	0x3f453a52	0.77042115
3	0xbe568a7c	-0.20951265
4	0xbe81c884	-0.25348294
5	0x3da7c1c1	0.081912525
6	0xbebb0d82	-0.36533743
7	0x3e101190	0.140692
8	0xbf1a780f	-0.60339445
9	0xbebccf26	-0.36876792
10	0xbdc6e381	-0.09711362
11	0xbeef0bbe	-0.46688646
12	0xbd9d24bf	-0.076730244
13	0xbeffe612	-0.49980217
14	0xbf65945c	-0.89679503
15	0xbe20fe84	-0.1572209
16	0xbf174301	-0.59086615
17	0xbdcd0817	-0.10011309
18	0xbd5388a2	-0.051643975
19	0xbeff42b4	-0.49855578
20	0x3e392d6b	0.18083732
21	0x3ef4bdef	0.47801158
22	0x3f86d968	1.0535097
23	0x3d1bc91d	0.038033593
24	0xbe5d9baf	-0.2164142
25	0x3f27cad1	0.6554385
26	0xbeb3e117	-0.35132667
27	0xbf464cc9	-0.77460915
28	0x3d440575	0.047856767
29	0xbeef12c5	-0.46694008
30	0x3f1523c7	0.58257717
31	0x3e16fdd0	0.1474526
32	0x3f61fb19	0.8827377
33	0x3f7a29c0	0.97719955
34	0xbf03ea5f	-0.51529497
35	0x3d24172d	0.040061165
36	0xbe535dd9	-0.20641269
37	0xbe6988d9	-0.2280611
38	0xbe92d988	-0.28681588
39	0xbf1fa0d2	-0.6235477
40	0xbcd5c543	-0.026095038
41	0xbe3ce6a5	-0.18447359
42	0xbf35c2dd	-0.7100046
43	0xbf4ed28a	-0.8079001
44	0x3e8420d4	0.25806296
45	0x3f0844f5	0.5323022
46	0x3ee5a5c8	0.44853044
47	0x3ecb33f8	0.39688087
48	0x3eb5ebca	0.35531455
49	0x3f0d9dd2	0.5531894
50	0x3e037b07	0.128399
51	0x3f0554b5	0.5208238
52	0x3e422d83	0.18962674
53	0x3f0a744e	0.54083717
54	0x3f000d0f	0.50019926
55	0x3f85699e	1.0422857
56	0x3d805985	0.062670745
57	0x3f4335a8	0.7625375
58	0x3efe21ff	0.49635312
59	0x3eb91370	0.36147642
60	0x3ee26211	0.44215444
61	0x3e96f2ac	0.2948202
62	0x3ebb55ab	0.36588797
63	0x3ed66f55	0.41881815
64	0x3e796a94	0.24357063
65	0x3ef3592d	0.47528973
66	0x3f1f9dd2	0.6235019
67	0x3f75d08f	0.9602136
68	0x3e962f21	0.29332832
69	0x3ebc9e7a	0.36839658
70	0xbdcebdaf	-0.10094773
71	0x3f387d50	0.7206621
72	0x3ecb64bd	0.39725295
73	0x3ed2adeb	0.41148314
74	0x3ee10763	0.43950948
75	0x3f4a8b36	0.7911867
76	0x3f3a2b03	0.7272188
77	0x3f0317a3	0.5120794
78	0x3f43c382	0.76470196
79	0x3f2bb4a4	0.6707251
80	0x3ef8dcc5	0.48605934
81	0x3ef16335	0.47146
82	0x3f671f27	0.9028191
83	0x3e59273b	0.21206371
84	0x3f463e56	0.7743887
85	0x3f11ee68	0.57004404
86	0xbdefddf3	-0.11712255
87	0x3f4d91d8	0.80300665
88	0x3edd7c5b	0.43258938
89	0x3f368119	0.7129074
90	0x3e587563	0.2113853
91	0x3e1897ea	0.149017
92	0x3e0d7614	0.13814574
93	0xbe3a8529	-0.18214859
94	0x3e5eb7e1	0.21749832
95	0x3e69527c	0.22785372
96	0xbddec6df	-0.108777754
97	0x3ea6e2c8	0.32594895
98	0xbebb0062	-0.3652373
99	0xbe730add	-0.23734613
100	0xbd6324b4	-0.055454925
101	0xbafaf1ac	-0.001914551
102	0xbe4d8c78	-0.20073116
103	0xbeb7d867	-0.3590729
104	0xbe31b392	-0.17353657
105	0xbd195832	-0.037437625
106	0x3cce4a4f	0.025181917
107	0x3edaed2f	0.42759082
108	0xbe2cc523	-0.16872077
109	0x3db6340a	0.088966444
110	0x3f5cfa58	0.86319494
111	0x3d0d95d3	0.03456671
112	0xbf62a521	-0.88533217
113	0xbed4d24c	-0.41566694
114	0xbd7d898c	-0.061898753
115	0xbea5cb04	-0.3238145
116	0x3f270952	0.65248597
117	0x3ef68210	0.48146105
118	0xbf22d5d2	-0.63607514
119	0x3df8d2c3	0.121495746
120	0xbf5e48f0	-0.86830044
121	0x3dc8b563	0.09800222
122	0xbe95e221	-0.29274085
123	0x3f253ed1	0.64548975
124	0x3e6947fa	0.22781363
125	0x3ced7984	0.028988607
126	0x3d56877e	0.05237531
127	0xbd578d70	-0.05262512
128	0x3e6b6d82	0.22990993
129	0xbf0371ae	-0.51345336
130	0x3e9eb9be	0.31001085
131	0x3eb53eac	0.35399377
132	0x3e8267ae	0.25469726
133	0x3ce552a5	0.02799351
134	0x3e88f8ac	0.26752222
135	0x3eb7fdbd	0.35935774
136	0x3e823ff1	0.25439408
137	0x3c4c3b2d	0.0124652805
138	0x3ecb533b	0.39711937
139	0x3e320ff5	0.173889
140	0x3e34b8e3	0.17648654
141	0x3ea09b50	0.31368494
142	0x3e30e677	0.17275415
143	0xbeab4172	-0.33448368
144	0xbd5cfa80	-0.053949833
145	0x3f0cb112	0.5495769
146	0xbe6eae50	-0.23308682
147	0x3f1fe953	0.624654
148	0xbc3abbc0	-0.011397302
149	0x3d10e8ff	0.035378452
150	0xbeccd7bd	-0.40008345
151	0xbe3e6af9	-0.18595494
152	0x3f5428e3	0.8287489
153	0x3d757c02	0.059932716
154	0x3eb3d778	0.35125327
155	0x3ef14037	0.47119305
156	0x3ea5e372	0.3240009
157	0x3e96e668	0.2947266
158	0x3f19008a	0.5976645
159	0x3e1a3f2c	0.1506316
160	0xbd5e0063	-0.054199588
161	0x3e789fd2	0.24279717
162	0x3ec4fc98	0.38473964
163	0x3dd4ea0d	0.10396204
164	0xbc57c6f9	-0.013169997
165	0x3f6ad7b4	0.91735387
166	0x3e074a58	0.13211954
167	0x3ecc6d94	0.3992735
168	0x3e57b6c1	0.21065809
169	0xbd8f29af	-0.069903724
170	0x3e92e0cf	0.2868714
171	0xbef744e2	-0.4829474
172	0x3cec2c86	0.028829824
173	0x3dce5f2e	0.10076748
174	0x3e82ee1b	0.25572285
175	0xbd3339ad	-0.043756176
176	0x3f0b3cfd	0.54389936
177	0x3c963e67	0.018340303
178	0xbe5b77a9	-0.21432365
179	0xbe110b1a	-0.14164391

fc.weight f4 [1, 90]
0	0x40179903	2.368714
1	0x4014fc60	2.3279037
2	0x40187066	2.3818603
3	0x401526d6	2.3304954
4	0xc0116f77	-2.2724283
5	0x4011c583	2.2776802
6	0xc01239f1	-2.2847865
7	0xc01506cf	-2.3285406
8	0xc01aa0dd	-2.4160683
9	0xc0162a7a	-2.3463426
10	0xc017be7d	-2.3710015
11	0x40109cd9	2.2595732
12	0xc0172303	-2.361512
13	0x40133f49	2.3007376
14	0x40113b42	2.2692418
15	0xc016135e	-2.344932
16	0x40116b24	2.2721643
17	0x4012e7f4	2.2954073
18	0xc0157cae	-2.3357348
19	0x4015ea63	2.3424308
20	0x4016a1a2	2.3536153
21	0xc0140666	-2.3128905
22	0xc015980c	-2.3374052
23	0x40111d90	2.2674294
24	0xc0134ffc	-2.3017569
25	0x40143719	2.315863
26	0x4018dcaf	2.3884695
27	0x40158d9b	2.336768
28	0xc010bd1e	-2.2615428
29	0xc0190ce7	-2.3914125
30	0xc00f35c3	-2.2376564
31	0xc0174b8e	-2.3639865
32	0xc011f9e3	-2.2808769
33	0xc0184d32	-2.3797116
34	0x4015aa80	2.3385315
35	0x4017e5b5	2.3733952
36	0x4014cdec	2.3250685
37	0xc0170708	-2.3598042
38	0xc018ae20	-2.3856277
39	0xc016c62b	-2.3558452
40	0xc0155341	-2.3332064
41	0xc0130a69	-2.2975104
42	0xc019404e	-2.3945498
43	0xc0164c35	-2.3484013
44	0xc01883c4	-2.3830423
45	0x416b4bd0	14.706009
46	0x408f1a3b	4.471952
47	0x418525c7	16.643446
48	0x40db0b67	6.845142
49	0xc10110dc	-8.066616
50	0xc10a5d03	-8.647708
51	0x40be33a7	5.943805
52	0xc1195d0b	-9.585216
53	0x40eb0a10	7.3449783
54	0x4105885f	8.345794
55	0x405f344a	3.4875665
56	0x40ec6561	7.3873754
57	0x413c6c2d	11.77641
58	0x406f0e7e	3.7352595
59	0x40b9edd5	5.810282
60	0xc136a34b	-11.414866
61	0xc0b5130d	-5.6585755
62	0x41639916	14.2248745
63	0xc01d28a6	-2.455606
64	0x41bac0a0	23.344055
65	0xc130d248	-11.051338
66	0xbfd0d27d	-1.6314236
67	0x4097cba8	4.7436104
68	0xc13a641a	-11.649439
69	0x401db1be	2.4639735
70	0x4112ffbe	9.187437
71	0xc18fbf37	-17.968367
72	0xc08b4df1	-4.3532643
73	0x40822319	4.0667844
74	0xc0b557a8	-5.66695
75	0x3f2eb084	0.6823809
76	0xc15d972a	-13.849405
77	0x40426d7f	3.037933
78	0xc11f2a9f	-9.947906
79	0xc07373d4	-3.8039446
80	0x40c88ffa	6.2675753
81	0xbfac1f66	-1.3447082
82	0x40c1a11c	6.0509167
83	0x411c7be8	9.780251
84	0x416af029	14.683633
85	0x3fbc5752	1.4714148
86	0xc1155768	-9.333839
87	0xc14af04c	-12.683666
88	0x412ef8b1	10.935716
89	0x3fde52d7	1.7369031
