sparrow/data/networks/re/re_network_v1.pt (torch, 98787 bytes, 9 tensors)

lstm.weight_ih_l0 f4 [180, 20]
0	0xbca94ab4	-0.020665504
1	0x3e0fb10e	0.14032385
2	0xbdd2961f	-0.102825396
3	0x3c3e765b	0.011624898
4	0x3d68027e	0.056643
5	0xbe339585	-0.17537506
6	0x3d801116	0.06253259
7	0x3cc6254e	0.02418771
8	0x3d8b58d6	0.068040535
9	0x3e0a57e7	0.13510095
10	0x3d94c8af	0.0726484
11	0x3dde2742	0.108473316
12	0x3d4ba7e5	0.049720664
13	0xbc27453c	-0.010209378
14	0xbdc72eaf	-0.09725701
15	0x3ca61138	0.020271882
16	0x3d669419	0.05629358
17	0x3c7d8765	0.015474175
18	0xbdf3a820	-0.11897302
19	0x3e12c730	0.14333797
20	0xbe20dbb3	-0.15708809
21	0x3de01ede	0.109433874
22	0x3d8bdad4	0.068288475
23	0x3e35a6cf	0.17739414
24	0xbe00f60d	-0.12593861
25	0xbca49aec	-0.020093404
26	0xbd8f5cf3	-0.070001505
27	0xbd0f6920	-0.035012364
28	0xbe6d4896	-0.2317222
29	0x3cb21869	0.021740155
30	0x3d503290	0.05082947
31	0xbe0c26a2	-0.13686612
32	0xbe0b3da0	-0.13597727
33	0x3d154b21	0.0364486
34	0x3c914569	0.017733293
35	0xbc969084	-0.018379457
36	0x3d26cb2a	0.040721096
37	0xbe3aece8	-0.18254435
38	0xbda61495	-0.081093945
39	0x3d87bc6e	0.06627737
40	0x3c4c49c1	0.012468756
41	0xbda85ee4	-0.08221224
42	0xbdc5c60a	-0.096569136
43	0xbd92bfaa	-0.07165463
44	0x3e1ec34a	0.15504184
45	0x3ceac49a	0.0286582
46	0x3cc0d174	0.023537375
47	0xbd0f9916	-0.035058104
48	0xbd1ba15e	-0.03799569
49	0xbdb372a6	-0.08762102
50	0xbdddd9c3	-0.108325504
51	0x3e4528c9	0.1925384
52	0x3e1638a8	0.1467005
53	0x3d16162f	0.03664225
54	0x3e52456f	0.205343
55	0xbd447f96	-0.047973238
56	0xbdc40a3d	-0.09572265
57	0xbce57118	-0.028008029
58	0xbd7060f2	-0.058686204
59	0xbd74b360	-0.059741378
60	0x3cfbd0a2	0.030739132
61	0xbdc4ae05	-0.09603504
62	0x3ca6fc1b	0.020383885
63	0x3d651042	0.055923708
64	0xbd933057	-0.071869545
65	0xbe770b44	-0.24125391
66	0xbd8fe0f5	-0.07025329
67	0xbd0afe7b	-0.033934098
68	0xbe32a58b	-0.17445962
69	0x3d2efba9	0.04272047
70	0xbd10247d	-0.035191048
71	0xbe221d50	-0.15831494
72	0xbd1e9ef3	-0.038725805
73	0xbd4623aa	-0.048373856
74	0xbe0898ce	-0.1333954
75	0xbe030fa2	-0.12798932
76	0xbe1d35b2	-0.15352514
77	0xbde05140	-0.10952997
78	0xbd996a5f	-0.07490992
79	0xbd12204f	-0.035675343
80	0x3da48d89	0.08034808
81	0x3da2e72d	0.079542495
82	0xbd1c7386	-0.03819611
83	0xbdeea706	-0.11652951
84	0xbd6c27d4	-0.05765517
85	0xbe01a673	-0.12661152
86	0xbbd522a8	-0.0065043755
87	0xbdf6e58e	-0.12055503
88	0x3df94656	0.12171619
89	0x3ce784bd	0.028261537
90	0xbd357c6b	-0.044308107
91	0x3d4f2a4a	0.05057744
92	0x3e4887a3	0.19582991
93	0x3e1d041b	0.15333597
94	0xbdf6f8a0	-0.1205914
95	0x3d07db69	0.03316823
96	0x3b6e8b81	0.0036399069
97	0x3dd00440	0.101570606
98	0x3ca62090	0.020279199
99	0xbe0ba0fe	-0.13635632
100	0xbf28553e	-0.6575507
101	0xbec941e0	-0.3930807
102	0x3e89987c	0.2687415
103	0x3fc4885f	1.5354117
104	0xbec9c550	-0.3940835
105	0xbec360e4	-0.3815986
106	0x3e40d0ce	0.18829653
107	0x3e14f18d	0.1454527
108	0xbf1bafef	-0.6081533
109	0xbccbafb8	-0.024864063
110	0x3d8cfb5d	0.06883881
111	0xbeb7ac82	-0.358738
112	0xbe309117	-0.17242847
113	0x3d1a898d	0.037728835
114	0xbf55f22a	-0.8357264
115	0xbe731c7d	-0.23741336
116	0xbeafa4a3	-0.34305295
117	0xbe112832	-0.1417549
118	0xbecda838	-0.40167403
119	0xbeb550c0	-0.3541317
120	0x3e3293e0	0.17439222
121	0xbbe30ce0	-0.006929025
122	0xbd22abab	-0.039714497
123	0x3c221ba2	0.0098942835
124	0x3e1b798c	0.15183085
125	0x3e1087e8	0.14114344
126	0xbd8eac98	-0.069665134
127	0xbe175ffd	-0.1478271
128	0xbc16d38a	-0.009205708
129	0x3db8e2fb	0.09027668
130	0xbddd88a3	-0.10817077
131	0x3e19b45f	0.15010212
132	0x3b5adf69	0.0033397323
133	0x3dc7de50	0.097591996
134	0xbdd719dc	-0.10502979
135	0xbdb95c6f	-0.090508334
136	0x3d43f502	0.04784108
137	0xbaf85389	-0.0018945794
138	0x3c356a57	0.011072717
139	0x3d7ce2cf	0.06173974
140	0x3de887cf	0.113540284
141	0x3da306de	0.07960294
142	0xbde443c8	-0.11145741
143	0xbd0e8a55	-0.034799892
144	0xbcc92f8b	-0.024558803
145	0x3db27103	0.087129615
146	0xbe0ec660	-0.13942862
147	0x3cf4e5de	0.029894765
148	0xbd4e8161	-0.050416354
149	0x3d841498	0.064492404
150	0xbda5634c	-0.0807558
151	0x3de080fa	0.109621
152	0xbd4dfddb	-0.050290924
153	0x3daed461	0.08536602
154	0x3e02ce85	0.12774093
155	0xbdc37787	-0.095442824
156	0xbe10860a	-0.14113632
157	0xbb149b56	-0.0022675595
158	0xbc0333d2	-0.00800796
159	0x3ab98725	0.0014154656
160	0x3f026ca3	0.50947016
161	0x3ea7ae73	0.32750282
162	0x3ee70b3b	0.45125756
163	0xbeae0f28	-0.33995938
164	0x3da081a6	0.078372285
165	0x3f8bdd2b	1.092687
166	0x3e3d4bde	0.18485972
167	0xbe11632e	-0.1419799
168	0x3efbebe4	0.49203408
169	0xbe725a3d	-0.23667236
170	0x3dc9b48f	0.09848892
171	0x3e7de001	0.24792482
172	0x3f06d450	0.52667713
173	0x3ea5f764	0.32415307
174	0x3f92ca85	1.1468054
175	0x3f8d6b8c	1.1048446
176	0x3ce754f1	0.028238745
177	0xbc844fd7	-0.016151352
178	0x3efc7e89	0.4931529
179	0x3e9da29c	0.30788124
180	0xbe2e033b	-0.1699342
181	0xbd39b98b	-0.045342963
182	0xbe21073f	-0.1572542
183	0x3d9c13c2	0.07620956
184	0x3e04d989	0.12973608
185	0x3d8eb04d	0.069672205
186	0xbe10dcd1	-0.14146735
187	0x3dfd6437	0.1237263
188	0xbc2b2a93	-0.010447162
189	0x3dcd0cb1	0.10012186
190	0xbd44fbd8	-0.04809174
191	0xbd29db0b	-0.04146866
192	0xbd1f36be	-0.038870566
193	0x3de48a4d	0.11159191
194	0x3d25c8b7	0.04047462
195	0x3de33a9d	0.11095164
196	0x3d5fe80a	0.05466465
197	0xbdd3ca7b	-0.103413545
198	0xbdeebb9c	-0.116568774
199	0x3d8784a8	0.06617099
200	0xbda3a7ba	-0.07990976
201	0x3d0d4dde	0.034498088
202	0x3e376853	0.1791089
203	0x3ca30f47	0.019904746
204	0xbdb4287b	-0.087967835
205	0x3e00d456	0.12581
206	0x3d2de99c	0.042459115
207	0x3b30b73a	0.002696468
208	0x3dad0795	0.08448712
209	0xbde915df	-0.11381125
210	0x3c1ae82e	0.00945477
211	0xbd973266	-0.073826596
212	0x3e110578	0.14162242
213	0x3d9419e1	0.072314985
214	0xbd1609e0	-0.03663051
215	0xbdf38dfa	-0.11892314
216	0xbd80ebee	-0.06295
217	0xbdd8e79e	-0.105910525
218	0xb974d70a	-0.00023349762
219	0xbdb44528	-0.08802253
220	0x3de84ef6	0.113431856
221	0x3bab1925	0.0052215033
222	0x3db235c9	0.08701665
223	0x3d4cb769	0.0499796
224	0x3e3296f3	0.17440395
225	0x3e522db6	0.2052525
226	0x3d159587	0.036519554
227	0x3d9ee0e1	0.07757736
228	0x3dd01e09	0.10161979
229	0xbdec66f5	-0.11543075
230	0xbd6bc5b9	-0.05756161
231	0x3c2c3522	0.010510715
232	0xbd1cc4d7	-0.03827366
233	0x3dbb8efd	0.09158132
234	0x3e06757c	0.13130754
235	0xbcbb7ba7	-0.02288611
236	0x3db05957	0.0861079
237	0x3dc1d6dc	0.09464809
238	0x3e06e57b	0.13173477
239	0xbd9cddb4	-0.07659474
240	0x3c1b20b5	0.009468247
241	0x3d834dd4	0.06411329
242	0x3b49af76	0.003077475
243	0x3d3a9ca3	0.045559537
244	0xbdbf83b4	-0.09351292
245	0x3ddafef0	0.10693157
246	0x3daca720	0.08430314
247	0x3c2ac2f2	0.010422455
248	0xbd5dd210	-0.05415541
249	0xbd34fa39	-0.044183943
250	0x3d12c047	0.0358279
251	0x3e42b7c0	0.19015408
252	0x3e3c6839	0.18399133
253	0x3d6ccb19	0.057810877
254	0x3baf92b3	0.005358064
255	0x3ddf3e95	0.109006085

lstm.weight_hh_l0 f4 [180, 45]
0	0x3d1233b1	0.035693828
1	0xbdac2b64	-0.084067136
2	0xbd8ee89b	-0.0697796
3	0xb8949485	-7.084854e-05
4	0x3dcbd156	0.09952037
5	0xbe113236	-0.1417931
6	0xbe48ed85	-0.19621857
7	0xbc2580a8	-0.010101475
8	0xbd977a03	-0.07396319
9	0x3d9c6f68	0.076384366
10	0xbd944870	-0.07240379
11	0x3db8279a	0.089919284
12	0xbdfae89e	-0.122513995
13	0xbcda6144	-0.026657708
14	0xbe31de61	-0.17369987
15	0xbd0a04df	-0.03369605
16	0x3bf2507c	0.0073948484
17	0xbe43f623	-0.19136862
18	0x3dc6c95d	0.09706376
19	0xbdc32c5a	-0.09529944
20	0x3dcb961f	0.09940743
21	0x3d4efeac	0.050535843
22	0x3dee5d29	0.11638863
23	0xbe447c8c	-0.19188136
24	0xbd88c93c	-0.066790074
25	0xbe4f6b96	-0.20255885
26	0xbd8d8e6a	-0.06911929
27	0xbb6f0a57	-0.003647467
28	0xbdf5ed6f	-0.120081775
29	0x3e3b3703	0.18282704
30	0x3c53831d	0.012909678
31	0x3e0852cb	0.13312833
32	0x3d172a40	0.036905527
33	0xbe0062d8	-0.12537706
34	0xbda84ad1	-0.08217395
35	0x3e305411	0.17219569
36	0x3d1d3b72	0.03838677
37	0x3dafba59	0.08580465
38	0x3e4c5915	0.19955857
39	0xbe0c287a	-0.13687316
40	0xbaed0eeb	-0.0018086111
41	0x3d924d43	0.07143643
42	0x3e16461b	0.1467518
43	0xbca38098	-0.01995878
44	0xbd0670fd	-0.032822598
45	0x3e22e154	0.15906268
46	0xbe386aa8	-0.18009436
47	0xbd6e4a9d	-0.058176626
48	0xbc831640	-0.01600182
49	0x3e049547	0.1294757
50	0xbdce44bd	-0.100717045
51	0x3c6e3950	0.014540032
52	0xbdb60291	-0.08887208
53	0x3e455d80	0.19273949
54	0x3c428025	0.011871372
55	0xbd710eed	-0.058852125
56	0x3d6a415b	0.057191234
57	0xbd78edfc	-0.060773835
58	0xbda131ea	-0.078708485
59	0xbe774f8f	-0.24151443
60	0xbd836cac	-0.06417212
61	0x3d89deb1	0.06731928
62	0xbe308222	-0.17237142
63	0x3dc5a26c	0.0965012
64	0x3d8284dd	0.06372998
65	0x3c1d8271	0.009613619
66	0x3d6f04bf	0.058354136
67	0xbd128def	-0.03577989
68	0x3db2ccb6	0.08730452
69	0x3e58b4e2	0.21162751
70	0x3c436236	0.011925271
71	0x3e1f1bc5	0.15537937
72	0x3d94d2a4	0.07266739
73	0xbe28d84d	-0.16488762
74	0xbd37b47f	-0.04484987
75	0x3d637cfc	0.055539116
76	0xbd8510cc	-0.064973444
77	0xbd8ccac8	-0.06874615
78	0x3d5e89fd	0.054330815
79	0xbd5abeff	-0.053404804
80	0xbc0739f4	-0.008253563
81	0x3e355b14	0.17710525
82	0x3e40f384	0.18842894
83	0xbd226a2e	-0.039652042
84	0xbe3bfe68	-0.18358767
85	0x3e4f9f13	0.20275526
86	0x3e238465	0.15968473
87	0x3b89db57	0.0042070556
88	0xbdd7f580	-0.10544872
89	0xbde5a44a	-0.11212976
90	0x3e251f59	0.1612524
91	0x3c4a0205	0.012329583
92	0x3e3c199d	0.18369146
93	0x3d2a544c	0.041584298
94	0xbd8101a6	-0.062991425
95	0xbd612fc9	-0.054977212
96	0xbe393a72	-0.18088701
97	0x3dcf4ee8	0.10122472
98	0x3cc19c4c	0.023634098
99	0xbc336c36	-0.0109510925
100	0x3d9510ce	0.07278596
101	0x3d9ea96a	0.07747157
102	0x3da89704	0.08231929
103	0xbe5bf379	-0.21479596
104	0x3de09199	0.109652705
105	0xbd9963cb	-0.07489737
106	0x3e37ed02	0.17961505
107	0xbd84cca2	-0.06484343
108	0xbd76b787	-0.06023362
109	0x3e041384	0.1289807
110	0xbd5e1842	-0.054222353
111	0xbe59b0ec	-0.21258897
112	0x3dbd721b	0.092502795
113	0x3be8a4ba	0.007099715
114	0x3da28b6e	0.0793675
115	0xbd021a36	-0.031763278
116	0x3de31e49	0.11089761
117	0xbde895fb	-0.113567315
118	0xbe15ed88	-0.14641392
119	0x3ddd6de2	0.10811974
120	0xbd824ef8	-0.06362718
121	0x3e0f5e21	0.14000751
122	0x3e1b59b4	0.15170938
123	0xbd5c1af3	-0.05373664
124	0xbd1db3f9	-0.038501713
125	0x3e0edf80	0.13952446
126	0x3d8c8fee	0.0686339
127	0xbde25947	-0.110521846
128	0xba924abc	-0.0011161189
129	0x3b9d058c	0.004791921
130	0xbd7b4f87	-0.06135514
131	0x3df9fc2a	0.122062996
132	0x3dc09a7a	0.09404464
133	0xbdfd9ea2	-0.123837724
134	0xbdce3ef2	-0.100705996
135	0x3db0fe3a	0.0864224
136	0xbd554e06	-0.052076362
137	0xbc37c9d3	-0.011217552
138	0x3c864ebf	0.016394971
139	0x3cace2a5	0.021104166
140	0xbe24d9bf	-0.16098689
141	0xbcf2d9e5	-0.029644916
142	0x3d0262d7	0.031832542
143	0xbbe47b41	-0.006972701
144	0x3bfc2104	0.0076943655
145	0x3d1d6aa3	0.038431775
146	0xbb8b22ae	-0.0042460775
147	0xbda7825a	-0.081791595
148	0x3d441b0e	0.047877364
149	0xbe247b0b	-0.16062562
150	0x3d9f3041	0.077728756
151	0xbde4189b	-0.111375056
152	0xbe151a95	-0.14560921
153	0xbdcd032a	-0.10010369
154	0x3d341d3c	0.043973193
155	0x3e20c0fd	0.15698619
156	0x3c4f4784	0.012651328
157	0xbc875dfb	-0.016524306
158	0x3bc654c4	0.0060525853
159	0x3de936c0	0.11387396
160	0x3df336b3	0.118756674
161	0x3e13000c	0.14355487
162	0x3cca3d26	0.024687361
163	0x3daabc03	0.08336642
164	0x3d32a0be	0.043610327
165	0x3d0e020c	0.03466992
166	0x3dfba1e2	0.12286736
167	0xbcd01a52	-0.025403176
168	0xbdb4f051	-0.08834899
169	0xbd9ab574	-0.07554141
170	0xbdc78a21	-0.09743143
171	0xbda2b1d5	-0.07944075
172	0x3d1bddf0	0.038053453
173	0x3e0a8631	0.13527752
174	0x3c739694	0.014867444
175	0x3dea195f	0.114306204
176	0x3d9eb9dd	0.07750294
177	0xbda36c7c	-0.07979676
178	0x3de80af3	0.113302134
179	0x3d9e84b7	0.07740157
180	0x3d087ce0	0.033322215
181	0xbcdc8363	-0.026918119
182	0x3e049dfe	0.12950894
183	0xbd3de654	-0.046362236
184	0x3bc16ff4	0.0059032384
185	0x3ce17fe5	0.027526805
186	0x3cee41a7	0.02908404
187	0x3e416229	0.18885101
188	0xbd3a37f7	-0.04546353
189	0x3ce04ca9	0.027380304
190	0xbdd94b21	-0.10610033
191	0x3e565234	0.20929796
192	0x3cea505a	0.028602768
193	0xbdd21a83	-0.10258963
194	0x3af4540a	0.0018640768
195	0xbd19129f	-0.037371274
196	0x3dad9519	0.08475704
197	0x3c546547	0.0129635995
198	0x3dff4e99	0.12466163
199	0x3e14d171	0.1453302
200	0x3d3af8ae	0.045647316
201	0xbe3a3c33	-0.18187027
202	0x3e460770	0.19338775
203	0xbd8bc3e2	-0.06824471
204	0x3e262ebc	0.16228765
205	0xbdafbd36	-0.08581011
206	0xbdbb13b9	-0.09134621
207	0xbe5eee6a	-0.21770635
208	0x3d810c5b	0.06301185
209	0x3bc18e80	0.00590688
210	0xbdd25674	-0.10270396
211	0x3cb06c74	0.02153609
212	0xbc87fb48	-0.016599312
213	0xbad9e6a4	-0.0016624522
214	0x3b6f1afd	0.0036484592
215	0x3e3f5ff5	0.18688948
216	0x3de58863	0.11207654
217	0x3de6a35b	0.11261626
218	0xbd4b9224	-0.049699917
219	0xbe155ef5	-0.14587004
220	0xbcbfddff	-0.023421286
221	0x3de1f616	0.11033265
222	0xbd5f2f6b	-0.05448858
223	0xbd67b9c7	-0.056573655
224	0xbe3cf989	-0.18454565
225	0x3dc805b6	0.09766714
226	0xbd9bb7ac	-0.07603392
227	0x3cb95bcd	0.022626782
228	0x3d24be71	0.04022068
229	0xbd330e68	-0.04371491
230	0xbeb6333b	-0.3558596
231	0xbccc1560	-0.024912536
232	0xbe174026	-0.14770564
233	0x3e998b3a	0.29989034
234	0xbde6c421	-0.11267877
235	0x3c89a6c3	0.016803151
236	0xba7f6844	-0.0009743015
237	0xbe00ca79	-0.12577237
238	0xbd52efc9	-0.05149821
239	0x3db70182	0.089358345
240	0xbde4d251	-0.11172927
241	0x3cdfd071	0.027321072
242	0x3d228aa7	0.03968301
243	0x3de91a9a	0.11382027
244	0xbca08bd0	-0.019597918
245	0x3d0b5471	0.034016076
246	0xbd14489e	-0.036202066
247	0x3da466e9	0.08027441
248	0xbddf51c1	-0.10904265
249	0x3dc78314	0.09741798
250	0x3d999861	0.07499767
251	0x3d3edcce	0.046597295
252	0x3d336170	0.043794096
253	0xbdf67c7b	-0.120354615
254	0xbe143968	-0.14475024
255	0xbdc091b3	-0.0940279

lstm.bias_ih_l0 f4 [180]
0	0xbd209ca3	-0.03921188
1	0x3df32a5c	0.11873314
2	0xbca2c77a	-0.019870508
3	0x3e0f12dd	0.1397204
4	0x3df96848	0.12178093
5	0xbdb3d24d	-0.08780346
6	0x3e0b3927	0.1359602
7	0x3e083307	0.13300715
8	0x3de1a169	0.11017115
9	0x3d803111	0.06259359
10	0x3e3677c1	0.1781912
11	0xbd6498fd	-0.055809963
12	0x3d8070d6	0.06271522
13	0x3dc82681	0.09772969
14	0xbd9a5739	-0.07536168
15	0x3e4ac981	0.1980343
16	0x3d015cf9	0.031582806
17	0xbd90adae	-0.07064377
18	0x3e01f14f	0.12689708
19	0xbcd7164a	-0.026255745
20	0xbd9a1006	-0.075225875
21	0x3cc7f8f6	0.024410706
22	0xbd178191	-0.0369888
23	0x3df80b99	0.12111587
24	0x3cb3bc02	0.021940235
25	0x3d9b44db	0.075814925
26	0x3e26aefa	0.16277686
27	0xbcc31137	-0.02381192
28	0x3cff7419	0.03118329
29	0x3d934d8e	0.07192527
30	0xbd9cefd7	-0.07662933
31	0xbd58d2d6	-0.052935444
32	0xbd222703	-0.039587986
33	0x3d228068	0.03967324
34	0x3e68d633	0.2273796
35	0x3e2dc325	0.16968973
36	0x3e2fcd41	0.17168142
37	0x3d93d4b3	0.072183035
38	0x3de78414	0.11304489
39	0xbdcdc5e2	-0.10047509
40	0x3dc620a0	0.096741915
41	0xbbdd7f24	-0.006759541
42	0x3d6e360b	0.05815701
43	0x3e4394e6	0.19099769
44	0x3e14d249	0.14533342
45	0x3e41aedb	0.18914358
46	0x3d011b95	0.031520445
47	0x3da0fd0d	0.078607656
48	0xbd359efa	-0.044341065
49	0x3e516c4d	0.2045147
50	0xbd266b89	-0.040629897
51	0x3e114ba3	0.1418901
52	0x3dd7c471	0.10535515
53	0x3d86113c	0.06546256
54	0xbd0765ad	-0.03305595
55	0x3e4814b4	0.19539148
56	0xbda75ada	-0.081716254
57	0xbd445dc6	-0.04794099
58	0x3d7a50a8	0.061112076
59	0x3dd5f107	0.10446363
60	0x3e21c6c9	0.15798487
61	0xbc822066	-0.01588459
62	0xbc9db06f	-0.01924917
63	0xbcee79e5	-0.029110858
64	0xbd8504ef	-0.06495082
65	0x3e6592dc	0.22419304
66	0x3e3f24ba	0.18666354
67	0x3deae3db	0.11469241
68	0xbdab02c2	-0.083501354
69	0x3d3dc217	0.046327677
70	0x3df8278d	0.12116919
71	0x3daf281c	0.08552572
72	0x3e358a28	0.17728484
73	0x3e1330e7	0.14374124
74	0xbc2e775d	-0.010648576
75	0x3c157543	0.009122196
76	0x3c5898c9	0.013220021
77	0xbdaa658a	-0.08320148
78	0xbc398810	-0.011323944
79	0x3d11d4f3	0.035603475
80	0x3dfc499b	0.12318727
81	0x3e2e4f6c	0.17022485
82	0x3d14a5b2	0.036290832
83	0x3d8a203c	0.067444295
84	0xbd0c3953	-0.034234356
85	0x3dfb94fe	0.122842774
86	0x3d38ae6c	0.045088217
87	0xbd08d950	-0.03341037
88	0x3d8899a9	0.06669933
89	0x3d7734f4	0.060353234
90	0x3d103274	0.035204366
91	0xbdaa65ac	-0.083201736
92	0x3e4ece8c	0.20195979
93	0x3d6f2617	0.058385935
94	0x3e393f32	0.18090513
95	0x3d4341ee	0.047670297
96	0xbe152232	-0.14563826
97	0x3de1196c	0.10991177
98	0x3e1f05a1	0.15529491
99	0x3ce850c5	0.028358826
100	0x3d759c5c	0.05996357
101	0x3e393321	0.1808591
102	0x3cea40ac	0.028595291
103	0xbdee521f	-0.11636757
104	0x3cd6a107	0.02619983
105	0x3be3a5c1	0.0069472496
106	0x3e139f77	0.144163
107	0x3d20c6c1	0.039252046
108	0xbcdd52d5	-0.027017036
109	0xbd3ec6d0	-0.04657632
110	0x3dc01411	0.09378827
111	0xbd2570df	-0.040390845
112	0x3e3b7b58	0.1830877
113	0xbe25e790	-0.16201615
114	0x3e4d26ee	0.20034382
115	0xbd84c247	-0.06482368
116	0xbe00fd01	-0.12596513
117	0xbd20f5b9	-0.03929684
118	0xbcb06e03	-0.021536833
119	0x3e2aea50	0.16690946
120	0xbe092980	-0.13394737
121	0xbdafc5e0	-0.085826635
122	0x3da15449	0.07877404
123	0xbe1c4837	-0.15261923
124	0xbc07c8b1	-0.008287595
125	0x3d93da54	0.07219377
126	0x3decd372	0.115637675
127	0xbcc1f6d4	-0.023677267
128	0x3c6f712b	0.014614384
129	0xbdaac1b0	-0.08337724
130	0x3e53340f	0.20625328
131	0x3d37c7d5	0.04486831
132	0x3e2a3c63	0.16624598
133	0x3c84d219	0.016213464
134	0xbe0f3fbf	-0.13989161
135	0x3ebd2c95	0.36948076
136	0x3ebaa2c0	0.36452293
137	0x3e5784c4	0.2104674
138	0x3eed994e	0.46406025
139	0x3e41a904	0.1891213
140	0x3eba36df	0.36369988
141	0x3e10ec88	0.1415273
142	0x3e7e7832	0.24850538
143	0x3ea7d8e7	0.3278267
144	0x3ebdc74a	0.37066108
145	0x3eb01d37	0.3439729
146	0x3edb44dc	0.42825973
147	0x3e2a62be	0.1663923
148	0x3e650444	0.22364908
149	0x3e884950	0.26618433
150	0x3e959c8c	0.29220998
151	0x3ed18c4f	0.4092736
152	0x3e239a09	0.15976728
153	0x3e9a4a75	0.3013493
154	0x3e87812c	0.26465738
155	0x3e882fa2	0.2659884
156	0x3ee48fb2	0.4464088
157	0x3edec3fa	0.43508893
158	0x3e90a91d	0.28254023
159	0x3ee9d927	0.45673487
160	0x3ed457cb	0.4147323
161	0x3e718ea5	0.23589571
162	0x3ebbafcb	0.36657557
163	0x3e6a91fb	0.2290725
164	0x3e41fced	0.1894414
165	0x3e78c86f	0.2429521
166	0x3eafa27d	0.34303656
167	0x3ea903cd	0.33010712
168	0x3ed464d3	0.41483173
169	0x3e9142bc	0.28371227
170	0x3e8fca46	0.2808401
171	0x3ea6f4c2	0.3260861
172	0x3e6954ff	0.2278633
173	0x3e66445c	0.22487015
174	0x3eb1f33e	0.34755892
175	0x3ecb7e9e	0.3974504
176	0x3eafcb6b	0.34334883
177	0x3ec407c2	0.3828717
178	0x3e97422e	0.2954268
179	0x3e1cb512	0.15303448

lstm.bias_hh_l0 f4 [180]
0	0x3dd0f662	0.10203244
1	0xbdec1e8c	-0.11529264
2	0x3dd76276	0.10516827
3	0x3dbeb24d	0.09311352
4	0x3e182873	0.1485918
5	0xbe0088bb	-0.12552159
6	0xbd420082	-0.047363766
7	0xbd7ef60c	-0.062246367
8	0x3cdccd7a	0.026953448
9	0x3de7c490	0.11316788
10	0xbc9c4d7b	-0.019079914
11	0x3e46b3a0	0.19404459
12	0x3e3536dd	0.1769671
13	0x3e4387f7	0.19094835
14	0xbd49c66b	-0.04926149
15	0x3dd929e2	0.10603692
16	0x3e4b7d4a	0.19872013
17	0x3bffeb56	0.0078100367
18	0xbd1785ba	-0.036992766
19	0x3e4ebd2f	0.20189355
20	0x3ae4fef4	0.0017471001
21	0xbcaac5fa	-0.020846356
22	0x3dc08dec	0.094020694
23	0x3e45fab6	0.1933392
24	0x3e2cc91a	0.16873589
25	0x3e543c5c	0.2072615
26	0xbca821d9	-0.020523952
27	0x3dec72ff	0.11545371
28	0xbdaccd69	-0.084376164
29	0x3e041227	0.1289755
30	0x3e260425	0.16212519
31	0x3e43bdec	0.19115418
32	0x3db9bfad	0.090697624
33	0x3e20eb98	0.15714872
34	0x3d3b8aec	0.045786783
35	0x3c030354	0.007996399
36	0x3d62260d	0.05521207
37	0x3d1c4b0c	0.038157508
38	0x3dd53fd6	0.10412566
39	0xbd481cbe	-0.048855536
40	0x3e2ff962	0.17184976
41	0xbcfe66b4	-0.031054832
42	0x3e01e918	0.12686574
43	0x3e66fce3	0.22557406
44	0x3dc09e41	0.094051845
45	0x3e4f8aeb	0.20267837
46	0x3cf90fdf	0.030403076
47	0x3e217440	0.15767002
48	0x3d112dad	0.03544395
49	0x3e064e7b	0.13115875
50	0x3cbd01fc	0.023072235
51	0xbd92b5fa	-0.071636155
52	0xbd4c96ad	-0.049948383
53	0x3de5074e	0.11183034
54	0x3e1231ce	0.14276811
55	0x3d3f5212	0.046709128
56	0x3ddedc73	0.10881891
57	0x3df27b43	0.118399166
58	0x3c9427cf	0.018085388
59	0x3e3c8a47	0.18412124
60	0x3e0ab6ec	0.13546342
61	0x3e4ef299	0.20209731
62	0x3aaf19fd	0.0013359186
63	0xbd1ef605	-0.03880884
64	0x3b4f5dcd	0.0031641603
65	0x3c3c6563	0.011498782
66	0x3bab9011	0.00523568
67	0xbd488c54	-0.048961952
68	0x3e2cd27d	0.1687717
69	0x3d97dbc6	0.07414965
70	0x3e584d2c	0.21123189
71	0x3d1fce85	0.03901531
72	0xbd0217e1	-0.031761054
73	0x3e182e92	0.14861515
74	0x3e53180d	0.20614643
75	0x3d876687	0.066113524
76	0x3de51b75	0.11186878
77	0x3e1c0324	0.15235573
78	0x3e4f1991	0.20224597
79	0xbdacedbd	-0.084437825
80	0x3bdfbb49	0.006827746
81	0x3bb59f3e	0.005542665
82	0x3d7bb51b	0.061452013
83	0x3e373d70	0.1789453
84	0xbc93665b	-0.017993143
85	0x3de3fb61	0.11131931
86	0x3d06db63	0.032924067
87	0xbd3f3cda	-0.046688892
88	0x3d9d46f5	0.076795496
89	0x3df4f769	0.11961252
90	0x3da518ff	0.08061408
91	0xbdab473e	-0.08363198
92	0x3e0b2afb	0.13590614
93	0x3e17bd3f	0.14818285
94	0x3dc0a74a	0.09406908
95	0xbd889b3e	-0.06670235
96	0xbe16c569	-0.14723743
97	0x3e2aeff4	0.16693097
98	0x3d28f951	0.04125339
99	0xbe1ee19b	-0.15515749
100	0xbe212403	-0.15736394
101	0x3dc43fe2	0.09582497
102	0xbe44edba	-0.1923131
103	0xbe4676ca	-0.19381252
104	0x3d2098bc	0.03920816
105	0xbe23e72d	-0.16006155
106	0xbd62ffad	-0.055419613
107	0xbd47b73a	-0.048758723
108	0x3d91bfce	0.07116662
109	0xbdab6e6d	-0.083706714
110	0xbdb762a7	-0.08954363
111	0xbda75d19	-0.08172054
112	0x3e1e3feb	0.1545407
113	0xbe05297b	-0.13004105
114	0xbd94426c	-0.072392315
115	0xbe03406f	-0.12817548
116	0xbda45951	-0.08024848
117	0xbdd4452a	-0.103647545
118	0xbdf15909	-0.1178456
119	0x3de470d2	0.11154331
120	0xbd8592aa	-0.065221146
121	0x3dd75085	0.10513405
122	0x3d1ac405	0.037784595
123	0xbddbb207	-0.107273154
124	0x3d80e387	0.062933974
125	0x3e19cbd3	0.15019159
126	0x3e1ef3ea	0.15522733
127	0xba6e8908	-0.0009099399
128	0x3e0c9f8f	0.13732742
129	0xbd2b5c27	-0.04183593
130	0x3da71ea3	0.0816014
131	0x3e1c786f	0.15280317
132	0x3d1a1126	0.03761401
133	0xbe185290	-0.14875245
134	0xbe1bcd64	-0.15215069
135	0x3ec22a0a	0.37922698
136	0x3e380f10	0.17974496
137	0x3eb8166d	0.3595461
138	0x3eafe963	0.34357747
139	0x3e644949	0.22293581
140	0x3e87af3d	0.26500884
141	0x3e3356cb	0.17513578
142	0x3ebfb8ed	0.37445775
143	0x3e853f32	0.26024777
144	0x3e78978c	0.2427656
145	0x3ea27ac8	0.317343
146	0x3e65b1f2	0.22431162
147	0x3e929704	0.2863084
148	0x3ebae7d1	0.36504987
149	0x3e481890	0.1954062
150	0x3e5b35f4	0.214073
151	0x3ec124a1	0.37723258
152	0x3ed53e58	0.41649127
153	0x3e89e457	0.26932022
154	0x3ea25319	0.31704023
155	0x3eaa45a1	0.33256248
156	0x3e63b23b	0.22235958
157	0x3e657638	0.22408378
158	0x3e611b4b	0.21983068
159	0x3eaa6416	0.33279485
160	0x3ed3bebe	0.41356462
161	0x3ead34d5	0.3382937
162	0x3e414c90	0.18876863
163	0x3e0ac64c	0.13552207
164	0x3e9bdb57	0.3044078
165	0x3e217397	0.1576675
166	0x3e714426	0.23561153
167	0x3e89602b	0.26831183
168	0x3ea54db9	0.3228586
169	0x3ed35f7a	0.4128378
170	0x3e96c37a	0.29446012
171	0x3e9a260d	0.30107155
172	0x3e90515f	0.2818708
173	0x3eb33b60	0.35006237
174	0x3e9f6415	0.31131044
175	0x3e6355a6	0.22200641
176	0x3e4f06e2	0.2021747
177	0x3ded6db7	0.11593192
178	0x3ef2dbc4	0.47433293
179	0x3dfc216e	0.12311064

lstm.weight_ih_l0_reverse f4 [180, 20]
0	0xbd08aa11	-0.033365313
1	0xbe41b34d	-0.18916054
2	0x3fb66c39	1.4251777
3	0x3f03d321	0.5149403
4	0xbf8f5206	-1.1196907
5	0xbe806ac0	-0.25081444
6	0x3e081570	0.13289428
7	0x3f899e38	1.075141
8	0x3e24360d	0.16036244
9	0xbd8eda79	-0.06975264
10	0xbea825dd	-0.32841387
11	0xbea1d2f6	-0.31606263
12	0xbefa69f9	-0.48908976
13	0xbec2e241	-0.38063243
14	0xbf1ee797	-0.6207213
15	0xbe512cf5	-0.20427306
16	0xbdcb3673	-0.09922495
17	0x3e7a50d6	0.24444899
18	0x3dfe950b	0.124307714
19	0xbfa96616	-1.3234279
20	0x3e8cd82c	0.27508676
21	0x4011e2b5	2.279462
22	0xc0058069	-2.0859625
23	0xbe8d63a1	-0.27615073
24	0x3fb7ba76	1.4353778
25	0x3fcca764	1.5988584
26	0x3d339fc3	0.043853533
27	0xbf16b725	-0.58873206
28	0xbebf993d	-0.374216
29	0xc00e0065	-2.218774
30	0x3f12cfb2	0.5734817
31	0xbdbb5189	-0.09146411
32	0x401badea	2.4324899
33	0xbf88da98	-1.069171
34	0xbf590e86	-0.84787786
35	0x3f75ca7c	0.9601209
36	0xbd467c10	-0.04845816
37	0xbf8763be	-1.0577314
38	0x3f87ba81	1.0603791
39	0xbdc1a27b	-0.09454819
40	0xbf89a620	-1.0753822
41	0x3f8f9a81	1.1219026
42	0xbe0523b8	-0.13001907
43	0xbecabc2b	-0.39596686
44	0x3f1f868e	0.6231469
45	0xbfc73cf5	-1.5565478
46	0xbe906f3d	-0.28209868
47	0x3fb122e7	1.3838776
48	0xbde233de	-0.11045049
49	0x3e81a33e	0.25319856
50	0x3f511d5b	0.8168542
51	0x3ccfaa85	0.025349865
52	0x3f1e86aa	0.6192423
53	0x3dcec856	0.10096805
54	0x3e6b1557	0.22957359
55	0x3e13cf2f	0.14434503
56	0xbf36570d	-0.7122658
57	0x3f424d29	0.7589899
58	0x3fbf16d6	1.4928844
59	0x3f86768e	1.050493
60	0xbd36a479	-0.044590447
61	0x3f359617	0.70932144
62	0x3f022d92	0.50850785
63	0x3f337025	0.70092994
64	0x3f112687	0.56699413
65	0xbeaf94c1	-0.34293178
66	0x3f840d99	1.031665
67	0x3f0be294	0.54642606
68	0xbee26f58	-0.44225574
69	0x3daddf3f	0.084898464
70	0x3e988533	0.29789123
71	0xbeb3e094	-0.35132277
72	0xbf945ac4	-1.15902
73	0xbf51f4f2	-0.8201438
74	0x3f8d74af	1.1051234
75	0xbf2c8dfa	-0.6740414
76	0xbe950926	-0.29108542
77	0x3e58c7f7	0.2117003
78	0x3fdd0665	1.7267576
79	0x3fc5e84f	1.546152
80	0x3fcea0e7	1.6142853
81	0x40371683	2.860749
82	0x3ec173c3	0.37783632
83	0xbf847796	-1.0348995
84	0xbfb5b75b	-1.4196581
85	0x400f4427	2.2385347
86	0xbd870f83	-0.065947555
87	0x3f4bdbea	0.7963244
88	0xbefc7663	-0.49309072
89	0xbf7ff9c3	-0.9999048
90	0x3e9c964f	0.30583426
91	0xbfe081ce	-1.7539613
92	0x3d0383f4	0.032108262
93	0xc0136038	-2.3027477
94	0xbefd6d5c	-0.49497497
95	0xbf909e42	-1.1298296
96	0xbec2d7a7	-0.38055155
97	0xbed4c42b	-0.41555914
98	0x3f9786e7	1.1838044
99	0xc05da6fe	-3.4633174
100	0xbceea25b	-0.029130151
101	0x3eb3ecff	0.3514175
102	0xbe003007	-0.12518321
103	0xbf93397e	-1.150192
104	0x3f4482b4	0.7676194
105	0x3e0d642e	0.13807747
106	0xbef3d689	-0.47624615
107	0x3e1c575d	0.15267701
108	0x3e404472	0.1877611
109	0xbfcf9074	-1.6215959
110	0xbfe23432	-1.7672179
111	0xbff943e7	-1.9473847
112	0x3e9269ac	0.28596246
113	0xbdcde8d0	-0.10054171
114	0x3f42ce7b	0.76096314
115	0x3dbbdcd3	0.09172978
116	0xbe28bb65	-0.16477735
117	0x4027396d	2.61288
118	0xbf457a52	-0.7713977
119	0xbe824950	-0.25446558
120	0xbdc0254d	-0.093821146
121	0xbef9b6f9	-0.4877241
122	0x3fa4c1e0	1.2871666
123	0x3f83ab72	1.0286696
124	0xbf4f22df	-0.80912584
125	0xbf2f53f8	-0.684875
126	0xbeaecd7b	-0.34141144
127	0xc00db304	-2.2140512
128	0x3f2273df	0.63458055
129	0xbdcd156e	-0.10013853
130	0x3fc53045	1.5405356
131	0xbf290db9	-0.66036564
132	0xbed305aa	-0.4121526
133	0xc016fa0c	-2.3590117
134	0x3d8144cb	0.06311949
135	0xbece6e94	-0.4031874
136	0xbf42d571	-0.76106936
137	0x3f1e5fac	0.61864734
138	0xbf89d191	-1.076708
139	0xc00bd316	-2.1847587
140	0xbf3849af	-0.7198743
141	0x3f5ae42d	0.8550442
142	0xbee054d2	-0.43814713
143	0x3df20bf0	0.11818683
144	0x3f5b5774	0.8568032
145	0xbf69b237	-0.9128756
146	0xbc7e4c54	-0.015521128
147	0x3f12a694	0.5728543
148	0x3ef86cb2	0.48520428
149	0xbf0cb76a	-0.5496737
150	0x3f2ffb9f	0.6874332
151	0x3e853748	0.2601874
152	0x3f1801ac	0.5937755
153	0xbf1e920d	-0.61941606
154	0x3fb6ced8	1.4281874
155	0xbf92a22f	-1.1455745
156	0xbe78a57d	-0.24281879
157	0x3f0a1cca	0.5395018
158	0x400cc937	2.1997812
159	0x3fbc4ad7	1.4710339
160	0xbfaa064a	-1.3283169
161	0x3fdb46d2	1.7130988
162	0x3f6eee04	0.93331933
163	0x3e1735d1	0.14766623
164	0x3f2a1f87	0.66454357
165	0xbf771275	-0.9651254
166	0x3f95a49f	1.1690863
167	0x3f8e04e4	1.1095243
168	0xbe82dd68	-0.25559545
169	0x3e7a6207	0.24451457
170	0x3f5659eb	0.83730954
171	0x3eaa8c35	0.33310094
172	0x3e389e19	0.1802906
173	0x3ed77279	0.42079523
174	0xbf3d073f	-0.7383918
175	0xbf7a314a	-0.9773146
176	0xbeec4f96	-0.4615447
177	0x3ef0fcec	0.47067964
178	0x400a8359	2.1642668
179	0x3e96e49b	0.29471287
180	0xbe8ab128	-0.27088284
181	0xbf4b3a31	-0.7938567
182	0x3e918260	0.2841978
183	0xbe3b3f52	-0.18285874
184	0x3f1a495b	0.6026818
185	0xbf2fef50	-0.68724537
186	0xbec782d1	-0.38966992
187	0xbec69242	-0.3878346
188	0xba1db526	-0.0006016068
189	0xbee81538	-0.4532869
190	0x3eccd6e0	0.40007687
191	0xbe7cf8b0	-0.24704242
192	0x3f6c9d4b	0.9242751
193	0x3de66d0d	0.112512685
194	0xbf454e94	-0.77073026
195	0xbee3e928	-0.44513822
196	0xbf0289bc	-0.50991416
197	0xbe93a9df	-0.2884054
198	0x3fe6a100	1.8017883
199	0x3faaeec8	1.335412
200	0xbdc824b0	-0.097726226
201	0xbfd1f0a2	-1.640156
202	0xbf841687	-1.0319375
203	0x3c8c8d81	0.017157318
204	0x3f336cec	0.70088077
205	0xbdb29547	-0.08719879
206	0xbe94b621	-0.29045203
207	0xbfaf37a8	-1.368886
208	0xbf09ce44	-0.5383036
209	0x3f38a401	0.7212525
210	0xbf0fac9b	-0.5612275
211	0xbfb597f1	-1.4186994
212	0x3f4870db	0.78297204
213	0xbfb38c1a	-1.4027131
214	0xbf376918	-0.71644735
215	0xbe11d51a	-0.14241448
216	0xbe8fce77	-0.28087208
217	0xbf367b0f	-0.7128152
218	0xbf2d73b6	-0.67754686
219	0xc03309f8	-2.7974834
220	0x3e105b23	0.14097266
221	0xbf5f6ec6	-0.872784
222	0x3fd991e9	1.6997653
223	0x4021d955	2.52889
224	0x3eb9fd70	0.3632617
225	0xbf076515	-0.52888614
226	0xbf3a0f6c	-0.7267978
227	0xbe0c689d	-0.13711782
228	0xbf1cfa1e	-0.6131915
229	0x3f8b0250	1.0860081
230	0x3f9f0ff6	1.2426746
231	0xbea1e689	-0.31621197
232	0x3f0ae66d	0.5425785
233	0xbfdbc23f	-1.7168654
234	0x3ea34ac0	0.31892967
235	0xbf0bc6a8	-0.546
236	0xbfba81a9	-1.4570819
237	0x4001d4a3	2.0286033
238	0xc022fdd0	-2.5467415
239	0x3f33d525	0.7024711
240	0xbfac41d2	-1.3457587
241	0x406aa4f5	3.6663182
242	0xbd755fcf	-0.059905823
243	0x3e128366	0.14307937
244	0x3d4e91f2	0.050432153
245	0xbd9e6698	-0.07734412
246	0xbfd51142	-1.6645892
247	0x3fba0a40	1.4534378
248	0xbf8bd36c	-1.0923896
249	0x3f9eab9e	1.2396123
250	0x4019082c	2.3911238
251	0xbfde8ce3	-1.7386745
252	0x3f94a97a	1.161422
253	0xbfd3611f	-1.6514014
254	0xbe874174	-0.26417124
255	0xbf7f3f60	-0.9970608

lstm.weight_hh_l0_reverse f4 [180, 45]
0	0x3f08955e	0.53352916
1	0x3d6be143	0.057587873
2	0xbe81388b	-0.2523845
3	0xbf1b4316	-0.6064924
4	0xbf01958f	-0.50618833
5	0x3eda151c	0.4259423
6	0xbf09906f	-0.53736013
7	0x3e9dc0fd	0.308113
8	0xbe9236ad	-0.2855734
9	0x3e325e4a	0.17418781
10	0x3ea2efe2	0.3182364
11	0xbe47f7f3	-0.19528179
12	0xbe3bc508	-0.1833688
13	0x3c32f59c	0.010922816
14	0xbc8bf40c	-0.017084144
15	0xbf1a28ad	-0.60218316
16	0x3ad0bb12	0.0015924892
17	0xbdd5656c	-0.10419735
18	0x3c27e06b	0.0102463765
19	0x3daba395	0.0838081
20	0xbf113fa8	-0.56737757
21	0x3ea652c8	0.32485032
22	0xbf1f0c9b	-0.6212861
23	0xbeed1f7e	-0.4631309
24	0x3ed4efe2	0.41589266
25	0x3d8cd167	0.06875878
26	0xbe1b9977	-0.15195261
27	0x3d01f68b	0.031729262
28	0xbec30f1a	-0.3809746
29	0xbd69abcf	-0.057048615
30	0x3d8529e4	0.06502131
31	0xbf044887	-0.5167317
32	0x3dc54cc9	0.09633786
33	0xbd9dc375	-0.07703296
34	0x3e31b94f	0.17355846
35	0xbd6485aa	-0.055791534
36	0x3e946f35	0.28991094
37	0x3df845bb	0.12122675
38	0xbf1623f2	-0.586486
39	0x3e6d94af	0.2320125
40	0xbe379f5e	-0.17931888
41	0x3f4edbd5	0.8080419
42	0x3e22dfe2	0.15905717
43	0xbe0daf0c	-0.13836306
44	0xbe971786	-0.29510134
45	0x3e62a4ae	0.22133133
46	0xbf50c530	-0.81550884
47	0x3f00f724	0.50377107
48	0x3d6e6cbc	0.058209166
49	0xbf15857b	-0.584068
50	0x3f16bca3	0.58881587
51	0x3ecad24d	0.39613572
52	0x3ec9b469	0.39395455
53	0x3e70be9d	0.23510213
54	0x3e61fb3e	0.22068498
55	0x3d27360c	0.040823027
56	0xbf40ad67	-0.7526459
57	0xbdb15673	-0.08659067
58	0xbf17e277	-0.5932993
59	0xbf2f1c17	-0.68402237
60	0xbf442c67	-0.7663025
61	0xbf057c70	-0.52143
62	0xbe66310c	-0.22479647
63	0x3df3c050	0.11901915
64	0x3f31309f	0.69214815
65	0x3f2b9266	0.6702026
66	0xbf312e92	-0.69211686
67	0x3ea90625	0.330125
68	0xbede1423	-0.43374738
69	0x3e0ef491	0.13960482
70	0xbe4a8747	-0.19778167
71	0x3de4b69e	0.11167644
72	0xbd6f38f3	-0.05840392
73	0xbf216b28	-0.6305413
74	0xbf29eddc	-0.6637857
75	0x3f57dba4	0.8431952
76	0xbdf9a858	-0.12190312
77	0x3c87ad59	0.01656215
78	0xbebb3d7f	-0.36570355
79	0x3e93a59c	0.28837287
80	0x3dd5a7a9	0.10432369
81	0xba518ec0	-0.00079939887
82	0xbf8fc2a7	-1.1231278
83	0xbec60574	-0.38676035
84	0x3f0c7f2c	0.5488155
85	0x3f0e8f17	0.5568709
86	0x3cf36055	0.02970902
87	0x3ed38e0a	0.41319305
88	0xbe5afb6a	-0.2138497
89	0xbd23843c	-0.03992103
90	0x3ea363b1	0.31911996
91	0x3f464b75	0.7745889
92	0xbeaceb69	-0.33773354
93	0x3cfb248c	0.030657075
94	0xbef200a0	-0.47266102
95	0x3f837209	1.0269176
96	0x3ed052e3	0.40688238
97	0x3e0f60f1	0.14001824
98	0xbf11c3da	-0.5693947
99	0x3e6958f6	0.22787842
100	0x3de5be9c	0.112179965
101	0xbe07cc61	-0.13261558
102	0xbef2cb10	-0.4742055
103	0x3db424fc	0.08796117
104	0xbe96154d	-0.29313126
105	0xbe3f7432	-0.18696669
106	0xbe0d4ec0	-0.13799572
107	0xbf20dc7d	-0.6283644
108	0xbda2003d	-0.07910202
109	0x3e496c52	0.19670227
110	0x3eadfc56	0.3398158
111	0x3f0d242a	0.55133307
112	0xbf00be5d	-0.5029047
113	0xbe6fa129	-0.23401321
114	0x3ec058ef	0.3756785
115	0xbebc7e44	-0.36815083
116	0x3ebd9b3d	0.370325
117	0x3e276027	0.16345273
118	0x3eaa76ba	0.33293706
119	0xbe5c7173	-0.21527652
120	0x3f047bdf	0.5175151
121	0xbe8519ea	-0.25996333
122	0xbd810ad3	-0.06300893
123	0x3e6e4932	0.2327011
124	0x3eb1c70c	0.34722173
125	0xbc6048d5	-0.0136892395
126	0xbf965735	-1.1745363
127	0xbe663206	-0.2248002
128	0xbf92bc76	-1.1463764
129	0xbccea995	-0.025227347
130	0x3e4866a0	0.19570398
131	0x3f1b5c6f	0.6068792
132	0x3f2219d4	0.6332066
133	0x3e954790	0.2915616
134	0xbf5dbbb9	-0.8661457
135	0x3e98a9f9	0.2981718
136	0x3ebdbf3a	0.37059957
137	0xbebe1dbe	-0.37132066
138	0xbe88fab1	-0.26753762
139	0xbf25006a	-0.64453757
140	0x3e998a8b	0.29988512
141	0xbf4dc0ab	-0.80372113
142	0x3e99228d	0.29909173
143	0xbf910879	-1.1330711
144	0xbebc9eea	-0.36839992
145	0x3efc757e	0.4930839
146	0xbf2258d4	-0.6341679
147	0xbef6eee9	-0.4822915
148	0x3e06346d	0.13105936
149	0xbe810f24	-0.25206864
150	0xbf021598	-0.508142
151	0xbed15d85	-0.40891662
152	0xbcf801e2	-0.030274335
153	0x3c84ce8e	0.016211774
154	0x3f4d8409	0.80279595
155	0x3e56466a	0.20925298
156	0xbe67bdc7	-0.22630988
157	0xbeec4f94	-0.46154463
158	0xbf89d9df	-1.0769614
159	0x3e2feb51	0.1717961
160	0xbea27fa6	-0.31738013
161	0x3dda2b98	0.10652846
162	0x3ee70980	0.45124435
163	0xbe1caeb7	-0.15301023
164	0xbe249889	-0.16073813
165	0x3ef8c333	0.48586425
166	0xbdd32ce1	-0.10311294
167	0x3f2bfb47	0.67180294
168	0xbf3a23f5	-0.72711116
169	0x3e44cb8c	0.19218272
170	0xbd46a641	-0.048498396
171	0xbc4cd1fe	-0.012501238
172	0x3dc25893	0.094895504
173	0xbf396aaa	-0.7242838
174	0x3e968ce0	0.29404354
175	0x3e8ac6c3	0.27104768
176	0x3f40ee87	0.75363964
177	0x3f008ad9	0.50211865
178	0xbda3c2c1	-0.07996131
179	0xbf78056f	-0.9688329
180	0xbe8a726d	-0.27040425
181	0x3d385c09	0.045009647
182	0x3df5ecaf	0.120080344
183	0x3e3c56a9	0.18392433
184	0xbbfcbbc0	-0.007712811
185	0x3ef31586	0.4747736
186	0x3f3c126e	0.7346562
187	0x3d652434	0.05594273
188	0xbe262b85	-0.16227539
189	0xbe8ecde8	-0.2789147
190	0x3e5b750c	0.21431369
191	0xbf0b3aaf	-0.5438642
192	0xbe2d38d2	-0.16916206
193	0x3f7fb767	0.99889225
194	0xbf1797d6	-0.5921606
195	0xbec4106b	-0.38293776
196	0x3e8d2fe0	0.27575588
197	0xbe27ab27	-0.16373883
198	0xbe7fe1f1	-0.24988534
199	0x3ec81053	0.39074954
200	0x3e7a519c	0.24445194
201	0x3e204025	0.15649469
202	0xbf809a33	-1.0047058
203	0xbec6d751	-0.38836148
204	0x3e5cf639	0.21578301
205	0xbe4a2bbd	-0.19743247
206	0x3c56725c	0.013088789
207	0x3d95ebed	0.0732039
208	0xbd87ab80	-0.06624508
209	0xbede849e	-0.43460554
210	0x3e8da578	0.27665305
211	0x3d6607f4	0.05615993
212	0x3ee23d8e	0.44187587
213	0xbe7e13fb	-0.2481231
214	0xbe46fd21	-0.19432499
215	0x3e8a7370	0.27041197
216	0xbeced3b3	-0.4039589
217	0xbe1c2efa	-0.15252295
218	0x3e09b701	0.13448717
219	0x3eb9c630	0.36284018
220	0xbf71c359	-0.944387
221	0xbef6de9f	-0.4821672
222	0x3d86c87b	0.06581207
223	0x3e6ebf39	0.23315133
224	0xbdf9240f	-0.12165081
225	0xbf4abd26	-0.7919487
226	0x3e51630c	0.2044794
227	0x3f3ede68	0.74558115
228	0x3d65afcf	0.056075867
229	0xbe64c563	-0.22340922
230	0x3e36ace3	0.17839389
231	0xbe09d9d2	-0.13461998
232	0xbedab21f	-0.4271402
233	0xbfab8c19	-1.340213
234	0xbf034720	-0.51280403
235	0x3ec065f9	0.375778
236	0xbeb9a2ee	-0.36257118
237	0xbe2aa8f0	-0.16666007
238	0x3e1b9549	0.15193667
239	0xbd3b6f32	-0.04576034
240	0xbec6c01e	-0.3881845
241	0x3ecaa1b1	0.39576486
242	0xbf4a6851	-0.79065424
243	0xbeb5e40d	-0.3552555
244	0x3d2c6d6e	0.042096548
245	0xbf3bfa90	-0.73429203
246	0x3ef55a7f	0.47920606
247	0xbe3b0819	-0.18264808
248	0xbf04cdb0	-0.51876354
249	0xbdbddbdd	-0.09270451
250	0xbf438b9d	-0.7638491
251	0x3ea08d6f	0.31357905
252	0x3e74b82f	0.23898385
253	0xbf3e611e	-0.7436694
254	0xbd86f512	-0.06589712
255	0x3eafb435	0.34317175

lstm.bias_ih_l0_reverse f4 [180]
0	0xbe13f4b3	-0.14448814
1	0xbd218eb8	-0.039442748
2	0xbeeb4f54	-0.4595896
3	0xbda4b174	-0.08041659
4	0xbedd3141	-0.4320164
5	0xbe9929bf	-0.29914662
6	0xbe7ff678	-0.24996364
7	0xbd001f30	-0.031279743
8	0xbdd9550e	-0.10611926
9	0xbe5aad38	-0.2135514
10	0xbd9e65eb	-0.07734283
11	0xbe74cc55	-0.23906071
12	0xbe335fce	-0.17517015
13	0xbda11fd9	-0.078674026
14	0xbc16c41e	-0.009202031
15	0xbca80bb7	-0.020513399
16	0xbe610301	-0.21973802
17	0xbed3c5dc	-0.41361892
18	0x3efe1d21	0.496316
19	0xbe32e277	-0.17469202
20	0xbebd5cb8	-0.369848
21	0xbdf7b18c	-0.12094411
22	0xbe2cd8ef	-0.16879629
23	0xbede0532	-0.4336334
24	0xbe9de3be	-0.30837816
25	0xbeda3f21	-0.4262629
26	0x3df4af21	0.11947466
27	0xbef6b60d	-0.4818577
28	0xbea73353	-0.32656345
29	0xbebbdf71	-0.3669391
30	0xbe19207f	-0.14953803
31	0xbe81748a	-0.25284225
32	0x3d9e0f21	0.07717729
33	0xbea46723	-0.32109937
34	0xbdf0910e	-0.11746417
35	0xbed959c8	-0.4245131
36	0xbf113bbc	-0.5673177
37	0xbe543cfc	-0.20726389
38	0xbe677e29	-0.2260672
39	0x3f6578c7	0.89637417
40	0x401ad456	2.41921
41	0xbee0dbeb	-0.43917784
42	0x3f5d743f	0.865055
43	0x3d5d452e	0.054021053
44	0xbe9f88ba	-0.31159002
45	0x3ec82014	0.39086974
46	0x3e41f869	0.18942417
47	0x3f266980	0.6500473
48	0x3efe9184	0.49720395
49	0x3ed3295c	0.41242492
50	0xbda12570	-0.07868469
51	0xbe02f823	-0.12789969
52	0x3f550d73	0.83223647
53	0x3e2320f6	0.15930542
54	0x3ef59553	0.47965488
55	0x3f042ad5	0.51627856
56	0x3ee3910f	0.44446608
57	0x3f4d1277	0.801063
58	0x3e479a08	0.19492352
59	0x3f084bd6	0.53240716
60	0x3d6f51ea	0.05842773
61	0x3e527212	0.20551327
62	0x3f0697d1	0.52575403
63	0x3edb0ffa	0.42785627
64	0x3f081188	0.5315175
65	0x3e839b45	0.257044
66	0x3e748c85	0.23881729
67	0x3eb8e934	0.3611542
68	0x3ddc967c	0.1077089
69	0x3f0bedf6	0.54659975
70	0x3efbf600	0.4921112
71	0x3ecdd6fe	0.4020309
72	0x3ebdc05d	0.37060824
73	0x3f18bac5	0.5965999
74	0x3f22412c	0.63380694
75	0x3eb900f1	0.3613353
76	0x3ea4a9df	0.3216085
77	0x3e445afc	0.19175333
78	0x3eb4ae28	0.3528912
79	0xbe79eac2	-0.24405959
80	0x3f337106	0.70094335
81	0x3eaff5b6	0.3436715
82	0x3ede77cf	0.43450782
83	0x3e7002d4	0.23438579
84	0x3f4d1601	0.801117
85	0x3fd9f3c2	1.7027514
86	0x3ec5e982	0.38654715
87	0x3f6a52a8	0.91532373
88	0x3eb021f9	0.3440092
89	0x3e548ef4	0.20757657
90	0xbd767b8f	-0.06017643
91	0xbf16c808	-0.58898973
92	0x3ccc3654	0.02492825
93	0xbdd8caf1	-0.10585583
94	0xbbea0137	-0.007141258
95	0xbe0d9b0a	-0.13828674
96	0x3e1b0b25	0.1514097
97	0x3e2e8bd2	0.17045525
98	0x3ec1eeb1	0.3787742
99	0xbc45c8df	-0.012071817
100	0x3e61a4a5	0.22035463
101	0x3e8b49aa	0.2720464
102	0x3eb0dee4	0.34545052
103	0xbf112558	-0.5669761
104	0xbe34a0aa	-0.17639413
105	0x3dbef068	0.093231976
106	0x3f269947	0.6507763
107	0xbd4ae4b2	-0.049534507
108	0xbefb8da9	-0.49131516
109	0x3de8223d	0.113346554
110	0xbe31c1ef	-0.17359136
111	0x3e33aadd	0.17545648
112	0x3f240cdb	0.64082116
113	0xbe3cfdc5	-0.1845618
114	0x3e3dcb8f	0.18534683
115	0x3d8ba173	0.06817903
116	0xbec525a5	-0.38505283
117	0xbe31cb73	-0.17362766
118	0x3e306eb6	0.17229733
119	0xbe6e81c2	-0.23291686
120	0xbe38bdb4	-0.18041116
121	0xbdccc494	-0.09998432
122	0x3e8f2821	0.27960303
123	0xbd6fbb7f	-0.05852842
124	0x3f137219	0.57595974
125	0x3e993944	0.29926503
126	0x3e12dc48	0.14341843
127	0xbdd2ed1c	-0.10299131
128	0x3ddad565	0.10685233
129	0xbee6a367	-0.4504654
130	0x4007603c	2.1152487
131	0xbe0205f8	-0.1269759
132	0x3dc1efe5	0.094695844
133	0xbdcd05fc	-0.10010907
134	0x3c902e75	0.017600277
135	0x3d8f5665	0.069989
136	0xbdd02761	-0.10163761
137	0xbdd38d0f	-0.10329639
138	0x3dcf9094	0.10134998
139	0x3d537c95	0.051632483
140	0xbd5cab13	-0.053874087
141	0x3c28f0a7	0.010311282
142	0x3e7624d1	0.24037482
143	0x3de509fb	0.11183544
144	0x3e861255	0.2618586
145	0x3ede4d34	0.43418276
146	0x3dad844d	0.084725
147	0x3f142253	0.57864875
148	0x3f15d4e9	0.58528
149	0x3db1b34a	0.08676775
150	0x3df7ec3f	0.12105607
151	0x3e046238	0.12928092
152	0xbd85b498	-0.06528586
153	0x3ea1078e	0.31451076
154	0xbd8d03f1	-0.068855174
155	0xbd9c9942	-0.07646419
156	0x3f1199ab	0.56875104
157	0x3e3fee0b	0.1874315
158	0xbde6b090	-0.112641454
159	0x3f50c276	0.81546724
160	0x3cb90add	0.022588188
161	0x3f0d1bdf	0.5512065
162	0x3e5b32b6	0.21406063
163	0x3ddb6aa5	0.107137
164	0x3e928840	0.28619576
165	0x3c8ba430	0.017046064
166	0x3ea75ca4	0.32687867
167	0x3e4ab7c9	0.19796671
168	0x3ebbd4ac	0.36685693
169	0xbe6449e1	-0.22293808
170	0x3f1691d0	0.5881624
171	0x3b3d96fe	0.002892911
172	0x3f1233d1	0.57110316
173	0x3e97156f	0.2950854
174	0xbe62bca0	-0.22142267
175	0x3e84d287	0.2594187
176	0xbe1433e7	-0.14472924
177	0x3f059b2d	0.52189904
178	0x3ef76d00	0.48325348
179	0x3e2a8de6	0.16655692

lstm.bias_hh_l0_reverse f4 [180]
0	0xbe271f13	-0.16320448
1	0x3cc8956a	0.024485309
2	0xbebbbfc0	-0.3666973
3	0xbd2efc62	-0.04272116
4	0xbf074c0b	-0.5285041
5	0xbe20a37f	-0.15687369
6	0xbe84ac03	-0.25912485
7	0xbddea3e8	-0.108711064
8	0x3c125609	0.008931645
9	0xbe53260b	-0.20619981
10	0x3bce09e1	0.0062877988
11	0xbe8dba48	-0.27681184
12	0xbe111b7b	-0.14170639
13	0xbe1fc0ee	-0.1560094
14	0xbe711164	-0.2354179
15	0x3e3d999b	0.18515627
16	0xbe6ee670	-0.23330092
17	0xbf0157e4	-0.50524735
18	0x3ef2a445	0.47390953
19	0xbea5eff8	-0.32409644
20	0xbed0d0bc	-0.40784252
21	0xbe3897f4	-0.18026716
22	0xbe11c872	-0.1423662
23	0xbeb4df06	-0.35326403
24	0xbe3d5569	-0.18489613
25	0xbec8b30a	-0.39199096
26	0x3e6d971e	0.23202178
27	0xbe8e62e3	-0.2780982
28	0xbeb06e6f	-0.34459254
29	0xbe74d6e0	-0.23910093
30	0xbe0a7259	-0.13520183
31	0xbeaeabd6	-0.34115475
32	0xbd7e7cbe	-0.062130682
33	0xbec58241	-0.38575938
34	0xbdf0a008	-0.117492735
35	0xbedfd6ac	-0.4371847
36	0xbf2a229e	-0.6645907
37	0xbd7ad2f0	-0.061236322
38	0xbdede7f3	-0.116165064
39	0x3f88909e	1.0669134
40	0x40150a41	2.3287508
41	0xbf23b511	-0.6394816
42	0x3f3ea61c	0.7447221
43	0x3e33e56c	0.17567986
44	0xbf04ad79	-0.518272
45	0x3eb17f9e	0.34667677
46	0x3ee5676d	0.4480547
47	0x3f41dcda	0.7572762
48	0x3f12a9f4	0.5729058
49	0x3ece0322	0.40236765
50	0xbde9c1e5	-0.114139356
51	0xbe41296b	-0.18863456
52	0x3f415186	0.7551502
53	0x3e673ced	0.22581835
54	0x3ef650cc	0.48108518
55	0x3f0a6789	0.5406423
56	0x3ec7b4bb	0.39005074
57	0x3f381048	0.71899843
58	0x3e8566b7	0.26054928
59	0x3eba9a75	0.36445966
60	0x3e8fbc8e	0.28073543
61	0x3e8cc32e	0.2749266
62	0x3f13afcf	0.5769014
63	0x3eb02dd1	0.34409955
64	0x3f1ed120	0.6203785
65	0x3e6d6660	0.23183584
66	0x3e9b85cb	0.30375513
67	0x3ed7583d	0.42059508
68	0x3ca68552	0.020327244
69	0x3f3291f4	0.69753957
70	0x3f333369	0.7000032
71	0x3ec87719	0.39153364
72	0x3f07e286	0.5308002
73	0x3f15b9ef	0.5848684
74	0x3ed34aaa	0.41267902
75	0x3f11cdcc	0.56954646
76	0x3ecd3651	0.40080503
77	0x3e1406ca	0.14455715
78	0x3ec30379	0.38088587
79	0xbe8e484c	-0.27789533
80	0x3f289f19	0.65867764
81	0x3e0fad95	0.1403106
82	0x3f0d33f1	0.5515738
83	0x3eb5e0b4	0.35522997
84	0x3f35c010	0.7099619
85	0x3fe8d523	1.8190044
86	0x3ed29355	0.4112803
87	0x3f7899ac	0.97109485
88	0x3ea9b3da	0.33145028
89	0x3df4f0fc	0.119600266
90	0xbe263aa4	-0.16233307
91	0xbf0f984c	-0.5609176
92	0x3cceeabd	0.025258416
93	0xbd966912	-0.07344259
94	0x3d9e0f50	0.077177644
95	0x3d1de072	0.038544126
96	0xbca30617	-0.019900365
97	0x3d39e12b	0.045380753
98	0x3e8fa471	0.28055146
99	0xbd27d690	-0.040976107
100	0x3e20e97f	0.15714072
101	0x3df81d1b	0.121149264
102	0x3f0257e3	0.50915354
103	0xbefe267e	-0.49638742
104	0x3c012c33	0.007884073
105	0x3e22caf1	0.15897729
106	0x3f2f6076	0.6850656
107	0x3cc23651	0.02370754
108	0xbf2e116f	-0.6799535
109	0x3e13d3d6	0.14436278
110	0xbe0d706b	-0.13812415
111	0xbd26fef7	-0.040770497
112	0x3f08d401	0.5344849
113	0xbe2285e0	-0.15871382
114	0x3e8bc04e	0.27295154
115	0xbbcfd880	-0.0063429475
116	0xbf041c29	-0.5160547
117	0xbeab5d82	-0.33469778
118	0x3e2a3ae3	0.16624026
119	0xbe8a3a17	-0.26997444
120	0xbe0a2299	-0.1348976
121	0x3dbe258b	0.092845045
122	0x3ead5f3b	0.33861718
123	0xbe371abe	-0.17881295
124	0x3eb05239	0.3443773
125	0x3ea6575e	0.3248853
126	0x3e7b2f69	0.24529804
127	0x3d840f25	0.06448201
128	0x3d9d3dda	0.07677813
129	0xbeed69ac	-0.46369684
130	0x3feb59c4	1.8386769
131	0xbe4c072b	-0.1992461
132	0x3d39a52a	0.04532353
133	0x3b8fde73	0.0043905317
134	0xbe3a120b	-0.18170945
135	0x3db3f5b7	0.08787101
136	0x3e0632f4	0.13105375
137	0xbded495a	-0.11586256
138	0x3e7b4207	0.24536906
139	0xbdf0b804	-0.11753848
140	0x3c481348	0.012211628
141	0xbe198296	-0.14991221
142	0x3e4d6c13	0.20060758
143	0x3cf14d4b	0.029455801
144	0xbba29e96	-0.0049627526
145	0x3ecb0152	0.39649445
146	0x3e726253	0.2367032
147	0x3f23c06a	0.63965476
148	0x3f358cbd	0.70917875
149	0x3e04ef20	0.12981844
150	0x3e88d15d	0.26722232
151	0xbd8fbce2	-0.070184484
152	0x3dbbc28f	0.091679685
153	0x3edef0af	0.43543002
154	0xbde0a176	-0.10968296
155	0x3d5a4b9d	0.053294767
156	0x3efcc026	0.49365348
157	0x3ea022a6	0.31276435
158	0xbe47bb25	-0.19504984
159	0x3f629249	0.88504463
160	0x3e669fa7	0.2252184
161	0x3f221af0	0.63322353
162	0x3c59dd9b	0.013297464
163	0x3daf01ee	0.0854529
164	0x3da3ff28	0.080076516
165	0x3e2ad9dc	0.1668467
166	0x3efbba0e	0.49165386
167	0x3eaed87a	0.34149534
168	0x3e6acaa7	0.22928868
169	0x3d0ef086	0.03489735
170	0x3f4f4120	0.8095875
171	0xbcfed872	-0.031109069
172	0x3f0b8b16	0.54509103
173	0x3e3aea2e	0.18253395
174	0xbe8e30e9	-0.2777169
175	0x3ea3191f	0.31855103
176	0xbe7c215d	-0.24622102
177	0x3ee6a693	0.4504896
178	0x3e90ed18	0.28305888
179	0x3dff4440	0.124641895

fc.weight f4 [1, 90]
0	0x400f06bb	2.2347858
1	0xc0081df2	-2.1268277
2	0x400ec6f1	2.2308924
3	0x4005cd89	2.0906699
4	0x400b6ab2	2.1783872
5	0xc009ff54	-2.156209
6	0xc004e791	-2.0766337
7	0x400b45d9	2.1761382
8	0x3fefee3a	1.8744576
9	0xc0073797	-2.112768
10	0xc00d4d08	-2.2078266
11	0x400c3d82	2.1912541
12	0xc00dadf6	-2.2137427
13	0xc008934b	-2.13399
14	0xc00a9329	-2.165232
15	0xc00d8176	-2.2110267
16	0x400ce230	2.2013054
17	0xc00a44cc	-2.160449
18	0x400dbdee	2.2147174
19	0x400e2d78	2.2215252
20	0x400b8be5	2.1804135
21	0xc007d903	-2.1226203
22	0x400dadc0	2.2137299
23	0xc00c7f47	-2.1952684
24	0x400ddc1c	2.2165594
25	0xc00a81fb	-2.1641834
26	0x400ae8ce	2.1704593
27	0xc005e5ce	-2.0921512
28	0xc009bfa0	-2.1523209
29	0x4006ea42	2.108048
30	0xc00e7c4b	-2.2263362
31	0x400c0796	2.187963
32	0x400673df	2.1008222
33	0xc00b5517	-2.1770685
34	0x40043606	2.0657973
35	0x400956b2	2.1459165
36	0x4008a141	2.1348422
37	0x400cf1bf	2.202255
38	0x40093653	2.1439407
39	0xc00a4c1e	-2.1608958
40	0x40081fca	2.1269403
41	0x400ddde5	2.2166684
42	0x40064a3e	2.0982814
43	0xc00bbdcc	-2.1834593
44	0xc0099eb1	-2.1503108
45	0x40afe28d	5.496405
46	0xc1338560	-11.220062
47	0xc0605aaf	-3.505535
48	0xc0db742c	-6.857931
49	0xbe9f1f0d	-0.31078377
50	0xc1033fae	-8.203047
51	0xc0baeed0	-5.841652
52	0x40cb22fa	6.3480196
53	0x40e192bb	7.0491614
54	0xc0d84112	-6.757943
55	0xc0d62010	-6.691414
56	0x40a15009	5.04102
57	0x3fecc180	1.8496552
58	0x411fd8cd	9.99043
59	0xc0aa365d	-5.319136
60	0x40d687c6	6.704074
61	0xc14ac6ab	-12.673503
62	0xc0f878a2	-7.7647257
63	0x41268483	10.4073515
64	0xc1051e50	-8.3199005
65	0x40d4c63b	6.649198
66	0xc10778a7	-8.466956
67	0xc186f5d4	-16.870033
68	0xbed3dc51	-0.41379026
69	0xc0c8d1e5	-6.275622
70	0xc0aba3f7	-5.3637652
71	0xc00edce6	-2.2322326
72	0x4153bf03	13.234134
73	0x4062ee4f	3.5457952
74	0xc0bfed82	-5.9977427
75	0x408e0ef3	4.439325
76	0x40a5b75e	5.1786337
77	0x402250e4	2.5361872
78	0x40bc0431	5.8755116
79	0x40eed554	7.463541
80	0xc1242733	-10.25957
81	0xc1397194	-11.590229
82	0xc097aeb2	-4.740075
83	0x40a4f3a0	5.1547394
84	0x410dca61	8.861909
85	0xc0886b87	-4.263126
86	0x413f5d48	11.960274
87	0xc08b6209	-4.355717
88	0xc12344ac	-10.204266
89	0x4030365a	2.7533174
